tfg/models20250213095528/model_25.pt (torch, 819338 bytes, 36 tensors)

node_encoder.lins.0.weight f4 [64, 7]
00000000: 919c 1e3c b727 30bd ea49 1ebe cf68 3fb7
00000010: eb37 94bc 7ec7 b3bc ef9b 76bd 5e1e 5d3d
00000020: 780f bbbd 973b 7ebd c7a1 b53b 265d 45bd
00000030: 11f8 843c 8f6e c33c 8130 c9bd 6811 cabd
00000040: e667 57be e7df 213c 32ba 87be 2e6d 21bc
00000050: fe99 aebd d9a7 b0bd 62c3 233d daa9 c53d
00000060: f743 1dbb b1d3 593d 1374 9fbc d273 1ebd
00000070: 0834 5ebc f14d f7bb 02d0 c2bc 4e78 5f3e
00000080: 1709 02be 86ae f0be d4e3 e4be 7a3e 443d
00000090: 9e2e 02bd 4735 6bbd 84d9 9fbd 5167 c03e
000000a0: 7b6b d23e c0a4 53be 6a9a 043d 5618 893d
000000b0: 8570 1e3e ec75 82bb f677 32bd 20f1 d83d
000000c0: afed 7bbc 1b04 edbd 0fbe 3ebe ba44 92be
000000d0: e51b 30bc 2f3e 62bd e53b 10be 8586 afbd
000000e0: a0e7 dabc 7102 a93d fd9d 143c 4bad 88bc
000000f0: 4f80 453e 700b 87be 310f 9c3d d6bc 6cbd
00000100: 1cba a23d 0951 163d 0203 3a3c a21f 91be
00000110: e72d a5be b68f 65bd 1ed8 113e 1594 8a3d
00000120: b428 4a3e 0066 523c 1e71 e1bb f67c ec3d
00000130: 7ebd 67be b6e4 f23d b062 413e 1631 e8bd
00000140: 95eb 66bb 12ca 953d af8f 063c ddcd 60be
00000150: 2cbc 8f3d 419f 033e 1d9e 3abe e972 6d3b
00000160: 83cd 94bd 9b4d 073c 7406 acbd 24a1 683d
00000170: 65dd e63d 54e2 4f3e 3af8 843b ab89 313d
00000180: 4816 31be bb53 34be 078f c0bd b5df 163d
00000190: 95dd 143e bd1e 343b fe82 a53d 58e7 693e
000001a0: 26f4 283e 02ec f13c edab 813c 21c1 d53d
000001b0: c0b8 963c 5089 b7be 456e 40bd 42aa 58bd
000001c0: 97e8 a8bd 1fc1 1abe 03da c5bc ba8d cc3b
000001d0: 9b82 3d3d 6cfd 1ebd 357a 3cbd 6d2c 043e
000001e0: 0d45 d43d ad19 47be 5dc7 a33b c021 2bbe
000001f0: 9df6 313e 390e d2bd 286d b63d 51d4 533a
00000200: d942 613d 63ce 5b3a ca6e 99ba 360a 63bc
00000210: 25a2 bfbe ea92 85bd a01c 493d 1d50 bd3d
00000220: 135d 0a3d a707 ddbc a4a6 be3e e66e a23e
00000230: eecc 4c3d 0767 083c 2626 4f3d ad9c a3bd
00000240: 0aae f83e 5f7c 7fbe 7da3 913e 194a 313d
00000250: 98d5 99bc 9239 de3d 4f40 5fbb 8b09 f2ba
00000260: e9b0 113d c4da fdbc 4b52 ca3b 83dd 8ebc
00000270: 8dc1 ffbd 36bb 203c 4762 20be 7c7d ab3e
00000280: 453e b9be 552a 893c 7a1c 1bbc 0f89 88bd
00000290: 46eb f5bc 4461 b13e f61b ad3e 6222 c13e
000002a0: 5df8 17bd f88c 963c 067c 91bd bff3 9a37
000002b0: 04d3 e83b 22ea 17bc c391 123c 9614 36bb
000002c0: d9d7 393d 76e9 803a 34ab 193e 9db7 a6be
000002d0: a764 9c3e dc86 c3be 0fdb f8bc 3d61 aabd
000002e0: 46ec 053e 96f1 05bb 1ed9 883d bbae 48bd
000002f0: 4d1d 4d3c 7dc9 b7bd 0139 d53d 9bd3 593e
00000300: 5962 303c ac11 a33d df2a 3a3d 7af9 33bd
00000310: d8aa f73a b629 43bc c151 a9bc 25cc 133e
00000320: 0144 d13e b3d5 a3be d085 003d 8793 c73c
00000330: a5c7 83bd 715c b63d fc1e 27bb afb8 83bc
00000340: d00b 283e 15cd 89be c0d0 bf3c 51c5 1d3d
00000350: 934e 78bd d46a 283d 6383 aebe 7955 b2be
00000360: 4818 d73e f6ce 503d ae3f ee3c 1eb8 673d
00000370: 5ec8 043d 5cdc 6c3e b669 c23e 0b32 9cbe
00000380: ea7b a0bd 809c 693d 4d38 b73d fc69 20ba
00000390: 2c45 893b ef5f b7bb c222 b53b abb7 b83d
000003a0: 8a51 82bc 7066 af3d 240b 2c3c a8b5 55be
000003b0: cce9 fabe 89e8 97be 5967 053e 9d89 91bc
000003c0: 9da2 823d 7e7b 573c d1a0 78be 4b37 273e
000003d0: bf49 853d 9b21 57bd 2999 82bc 888f 83bd
000003e0: 34e6 38bc 5aa4 f73e bd42 ae3e d9a0 c1be
000003f0: a554 04be 3735 2fbe e0ce ed3d f15e 97bb
0.009680883 -0.043006625 -0.15457883 -1.140889e-05 -0.01809307 -0.021945711 -0.060207304 0.05398404
-0.0913381 -0.062068548 0.005542967 -0.048184536 0.016231569 0.02385643 -0.098237045 -0.09866601
-0.21035728 0.009880043 -0.26509243 -0.009852691 -0.085254654 -0.086257644 0.039981253 0.09651537
-0.002399681 0.0531804 -0.019464528 -0.038684674 -0.01356221 -0.007547133 -0.023780826 0.21823236
-0.1269878 -0.4700815 -0.4470507 0.047911145 -0.03178274 -0.057423856 -0.0780516 0.37578824
0.41097626 -0.20668316 0.032373823 0.06694095 0.1547261 -0.0039813425 -0.043571435 0.10592866
-0.015376492 -0.11573049 -0.18627189 -0.2856806 -0.010748838 -0.055235084 -0.14085348 -0.085705794
-0.026721776 0.08252419 0.0090708705 -0.016684195 0.19287227 -0.26375914 0.07620085 -0.057797275
0.07945654 0.036698375 0.011353256 -0.28344446 -0.32261583 -0.056045257 0.14242598 0.06766526
0.1974209 0.0128417015 -0.0068799397 0.11547272 -0.2263088 0.118600294 0.18885303 -0.113374874
-0.0035235633 0.073139325 0.008212968 -0.2195353 0.07018313 0.1285372 -0.18224378 0.0036231822
-0.07265761 0.008258249 -0.08399668 0.0567943 0.112726964 0.20301181 0.004057911 0.04334418
-0.17293656 -0.17610066 -0.0940228 0.036834437 0.14537652 0.0027484142 0.080816254 0.22842157
0.16499385 0.029531483 0.01582905 0.10437227 0.018398643 -0.3584695 -0.04698016 -0.052896746
-0.08247488 -0.15112732 -0.024151808 0.006242481 0.046267133 -0.0388159 -0.046014983 0.12907572
0.10364733 -0.19443388 0.004998131 -0.16712093 0.17379232 -0.10256619 0.08907539 0.0008080649
0.05499539 0.0008384941 -0.0011705991 -0.013857415 -0.37428394 -0.06522162 0.049099565 0.09243796
0.03378017 -0.026981188 0.37236512 0.31725234 0.050000124 0.008325345 0.05057349 -0.07988868
0.4857028 -0.24949788 0.28445044 0.043283556 -0.018778607 0.108508244 -0.003406543 -0.0018465979
0.035569105 -0.030988105 0.006174361 -0.01743961 -0.12488089 0.00981026 -0.1566249 0.33494174
-0.3618032 0.016743818 -0.009467239 -0.06666767 -0.030019414 0.3464452 0.33810395 0.37721545
-0.037102092 0.018377766 -0.07103734 1.8471734e-05 0.007105233 -0.00927213 0.008945885 -0.0027783266
0.045371864 0.0009835202 0.15006715 -0.3256196 0.30545542 -0.38188827 -0.030377893 -0.08319328
0.13078412 -0.0020438186 0.06682037 -0.04899476 0.012519193 -0.08973978 0.10411263 0.21272127
0.010765635 0.07962355 0.04545104 -0.04393909 0.001889552 -0.0119118 -0.020668866 0.14433344
0.40872195 -0.31998977 0.031377614 0.024362339 -0.064345635 0.089043505 -0.0025500646 -0.016079275
0.16410756 -0.26914278 0.02341497 0.038518254 -0.06062181 0.041117504 -0.34084615 -0.34830835
0.42010713 0.050978623 0.0290831 0.056572072 0.032417648 0.23130935 0.37971276 -0.3050693
-0.07836135 0.057034016 0.089462854 -0.00061193085 0.004189154 -0.005596153 0.005527825 0.09019407
-0.015908021 0.0856446 0.010500703 -0.20870078 -0.49006498 -0.29669598 0.13027705 -0.017765814
0.06378672 0.013152001 -0.24280097 0.16329686 0.065082066 -0.052522283 -0.015942173 -0.06423861
-0.011285353 0.48367578 0.34035292 -0.3781803 -0.12922914 -0.17110144 0.11611724 -0.004619472

node_encoder.lins.0.bias f4 [64]
00000000: 3bea 0435 986b 1237 1fb3 d4b6 bc4c d5b4
00000010: d68e b1b7 c458 c0b6 9cff 0235 159c 2637
00000020: ca72 0fb7 a293 b4b6 330b 3830 0169 c435
00000030: a8b0 c8b4 c1fe 17b6 52b1 2635 c3a5 1837
00000040: 71f8 e4b5 8bf6 9736 ef95 fcb6 fb62 a136
00000050: 7cf1 be37 3f32 f4b4 8f06 32b7 0543 9db7
00000060: a635 74b4 a564 8d37 65b7 ae33 7d4a 98b6
00000070: c48a b4b6 10e2 1836 ddb5 1837 c6cd b337
00000080: 4d08 5e33 f77e 1a38 6cc5 1037 1b63 ffb6
00000090: 4b67 d9b3 5ec8 4eb6 80a6 0037 c279 0d35
000000a0: d246 1c37 5c3d aab7 5a3f f6b2 959e 1537
000000b0: 4165 ed36 ea5d 5437 a6c8 f7b7 1f33 f0b2
000000c0: 9f57 24b7 6441 59b7 d1df 57b8 6163 adb6
000000d0: d1b9 00b5 0ca4 2738 23e8 55b5 24e7 4bb4
000000e0: a1f9 1335 f918 dd35 419c 12b7 8375 9d35
000000f0: c8a9 75b5 1ba2 cbb7 5614 90b6 6755 59b6
4.951468e-07 8.727329e-06 -6.338945e-06 -3.9730173e-07 -2.1166557e-05 -5.7323796e-06 4.8800734e-07 9.930712e-06
-8.550191e-06 -5.3816048e-06 6.6954725e-10 1.4633698e-06 -3.7381437e-07 -2.264904e-06 6.2097854e-07 9.0985e-06
-1.705963e-06 4.528852e-06 -7.52764e-06 4.8096967e-06 2.2762215e-05 -4.54851e-07 -1.0611154e-05 -1.8747067e-05
-2.2743788e-07 1.6855376e-05 8.135866e-08 -4.5386246e-06 -5.3805725e-06 2.278135e-06 9.102249e-06 2.1434284e-05
5.1695952e-08 3.6834706e-05 8.629035e-06 -7.6111296e-06 -1.0123639e-07 -3.081302e-06 7.668161e-06 5.2703774e-07
9.314814e-06 -2.0294152e-05 -2.8666978e-08 8.918015e-06 7.074938e-06 1.2658051e-05 -2.9538129e-05 -2.7962924e-08
-9.795563e-06 -1.2949433e-05 -5.146844e-05 -5.167371e-06 -4.7954114e-07 3.9968683e-05 -7.9686487e-07 -1.8989937e-07
5.5125025e-07 1.6473051e-06 -8.738659e-06 1.1731612e-06 -9.1516677e-07 -2.4274972e-05 -4.293902e-06 -3.238523e-06

node_encoder.lins.1.weight f4 [128, 64]
00000000: 16b5 b93b e292 13bc 3d00 e9bc 4a16 f33b
00000010: 8b20 203d 9007 9bbc 6f82 e2bc cc86 753b
00000020: b65f 753d 5bd0 0b3c 4de5 1cbc 44ed 33bd
00000030: 92d9 8abc acad 0a3c c66b c33c dd9f 16bd
00000040: d4ad 493c c93e 7ebd c262 12bd b70e 5fbc
00000050: a80a ea3d 0ce4 9fbc 855b 9dbd 9020 ee3c
00000060: d835 763c 513c 98bd 9a55 133b 43e3 c93c
00000070: 45c4 2e3e 4793 07bd 5bfc 633c 4b76 e7bc
00000080: e3cf ba3b 02b3 c13c 2168 56bd 0bb8 af3c
00000090: 45db 433d e793 a4bc fe4d f33c a116 a33c
000000a0: f5b6 0e3d dbbb 16bc 4a1a 25bb 81be c63a
000000b0: 541d 4a3c de7c c0bd 3f38 78bd f1b7 5dbc
000000c0: a455 39bb 9d7c 83bd cc27 163d d1db cabc
000000d0: 3c11 8ebc 7b8c 0d3e ee8b d6bc 6169 31bc
000000e0: 96ce 7cbb 13e1 60bc 2250 383c ea86 103d
000000f0: 2936 7bbd 83e3 1a3d f687 cdbc 629f b53b
00000100: c75a 2435 074e 0235 cbf8 8b36 f3b7 93b4
00000110: 7893 3836 21e6 e1b6 66ca a6b5 876a c636
00000120: 1b42 42b6 251b d4b5 89e5 b4b5 c47a b7b6
00000130: 8f15 61b5 7b8a 57b6 acb9 7eb5 e683 cb35
00000140: 64a2 b835 6599 78b5 e3fa 5135 df19 02b6
00000150: d2f5 29b5 2efb 7cb3 0885 b034 456a c7b6
00000160: 7a50 9133 3fb7 6ab8 8376 22b3 aff4 cbb5
00000170: 9a8d 2538 1875 8f35 b895 c536 50dc 02b7
00000180: 5d3f 2cb4 2a62 8936 b64f 4536 4b56 c8b7
00000190: 7d53 f135 219b 01b6 2aa9 03b5 bdd9 1235
000001a0: ff39 95b6 f16d 5db7 98ad 9ab2 818f 92b7
000001b0: ea11 f4b4 91cf 8537 16f2 e837 357d d834
000001c0: 2643 d536 d897 ad36 dbc3 a637 f165 3137
000001d0: 4fbc 5432 3114 5d38 5031 6cb6 e8f3 08b3
000001e0: bc00 e233 a5f9 f6b4 3be4 8036 faa4 d935
000001f0: f2dc a636 b9ca fa37 9803 2836 e857 3bb1
00000200: e87f f93a c6bd 273b e0b1 203d 5f34 3b3b
00000210: 68a9 003e 634a c2bc b0ca 663b d440 643c
00000220: 9597 0dbd 768a 2a3c 079b 553c f630 913c
00000230: 0042 0c3c e1bd 983b 1b20 eabc 4258 1f3d
00000240: d496 333c 8270 7a3c 5d29 2f3d 583a 70bd
00000250: 1c27 d6bd 17c6 813c 7a4a 943d 540f dbbd
00000260: 1121 1dbc 8c5d c93d 9b67 953b 86e5 7dba
00000270: 6ad7 edbc 4367 1f3d f987 febc 2ed8 c23c
00000280: 54d2 c93a d36c 923d 5ac5 8d3c 045c 613c
00000290: c109 7dbb a936 933c 6af5 a0bc e0dd 013c
000002a0: 1ccf 6fbd 7814 c63c 2ad9 c1ba 29f1 a2bc
000002b0: ae30 ae3c 6438 633d 8e57 febb ceee d93b
000002c0: 9ad6 fdbc 1c28 693d 186f 873d 0d5e 1a3d
000002d0: eb0d ee3b e928 d3bd 16ff edbb 9d4c 913c
000002e0: da81 c7bb 0b95 05bc 8ab9 a8bc e354 94bd
000002f0: 8c40 84bc 3ffa 88ba 9013 ef3c 5922 a33c
00000300: df16 073c c0bf d03b 4e49 643b d868 0ebc
00000310: a522 3b3d aa37 c73c 9059 05bc df99 223c
00000320: 1b3e 85bb d80c 81bc 007f e8bb fd95 903c
00000330: 1782 823c ff26 f5bb 3ee8 cfbc 4825 15bc
00000340: a31f f83a 0ec5 af3c 07ae 6dba 53ee cabc
00000350: 2c00 1ebc 2274 92bb f36d dc3c 0603 043d
00000360: 7108 d63a f697 1c3b 7d12 45bc 1a6b 8abc
00000370: 7517 033d 9aba 3abc ce26 3f3d 4382 1cbd
00000380: ce33 dabb b9bb 3abc d61e 003b c53b a63c
00000390: 0a41 8abb 2227 c6bb 0f5c c1bc 0874 ef3c
000003a0: 1689 c0bc 01a4 e03c 1806 6f3a 96ca 5e3c
000003b0: a333 39bc dfb4 bcbc c100 ef3c 3e18 753c
000003c0: ca56 953c 054c ad3c 9131 edbc ff8b 08bc
000003d0: 126e 8f3c 562a 6a3b b1ac d33c 0d17 103c
000003e0: 49cd 673c d526 dc3b 750a c33b 1e51 c93c
000003f0: 212c d73c fbf3 913c 67eb 783c b103 eebb
0.005667339 -0.009007188 -0.028442496 0.0074184285 0.039093535 -0.018924505 -0.027650086 0.0037464378
0.05990573 0.0085335625 -0.009576154 -0.043927446 -0.016949449 0.008464258 0.023855101 -0.03677355
0.01230951 -0.062071595 -0.035738714 -0.013614348 0.11427814 -0.01951792 -0.076834716 0.029068261
0.015027486 -0.074333794 0.0022481442 0.0246445 0.17067058 -0.03309944 0.013915147 -0.028254649
0.0057010516 0.023644928 -0.0523454 0.021450063 0.047816534 -0.020090057 0.029700276 0.019908251
0.03484245 -0.009200062 -0.0025192671 0.0015162976 0.012336094 -0.093988165 -0.060600515 -0.013532625
-0.0028279806 -0.064202525 0.036659047 -0.02476302 -0.017342202 0.1382312 -0.02618977 -0.010828347
-0.0038575283 -0.013725537 0.011249574 0.035284914 -0.061330948 0.03781463 -0.025089245 0.0055426816
6.122686e-07 4.854232e-07 4.171486e-06 -2.7514724e-07 2.7503975e-06 -6.732313e-06 -1.242687e-06 5.9132612e-06
-2.8946731e-06 -1.5803131e-06 -1.3477849e-06 -5.468117e-06 -8.3850404e-07 -3.2118103e-06 -9.489256e-07 1.5163066e-06
1.375633e-06 -9.261042e-07 7.8223655e-07 -1.9386569e-06 -6.331512e-07 -5.890177e-08 3.2879348e-07 -5.9430336e-06
6.766727e-08 -5.596061e-05 -3.782635e-08 -1.5195891e-06 3.9470942e-05 1.0688409e-06 5.888487e-06 -7.799899e-06
-1.60418e-07 4.094346e-06 2.9401685e-06 -2.3882041e-05 1.7980198e-06 -1.9312795e-06 -4.904747e-07 5.470609e-07
-4.4472977e-06 -1.3198224e-05 -1.80069e-08 -1.747138e-05 -4.5461576e-07 1.5951491e-05 2.7769285e-05 4.0324235e-07
6.355712e-06 5.1734787e-06 1.9879944e-05 1.0573757e-05 1.23828405e-08 5.270931e-05 -3.5195444e-06 -3.18868e-08
1.0524079e-07 -4.600271e-07 3.841267e-06 1.6215774e-06 4.972907e-06 2.9896722e-05 2.5036043e-06 -2.726205e-09
0.0019035311 0.0025595292 0.039232135 0.002856515 0.12564623 -0.023717111 0.0035216026 0.013931472
-0.034568388 0.010408988 0.01303745 0.017723542 0.0085606575 0.004661307 -0.028579762 0.03890253
0.010961253 0.015285613 0.042764056 -0.05864939 -0.10456678 0.015841527 0.07240768 -0.10696283
-0.009590403 0.09832296 0.00455947 -0.0009685386 -0.029033381 0.038916837 -0.031070696 0.023784723
0.0015397766 0.07149663 0.017306019 0.013754848 -0.003861055 0.0179704 -0.019648273 0.007926434
-0.058547124 0.024179682 -0.0014789451 -0.019890385 0.021263447 0.0554737 -0.007761902 0.006650782
-0.030986119 0.056923017 0.06612986 0.03768735 0.0072648427 -0.10310537 -0.0072630746 0.017736727
-0.0060884776 -0.00815321 -0.020596284 -0.07242753 -0.01614406 -0.0010450556 0.029184133 0.01991384
0.008245199 0.0063705146 0.0034833732 -0.008691989 0.045687336 0.024318535 -0.008139029 0.009924381
-0.0040662414 -0.015753195 -0.0070952177 0.017649645 0.015931172 -0.0074814553 -0.025379296 -0.009103127
0.0018930327 0.021456268 -0.00090667646 -0.024771845 -0.009643596 -0.0044694105 0.026907897 0.032229446
0.001632942 0.0023894287 -0.012028334 -0.016896773 0.032004792 -0.011397028 0.046667866 -0.038210165
-0.0066590076 -0.011397296 0.001954963 0.020292172 -0.004219179 -0.0060471455 -0.023603467 0.029230133
-0.023502868 0.027421953 0.00091180345 0.013598105 -0.011303815 -0.023035465 0.029175164 0.014959393
0.01822986 0.021154413 -0.0289543 -0.008334159 0.01750854 0.00357308 0.025839182 0.008794558
0.014148065 0.0067184963 0.0059521743 0.024574813 0.02626616 0.017816534 0.015192843 -0.0072636236

node_encoder.lins.1.bias f4 [128]
00000000: 50b4 90b7 8439 2c36 1963 4336 6399 e8b4
00000010: 20f3 4834 9909 92b8 25a9 f3b6 f168 4a36
00000020: ca7c 6e31 aa68 4037 95f8 16b7 e830 0736
00000030: e992 dfb5 2009 3a36 7e32 2538 ecfb 17b6
00000040: b1e0 a0b7 f7cb 9937 7929 b2b9 da86 22b8
00000050: 4640 d0b4 c2ac 7ab7 8b0a 11b7 d53e 6cb6
00000060: c50f 9036 ae0c 9839 436e 0335 7fb6 26b7
00000070: a255 c3b7 8856 fbb5 6247 d737 dc4d cbb7
00000080: 799a 37b7 93b1 2436 b0b4 98b4 b49e d4b6
00000090: 4bc1 a9b9 70f9 6737 1c3b 8ab8 554c c2b7
000000a0: 1f31 a035 def9 c237 d472 1cb6 1aeb c037
000000b0: 5861 e537 0de6 18b8 8c4b 18b6 5af2 9637
000000c0: 1405 1bb7 cd28 adb7 4954 30b7 c1aa 28b0
000000d0: df7f 3bb6 6b27 1535 1429 8837 f016 2ab9
000000e0: 4d78 b134 51ae 29b7 26d3 b1b6 d6bf 79b6
000000f0: 545a 3fb4 c18f 1837 805a 0537 b6bf c7b0
00000100: b10f 8338 b32d b635 6224 a9b2 29fe b4b5
00000110: c344 9137 ef6e 00b7 2984 3db7 a0b4 fdb6
00000120: fd99 2ab7 d1bd b0b7 ca96 a836 12d2 dcb7
00000130: 70dc 8235 b51a 97b7 83a1 11b6 3abf f936
00000140: 1966 7737 31dc d436 741f 2cb8 0ff9 cab6
00000150: 4328 6b37 9f6a 4338 a72c ed34 768a 9e36
00000160: dd21 f737 16b4 dd37 991f a3b7 fbf9 6ab7
00000170: e0ae e4b5 15fd 5f35 d50b f037 af9e a936
00000180: 6071 ecb6 8a14 d8b7 b2a1 35b7 fd58 f637
00000190: 296a 8736 9829 20b5 e2b6 2437 89c9 ecb6
000001a0: 4c5f 8034 fa2e 0ab0 942d abb7 06de 21b8
000001b0: ad93 e637 de39 33b7 0f60 be36 ecb3 3eb6
000001c0: 2c72 73b6 ea69 6236 16aa 9937 2858 3eb8
000001d0: f438 4737 ce76 4535 b010 aa34 b70f bd36
000001e0: 960f 5cb7 9a88 0f30 8363 9937 a306 7334
000001f0: 1c28 bb2c 8a8d edb7 9e26 bdb6 2f68 c135
-1.7250102e-05 2.5663476e-06 2.9114947e-06 -4.332497e-07 1.87149e-07 -6.96361e-05 -7.2616554e-06 3.016143e-06
3.4704493e-09 1.1468461e-05 -8.998574e-06 2.0145035e-06 -1.6657551e-06 2.7721471e-06 3.938609e-05 -2.2647391e-06
-1.9178116e-05 1.8334e-05 -0.00033981705 -3.87494e-05 -3.8789784e-07 -1.49413845e-05 -8.645128e-06 -3.5203313e-06
4.2933702e-06 0.00029001146 4.8961755e-07 -9.936862e-06 -2.3285687e-05 -1.8726141e-06 2.5663237e-05 -2.4235742e-05
-1.0943616e-05 2.4541266e-06 -2.8443674e-07 -6.336568e-06 -0.00032378206 1.382675e-05 -6.591363e-05 -2.3162147e-05
1.1935225e-06 2.3242956e-05 -2.331265e-06 2.2997661e-05 2.7344257e-05 -3.6453876e-05 -2.269374e-06 1.7994247e-05
-9.239902e-06 -2.0642206e-05 -1.0510042e-05 -6.13607e-10 -2.7939602e-06 5.5564186e-07 1.6231592e-05 -0.00016221008
3.305635e-07 -1.0113771e-05 -5.299592e-06 -3.7215555e-06 -1.7821122e-07 9.093376e-06 7.948489e-06 -1.4533643e-09
6.2494895e-05 1.3573357e-06 -1.9690734e-08 -1.3485015e-06 1.7317367e-05 -7.655223e-06 -1.1296049e-05 -7.561015e-06
-1.0168643e-05 -2.1069225e-05 5.0243443e-06 -2.6323865e-05 9.74991e-07 -1.801304e-05 -2.1700696e-06 7.44304e-06
1.4746119e-05 6.343726e-06 -4.103729e-05 -6.0490634e-06 1.4016466e-05 4.659092e-05 4.417718e-07 4.724886e-06
2.9460463e-05 2.6429112e-05 -1.9445828e-05 -1.400569e-05 -1.7038219e-06 8.3442256e-07 2.861574e-05 5.0550657e-06
-7.0465467e-06 -2.575877e-05 -1.0826088e-05 2.9366924e-05 4.035672e-06 -5.966517e-07 9.8177425e-06 -7.05681e-06
2.3911196e-07 -5.0270865e-10 -2.0406012e-05 -3.8592167e-05 2.7486903e-05 -1.0682705e-05 5.673624e-06 -2.8416935e-06
-3.6276278e-06 3.3738274e-06 1.8318224e-05 -4.5381632e-05 1.1874585e-05 7.35611e-07 3.167711e-07 5.6344684e-06
-1.3116651e-05 5.221722e-10 1.828536e-05 2.2633553e-07 5.3193127e-12 -2.831851e-05 -5.6371346e-06 1.4409942e-06

node_encoder.lins.2.weight f4 [128, 128]
00000000: da3e 323c 99f0 98b8 0e44 1d3c 0bae 6f3c
00000010: 41a5 b53b 0fb1 bb3d 22fc 2bbc 131f 30bc
00000020: 3a3d f93a bdcc 443c c48b 653d 9cc3 473b
00000030: 477b 8db7 ca92 95ba 6b9b 883d fb85 8c39
00000040: 8c85 fdbd 61a9 263d 8d3f 23be e4c1 35bc
00000050: 3380 633d 8a63 713d 2b5c b63c 2c57 3a3d
00000060: 7b71 86bd 0ab5 a53d bd55 b23b fe12 553d
00000070: ca66 85bc 4b01 09bd ed36 68bd a81f 133d
00000080: f877 573d 5f3f 63bc 35e0 cfb9 d9a9 12bc
00000090: 2843 fabd bf11 103e 528d ddbd d498 83bb
000000a0: da49 e13c 1341 b73d 3d7f 883d 1e3d b9bc
000000b0: 5621 0e39 d87b 453d d27c 37bc 9e4a 4fbd
000000c0: 5933 96bd b662 9c3d e637 deba 36cf beb9
000000d0: 602e 36bd 8e59 9a3c c016 b6bd 0420 0d3e
000000e0: fb30 8cbb c414 6f3d 47e9 1d3e 70e6 6b3d
000000f0: 275c 9bbb d870 6a3d 4fbd a13a 6f19 5db5
00000100: b233 db3d 3af5 9abc bc2c daba a59d 153c
00000110: e10a 933d 325b 1cbc 9139 ddbc 68f2 813d
00000120: c14d a3bd 5e72 933d 6f2e 05bd 6a72 6f3c
00000130: 1d2c e03b 00f4 76bb 093e bb3c 39e9 5abc
00000140: bcce 063d 4658 cfbb c6d7 533e f069 d0bd
00000150: 6de7 c0bd 2758 b6bd 105b a8bc a33d 3e3d
00000160: 2df7 d0bd 78f1 033c 59e9 d4bd 843b c93b
00000170: 0936 b63a e51a 3839 6b6d 90bd 911c f5b8
00000180: 7b86 b13c c9db 5a3c 7f59 d8bc b47b f73d
00000190: 5435 60bd 50d3 66bc 6264 9c3d f9a4 a4bc
000001a0: e621 4038 9662 ad39 3747 803d c62b 1cb9
000001b0: 5470 7f3d c633 b33b c7d4 db3c 8581 4837
000001c0: d645 a4bd 5ead 973a b35f b6bd 1e5e c43d
000001d0: b957 00bc 7b9b 0ebc 6968 b7ba d0b9 3a3c
000001e0: edb8 46bd c74b 6aba e195 d73c f9c4 92b9
000001f0: a9d4 ec36 2ce6 3dbd 1c96 05bd 020f ab3b
00000200: 5300 12bd 5754 7837 ae51 a9bd 7d57 d9bb
00000210: 4ee5 363d b321 f63c abf9 22bb 3a59 c7bb
00000220: 7d34 99b9 e9db 843b 9dd6 c8bb 174f be3b
00000230: f199 0436 041a 8238 8d11 edbc f2f2 66b8
00000240: fd10 133e ae2c 39bd 2fd1 133c 6623 7b3d
00000250: 7e03 d3bd fe18 febb 9b4e 2d3d 1844 a43c
00000260: 21f7 c13d 0859 82bc 0643 b73b 0ca9 07bb
00000270: 4dc3 07bd bfb0 f73b bc93 0fbd f677 9b3c
00000280: f504 86bc c55e 4ebb 6c20 96b8 67b3 64bd
00000290: 075f 44bc 37d8 2339 a7c1 c73d bcf6 333c
000002a0: b1eb 34bd e04f 03be eba9 c5bc 3a73 2a3d
000002b0: bb2a bb37 428c c7bd 07d4 2ebd e56c 833c
000002c0: fcf6 93bd eb40 fabc a1fd 833c f9ea 71b7
000002d0: deba 6a3d d4a6 b63d d4b8 63bd 0e8a 30be
000002e0: 882d 1b3c 7773 fa3c 0c93 c9bc 20e3 473d
000002f0: 1d80 fcb9 1693 4a3b b9e4 2eba 5d95 8c32
00000300: 946f 00be e0b2 853b 9ad1 923a b055 b53b
00000310: 79d3 eabd 1956 bfbc d2f2 bcbc 1d01 8ebd
00000320: a487 96bb 06a5 533b 792b 89bc 9ff6 663b
00000330: c791 57bb 7b2a 903d 2aae 413c 2415 b4bc
00000340: 0b62 043d d6b1 1e3d 8a1d 20bd d6d5 8a3d
00000350: 5c0d 7a3c 7ff8 9bbc 2735 063a 4026 eebc
00000360: eb41 b93d 1d49 33bc ac9b 023e a9fe 6abd
00000370: 5321 0eb8 1f53 2938 a304 e73b a0d1 f03a
00000380: 5c3b 16bd 1189 a23d 9b01 eebb fc6b c3bd
00000390: 0edb d43d 1b66 b9ba ea03 333d 56be 49bc
000003a0: f38e 2136 2fa4 a637 0678 efbd 57b8 31b7
000003b0: 0227 82bd 93b7 58b8 95a4 8cbc a1d1 403a
000003c0: e36d 58bd 2371 993a 5e0c e73c 29e4 1b3d
000003d0: ced6 9e3c 4878 243c 8644 323c 51a8 d13a
000003e0: bf53 043e d669 5d38 1938 f63c 8d71 c337
000003f0: 08dc b136 86bf 41bd ea69 c6bc 8632 083c
0.010879243 -7.2927396e-05 0.009598745 0.014628897 0.0055433814 0.091646306 -0.010497125 -0.010749596
0.0019015439 0.012011704 0.056041494 0.0030481583 -1.6865915e-05 -0.0011411544 0.066702686 0.00026802704
-0.12378988 0.040688876 -0.15942211 -0.01109359 0.055542182 0.05893282 0.022260746 0.04549329
-0.065646134 0.08091171 0.0054423497 0.052020065 -0.016284365 -0.0334485 -0.056693006 0.03591886
0.052604645 -0.013870089 -0.00039649164 -0.008951628 -0.1221984 0.1406927 -0.1081797 -0.0040160213
0.027501035 0.08947959 0.06664894 -0.02261215 0.00013554594 0.04821381 -0.011199193 -0.05060827
-0.073340125 0.07636015 -0.0016953915 -0.00036394008 -0.04447782 0.018841531 -0.08891058 0.13781744
-0.0042783 0.058369413 0.1542102 0.05759281 -0.00474121 0.057236522 0.0012339744 -8.2365926e-07
0.107032195 -0.018915761 -0.0016645412 0.009131824 0.07179809 -0.009543227 -0.027004989 0.063450634
-0.07973815 0.07199548 -0.032514986 0.014614681 0.006841196 -0.0037682056 0.02285673 -0.013361269
0.032912 -0.0063276617 0.2068778 -0.10176456 -0.09419141 -0.089035325 -0.020551234 0.0464455
-0.10203395 0.008053176 -0.1039607 0.006141128 0.0013901602 0.00017557626 -0.0705212 -0.00011687831
0.02167057 0.013358065 -0.026409863 0.120841414 -0.054738358 -0.014088467 0.07636334 -0.020098196
4.5807938e-05 0.00033070584 0.06263583 -0.00014893626 0.062362984 0.0054688184 0.026834859 1.1951085e-05
-0.08021133 0.0011572053 -0.08904972 0.09588264 -0.007833415 -0.008704062 -0.0013992909 0.01139684
-0.048516203 -0.00089376833 0.026316585 -0.00027994046 7.058105e-06 -0.046362087 -0.03261386 0.005220295
-0.03564484 1.4801589e-05 -0.08267532 -0.006632744 0.044652276 0.030045366 -0.0024868052 -0.0060836347
-0.0002922154 0.0040545356 -0.0061290995 0.005807768 1.9759138e-06 6.203729e-05 -0.028939033 -5.5062534e-05
0.1436195 -0.045208625 0.009022041 0.061313055 -0.103034005 -0.007754444 0.042311292 0.020052
0.09470964 -0.015911594 0.0055927066 -0.0020700125 -0.033145238 0.0075589116 -0.035053 0.0189781
-0.016359786 -0.0031489593 -7.1585964e-05 -0.055835154 -0.011985547 0.00015625438 0.09753733 0.010984119
-0.044170085 -0.12823439 -0.024128875 0.041613795 2.2312035e-05 -0.09743549 -0.042682674 0.016043136
-0.07224843 -0.030548533 0.01611215 -1.4419428e-05 0.057307117 0.08918539 -0.055596188 -0.17240164
0.009471305 0.030572636 -0.02460625 0.048800588 -0.00048160637 0.0030910424 -0.00066716556 1.6366068e-08
-0.12542564 0.0040801615 0.0011201382 0.0055338964 -0.114661165 -0.023356484 -0.023065004 -0.06933806
-0.0045938063 0.0032294407 -0.016744362 0.0035242212 -0.0032893287 0.070393525 0.011821309 -0.021982737
0.032320064 0.038743816 -0.03909067 0.06779067 0.015261974 -0.01903939 0.00051196147 -0.029070973
0.09045776 -0.0109427245 0.12754697 -0.05737177 -3.3886474e-05 4.0370152e-05 0.0070501133 0.001837302
-0.036677703 0.079362996 -0.007263375 -0.09542081 0.10393344 -0.001414481 0.043704905 -0.012313446
2.4074077e-06 1.9865196e-05 -0.116928145 -1.0592942e-05 -0.063550964 -5.166938e-05 -0.017168323 0.0007355456
-0.05283917 0.0011706691 0.02820414 0.038059387 0.019389536 0.010038443 0.010880595 0.0015995597
0.12922572 5.2789073e-05 0.030056046 2.3298688e-05 5.300626e-06 -0.04730179 -0.024220426 0.008312827

node_encoder.lins.2.bias f4 [128]
00000000: d45c 3f3e ab76 0fbe 0acc 25be 7208 b5bd
00000010: c82c 18be 0771 62be c754 b0bd e2d6 b8bd
00000020: 1ef5 dabd 9bc0 afbd 32e8 d3bd a2e6 1fbe
00000030: e780 00be 9a04 c5bd f04c 26be 123c f2bd
00000040: f474 72bd 6a61 9bbd a830 68bd d32a 2dbe
00000050: 9548 08be 8f2f 17be 66f1 ec3d a1b8 53be
00000060: ebf7 e2bd e88a b4bd 2ac4 ebbd b534 8ebd
00000070: 69bc 38be ac1b 8bbd 5daa 0cbe c027 03be
00000080: d26a f4bd 6199 44bd a7e1 26be 445c d4bd
00000090: 24f6 dabd 5cdc 06be 5a24 c4bd 75e3 19bd
000000a0: 9ea6 30be 55e2 33be fd48 d1bd 1b99 a9bd
000000b0: b936 99bd b193 9bbd c112 29be 3d6e bcbd
000000c0: 2ee2 33be 1649 c7bd 1147 14be 4310 01be
000000d0: 591f 3dbe e679 4abe 4888 ffbd 46f2 17be
000000e0: b9dd 79bd ea63 06be 95fd c8bd d2d8 ecbd
000000f0: 7bbb 93bd 8236 b7bd 1bb5 afbd cad4 35be
00000100: 1b4a cabd 3982 ebbd 0ca7 84bd 5ea9 eebd
00000110: 3b7a c2bd aa9f b4bd d38c 1bbe 0ffc fabd
00000120: 9231 d9bd c167 01be cc4b 40be 9176 a3bd
00000130: 1a0c 3bbe 286e 923d 9864 6cbd c40c 47be
00000140: 6655 d4bd 6dcd 49be 0776 efbd f093 e2bd
00000150: 8e22 26be 459e 70bd a804 e7bd b9fb 83bd
00000160: 3524 aebd 8bc3 1cbe 2718 03be d2f7 22be
00000170: 2fc3 60bd 1360 9dbd 7926 40be eee5 30be
00000180: f860 38be 7e73 d0bd aebe 9dbd 8b30 f2bd
00000190: fc5c f8bd 15c7 00be d18f 75bd 65e5 edbd
000001a0: 988a 16be 4bcb 10be fa3b b0bd 7011 e7bd
000001b0: 7dac 1ebe cf2f 99bd 2b97 3dbe 11e9 35be
000001c0: 2f76 62bd eafa b8bd da27 cbbd 5717 1abe
000001d0: 2d7c 46be 5c0c 66be 3023 afbd f2cf 9abd
000001e0: 0a74 babd bb83 4dbe 11ae c4bd 1ebc 71be
000001f0: 4eb2 10be cbd5 1dbe f74a f9bd 1481 13be
0.18687755 -0.14010112 -0.16191116 -0.088395014 -0.14860833 -0.22113429 -0.0860992 -0.09025361
-0.10691284 -0.085816585 -0.10347022 -0.15615323 -0.12549172 -0.09620018 -0.16240287 -0.11827864
-0.059193566 -0.0758694 -0.056687027 -0.16910867 -0.13308938 -0.14764236 0.115694806 -0.20675899
-0.11082443 -0.08815557 -0.11512025 -0.06943647 -0.18040623 -0.06792387 -0.13736863 -0.12808132
-0.11934437 -0.047997836 -0.16297017 -0.10369161 -0.10691479 -0.13169998 -0.09577246 -0.037570436
-0.1725106 -0.17566808 -0.102189995 -0.08281156 -0.07481141 -0.07596529 -0.1651106 -0.09200714
-0.1756675 -0.09730737 -0.14480235 -0.1260386 -0.1846899 -0.19773063 -0.124771655 -0.14838514
-0.061002467 -0.13124052 -0.09813992 -0.11564793 -0.072134934 -0.089459434 -0.08579465 -0.17756954
-0.09877416 -0.114994474 -0.06477174 -0.11653398 -0.0949597 -0.08819516 -0.15190439 -0.122551076
-0.10605158 -0.12637235 -0.18778914 -0.07981599 -0.18266335 0.07149917 -0.05771312 -0.19438463
-0.10367851 -0.1970727 -0.11692434 -0.11063373 -0.16224119 -0.058744688 -0.11280185 -0.06444497
-0.08503 -0.15308969 -0.12802182 -0.15914848 -0.05487364 -0.0768434 -0.18764676 -0.17275211
-0.1800574 -0.101782784 -0.07702385 -0.11825665 -0.1212711 -0.12575944 -0.059951607 -0.11616019
-0.14701307 -0.1414005 -0.086051896 -0.11282623 -0.15495487 -0.07479822 -0.18514697 -0.17764689
-0.05528849 -0.09032233 -0.099197105 -0.15047966 -0.19383307 -0.22465652 -0.08551633 -0.07559194
-0.09104164 -0.20069782 -0.09603513 -0.23606917 -0.14130518 -0.15413587 -0.121725015 -0.14404708

node_encoder.norms.0.module.weight f4 [64]
00000000: 3659 3a3e 1a9d c93d c964 2a3f dc8c d03d
00000010: fd74 1a3f 910b 283f 7ef2 863e cbbf 453f
00000020: 3b7f 973e a9a1 e53e 674f 093f cab1 113f
00000030: 805a 9a3e ad62 de3e bb36 f33e 7879 bb3e
00000040: 4a65 603e 4542 033f b246 e03e e4a6 1c3f
00000050: 38ee 203f ab17 de3d ff11 263f cdf5 0a3f
00000060: 449f 4e3d 21e9 123f 2a63 193e 8cf0 b63e
00000070: 6a2b 2e3f 6e3f 9c3e fc0c 073f 7680 363f
00000080: c548 823d c789 203f dc1b af3e 5f26 2a3f
00000090: 5002 1d3f 0b4e d63e fb6f b93e 4e07 1e3f
000000a0: 2451 3b3f ba96 1d3f 5afa 7b3c 24d9 293f
000000b0: 7864 db3e e2ce 1b3f 6503 213f b28c 2c3e
000000c0: a220 ff3e 6d77 f53e cdca 083f 8144 0e3f
000000d0: 88ef 7b3e 8003 423f 5d2e 133f d980 043f
000000e0: a508 3d3e 36f1 953e 79b2 053f c26d c33e
000000f0: 4b56 fe3e ae0e 1b3f 023a 133f 44bc bb3e
0.18198094 0.09844418 0.66560036 0.10183117 0.6033476 0.6564265 0.26356882 0.7724578
0.29589257 0.448499 0.53636783 0.5691191 0.3014717 0.4343466 0.47502694 0.3661611
0.21913639 0.51272994 0.43803936 0.61192155 0.6286349 0.10844358 0.6487121 0.5428131
0.050444856 0.57386976 0.14979234 0.35730398 0.68034995 0.30517143 0.5275419 0.71289766
0.06361536 0.6271023 0.34200943 0.664648 0.61331654 0.41856417 0.36218247 0.61729896
0.73170686 0.61558115 0.015379513 0.66346955 0.4285009 0.60862553 0.62895805 0.16850546
0.49829584 0.47942677 0.5343445 0.5557328 0.24603093 0.7578659 0.5749262 0.51759106
0.18460329 0.29285592 0.5222545 0.38169676 0.4967521 0.60569274 0.5751039 0.36667073

node_encoder.norms.0.module.bias f4 [64]
00000000: e112 943c acbe 08bc aff1 69bc 920d b9bb
00000010: 9786 a23e 256f e53c 10bb c53c c818 5b3c
00000020: 8a79 3f3c c413 01bd b8a4 4bbd 469c b23b
00000030: 94cb 17bd 19b8 86bd ccf2 a4bc e471 29bd
00000040: e87c 7bbd e907 42bd ea44 133d fc2d 5f3c
00000050: cd32 3bbe f603 c73c 3c15 793d 7439 163e
00000060: 8869 2fbb cdeb 443e d1be 193c 82d0 25be
00000070: 7515 db3e 5347 7d3c 4194 b93c cfd1 8dbd
00000080: 0da0 6bbb a1de 113d 8619 75bd d010 8d3d
00000090: cd1c 98bc a06c 27bd 7f22 1fbd 807a be3b
000000a0: 37d9 053d 0207 823b f0bd a7b9 17ba aabb
000000b0: 499d f63c 13b8 22bd 4dcd 063f b22c eb3c
000000c0: 7697 51bb d5c6 ebbc e706 bc3c 99ee 98bd
000000d0: dbbc 84bc 0830 203f 1f33 0ebb daa0 d9bb
000000e0: de55 e1bb 3bb6 f33b 0386 7bbc eafb 4d3d
000000f0: 0314 dabc 05f2 e63e 341c 2ebc 5cc5 2fbc
0.018075408 -0.008346241 -0.014278813 -0.0056473697 0.3174331 0.0280071 0.02413705 0.0133726075
0.011686692 -0.03151299 -0.049717635 0.005450758 -0.03705938 -0.065780826 -0.020135306 -0.04136838
-0.061398417 -0.047370825 0.035954393 0.013621803 -0.18281098 0.02429388 0.060811266 0.14670354
-0.0026765782 0.19230576 0.009383873 -0.1619282 0.42789808 0.0154589 0.0226537 -0.069247834
-0.0035953552 0.035612706 -0.059838794 0.06887972 -0.01856842 -0.040875077 -0.038851257 0.005812943
0.032677855 0.0039681206 -0.00031994237 -0.005210172 0.030104296 -0.039726328 0.52657014 0.028707836
-0.0031981147 -0.028781334 0.02295251 -0.07467384 -0.016203335 0.6257329 -0.002169795 -0.0066414895
-0.0068766912 0.007437495 -0.015351775 0.050289072 -0.02662087 0.4510652 -0.010626841 -0.0107282065

node_encoder.norms.0.module.running_mean f4 [64]
00000000: d72c 40be 7537 70bd 8c1c 97be 8856 b23d
00000010: 241a 33bd 21f9 7abd d313 4e3e 071e cbbe
00000020: 5c39 e23b 4b6e e13c 4af6 923e f831 c0bd
00000030: 6703 46be ecd9 883e 8bef 173e d317 0d3e
00000040: 3ba4 86bd 1816 41be 6627 b83d ecae c93d
00000050: 43a1 ad3d 3f59 153e 28fb 22be 7e3a 8ebd
00000060: bc3a cabd 8173 a9bb f669 143e 571c 6b3e
00000070: 6f7e c1bc 88eb dc3d 4f47 53bd b2c7 a13d
00000080: e668 aa3d 0b94 053e fd77 fe3d 206d debd
00000090: 89d3 a23d c624 703e f0a9 1a3e fd42 28be
000000a0: 5d70 2a3e c8ed c4bd 30fc 2a3b da6a 97bd
000000b0: 2ea1 353e c376 e43d 737c b3bc 674c f7bd
000000c0: a9f2 31bd 0cf5 a0bd e64f 523d 7c16 4b3d
000000d0: c8a0 5ebd c879 273d 2851 27be 0372 8dbe
000000e0: 21e5 10be 812a ec3d 2e65 7ebe 57ae d1bd
000000f0: c7e9 f6bd 2f33 e0bc d98b 373d ed84 b5bd
-0.18767105 -0.058646638 -0.29513967 0.08707911 -0.0437261 -0.061272744 0.2012475 -0.39671347
0.0069038104 0.027518412 0.2870353 -0.09384531 -0.19337235 0.2672876 0.14837472 0.1377862
-0.06574293 -0.18856084 0.0899189 0.09847817 0.08478024 0.14584826 -0.15916121 -0.0694475
-0.09874484 -0.00517124 0.14493546 0.2296003 -0.023619859 0.107871115 -0.051581677 0.07899417
0.08320789 0.13044755 0.1242523 -0.10860658 0.079505034 0.23451528 0.15103889 -0.16431804
0.16644426 -0.09615666 0.0026090257 -0.07393427 0.17737266 0.111554645 -0.021909928 -0.120751195
-0.04344431 -0.07859239 0.05134573 0.04958199 -0.05435255 0.040887624 -0.16339552 -0.27626047
-0.14149906 0.115315445 -0.24843284 -0.10238331 -0.12056308 -0.027368156 0.044811103 -0.08863244

node_encoder.norms.0.module.running_var f4 [64]
00000000: e259 1b41 46ae a240 7163 9141 44fc dc40
00000010: 428a 1d3f 5865 3b40 76ef 1941 6785 1842
00000020: 5687 f33f 4a79 6040 4d43 7541 f014 8941
00000030: 2f90 8c41 edeb 8941 0d6e 4b41 2849 7140
00000040: 54da dd40 6faa b141 9160 0640 5a44 d340
00000050: c1dd c23f 5f57 7a40 798a cc40 ab65 f33f
00000060: 0491 e13f f844 523f 73b1 ff40 0234 c741
00000070: 2a38 c13e 06fe 4d40 c07d d33f 3595 d43f
00000080: 843e d340 d7a8 5540 d58a 8040 77e3 0340
00000090: c506 7941 f26a 5841 a698 a141 7a2f 4341
000000a0: 95bf bb40 4015 3240 0d0b 833f da65 3f40
000000b0: 4850 cc40 09a2 0d40 54dd c73e fb1d 8841
000000c0: 9a62 7c40 77c0 a040 767f 323f 8fb3 0140
000000d0: e16c 5941 54a5 173f 204b 0542 c004 7441
000000e0: 285e d340 9e25 0641 1f87 9041 c9c2 1540
000000f0: 7a2e 0e41 e0c6 243f 1035 2441 5603 8d40
9.709444 5.0837736 18.173555 6.905794 0.6153909 2.9280605 9.620962 38.130276
1.9025676 3.507403 15.328931 17.135223 17.570402 17.240198 12.714368 3.77009
6.9329014 22.20822 2.099644 6.6020937 1.5223924 3.9115827 6.3919034 1.9015402
1.762238 0.8213649 7.9904113 24.900394 0.37738162 3.2186294 1.6522751 1.6608034
6.6013813 3.3384302 4.0169473 2.0607584 15.564153 13.52611 20.199535 12.199091
5.8671365 2.782547 1.0237747 2.9905915 6.3848 2.2130148 0.39036047 17.014639
3.9435182 5.0234942 0.6972574 2.0265844 13.589082 0.59236646 33.323364 15.25116
6.6052437 8.384184 18.065977 2.3400137 8.886347 0.6436596 10.262955 4.406657

node_encoder.norms.1.module.weight f4 [128]
00000000: 723e 733e 494a 77b8 eb9a 6a3e 67fd 293d
00000010: 6f4c 143f 29e2 d33e 9093 f5ba 1960 debb
00000020: 925d 2839 b5ee f03d 4c29 f03e dfe8 ae3d
00000030: bec2 fe37 95e4 0d3b 42a9 fe3e 5bf9 6c37
00000040: b490 d93e d6f8 ac3e 702d 1d3f c5cd 6b3e
00000050: 391d ae3e 0676 d93e 28d5 ca3e d70d 313d
00000060: b286 e03e 4285 fd3e 3b44 b7bb ed41 b63e
00000070: 951c 873e ab79 653d 7a93 a83e a1b0 d23e
00000080: 9a81 d73e e180 893c 8cff 65b9 ae19 573e
00000090: cf02 163f 2ddd ec3e 7f2a ff3e 337c 953e
000000a0: 2ecd 913e 9d10 a33e cd3d 9c3e 97e5 8c3e
000000b0: c3c2 4b39 832e 973e ea9c 023e f447 153e
000000c0: 9da5 a23e b106 cc3e 6581 e23e a44e bf38
000000d0: c788 2f3e 9576 8d3e 4c8d a23e d26a 0b3f
000000e0: 848c 203c d761 893e 7d16 0e3f e46f 943e
000000f0: 1a12 f839 c0fb a13e 4ed9 5d3b b8b2 b8b7
00000100: 9a6c 0c3f 5890 693c 9ea1 303a f16d 7d3d
00000110: 8619 e43e 62a5 7e3d 9d5f a53f 0a2a d03e
00000120: 2bc8 e53e 5cc2 e33e 913f c93e 045c ea3d
00000130: fd01 14bc aa0f 8e3e 5de5 2c3f deaa b73e
00000140: b7cb 9b3f 093b 853f c598 0c3f 6d4b ba3e
00000150: 96a3 e63e 71eb 113f a5d1 1dba af2f ab3e
00000160: 7600 003f f74c 7d3e 66e4 ed3e 28a2 903f
00000170: 7817 d7b9 10b2 6c38 0dbe a33e 38ec 9cba
00000180: 23e5 a23f 85c8 8e3e 5850 3f3d 5508 c83e
00000190: f837 713e d5b3 f8ba 45de dd3e 2e64 0e3d
000001a0: f2df 36b7 8f5d c537 9c0a b13e c507 5835
000001b0: 9252 953e f4c0 ee39 fe92 2e3f 3c98 71b9
000001c0: b913 aa3f e427 91bb 0fb4 ce3e 670c ea3e
000001d0: 9099 d13e 0383 263d e790 8b3b d76d 173e
000001e0: 4978 b63e 4c97 a8b7 5b51 8f3e ef18 bc38
000001f0: d166 9ab6 0df2 303e b01e 333e d765 4d3c
0.2375429 -5.8958572e-05 0.22910659 0.04150143 0.5792913 0.41383484 -0.0018735994 -0.006786358
0.00016056586 0.1176428 0.46906507 0.085405104 3.0369843e-05 0.0021651138 0.49738508 1.4124754e-05
0.42493212 0.33783597 0.6139746 0.23027714 0.3400667 0.42472857 0.3961575 0.04322609
0.43852764 0.4951573 -0.0055928505 0.35597172 0.26388994 0.056024235 0.32925016 0.41150382
0.42091066 0.016785087 -0.0002193434 0.2100589 0.58598036 0.46262494 0.4983711 0.2919632
0.28476852 0.31848612 0.305159 0.27518913 0.00019432143 0.29527673 0.1275517 0.14578229
0.31766978 0.39848855 0.44239345 9.122238e-05 0.1714202 0.27629533 0.31748426 0.5445987
0.009799127 0.26832458 0.55503064 0.28991616 0.00047315733 0.31637383 0.0033851448 -2.2017732e-05
0.5485321 0.014255606 0.000673795 0.061872426 0.44550723 0.06216944 1.2919804 0.40657073
0.4487928 0.44484222 0.3930631 0.11443332 -0.009033677 0.27746326 0.6753748 0.3587255
1.2171544 1.0408641 0.5492061 0.3638567 0.4504668 0.5699988 -0.0006020314 0.33434817
0.50000703 0.24736391 0.46463317 1.1299486 -0.0004102548 5.643262e-05 0.31980935 -0.0011972254
1.2726177 0.2788736 0.04670748 0.39068857 0.23556507 -0.0018974493 0.4333364 0.034763508
-1.0900187e-05 2.3527797e-05 0.34578407 8.0477577e-07 0.2916456 0.0004553866 0.6819304 -0.00023040263
1.3287269 -0.004429804 0.4037175 0.45712587 0.4093747 0.040652286 0.004259217 0.14787994
0.35638645 -2.0097614e-05 0.27991757 8.969183e-05 -4.601527e-06 0.17279835 0.17492175 0.012536488

node_encoder.norms.1.module.bias f4 [128]
00000000: 0f53 8d3d db25 26b6 b5be 8e3d 3956 54bc
00000010: 55a6 c53c 8e62 b33e 0404 c239 f921 b1bb
00000020: 9112 2039 1d92 69bd d791 ce3e e558 b93c
00000030: 8245 1137 bb79 85b9 106e d73e 35ab 2bb8
00000040: e094 9ebe f32d 8d3e ad6d 0ebf 14e2 ca3d
00000050: 3319 383e 1d46 b73e 79e4 bb3d 65ed a0bc
00000060: 2903 c1be 7099 cc3e d1a4 2ebc c7ba 8c3e
00000070: 5ee6 0cbe fcef b6bc ae85 06be f3c6 8d3e
00000080: 1c77 963e 317c 32bc a36d c9b7 eb9d 893d
00000090: 1077 06bf e4ca cb3e 93ad d2be 1be1 ff3d
000000a0: 25db c63d d73b 653e 311d 083e 4fb4 a43d
000000b0: b978 a7b8 88e6 583e 9d69 fe3b 3688 dfbd
000000c0: f789 54be fab8 913e 37fa 183d 024f 98b7
000000d0: 310a 86bd 9e1f 45bd e08e 0fbe 5dcd dc3e
000000e0: 061b 533a 0608 ae3d 3e0e 063f 0fb8 1a3e
000000f0: f3e6 ecb9 7773 2a3c 3846 bfb8 cc17 86b4
00000100: 9c69 f03e 0f52 c53c 0aeb 2c3a a7ac b9bb
00000110: 76b6 8e3e 3c67 fa3c 4622 983c 2a21 963e
00000120: 76b2 b0be e781 c83e 3cd7 67be ce90 273c
00000130: 5de6 2d3c 615a 4abd ce4e c93c a2ba b13d
00000140: 429c ce3b 272b 8ebc 2d96 043f c6d3 8cbe
00000150: 4f89 bebe 722a 04bf 7abf 47ba e697 693e
00000160: f4f7 d6be f5f4 1abd 0ef6 bcbe 5d14 8139
00000170: 3b09 8937 2d59 0b38 69c6 0abe 5acb 29b9
00000180: ada8 a43c 4858 cabd bbc4 33bd 5359 a83e
00000190: 0db3 27be 62b1 8e3b c2f0 9c3e bc5f 92bc
000001a0: c903 0f36 9bc2 0436 2125 4f3e f1e0 89b6
000001b0: 17e0 3b3e 12ea 02ba e681 47bd 7762 6f39
000001c0: 24f8 48bd d236 b1b9 a2fe 8dbe 7e29 b13e
000001d0: f0e4 71be e761 ac38 0da4 82bb b666 c03d
000001e0: c918 2abe 2d7a 90b3 9fd1 9c3d 7bcd 2936
000001f0: cc38 7f35 622d 00bd 66e9 ccbc 3bdb 9aba
0.06900608 -2.4757962e-06 0.06969968 -0.01296001 0.024127165 0.3503613 0.00037005555 -0.005405661
0.00015265706 -0.05702411 0.40345642 0.022625396 8.658857e-06 -0.00025458433 0.4207616 -4.0929026e-05
-0.30972958 0.2757412 -0.556361 0.09906402 0.17978363 0.3579568 0.09174437 -0.019644449
-0.37697724 0.39960814 -0.0106594125 0.2748625 -0.13759753 -0.02233123 -0.13136932 0.2769085
0.29387748 -0.010893867 -2.401212e-05 0.067195736 -0.52525425 0.3980323 -0.41148052 0.12494107
0.09709767 0.22386108 0.13292386 0.08042204 -7.985667e-05 0.2118169 0.007764055 -0.10914652
-0.20755754 0.28461438 0.037348 -1.8156603e-05 -0.065449126 -0.048125856 -0.14019346 0.4312543
0.0008053038 0.08497624 0.5236548 0.15109275 -0.00045185498 0.0104035055 -9.120669e-05 -2.497676e-07
0.46955574 0.02408698 0.0006596303 -0.0056663337 0.27873582 0.030566804 0.01857103 0.29322177
-0.34511155 0.39161608 -0.22640699 0.010227395 0.010614005 -0.0494026 0.02457371 0.086781755
0.0063052485 -0.017354561 0.5179165 -0.2750532 -0.37214133 -0.51627266 -0.000761978 0.22811851
-0.41986048 -0.037831265 -0.36906475 0.0002461997 1.6335971e-05 3.3223234e-05 -0.1355225 -0.0001619285
0.020099962 -0.098801196 -0.04388879 0.3288065 -0.16376896 0.004354642 0.30652434 -0.017867915
2.1310864e-06 1.9782808e-06 0.20229007 -4.109105e-06 0.18347202 -0.00049939856 -0.048707865 0.00022829497
-0.04906477 -0.00033800915 -0.27733332 0.3460197 -0.23622489 8.219835e-05 -0.0039868415 0.093945906
-0.16611017 -6.727746e-08 0.076571696 2.5302568e-06 9.5077553e-07 -0.03129328 -0.025013637 -0.0011814603

node_encoder.norms.1.module.running_mean f4 [128]
00000000: ce3f d93d 7cd6 5038 ebf6 83bc 2426 803d
00000010: c0d2 61bd de0c cc3d b734 793c 6820 073c
00000020: 1724 a4b9 504a 5fbd 2d99 df3d 6b25 49bd
00000030: 74fb 77b8 365d f3ba 3949 a23d c55f f8b8
00000040: d463 c2bd 07d8 8d3d 08cd f8bd dd11 a83b
00000050: 5bd5 f93d bea5 053a b8fe 713d 3944 3f3d
00000060: eb18 4dbd 9fdf 913e eb3a 1ebd a664 d23b
00000070: e42a b13c c49f 75bd 3293 31bd 17e4 b33b
00000080: 25ff 893d ae14 c7bc a005 ffb9 fcbc d73c
00000090: 6670 7cbe 8aac d23d 5b0d 43be 3695 d0bc
000000a0: 9a75 0a3d 2706 9b3d 5b6b d43c 7168 6ebc
000000b0: 068a 8d3a 5075 cf3d d9b3 e93c cd14 65bd
000000c0: 1b30 42bd 4117 cc3d 346f 34bd f5af a7ba
000000d0: 065a 23bd 6b5b 523b 9c37 a7bd 7706 063e
000000e0: 429f 9f3b 5b9f b43d e222 3b3e 05fe 683d
000000f0: e059 343b 087e afbc 4550 37bb 93e8 5e34
00000100: 2579 173d c5a4 99bb 1fd6 683b 3e13 04bd
00000110: 9a71 8e3d a142 1a3e be00 0cbe a5db 0a3d
00000120: adfd 08bd e011 173d ad4f 2fbd 12e9 15bc
00000130: 6503 e2bb 5975 8fbd df39 1b3e d9dc a3bc
00000140: bf4a 623c ed2c 183c cbab db3d 5a64 9bbd
00000150: 0f97 edbd 438e dcbd 719d c3bc 12da c93d
00000160: 46f4 53bd c748 5fbd 3565 1cbe c60a d33c
00000170: ac86 cf3a dae7 48b9 c545 03be 6ad6 40bc
00000180: 4cb6 9fbd 7630 d7bc d376 68bd 0fb2 3e3d
00000190: 74ea e5bb 30e0 dabc ae4d 293d d327 45bc
000001a0: 74f2 29b7 a3b8 bbb6 9d04 993d 0e17 02b7
000001b0: 7d7c af3d 3fbe 67ba 99b8 763c 7cae 063b
000001c0: 2c2b 57bc e923 fdbb e520 c5bd 35a2 653d
000001d0: 3859 55bd d152 0e3d 430a 293d 4199 e53d
000001e0: e8f9 83bd 80e0 e6b9 cb63 b63d fc3e 6a39
000001f0: c050 36b6 c244 3c3d cf70 9e3b c63e c7bb
0.10607873 4.979082e-05 -0.01610895 0.06257275 -0.055132627 0.09963392 0.015210322 0.008247472
-0.00031307407 -0.05451423 0.10917888 -0.04910795 -5.9123573e-05 -0.0018567208 0.07924122 -0.000118434
-0.09491697 0.069259696 -0.121484816 0.0051290826 0.121988975 0.0005098245 0.05908081 0.04669592
-0.05007259 0.28490922 -0.038630407 0.0064206896 0.021626897 -0.059966817 -0.043353267 0.005489837
0.06738118 -0.024301853 -0.0004864158 0.026335232 -0.24652252 0.102868155 -0.19048063 -0.025461774
0.03380356 0.07569533 0.025930097 -0.014551268 0.001079858 0.101297975 0.02852814 -0.05592804
-0.04740916 0.09965373 -0.044051364 -0.0012793528 -0.039880775 0.0032097946 -0.081649035 0.13088404
0.00487128 0.08819457 0.18275025 0.056882877 0.002751939 -0.021422401 -0.0027971428 2.0759971e-07
0.036980767 -0.0046888315 0.0035528017 -0.032244913 0.069552615 0.1506448 -0.13672158 0.033900876
-0.03344505 0.03688228 -0.042800594 -0.009149807 -0.0068973773 -0.07004804 0.15158795 -0.02000277
0.013811766 0.009288055 0.10726126 -0.075875 -0.11601078 -0.10769322 -0.023878785 0.09856047
-0.05174663 -0.054512765 -0.15272982 0.025761973 0.0015832982 -0.00019159858 -0.12819584 -0.01176987
-0.07798442 -0.026268225 -0.056753945 0.04655653 -0.0070164744 -0.026718229 0.041333847 -0.012033421
-1.01296355e-05 -5.594529e-06 0.07471583 -7.753972e-06 0.08568666 -0.00088402996 0.01505866 0.0020550778
-0.013132852 -0.007725228 -0.09625415 0.056062896 -0.05208704 0.03474695 0.041269552 0.112108715
-0.0644415 -0.00044036284 0.08905753 0.00022339443 -2.7167116e-06 0.04596401 0.004835225 -0.006080481

node_encoder.norms.1.module.running_var f4 [128]
00000000: 054d 033d a897 0031 e9e1 ef3c 9cab 543c
00000010: 2219 773d 5011 4c3d 5c7f 4439 6000 af3a
00000020: e0a2 ae34 09fc b33c 2ee0 493d a4ee 893c
00000030: f0bb 8e30 3efd 9437 afcd 463d 3983 8131
00000040: 3c99 463d 1b0d 473d 956b 833d 3fc8 e53c
00000050: 0b7b 3f3d cde0 543d e63e 233d de29 3f3c
00000060: 6b07 6e3d 87d1 553d a5ab 293a 0b4f 143d
00000070: 38c0 083d 54a1 123c 4293 573d 4be6 803d
00000080: 90d8 863d 0556 193b 8ca9 f133 b765 ce3c
00000090: 37e8 ac3d 46e7 743d 4c12 483d 7082 4e3d
000000a0: ff89 463d 5512 123d a4c1 463d 4645 203d
000000b0: 0a96 e334 544d 0a3d 3daf 9a3c 5157 8f3c
000000c0: ef6c 283d 93e7 543d e2a0 ad3d 5a29 b133
000000d0: c968 c23c f445 0f3d 76e5 323d 7023 753d
000000e0: cacc a63b 5f4d 1b3d e364 a93d bc0f 093d
000000f0: 4af5 1837 cba5 423d e61f ef37 8039 5b2b
00000100: 65c8 7b3d 02c1 6c3b 68ce f537 139b dc3b
00000110: a20c 8c3d 6b46 4c3c 23da 453e cab4 873d
00000120: a604 653d 5b0e 693d 74cf 5e3d f0e0 903c
00000130: c158 1c3b d9d5 013d 9c4e e73d 8f66 8b3d
00000140: 51b4 073e 2330 9b3d 8190 853d 1c20 393d
00000150: 521b 5c3d b578 723d a86e 293a fbcd 393d
00000160: 7c81 ae3d a2a6 053d 7cc0 373d 40eb b33d
00000170: 9dd9 5e35 3c4e 9c32 7c0b 4d3d 2e61 1537
00000180: 2c86 363e fde8 3e3d 0580 af3b db89 453d
00000190: ef45 e83c 7338 913a 58a6 413d 00af 963b
000001a0: c397 142e 88f9 a030 8f6d 4d3d 82ff 3c2d
000001b0: f7f8 163d 56f0 1737 4c84 923d b442 e336
000001c0: c702 ef3d 33ae 6138 1235 5c3d 0ad0 5b3d
000001d0: 7349 7b3d 8e68 c13b 4497 853b ad35 c33c
000001e0: 9dc7 2d3d eb83 0732 b82b 2b3d 9088 a031
000001f0: 912d 9a2e 9d39 f23c 9f8d 9c3c ec02 da3b
0.032055873 1.8712658e-09 0.029282527 0.012980368 0.060326703 0.049821198 0.00018739462 0.0013351552
3.2528533e-07 0.021970766 0.04928606 0.016837426 1.0385275e-09 1.77609e-05 0.048536 3.7693124e-09
0.04848598 0.048596483 0.06417004 0.028049586 0.046748202 0.0519722 0.039854906 0.011667697
0.058112543 0.052201774 0.00064724154 0.036208194 0.03338644 0.008949596 0.05263067 0.06293925
0.06584275 0.002339722 1.12532774e-07 0.025194986 0.08442729 0.059790872 0.048845574 0.050417364
0.048471447 0.035662014 0.048524514 0.039128564 4.2391213e-07 0.033765152 0.018882388 0.01749769
0.041119512 0.05197866 0.084779516 8.2497266e-08 0.023731606 0.034978822 0.043675862 0.05984825
0.0050903307 0.037915584 0.08271196 0.03346227 9.117017e-06 0.047521394 2.8505874e-05 7.7884227e-13
0.061470408 0.0036125784 2.9302391e-05 0.0067323535 0.06838347 0.012467961 0.19321494 0.0662628
0.055912636 0.056898456 0.05439706 0.017685384 0.0023856612 0.03169808 0.112942904 0.06806671
0.13252379 0.07577541 0.065217026 0.045196638 0.053736992 0.059197146 0.00064633274 0.045362454
0.08520791 0.032629617 0.0448613 0.08785105 8.3018114e-07 1.8196367e-08 0.05005978 8.9037185e-06
0.1782462 0.046608914 0.0053558373 0.048227172 0.02835366 0.0011079445 0.04727778 0.0045984983
3.3786095e-11 1.1712453e-09 0.05015331 1.0743297e-11 0.036858525 9.056259e-06 0.0715414 6.7728924e-06
0.116704516 5.3806416e-05 0.05376155 0.0536652 0.061349344 0.0059023565 0.00407687 0.023829306
0.042426694 7.888029e-09 0.04178974 4.6721382e-09 7.0112034e-11 0.029568488 0.019110499 0.0066531803
