tfg/models20250213095528/model_50.pt (torch, 819338 bytes, 36 tensors)

node_encoder.lins.0.weight f4 [64, 7]
-7.246736e-21 2.1833664e-34 6.026839e-23 1.3276937e-35 -5.417081e-34 -1.2569778e-33 -9.994869e-34 -9.872e-42
9.832e-42 9.857e-42 2.4771e-41 -1.0057e-41 -9.902e-42 -7.348e-42 -0.088753514 -0.05063679
-0.22553065 -0.017487157 -0.113079384 0.0037065593 -0.05180578 1.1307435e-10 -1.0412843e-09 -5.710886e-12
-3.9554308e-14 9.381928e-13 9.107892e-13 -6.363751e-14 0.00028574537 0.00039431016 0.007862534 0.23919286
-0.14304629 -0.5423461 -0.4666638 0.06389607 -0.050016902 -0.0591143 0.02872113 0.36960703
0.3598079 -0.1897945 -5.101731e-11 2.3522173e-13 -2.2227768e-11 1.86129e-20 1.9721508e-19 -7.990555e-20
9.132033e-20 -0.119400896 -0.25389072 -0.2116705 -0.020411119 -0.031010035 -0.07011226 -0.044364426
-0.002655722 0.0777061 0.004530547 0.00020802017 0.0514409 -0.06610104 0.026031697 -0.012659268
0.12908892 0.017679859 -0.0033682554 -0.081821285 -0.1735072 -0.015355813 0.010181791 0.0017722682
0.005139186 -1.3604819e-06 0.00031035068 -0.00041295876 0.00048801722 0.13946562 0.14413851 -0.13544278
-0.01994796 0.005657247 -0.028051825 -0.10612464 0.0009889796 -0.04298097 0.0085881585 1.2776266e-05
0.0017885093 -0.0030022054 -0.0021580334 5.695482e-07 -2.1631436e-06 -7.869393e-06 1.0897324e-09 -9.405286e-08
-1.9698538e-08 3.4097976e-08 -0.005355414 -0.0074949097 0.005938757 -7.215891e-06 4.1689777e-06 -8.940384e-05
7.892579e-05 0.0003286521 0.0007301698 4.5635643e-05 -2.0847495e-09 2.2136162e-07 -2.5908676e-07 -2.9037383e-07
-9.89e-42 -9.81e-42 9.862e-42 4.1445e-41 9.84e-42 -9.899e-42 9.93e-42 0.07201567
0.039026972 -0.13479204 -0.004561206 -0.05260791 0.011994676 -0.02573648 0.03587911 0.06931625
0.052339964 0.0015603071 -0.016153933 -0.025816394 -0.16997935 -0.054370638 0.071819104 0.106305376
0.029641343 -0.040497977 0.3105876 0.26055288 0.019848494 0.013706262 0.049051397 -0.03721226
0.5112237 -0.17257275 0.31819856 -6.5134867e-21 3.1688892e-33 1.1502338e-23 -5.9351784e-34 1.0086041e-33
-1.0376592e-33 -3.1950244e-34 0.019063605 0.022036934 -0.09155057 -0.030155422 -0.20752172 0.25569865
-0.29788855 -0.009730311 -0.01951308 -0.06734056 -0.0046636597 0.30532554 0.3201959 0.40964922
0.0007809209 0.0014654668 -0.0011000681 8.958671e-09 5.006005e-07 5.685536e-07 4.621684e-08 -0.018721065
0.04355321 -0.007833358 0.060844943 -0.34502828 0.27127948 -0.38080162 0.00028248638 5.242584e-05
-0.0002444989 -7.5407974e-10 1.4178869e-08 -2.2274452e-07 3.5646405e-08 0.0003353356 0.0002888595 -0.0013163808
3.7427242e-06 -5.700123e-07 1.2628937e-05 -2.692982e-05 -0.011784237 -0.00059540366 -0.00064756913 0.16701746
0.57158285 -0.32842553 -0.01770617 -0.00053789356 -0.0009402994 0.0008933277 -1.2008428e-06 4.877759e-06
1.14183386e-07 1.1680249e-05 -0.006218103 0.035903003 -0.046355233 -0.04107542 -0.3296582 -0.29832643
0.3826711 0.06980982 0.010478347 0.08950457 0.03509743 0.20072246 0.30076686 -0.24465531
1.5286623e-06 1.6408547e-06 -1.8160715e-07 4.5850894e-16 -1.5863708e-15 7.419971e-15 -3.7643783e-15 0.098544426
-0.017476384 0.04883243 0.0056830994 -0.15120256 -0.43122137 -0.29797924 -4.5447945e-05 -0.008281065
0.0062924596 -1.1002779e-06 5.8673497e-05 0.00033455662 0.00024772476 -0.051753778 -0.008716803 -0.055956304
0.023768306 0.47085267 0.25531438 -0.30645728 -0.09665356 -0.17044981 0.13000745 0.040645808
00000000: 11e3 089e 0e1c 9107 54b8 911a 432f 8d05
00000010: 6e03 3488 ecd9 d088 7911 a688 851b 0080
00000020: 681b 0000 7a1b 0000 0d45 0000 091c 0080
00000030: 9a1b 0080 7c14 0080 67c4 b5bd 8668 4fbd
00000040: 82f1 66be 3a41 8fbc 2a96 e7bd bfe9 723b
00000050: 4c32 54bd 33a7 f82e ef1c 8fb0 17ef c8ac
00000060: 0323 32a9 f509 842b a42e 802b 874c 8fa9
00000070: 18d0 9539 6abb ce39 dcd1 003c f9ee 743e
00000080: ba7a 12be 32d7 0abf 8fee eebe f1db 823d
00000090: 86de 4cbd d621 72bd 9348 eb3c 223d bd3e
000000a0: be38 b83e 7d59 42be 6260 60ae 066b 842a
000000b0: 7c84 c3ad 3bcb af1e 9ad4 6820 f1ab bc9f
000000c0: c19f d71f 7588 f4bd f7fd 81be 27c0 58be
000000d0: 3835 a7bc c208 febc 0497 8fbd 79b7 35bd
000000e0: 9f0b 2ebb 6024 9f3d fc74 943b fd1f 5a39
000000f0: b1b3 523d fb5f 87bd 6d40 d53c d268 4fbc
00000100: e32f 043e 5ad5 903c f3bd 5cbb eb91 a7bd
00000110: dfab 31be f396 7bbc 87d1 263c 744b e83a
00000120: 9e66 a83b cd99 b6b5 90b6 a239 6382 d8b9
00000130: 90dc ff39 13d0 0e3e 0c99 133e 83b1 0abe
00000140: e769 a3bc 6d60 b93b f1cc e5bc e057 d9bd
00000150: a6a0 813a d00c 30bd 59b5 0c3c a559 5637
00000160: 6a6c ea3a a6c0 44bb cb6d 0dbb 0ee3 1835
00000170: 862a 11b6 c906 04b7 8dc5 9530 1bfa c9b3
00000180: 8b35 a9b2 1f73 1233 787c afbb dc97 f5bb
00000190: e899 c23b 0820 f2b6 3fe3 8b36 527e bbb8
000001a0: f684 a538 f04e ac39 de68 3f3a e668 3f38
000001b0: 4d43 0fb1 6baf 6d34 9d18 8bb4 ade4 9bb4
000001c0: 921b 0080 591b 0080 7e1b 0000 8873 0000
000001d0: 6e1b 0000 981b 0080 ae1b 0000 f47c 933d
000001e0: bfda 1f3d ed06 0abe 2b76 95bb 647b 57bd
000001f0: 5185 443c 4fd5 d2bc f9f5 123d aef5 8d3d
00000200: 6e62 563d 3883 cc3a 4155 84bc e77c d3bc
00000210: 110f 2ebe bfb3 5ebd e515 933d a2b6 d93d
00000220: 67d2 f23c 35e1 25bd 5705 9f3e 3067 853e
00000230: 4f99 a23c 3b90 603c 1eea 483d e26b 18bd
00000240: 8edf 023f e9b6 30be ecea a23e 9412 f69d
00000250: 69a1 8309 d27c 5e19 ea3a 4588 4695 a708
00000260: 2469 ac88 8658 d487 472b 9c3c cd86 b43c
00000270: de7e bbbd 8108 f7bc 9380 54be efea 823e
00000280: d984 98be e26b 1fbc e5d9 9fbc d9e9 89bd
00000290: 9dd1 98bb a153 9c3e b8f0 a33e 8bbd d13e
000002a0: b7b6 4c3a e814 c03a 2930 90ba a7e8 1932
000002b0: 0161 0635 b59e 1835 f47f 4633 eb5c 99bc
000002c0: da64 323d 7c57 00bc 8c38 793d 8ca7 b0be
000002d0: 25e5 8a3e 6ef8 c2be ae1a 9439 d1e3 5b38
000002e0: 1630 80b9 a547 4fb0 5397 7332 8c2b 6fb4
000002f0: a319 1933 fbcf af39 1172 9739 698a acba
00000300: 832b 7b36 f202 19b5 dfe0 5337 59e7 e1b7
00000310: ac12 41bc dd14 1cba a1c1 29ba a006 2b3e
00000320: 4153 123f 6427 a8be 880c 91bc 6d01 0dba
00000330: 6d7e 76ba 352e 6a3a a52c a1b5 a1ab a336
00000340: fb34 f533 4af6 4337 3bc1 cbbb 070f 133d
00000350: fcde 3dbd b33e 28bd f6c8 a8be 3ebe 98be
00000360: 77ed c33e 73f8 8e3d 5fad 2b3c 2c4e b73d
00000370: 53c2 0f3d 308a 4d3e 1dfe 993e ec86 7abe
00000380: 702c cd35 573b dc35 cbff 42b4 fd27 0426
00000390: c19e e4a6 94aa 0528 43a0 87a7 a9d1 c93d
000003a0: a22a 8fbc 8404 483d 4b39 ba3b d8d4 1abe
000003b0: 0cc9 dcbe bc90 98be 5c9f 3eb8 4ead 07bc
000003c0: fa30 ce3b 43ad 93b5 3018 7638 6e67 af39
000003d0: 0ee1 8139 c5fb 53bd ecd0 0ebc 7032 65bd
000003e0: c0b5 c23c 9a13 f13e 91b8 823e f8e7 9cbe
000003f0: 4df2 c5bd 658a 2ebe ac20 053e 387c 263d

node_encoder.lins.0.bias f4 [64]
-2.0421699e-13 4.790295e-06 1.029761e-06 2.448775e-09 -5.4921038e-05 -1.4802142e-05 4.973004e-12 2.8002773e-06
-2.1134158e-06 1.089527e-05 -4.3794115e-09 -2.6208016e-07 -3.150079e-05 5.2017196e-10 -1.6466005e-05 -7.630278e-11
3.5283417e-12 6.838121e-06 -4.954355e-06 1.1302924e-06 3.9674233e-05 -6.7648023e-12 1.3323133e-05 -1.9716725e-05
-1.5078418e-13 -3.522891e-05 4.7131048e-06 6.215503e-07 -2.131586e-05 -2.6369432e-07 3.6448328e-06 -7.3097226e-06
2.235416e-12 1.737944e-05 -1.3162334e-07 -9.212048e-06 2.6129017e-06 -1.2998349e-06 8.4148276e-08 -1.6927448e-05
-3.097366e-05 1.0445594e-05 -4.288035e-09 1.7269208e-06 -9.437479e-07 -9.812983e-06 -4.5816567e-05 2.9511128e-16
-5.711946e-06 -1.3400008e-06 -1.5578453e-05 -1.0154695e-07 -3.5381057e-14 -3.3660658e-06 -9.0841995e-06 3.39097e-08
-2.2394033e-07 3.140891e-06 -5.999457e-07 1.5013884e-06 1.2766357e-05 4.9709008e-05 -3.9153783e-06 -1.8119097e-05
00000000: 8aed 65aa 52bc a036 5236 8a35 4e47 2831
00000010: 045b 66b8 b756 78b7 d7f8 ae2c 66ec 3b36
00000020: 35d4 0db6 d4ca 3637 b679 96b1 06b4 8cb4
00000030: b71f 04b8 d9fb 0e30 7a20 8ab7 a5ca a7ae
00000040: f448 782c 0373 e536 963d a6b6 8db4 9735
00000050: e267 2638 ec03 eeac 6c86 5f37 5865 a5b7
00000060: 95c4 29aa c1c2 13b8 4325 9e36 9dd8 2635
00000070: 76cf b2b7 df91 8db4 c099 7436 0a46 f5b6
00000080: ad4d 1d2c 10ca 9137 5954 0db4 728d 1ab7
00000090: 4f59 2f36 fd75 aeb5 01b5 b433 6bff 8db7
000000a0: b7e9 01b8 7c3f 2f37 f455 93b1 8cc8 e735
000000b0: dd55 7db5 71a2 24b7 2a2b 40b8 bd1e aa25
000000c0: 3ea9 bfb6 14da b3b5 79ae 82b7 0712 dab3
000000d0: 9557 1fa9 92e4 61b6 5768 18b7 1ca4 1133
000000e0: 4074 70b4 19c8 5236 f40b 21b5 5083 c935
000000f0: 162f 5637 a47e 5038 d860 83b6 77fe 97b7

node_encoder.lins.1.weight f4 [128, 64]
-1.3068831e-29 6.14124e-36 -0.00023288376 1.0629775e-14 0.002307295 -0.0038419685 -9.186265e-18 9.4120296e-05
0.00012395428 0.00032287862 1.6431275e-06 0.0009089996 1.017154e-07 -3.7955812e-11 -1.5174897e-06 1.5693614e-08
-5.614e-42 0.00050900783 0.00014507784 0.0005177464 0.0024038428 4.7520057e-30 -0.0009491758 0.00047797928
7.173053e-09 -0.0027096807 -3.891601e-09 -1.8123716e-07 0.008101529 -7.042156e-08 0.0016323706 -0.0014501457
-1.6301885e-12 -0.0010961398 -2.9723432e-07 -0.00039954245 -0.00053356064 6.2637782e-06 -1.0647343e-09 0.00039878953
-0.0011120712 0.00021169707 -1.89348e-40 -0.0019783136 -3.450346e-06 -0.002118844 -0.009468557 5.9258e-41
0.00015938353 0.0008988489 0.004120875 -0.00075071375 -1.4734455e-21 0.026729459 2.3525983e-07 -9.007282e-07
-8.6466485e-12 3.1129407e-08 -0.00022445159 0.00021091917 -0.00013662054 0.0045992513 -0.0007880916 -1.6261578e-05
1.1254224e-29 4.75316e-36 -0.00011955326 -1.9163741e-13 0.0005545259 1.1656458e-05 8.88638e-18 -0.003497407
9.2907074e-05 0.000282811 2.5119894e-06 0.001145485 8.665026e-06 5.7799557e-11 1.3935086e-06 -8.016274e-09
-2.66318e-40 -7.515799e-06 0.00025766995 -0.0005926088 0.0006978945 -1.0561592e-30 0.000448975 -0.00076862983
2.0188779e-08 0.00038079446 5.9785035e-09 2.8577045e-07 0.00034127285 6.638206e-08 0.0019167032 -0.00051478314
7.7234427e-13 0.0010821759 2.4705066e-06 -0.0008619817 -0.0016694005 -1.2952208e-06 5.2946386e-10 0.00026720625
-0.0012483816 0.001998467 -1.692607e-39 0.0013691967 5.7245556e-06 -0.0014515566 -0.00022373669 -1.00637e-40
0.00068155455 5.078018e-05 0.002190354 -0.0019596058 5.0954564e-21 0.00097201735 0.0037841143 -4.5162533e-06
8.838269e-12 -6.1106715e-09 -0.00016631541 -9.4768504e-05 -0.0006403275 -0.000891637 -0.0013277452 1.5088439e-05
-4.149493e-31 -2.2196802e-38 0.00016663526 -1.3912854e-15 0.00053265673 0.00088336493 9.9156454e-20 0.00013220862
1.7633834e-05 1.441325e-06 -5.646804e-07 2.6959913e-05 2.4802299e-07 -1.4862856e-11 -8.842708e-09 4.5248738e-10
6.6758e-41 1.3393842e-05 -6.0579e-05 1.556183e-05 -3.984573e-05 5.4763583e-31 0.0001655356 0.0007106207
3.6007897e-09 -3.9549497e-05 -1.7567036e-09 -2.532791e-08 -0.00016319669 -1.1801382e-08 0.00018289182 -0.000100129284
-2.3925489e-14 -0.00048763887 -1.6237415e-08 0.00061585027 -8.50194e-05 8.626537e-07 -1.9905118e-10 6.791264e-05
0.0001378333 0.00026232697 6.9951e-41 0.00055999466 -4.1286615e-08 0.00012765505 0.0037016356 1.01687e-40
0.00013668046 -0.0003117919 0.002840258 -0.0005277013 8.811374e-22 -0.0017066628 0.0002285369 7.322337e-07
-2.480264e-13 2.276719e-09 9.057808e-06 5.049612e-05 4.2955046e-05 0.0006578956 -0.000147904 -5.228199e-07
-1.7924391e-29 -9.865646e-37 0.0023042737 3.1052762e-13 0.0012940061 0.0010212975 -1.6309693e-18 0.006378473
0.0003958014 0.0005839179 -8.382141e-06 1.7194006e-05 2.506239e-06 1.4646636e-09 -1.3861041e-06 -1.361421e-07
4.31439e-40 6.189891e-05 0.00013789334 -0.0007279728 -0.00088362384 1.1341866e-29 0.0026136993 0.0026198304
4.5994998e-08 0.0004186109 8.271293e-09 -1.005886e-06 0.009383856 -3.5869567e-07 0.0007581704 -0.0016162368
9.716373e-14 -0.0032265633 1.0528915e-05 0.007821023 -0.00032028963 -1.9385925e-05 1.558823e-08 0.00072447676
-0.00388604 0.0027131543 -7.97562e-40 0.0066028703 -8.1234775e-06 -0.0027435876 -0.011581824 2.9251e-41
0.00011948322 -0.00019255544 0.0015376365 -0.0015575471 7.4074605e-21 0.0012387583 0.00023754743 1.940549e-05
-2.29091e-11 2.8048799e-08 -0.00032802773 0.00026056034 -0.0001196653 0.0036680137 -0.0019613213 -5.7466692e-05
00000000: a088 848f 179c 0205 4232 74b9 2f7d 3f28
00000010: fd35 173b 89c9 7bbb e974 29a3 7362 c538
00000020: b9f9 0139 0948 a939 6e89 dc35 ee49 6e3a
00000030: a26e da33 72ee 26ae 8dac cbb5 9fce 8632
00000040: a60f 0080 f06e 053a 0920 1839 5fb9 073a
00000050: ca89 1d3b a6c3 c00e 1cd2 78ba 4b99 fa39
00000060: d776 f631 e694 31bb e2b6 85b1 179a 42b4
00000070: 47bc 043c a93a 97b3 45f5 d53a d112 beba
00000080: bb6d e5ab 59ac 8fba 9393 9fb4 ae79 d1b9
00000090: a6de 0bba 722d d236 0256 92b0 a014 d139
000000a0: ebc2 91ba 00fb 5d39 d30f 0280 98a6 01bb
000000b0: 7e8c 67b6 4edc 0abb 0222 1bbc 30a5 0000
000000c0: 3120 2739 bba0 6b3a 6808 873b 8ccb 44ba
000000d0: 29a9 de9c bdf7 da3c bb9b 7c34 92c9 71b5
000000e0: 0b1d 18ad 25b3 0533 c45a 6bb9 2f2a 5d39
000000f0: cc41 0fb9 51b5 963b ef97 4eba 7969 88b7
00000100: 4643 640f 542d ca04 abb8 fab8 b9c3 57aa
00000110: 9a5d 113a 1b90 4337 beec 2323 c134 65bb
00000120: 1bd7 c238 4046 9439 a693 2836 1924 963a
00000130: 0160 1137 8434 7e2e 9708 bb35 f2b7 09b2
00000140: 63e6 0280 3930 fcb6 e017 8739 4e59 1bba
00000150: e8f2 363a 235f ab8d 6864 eb39 e07d 49ba
00000160: 986b ad32 5ea5 c739 796b cd31 fe6b 9934
00000170: deec b239 ec8d 8e33 e339 fb3a 83f2 06ba
00000180: 4565 592b ccd7 8d3a fbca 2536 9df6 61ba
00000190: c9cf daba 73d7 adb5 b589 1130 d117 8c39
000001a0: bca0 a3ba b6f8 023b 4d6e 1280 9e76 b33a
000001b0: 8f15 c036 2842 beba dc9a 6ab9 8918 0180
000001c0: 5aaa 323a cefc 5438 0b8c 0f3b bb6c 00bb
000001d0: 3b80 c01d fbce 7e3a e7fe 773b 528a 97b6
000001e0: 067c 1b2d 09f6 d1b1 f464 2eb9 74be c6b8
000001f0: a7db 27ba bfbc 69ba bc07 aeba 5a24 7d37
00000200: a4a8 068d a7b3 f180 d0ba 2e39 5f81 c8a6
00000210: fda1 0b3a 9e91 673a 6620 ea1f 7ba1 0a39
00000220: 5fec 9337 8d73 c135 8b94 17b5 f927 e237
00000230: 0528 8534 2dbc 82ad a4ea 17b2 f0c1 f82f
00000240: 18ba 0000 1db6 6037 3516 7eb8 c78a 8237
00000250: 0720 27b8 ceb7 310d a093 2d39 f348 3a3a
00000260: c371 7731 f3e1 25b8 8370 f1b0 aa90 d9b2
00000270: c71f 2bb9 07bf 4ab2 a6c6 3f39 80fc d1b8
00000280: 6c80 d7a8 c8a9 ffb9 747a 8bb2 0371 213a
00000290: 714c b2b8 1c91 6735 eddb 5aaf 526c 8e38
000002a0: 5887 1039 ee88 8939 ffc2 0000 9bcc 123a
000002b0: 1d53 31b3 24db 0539 2497 723b 761b 0100
000002c0: e251 0f39 0078 a3b9 9f23 3a3b 6f55 0aba
000002d0: 5a27 851c 1ab2 dfba 68a3 6f39 b78e 4435
000002e0: 5fa0 8baa 7774 1c31 fdf6 1737 cccb 5338
000002f0: a12a 3438 a076 2c3a ad16 1bb9 e957 0cb5
00000300: 61c6 b58f f3da a783 4c03 173b bfcf ae2a
00000310: a49b a93a 0fdd 853a 47b0 f0a1 8202 d13b
00000320: 9183 cf39 1112 193a 05a1 0cb7 d93b 9037
00000330: dc30 2836 454d c930 2d0a bab5 752e 12b4
00000340: adb2 0400 b9cf 8138 7697 1039 6dd5 3eba
00000350: fea2 67ba 560a 660f 994a 2b3b 76b1 2b3b
00000360: 098c 4533 0179 db39 8819 0e32 fb01 87b5
00000370: bfbe 193c c292 c0b4 f4bf 463a e8d7 d3ba
00000380: 14cb da29 c074 53bb 58a5 3037 c023 003c
00000390: 8cec a7b9 f59e a2b7 e1e6 8532 d0ea 3d3a
000003a0: efac 7ebb 2dcf 313b 47af 0880 e45c d83b
000003b0: 124a 08b7 c3cd 33bb b1c1 3dbc 8a51 0000
000003c0: 1193 fa38 b5e8 49b9 858a c93a 9c26 ccba
000003d0: 48ec 0b1e d55d a23a 2716 7939 f9c8 a237
000003e0: b582 c9ad f6ef f032 23fb abb9 d19b 8839
000003f0: d2f4 fab8 0f63 703b 8389 00bb 6408 71b8

node_encoder.lins.1.bias f4 [128]
4.370298e-07 3.1952257e-07 -6.872241e-08 -1.8131874e-06 -2.7170682e-07 -4.9293085e-05 4.061152e-07 -6.0571915e-06
-1.2504667e-07 -9.455929e-06 3.644056e-07 -8.604653e-06 -3.4643683e-08 -1.233564e-05 -4.9669132e-05 6.3722797e-07
3.8388705e-05 -3.0603817e-06 3.2254084e-05 -5.3976114e-06 4.9348146e-06 -6.3066924e-05 1.29457285e-05 1.0362386e-10
4.8316913e-05 0.000334116 5.8614756e-07 -2.2412254e-05 -2.5713643e-06 4.7553777e-07 2.9409048e-05 -1.3840307e-05
1.5017153e-05 -4.825953e-06 5.034449e-07 -1.6331956e-09 -7.74276e-05 -4.5498364e-05 -6.847121e-05 -1.3064667e-06
-1.1057399e-05 -8.195271e-06 -2.901742e-06 -1.6667285e-06 -5.758987e-06 -5.015273e-08 8.3134154e-07 -9.826633e-06
-6.520713e-06 1.33802005e-05 1.2021148e-06 3.774728e-08 5.4876965e-09 1.2673195e-06 -8.434643e-06 -7.177114e-05
-3.170793e-07 1.962175e-05 -7.035233e-05 2.7303107e-05 -4.3449877e-08 3.4882625e-08 -8.9233465e-09 3.776888e-10
2.615016e-06 -7.232084e-08 -3.7890652e-06 -1.4260744e-06 6.388115e-05 2.9363967e-10 2.4941703e-05 3.3818716e-05
1.1116001e-05 -9.277658e-05 5.0581726e-05 5.7323376e-07 -2.5523364e-06 4.4837384e-06 1.632702e-05 9.581538e-08
2.372522e-06 1.5857584e-05 -4.2367723e-05 -3.6597616e-05 -9.703267e-06 3.9288487e-05 1.4926181e-07 2.0901145e-05
5.1540155e-05 -4.98532e-06 0.00011789883 2.5560154e-05 2.347654e-09 6.215729e-07 -2.2406173e-05 -1.2579594e-05
-1.036727e-05 -1.2844391e-06 -5.642782e-12 3.882463e-05 -9.776945e-08 1.0499099e-07 4.5857665e-05 -3.0679234e-07
1.620393e-09 2.9772176e-08 -3.6635018e-05 -3.6132526e-08 -9.117738e-06 -3.0635017e-06 -1.4906806e-06 -5.272256e-06
-3.9707313e-05 2.6814516e-06 -1.1114105e-05 -4.6420155e-06 3.244216e-05 1.8312393e-07 -4.5375825e-11 4.1248253e-08
1.9920044e-05 9.197954e-11 -6.399825e-06 -1.9022646e-05 4.4997512e-07 -2.5544664e-10 1.5295358e-08 4.943037e-06
00000000: eba0 ea34 d98a ab34 8b94 93b3 a55c f3b5
00000010: 1adf 91b4 0cc0 4eb8 0c08 da34 e13e cbb6
00000020: 9144 06b4 e8a4 1eb7 86a3 c334 b45c 10b7
00000030: 22cb 14b3 2cf5 4eb7 d353 50b8 f90d 2b35
00000040: 8f03 2138 f560 4db6 8f48 0738 211d b5b6
00000050: bc95 a536 cc42 84b8 7b31 5937 0cdf e32e
00000060: e4a7 4a38 4a2c af39 c157 1d35 f301 bcb7
00000070: b48f 2cb6 6a4d ff34 73b3 f637 aa33 68b7
00000080: 2ef2 7b37 9fee a1b6 7824 0735 f676 e0b0
00000090: a060 a2b8 7fd5 3eb8 3398 8fb8 db59 afb5
000000a0: 2b83 39b7 6c7e 09b7 8cbb 42b6 5bb4 dfb5
000000b0: 523d c1b6 8367 57b3 5b29 5f35 11dd 24b7
000000c0: 80cc dab6 867b 6037 5a58 a135 931f 2233
000000d0: 4a8e bc31 c418 aa35 8482 0db7 d683 96b8
000000e0: 0c3b aab4 6399 a437 1f8a 93b8 fa08 e537
000000f0: a59d 3ab3 dad1 1533 4b4d 19b2 f9a2 cf2f
00000100: a27d 2f36 cd4e 9bb3 a547 7eb6 8b67 bfb5
00000110: eef7 8538 1c6e a12f e639 d137 92d8 0d38
00000120: dc7e 3a37 0c91 c2b8 b727 5438 53e0 1935
00000130: ce48 2bb6 0573 9636 02f6 8837 10c3 cd33
00000140: 9e37 1f36 e705 8537 ffb3 31b8 6480 19b8
00000150: 37cb 22b7 b1c9 2438 c644 2034 de54 af37
00000160: d22c 5838 9347 a7b6 7440 f738 036a d637
00000170: 5e54 2131 2ada 2635 e4f4 bbb7 f20c 53b7
00000180: 16ef 2db7 fe64 acb5 a989 c6ac a1d7 2238
00000190: 53f5 d1b3 6877 e133 4b57 4038 38b5 a4b4
000001a0: 83b4 de30 b5bd ff32 8da8 19b8 2230 1bb3
000001b0: 63f8 18b7 8f96 4db6 6513 c8b5 56e8 b0b6
000001c0: 678b 26b8 fdf2 3336 b876 3ab7 9cc2 9bb6
000001d0: 8112 0838 b9a0 4434 a390 47ae ef28 3133
000001e0: f819 a737 e143 ca2e 14be d6b6 d292 9fb7
000001f0: 1c94 f134 eb6e 8caf d962 8332 5ddc a536

node_encoder.lins.2.weight f4 [128, 128]
0.00018735147 0.0012353043 0.0014715435 -0.0009649117 -4.890953e-05 0.12675312 2.9357116e-05 0.0002282468
7.6106553e-06 -3.9291494e-06 0.09654213 1.8855573e-05 -0.015104127 -0.00015788144 0.12945344 -0.0025580588
-0.13946511 0.060243696 -0.20994173 0.00018952745 0.053237434 0.108556464 0.00020014601 -5.4999302e-05
-0.11026527 0.14467703 1.412793e-05 0.08295193 -0.011371497 -0.003345432 -0.036859356 0.060168095
0.08231379 -6.5391614e-06 0.0025553494 4.7035005e-06 -0.17494795 0.15756889 -0.17275903 0.016056228
0.03131662 0.07360103 0.04668599 -0.00072046084 0.006892354 0.051487487 -0.000113131646 -0.026055057
-0.062761374 0.08275823 1.1680478e-05 3.8583643e-05 2.1227937e-05 -0.0042296923 -0.0465207 0.18226661
0.0009417264 0.013109279 0.20252353 0.036417652 -2.5068102e-05 9.520715e-05 1.0060386e-06 -2.4340616e-05
0.16026327 0.0010689967 -2.6732034e-05 0.0024350458 0.11530769 -0.00021925737 -0.035498645 0.08868444
-0.112473026 0.13464051 -0.06188973 0.0023528687 -0.0012919158 -0.008752606 0.02054452 -0.00509139
0.044724047 -0.00744694 0.24877381 -0.1034193 -0.13781579 -0.17529759 -4.543405e-05 0.076773286
-0.15561949 0.0014443585 -0.15488343 -0.013500931 -2.5939236e-05 -0.0017819046 -0.04820814 6.9739062e-06
-0.0061987448 -0.00024289243 4.8408237e-05 0.11581399 -0.008974158 -0.012585861 0.08875692 -0.0087861605
1.6682043e-05 3.0586448e-06 0.06917306 -2.9253088e-05 0.041738763 0.00014922165 0.016514715 0.0010762478
-0.027035356 0.0007213663 -0.11835865 0.109954745 -0.051062237 -8.9327186e-05 7.530456e-06 7.735323e-05
-0.048583418 -5.597299e-06 0.017384639 -2.9527651e-05 -0.0013349201 3.0971844e-06 -1.2012067e-06 -0.000838632
0.00027398064 0.0001672165 6.153238e-05 -0.0012226073 1.5106822e-06 0.026565779 8.596411e-06 -2.840367e-05
-1.1416503e-05 1.9176673e-06 0.00421507 -1.1644318e-06 0.0017358365 0.0003964668 -0.011401183 0.0014871862
0.14935072 -0.020489328 0.0017316581 -2.4334422e-05 -0.07669491 0.009474057 8.790804e-05 0.00020890961
0.089100525 0.01927728 -2.3751957e-06 0.01556209 -0.013731972 -0.0007701064 -0.028461223 -0.027088834
-0.032539997 6.4199303e-06 -0.0022526537 9.430572e-07 -0.012794464 0.012315199 0.106450446 -0.02482713
-0.022301078 -0.0926852 -0.022945741 0.021102954 0.009700472 -0.014753871 0.0013532044 -0.033715934
-0.04122142 -0.015468275 -4.8952006e-05 -0.00020762076 2.2897044e-05 0.0010435922 -0.034662627 -0.24956897
-0.000329583 0.014638745 -0.04549225 0.011695188 -7.5212647e-06 1.7806002e-05 -3.9095366e-06 -0.00012564327
-0.1143364 0.00059800287 1.5766173e-05 0.0019686297 -0.097161636 6.118771e-06 -0.008813294 -0.10911315
-0.017511373 0.005377799 -0.0012644628 -0.0007459773 0.0007191181 0.04100339 -0.0030614922 0.0021400617
-0.008873402 0.0023790721 -0.04542985 0.04283323 -0.012157412 -0.0027423128 7.849791e-06 -0.0021072295
0.20024095 -9.071168e-05 0.11166775 0.008568774 4.215503e-06 -0.00031284118 0.040688753 1.861332e-06
0.01428581 0.003725296 -7.47517e-06 -0.060698718 -6.841977e-05 -0.006331912 0.04440011 -0.0015038984
4.589641e-05 1.8438516e-06 -0.07171605 7.152932e-05 -0.029716676 0.00018788844 0.003211017 -0.00082436955
-0.0051323343 0.000368208 0.043417618 0.054148473 0.02915833 2.7783315e-05 7.811531e-06 -9.706145e-06
0.10841115 1.4794889e-05 0.016281603 -5.879404e-07 -0.00024800768 6.439951e-06 -8.205028e-06 -0.0011520718
00000000: c773 4439 efe9 a13a cee0 c03a 21f2 7cba
00000010: 3524 4db8 92cb 013e ed43 f637 8955 6f39
00000020: 085f ff36 23d7 83b6 e1b7 c53d 092c 9e37
00000030: 4d77 77bc fa8c 25b9 718f 043e 1ba5 27bb
00000040: f1cf 0ebe 18c2 763d f7fa 56be e3bb 4639
00000050: 7f0f 5a3d da52 de3d 49de 5139 0daf 66b8
00000060: c2d2 e1bd 3726 143e ff06 6d37 b4e2 a93d
00000070: 844f 3abc 093f 5bbb d6f9 16bd d272 763d
00000080: 2294 a83d f86a dbb6 a677 273b c3d2 9d36
00000090: 8e25 33be bd59 213e bee7 30be 5a88 833c
000000a0: db45 003d 23bc 963d cf39 3f3d 4fdd 3cba
000000b0: 42d9 e13b 8be4 523d 1741 edb8 6a71 d5bc
000000c0: 0989 80bd 267d a93d 45f7 4337 dfd4 2138
000000d0: a612 b237 3b99 8abb 7d8c 3ebd 19a4 3a3e
000000e0: 30de 763a 4dc8 563c 5462 4f3e ad2a 153d
000000f0: 5749 d2b7 f3a9 c738 3907 8735 132f ccb7
00000100: 0e1c 243e 941d 8c3a 9b3e e0b7 4a95 1f3b
00000110: 7026 ec3d 74e8 65b9 0767 11bd 30a0 b53d
00000120: 4258 e6bd 34df 093e 1680 7dbd 9632 1a3b
00000130: 8055 a9ba 1767 0fbc fb4c a83c add5 a6bb
00000140: 9030 373d 7605 f4bb 90be 7e3e 7fcd d3bd
00000150: 951f 0dbe 3681 33be 7190 3eb8 503b 9d3d
00000160: b75a 1fbe a150 bd3a c399 1ebe 0233 5dbc
00000170: 1698 d9b7 cc8e e9ba e675 45bd 6601 ea36
00000180: d71e cbbb f1b0 7eb9 f309 4b38 e32f ed3d
00000190: 5908 13bc ed34 4ebc 30c6 b53d d4f3 0fbc
000001a0: 6af0 8b37 1e43 4d36 9baa 8d3d 8764 f5b7
000001b0: 44f6 2a3d 6278 1c39 de49 873c e210 8d3a
000001c0: 4079 ddbc 131a 3d3a 0566 f2bd f42f e13d
000001d0: a326 51bd 2b55 bbb8 20ae fc36 b338 a238
000001e0: 68ff 46bd 6fd0 bbb6 3b6a 8e3c 26b2 f7b7
000001f0: 7cf8 aeba 39d9 4f36 2639 a1b5 a4d7 5bba
00000200: 0fa5 8f39 d656 2f39 f20a 8138 e53f a0ba
00000210: a5c2 ca35 7aa0 d93c 4e39 1037 6b44 eeb7
00000220: 8289 3fb7 46b1 0036 921e 8a3b 9249 9cb5
00000230: 0285 e33a e0dc cf39 07cc 3abc b0ed c23a
00000240: 65ef 183e 3cd9 a7bc cef8 e23a c621 ccb7
00000250: 3912 9dbd 1339 1b3c 455b b838 bf0e 5b39
00000260: 567a b63d 63eb 9d3c 8d65 1fb6 23f8 7e3c
00000270: 11fc 60bc f7e0 49ba 8327 e9bc 67e9 ddbc
00000280: a948 05bd c86a d736 42a1 13bb 6626 7d35
00000290: df9f 51bc b0c5 493c b102 da3d 4462 cbbc
000002a0: c0b0 b6bc bdd1 bdbd b5f8 bbbc 1ae0 ac3c
000002b0: baee 1e3c 38ba 71bc 015e b13a b819 0abd
000002c0: cbd7 28bd a66e 7dbc d151 4db8 c6b4 59b9
000002d0: 0713 c037 25c9 883a 66fa 0dbd 028f 7fbe
000002e0: e2cb acb9 59d7 6f3c 1556 3abd 2c9d 3f3c
000002f0: 2c5f fcb6 195e 9537 aa2e 83b6 1cbf 03b9
00000300: 3429 eabd 4bc3 1c3a 9941 8437 2004 013b
00000310: aefc c6bd d84f cd36 a265 10bc b776 dfbd
00000320: 0374 8fbc 3f38 b03b 55bc a5ba b08d 43ba
00000330: 3383 3c3a 2cf3 273d 51a3 48bb 4740 0c3b
00000340: bf61 11bc 35ea 1b3b a714 3abd e671 2f3d
00000350: e22f 47bc 60b8 33bb 98b2 0337 7219 0abb
00000360: f70b 4d3e 763c beb8 10b2 e43d 0b64 0c3c
00000370: e572 8d36 d504 a4b9 40a9 263d e1d2 f935
00000380: 080f 6a3c 1824 743b 39d3 fab6 389f 78bd
00000390: 967c 8fb8 ed7b cfbb e4dc 353d 751e c5ba
000003a0: e580 4038 427a f735 dddf 92bd 0302 9638
000003b0: 6370 f3bc eb03 4539 ed6f 523b 811a 58ba
000003c0: 242d a8bb 0b0c c139 acd6 313d caca 5d3d
000003d0: 73dd ee3c 3710 e937 450e 0337 93d7 22b7
000003e0: aa06 de3d 9037 7837 ff60 853c f5d2 1db5
000003f0: 0707 82b9 c216 d836 54a8 09b7 1d01 97ba

node_encoder.lins.2.bias f4 [128]
0.33245033 -0.12332348 -0.12737066 -0.09489691 -0.15232918 -0.18882483 -0.0937917 -0.07915246
-0.087035954 -0.08352794 -0.09262693 -0.13548607 -0.10117325 -0.12939043 -0.10052744 -0.14738525
-0.085748725 -0.039210923 -0.0796098 -0.1617199 -0.16000092 -0.13481419 0.022145187 -0.16479002
-0.114131965 -0.10327773 -0.096043445 -0.04876655 -0.14800751 -0.11725256 -0.1417215 -0.10263129
-0.10041986 -0.061037686 -0.16290073 -0.10306049 -0.11419822 -0.10822759 -0.09757285 -0.07245431
-0.15530951 -0.19714637 -0.121657096 -0.07574637 -0.083105356 -0.105708316 -0.12662569 -0.09333577
-0.17457066 -0.07707795 -0.16444531 -0.09273162 -0.16281512 -0.16183957 -0.12772863 -0.13786012
-0.0755906 -0.083738275 -0.10252091 -0.10756312 -0.07715494 -0.056966577 -0.13996711 -0.16568854
-0.0813261 -0.12681483 -0.097643524 -0.13896051 -0.14752948 -0.11424644 -0.12582572 -0.105830505
-0.11240191 -0.09203955 -0.11026532 -0.09229881 -0.19367267 0.027325017 -0.0580781 -0.17907305
-0.07853578 -0.16854961 -0.10537666 -0.08267013 -0.09952735 -0.10153578 -0.13312532 -0.0673571
-0.06372913 -0.15483567 -0.0737654 -0.11512219 -0.09010522 -0.08944625 -0.18485256 -0.1395299
-0.14784393 -0.089710064 -0.08843182 -0.08632519 -0.14258893 -0.09675658 -0.09600613 -0.102081485
-0.095192544 -0.09957194 -0.10575208 -0.11214755 -0.13721626 -0.07552581 -0.1557962 -0.14811896
-0.08943727 -0.07198051 -0.13016157 -0.121940896 -0.17148575 -0.18283124 -0.081719674 -0.079602666
-0.11631271 -0.14472347 -0.09618675 -0.18214133 -0.10694781 -0.13054498 -0.116993666 -0.1240796
00000000: ee36 aa3e 0591 fcbd 746d 02be 5059 c2bd
00000010: 2efc 1bbe 4c5b 41be dd15 c0bd af1a a2bd
00000020: e83f b2bd b210 abbd 30b3 bdbd dcbc 0abe
00000030: ec33 cfbd ed7e 04be 55e1 cdbd 29ec 16be
00000040: 079d afbd a29b 20bd 760a a3bd e799 25be
00000050: 48d7 23be bb0c 0abe d369 b53c b7be 28be
00000060: 05be e9bd 4683 d3bd 6db2 c4bd 6fbf 47bd
00000070: 488f 17be 1c22 f0bd 711f 11be 5b30 d2bd
00000080: eda8 cdbd a702 7abd 73cf 26be 6111 d3bd
00000090: c2e0 e9bd 6da6 ddbd 46d4 c7bd ed62 94bd
000000a0: 7509 1fbe bde0 49be 5b27 f9bd ea20 9bbd
000000b0: 2433 aabd 9a7d d8bd 2aaa 01be d326 bfbd
000000c0: a7c2 32be 0bdb 9dbd 5a64 28be 13ea bdbd
000000d0: 02b9 26be 46b9 25be 4bcb 02be 342b 0dbe
000000e0: 3fcf 9abd f97e abbd 7cf6 d1bd 0e4a dcbd
000000f0: 6903 9ebd c955 69bd 8a53 0fbe 42aa 29be
00000100: 4c8e a6bd bfdb 01be 54f9 c7bd aa4b 0ebe
00000110: f811 17be 0afa e9bd 75d8 00be aabd d8bd
00000120: f932 e6bd 3b7f bcbd c9d2 e1bd 2907 bdbd
00000130: 2152 46be b7d8 df3c 4de3 6dbd ed5e 37be
00000140: 5ed7 a0bd 4598 2cbe b8cf d7bd f54e a9bd
00000150: ffd4 cbbd fef1 cfbd 0152 08be 85f2 89bd
00000160: 6b84 82bd 3e8d 1ebe 5012 97bd 2fc5 ebbd
00000170: 1689 b8bd 982f b7bd fd49 3dbe ede0 0ebe
00000180: 6664 17be e9b9 b7bd be1b b5bd 43cb b0bd
00000190: d502 12be 5028 c6bd dd9e c4bd 1910 d1bd
000001a0: 4ff4 c2bd 60ec cbbd 8c94 d8bd 9dad e5bd
000001b0: 6b82 0cbe 47ad 9abd 0a89 1fbe 7fac 17be
000001c0: e32a b7bd 856a 93bd 1349 05be 26bc f9bd
000001d0: f699 2fbe 1d38 3bbe a55c a7bd b906 a3bd
000001e0: 5c35 eebd 6432 14be 8ffd c4bd 4283 3abe
000001f0: 7407 dbbd 95ad 05be 609a efbd 721d febd

node_encoder.norms.0.module.weight f4 [64]
8.345658e-12 1.0548038e-19 0.44433826 1.7053509e-06 0.45507035 0.54934484 1.9761834e-09 1.0950068
0.052698586 0.19036916 0.0007167881 0.4795334 -0.0012208913 -2.2258519e-06 0.00038078165 7.5674857e-06
-9.911995e-21 0.13314003 0.11001524 0.5571146 0.49503815 -1.6398027e-11 0.47115195 0.3645085
3.961795e-06 0.41854808 -5.9458824e-07 -2.2106684e-05 0.43115783 1.774405e-05 0.35643482 0.4412801
-1.1697751e-08 0.48922247 -0.0001975893 0.45517263 0.5893717 0.0023426486 7.5229366e-07 0.49895284
0.72036743 0.43473548 9.819e-42 0.60072666 0.0009855826 0.43709266 0.49867496 -1.0780541e-14
0.36218584 0.3295206 0.330055 0.43410435 1.3504509e-09 0.5783744 0.771335 0.001053899
4.996624e-07 4.4946028e-06 0.07204555 0.09099311 0.26665586 0.5433054 0.6704568 0.004055825
00000000: 81d1 122d fa0e f91f 4e80 e33e 69e3 e435
00000010: fbfe e83e dda1 0c3f 63cd 0731 2f29 8c3f
00000020: 79da 573d 22f0 423e d6e6 3b3a 6785 f53e
00000030: 5006 a0ba d85f 15b6 a6a3 c739 35ec fd36
00000040: 773b 3b9e dc55 083e ac4f e13d 109f 0e3f
00000050: a475 fd3e 133d 90ad d43a f13e dca0 ba3e
00000060: 8fef 8436 ef4b d63e cb9b 1fb5 be71 b9b7
00000070: b8c0 dc3e 0fd9 9437 a07e b63e 77ef e13e
00000080: 41f7 48b2 5e7b fa3e f92f 4fb9 630c e93e
00000090: 10e1 163f 1f87 193b 3af1 4935 bf76 ff3e
000000a0: 006a 383f a695 de3e 5f1b 0000 39c9 193f
000000b0: aa2e 813a 9cca df3e 5352 ff3e 7834 42a8
000000c0: 6c70 b93e edb6 a83e f8fc a83e ed42 de3e
000000d0: c49a b930 5810 143f 3676 453f fb22 8a3a
000000e0: 8a20 0635 58d0 9636 9e8c 933d 985a ba3d
000000f0: 1e87 883e 1016 0b3f 0fa3 2b3f bae6 843b

node_encoder.norms.0.module.bias f4 [64]
1.8631856e-31 4.2575926e-38 0.026231669 -3.4559137e-16 0.48540547 0.04094055 -1.9320146e-19 -0.006651785
-0.0036811444 0.009817609 -2.151688e-07 0.067026965 1.5058802e-07 7.561975e-11 -4.182018e-08 1.9440498e-10
-3.4798e-40 -0.0065735723 -0.0034747883 0.09246097 -0.10492642 -2.2331597e-31 -0.0077074254 0.05616605
1.6760572e-10 0.122254424 -2.063326e-10 -1.6374065e-09 0.4095471 -5.3693574e-09 0.0744002 -0.06554613
-1.2155166e-14 -0.053127825 5.2290613e-08 0.08031373 -0.047629062 -1.8186547e-06 8.2402384e-11 0.0012745709
0.030706529 0.07882098 5.86346e-39 0.05433218 -2.7812203e-07 -0.009206 0.47730887 -8.77437e-40
-0.018426742 0.03238342 0.003193174 -0.1236517 -2.3532165e-22 0.60296834 0.047206517 2.1724269e-07
-8.041479e-14 2.3510083e-10 0.0016877354 -0.0011253239 -0.0006524677 0.58744967 -0.07036053 -2.8245242e-06
00000000: f6da 710c 2ece 6701 cce3 d63c 4938 c7a5
00000010: 1187 f83e 47b1 273d 8f17 64a0 38f7 d9bb
00000020: 5b3f 71bb 09da 203c 2609 67b4 6f45 893d
00000030: 52b1 2134 224a a62e c69d 33b3 23c0 552f
00000040: 07ca 0380 1f67 d7bb 46b9 63bb 2d5c bd3d
00000050: aae3 d6bd bbf0 908c 928e fcbb 5f0e 663d
00000060: d148 382f 8760 fa3d 77dd 62af 1f0b e1b0
00000070: 28b0 d13e 5e7d b8b1 225f 983d 0d3d 86bd
00000080: cff7 5aa8 909c 59bd 2396 6033 867b a43d
00000090: b116 43bd 8018 f4b5 6b34 b52e 810f a73a
000000a0: 428c fb3c e56c a13d f1d8 3f00 6c8b 5e3d
000000b0: cd50 95b4 c3d4 16bc d461 f43e f08d 0980
000000c0: aef3 96bc 7aa4 043d 9244 513b 1a3d fdbd
000000d0: 433e 8e9b 225c 1a3f 9f5b 413d 3743 6934
000000e0: f813 b5a9 803f 812f 0137 dd3a 9b7f 93ba
000000f0: 5e0a 2bba 1a63 163f 2e19 90bd f58c 3db6

node_encoder.norms.0.module.running_mean f4 [64]
7.9604715e-15 -2.6836963e-07 0.08588196 1.4698166e-10 0.0027661645 -0.063554645 5.54523e-11 0.18601672
-0.023634473 -0.027282597 -0.01040836 -0.20474921 0.014907705 -6.4662913e-07 0.008660146 -0.0005909401
-1.9006103e-13 -0.09851289 -0.055180732 0.043200295 -0.026417406 3.4512237e-13 -0.03614682 0.0049762684
-0.0014318024 0.0052386434 -0.00034463182 -0.0005967418 0.0028736198 0.0009706129 0.0011536261 -0.072287
-2.2514766e-06 -0.08654584 0.003624481 0.037268568 0.16398327 -0.050040353 1.7520271e-05 -0.043619815
-0.10669146 -0.020200247 2.7919406e-10 -0.021082237 0.014661876 -0.061572127 0.017281573 -1.468462e-17
-0.064961046 -0.020014826 0.0014926125 0.04942209 3.076982e-14 -0.003718087 -0.27837464 0.012833956
2.832544e-07 -8.006014e-05 0.07537471 -0.010436132 0.020805098 -0.009715096 -0.06885407 0.017852621
00000000: 3267 0f28 7114 90b4 e2e2 af3d a99b 212f
00000010: 8a48 353b f028 82bd bde1 732e 2b7b 3e3e
00000020: 159d c1bc c17f dfbc d387 2abc c7a9 51be
00000030: 723f 743c 0494 2db5 49e3 0d3c 52e9 1aba
00000040: 5dfd 55aa 20c1 c9bd 3105 62bd cbf2 303d
00000050: 5169 d8bc 6049 c22a b00e 14bd f70f a33b
00000060: 51ab bbba eda8 ab3b b3af b4b9 aa6e 1cba
00000070: 5753 3c3b bb70 7e3a 4535 973a 350b 94bd
00000080: 1318 17b6 f23e b1bd b388 6d3b eda6 183d
00000090: 3beb 273e 1df7 4cbd 7ff8 9237 b1aa 32bd
000000a0: 0d81 dabd fd7a a5bc 127d 992f a8b4 acbc
000000b0: 5d38 703c 0e33 7cbd 1692 8d3c 1471 87a3
000000c0: 4c0a 85bd 22f6 a3bc c4a3 c33a d16e 4a3d
000000d0: 3093 0a29 26ab 73bb 1f87 8ebe 8345 523c
000000e0: 3012 9834 f6e5 a7b8 0e5e 9a3d 4ffc 2abc
000000f0: 746f aa3c 112c 1fbc 5d03 8dbd a93f 923c

node_encoder.norms.0.module.running_var f4 [64]
7.053238e-38 1.074356e-24 8.858512 1.5622509e-16 0.2633047 1.2247443 5.9443225e-19 15.603965
0.6678736 1.7885413 0.02020999 7.707008 0.24557932 9.353896e-09 0.016272886 8.4367544e-05
2.9231416e-36 3.177975 1.0822173 2.2517703 0.7331278 1.2196437e-35 1.4780488 0.6810987
0.0005478438 0.5311329 1.8923825e-05 0.00028586824 0.19783412 0.00027510984 0.56770945 2.0193157
7.590232e-10 1.8286264 0.015630534 1.0301005 7.2022524 0.4067862 2.8072595e-06 4.0878325
5.616527 1.673372 5.0403332e-30 1.5776494 0.04637713 1.5721413 0.25668925 6e-45
1.6150695 0.4547936 0.27934104 1.3121064 2.552699e-24 0.3182963 12.606131 0.040944193
1.0528371e-11 6.8795507e-06 1.544908 1.0014389 1.4529057 0.30362326 5.6584325 0.10069394
00000000: e501 c001 a03f a617 77bc 0d41 821d 3425
00000010: e0cf 863e 6cc4 9c3f 0872 2f21 d7a9 7941
00000020: c4f9 2a3f ecee e43f 6c8f a53c cf9f f640
00000030: 2579 7b3e dfb2 2032 b74e 853c 7bee b038
00000040: 63ac 7804 f163 4b40 1986 8a3f 011d 1040
00000050: 43ae 3b3f dcb1 8105 b430 bd3f 7c5c 2e3f
00000060: 2d9d 0f3a 53f8 073f 9bbe 9e37 96e0 9539
00000070: 0795 4a3e 9e3c 9039 6855 113f 783c 0140
00000080: 82a3 5030 6e10 ea3f 9b0b 803c 55da 833f
00000090: da78 e640 4846 d03e 5a64 3c36 86cf 8240
000000a0: 97ba b340 0e31 d63f d075 cc0e 6af0 c93f
000000b0: f2f5 3d3d ed3b c93f c66c 833e 0400 0000
000000c0: 99ba ce3f b5da e83e ca05 8f3e 1af3 a73f
000000d0: 6a81 4518 bcf7 a23e b6b2 4941 19b5 273d
000000e0: 9137 392d e4d6 e636 8cbf c53f 262f 803f
000000f0: d0f8 b93f 8274 9b3e e111 b540 a038 ce3d

node_encoder.norms.1.module.weight f4 [128]
0.0013344747 0.0002444456 -0.000113107846 -3.463953e-06 1.5421278e-05 0.37720746 1.05828846e-07 1.3278325e-06
-5.116894e-05 6.805293e-05 0.4979038 -8.28049e-06 0.001851217 0.0005048761 0.43761632 0.0030898317
0.36570385 0.23541537 0.63652724 8.038751e-05 0.19485109 0.39670873 9.675022e-05 3.1077187e-05
0.43539155 0.45268017 -2.3112005e-05 0.2248425 0.046307974 0.00020490118 0.20922755 0.33187947
0.3656165 0.00010593539 0.050251827 -3.5414243e-06 0.5654214 0.43699563 0.48362863 0.08551878
0.10365111 0.19391073 0.09669661 0.05240556 0.024034383 0.12903151 0.00043129481 -0.04203445
0.15974145 0.37099183 1.0519456e-05 8.006896e-05 5.9162823e-05 0.04272442 0.1311988 0.578909
0.00026440088 0.060619317 0.5065324 0.06294446 -7.2564726e-05 1.6673137e-05 0.00010878074 5.644698e-06
0.5492675 0.00013044203 3.4114222e-05 0.00017926039 0.40066394 -1.6093487e-06 1.3420216 0.3465934
0.4153416 0.43033364 0.25078997 0.0032753404 -0.00016244668 0.08623743 0.047227036 0.0006977426
1.3483422 1.2508781 0.5634096 0.27199268 0.4685291 0.55725354 -8.812257e-05 0.17801584
0.5306876 0.00853669 0.43947917 1.4893311 -6.0038346e-05 0.000165837 0.1435709 -4.223612e-06
1.3927099 0.006520412 -2.2712682e-06 0.34793037 -0.0001585009 0.09045143 0.3921376 0.0003831095
-1.8151111e-05 -4.9803707e-06 0.21521337 -8.7371016e-05 0.091408335 -0.00069528475 0.028065708 0.0002288038
1.4718703 5.9436104e-05 0.31441832 0.44376352 0.28582907 9.514796e-06 3.3171877e-05 3.850699e-05
0.24596614 -2.368307e-05 0.02383496 -2.1450252e-05 -0.0011451173 2.9913908e-06 -1.8689123e-05 -0.00042727022
00000000: 8ae9 ae3a ef28 8039 5034 edb8 4276 68b6
00000010: f15c 8137 5621 c13e 0644 e333 fa37 b235
00000020: 3b9e 56b8 a3b7 8e38 3fed fe3e 6fec 0ab7
00000030: 89a4 f23a a959 043a 3f0f e03e c67e 4a3b
00000040: 893d bb3e ba10 713e 73f3 223f b795 a838
00000050: 0b87 473e 681d cb3e 61e6 ca38 e058 0238
00000060: a4eb de3e b2c5 e73e a7e0 c1b7 1d3d 663e
00000070: 6ead 3d3d beda 5639 bf3f 563e 1bec a93e
00000080: 1632 bb3e a129 de38 dcd4 4d3d 35a9 6db6
00000090: 75bf 103f e4bd df3e 2c9e f73e 7824 af3d
000000a0: 0847 d43d 8990 463e df08 c63d 36a7 563d
000000b0: c1e3 c43c d620 043e 691f e239 512c 2cbd
000000c0: 4393 233e a4f2 bd3e b87c 3037 b2ea a738
000000d0: 9925 7838 cdff 2e3d fa58 063e 6133 143f
000000e0: 499f 8a39 f64b 783d 1bac 013f 06e9 803d
000000f0: e42d 98b8 4add 8b37 3721 e438 9667 bd36
00000100: cb9c 0c3f 44c7 0839 de15 0f38 d8f7 3b39
00000110: d323 cd3e cd00 d8b5 5dc7 ab3f b174 b13e
00000120: a7a7 d43e b154 dc3e 8b67 803e 18a7 563b
00000130: 7356 2ab9 409d b03d 2371 413d b7e8 363a
00000140: 7a96 ac3f c61c a03f 9d3b 103f a042 8b3e
00000150: 0ce3 ef3e 2ba8 0e3f 72ce b8b8 c949 363e
00000160: 24db 073f 79dd 0b3c 6a03 e13e 67a2 be3f
00000170: afd1 7bb8 88e4 2d39 4004 133e 8db8 8db6
00000180: 5144 b23f 2ea9 d53b 176c 18b6 ee23 b23e
00000190: 4333 26b9 993e b93d 42c6 c83e 16dc c839
000001a0: 3743 98b7 0f1d a7b6 e560 5c3e f53a b7b8
000001b0: 4b34 bb3d c543 36ba 0eea e53c 0deb 6f39
000001c0: 3f66 bc3f 084b 7938 70fb a03e f934 e33e
000001d0: 3058 923e bda1 1f37 0822 0b38 9182 2138
000001e0: 8cde 7b3e 01ab c6b7 8941 c33c 11f0 b3b7
000001f0: c317 96ba b4bf 4836 96c6 9cb7 3d03 e0b9

node_encoder.norms.1.module.bias f4 [128]
-0.0011597569 0.0002086006 -0.0001938673 -2.8431965e-05 1.7790322e-06 0.27851886 2.3774617e-05 -6.6287964e-07
-4.6826383e-07 -3.78727e-06 0.36629593 -2.5388292e-06 -7.725674e-05 -0.00015540644 0.4035632 0.00068696885
-0.27663562 0.1355659 -0.590799 -1.2147909e-05 0.090065874 0.29103363 5.4309556e-05 0.00029287612
-0.3326657 0.3558064 2.1738667e-07 0.16411665 -0.027783224 0.0003408687 -0.06243582 0.1715857
0.2225453 6.5609333e-06 -0.0066073155 8.6340447e-07 -0.53291386 0.33072394 -0.39592332 -0.00069210585
0.02106423 0.092136465 0.025984485 0.025346657 -0.0018000643 0.065742746 0.00048438282 -0.021507958
-0.06857478 0.17698859 -4.7982576e-05 -0.00024330911 1.0220745e-05 -0.014279678 -0.04553685 0.46487972
6.6609664e-06 0.006439851 0.4574035 0.011428981 1.14975755e-05 -1.6493062e-06 8.041216e-06 -0.00017863506
0.47529104 0.000100438636 -2.2593384e-05 -0.0009364382 0.2511299 3.75541e-06 -0.039782356 0.24670057
-0.29307455 0.34965277 -0.11787903 -0.00055047806 2.7949447e-05 0.014598939 0.0070279823 0.00018429355
-0.032899473 0.00060854945 0.56581604 -0.17543255 -0.32689166 -0.542406 6.8214954e-06 0.10014357
-0.44133267 0.0048332005 -0.3313138 -0.009289027 -8.801361e-06 -0.00041444917 -0.010992249 1.751083e-05
-0.013235664 0.002259727 3.059145e-06 0.2617438 0.00023265666 -0.01766312 0.24932612 -0.001031661
6.438965e-05 -4.2648683e-08 0.11745656 -2.3584533e-05 0.021497222 -0.00025105127 0.003029391 0.00017155168
0.0982188 0.00014976785 -0.2086002 0.29976913 -0.14442712 -5.1266845e-05 8.14789e-06 -2.2700906e-06
-0.07422374 1.9715959e-05 0.0077720527 -9.977987e-06 -1.7487566e-05 -5.3921435e-06 -1.1965186e-05 0.00024540056
00000000: fc02 98ba ccbb 5a39 db48 4bb9 2e81 eeb7
00000010: 15c7 ee35 069a 8e3e 9a6f c737 bef0 31b5
00000020: b165 fbb4 ce28 7eb6 248b bb3e c160 2ab6
00000030: e504 a2b8 99f4 22b9 d69f ce3e b315 343a
00000040: 2fa3 8dbe cad1 0a3e 9a3e 17bf dfce 4bb7
00000050: 7574 b83d 5c02 953e 71ca 6338 2b8d 9939
00000060: 2953 aabe 422c b63e cb6a 6934 320e 283e
00000070: a599 e3bc 9fb6 b239 b4bc 7fbd 29b4 2f3e
00000080: eae2 633e fd25 dc36 2e82 d8bb b4c4 6735
00000090: 0b6d 08bf a654 a93e 76b6 cabe 706e 35ba
000000a0: e48e ac3c 0bb2 bc3d 6add d43c cba3 cf3c
000000b0: 23f0 ebba 22a4 863d c3f4 fd39 7531 b0bc
000000c0: ef70 8cbd 7f3c 353e e640 49b8 cb20 7fb9
000000d0: c479 2b37 50f5 69bc d984 3abd b704 ee3e
000000e0: 4481 df36 6305 d33b cb30 ea3e 9f40 3b3c
000000f0: b6e5 4037 bb5d ddb5 c2e8 0637 fc4f 3bb9
00000100: 5959 f33e 95a2 d238 ec86 bdb7 4e7b 75ba
00000110: 1994 803e 7405 7c36 d3f2 22bd 139f 7c3e
00000120: de0d 96be b005 b33e 906a f1bd f54d 10ba
00000130: fb74 ea37 6330 6f3c fd4a e63b ec3e 4139
00000140: 99c1 06bd 1087 1f3a 52d9 103f 97a4 33be
00000150: 585e a7be 1fdb 0abf 33e4 e436 1218 cd3d
00000160: 5bf6 e1be d35f 9e3b f6a1 a9be 0131 18bc
00000170: 8fa9 13b7 6d4a d9b9 d518 34bc 39e4 9237
00000180: 66da 58bc ee17 143b b64b 4d36 4903 863e
00000190: 4cf5 7339 3fb2 90bc 594f 7f3e cd38 87ba
000001a0: ee08 8738 b92c 37b3 118d f03d 66d7 c5b7
000001b0: f11a b03c 889f 83b9 bf88 463b 8ee2 3339
000001c0: f026 c93d 000b 1d39 4a9b 55be 577b 993e
000001d0: b4e4 13be 5b07 57b8 ecb2 0837 dc57 18b6
000001e0: 9e02 98bd b363 a537 b4ac fe3b 2167 27b7
000001f0: 43b2 92b7 29ee b4b6 15be 48b7 1ba9 8039

node_encoder.norms.1.module.running_mean f4 [128]
0.013646265 0.0016440292 0.0014038694 0.0036394377 -4.8071815e-05 0.10683769 1.4947184e-07 -0.00041960424
2.5244613e-06 1.9305803e-06 0.12583108 -0.00016297087 -0.0089538675 -0.001784886 0.095733486 -0.0003700661
-0.15966141 0.1205186 -0.15871963 -7.412373e-05 0.110811226 0.095943406 0.00013244162 -1.228222e-05
-0.12075067 0.35052034 -1.9421779e-07 0.024900537 0.0018371599 0.0047345227 -0.047466785 0.10087719
0.16858257 -2.3587952e-06 -0.0049175853 1.0164663e-05 -0.22936134 0.092407025 -0.2776199 0.03312684
0.01719833 0.098469965 0.0146289235 -0.00172403 -0.014693434 0.06983474 0.007122216 0.008236611
-0.048411563 0.1061584 2.186964e-08 2.532812e-05 -4.273774e-06 5.2203035e-05 -0.062128063 0.16712303
-3.1161762e-05 0.037316177 0.24994133 0.04193722 3.0158859e-05 1.6097496e-05 -4.3029854e-06 1.15985735e-07
0.06908744 -0.0017011511 1.670368e-05 0.00072162045 0.0951627 9.297722e-05 -0.06481815 0.08976062
-0.11999562 0.083674885 -0.08222659 -0.0024658933 -0.004406262 -0.03679325 0.067091666 0.0018958626
-0.017832175 -0.13091536 0.107313275 -0.12465266 -0.13694656 -0.14135197 -1.6835733e-05 0.11094024
-0.1515283 -0.022487592 -0.20789398 0.11009683 -2.8568463e-06 -0.0015742016 -0.103998795 3.9028696e-06
0.03992527 -0.013473372 -0.0002898271 0.092355326 -0.0053636404 0.0043039015 0.065828696 0.004314372
1.9179174e-06 -3.433663e-05 0.07276631 -7.843744e-05 0.061697904 0.0020587181 0.006501427 -0.0009473204
-0.06802933 0.00028200037 -0.15486266 0.08180166 -0.087435864 1.4504339e-05 6.640214e-06 -0.00010344224
-0.08451853 3.1084778e-06 0.03009662 -4.0988863e-05 -0.00013465612 1.209741e-07 3.6827473e-06 0.0026938973
00000000: 9594 5f3c 777c d73a 0a02 b83a a283 6e3b
00000010: b8a0 49b8 b8cd da3d 827e 2034 54fe dbb9
00000020: ea69 2936 1e8f 0136 ddd9 003e 29e3 2ab9
00000030: 3eb3 12bc d6f2 e9ba eb0f c43d 6e05 c2b9
00000040: 487e 23be 75d2 f63d 6687 22be e072 9bb8
00000050: fff0 e23d fa7d c43d 07e0 0a39 bc0f 4eb7
00000060: 214c f7bd 6777 b33e 2e8a 50b4 36fc cb3c
00000070: dbcc f03a 0e24 9b3b 886c 42bd b398 ce3d
00000080: e9a0 2c3e cb4b 1eb6 b223 a1bb e588 2a37
00000090: b3dd 6abe e53f bd3d 3224 8ebe 02b0 073d
000000a0: 83e3 8c3c 9faa c93d 27ae 6f3c d9f8 e1ba
000000b0: bbbc 70bc 8405 8f3d 7a61 e93b daf2 063c
000000c0: 344b 46bd 9369 d93d d9db bb32 b977 d437
000000d0: 7067 8fb6 95f4 5a38 ff79 7ebd 4d22 2b3e
000000e0: b0b3 02b8 d9d8 183d 9ff0 7f3e 5dc6 2b3d
000000f0: a8fd fc37 1c09 8737 5d62 90b6 d513 f933
00000100: b77d 8d3d 29f9 deba e11e 8c37 212b 3d3a
00000110: a9e4 c23d c4fc c238 61bf 84bd 6ad4 b73d
00000120: 43c0 f5bd bd5d ab3d 6a66 a8bd d39a 21bb
00000130: 6862 90bb 85b4 16bd 5b67 893d 987e f83a
00000140: c814 92bc ad0e 06be 10c7 db3d e549 ffbd
00000150: b83b 0cbe 92be 10be 763a 8db7 a334 e33d
00000160: 3c2a 1bbe e637 b8bc 29e2 54be 727a e13d
00000170: 3fb8 3fb6 7155 ceba 52fd d4bd 65f5 8236
00000180: ae88 233d 6bbf 5cbc eff3 97b9 ca24 bd3d
00000190: 7ac1 afbb be07 8d3b 32d1 863d 935f 8d3b
000001a0: 92b5 0036 ad04 10b8 8106 953d c87e a4b8
000001b0: f1b6 7c3d 8feb 063b ec09 d53b 9955 78ba
000001c0: f652 8bbd 73d9 9339 5194 1ebe a187 a73d
000001d0: 9311 b3bd a957 7337 01cf de36 21ef d8b8
000001e0: 0d18 adbd 3e9b 5036 308d f63c 75eb 2bb8
000001f0: 7a32 0db9 1be5 0134 1e25 7736 198c 303b

node_encoder.norms.1.module.running_var f4 [128]
0.00019057964 2.7597576e-05 2.5724562e-06 0.00015822439 8.305148e-10 0.043714907 1.5194293e-12 7.849524e-09
3.6534623e-11 1.4399332e-10 0.06949076 1.0273878e-08 0.0007268433 5.446279e-05 0.055243153 8.3900224e-05
0.048772365 0.033136092 0.08674198 1.3352717e-08 0.025407147 0.04584973 3.415258e-07 1.9622101e-08
0.057119723 0.034161918 3.59363e-13 0.03290565 0.009657999 0.00023722029 0.032211024 0.04319668
0.033375055 4.3863385e-11 0.004933975 3.0231034e-10 0.06704972 0.06752168 0.04431075 0.014019387
0.018845009 0.031243691 0.016726512 0.010182143 0.0022632794 0.020766549 0.0006141805 0.0055769263
0.027339434 0.05183353 4.5113257e-11 5.961594e-08 1.772373e-09 0.008154269 0.018942002 0.07191813
2.8809225e-06 0.0095306765 0.06559446 0.011316038 7.2399833e-09 3.1465932e-09 4.274619e-10 2.9187887e-12
0.0770781 2.7272677e-05 1.4916967e-09 7.548632e-05 0.051816933 1.4315178e-09 0.11859593 0.03790826
0.047933448 0.048897676 0.035242308 9.556304e-05 0.0002224507 0.014996703 0.0035221304 5.8092053e-05
0.1104345 0.11635689 0.07158439 0.036453363 0.059340067 0.06791764 3.31532e-09 0.02677306
0.063856564 0.0026228765 0.04740113 0.11970737 4.6059037e-10 1.3494793e-05 0.02329497 1.1219203e-11
0.10843073 0.0008353742 9.196962e-09 0.054954395 0.0001281642 0.014844509 0.06931238 0.00036680565
3.5841993e-10 1.9505488e-10 0.028136991 2.5929287e-08 0.013678467 5.6776254e-05 0.002113721 1.7886816e-05
0.14428455 3.3538963e-05 0.03361573 0.065715894 0.035573013 2.644228e-10 1.3542818e-10 1.3626379e-08
0.041992527 8.840192e-12 0.0036868537 1.2905514e-09 4.5241322e-05 1.0714472e-12 8.796146e-11 0.000114114664
00000000: 55d6 4739 5881 e737 76a2 2c36 09e9 2539
00000010: 494a 6430 670e 333d 36d7 d52b 92da 0632
00000020: 54ae 202e 8452 1e2f 2c51 8e3d fe80 3032
00000030: a189 3e3a fa6e 6438 a546 623d 97f3 af38
00000040: 88c5 473d b6b9 073d c7a5 b13d df65 6532
00000050: a622 d03c edcc 3b3d f35a b734 758d a832
00000060: 5ff6 693d 5eed 0b3d ab4d ca2a 13c8 063d
00000070: 953c 1e3c 56be 7839 b5ef 033d 00ef 303d
00000080: 48b4 083d c8e9 402e 2fad a13b 6632 a62f
00000090: 5d51 893d ce48 8a3d 307f 353d 92b1 653c
000000a0: d960 9a3c c5f2 ff3c 0a06 893c 01d3 263c
000000b0: 8753 143b 9c1e aa3c f500 213a a6be b63b
000000c0: f3f6 df3c 654f 543d 0369 462e 3606 8033
000000d0: d597 f330 7c99 053c 422c 9b3c d049 933d
000000e0: df55 4136 8e26 1c3c 6356 863d e766 393c
000000f0: 91c3 f831 743b 5831 eaff ea2f 3964 4d2c
00000100: 1fdb 9d3d a1c7 e437 6904 cd30 694e 9e38
00000110: fe3d 543d 0ebf c430 6ce2 f23d b145 1b3d
00000120: dd55 443d ee48 483d 3d5a 103d 0469 c838
00000130: a841 6939 bbb4 753c 8bd3 663b dea7 7338
00000140: 7c2b e23d 854c ee3d d69a 923d 1f50 153d
00000150: 920e 733d 6718 8b3d bad3 6331 2d53 db3c
00000160: 3bc7 823d 91e4 2b3b b027 423d 2329 f53d
00000170: 5536 fd2f b267 6237 18d5 be3c cc5e 452d
00000180: ee10 de3d 03fd 5a3a ab00 1e32 dc17 613d
00000190: d163 0639 6236 733c a6f3 8d3d d24f c039
000001a0: 1f0b c52f 1177 562f 8c7f e63c 1bbb de32
000001b0: a61b 603c 0a23 6e38 5b86 0a3b a50b 9637
000001c0: 54bf 133e 30ac 0c38 a6b0 093d 0e96 863d
000001d0: 02b5 113d 335e 912f a5e7 142f 7319 6a32
000001e0: 5b00 2c3d af84 1b2d 249f 713b 3e5f b130
000001f0: 80c1 3d38 f4ca 962b e66d c12e d850 ef38
