tfg/models20250213095528/model_125.pt (torch, 819382 bytes, 36 tensors)

node_encoder.lins.0.weight f4 [64, 7]
000000 92 bc 24 bb ce 7f 7e bb 88 26 82 ba 9a 2f 87 37
       -0.002513681 -0.0038833502 -0.0009929696 1.611542e-05
000010 ff 16 06 3a 02 bd 2e 39 0d 55 95 b9 5a 75 3d a3
       0.0005115121 0.00016664344 -0.00028482862 -1.0270561e-17
000020 b7 02 ab 21 b1 8e 2d a1 31 89 49 28 cd 6b 0b 21
       1.1588129e-18 -5.880353e-19 1.118749e-14 4.7237705e-19
000030 76 50 48 21 59 a1 7d a2 84 f2 61 1d a1 c6 66 9d
       6.7869125e-19 -3.437331e-18 2.990388e-21 -3.0542935e-21
000040 34 c8 44 1e 2d 5d 9b ae a7 9a 3a 9e 7e 34 83 1e
       1.0417555e-20 -7.065135e-11 -9.878739e-21 1.3891875e-20
000050 46 88 2a 1e 1a 7d dd 39 ba 8b 54 bb b3 a7 45 3b
       9.027906e-21 0.00042245613 -0.0032431916 0.003015977
000060 32 eb 40 34 60 c4 3e b8 22 a6 a9 b8 b9 53 49 38
       1.7966957e-07 -4.548242e-05 -8.0894926e-05 4.8000107e-05
000070 dd 77 f5 bb 07 6c 3a 3a ec 42 88 3b c1 cf e0 3e
       -0.0074910955 0.0007111434 0.0041583683 0.43908504
000080 13 c5 bc be 93 b6 2c bf c9 fb d8 be 6f 45 60 3d
       -0.36869106 -0.67466086 -0.42379597 0.054753717
000090 73 35 3c bd 7d a8 19 3d 96 fb b6 b9 27 90 23 3c
       -0.04594941 0.0375142 -0.0003490119 0.009983099
0000a0 ec 26 ce 3b ed 74 ac bb df 84 1b bb e3 78 06 bc
       0.006291261 -0.005262962 -0.002373032 -0.008207533
0000b0 a5 16 81 3a ff 2a f9 38 e6 bd c8 3a 12 d3 45 39
       0.0009848668 0.00011881254 0.0015315383 0.00018866014
0000c0 d0 31 08 ba 45 c2 60 be c0 14 83 be 23 a6 7a be
       -0.0005195411 -0.21949108 -0.25601768 -0.24477439
0000d0 50 30 05 bd 22 a3 56 3c 99 a9 7e bd 75 92 10 bd
       -0.032516778 0.013100417 -0.06217346 -0.035295922
0000e0 6d 6a 66 25 6c 28 25 24 09 9c 60 25 f7 0f e2 a8
       1.9985378e-16 3.581291e-17 1.948177e-16 -2.5097964e-14
0000f0 73 a0 3e a5 28 69 84 23 0d bf 70 a4 db a9 a0 2e
       -1.6534235e-16 1.4356004e-17 -5.220353e-17 7.30613e-11
000100 b2 47 7a 2d 4d c4 f6 ac d3 9a 94 32 09 a8 ca ad
       1.4226774e-11 -7.0135343e-12 1.7299874e-08 -2.3039364e-11
000110 b2 77 09 2c 91 57 cd ad 2a 13 9a a9 94 90 2a 9b
       1.9535315e-12 -2.3344689e-11 -6.842298e-14 -1.4108786e-22
000120 a5 fe 81 a5 e8 26 a2 97 14 51 44 99 eb 4b 0a 19
       -2.2550487e-16 -1.0478826e-24 -1.0149336e-23 7.149764e-24
000130 8a ca 85 98 19 62 a6 ba 38 d2 0a ba 4f 98 b6 ba
       -3.4584206e-24 -0.001269403 -0.0005295607 -0.001393089
000140 3d ea c1 37 19 29 47 b9 3a 92 4a 39 38 65 c6 b8
       2.3116469e-05 -0.00018993429 0.00019318695 -9.460229e-05
000150 a1 01 c8 3a de 7b b9 3b b5 b9 4c 3a 42 f3 fc b6
       0.0015259275 0.005660518 0.0007809655 -7.538504e-06
000160 ca d7 3c 38 93 3c 1e 39 0f 3c 21 35 40 eb 25 3c
       4.5023662e-05 0.0001509062 6.006457e-07 0.010126889
000170 e2 c6 3c bb b0 36 70 3c 15 a4 a8 38 19 4b 26 39
       -0.0028805067 0.014661476 8.041427e-05 0.0001585897
000180 24 a4 4a bb 40 bc 14 bb a0 8e b7 bb 50 b0 af bb
       -0.003092059 -0.0022695214 -0.005601719 -0.0053615943
000190 06 59 25 ba 6e c1 db 35 c6 50 78 b9 65 2f fc b9
       -0.0006307516 1.6373067e-06 -0.00023681213 -0.00048100497
0001a0 f5 87 34 3a ac da 49 bd a9 d7 28 3d c9 1c e4 bb
       0.0006886714 -0.049280807 0.041221295 -0.0069614393
0001b0 fe cb be 37 1c 0d 0d 3b 4d 76 09 3c 04 d7 cb 3b
       2.2744756e-05 0.0021522706 0.0083900215 0.0062207
0001c0 1b 97 c6 bc 70 82 60 bd c3 b8 f6 3c 91 f0 ed 37
       -0.024241975 -0.054811895 0.030117398 2.8364624e-05
0001d0 9f 65 26 bc c5 61 05 3c 8a da 35 3a da e3 40 bd
       -0.010156064 0.008140986 0.0006937167 -0.047092296
0001e0 89 14 33 3d 10 7d d2 bc a8 99 db b9 2f 6c de bb
       0.043720756 -0.0256944 -0.00041885418 -0.006787799
0001f0 d0 71 f4 3b cf c8 01 3c b4 6c 29 3c 05 7c d9 3c
       0.0074598566 0.007921412 0.010340858 0.026548395
000200 56 70 1f bb 38 bf 9b b7 26 47 49 39 82 ab bc 39
       -0.0024328432 -1.8566483e-05 0.00019195359 0.00035985938
000210 df 5b 65 ba f4 f2 8b 3c ee ed d8 3c 5c 9f 09 bb
       -0.00087493466 0.017083623 0.026480641 -0.0020999527
000220 a4 64 ed b7 34 44 2e 3b da 89 30 b9 57 e0 92 bb
       -2.8299466e-05 0.0026590945 -0.00016836022 -0.00448231
000230 fa 96 65 bc f9 59 91 3b b7 56 e7 bb 99 05 ac be
       -0.014013046 0.0044357744 -0.0070598978 -0.3359802
000240 fa 26 29 3f 88 ed 94 be 3e c0 9f 3e 3e 1c 00 00
       0.660751 -0.29087472 0.31201357 1.0131e-41
000250 c0 1b 00 80 85 1b 00 80 b0 59 00 80 7a 1c 00 80
       -9.955e-42 -9.872e-42 -3.2174e-41 -1.0215e-41
000260 4a 1c 00 00 a2 1b 00 00 d7 cf f5 2a 5d d5 04 ab
       1.0148e-41 9.913e-42 4.366496e-13 -4.719192e-13
000270 ce 67 f2 2a f2 42 82 32 f1 d3 0c 2a 27 ce 6d 2a
       4.3059864e-13 1.5164435e-08 1.250803e-13 2.1121352e-13
000280 0f df e5 2a 75 37 f7 3a b8 49 5e 3a 0d 80 20 39
       4.083335e-13 0.0018861132 0.0008479613 0.00015306492
000290 d1 95 4c 35 4e 28 0e 38 0d 18 cc 38 43 9e 8e b8
       7.6213934e-07 3.3892975e-05 9.731958e-05 -6.800566e-05
0002a0 3b a2 80 97 62 61 4a 17 66 b5 7f 18 f5 e2 16 96
       -8.312759e-25 6.5392635e-25 3.304956e-24 -1.2188519e-25
0002b0 66 60 d2 17 04 f1 d0 96 f1 72 67 16 11 d3 a3 3d
       1.3595266e-24 -3.3756315e-25 1.86963e-25 0.07999242
0002c0 1f 58 40 bc 04 e6 9d bd 2a b7 86 bb f6 93 bf bd
       -0.01173976 -0.077098876 -0.0041111903 -0.09354393
0002d0 d1 ac ac 3d 47 9e b2 bc ee 09 9b 99 cf 3b 5c 1a
       0.084313996 -0.021803988 -1.6030635e-23 4.5543247e-23
0002e0 92 e6 17 1a 82 ea 9e a5 52 21 f3 99 15 c1 43 99
       3.141232e-23 -2.756754e-16 -2.5139069e-23 -1.0120256e-23
0002f0 0f 09 ac 98 be e5 bc 3c 9c c7 aa 3c ca d3 84 3c
       -4.4470105e-24 0.023058768 0.020847134 0.01621427
000300 34 05 c2 37 b0 c9 e5 ba 2f 11 5a ba cc 80 56 ba
       2.3129025e-05 -0.0017531421 -0.00083186006 -0.00081826444
000310 dd 48 56 3a 34 b2 80 3c 0d 0b 36 3b 3c 84 e2 3e
       0.00081743096 0.015709974 0.0027777583 0.44241512
000320 6c 26 0e 3f 6e fc 1d bf 27 32 dd bd 2c d3 6e 3c
       0.5552738 -0.617133 -0.108005814 0.0145767145
000330 14 99 8a bb b0 9f a2 3b 9d bc 60 b7 e0 d4 6f 38
       -0.004229674 0.004962884 -1.3395355e-05 5.7180296e-05
000340 c9 ff 24 ba a0 27 46 ba d2 1f 3a 3d b3 c8 5a 3c
       -0.00062942185 -0.0007559005 0.045440502 0.0133535145
000350 83 6a e9 bd 81 05 8c 3a ef 59 50 bd 59 68 f7 bc
       -0.113972686 0.0010682793 -0.050867017 -0.030201124
000360 d2 32 4b 3d e2 37 eb bb d0 e4 a7 39 bf d3 fa bb
       0.049609013 -0.0071782926 0.000320232 -0.0076546366
000370 04 5c ab 37 9a 33 1d b9 6d a7 ac 39 d5 36 d6 37
       2.0427637e-05 -0.0001499191 0.00032931138 2.5536321e-05
000380 70 41 8a 3c 56 98 e5 3c f0 37 31 bc b1 ea cf b8
       0.016876906 0.028026741 -0.010816559 -9.914244e-05
000390 78 61 60 3a 0d 48 2b b7 4c 6f 24 bb 9b 5d 08 3d
       0.0008559446 -1.020917e-05 -0.0025090752 0.033292394
0003a0 59 07 85 bc 36 36 21 3d a2 62 4f 39 c9 69 03 ba
       -0.016238855 0.03935834 0.00019777802 -0.00050130166
0003b0 4d 88 a6 bc 7c 78 ae bb 0f be 04 bc 31 60 05 3b
       -0.020328665 -0.0053244215 -0.008101954 0.0020351524
0003c0 13 ed 05 bc 4e 49 47 b8 c4 0a 0d b8 db 2a f9 39
       -0.008174199 -4.7513568e-05 -3.3627046e-05 0.0004752491
0003d0 da ba 19 39 f6 1f 2a 3a 15 7f 2e 3b 84 76 bd bb
       0.00014660825 0.0006489748 0.002662604 -0.0057819504
0003e0 c9 06 dd bc d6 e4 0c 3f e8 b4 8d 3e 77 3a 8a be
       -0.026980774 0.55036676 0.27677083 -0.2699773
0003f0 ec 89 31 2b 94 9d 0c 2a 65 53 4b a9 3f 09 d4 30
       6.3074437e-13 1.2489169e-13 -4.5147388e-14 1.5427658e-09

node_encoder.lins.0.bias f4 [64]
000000 21 29 40 33 72 35 a2 ad b5 8d be 2c 82 66 50 b6
       4.474089e-08 -1.8441002e-11 5.4158574e-12 -3.1054083e-06
000010 ee 65 85 37 85 0b 50 b7 5b d2 14 b6 78 9d 85 37
       1.59023e-05 -1.2400448e-05 -2.2176162e-06 1.5928163e-05
000020 46 28 9a 36 fa 9f a9 b0 69 b7 3f 32 c5 0d 96 34
       4.594246e-06 -1.2341836e-09 1.1159366e-08 2.7949696e-07
000030 2d 2f 18 b6 fb ed 48 36 b1 52 0f b4 06 8a 49 35
       -2.2677225e-06 2.9940845e-06 -1.3347996e-07 7.5079186e-07
000040 d4 f0 96 34 f5 1b 81 b6 60 ce 09 b5 51 49 b4 32
       2.8114903e-07 -3.847754e-06 -5.133679e-07 2.0988098e-08
000050 c2 ea 35 b6 a9 d4 26 37 cd f6 81 a4 62 5c 1a b4
       -2.7107749e-06 9.943885e-06 -5.636293e-17 -1.4375976e-07
000060 17 67 ec 35 56 21 85 b6 f7 57 55 b1 4c 28 e3 b5
       1.7613373e-06 -3.9675897e-06 -3.1045582e-09 -1.6924546e-06
000070 a3 85 01 b8 00 b4 91 31 86 ca 08 37 05 d3 8d 37
       -3.0880456e-05 4.240519e-09 8.153385e-06 1.6906773e-05
000080 60 e9 dd 33 36 86 a9 36 28 9a f3 35 ec d1 8b 38
       1.0333565e-07 5.0522167e-06 1.8149776e-06 6.6671375e-05
000090 9d 32 90 a7 0d 94 ef 35 f7 56 14 28 b4 79 f6 32
       -4.0022904e-15 1.7849976e-06 8.234508e-15 2.8693513e-08
0000a0 4a 9f d0 b6 15 11 77 34 ea 68 ba 2d 99 9a 5b b5
       -6.2174267e-06 2.3009882e-07 2.1192343e-11 -8.1808827e-07
0000b0 81 53 a9 b2 bb 4a 29 2e 99 81 c7 35 c6 9c 75 af
       -1.9712163e-08 3.8492525e-11 1.4864373e-06 -2.2338317e-10
0000c0 97 e6 16 33 1e a9 d6 a5 33 6e 5d 37 ab a8 35 37
       3.5134317e-08 -3.723768e-16 1.3198284e-05 1.0827712e-05
0000d0 a1 8c 26 a5 8f 3b 85 38 df 0f 02 b3 2e 7b f2 b3
       -1.4445852e-16 6.353028e-05 -3.028242e-08 -1.12914094e-07
0000e0 d7 fa 05 a8 ed 3e 85 b7 9f f4 41 30 43 f2 f3 b5
       -7.437375e-15 -1.5884138e-05 7.056062e-10 -1.8175418e-06
0000f0 ce 29 38 b2 85 da f0 b7 41 a2 49 b6 db d8 f1 25
       -1.0719715e-08 -2.8711986e-05 -3.0045778e-06 4.1953783e-16

node_encoder.lins.1.weight f4 [128, 64]
000000 ca 05 cc b8 43 32 4b 2f da dc 4a b5 67 f6 10 37
       -9.728556e-05 1.8480599e-10 -7.5572245e-07 8.640439e-06
000010 2b ce 62 3c 50 fd 84 39 93 6d ae b7 fb f6 c2 3c
       0.0138431 0.00025365734 -2.079344e-05 0.02379941
000020 83 23 87 33 53 0e f0 30 ec 5a b1 1f 80 f0 22 b8
       6.292887e-08 1.746637e-09 7.5112833e-20 -3.8847793e-05
000030 38 2b 87 b7 69 ad 10 39 8a 25 d9 37 80 06 29 b9
       -1.611338e-05 0.0001379751 2.5885896e-05 -0.00016119517
000040 51 c8 74 38 34 86 0f bb 50 06 6c 38 8d 19 ee b7
       5.8360692e-05 -0.002190006 5.6272664e-05 -2.8383709e-05
000050 48 da 65 bc 01 bf 3d 80 cb 33 e0 35 ff 4c c3 b7
       -0.014029093 -5.670485e-39 1.6704374e-06 -2.3281666e-05
000060 fb e3 8f 25 e2 ea 14 3b f8 64 b8 35 4f ba 50 b7
       2.496103e-16 0.002272301 1.3738454e-06 -1.24411445e-05
000070 89 2b 0d 3d b4 5d 54 b8 6f f1 cb 39 c4 73 42 37
       0.034465346 -5.0632007e-05 0.0003889906 1.1590255e-05
000080 c7 bb 16 b9 cb 06 bb b7 25 b1 8e 39 88 a4 07 3c
       -0.00014375067 -2.22953e-05 0.00027216334 0.008278973
000090 95 99 92 b1 3a 66 ef 30 f8 f5 e5 a1 0c 49 55 38
       -4.2666195e-09 1.7418593e-09 -1.5582751e-18 5.0851188e-05
0000a0 2c 43 6a 3d 7d e2 aa b7 a6 05 36 b5 59 f2 be ba
       0.057192966 -2.0371046e-05 -6.7808503e-07 -0.0014568075
0000b0 88 8f 77 b8 1c 9b 69 a2 0e 42 1b bd 6f 9e 05 28
       -5.9023063e-05 -3.1659502e-18 -0.03790479 7.417338e-15
0000c0 8d 03 68 b8 8b 59 d3 28 68 e9 bb 3c f8 f0 82 37
       -5.5316417e-05 2.3464539e-14 0.022938445 1.5609417e-05
0000d0 f1 31 a2 30 6c 39 99 bc 32 1e d7 3c d0 9e f6 b8
       1.1801246e-09 -0.018704139 0.026259515 -0.00011759775
0000e0 12 5d 2f b3 19 9e 9b b8 d6 7d af a4 c4 98 d5 38
       -4.083001e-08 -7.420424e-05 -7.6107326e-17 0.00010185086
0000f0 ec 5a cf 22 3b 5f 0b 3b 5c e8 81 3d 4a f5 4a b1
       5.620373e-18 0.0021266479 0.06343147 -2.95343e-09
000100 a0 07 32 39 24 c5 6f b6 0e f8 8a b1 ef 39 80 b7
       0.00016978243 -3.5728526e-06 -4.044529e-09 -1.5285766e-05
000110 44 6a dc bc c6 d8 2d 3c 87 fc 33 b7 ee db ab 3d
       -0.02690614 0.010610765 -1.07280275e-05 0.08391558
000120 3f c5 c7 32 fc 64 8d 30 59 9e 0e a1 7c 33 1f 39
       2.3256346e-08 1.0287802e-09 -4.8321043e-19 0.00015182601
000130 e4 39 a5 b7 15 b6 6d 3a 32 bc 57 b8 37 7e c2 3b
       -1.969649e-05 0.0009067965 -5.1435265e-05 0.005935456
000140 0c bd 73 b9 b4 9c 88 3b e6 ad 92 36 3e d1 95 38
       -0.00023244711 0.004169071 4.3713835e-06 7.143848e-05
000150 c2 88 27 3c 7a 01 37 02 b8 9e e8 2f dc de 0b 38
       0.010225477 1.344514e-37 4.231333e-10 3.3347736e-05
000160 a1 71 4b 29 1d c4 52 3c ae d9 5e 34 11 97 23 39
       4.5173612e-14 0.01286414 2.0754553e-07 0.00015601168
000170 dc 59 7e 3a cc ec 0f b7 99 25 e4 3b 8d c0 fe 39
       0.0009702721 -8.578598e-06 0.00696249 0.00048590117
000180 9f eb 72 39 b0 70 6c 3b 97 8c 54 ba 63 9b 26 3c
       0.00023166694 0.003607791 -0.0008108108 0.010168883
000190 45 56 5f b1 eb 6a 43 32 32 eb 90 a3 df 37 17 3a
       -3.249981e-09 1.1374804e-08 -1.571212e-17 0.00057685183
0001a0 3e 15 e7 3d 83 97 8d 39 af 88 b4 b5 be 21 9a 3a
       0.112833485 0.000270065 -1.3450825e-06 0.0011759324
0001b0 f0 54 cd ba ec bd 32 a5 84 f4 0f 3c ce 34 ff ac
       -0.0015665572 -1.5503387e-16 0.008786324 -7.2533984e-12
0001c0 d8 f6 14 38 d0 59 8d b4 5f 74 2d 3b 13 39 75 37
       3.551584e-05 -2.6328644e-07 0.0026467068 1.4616427e-05
0001d0 6c 7c 04 b3 45 8f 47 bc a1 43 6a 3c f1 75 11 3a
       -3.0846806e-08 -0.012180154 0.014298351 0.00055488857
0001e0 ae 1b 8a 30 f1 fd de 39 da e2 61 a7 ae 20 95 b9
       1.0048689e-09 0.0004253234 -3.1348e-15 -0.00028443843
0001f0 e7 dc 0c 25 87 1d b6 3c a2 68 93 3d 64 e6 21 34
       1.2217909e-16 0.022230877 0.071976915 1.5078109e-07
000200 b5 c0 ab b7 9c ce 4c 2e 0e 3c bc aa ac c0 1d b1
       -2.0474525e-05 4.6567736e-11 -3.343718e-13 -2.2956028e-09
000210 72 90 74 3a 6f 22 68 3a 3b 53 e6 b6 88 52 27 39
       0.00093293854 0.00088552287 -6.8642235e-06 0.00015957106
000220 a6 a4 b1 ac ba 36 82 2a 92 e0 08 1e 1f b5 c4 37
       -5.0489222e-12 2.3130613e-13 7.24622e-21 2.3449362e-05
000230 1d a1 85 36 f1 f1 69 b6 44 d7 03 b7 61 dd c7 38
       3.982465e-06 -3.4860534e-06 -7.858329e-06 9.5302945e-05
000240 f6 16 f2 38 75 cc 42 3b b7 76 37 38 1e 9d 0c b8
       0.00011543736 0.0029723917 4.374116e-05 -3.3524928e-05
000250 81 6a f1 bb fb 7d 0f 00 03 c0 06 31 31 d4 fb 36
       -0.0073674326 1.422726e-39 1.9608712e-09 7.5050853e-06
000260 67 5e 81 a7 bc 91 92 3b 88 61 31 b6 a6 f6 be 37
       -3.5907044e-15 0.0044729393 -2.6431826e-06 2.276462e-05
000270 99 0b c3 ba 0a 00 3d 38 d9 5d 6a 3b 7d d0 90 38
       -0.0014880776 4.5061148e-05 0.0035761504 6.905289e-05
000280 c4 14 81 38 21 fe dc 39 4b 15 1e b9 a6 a8 c9 3b
       6.155067e-05 0.0004215101 -0.00015075986 0.0061541377
000290 41 8d 5e 37 75 95 62 2f fe ce 6b 1e 3d 6a 9b 38
       1.3265119e-05 2.0607678e-10 1.2483601e-20 7.4107644e-05
0002a0 a5 4b 1d 3c 4c 6c a4 38 26 c7 68 2d 48 60 a7 3a
       0.009600555 7.840301e-05 1.3231893e-11 0.0012769783
0002b0 33 25 cf b8 11 cf 42 20 d1 b1 e4 bb 59 72 ee 33
       -9.877458e-05 1.6500952e-19 -0.006979205 1.11035384e-07
0002c0 01 cb 2d 38 a3 3d 4d ac 0b 82 63 39 b3 7d 44 37
       4.1435476e-05 -2.9166467e-12 0.00021696852 1.1711777e-05
0002d0 cf c1 e4 30 57 36 11 bc 64 33 ad 3c 32 f9 1a 39
       1.6644267e-09 -0.008863053 0.021142669 0.00014779417
0002e0 ca d2 76 30 b5 f2 b8 37 13 69 63 a6 53 84 27 b7
       8.979383e-10 2.2047529e-05 -7.889885e-16 -9.984785e-06
0002f0 3b 1f 32 35 1c 0c 89 3c 22 94 52 3c c4 a1 74 33
       6.6355614e-07 0.016729407 0.0128527 5.6957802e-08
000300 b9 d1 13 37 2a d1 75 b5 3d cd d7 2a c6 42 cc b3
       8.810713e-06 -9.1573986e-07 3.8334085e-13 -9.511636e-08
000310 f2 34 51 3b 9d b1 3a 39 d2 d4 a2 b7 80 78 11 3c
       0.0031922427 0.00017804508 -1.9411007e-05 0.008878827
000320 2c 8e 76 37 32 17 00 af 2c 43 0d 1e 36 4d 40 b7
       1.4695845e-05 -1.1649773e-10 7.478369e-21 -1.1462069e-05
000330 23 b4 03 b6 fc 46 e6 b8 85 95 b3 b6 54 6f 1e 38
       -1.9625375e-06 -0.000109804765 -5.352022e-06 3.7773818e-05
000340 6f fc d7 38 3d 21 08 39 7c c9 52 b8 f9 0b 02 38
       0.00010299018 0.00012982353 -5.025555e-05 3.1005566e-05
000350 cb 76 42 3b b3 8e 17 80 5c 63 3d 33 8e 30 11 36
       0.0029672857 -2.163407e-39 4.409536e-08 2.1634946e-06
000360 fd 42 3a 2e f2 de 85 3a fc f5 30 ad 4d 22 66 b6
       4.2351e-11 0.0010213538 -1.0059061e-11 -3.4292636e-06
000370 76 37 a4 3b 3d de 31 37 3c b5 4c 3a dc bf 1d b8
       0.0050114943 1.0601766e-05 0.00078089884 -3.76104e-05
000380 2c 91 c8 38 14 b2 07 b8 6a da 9a 37 f3 b0 83 3b
       9.5637835e-05 -3.2352356e-05 1.8459938e-05 0.0040188967
000390 67 e3 e5 2d bc 81 fc 33 53 51 9b 9f ec 71 7b 37
       2.6135273e-11 1.1758263e-07 -6.577959e-20 1.498729e-05
0003a0 69 4a 64 3b 69 32 3d 38 d0 16 36 b4 80 9e 11 39
       0.003483439 4.510806e-05 -1.695837e-07 0.00013887323
0003b0 22 25 c2 b8 0a d0 d9 a1 15 66 6b bb f0 73 8a 36
       -9.2575574e-05 -1.4759559e-18 -0.0035919 4.1262174e-06
0003c0 c4 2a b8 b7 4b af 1b 2c e3 bd 46 3b 09 48 84 36
       -2.1954424e-05 2.2124132e-12 0.0030325584 3.9422926e-06
0003d0 27 bd b7 a9 25 32 43 bb a2 1a 01 3c 78 32 fe b7
       -8.159645e-14 -0.0029784527 0.007879885 -3.030266e-05
0003e0 5e 45 ff b4 43 22 04 38 4c 5a b2 b7 ad d0 97 b7
       -4.7547923e-07 3.150316e-05 -2.1261301e-05 -1.8097775e-05
0003f0 46 94 af a1 7e 7c a8 3b 59 23 8a 3b 33 dc df 30
       -1.1897709e-18 0.0051417938 0.0042156396 1.628797e-09

node_encoder.lins.1.bias f4 [128]
000000 f9 be 23 36 4a e3 5b 37 20 bc 05 b5 f0 b9 5e 35
       2.4400053e-06 1.3106337e-05 -4.982012e-07 8.297202e-07
000010 29 86 32 b7 7a 48 c9 b8 03 97 a6 36 a8 51 8e b5
       -1.0640863e-05 -9.597927e-05 4.9647656e-06 -1.060359e-06
000020 67 d3 e0 33 3f 03 75 b5 04 c5 54 38 7d 66 c7 33
       1.0469267e-07 -9.1274336e-07 5.0728224e-05 9.285302e-08
000030 5a e5 9c 36 86 41 1f 35 83 e1 e4 36 52 26 8a b5
       4.6758623e-06 5.9327465e-07 6.8211825e-06 -1.0292954e-06
000040 8b d6 86 b8 11 d9 a6 35 99 85 07 38 b0 78 38 b6
       -6.42958e-05 1.2431138e-06 3.231093e-05 -2.7488386e-06
000050 1f 8f f4 36 08 7d 55 39 ab 43 89 b5 35 51 1e b6
       7.288428e-06 0.0002035984 -1.0226989e-06 -2.3591103e-06
000060 f7 d5 39 38 f1 ae 3b 3a 22 8f ff 33 b8 6b 8e 35
       4.4306707e-05 0.0007159552 1.19003985e-07 1.0611175e-06
000070 a3 40 91 b6 59 f1 78 b6 70 de ce b6 4c 0b 5f b8
       -4.3288615e-06 -3.7095363e-06 -6.1651735e-06 -5.3177864e-05
000080 fe ee f9 39 63 65 a7 36 0c c4 00 b8 13 39 df 35
       0.00047671044 4.988791e-06 -3.070016e-05 1.6631406e-06
000090 74 2c 25 b9 bd a3 02 39 7d 7b 4b 38 67 b2 79 37
       -0.00015752186 0.00012458763 4.851398e-05 1.4883094e-05
0000a0 ec 79 13 35 19 b3 c9 32 fd c2 cb b5 d7 63 cf 32
       5.4939187e-07 2.3480924e-08 -1.5181428e-06 2.4143374e-08
0000b0 85 7d 79 35 c3 93 9c 37 31 90 8d b4 c4 c1 0c 37
       9.2942383e-07 1.8665456e-05 -2.636821e-07 8.389765e-06
0000c0 04 7c b7 b4 f8 22 f4 b8 92 6d 5c 37 2f b6 da b4
       -3.417664e-07 -0.0001164134 1.3138533e-05 -4.073822e-07
0000d0 29 ff 04 b7 f3 d3 86 b5 3e a5 17 36 71 10 2b 39
       -7.927222e-06 -1.0045463e-06 2.2596937e-06 0.00016313956
0000e0 bf 7f c5 b6 30 92 1f 36 7a 5a 8a 39 48 f0 41 37
       -5.885929e-06 2.3777939e-06 0.0002638882 1.1559641e-05
0000f0 fc c1 65 34 1d 5c f6 33 0e 7d 7f 36 31 d6 39 b5
       2.1397858e-07 1.1472023e-07 3.8070752e-06 -6.922956e-07
000100 80 61 63 37 96 49 06 35 ff 1a 85 b7 55 02 a3 b6
       1.3552955e-05 5.002597e-07 -1.5867407e-05 -4.85805e-06
000110 fe 13 77 b9 15 62 3d 36 82 56 ac 38 ea 1a 5e 38
       -0.00023563203 2.8220286e-06 8.2177125e-05 5.295399e-05
000120 03 2e 15 b9 99 8c 86 b8 27 1b 8f b7 c6 57 93 35
       -0.00014226888 -6.415806e-05 -1.7059572e-05 1.0977899e-06
000130 72 8f 80 34 fb 94 b2 37 13 0c 06 b5 6c 48 01 b7
       2.3946228e-07 2.1288628e-05 -4.993646e-07 -7.705861e-06
000140 cc 40 fa b8 04 5d 9d 37 d6 20 8a 38 a5 46 42 ba
       -0.00011932998 1.8759172e-05 6.586469e-05 -0.00074110396
000150 77 fa 11 39 b4 cd c3 b8 14 5c d5 b5 e8 5c 87 b4
       0.00013921583 -9.33664e-05 -1.5896535e-06 -2.5213308e-07
000160 e6 ed 80 b7 f8 03 49 35 1e 7e 44 38 1f df 26 39
       -1.536957e-05 7.488411e-07 4.6847497e-05 0.00015914113
000170 e7 b5 f8 33 b6 89 aa b5 99 cd 4c b5 92 c2 87 37
       1.1581488e-07 -1.2706066e-06 -7.6295106e-07 1.6183858e-05
000180 ed e5 41 37 07 81 93 b5 ea f1 d6 35 85 71 41 36
       1.155723e-05 -1.0989905e-06 1.6014649e-06 2.8825318e-06
000190 ca 97 b7 32 a0 04 10 b7 ea b3 02 39 f9 07 c5 b4
       2.137303e-08 -8.584146e-06 0.0001246479 -3.669991e-07
0001a0 53 db 68 36 aa 22 9f 35 76 25 fa b3 40 2e 4b 37
       3.4698357e-06 1.1856512e-06 -1.1648346e-07 1.2110511e-05
0001b0 df 30 b1 35 a7 88 d0 36 38 85 dc 37 7d 7e b3 36
       1.3201751e-06 6.2147915e-06 2.6288079e-05 5.349341e-06
0001c0 c7 b6 de 38 38 78 17 b4 1d cd ff 39 6c 83 d5 b6
       0.0001061983 -1.4106706e-07 0.0004879021 -6.363194e-06
0001d0 74 52 ad b6 16 56 fb b4 78 17 f1 b6 e9 51 81 b5
       -5.1654006e-06 -4.681503e-07 -7.185092e-06 -9.635088e-07
0001e0 e3 34 47 35 b4 1a e1 b4 1e 7d 29 b7 aa 41 82 36
       7.421024e-07 -4.1928945e-07 -1.0102316e-05 3.881946e-06
0001f0 8c 04 99 b4 87 c5 5b b4 85 4f 9e b6 a7 1f 8b 37
       -2.850178e-07 -2.0467824e-07 -4.7180242e-06 1.658483e-05

node_encoder.lins.2.weight f4 [128, 128]
000000 18 1c 6e 3b 74 eb c2 3a 10 e6 2b bb 10 ce f9 3a
       0.0036332663 0.0014871196 -0.0026229657 0.0019058604
000010 70 f4 30 3b 17 38 7d 3d b4 e5 c7 ba 2b 44 00 3c
       0.0027001165 0.06182107 -0.0015250952 0.0078287525
000020 d6 bd 42 bb 50 e3 e8 3a 6f 4a 65 3e 67 02 0a 3b
       -0.0029715202 0.001776794 0.22391675 0.002105856
000030 17 87 a9 3b f9 69 62 3b fe 73 1a 3e ff 19 be bb
       0.0051735747 0.0034548028 0.1508331 -0.005801439
000040 84 da b0 bd 1b df b1 bb 96 b9 9c be 05 e0 2f bc
       -0.086354285 -0.0054282076 -0.3061034 -0.010734563
000050 f0 15 98 3b 6b b0 be 3d 8f 8f 09 3b 27 10 7f ba
       0.004641287 0.09310993 0.0020990109 -0.0009729885
000060 f7 58 33 be d0 52 7a 3d dd 5d 6c 3b 35 f1 b0 bb
       -0.17514406 0.061114132 0.003606669 -0.005399848
000070 79 81 21 39 26 e4 d3 3b 28 b1 ad 3b 32 d5 24 3d
       0.00015402389 0.0064664064 0.0053006597 0.04024238
000080 41 67 62 3d 93 e8 ae 3a fe fa 35 3b 9d ca df bb
       0.05527425 0.0013344459 0.0027768011 -0.0068295733
000090 4f f4 85 be a2 76 19 3e a8 3c 3a be 75 8f 98 3b
       -0.26162955 0.14986661 -0.18187201 0.0046557733
0000a0 f9 b5 c8 38 83 1e db bb ad 0e 76 bb a3 de 05 3c
       9.570638e-05 -0.006686987 -0.0037545369 0.0081707565
0000b0 c2 95 a7 bb 2a 3a 2f 3b dc 24 ec ba 84 a5 42 bb
       -0.005114288 0.002673755 -0.0018016356 -0.0029700706
0000c0 56 4b 21 b9 d6 f6 63 3d 26 70 cf 3b b9 b5 83 3a
       -0.00015382221 0.055655323 0.006330508 0.0010048664
0000d0 67 1b d2 b9 80 e7 e3 3b 25 2c 96 bb 7f 23 7e 3e
       -0.00040074738 0.006955087 -0.004582899 0.24818228
0000e0 ee 63 cd bb c9 f8 bb 3a 23 1e 82 3e ee bc 42 3c
       -0.006268016 0.0014341112 0.25413617 0.011885865
0000f0 d1 84 11 bb 2b 39 86 3b 2b f9 a7 bb 44 ea 7d 3a
       -0.002220441 0.0040961704 -0.0051261387 0.00096860924
000100 c8 b5 99 3e 50 a3 28 3b a1 17 a5 3a 6f 9c bc 3b
       0.300215 0.0025732107 0.0012595543 0.005755953
000110 41 0a 0b 3e ba 85 84 3b 88 d2 95 ba af d4 8c 3d
       0.1357813 0.0040442618 -0.0011430541 0.06876504
000120 07 cc 02 be 21 c8 2d 3e 7c f4 4f 3b a5 21 45 3b
       -0.12773143 0.16970874 0.0031731417 0.0030079868
000130 91 6c d7 ba 4f d4 13 bb 42 d3 31 39 d4 8d 92 3b
       -0.0016435554 -0.0022556966 0.00016958735 0.0044724736
000140 d1 38 5b bc 3e 33 47 3c f1 3e d6 3e 78 12 78 bc
       -0.013380245 0.012158213 0.41844895 -0.015141122
000150 01 7c 53 be 05 2d 83 be 39 ef c9 bb 14 fe bf bb
       -0.20652772 -0.25620285 -0.0061625508 -0.005859146
000160 c9 b6 80 be 73 ab 1a 3a df 0b 24 be 9e c9 9f 3c
       -0.25139454 0.0005900182 -0.16020153 0.019505318
000170 4b c8 7d bc 11 a7 c1 bb d0 2a b7 3b 6b 2e d7 3b
       -0.015489648 -0.0059098084 0.0055898204 0.0065668127
000180 e9 45 ba bc f2 af 1e 3b ad c5 e3 3a ad d5 aa 3c
       -0.022738414 0.0024213758 0.0017377638 0.020853842
000190 09 f1 91 3b 49 99 30 ba 05 61 a2 3d 82 fc 88 3b
       0.0044537825 -0.00067367085 0.07928661 0.004180492
0001a0 64 42 94 3b ef ce 43 3b e1 bf 42 bb 52 62 da b9
       0.004524516 0.002987798 -0.002971642 -0.00041653455
0001b0 c9 83 a4 3b 18 19 18 bb f9 89 b1 bb b4 00 3e 3a
       0.005020593 -0.0023208316 -0.005418059 0.00072480296
0001c0 b4 87 b7 bb 65 62 ea b9 39 f7 4a bd 39 74 1a 3e
       -0.005600894 -0.00044705268 -0.049552176 0.15083398
0001d0 9b 32 8d bb 4e 5f ae bb d8 b3 a0 3c 34 0c 8f 3b
       -0.004309011 -0.00532142 0.019617006 0.0043654684
0001e0 e9 94 89 bb 7d 88 d1 3b 0c e2 d8 39 bb e1 67 bd
       -0.0041986597 0.0063944445 0.00041367149 -0.056611758
0001f0 f6 20 3e 3b 98 31 c5 bb 10 49 84 3b 0a 06 1b b8
       0.0029011345 -0.006017875 0.00403703 -3.6960504e-05
000200 19 1c b9 3a 6f e7 b4 3c 37 e0 a0 bb 1c 7c 29 ba
       0.0014122754 0.022083012 -0.004909541 -0.0006465332
000210 1b ec 1e ba d2 c6 4e bd 28 ed a3 3a 9b ba b0 ba
       -0.0006062404 -0.05048258 0.0012506591 -0.0013483347
000220 9c 61 94 ba 22 62 2b bb bc c7 06 bd 3f 09 f5 ba
       -0.0011320594 -0.002615102 -0.032905325 -0.0018694772
000230 65 bb 64 bb 46 40 99 3b 4c 01 ef bd 12 31 4e 3b
       -0.0034901735 0.0046768514 -0.11670169 0.0031462354
000240 d4 34 78 bd 1a 07 bb 3a 90 cb 9e 3d ab 5a ef 3a
       -0.060597256 0.0014269084 0.0775367 0.0018261274
000250 cf 70 3b 3b 8e 36 f5 3c 9e 8f 01 3c 27 08 cd 3b
       0.0028601175 0.02993324 0.007907776 0.0062570754
000260 d4 b6 13 bd 81 e0 04 bd 45 c9 b2 ba 38 cc 4b bb
       -0.03606303 -0.032440666 -0.0013640305 -0.0031097066
000270 f9 1e 02 bb c4 41 8e 3c 53 6f ce ba 43 5a 0f 3e
       -0.0019854887 0.017365344 -0.001574973 0.13999276
000280 59 ce 66 3d ee 22 2d 3b fa e2 5d bb f2 26 d0 3a
       0.056349132 0.0026418525 -0.0033857212 0.0015880747
000290 41 bf bf 3c d7 0f 9d bc 29 0b d3 bc a9 3b 21 bb
       0.023406627 -0.019172592 -0.025762158 -0.002460221
0002a0 8a 1b 87 3a e2 9b 04 3c 15 e9 1a bc 31 e0 d1 bb
       0.001030789 0.008093806 -0.009454985 -0.0064048995
0002b0 53 a3 7c ba c3 22 19 bb 91 dd a2 ba 90 8d 8a 3b
       -0.00096373743 -0.0023366667 -0.0012425651 0.0042283013
0002c0 d7 7a 3d 3b 79 ab 08 3d 96 4a 3e b9 3f 28 a7 ba
       0.002891233 0.033366654 -0.00018147597 -0.0012753083
0002d0 9e 7c 48 3a f2 e1 e8 3a b3 f8 4f b9 61 55 9d 3b
       0.0007647964 0.0017767532 -0.00019833706 0.0048014377
0002e0 4b e6 57 3c 7b 2d 06 3b 90 e1 80 3c 93 dd 89 3b
       0.013177465 0.0020473886 0.015732557 0.004207322
0002f0 dc 3d f2 b7 af 92 f9 ba ab 6d 4a 3b 07 3d 89 3b
       -2.8877454e-05 -0.0019040908 0.003088812 0.004188183
000300 1c 12 06 bd 2b 41 7d 3b 23 6b a3 3a 10 0b 94 3a
       -0.032732114 0.003864358 0.0012467842 0.0011294801
000310 cf 8b c2 3c 7a 4c 31 3a 5c c6 1b 3e 42 42 00 3d
       0.023748307 0.000676341 0.15212387 0.03131319
000320 5d 63 62 ba 83 d1 c7 bd bf fa 87 bb b7 a6 dd ba
       -0.0008636022 -0.09756758 -0.0041497643 -0.0016910647
000330 d3 69 38 39 d7 0e 92 bb e9 cb 47 ba de 84 57 bb
       0.0001758703 -0.0044573355 -0.00076216325 -0.0032885591
000340 93 1f e0 bd c2 a7 13 3e 4b c7 14 be 6c 84 60 bd
       -0.10943522 0.14419463 -0.14529149 -0.054813787
000350 ee ef 9d 3d ac d5 9c 3d 5d 9e 97 bb 9d d1 5e 3c
       0.077117786 0.07657942 -0.0046270327 0.01359978
000360 99 dc da 3c 89 4c 16 ba 47 54 d8 bc be 62 be 3d
       0.026716517 -0.00057334505 -0.026407374 0.09296177
000370 40 3d 27 bc b2 f9 84 ba 46 fb 25 3b 05 0c af bb
       -0.010207474 -0.0010145216 0.0025326773 -0.005342009
000380 b4 a3 d9 3d 56 57 42 ba 24 9f 93 ba 66 45 63 3b
       0.10626927 -0.0007413527 -0.0011262638 0.0034678816
000390 f1 9a 28 bb 2f 0d de ba 3b f8 d4 bc 6c b5 0a bb
       -0.0025727118 -0.0016941185 -0.025997272 -0.0021165265
0003a0 49 aa 2c 3c 8c ee 84 3a 54 13 9b bb 60 5f 81 3b
       0.010538646 0.0010141893 -0.0047325287 0.003948137
0003b0 49 00 c1 3a 2f cb 9c 3a 4e 4e 0e bc fc 85 3d 3a
       0.0014724816 0.0011962409 -0.0086856615 0.0007229743
0003c0 da e1 52 be 34 df f5 b9 bb 72 e0 bc f7 22 9e bc
       -0.20593968 -0.0004689634 -0.027398458 -0.019303782
0003d0 bc 6d df ba 86 74 57 3a 39 01 b5 3d 60 56 e5 bb
       -0.0017046253 0.00082189625 0.08838124 -0.006998822
0003e0 9a d7 b5 3a f9 7c 0d bb 51 b7 3b 3b d9 8e d7 bc
       0.0013873458 -0.0021589382 0.00286432 -0.026313232
0003f0 b2 43 7c bb 21 82 00 bc 9b e6 26 3b 7c 58 ba b8
       -0.0038492498 -0.007843525 0.0025467041 -8.885653e-05

node_encoder.lins.2.bias f4 [128]
000000 61 2c da 3e d5 65 c9 bd 9f 46 33 3c a4 f4 21 be
       0.42611983 -0.09833876 0.01094213 -0.15815979
000010 d6 1b f5 bd e2 8f 19 be 38 57 0f bf 4e c3 6a bd
       -0.119682 -0.14996293 -0.5599246 -0.057315163
000020 2b 3f f2 bd 35 a3 f6 bd 65 e9 e9 bd ee 5d c6 bd
       -0.118284546 -0.12042848 -0.114214696 -0.096858844
000030 b2 a0 10 be df 6b 38 be d2 41 f5 bd af 0e 54 be
       -0.141238 -0.180099 -0.11975445 -0.20708726
000040 8b 66 e3 bd 85 e1 fe bd 6f 68 dd bd 09 9e 1b be
       -0.11103543 -0.12445358 -0.10810935 -0.15197004
000050 e2 fd 2f be eb 56 21 be 64 51 09 be 75 40 bd bd
       -0.17186692 -0.15755813 -0.13409954 -0.0924081
000060 68 26 d4 bd 2b e9 01 be f7 d3 f4 bd f4 27 10 be
       -0.10358888 -0.12686603 -0.119544916 -0.14077741
000070 63 bf 01 be cd e5 16 be d0 30 28 be ef c1 1d be
       -0.12670664 -0.147361 -0.1642487 -0.15406011
000080 01 08 12 be 4c d4 dd bd 08 77 3e be c3 c8 e5 bd
       -0.14260866 -0.10831508 -0.18600094 -0.11219933
000090 45 a9 b4 bd b5 81 b8 bd 68 1a 6c be 88 a3 15 be
       -0.08821348 -0.09009115 -0.23056948 -0.14613163
0000a0 8f 6e 20 be 07 8f 56 be ca b5 3e be 4b cb cb bd
       -0.15667175 -0.20952998 -0.18624035 -0.099508844
0000b0 e9 7e 15 be 2b 7e 6a be c1 20 20 ba 49 10 02 be
       -0.14599194 -0.22899692 -0.00061083963 -0.12701525
0000c0 a2 ed 13 be 14 d1 b4 bd 67 1b 49 be dd 80 b5 bd
       -0.14446118 -0.08828941 -0.1963936 -0.08862469
0000d0 d7 d6 04 be 29 19 e3 bd bc c5 0a be e0 f9 26 be
       -0.1297258 -0.11088783 -0.13551992 -0.16306257
0000e0 69 93 05 be e8 6d 0a be 01 0e 9f bd d1 58 8a be
       -0.13044514 -0.13518488 -0.07766343 -0.27020887
0000f0 06 2b c9 bd 26 46 a4 bd d2 12 04 be c5 9d 52 be
       -0.09822659 -0.08021192 -0.12897804 -0.20567997
000100 9b cf 19 be 70 89 ca bd 5e 6b 20 be e6 17 53 be
       -0.15020601 -0.098894954 -0.15665957 -0.20614585
000110 0d ce 08 be a9 5a 25 be ff 40 28 be 20 25 b7 bd
       -0.13359852 -0.16147865 -0.16431044 -0.08942628
000120 60 4d 08 be ae e3 83 bd e8 01 63 be 85 bb 05 be
       -0.13310766 -0.06439911 -0.22168696 -0.13059814
000130 fa 25 54 be 05 45 e5 bd 12 c2 41 bf 20 36 34 be
       -0.20717612 -0.11194805 -0.7568675 -0.17598772
000140 da 77 1c be cc 66 75 be 47 24 05 be 2b bf 10 be
       -0.15280095 -0.23964995 -0.1300212 -0.14135425
000150 c6 72 fa bd 3f d8 db bd f8 6c 22 be 31 79 1b be
       -0.122289225 -0.10734605 -0.15861881 -0.1518295
000160 49 10 07 be cb ed 57 be d2 e8 f8 bd 9d 94 b9 bd
       -0.13189806 -0.21086805 -0.12153782 -0.09061549
000170 64 c8 1c be 91 0a 17 be 06 a8 54 be 91 f2 04 be
       -0.15310818 -0.14750125 -0.20767221 -0.12983157
000180 e0 28 d3 bd b5 72 7b bd 38 95 0a be 4b 4f 0b be
       -0.10310531 -0.06138869 -0.13533485 -0.13604467
000190 cd 6a c3 bd 97 8b d0 bd b0 5b 03 be e8 1c 3a be
       -0.09541855 -0.10182875 -0.12827945 -0.1817509
0001a0 a3 c3 ad bd 2c 6e 59 bd ac 6b f9 bd c7 f3 44 be
       -0.0848458 -0.053083584 -0.1217874 -0.19233619
0001b0 49 dc 10 be 82 aa 0a be 8a f9 0a be ac e3 8a be
       -0.14146532 -0.13541606 -0.13571754 -0.27126825
0001c0 1e 02 16 be 9f b4 b1 bd 37 47 08 be 28 2a 10 be
       -0.14649245 -0.08677029 -0.13308416 -0.14078581
0001d0 24 36 6e be 10 b8 6c be 78 d7 3a be 6a 69 05 be
       -0.2326284 -0.2311709 -0.18246257 -0.13028494
0001e0 cd e2 fb bd 23 31 71 be 7d 4d 3c be 17 b4 1b be
       -0.12299118 -0.235539 -0.18388934 -0.15205418
0001f0 b2 4e 81 bc 92 08 db bd de c2 1b be 32 ea 01 be
       -0.015784595 -0.10694994 -0.15211055 -0.12686995

node_encoder.norms.0.module.weight f4 [64]
000000 9f 1e a9 b9 aa 60 19 a2 8d 4d 38 a3 26 46 01 b6
       -0.00032257006 -2.078654e-18 -9.991082e-18 -1.926333e-06
000010 91 4e f7 3e 9f f5 2c 3d 4e 7b 41 3a 0b fa b3 3f
       0.4830213 0.04222643 0.00073807396 1.4060682
000020 3c cb 8c 25 56 76 91 ad 82 ce 16 2f ea 5c 2d b9
       2.4423846e-16 -1.6537143e-11 1.3715787e-10 -0.00016533179
000030 d6 5b 33 b9 ef 8b 76 3a 6c 84 71 38 9e a0 09 bc
       -0.00017104982 0.0009405007 5.7582205e-05 -0.0084001105
000040 c9 42 c4 ba 64 e5 8c bc 8c 4c 6f ba d5 b1 44 3a
       -0.0014973517 -0.017199226 -0.0009128533 0.00075033057
000050 7e c9 e1 3e c9 c8 5e 80 23 47 4a 2c 63 75 6d 38
       0.4409904 -8.704565e-39 2.8745415e-12 5.6614528e-05
000060 7c 76 f9 97 41 3e a6 3d 1e f3 2f 9a 6d 8c 0b 3a
       -1.6121158e-24 0.08117343 -3.638554e-23 0.0005323354
000070 81 04 f9 3e 89 ef 06 3a 0e 2c 70 3d b5 2c 35 ba
       0.4863625 0.0005147388 0.058635764 -0.0006911264
000080 0e 98 a9 3a 63 a2 88 3c 17 45 a8 3a 80 d5 86 3e
       0.0012938993 0.016678995 0.0012837973 0.26334763
000090 d7 d4 82 2b d3 0d 87 a8 48 c8 1e 31 7a 84 13 ba
       9.29613e-13 -1.4994006e-14 2.3105873e-09 -0.00056273455
0000a0 41 eb 97 3f 5c 6d 57 ba f4 f0 19 1f 80 ee f0 3d
       1.1868669 -0.0008217895 3.2598322e-20 0.1176424
0000b0 18 77 99 3b 29 e8 6c 32 b7 32 02 3f fa ef d3 24
       0.0046833865 1.3789795e-08 0.50858635 9.19132e-17
0000c0 c4 f5 32 b9 c4 31 8f ae 12 ab b6 3e b2 22 07 b9
       -0.00017066958 -6.511727e-11 0.3567739 -0.00012887528
0000d0 9a 32 a5 2a b1 1a fc 3e 4a fd ae 3f c1 8d 47 3a
       2.9345e-13 0.49239114 1.3671048 0.00076123705
0000e0 88 3b 9d 1c 3e e7 61 3a 47 f0 e3 16 99 af 37 3b
       1.0404777e-21 0.00086175266 3.6825464e-25 0.0028028248
0000f0 01 1e c5 92 d1 18 12 3f 13 ce 26 3f b4 f1 d6 9f
       -1.2439844e-27 0.57069117 0.65158194 -9.103239e-20

node_encoder.norms.0.module.bias f4 [64]
000000 36 b2 7d b4 b2 97 f0 ae 2a be b7 2f c0 b6 5b 32
       -2.3627294e-07 -1.0940883e-10 3.3422626e-10 1.278903e-08
000010 72 5a 3b 3f 17 cb 20 3c 05 14 6a b5 51 74 ce 3c
       0.73184884 0.009814045 -8.7200925e-07 0.025201948
000020 a2 5b 32 b1 0f 77 bb b4 7f c5 0e 9c f6 78 35 34
       -2.5954496e-09 -3.491809e-07 -4.7239117e-22 1.6900944e-07
000030 79 6d 23 33 5b b7 68 36 88 f6 61 b3 78 a4 a7 38
       3.805096e-08 3.467742e-06 -5.2611114e-08 7.993815e-05
000040 47 82 fa b6 f4 72 15 ba 4c 0e 9e 35 93 ff bc 33
       -7.465747e-06 -0.0005701028 1.1776078e-06 8.800921e-08
000050 91 65 1f bf 7a 9a be 8a 35 42 b7 b2 dd c5 04 b3
       -0.62264353 -1.8354442e-32 -2.1334111e-08 -3.09136e-08
000060 e7 81 f4 2d 9c 64 b7 3c e2 0b 80 b2 4c 50 19 b4
       2.7797277e-11 0.022386841 -1.4906565e-08 -1.4278447e-07
000070 c2 e5 15 3f a3 ca 19 35 6c dd d6 bb 7f 8f 52 35
       0.5855371 5.7291817e-07 -0.0065571573 7.843991e-07
000080 6a c1 0d 35 f6 5d bd 3a 99 1c 2e 35 f9 e1 1e be
       5.280805e-07 0.0014447558 6.4861666e-07 -0.15515889
000090 72 88 38 36 22 93 bd b2 0b 96 87 1d 2f b6 a9 35
       2.7497558e-06 -2.2069404e-08 3.5889343e-21 1.2644504e-06
0000a0 48 b4 15 3d d6 2b bb b5 4d 42 65 b6 5e 43 20 bc
       0.036548883 -1.3945344e-06 -3.4162251e-06 -0.009781687
0000b0 ec 23 b9 b8 8a 5f 7f 9f 6f 42 19 3f b7 37 94 2f
       -8.8281784e-05 -5.407738e-20 0.59866995 2.696063e-10
0000c0 0f c4 1d 34 4e 70 0d a9 d9 43 ad be ab ce 34 33
       1.469309e-07 -3.1405698e-14 -0.33840826 4.209748e-08
0000d0 36 3c c5 31 08 44 0f 3f 90 03 10 be bc 7c 9f 34
       5.7403e-09 0.5596318 -0.14063859 2.9706814e-07
0000e0 53 b1 24 b5 5c 1d 96 32 f6 85 89 ac 60 4b 1b b9
       -6.13528e-07 1.747565e-08 -3.908647e-12 -0.00014810031
0000f0 83 40 da 2c c0 d1 33 3f 80 cd 38 bd ae 50 5e b7
       6.203095e-12 0.7024193 -0.045117855 -1.3251016e-05

node_encoder.norms.0.module.running_mean f4 [64]
000000 bf 78 07 3b b5 52 42 2b 37 c0 86 aa 0a c4 93 3b
       0.0020671336 6.9037424e-13 -2.3936557e-13 0.0045094537
000010 9b c2 d5 3b 5b 29 41 3d 7b 79 cc 3b d1 d5 82 bb
       0.006523443 0.04715858 0.0062400675 -0.003992774
000020 c5 8a 63 b4 6f a0 a1 2e 69 76 a4 af 15 fb 21 ba
       -2.1191507e-07 7.349931e-11 -2.9915562e-10 -0.0006179077
000030 d1 40 4d bb 75 32 44 3c b5 fb 80 3b 06 6b a7 bc
       -0.0031319151 0.0119749205 0.003936256 -0.020436775
000040 cf 11 82 3d f9 ac 21 bd 3b ad a7 bc ad b8 b0 bc
       0.06351053 -0.0394716 -0.020468345 -0.021572435
000050 9d 5d 87 b8 d7 f4 1c b5 d2 ff 5e ac cb bf 4f ba
       -6.4547385e-05 -5.847082e-07 -3.1690106e-12 -0.0007925003
000060 95 6a b7 b3 81 7f 95 bd 51 38 a4 2f 11 2c 76 bb
       -8.540989e-08 -0.0729971 2.9871441e-10 -0.0037562887
000070 11 72 7e bb 63 3e 84 3b 64 9e e1 bd 74 81 b1 bb
       -0.0038825313 0.0040357574 -0.11016539 -0.0054170433
000080 5f 40 f3 bc 36 10 13 3d e6 78 d9 bb 0f 77 8e bc
       -0.02969378 0.03590413 -0.0066367267 -0.017390756
000090 8c 94 1b ab 9a 8d b1 b3 40 4a 9a a8 ac df 21 bc
       -5.527321e-13 -8.267962e-08 -1.7129635e-14 -0.009879988
0000a0 41 1f 0e 3e 7e b7 4b 3d c2 24 8e ab 05 1f 2b bd
       0.1387911 0.04973554 -1.0099909e-12 -0.04177763
0000b0 80 cb 29 bd 09 be 3a ac bd 0f 7e 3a e8 a5 4a 2d
       -0.04145384 -2.653768e-12 0.0009691676 1.1519209e-11
0000c0 87 43 cb ba c8 62 06 32 73 bd ea bb 2d f6 c7 ba
       -0.0015507796 7.822287e-09 -0.0071636974 -0.0015255861
0000d0 17 0c 58 aa 1c a7 72 3c cd e7 c5 be 35 5c 88 3b
       -1.9188848e-13 0.01481035 -0.38653412 0.0041613826
0000e0 82 0e a6 25 ad fc ae bc b3 0a 0e ae fc 02 1d 3d
       2.880624e-16 -0.02136072 -3.2296565e-11 0.038332924
0000f0 0c 34 0a 30 81 11 34 bc a3 f9 1f be a4 e9 98 a3
       5.027807e-10 -0.010990501 -0.15622573 -1.6578824e-17

node_encoder.norms.0.module.running_var f4 [64]
000000 46 8d 4c 3b 5d 9b 52 0f 5d b8 6a 18 45 bc 59 3b
       0.0031212135 1.0383721e-29 3.033687e-24 0.003322379
000010 4e 97 99 3e db 90 aa 3f 76 26 22 3c 25 7a be 41
       0.2999825 1.3325456 0.009896865 23.80964
000020 a4 7f 94 15 10 6b 5a 24 a8 79 f0 17 8a 9c 29 3a
       5.9978105e-26 4.73619e-17 1.5540347e-24 0.00064701645
000030 68 09 91 3b 89 6b 79 3d 85 f7 23 3c 27 27 6b 3f
       0.00442617 0.06089357 0.010007744 0.91856617
000040 5e a6 30 3f cc dc 7c 3f 71 ea e0 3d 5f 97 15 3e
       0.69003856 0.9877441 0.10982216 0.14608525
000050 3b 27 b0 3e dc ce 6b 18 b6 67 10 23 ca 3e 6b 3a
       0.3440493 3.0477475e-24 7.828217e-18 0.0008973895
000060 7b 67 84 16 8b 5b 2d 40 7c 6c b8 0f 3e c0 3d 3e
       2.1391056e-25 2.7087123 1.8185587e-29 0.18530366
000070 1f a6 b8 3e 44 be 79 3d 01 89 32 40 05 cc af 3c
       0.3606424 0.060972467 2.789612 0.021459589
000080 84 de 3c 3e 40 7e 0f 3f 3f dc dd 3c af f4 8b 3e
       0.18444258 0.5605202 0.02708256 0.27335116
000090 4a d3 fb 1f 57 f0 0c 1a f3 9d 06 18 d5 00 27 3d
       1.06652183e-19 2.9145466e-23 1.7398838e-24 0.040772278
0000a0 fe 54 dc 41 91 77 dd 3e c9 4d 53 08 6f 11 10 40
       27.5415 0.43255284 6.358694e-34 2.251064
0000b0 0f c2 ba 3f 80 24 02 1a 64 01 d0 3e 3d 14 e1 12
       1.4590472 2.6912854e-23 0.4062606 1.4204485e-27
0000c0 f1 56 51 3a 65 89 da 2c e1 94 a6 3e e3 d0 67 3a
       0.00079856726 6.2111865e-12 0.3253546 0.0008843077
0000d0 fc 55 09 1f f6 b8 cf 3e f0 0d e9 41 b1 ca c5 3b
       2.9082003e-20 0.40570801 29.131805 0.0060361256
0000e0 fe d8 23 03 4c 16 04 3e 1f 92 21 0c d4 e7 ee 3e
       4.815049e-37 0.1289913 1.244696e-31 0.46661246
0000f0 f2 14 d3 0c 92 38 f2 3e ca 4d 8b 41 cc ed 5b 10
       3.2522303e-31 0.47308785 17.412983 4.3373327e-29

node_encoder.norms.1.module.weight f4 [128]
000000 9e 3d f9 3b d0 f6 ea bc 62 c0 aa bb 21 ff 80 ba
       0.0076062223 -0.028682142 -0.005210922 -0.0009841659
000010 36 17 1a 3b 92 89 78 3e 56 c6 1d 3a d6 80 b7 b9
       0.002351237 0.24271229 0.0006018629 -0.0003500047
000020 6f d1 e1 ba 84 89 40 38 9b b8 10 3f 8a 77 d8 b8
       -0.0017228554 4.590444e-05 0.56531686 -0.000103219485
000030 7a 21 8b ba c4 86 c6 ba f5 da dc 3e 1c 19 8d 3a
       -0.0010614835 -0.0015146364 0.431358 0.001076493
000040 92 93 03 3e 55 36 da 39 52 0c 28 3f 9a cf 5e 3a
       0.12849262 0.0004162068 0.656438 0.0008499563
000050 f3 69 17 3a 54 c3 a3 3e a2 6b 78 ba 92 61 02 3b
       0.00057759805 0.3198496 -0.0009476488 0.0019894582
000060 01 16 03 3f 48 6f db 3e 63 6f 77 b9 a9 f6 78 bb
       0.5120545 0.42858338 -0.0002359725 -0.0037988818
000070 ee 13 9f 39 82 12 6e bb d8 fb 13 bb 99 36 ad 3e
       0.00030341692 -0.003632695 -0.002258053 0.33830717
000080 c5 bc d0 3e 10 67 48 bc 8f 25 92 37 e7 57 1d 3a
       0.4076902 -0.012231603 1.7422046e-05 0.0006002173
000090 21 1e 0d 3f ab 5c 9f 3e da d3 16 3f e0 b4 5b 39
       0.551241 0.31125388 0.5891701 0.00020952849
0000a0 30 43 a6 b9 bf a8 8b 3a 7d 19 40 ba a3 ab 3a 39
       -0.00031712046 0.0010655149 -0.0007328017 0.00017802282
0000b0 44 f9 0d 3a a5 2a 67 b9 9f 87 19 ba e3 1d 35 3b
       0.00054158666 -0.00022045763 -0.0005856696 0.0027636222
0000c0 4f 92 6b 39 61 55 b4 3d 88 10 b8 b8 a3 fa f5 39
       0.0002246585 0.08805347 -8.776883e-05 0.0004691678
0000d0 92 54 da 39 d6 60 d5 b9 3a 41 f3 3a 20 5c 19 3f
       0.0004164321 -0.00040698674 0.0018558868 0.59906197
0000e0 26 11 c6 3a 59 c8 d9 3a 74 41 1d 3f d1 5a b3 b7
       0.0015111312 0.0016615494 0.61428 -2.1380753e-05
0000f0 68 4e 26 39 db 52 08 3b e7 65 0c 38 7f 5e e4 37
       0.00015860202 0.0020801339 3.3473505e-05 2.7223721e-05
000100 b9 d2 22 3f e3 20 cb ba fc 0c 8f b9 14 24 07 bb
       0.6360279 -0.0015497472 -0.0002728476 -0.002062087
000110 4c 48 e4 3e 1d ee 73 b8 3e d6 93 3f 2a 13 35 3e
       0.44586408 -5.8157475e-05 1.1549757 0.17683092
000120 66 52 d0 3e e0 bc b6 3e 2f 51 86 38 a6 ef 6f 3a
       0.40687865 0.35690975 6.4047395e-05 0.0009152837
000130 17 0d 6b b9 16 64 09 ba 7c c5 3e b8 fe 45 3e 3a
       -0.00022416223 -0.0005241049 -4.548345e-05 0.00072583545
000140 39 33 a4 3f 5e 1d 89 3f a5 87 2e 3f 97 fd bf 3e
       1.2828132 1.0712087 0.6817573 0.3749816
000150 b1 31 0b 3f ae c3 21 3f 64 11 09 bb 6f 46 13 bb
       0.543727 0.6318921 -0.0020914907 -0.0022472402
000160 eb 83 1d 3f e1 5d 88 bb 26 9b dd 3e 3c bd 88 3f
       0.61529416 -0.004161582 0.4328243 1.068275
000170 92 34 af bb ed 9e 7a 38 12 cf e0 b9 5f 75 1f b8
       -0.005346843 5.9752656e-05 -0.0004287889 -3.8017864e-05
000180 1c 72 a7 3f 7b 1c 14 ba aa 57 4f 3a ac cb d9 3b
       1.3081698 -0.0005649996 0.00079094863 0.006646594
000190 38 d1 11 3a c9 4c 5b 3a dd f0 08 3e 5a 04 8d 3a
       0.0005562487 0.0008365629 0.13373132 0.0010758743
0001a0 5e 06 01 3a 09 f7 0c bb 7d 17 17 3a 2d d0 87 ba
       0.0004921908 -0.002150955 0.0005763693 -0.0010361724
0001b0 28 29 02 bb 11 ae 42 bb 4a b8 36 b9 8f a6 f8 39
       -0.0019860957 -0.0029705802 -0.00017425526 0.00047426342
0001c0 38 94 a1 3f ac 69 31 b9 4d ea 85 3e 48 a3 d2 3e
       1.2623358 -0.00016919401 0.2615532 0.411402
0001d0 99 aa f0 3a 8d 1a 32 39 ec d0 11 3d 3c 32 24 39
       0.0018361389 0.00016985294 0.035599634 0.00015658973
0001e0 11 56 b4 3a 38 20 ec 3a 98 23 9f 3a ae 78 24 bd
       0.001375856 0.0018014973 0.0012141345 -0.04015415
0001f0 df 1e ac 39 82 91 36 3a c4 db 75 ba de 72 7f 3a
       0.00032829397 0.00069644314 -0.0009378756 0.00097445946

node_encoder.norms.1.module.bias f4 [128]
000000 c9 c8 ed ba 4a 7b 66 3b 13 32 57 ba a5 dd 14 b9
       -0.0018141504 0.00351687 -0.0008209061 -0.00014196949
000010 d6 61 57 ba 8e fb 6b bd a8 b8 28 37 60 51 c7 ba
       -0.0008216178 -0.057612948 1.0056574e-05 -0.0015206747
000020 fe 05 bd 3a 87 70 91 ba cf dd 97 3e fd 98 2a 3a
       0.0014421341 -0.0011096158 0.29661414 0.00065077824
000030 7e dd 14 3a a9 f5 78 3a 15 37 7f 3e 94 90 ea 3a
       0.0005678757 0.00094970554 0.24923356 0.0017895871
000040 20 cf 68 bd cb f4 96 b9 65 a0 17 bf 2a 2c 3e ba
       -0.056838155 -0.00028792614 -0.5922912 -0.0007254506
000050 08 20 2b 3a c0 65 0b 3d c6 5c e3 39 d9 23 c8 3a
       0.00065279054 0.034032583 0.00043365936 0.0015269472
000060 0b 19 85 be 20 ce 6f be 18 e4 89 ba 75 62 aa 38
       -0.2599567 -0.23418474 -0.0010520248 8.124571e-05
000070 2c 3b bb b8 7c 58 cc 3a c9 3d 38 3a 22 ad 05 be
       -8.9278765e-05 0.0015590335 0.00070282497 -0.13054326
000080 db 35 91 be 85 16 37 3b 1c b8 8b ba 60 4a 82 3a
       -0.283614 0.0027937007 -0.0010659727 0.0009940378
000090 d8 ce 01 bf df c4 35 3e 8c 1d 2e be 48 6b 98 b9
       -0.50706244 0.17750882 -0.17003459 -0.0002907163
0000a0 85 92 d2 39 a9 40 06 3a c4 a3 51 ba 1a e2 bc 37
       0.00040163487 0.00051213295 -0.000799712 2.2516633e-05
0000b0 e9 a9 fc 39 a7 ef 9f 3a de 98 aa 3a 0f 15 1a 39
       0.00048191778 0.0012202159 0.0013015529 0.0001469443
0000c0 1d 00 e0 39 aa 55 98 3a 38 80 9e 3a 48 61 12 3a
       0.00042724694 0.001162221 0.0012092656 0.0005583954
0000d0 c2 d5 cb b6 60 87 0e 3a 71 f1 49 b9 d9 e2 05 3f
       -6.074756e-06 0.00054370426 -0.00019258798 0.5229927
0000e0 73 b4 3d 3a bc 4a 86 3a b4 bf d4 3e 81 e6 2d 3a
       0.0007236667 0.0010245661 0.41552508 0.0006633774
0000f0 c4 0d 22 39 39 04 ac b7 76 0a 04 ba d8 bb 7a 39
       0.00015454652 -2.0505964e-05 -0.0005036959 0.00023911835
000100 c8 13 05 3f e1 f0 f8 b9 eb bb a1 3a 0e 8b 3b 3a
       0.5198331 -0.00047481715 0.0012339329 0.00071542046
000110 b0 d3 64 3e 10 0a 70 3a 61 26 04 bd 0b 09 cc 3d
       0.22346377 0.0009156773 -0.032263163 0.09962662
000120 11 f6 78 bd 3e f4 46 3e 53 4c 93 39 c4 90 ed 39
       -0.060781542 0.19429109 0.0002809489 0.0004531202
000130 73 65 1c ba 17 e0 2c b9 98 10 8a b9 92 fb 86 ba
       -0.0005966045 -0.00016486678 -0.00026333774 -0.0010298362
000140 5f 13 81 3c ed a9 68 3d a9 95 31 3f 35 17 87 3e
       0.015756307 0.05680268 0.6936899 0.26384893
000150 f6 68 b4 be b6 7a 0e bf 03 25 17 b9 54 71 69 3a
       -0.3523633 -0.5565599 -0.0001441427 0.0008905132
000160 64 56 1b bf a6 75 81 ba 34 2e 37 be 1c 85 2d bd
       -0.60678697 -0.0009876981 -0.17888719 -0.04236327
000170 6f 11 40 bb e7 25 8e b9 d2 34 fc 39 99 a3 3a 3a
       -0.0029307266 -0.0002711259 0.0004810454 0.0007119715
000180 cd 1b c4 3d 62 cb 86 b9 3a 8b 82 ba 88 15 1c 39
       0.09575615 -0.00025710004 -0.0009959706 0.0001488534
000190 5a 47 59 ba 7e b5 93 ba 3c 6d d1 3c 25 03 53 3a
       -0.0008288525 -0.0011269299 0.025564782 0.000804948
0001a0 85 ca 8a 39 9d 16 66 3b 11 6a 7a 3a 4a f8 88 b9
       0.000264723 0.0035108693 0.0009552548 -0.0002612493
0001b0 58 57 a3 39 c5 06 de 3a 8f 68 1e 39 da 0b 45 3a
       0.0003115486 0.0016939273 0.00015107005 0.00075167196
0001c0 06 2c f8 3b f1 57 d8 39 f3 5d fe 3d 6b 97 02 3e
       0.0075736074 0.00041264252 0.12420263 0.12753074
0001d0 bf e0 8b ba 0b 9f b8 3a 78 bc 3e 3b ba e6 83 ba
       -0.0010671838 0.0014085484 0.0029104035 -0.0010063269
0001e0 76 69 18 ba 81 b5 11 39 36 cd 27 ba 55 21 b1 bb
       -0.0005814055 0.00013895893 -0.0006401123 -0.005405585
0001f0 b6 63 71 b8 6f a0 75 b9 fa 80 17 ba 77 78 23 3a
       -5.755174e-05 -0.00023424787 -0.0005779412 0.0006235907

node_encoder.norms.1.module.running_mean f4 [128]
000000 e0 44 bb bb 8e 63 32 bc 91 39 ab 3a 9f c5 cb 38
       -0.0057149976 -0.0108879935 0.0013063421 9.716604e-05
000010 f3 a8 a1 39 15 f6 ef 3e e7 ba 64 3a 94 21 32 3b
       0.0003083419 0.46867433 0.00087253604 0.0027180659
000020 02 fd 41 bb e1 88 b7 ba 3e 3d dc 3e 4f 4b 24 3b
       -0.0029600267 -0.0014002585 0.43015474 0.0025069301
000030 8d b4 b9 3a a7 77 28 b9 3a e7 b1 3e fd c6 35 39
       0.0014168188 -0.00016066302 0.34746724 0.00017335634
000040 82 9c 85 be 8b 14 0f 3b 54 05 b7 be 96 e3 37 3a
       -0.26095968 0.0021832313 -0.35746253 0.0007014809
000050 19 bc a8 3b 6a 66 ac 3e 1a 50 09 3c f8 0c bb 3a
       0.005149376 0.33671886 0.008380914 0.0014270833
000060 28 70 ae be 25 5f 26 3f 42 0b 0a 3c 4e 03 32 bb
       -0.34069943 0.6498893 0.008425536 -0.0027162614
000070 9f 01 f5 ba d2 d0 53 39 c6 6f 24 3a ea ed 07 3f
       -0.00186925 0.0002020032 0.0006272759 0.53097403
000080 cd ce 14 3f eb 4e 5c bc 99 58 47 ba 5e 72 cd ba
       0.5812805 -0.01344655 -0.00076044496 -0.0015674343
000090 88 e9 8b be 63 fb 58 3e ea e1 00 bf c5 45 5d ba
       -0.27326608 0.21189646 -0.5034472 -0.00084408774
0000a0 d6 1b 53 ba 4d 2c b7 bb 37 ee 46 b9 05 6f f3 3b
       -0.0008053159 -0.005589998 -0.00018971493 0.007429006
0000b0 f2 12 05 3b 62 ef f1 37 9e 04 12 bb 25 c0 58 3b
       0.0020305482 2.884091e-05 -0.0022280584 0.0033073511
0000c0 4b c9 7e 3a c9 fe 92 3e 44 91 a2 ba 7c f4 14 bb
       0.0009719326 0.2871001 -0.0012402912 -0.0022728732
0000d0 43 bb 10 b9 15 f5 8a bb 9e 72 00 3b f1 5d 67 3e
       -0.0001380267 -0.004240642 0.0019599567 0.2259443
0000e0 31 01 26 bc 61 88 17 3c 4a 47 b6 3e 0e 95 b6 3b
       -0.01013212 0.009248824 0.35601264 0.005571968
0000f0 53 34 b5 3a ea 9d 84 3b f3 34 b3 3b a2 05 10 bb
       0.0013824798 0.004047145 0.0054689585 -0.0021976014
000100 f6 3b 3f 3e d2 78 7f 3a 1b ba e6 ba cf 0f eb ba
       0.18675217 0.00097454817 -0.0017603071 -0.0017933788
000110 a0 96 78 3e 25 c9 e6 ba 1e 32 eb bd 19 e6 b1 3d
       0.24276209 -0.0017607553 -0.114841685 0.08686466
000120 83 9a c9 be 0b db 4b 3e a0 ef 83 3b 57 ec fc 3a
       -0.39375696 0.19907777 0.0040263683 0.0019296509
000130 64 91 61 3b a6 04 c9 b9 38 f3 86 39 db 03 f3 3a
       0.0034418935 -0.0003834117 0.00025739684 0.0018540578
000140 7c b4 0d 3d d9 11 8c bc 56 4b 5d 3e 77 2e 0f bf
       0.03459595 -0.017098354 0.2161077 -0.55930275
000150 d7 d9 f6 bd 7a a1 9d be 91 f8 b6 3a 7c 40 43 3c
       -0.120532684 -0.3078726 0.0013959577 0.01191723
000160 c4 e3 1d be 0b 9e 91 ba 48 85 e3 be 54 aa fe bd
       -0.15418917 -0.0011109723 -0.44437623 -0.12434831
000170 54 cd a2 3a f2 e1 84 3b 0b 6f 10 b9 d9 f8 1a bc
       0.0012420812 0.004055255 -0.00013774277 -0.009458744
000180 84 5b a3 3d e3 87 08 3a ca 0b a4 bb fd 21 96 3d
       0.079764396 0.0005208237 -0.005006288 0.073307015
000190 c2 b7 3c 3b 6e 21 3e 3b 00 3a 89 3e 2d 22 bc ba
       0.0028796052 0.0029011625 0.26802063 -0.0014353447
0001a0 53 11 00 bc 91 6a a0 3b df d2 14 bb 8f 83 b5 bb
       -0.00781663 0.004895516 -0.0022708697 -0.0055393646
0001b0 b1 77 83 3b 12 8e a9 ba db 95 85 3a 4c 54 49 39
       0.004012071 -0.0012936017 0.0010191755 0.00019200257
0001c0 6d 7e e2 bd 94 9c ed b5 e0 46 04 bf 7c b7 d9 3e
       -0.1105927 -1.7703446e-06 -0.51670647 0.425228
0001d0 4d 57 5a ba 5b 59 32 ba 6b 50 cf 3c 48 5f 9f bb
       -0.0008329049 -0.0006803476 0.025306901 -0.0048636533
0001e0 ef 05 47 ba 95 08 9d ba 6f 3f 56 bb 83 75 42 bc
       -0.0007592132 -0.0011980707 -0.0032691618 -0.011868837
0001f0 a1 42 24 3c c6 c4 25 3c 34 70 e5 ba 42 14 90 ba
       0.010025651 0.010117715 -0.0017504753 -0.0010992365
