tfg/models20250213095528/model_100.pt (torch, 819382 bytes, 36 tensors)

node_encoder.lins.0.weight f4 [64, 7]
000000 6e cf 60 24 e5 f8 70 a4 d9 5d ad a4 6d 90 66 ac
       4.8747957e-17 -5.2252526e-17 -7.5185774e-17 -3.2765138e-12
000010 af 4f 00 a3 58 9d 3c 24 0c d1 30 a4 22 63 2e bd
       -6.9557676e-18 4.0899277e-17 -3.8340986e-17 -0.04257501
000020 1f b8 b9 bd 17 d5 1e 3d 98 a3 0e 3b 0f d1 42 bc
       -0.090683214 0.038777437 0.002176499 -0.011890664
000030 2a a7 f4 3a d3 0e 31 3c b7 8c e8 3a f3 2d c9 bb
       0.0018665541 0.010806757 0.0017742132 -0.006139511
000040 7c dd 51 39 83 f5 d1 38 41 c8 24 ba a2 99 8a 39
       0.00020014303 0.00010011627 -0.00062859437 0.00026435876
000050 9e 24 9f b8 f8 aa 30 3a 44 ef 55 bb 25 8c 50 3a
       -7.588531e-05 0.00067393435 -0.0032643834 0.00079554535
000060 69 31 27 36 c3 a8 f4 b8 ff b0 b5 37 bd 5e 54 38
       2.49137e-06 -0.00011666261 2.1659302e-05 5.063297e-05
000070 24 09 d0 3b 47 f0 1f 3b d9 f4 41 3b 66 4d eb 3e
       0.006348746 0.002440469 0.0029595403 0.45957488
000080 ca 4f 91 be 97 a1 13 bf 0a 5a fa be 19 e9 df 3d
       -0.28381187 -0.5766844 -0.4889682 0.10933132
000090 f0 23 3a bd aa 72 37 bc ff 0d 14 bc 34 a2 9f 3e
       -0.04544443 -0.011196772 -0.00903654 0.3117844
0000a0 36 2d 71 3e 46 68 b0 bd 78 d7 b3 bc 50 64 79 bc
       0.23552403 -0.086136386 -0.02195333 -0.01522167
0000b0 13 2b b7 3b ed 39 0c 32 e5 28 d7 b5 8d 40 03 38
       0.0055898516 8.162243e-09 -1.603065e-06 3.129295e-05
0000c0 0e e9 71 38 ab 95 bb bd 84 dc 9e be e0 16 70 be
       5.7675927e-05 -0.09159406 -0.31027615 -0.23446226
0000d0 39 8c 46 bd b4 35 a1 bc 44 db 27 bd 9a c3 25 bc
       -0.04847357 -0.019678928 -0.040980592 -0.010117436
0000e0 48 f3 38 3a c2 98 c5 bb a1 d5 41 bb 5c 25 f5 b5
       0.00070552947 -0.006030173 -0.0029576796 -1.8264795e-06
0000f0 25 45 1d b6 bd 77 f2 37 fc 03 60 38 22 f0 d7 3b
       -2.343507e-06 2.8904406e-05 5.3409472e-05 0.0065899054
000100 d5 60 6c bb ea 24 c4 3b e7 14 95 35 fc fa 22 b9
       -0.0036068459 0.005985846 1.1107448e-06 -0.00015543023
000110 e8 49 34 39 42 34 19 3a a2 f6 10 bc 21 ab b1 bc
       0.0001719367 0.0005844274 -0.008847864 -0.021688046
000120 81 85 bb 3c 45 47 20 b9 a1 3c af 3b 64 85 0e 3c
       0.022890808 -0.00015285339 0.0053478037 0.008698795
000130 9d a1 38 bb 6d 34 60 bb e1 3b d0 bc 88 f7 c2 3c
       -0.00281725 -0.0034210936 -0.025419177 0.023799673
000140 56 94 d3 36 05 1d 95 b9 09 e4 5d 39 62 11 3b b9
       6.3055586e-06 -0.00028441116 0.00021161152 -0.00017840185
000150 c9 0e 9f 1a bc 18 6a 19 2d 82 b9 1a 7d 5d 63 25
       6.5784745e-23 1.21025115e-23 7.672452e-23 1.9720787e-16
000160 22 20 06 9a a9 93 b0 19 48 d3 95 1a 45 12 8c 8a
       -2.7736507e-23 1.8257613e-23 6.19663e-23 -1.3488382e-32
000170 6f fe f4 89 17 e3 83 8a 6a e6 10 08 02 61 c0 09
       -5.898013e-33 -1.2700263e-32 4.3604274e-34 4.6313544e-33
000180 0d 32 67 08 70 e5 34 0a 85 cd 8c bb e6 21 95 bb
       6.957287e-34 8.709837e-33 -0.004296961 -0.00455116
000190 39 9b cb bb b1 f1 71 33 d4 ae 4a b7 30 64 af b5
       -0.0062135723 5.6332002e-08 -1.2080844e-05 -1.3067674e-06
0001a0 2d d3 a9 b5 c6 9c 40 ba 73 b6 bf bc be 19 a6 3d
       -1.2652941e-06 -0.000734758 -0.023402428 0.08110379
0001b0 02 c9 b3 3a eb d0 e4 bb 7b da 3e 3b f7 79 b5 3c
       0.0013716521 -0.006982913 0.0029121924 0.022152884
0001c0 e0 64 d9 23 cb 20 8c 23 24 65 08 a4 a6 70 10 34
       2.356991e-17 1.5192719e-17 -2.957597e-17 1.3452026e-07
0001d0 f9 73 29 23 b9 5e 46 22 a1 81 a7 a2 7c a7 39 bd
       9.1860665e-18 2.688415e-18 -4.540269e-18 -0.04532574
0001e0 3c 61 9c 3c 75 31 08 be 37 3f 40 bb 10 46 e8 3d
       0.019089334 -0.13300116 -0.0029334554 0.11341488
0001f0 be 42 d2 bd 4c 19 fe bc 00 2d b3 b9 73 aa ec 3c
       -0.10266636 -0.031017922 -0.00034175068 0.02888987
000200 7f ce f1 bb 48 f7 02 ba 73 3c 29 3b b8 df f2 3a
       -0.0073793526 -0.0004995954 0.0025823384 0.0018529808
000210 14 9b 9c b9 4a 3b ed bd 8c 7e 99 bc b4 42 d1 3d
       -0.0002987018 -0.11583574 -0.0187371 0.10217801
000220 c1 7d 09 3c 21 88 95 bb 90 4c 0c 3e 97 f2 af 3d
       0.0083917985 -0.004563347 0.13701081 0.08591192
000230 2b 68 1f ba 99 c1 80 3b f6 42 8b 3b 41 3c a3 be
       -0.0006080891 0.0039293286 0.0042499257 -0.31881908
000240 6b 87 1a 3f a1 bd 88 be a1 7d 94 3e e1 46 43 ba
       0.6036288 -0.26707175 0.29002097 -0.00074492214
000250 5b 1f 11 bc aa 78 7f bc 31 70 ec 34 cf d0 d6 37
       -0.008857573 -0.015592733 4.4040056e-07 2.5608022e-05
000260 8c b2 99 36 9d 1e 73 37 ec 5e d7 3b 5c c7 15 bc
       4.580541e-06 1.4491056e-05 0.006572595 -0.009141769
000270 a0 eb 37 bb 7a 9c 93 b8 d3 c5 c6 b9 5e da 10 3a
       -0.0028064027 -7.038652e-05 -0.00037912893 0.00055257033
000280 23 26 68 39 1a 6d c3 bc ae 47 59 bd de a8 c3 bd
       0.00022139451 -0.023855735 -0.053046875 -0.09553693
000290 af 39 39 3b 21 25 49 3d f8 85 4f 3d ef 1d c8 3d
       0.0028263142 0.049107675 0.050664872 0.097713344
0002a0 c7 80 31 3b 94 ba 0d 3c d5 b9 c7 3b 3c 90 27 b4
       0.0027084814 0.008650441 0.006095151 -1.5605559e-07
0002b0 d2 1f 92 b4 e4 e0 ca b6 30 e5 2a 37 ec 99 68 3d
       -2.7217772e-07 -6.04625e-06 1.01861515e-05 0.056787416
0002c0 6c 7f fd 3c 0a cb 23 bd 6c 09 08 bc c6 87 96 be
       0.030944549 -0.039988555 -0.008303028 -0.29400462
0002d0 58 2d b9 3e 47 97 5e be 01 3a 1c bc df 76 0a 3d
       0.36167407 -0.21737395 -0.009535314 0.03380477
0002e0 88 94 20 3c 2d a6 e6 b9 da d1 30 3b 52 f6 d4 ba
       0.009801038 -0.0004399283 0.002698055 -0.0016247726
0002f0 6c 6a 2d 3a ce ea cf 3c 55 f0 f8 bc 43 5c 18 3c
       0.00066152844 0.025380518 -0.030388037 0.009299341
000300 4c 12 9d 2e bc 44 0b b8 78 24 4f 39 3d 88 02 39
       7.1427836e-11 -3.3204196e-05 0.00019754644 0.00012448519
000310 81 eb 1c bc 3f df f9 3b 22 1e 96 b9 18 f3 dd 3e
       -0.009577633 0.00762549 -0.0002863268 0.43349528
000320 b6 a9 08 3f 3d ab 0a bf 45 18 04 be cb 7d 58 29
       0.5338396 -0.5416754 -0.12899883 4.8070743e-14
000330 63 1a 18 a9 d4 f6 85 29 93 fc be af 3c b7 2f 28
       -3.3773667e-14 5.9492043e-14 -3.4740263e-10 9.754184e-15
000340 8a f9 d3 a7 a7 fd c0 a7 ea 5f 95 3d 82 4f 5a 3d
       -5.8834815e-15 -5.3565716e-15 0.07293685 0.05329848
000350 2e 33 8b bd 2e 0a e0 3c 9e 5d 75 be 1a b0 41 be
       -0.06796871 0.027348604 -0.23961493 -0.18914834
000360 c4 aa 7e 3e a5 b9 6e 3c 94 c5 2d bd 78 fc a4 3c
       0.2486983 0.014570628 -0.042424753 0.020139918
000370 10 67 a4 39 78 05 ad ba 5c dc c9 3a 30 a1 3e bb
       0.00031357305 -0.0013200482 0.0015400755 -0.0029087774
000380 52 ed 94 17 6d 94 0e 17 5c 62 20 18 53 d4 bf a0
       9.624184e-25 4.6070014e-25 2.0729174e-24 -3.2497163e-19
000390 f8 0d 28 17 54 d5 a6 16 65 82 3b 97 02 13 14 3d
       5.430136e-25 2.6953375e-25 -6.058754e-25 0.03615094
0003a0 ba d1 2e bb 82 cc cb 3d 8b 6d 49 bc cf 0d bc bd
       -0.00266753 0.09951116 -0.0122941835 -0.09182321
0003b0 bc 9b 4b be eb 09 5d be 4d 96 9d 3b 1e d3 0d bc
       -0.19883627 -0.21585815 0.004809177 -0.008656291
0003c0 c4 d8 ba 3a 28 84 1d 35 c0 bd 4b b7 ae fb 13 b8
       0.0014255275 5.867937e-07 -1.21439225e-05 -3.5281926e-05
0003d0 b2 2a 18 38 cb 77 09 bc 06 bf 12 3c 7e e8 c1 ba
       3.6279387e-05 -0.008390377 0.008956676 -0.001479402
0003e0 2e 5f 4b bd 15 11 fd 3e 12 fa 52 3e e2 66 87 be
       -0.049651317 0.49427095 0.20603207 -0.2644568
0003f0 f8 e7 34 3a b6 56 86 bb 6c df ca 39 48 e3 34 37
       0.0006901021 -0.004099692 0.00038694905 1.0781754e-05

node_encoder.lins.0.bias f4 [64]
000000 a8 a4 a1 a4 81 42 2e 37 83 42 3c b4 58 98 99 b4
       -7.010156e-17 1.0386692e-05 -1.7533061e-07 -2.8609315e-07
000010 4d 53 88 b8 7d 83 34 b7 3c f7 97 31 5c 7d da b3
       -6.500501e-05 -1.0759451e-05 4.4227857e-09 -1.0174219e-07
000020 00 2b 91 b4 62 f5 99 32 69 7c b7 b5 e5 bc 42 b5
       -2.703964e-07 1.7923131e-08 -1.3670771e-06 -7.254551e-07
000030 ff 5d 8b 24 21 23 ac a8 d5 57 7f af fb 1a 05 34
       6.0440876e-17 -1.911107e-14 -2.3223319e-10 1.2396406e-07
000040 5f 77 f3 aa a3 e9 22 36 2d df 45 b6 fe c6 a5 36
       -4.3248302e-13 2.4275876e-06 -2.9485193e-06 4.940549e-06
000050 0f 35 5c b8 d3 7b 64 34 d5 31 cb b5 7d d8 07 36
       -5.2501502e-05 2.1279202e-07 -1.5139182e-06 2.024258e-06
000060 64 21 49 33 a9 5d 26 b7 b1 82 1a 34 0d 9c 05 30
       4.6829328e-08 -9.916178e-06 1.4389913e-07 4.860688e-10
000070 85 36 59 38 8b c0 30 ab cc 06 a1 36 08 75 aa 37
       5.1787607e-05 -6.279497e-13 4.798965e-06 2.0320076e-05
000080 dc 95 fa 30 b5 30 04 b7 de a9 57 b5 fa 4b 37 37
       1.8232487e-09 -7.879154e-06 -8.034093e-07 1.092534e-05
000090 af 32 1b 35 db 6c 09 b2 ad 2e d1 b1 85 2c 85 af
       5.7815754e-07 -7.9992e-09 -6.088007e-09 -2.4224192e-10
0000a0 88 cc 84 b6 95 28 0d b7 cb 30 03 35 29 7d 66 b5
       -3.957717e-06 -8.413704e-06 4.8872306e-07 -8.586381e-07
0000b0 c2 92 03 b4 3f c4 9b b5 77 2e 8f 37 62 1c 85 30
       -1.2253716e-07 -1.1605515e-06 1.7068565e-05 9.68509e-10
0000c0 43 63 b1 b5 18 0c 0f b4 a5 75 7c b6 69 2c a8 b5
       -1.3216417e-06 -1.3322312e-07 -3.7619404e-06 -1.25299e-06
0000d0 4e f8 14 35 21 49 2b b7 e8 e2 de 35 90 3d 05 b3
       5.549563e-07 -1.0209421e-05 1.6606327e-06 -3.1022466e-08
0000e0 c6 93 4e 32 2b a7 6a b4 cc b9 59 36 43 3e be 35
       1.2024378e-08 -2.1853764e-07 3.2443668e-06 1.4174224e-06
0000f0 55 f7 64 32 79 46 68 b8 c5 24 ab 35 59 a8 92 b4
       1.33275835e-08 -5.5378743e-05 1.2751194e-06 -2.7317108e-07

node_encoder.lins.1.weight f4 [128, 64]
000000 26 8f 13 b4 2d c3 1a ba cd 58 57 38 c4 2c 8d b7
       -1.3742519e-07 -0.0005903717 5.1342697e-05 -1.6829355e-05
000010 00 33 57 bb 7f a5 1e bb ad 77 63 b5 6d 6f 73 3b
       -0.0032836795 -0.002420753 -8.473824e-07 0.0037145272
000020 94 01 72 b6 97 bc 75 b7 60 2d e5 b8 43 c0 d9 b7
       -3.6061729e-06 -1.46470475e-05 -0.00010928023 -2.5957945e-05
000030 f6 4b 0c a7 2d 80 cd a1 3d 13 94 b5 58 31 89 3a
       -1.9470081e-15 -1.3925268e-18 -1.1032458e-06 0.0010466976
000040 d9 94 58 a9 be a9 a0 3b 25 ea e0 b9 f9 44 00 ba
       -4.809074e-14 0.0049030473 -0.0004289906 -0.000489309
000050 63 a3 51 3a 3f 5e 35 b6 f9 5e 21 b7 58 bf f0 3a
       0.0007997064 -2.702596e-06 -9.61846e-06 0.0018367572
000060 62 ca 4f 35 01 8b 3b 3a 9a ce 5e 39 d4 36 9f b6
       7.7408015e-07 0.0007154197 0.00021248535 -4.744952e-06
000070 83 37 6a 3a e0 94 96 2e d7 04 94 39 ec b9 9f 38
       0.00089346635 6.847656e-11 0.00028232366 7.6163415e-05
000080 94 7d d8 20 21 b0 61 bb 45 e5 b9 b6 94 34 da 3a
       3.6674924e-19 -0.0034437256 -5.54012e-06 0.001664775
000090 2a 86 af 36 01 1f 63 37 b3 98 ca 37 80 07 21 90
       5.231025e-06 1.3537473e-05 2.4151383e-05 -3.175743e-29
0000a0 f6 d2 aa bc da 49 8b ba 43 95 c9 37 a1 22 98 3b
       -0.020852547 -0.0010626868 2.4030573e-05 0.0046428
0000b0 83 22 a9 b5 05 98 53 bb 6b 49 78 bb 95 f6 3f b1
       -1.2601525e-06 -0.0032286656 -0.0037885557 -2.7934324e-09
0000c0 be 96 ed b7 ee a2 98 b8 ff 12 aa ba 5b 85 1a 3a
       -2.8322796e-05 -7.278273e-05 -0.0012975632 0.00058945053
0000d0 72 a3 00 37 14 44 6f 3b ee c2 34 3a 5f 8b d5 35
       7.66745e-06 0.0036509084 0.0006895502 1.5910299e-06
0000e0 b4 f2 ad b7 67 08 af b8 28 b7 59 ba c5 ca bb 3a
       -2.0736225e-05 -8.346215e-05 -0.00083051855 0.0014327398
0000f0 4d 0d a2 33 c6 6c 59 bb 1b 0f 37 bc 1e 47 01 b8
       7.546132e-08 -0.0033176406 -0.011173035 -3.082223e-05
000100 27 2d 8d b4 31 b0 c6 37 97 c5 5a b5 04 d9 8b b5
       -2.629615e-07 2.3685485e-05 -8.149886e-07 -1.0419467e-06
000110 56 d8 60 3a 92 8b d6 39 ee dd 80 33 bc a5 c9 ba
       0.00085771584 0.0004092125 6.000833e-08 -0.0015384476
000120 8d d1 27 b5 f3 dc 44 35 84 ea 4f b7 98 db bc b6
       -6.2517285e-07 7.3337213e-07 -1.2392764e-05 -5.6284007e-06
000130 ff 07 52 b7 0e e3 22 a0 a3 07 26 34 76 03 48 b8
       -1.2518837e-05 -1.379706e-19 1.5462733e-07 -4.768694e-05
000140 53 60 40 ae e7 9e c0 b9 1f 50 c7 b5 c6 ac 45 b9
       -4.37413e-11 -0.00036739485 -1.4849974e-06 -0.00018851747
000150 eb 60 d2 39 41 22 35 35 7f a2 75 b7 82 44 c5 b8
       0.0004012653 6.74776e-07 -1.4640972e-05 -9.4064526e-05
000160 ba 4a c5 33 59 d0 c9 b9 18 8b 58 38 71 7c c1 35
       9.18712e-08 -0.0003849294 5.1627954e-05 1.4415838e-06
000170 3f 3f 1e 39 32 47 82 aa 41 61 c8 39 41 fd 61 b8
       0.00015091615 -2.314204e-13 0.00038219432 -5.388004e-05
000180 59 b7 a3 a0 79 3b 5f 39 c3 75 ac b5 b6 4f 54 ba
       -2.7734603e-19 0.00021289093 -1.2849272e-06 -0.0008099036
000190 22 86 9a b2 f5 36 00 b5 92 ef c9 b3 db b4 31 8f
       -1.7988956e-08 -4.776369e-07 -9.4033695e-08 -8.761605e-30
0001a0 4d eb b8 3b 5b 98 14 39 3e 18 80 b2 65 9e 67 ba
       0.0056432844 0.00014171137 -1.4912185e-08 -0.00088355533
0001b0 e7 d8 75 36 be e8 9c 39 40 7e 8c 3a e9 21 83 33
       3.6634099e-06 0.00029928045 0.0010718778 6.106331e-08
0001c0 aa f7 ab 38 60 fd eb b3 ea 0f af 39 1f b9 06 b9
       8.2000464e-05 -1.0989129e-07 0.00033390458 -0.00012848199
0001d0 48 11 0d 36 23 c3 0c 39 e7 c3 9e ba f2 69 07 b5
       2.1020696e-06 0.00013424135 -0.0012112827 -5.044559e-07
0001e0 58 78 18 b7 22 d2 e1 34 1c cf 71 39 a2 4f b9 b8
       -9.087926e-06 4.2062408e-07 0.00023060705 -8.83632e-05
0001f0 c1 9d 52 b4 91 64 87 b8 53 cd 05 3b 7f 05 51 b5
       -1.9615165e-07 -6.4560336e-05 0.0020416572 -7.7866565e-07
000200 7b 1e 06 2f da 8f d7 b8 d7 5c 87 34 d1 ef 72 35
       1.2198058e-10 -0.00010278793 2.521326e-07 9.0501004e-07
000210 b1 5b a0 39 0f 11 b7 35 8a 08 73 34 f3 51 d5 39
       0.00030585894 1.3639527e-06 2.2634245e-07 0.00040687583
000220 d5 08 4c b2 aa 5e 15 b4 ec f9 76 b7 2c 59 a7 b5
       -1.1876371e-08 -1.3911145e-07 -1.4720932e-05 -1.2468422e-06
000230 6f 80 2f 2c ef 11 41 a0 e8 01 a9 b3 b6 52 79 37
       2.494029e-12 -1.635367e-19 -7.8700225e-08 1.4860814e-05
000240 c8 52 f9 a7 fa ad 85 b7 1a c1 ef 37 24 46 9d b8
       -6.9201135e-15 -1.593585e-05 2.858094e-05 -7.499408e-05
000250 65 ad ae b9 c9 99 60 b1 49 67 e6 b6 a9 81 5e b8
       -0.00033317055 -3.2683707e-09 -6.866558e-06 -5.304968e-05
000260 cf 73 3b b3 7c 83 05 39 da ce 48 38 7a d5 c9 b3
       -4.3644658e-08 0.0001273285 4.787636e-05 -9.398623e-08
000270 f3 ee e3 b9 ea 68 e5 2d 63 0b 0a 39 6b 2b d0 b7
       -0.00043474845 2.6080877e-11 0.00013164947 -2.481575e-05
000280 48 60 a3 23 7b 61 20 37 f3 09 63 34 52 61 18 b9
       1.7713272e-17 9.55944e-06 2.1144642e-07 -0.00014532104
000290 6f 7b fa 34 04 5c e4 35 73 2a e7 b4 2d c3 b3 0c
       4.6655938e-07 1.7014104e-06 -4.305799e-07 2.7696784e-31
0002a0 6b 17 23 3b ea 8c 9d 38 9d 2f 2f b7 15 ee 53 b9
       0.0024885784 7.512591e-05 -1.0441899e-05 -0.0002021122
0002b0 d3 1b f8 35 f9 95 28 b7 48 0c 27 39 71 c4 a5 32
       1.8485538e-06 -1.0048499e-05 0.00015930936 1.929786e-08
0002c0 88 61 32 37 bd d2 d7 b5 c1 52 9e 38 a4 e0 3f b8
       1.0632335e-05 -1.6080081e-06 7.549441e-05 -4.574716e-05
0002d0 6c 10 5c b5 da d3 0b 3a b7 f4 0e 39 2f 24 99 33
       -8.1980284e-07 0.00053339975 0.00013633339 7.1311995e-08
0002e0 ec fb aa 35 52 52 71 b6 c5 e7 f6 b6 f8 e0 2a 37
       1.2739306e-06 -3.5959715e-06 -7.358353e-06 1.0185169e-05
0002f0 65 6b 88 b3 6c 5d 07 b8 61 28 67 3a 93 6c 54 b4
       -6.3525285e-08 -3.2273514e-05 0.00088179676 -1.9783538e-07
000300 da a9 f4 32 fe 95 1b 39 32 30 50 35 8f a4 79 35
       2.8482578e-08 0.00014837828 7.755617e-07 9.299919e-07
000310 d1 ce 47 3a 2c 41 26 38 98 f4 71 b3 1f 11 30 3b
       0.00076220656 3.963818e-05 -5.6334642e-08 0.0026865674
000320 34 05 4e 33 ca 6d f2 32 94 0f 49 37 d6 ae 31 b6
       4.7967845e-08 2.8222434e-08 1.1984161e-05 -2.6476823e-06
000330 dc 67 86 2a c0 f1 e0 9d 60 02 93 b2 95 27 4c b8
       2.3875249e-13 -5.954227e-21 -1.7114132e-08 -4.8674254e-05
000340 b6 1d fe b2 16 a9 28 b9 58 ea 85 37 a5 d8 42 39
       -2.9583003e-08 -0.00016084718 1.596396e-05 0.00018581988
000350 50 05 ea 39 2d a1 61 32 39 ec 49 35 c8 ee 6e b8
       0.00044635916 1.3133371e-08 7.5222084e-07 -5.6966004e-05
000360 cd 26 53 32 22 b3 44 39 25 63 b5 b6 11 49 cc 33
       1.2290639e-08 0.00018758749 -5.4057623e-06 9.512781e-08
000370 5e 9b cd 39 44 8d 1d 2d 16 23 bf b9 42 4a 2e 37
       0.00039216405 8.955784e-12 -0.000364565 1.0388498e-05
000380 73 6b ee ad 7b dc fe 38 85 82 c9 32 80 38 1c 39
       -2.7105184e-11 0.000121527315 2.3458833e-08 0.00014898367
000390 c6 a7 37 35 12 98 fd b3 66 6c 07 34 ae 0c 17 8d
       6.8416955e-07 -1.1808892e-07 1.261229e-07 -4.654573e-31
0003a0 46 69 dc 3a 82 2e 7b b7 4a 13 d1 32 b0 aa 41 b9
       0.0016816042 -1.4971594e-05 2.4339574e-08 -0.000184695
0003b0 aa 44 e5 34 8d 5b 0e 39 09 e5 ee b9 d9 16 75 b1
       4.2704534e-07 0.0001357628 -0.00045565542 -3.566518e-09
0003c0 83 71 40 b8 9c 4b 8b b5 99 8d 96 39 fe 79 85 b4
       -4.5882083e-05 -1.0378312e-06 0.00028715728 -2.4861941e-07
0003d0 5d 01 93 b3 72 69 47 3a 3d 3a ee ba 23 cd bd 31
       -6.845469e-08 0.000760696 -0.0018175315 5.5239453e-09
0003e0 aa 2f d3 b3 53 59 14 36 40 86 f0 b6 92 62 84 b8
       -9.834123e-08 2.2105712e-06 -7.168186e-06 -6.312611e-05
0003f0 12 e1 a8 30 2a a4 20 bb 69 93 27 b9 57 36 86 b4
       1.2287578e-09 -0.0024511912 -0.00015981276 -2.4998982e-07

node_encoder.lins.1.bias f4 [128]
000000 e0 12 c9 35 66 69 f0 36 97 03 83 37 67 cc 66 b5
       1.498116e-06 7.1648274e-06 1.5618089e-05 -8.597912e-07
000010 53 e8 76 b4 06 4f 1d b7 8e 68 00 37 42 78 b4 36
       -2.2995054e-07 -9.376328e-06 7.653738e-06 5.378418e-06
000020 ba fa 80 33 bb a0 05 b5 f9 b4 88 b8 cb 7d 10 37
       6.0060714e-08 -4.9780255e-07 -6.518694e-05 8.612357e-06
000030 0e d3 87 b5 5b cc c5 34 03 35 e7 38 fc 39 ad b3
       -1.0119709e-06 3.6842798e-07 0.000110248126 -8.0664876e-08
000040 cd 61 81 b9 89 c4 fe b5 db f0 16 b9 1e a5 47 b7
       -0.00024677665 -1.8981674e-06 -0.0001439484 -1.1899769e-05
000050 74 71 67 34 c4 12 12 39 48 1b 4b 36 b3 14 c4 b4
       2.1554825e-07 0.00013930636 3.0265237e-06 -3.6522906e-07
000060 32 8a 49 39 6f e3 35 b9 df 69 11 34 b5 e5 0d b4
       0.00019220336 -0.00017346231 1.3542693e-07 -1.3215215e-07
000070 c5 79 0a 34 5d 00 8d b3 78 64 7e b5 25 65 a2 b8
       1.2896551e-07 -6.56589e-08 -9.4768575e-07 -7.7436016e-05
000080 74 7e af b9 8a 7c 20 b2 bb e8 ca b2 22 a8 a2 b5
       -0.00033472816 -9.341543e-09 -2.3621729e-08 -1.2118874e-06
000090 e8 0a 40 39 26 8f cf b7 de 48 1d 39 27 2a d4 32
       0.0001831461 -2.4742982e-05 0.00014999832 2.4699217e-08
0000a0 4b 23 6d 34 06 3c 45 b6 f7 90 5c 35 b9 c4 d7 37
       2.2085185e-07 -2.9390226e-06 8.216734e-07 2.5721603e-05
0000b0 c0 46 85 b6 ac 3c 0e b4 17 f7 d8 33 20 ae ad 37
       -3.9719453e-06 -1.3246853e-07 1.0103229e-07 2.070429e-05
0000c0 6d df e7 b5 10 22 1d 39 34 4f df b5 e0 d3 ea 35
       -1.7275867e-06 0.00014985376 -1.6637846e-06 1.7496022e-06
0000d0 9e 1a 21 b4 b4 94 1c 37 eb 1b 1f 34 35 06 80 b8
       -1.5003977e-07 9.332947e-06 1.4818185e-07 -6.104672e-05
0000e0 d3 3b 53 b5 38 b1 3b 36 c5 2a 97 b9 2f dd 78 b2
       -7.869068e-07 2.7968326e-06 -0.0002883283 -1.4485791e-08
0000f0 99 d9 66 34 11 3f b3 b3 6f 88 0a 34 84 ec 31 b5
       2.1499581e-07 -8.346809e-08 1.2901886e-07 -6.6281814e-07
000100 63 23 94 38 b2 00 dc b4 9d d3 c0 35 50 56 38 b6
       7.063781e-05 -4.09787e-07 1.4366702e-06 -2.7468377e-06
000110 45 50 b5 38 44 96 dd 37 f0 8a 8a b7 e2 b0 d5 b7
       8.645704e-05 2.6415226e-05 -1.651558e-05 -2.5473946e-05
000120 c7 40 86 39 6a a8 ac 39 c4 be 6d b4 b8 63 ec 33
       0.00025606735 0.00032931875 -2.2141745e-07 1.1007745e-07
000130 ac d4 ac 35 5f db 06 b7 7f 2d 40 b3 f5 0e 29 b7
       1.2876894e-06 -8.038099e-06 -4.4744862e-08 -1.0076667e-05
000140 e8 cc e0 37 69 77 b5 37 d8 22 91 38 69 34 2c b9
       2.6798298e-05 2.1632486e-05 6.920629e-05 -0.00016422723
000150 09 77 3f b9 6f c3 79 39 9e 7f 7a b2 1b 76 9c b3
       -0.00018259523 0.00023819295 -1.4580932e-08 -7.285799e-08
000160 c6 43 9b 39 6e 00 8b 34 46 bd 6f 39 de f4 40 b7
       0.000296144 2.589108e-07 0.00022863326 -1.1501104e-05
000170 66 99 be 37 92 d6 bf b3 ba 33 39 35 44 07 58 34
       2.2721197e-05 -8.933161e-08 6.899314e-07 2.0119211e-07
000180 71 db 4f 36 66 e3 09 b6 14 69 ab 34 47 94 48 b8
       3.0973135e-06 -2.0546954e-06 3.1927686e-07 -4.782181e-05
000190 46 63 b8 36 ed 50 8e 31 51 b0 45 38 14 1b 10 34
       5.4951843e-06 4.141944e-09 4.7132668e-05 1.3420896e-07
0001a0 4e ff d2 35 1f 10 b7 36 0f 4a 44 32 c9 f7 b0 34
       1.5720523e-06 5.4557017e-06 1.14255405e-08 3.2962842e-07
0001b0 18 b3 63 36 ca 01 d1 37 eb 36 c7 b2 c3 57 a4 b6
       3.3929882e-06 2.4915575e-05 -2.3191623e-08 -4.8977977e-06
0001c0 ab 76 c2 35 59 1c 5b 33 89 12 b4 37 bf fa 94 38
       1.4488663e-06 5.1015693e-08 2.1466303e-05 7.103895e-05
0001d0 ef eb 24 33 0b ba b7 b5 77 4b 04 36 66 84 6f b4
       3.8398806e-08 -1.3688708e-06 1.971346e-06 -2.2306776e-07
0001e0 0b aa cf b6 c7 4f 34 b3 e2 fc d1 34 38 1c d9 b1
       -6.1888763e-06 -4.1982073e-08 3.911328e-07 -6.3187393e-09
0001f0 96 df 90 b7 69 71 8a b2 c2 9f bb 36 27 a4 11 b2
       -1.7270253e-05 -1.6116887e-08 5.5916325e-06 -8.477435e-09

node_encoder.lins.2.weight f4 [128, 128]
000000 74 2e f7 bb a8 ee 3c 3b 17 61 78 3a f7 f9 6a b9
       -0.0075433794 0.0028828774 0.0009474917 -0.00022409098
000010 bf 01 9c ba f4 7f a7 3d 33 c4 0a 3a 3c 71 26 b9
       -0.0011902376 0.08178702 0.0005293518 -0.00015873177
000020 f3 c7 b0 b9 12 36 c2 39 7f fb 3d 3e 3c 71 5b 39
       -0.0003371831 0.0003704285 0.1855297 0.0002092765
000030 c9 03 83 ba be d1 a2 ba d5 73 32 3e 64 69 2e ba
       -0.0009995635 -0.0012422127 0.17426999 -0.00066532777
000040 b7 e2 17 be 12 74 33 bb 67 31 99 be d9 3b 95 b8
       -0.14832579 -0.0027382416 -0.29920503 -7.116021e-05
000050 43 95 cd 3a c3 73 f2 3d 39 4f 50 ba a0 1a 5a 3a
       0.0015684742 0.11838486 -0.00079463754 0.00083200075
000060 3e 0d 2f be 88 9a ae 3d f0 a9 4b 39 52 7d 02 3b
       -0.17094895 0.08525568 0.00019422895 0.0019911123
000070 f1 20 c2 37 e5 14 8d ba 48 2c f7 ba 3e 6b 0b 3d
       2.3141942e-05 -0.0010763673 -0.0018857801 0.03403782
000080 76 ae 60 3d 95 0f 0f 3a ce 3b 9f b9 95 52 2a bb
       0.05485388 0.0005457339 -0.000303714 -0.0025989164
000090 6e fb 83 be 5a 4e 2e 3e df a4 3e be a0 16 90 39
       -0.25777763 0.17022076 -0.18617581 0.00027482677
0000a0 74 0e ec 3a 5f 4a 88 39 08 31 6a ba cc 00 75 bb
       0.0018009678 0.00025995352 -0.0008933698 -0.0037384508
0000b0 41 cb 9c bb fe 7b f1 3a 99 1c 5d ba a9 e5 10 3b
       -0.004784972 0.0018423793 -0.00084347423 0.0022109544
0000c0 10 d3 1e 3b 42 1f a6 3d 28 60 49 3b cb c1 92 b9
       0.002423469 0.08111431 0.003072748 -0.00027991677
0000d0 b8 e0 d2 39 d3 8a 62 39 43 c7 ea b9 95 7a 6d 3e
       0.0004022175 0.00021604756 -0.0004478042 0.23191293
0000e0 b4 ae 1e bc 37 28 31 b9 d0 c5 72 3e 18 13 2b b9
       -0.009685207 -0.00016895017 0.23708272 -0.00016314944
0000f0 3b 67 83 bb f9 f0 85 ba d5 e4 d6 ba 9a 28 f7 b9
       -0.0040101088 -0.001021891 -0.0016395102 -0.00047141762
000100 f3 33 96 3e d4 62 9f 3a 11 e8 a3 39 41 f5 f6 39
       0.2933651 0.001216019 0.00031262686 0.00047103505
000110 69 52 27 3e 3e 88 4c 3b b9 86 f9 bb 5b b0 d2 3d
       0.1634003 0.0031209136 -0.007614937 0.102875434
000120 b4 f3 0e be 6e ea 27 3e 3a 8e 69 39 3a bc d7 b8
       -0.13960153 0.16398022 0.00022273595 -0.00010287059
000130 a1 bc 04 3b 6f d3 90 ba e3 67 0f ba ad 2d 60 bb
       0.0020254033 -0.001104934 -0.00054704974 -0.0034206912
000140 56 ac 92 ba a6 d2 4e bd e7 41 c0 3e c5 d9 1d 3d
       -0.0011190276 -0.05049386 0.3755028 0.03853776
000150 c1 0b 55 be 34 d9 85 be 5b f6 db b9 37 2b 05 3a
       -0.20805265 -0.26142275 -0.00041954484 0.0005079987
000160 8d 5e 67 be c2 17 66 b8 f1 13 3e be 72 ab a2 3c
       -0.22594662 -5.48584e-05 -0.18562295 0.019857142
000170 be 36 59 3b 38 ef 96 3a c9 f1 10 3b 3c fb a6 bb
       0.00331442 0.0011515385 0.0022116771 -0.0050958674
000180 92 26 aa bc 96 71 7c b9 a0 6a b6 3a 95 2b d2 3d
       -0.020770345 -0.00024074907 0.0013917275 0.10262219
000190 f6 02 7b 3b 2c 9a ac 3a 42 c8 bf 3d 0b 96 b7 b9
       0.0038301325 0.0013168505 0.09364368 -0.0003501627
0001a0 06 1b e0 b9 5e 75 4c 3b 68 40 ef 39 20 67 62 ba
       -0.00042744743 0.0031197886 0.0004563362 -0.00086365826
0001b0 94 47 1d 3c 15 cf 15 b9 7a f2 53 3a 32 0f 1f 3b
       0.009599585 -0.00014286891 0.0008085143 0.0024270532
0001c0 75 68 e3 bb 83 86 25 ba 58 a9 a0 bd ea 2c 14 3e
       -0.0069399425 -0.00063142943 -0.078448 0.14470258
0001d0 82 ae d5 b8 7f 7f 74 b8 d0 a2 64 3a f4 23 a8 39
       -0.00010189136 -5.8292873e-05 0.0008721771 0.00032070244
0001e0 05 1b 22 3b 20 f6 89 39 6d 6f a9 39 44 52 18 3a
       0.0024735343 0.00026314054 0.0003231721 0.00058105984
0001f0 a0 e1 4a ba c9 a1 31 b9 2a b9 82 ba f4 df a4 b9
       -0.0007739309 -0.00016940305 -0.0009973396 -0.00031447376
000200 fe e0 09 3b 73 4e 09 ba 31 4c 86 b9 3c 06 53 39
       0.0021038647 -0.0005237825 -0.0002561524 0.0002012485
000210 86 ef 12 39 f8 65 e4 bc f7 c6 88 b8 de 34 fa 36
       0.00014012874 -0.027880654 -6.5220454e-05 7.456735e-06
000220 8b c7 9c 38 1d c5 50 3a 9c 89 e9 bb a8 dc 8c 37
       7.4758274e-05 0.00079639425 -0.007127 1.6792052e-05
000230 95 90 06 b8 05 c1 24 b8 a9 42 06 bc 83 f8 2f 36
       -3.2082742e-05 -3.928041e-05 -0.008194604 2.6221685e-06
000240 e1 ad d4 3c 56 a7 97 39 c4 5f 09 3c 79 40 87 37
       0.025961818 0.0002892564 0.008384649 1.6123277e-05
000250 25 50 07 b8 8a 24 be bc 28 76 d9 38 52 98 55 38
       -3.226115e-05 -0.023210783 0.00010369375 5.0925017e-05
000260 d4 c9 4e 3d 4e de 3c bd c9 a7 23 b8 d5 2e b3 b9
       0.050485447 -0.046110444 -3.901849e-05 -0.00034176433
000270 36 ea 4d b8 27 59 98 38 1f 6f 05 ba bd 6f 6b bd
       -4.9093935e-05 7.264531e-05 -0.00050901057 -0.05747961
000280 55 4f 38 bd 6c d1 1b b8 96 19 24 38 f4 95 9a 39
       -0.044997532 -3.714992e-05 3.9124476e-05 0.00029484893
000290 9d 1b 97 3c 2f 5c 8a bc f5 15 8e 3d f9 9e 56 b8
       0.018445784 -0.01688966 0.06937782 -5.116963e-05
0002a0 2d f4 61 39 aa 11 4f b7 cd 2d 52 35 fd ca 24 38
       0.00021548635 -1.2342274e-05 7.8297745e-07 3.9289695e-05
0002b0 01 00 a0 b7 09 7f 0e ba 50 93 31 39 cc 03 43 b8
       -1.9073488e-05 -0.00054358 0.00016934914 -4.649516e-05
0002c0 36 b9 e3 b9 57 ec b9 bc 15 c5 46 ba 6d dc 3e 39
       -0.00043434807 -0.022695703 -0.0007582468 0.00018201927
0002d0 a6 ea ac b7 9c 56 3c 39 b1 9b ce b6 c3 4c b3 bd
       -2.0613264e-05 0.00017961342 -6.1574033e-06 -0.087548755
0002e0 30 6b 64 3b ef 60 42 38 15 1e 93 bd 95 99 b6 37
       0.0034853928 4.634348e-05 -0.07183472 2.1767608e-05
0002f0 ca 8b fa 39 5e 0a d7 b8 bd 09 95 39 8c bb f6 36
       0.00047787867 -0.0001025393 0.0002842675 7.3532046e-06
000300 7f 00 83 bd f8 59 7b b8 71 6f e8 b6 5c e5 42 39
       -0.06396579 -5.9926853e-05 -6.9271123e-06 0.00018586725
000310 8e 1a 5e bd 6b 98 37 37 b0 e3 09 3e 4d 9e ef bc
       -0.054224543 1.0943138e-05 0.13465762 -0.029250288
000320 8d 98 85 3c 98 19 63 bc e0 0e 3a 38 5f 25 9d b7
       0.016308093 -0.0138610825 4.435971e-05 -1.873326e-05
000330 0e 90 90 b9 a0 a8 8d 37 35 0b c0 b8 d1 2b 5b 3a
       -0.0002757315 1.6887032e-05 -9.157361e-05 0.0008360716
000340 51 37 a3 3d 70 d9 b7 3d 6f 02 28 bd 75 54 4c 3d
       0.07969535 0.0897702 -0.041017946 0.049885232
000350 cd 78 aa 3c 61 68 7c 3c 77 f3 82 37 0a 87 1f ba
       0.020809555 0.015405745 1.561058e-05 -0.0006085491
000360 cf a0 8f 3d be ef 88 b8 e7 9f 6b 3d 60 7c bd bb
       0.07013094 -6.529641e-05 0.05752554 -0.005782649
000370 4a 13 25 ba 07 91 9e 38 7c ac 08 ba 23 00 a7 3a
       -0.0006297125 7.5610405e-05 -0.00052136905 0.001274113
000380 c7 c8 88 3c fc 1a 10 36 35 dd 4f 37 51 da be bc
       0.0166973 2.147338e-06 1.2389665e-05 -0.02329746
000390 dc 00 a1 ba 98 7b d1 b7 05 25 85 bb c5 e1 96 38
       -0.0012283581 -2.4972294e-05 -0.004063251 7.19461e-05
0003a0 91 c1 90 38 93 29 80 b9 2f 1a a9 b6 a4 ed 4d 39
       6.9025096e-05 -0.00024445038 -5.0396407e-06 0.00019638852
0003b0 e9 41 24 bb c2 6e 52 38 d1 a2 be b8 ff 05 00 ba
       -0.00250637 5.0171053e-05 -9.090233e-05 -0.0004883706
0003c0 03 9e c9 3d 9d 38 a5 38 f6 35 cc 3c 1a d8 c8 3b
       0.098445915 7.878358e-05 0.024928074 0.006129277
0003d0 b4 66 10 37 81 63 04 37 c2 df 22 37 b7 75 1f b8
       8.606981e-06 7.890981e-06 9.70805e-06 -3.8018185e-05
0003e0 32 97 81 37 2e e1 0a b8 ac d1 6e 38 84 54 04 b9
       1.5448404e-05 -3.311148e-05 5.6938894e-05 -0.00012619986
0003f0 5c 75 0e b9 f4 e2 ae b7 90 80 b3 b8 af 99 90 37
       -0.00013585895 -2.08481e-05 -8.559332e-05 1.7237702e-05

node_encoder.lins.2.bias f4 [128]
000000 49 d2 df 3e ae 83 ad bd fb 32 64 bd 14 73 ed bd
       0.43715122 -0.084723815 -0.05571268 -0.11594215
000010 ef 6c 01 be 7d 04 02 be 69 bd 12 bf de f9 1b be
       -0.12639211 -0.12697025 -0.57320267 -0.15232036
000020 6e c6 05 be 1b 3d 16 be b4 3e c7 bd 49 d0 f5 bd
       -0.13063976 -0.14671747 -0.097287565 -0.12002618
000030 25 f2 08 be 4e 42 0b be db c3 04 be 10 15 34 be
       -0.13373621 -0.13599512 -0.12965338 -0.1758616
000040 47 86 a9 bd 55 c5 0e be bb 9e da bd a8 5e 19 be
       -0.082775645 -0.13942464 -0.10674807 -0.14977515
000050 b9 77 05 be e5 b1 53 be 8e 63 2c be dc cf a7 bd
       -0.13033952 -0.2067333 -0.16834852 -0.08193943
000060 cb 95 e5 bd 22 e3 27 be c0 ca 13 be 5c 51 15 be
       -0.11210211 -0.16395238 -0.14432812 -0.14581817
000070 0b 0c e7 bd 27 d5 0b be a0 19 4e be 0d 33 39 be
       -0.11281594 -0.1365553 -0.20126963 -0.1808588
000080 d8 e7 0d be d7 e4 ea bd 9a f9 38 be 52 83 f8 bd
       -0.13857973 -0.11469429 -0.18063965 -0.12134422
000090 5b 47 af bd 05 f8 c0 bd 81 d3 42 be e4 73 ed bd
       -0.08558532 -0.09422306 -0.19025995 -0.1159437
0000a0 e2 95 1a be 6a 4d 3e be 3f 6c 2b be 7f 26 e3 bd
       -0.15096238 -0.18584219 -0.16740511 -0.11091327
0000b0 c5 52 2b be 09 0d 4e be 1a d3 a9 bc 7e 6f f9 bd
       -0.16730793 -0.2012216 -0.020730544 -0.121794686
0000c0 25 98 0f be 07 8b 98 bd 20 e7 20 be 3c c1 b6 bd
       -0.14022882 -0.07448392 -0.15713167 -0.08923575
0000d0 33 ad cb bd ff e9 04 be bc b2 d3 bd 12 85 0d be
       -0.099451445 -0.12979887 -0.10336825 -0.13820294
0000e0 e0 32 cb bd c4 de 07 be 18 ee bc bd 02 64 72 be
       -0.09921813 -0.13268572 -0.092251 -0.23670962
0000f0 ad 23 a5 bd e5 1f 93 bd 7c ea d5 bd ce 97 4f be
       -0.08063445 -0.07183818 -0.10445115 -0.20272753
000100 6c ac 3c be 64 19 e6 bd b4 85 ed bd a0 1c 49 be
       -0.18425149 -0.112353116 -0.115977675 -0.19639826
000110 af 73 f2 bd 00 56 1b be a1 a6 28 be a6 e4 0f be
       -0.11838471 -0.15169525 -0.16469814 -0.14052066
000120 68 b1 ef bd d4 11 dd bd 45 b2 83 be 26 21 33 be
       -0.117037594 -0.10794416 -0.25721946 -0.17493114
000130 60 4f 40 be ec 1f 0c be d2 a8 31 bf 31 ee f7 bd
       -0.18780279 -0.13684052 -0.69398224 -0.12105978
000140 52 0c 7c bd 3a 67 40 be a2 98 09 be 81 94 32 be
       -0.061535187 -0.18789378 -0.13437131 -0.17439462
000150 b2 0a 0a be 1c 7b ac bd 71 a0 03 be 00 1e d7 bd
       -0.13480642 -0.08421919 -0.12854172 -0.10503769
000160 2b 71 ee bd 6e f1 3c be 62 8c da bd 1d de c9 bd
       -0.11642679 -0.18451473 -0.10671307 -0.09856818
000170 56 b7 0a be 0e b5 0c be 15 5a f5 bd 71 da 9e bd
       -0.135465 -0.13740942 -0.119800724 -0.07756508
000180 a2 a8 ba bd c6 3c af bd 06 16 cd bd b5 7a 00 be
       -0.091141954 -0.085565135 -0.10013966 -0.12546809
000190 d3 d0 9c bd 5c 0e 14 be 7d 20 d0 bd ff 42 34 be
       -0.076570176 -0.14458603 -0.10162447 -0.17603682
0001a0 49 9d 8e bd 6f 52 4c bd ca 5d d1 bd f3 fc 06 be
       -0.069635935 -0.049883302 -0.10222967 -0.1318243
0001b0 70 08 36 be 4c 2c 39 be fb d6 ee bd 78 7f 58 be
       -0.17776656 -0.18083304 -0.11662098 -0.21142375
0001c0 af 82 1e be 04 56 dd bd 0d 5b 04 be d2 bf 03 be
       -0.1547954 -0.10807422 -0.12925358 -0.12866142
0001d0 8e 86 57 be e0 56 47 be 32 96 0c be f2 3c 04 be
       -0.21047422 -0.19466734 -0.1372917 -0.12913874
0001e0 4b 73 bc bd de 33 29 be f1 93 4a be 44 40 ee bd
       -0.09201678 -0.16523692 -0.19782998 -0.116333514
0001f0 3b 9f 23 bd 1b 35 23 be ca 32 ee bd 1d 78 a7 bd
       -0.039946776 -0.15938227 -0.11630781 -0.08177207

node_encoder.norms.0.module.weight f4 [64]
000000 b4 08 21 a6 72 1a 8a 3c ba be 86 ba 3f ae 61 39
       -5.586989e-16 0.016858313 -0.001028023 0.00021522584
000010 3e c6 eb 3e 65 6a 8c 3e ed db 81 b8 d5 0d b1 3f
       0.46049684 0.27424923 -6.192164e-05 1.3832346
000020 a0 e0 48 b5 37 0b 24 39 e1 b3 dc 3b 4c 54 4f 3a
       -7.483268e-07 0.00015644437 0.0067353104 0.00079089846
000030 8a d6 57 1d db 5c 6b 0c 2a 54 86 b7 8f 45 c7 bc
       2.8565927e-21 1.8131684e-31 -1.6013237e-05 -0.02432516
000040 45 2c fa a8 93 79 2a 3e b7 bb ac bb 1f 63 2c 3e
       -2.7774774e-14 0.1664794 -0.005271401 0.16834687
000050 0e 72 b9 3e cd 93 63 b8 90 e2 b7 ba 7e 37 44 3d
       0.3621983 -5.4258668e-05 -0.0014029313 0.047904484
000060 04 54 5b 37 de 05 69 3e c1 df 0b bc d8 d2 3d b8
       1.3072979e-05 0.22756144 -0.008537234 -4.5257475e-05
000070 d3 be de 3e 9d 04 52 aa 08 fb 1c 3e 77 f7 41 3c
       0.43504962 -1.8653347e-13 0.15330136 0.011838785
000080 94 87 af 19 3e ce f8 3d e7 6c b5 37 46 87 43 3e
       1.8149335e-23 0.121487126 2.1627593e-05 0.19094571
000090 de 71 e0 b9 ea 65 8e 39 4c 11 91 b9 83 be af 30
       -0.00042809447 0.00027160282 -0.00027669442 1.2787073e-09
0000a0 af 12 90 3f 65 e4 0e 3d 80 ce b2 1d 47 19 c8 3e
       1.1255702 0.034885783 4.7329724e-21 0.39081785
0000b0 8b 80 57 b9 ea 25 03 3e b6 86 f4 3e df e0 82 b6
       -0.00020551884 0.12807432 0.47759026 -3.9004804e-06
0000c0 5a 35 44 3d c3 b6 bb ba a9 f3 9d 3e f8 df 08 3d
       0.047902443 -0.0014321435 0.3084996 0.03341672
0000d0 1c 0f 89 39 45 51 02 3f 37 5f a3 3f 4e 32 9b 37
       0.00026141934 0.5090526 1.2763432 1.8500865e-05
0000e0 97 cf 0d ba 93 03 1a 3b 6e 64 00 3d 64 cd 25 bd
       -0.00054096564 0.0023500666 0.031345777 -0.04047908
0000f0 d3 96 a7 37 a8 8e 0c 3f ea b0 4a 3f 8a 51 68 39
       1.9978184e-05 0.54905176 0.791762 0.0002215562

node_encoder.norms.0.module.bias f4 [64]
000000 c6 cf 7b 37 20 07 80 bb e5 00 83 34 13 70 a7 b3
       1.5009142e-05 -0.0039070994 2.4401302e-07 -7.79693e-08
000010 93 5a 1f 3f 50 6c 3a bd e5 e0 f8 b2 9f e2 95 3d
       0.6224758 -0.04551345 -2.897327e-08 0.07318615
000020 46 5c 85 34 8c 76 28 32 36 6c 9f b8 a4 78 28 b5
       2.4840318e-07 9.8058415e-09 -7.601867e-05 -6.276043e-07
000030 cc c2 a3 ac b4 98 54 ab 92 66 6f 31 b7 b0 c9 3a
       -4.6543654e-12 -7.552945e-13 3.4837382e-09 0.0015387748
000040 37 07 53 30 3a e8 4b 3d a2 85 b4 b8 c4 79 9a bd
       7.6771606e-10 0.049782015 -8.60796e-05 -0.07542756
000050 8a f0 af be d6 43 94 b3 f7 3a a9 b5 84 af bc bc
       -0.34363204 -6.904126e-08 -1.2608642e-06 -0.023032911
000060 c2 64 84 32 78 5c 73 bc 14 3c dc b8 a4 54 1b 31
       1.5412642e-08 -0.014853589 -0.00010501608 2.2603581e-09
000070 51 aa f6 3e 39 ab d8 b1 87 7a 89 bc 0a 27 8d b9
       0.48176816 -6.305893e-09 -0.016782058 -0.00026922702
000080 ff 11 2e a9 5a 94 ee 3c 20 ff af b1 bc 99 84 bd
       -3.865137e-14 0.029123474 -5.1221747e-09 -0.06474635
000090 30 78 2b b2 3c 4b 00 34 f8 74 46 34 d3 a8 99 91
       -9.9808375e-09 1.1948299e-07 1.848274e-07 -2.424319e-28
0000a0 0f b5 55 3c 04 6b 9b 3b 25 0b b4 af 91 9f 06 3d
       0.013043656 0.004742982 -3.2749728e-10 0.032867018
0000b0 fa 70 03 34 60 8f ef bc f7 dd 0e 3f ea 6c 6f 31
       1.2241426e-07 -0.029243171 0.5580744 3.4840988e-09
0000c0 6b 73 28 bb 98 00 b6 b5 e2 56 49 be b0 25 16 bb
       -0.002570356 -1.356023e-06 -0.1966205 -0.0022910647
0000d0 27 5e fa 33 6a 6a 12 3f 64 3b 9d 3c 77 30 3d b0
       1.16586584e-07 0.57193625 0.019193359 -6.882667e-10
0000e0 db de 4d 33 64 c5 95 36 31 69 26 3b 70 1a be b9
       4.7932968e-08 4.4635253e-06 0.0025392289 -0.00036259321
0000f0 fa 9d c8 b2 cc 9b 2b 3f 9a af 2d bd 8b cf 03 b1
       -2.3354904e-08 0.670346 -0.042403795 -1.9180983e-09

node_encoder.norms.0.module.running_mean f4 [64]
000000 72 ec 38 26 26 6e d5 bd 17 45 e5 bb 59 fe 5d bb
       6.4158267e-16 -0.104214 -0.0069967615 -0.0033873527
000010 6f 6a af bb 36 3a 64 bc ae b7 cc bc 21 74 1b bf
       -0.005353264 -0.013929894 -0.024989929 -0.60724074
000020 27 78 20 bc 55 8a 31 3b 10 32 65 bc ab 5a 86 bc
       -0.009794272 0.002709051 -0.013988987 -0.016400656
000030 06 88 66 a2 4b 19 e6 26 36 75 4c bc 61 f0 fb 3c
       -3.1242823e-18 1.5966312e-15 -0.012479117 0.03075427
000040 fe ba d8 ad c6 f8 c1 bd 6d 93 fe 3c 8e c2 a7 3b
       -2.4639398e-11 -0.09471278 0.031076157 0.0051196283
000050 c1 8d 20 3c 4f 15 c0 bc 25 0f 34 bc 3a 9b 15 be
       0.009799422 -0.02344766 -0.010989939 -0.14609995
000060 17 a9 8a 3c f7 f8 10 3d d6 c2 3d 3d 00 42 ac bc
       0.016926331 0.03539368 0.04632839 -0.021027565
000070 b1 86 d0 3a a0 6e e6 29 f5 d8 3e 3d 95 b3 04 bd
       0.0015909282 1.0233242e-13 0.046593625 -0.032397825
000080 d8 42 e2 ae c6 7b a4 3d cb 55 03 bc 30 3f 46 3c
       -1.0289164e-10 0.080314204 -0.00801606 0.012100026
000090 a4 d1 9b bb 89 f2 00 bd bc 06 f8 bb b7 45 12 2d
       -0.0047552157 -0.0314813 -0.007569162 8.314619e-12
0000a0 d2 69 78 bd 42 e9 ea 3d 74 6d 33 b3 d8 ea 47 3d
       -0.060647793 0.11470272 -4.1776232e-08 0.04880795
0000b0 55 08 c7 3a 88 80 d5 3a 03 2a 8a 3b 05 9c f7 b8
       0.0015184978 0.0016288916 0.004216434 -0.00011806939
0000c0 2c 3c 2f bd a2 49 12 bc bd d7 00 bb 45 f7 7b bd
       -0.042781994 -0.008928688 -0.001965984 -0.06151511
0000d0 4a d9 91 3c e1 e5 83 3b dd e2 6a 3e 24 9c 98 ba
       0.017803807 0.0040252064 0.22938104 -0.0011643213
0000e0 38 89 14 3c ef 8b fe 3a ec 7f 76 3d de 6d 38 3d
       0.009065919 0.0019420366 0.06018059 0.045026653
0000f0 93 7f fb ba 9e f4 ec 3b 52 23 5b bc 4a 96 ab ba
       -0.00191878 0.007231309 -0.01337512 -0.0013091054

node_encoder.norms.0.module.running_var f4 [64]
000000 41 12 61 17 7c 3f 24 40 f6 0f 2f 3c 99 d0 4e 3b
       7.272446e-25 2.5663748 0.010684958 0.003155744
000010 03 04 a7 3e 0c c5 2b 40 e7 a1 0c 3e 06 0c 09 42
       0.32620248 2.6839018 0.13733636 34.26174
000020 57 93 39 3c 8b a5 94 3c 27 6a 66 3e d4 b4 8b 3e
       0.011326632 0.018145343 0.22501431 0.27286398
000030 9e 31 7f 09 3f 2e 11 00 cc bc 7b 3c 99 d5 ad 3f
       3.0717838e-33 1.577793e-39 0.015364837 1.358081
000040 54 84 39 23 37 a7 69 40 84 1d 69 3e 4a 9c 80 40
       1.0056892e-17 3.650831 0.22765166 4.0190783
000050 52 09 90 3e c4 ab 83 3d d0 9c fe 3c 5d 19 14 40
       0.2813211 0.06429246 0.031080633 2.314048
000060 b3 d9 da 3c 80 4b 96 3f f1 c5 a6 3e a7 f6 bd 3e
       0.026715135 1.1741791 0.32572892 0.37102243
000070 ed 76 93 3e 04 f5 62 1e b6 6e 08 40 e3 07 14 3f
       0.2880167 1.20150084e-20 2.1317573 0.57824534
000080 35 5a 3f 0d 86 4b f9 3f a5 9e cb 3c 5d 05 5a 3e
       5.8965e-31 1.9476173 0.024855921 0.21291108
000090 42 ee 99 3b b9 d5 d2 3d 4b b6 58 3c 4e ef 85 0b
       0.004697592 0.102946706 0.013227056 5.15898e-32
0000a0 9f ec b2 41 d4 f0 e5 3f 12 7e ee 15 fa ab 1d 40
       22.365538 1.796412 9.632634e-26 2.4636216
0000b0 49 19 67 3c e6 a4 f6 3f 4a 2d b6 3e 91 b2 a1 38
       0.01410515 1.9269073 0.35581428 7.710339e-05
0000c0 1f 05 01 40 12 da 8f 3e a6 bf a3 3e 70 97 85 3f
       2.0159376 0.28096062 0.31982154 1.043684
0000d0 2f 70 a1 3d d0 02 c1 3e b6 ea da 41 95 9d be 39
       0.078827254 0.37697458 27.364605 0.00036357032
0000e0 5e 80 0a 3d b1 db 31 3f ed 58 83 3f 0d 56 21 40
       0.033813827 0.6947585 1.0261513 2.5208771
0000f0 3d 6f 4a 3c 27 99 ad 3e 40 1c 94 41 e8 6c ba 3b
       0.012355623 0.33905908 18.513794 0.005689252

node_encoder.norms.1.module.weight f4 [128]
000000 0e 6d 82 3b e3 87 8c 3a 83 a7 4e 3a fc bf 1c b8
       0.0039802855 0.001072165 0.00078832376 -3.7372098e-05
000010 99 6f 75 3a ac 79 87 3e 32 22 97 39 be ab 49 b8
       0.00093626376 0.26460016 0.00028826442 -4.808208e-05
000020 b1 4d b0 39 58 26 2c ba b1 c5 12 3f 41 2c 15 b9
       0.0003362722 -0.0006566993 0.57332903 -0.00014226233
000030 8a f0 63 b9 e2 d2 81 b9 15 3e f7 3e ea 97 1f b8
       -0.00021738015 -0.00024761917 0.48289552 -3.8050035e-05
000040 db 9c 90 3e 5c be 89 ba ce 58 2a 3f 1b bb 72 37
       0.2824467 -0.0010509002 0.66541755 1.4467888e-05
000050 b9 42 ec 38 9c 8e c4 3e d2 4c 75 39 cc a5 3a 3a
       0.00011265785 0.38390052 0.00023393639 0.00071200426
000060 14 2d 07 3f f1 76 d7 3e eb 77 a4 39 cb 18 21 ba
       0.5280316 0.42082933 0.00031369863 -0.0006145357
000070 d9 cb f1 39 c6 9a f7 b9 cb 35 11 3a 2e 06 62 3e
       0.0004611898 -0.00047226826 0.0005539327 0.2207267
000080 a1 25 bb 3e 83 2e d3 b8 15 1a f5 b8 3d 2e 5f ba
       0.36552146 -0.000100699275 -0.000116873685 -0.0008513665
000090 cd 75 13 3f a1 48 be 3e 49 10 04 3f ed 94 8c b8
       0.57601625 0.37164786 0.5158735 -6.70346e-05
0000a0 14 48 ac 39 b1 86 06 37 94 2d 35 38 0f 26 29 39
       0.000328601 8.018383e-06 4.319621e-05 0.00016131274
0000b0 d3 6f b5 39 75 6d 56 3a 38 44 3e 3a e2 34 4e b9
       0.00034606326 0.00081797625 0.000725809 -0.00019665391
0000c0 a6 5f 2e ba ad 42 7e 3e 0d c7 02 3b 33 a1 8a 3a
       -0.0006651826 0.24830122 0.001995507 0.0010576606
0000d0 c0 6e b4 b8 3d 5b b3 39 39 bb 4d ba e9 53 11 3f
       -8.603698e-05 0.00034209518 -0.0007848028 0.5676866
0000e0 38 ec 0e bc 7d b8 cd 39 f7 71 17 3f cf da 65 b8
       -0.008723311 0.000392381 0.5915827 -5.4801636e-05
0000f0 01 88 bd 3a 6d ad 63 39 4a 91 55 3a 75 c2 58 38
       0.0014460088 0.00021713013 0.0008146955 5.1679515e-05
000100 63 27 19 3f d2 af d0 38 3c 89 83 b7 b7 fe f8 b9
       0.59825724 9.950962e-05 -1.5680322e-05 -0.00047492023
000110 34 b8 d5 3e b0 86 b2 b9 65 eb 89 3f 1c a1 91 3e
       0.41742098 -0.00034051156 1.0774962 0.2844323
000120 4c db ea 3e d8 3e c9 3e b1 8f e7 b9 9c a1 ac b9
       0.45870435 0.39305758 -0.00044166812 -0.00032926805
000130 1f 86 1d 3a 4a c6 ad 39 22 f8 97 37 56 6f ac ba
       0.00060090603 0.00033144868 1.8116149e-05 -0.0013155739
000140 37 a5 cf 3f f3 6f 63 3f a2 1a 34 3f 88 8e 92 3e
       1.6222295 0.88842696 0.7035314 0.28624368
000150 dd 76 07 3f 02 52 28 3f ec 12 98 b8 0c 80 40 ba
       0.52915746 0.65750134 -7.251449e-05 -0.0007343299
000160 83 30 1a 3f fa fc 85 36 8f 14 f2 3e 67 28 9b 3f
       0.60230273 3.993159e-06 0.4728131 1.2121705
000170 e3 d1 4a ba 1e 32 b7 b9 62 57 63 ba b0 8a f7 ba
       -0.0007736964 -0.0003494182 -0.0008672384 -0.0018885937
000180 17 8c 96 3f 2f 54 6f b9 99 22 8b b9 b9 16 68 3e
       1.1761502 -0.00022824177 -0.00026537923 0.22664918
000190 49 8a 92 bb 72 a5 bb b8 9d bd 9b 3e 38 be a0 b9
       -0.0044720513 -8.9476714e-05 0.304181 -0.00030659302
0001a0 57 84 40 ba 28 07 79 3a 1a d3 ed 38 07 f8 5a 39
       -0.0007343939 0.00094996626 0.000113403614 0.00020882497
0001b0 cc c0 45 3c df bd 5d 39 23 df 51 b9 4a 23 40 3a
       0.012069892 0.00021146935 -0.00020014918 0.0007329477
0001c0 4b 93 b6 3f 45 b8 09 b9 0d 49 7d 3e 68 44 ea 3e
       1.42637 -0.00013133984 0.24734898 0.45755315
0001d0 f2 94 5a b8 40 50 ff 39 25 97 e2 39 b5 b5 10 b8
       -5.2113966e-05 0.0004869718 0.0004321869 -3.4501503e-05
0001e0 c3 e5 f7 b9 28 4a 78 39 49 6f c6 39 68 66 a8 39
       -0.00047282697 0.00023678748 0.00037848417 0.00032119756
0001f0 9a e1 53 39 d8 69 b7 38 2a 4e d4 39 c2 72 34 b8
       0.00020206571 8.745835e-05 0.00040494028 -4.302222e-05

node_encoder.norms.1.module.bias f4 [128]
000000 a4 d5 a7 39 5d 25 58 b8 80 94 29 b7 f3 db d3 b5
       0.00032011897 -5.153321e-05 -1.010776e-05 -1.5784739e-06
000010 f0 16 5e b9 17 2f 51 3d 29 b7 98 37 bf 79 5b b8
       -0.00021180115 0.0510703 1.8205103e-05 -5.2327054e-05
000020 82 6f 3c 37 e3 75 18 ba b8 5b ad 3e 48 cd ee b7
       1.1231636e-05 -0.00058159063 0.33859038 -2.8467402e-05
000030 db a3 01 b8 dc b5 bf b8 7a 11 9c 3e 8e ec 48 b9
       -3.09086e-05 -9.141464e-05 0.30482084 -0.0001916161
000040 37 d9 f9 bd a8 9b c4 38 b7 4e 1c bf 56 34 c9 b7
       -0.121996336 9.3750015e-05 -0.6105761 -2.3985438e-05
000050 19 b9 be 37 a0 48 bc 3d 3a bd 99 b8 de 0f 0e b9
       2.2735958e-05 0.091935396 -7.330855e-05 -0.00013548086
000060 99 bd 74 be c5 71 1a be 01 d6 1c b8 02 7a e1 39
       -0.23900451 -0.15082462 -3.7392605e-05 0.00043006247
000070 a6 d8 7b 38 7f 14 60 38 1c 28 23 39 06 39 c0 bd
       6.0044833e-05 5.342485e-05 0.00015559833 -0.09385876
000080 03 88 60 be 09 9c 8c b7 d9 c9 ca b6 11 ed 85 b8
       -0.21926884 -1.676196e-05 -6.0435673e-06 -6.386091e-05
000090 f1 c4 01 bf 2a c8 71 3e e9 ff 59 be 42 f6 09 b9
       -0.50691134 0.23611513 -0.21289028 -0.00013157076
0000a0 6a 24 38 39 8b c0 d4 b7 7f 88 a7 b4 bf ad 14 b9
       0.00017561173 -2.536203e-05 -3.1205488e-07 -0.00014179105
0000b0 af e0 76 b9 7a 8c 18 39 87 d8 a1 b8 be da 5e 38
       -0.0002354409 0.00014548181 -7.7174096e-05 5.3132644e-05
0000c0 6a 51 1e b9 87 12 77 3d 5d b9 2e b9 f9 01 17 ba
       -0.00015098383 0.060320403 -0.00016662986 -0.0005760487
0000d0 23 b2 58 b8 e5 a6 30 b9 0a 8b 64 b8 32 fa f7 3e
       -5.1664316e-05 -0.00016846841 -5.4488926e-05 0.4843307
0000e0 14 eb c3 b9 3d ea 5c b8 c2 51 d2 3e 3c 6b 0d 38
       -0.00037368445 -5.267024e-05 0.41078 3.371689e-05
0000f0 db 16 88 39 16 54 8d b8 45 5d b0 38 c6 e9 0f 38
       0.0002595697 -6.739066e-05 8.409707e-05 3.4311575e-05
000100 8c c9 06 3f c4 ca 5d 38 05 3f 07 38 28 34 07 b8
       0.52651286 5.2879346e-05 3.22452e-05 -3.2235082e-05
000110 c5 1c 76 3e 8e 32 c8 38 16 90 b7 bd 78 dd 2e 3e
       0.24034412 9.54616e-05 -0.08963029 0.17076671
000120 90 a9 03 be 97 99 80 3e 90 0d 03 b9 77 2b 3d 38
       -0.12857652 0.2511718 -0.00012498186 4.510159e-05
000130 ab 4f 0e b9 ca 22 23 39 a7 3b 12 b9 e0 a6 41 39
       -0.00013571854 0.00015557851 -0.00013945867 0.0001846808
000140 a3 48 b1 3c a0 aa 15 bd ed af 2a 3f e9 ae 31 3e
       0.021641081 -0.036539674 0.6667469 0.17351879
000150 d5 0b b2 be 63 de 0b bf 86 91 28 36 03 5a bc 39
       -0.34774652 -0.5463621 2.5118657e-06 0.00035925218
000160 85 ad 0e bf 1f 0e aa b7 e1 8d 41 be 2d de e2 3c
       -0.5573352 -2.0272155e-05 -0.18901779 0.027693832
000170 07 59 b7 38 ec 93 9d b4 ab e0 e8 b8 c3 8b 24 39
       8.7427026e-05 -2.9351156e-07 -0.0001110447 0.00015692324
000180 b8 c2 49 3d d2 6a 00 37 79 36 55 39 b4 c1 cb 3d
       0.049257964 7.654266e-06 0.00020333556 0.09949055
000190 98 c2 82 3a 22 45 3b b9 39 9d d3 3d 93 b1 a8 36
       0.0009976206 -0.00017859464 0.10332722 5.0274625e-06
0001a0 65 ac b4 b6 e6 a0 2f b8 97 34 5f b8 76 55 2f b9
       -5.3844874e-06 -4.18731e-05 -5.321632e-05 -0.00016721137
0001b0 fe ae dd ba 32 89 8f b8 3b 04 db 38 0e cb f2 b8
       -0.0016913114 -6.844326e-05 0.00010443522 -0.00011577281
0001c0 af 32 43 3d 67 24 38 33 f9 f5 3e 3d 11 fb 40 3e
       0.047655758 4.2873946e-08 0.046621297 0.18845774
0001d0 37 44 6f 36 74 7d 0a 37 ef 95 1e 38 e1 5e 2b b7
       3.5653482e-06 8.25465e-06 3.7809772e-05 -1.0214485e-05
0001e0 7c f4 26 36 0d 60 2d 38 6c 75 93 b8 b3 86 88 38
       2.4878236e-06 4.133587e-05 -7.031378e-05 6.510075e-05
0001f0 cc 0a d8 37 8e 01 7c 38 0d 99 ca 38 a9 f3 a6 b6
       2.5754234e-05 6.008293e-05 9.6606185e-05 -4.9755513e-06

node_encoder.norms.1.module.running_mean f4 [128]
000000 c2 a4 03 bb 5b ca 29 3a 2c b0 b7 39 09 f1 32 ba
       -0.0020087217 0.00064769917 0.00035035738 -0.0006826078
000010 1f 83 a3 ba e3 20 95 3e 41 47 f1 3a 7b 6d 22 39
       -0.001247499 0.29126653 0.0018408076 0.00015490309
000020 cc ac db b9 ed e2 98 bb ad 59 9a 3e 63 87 be b8
       -0.0004189968 -0.0046657235 0.30146542 -9.085124e-05
000030 b5 a9 e4 b8 77 dc cd 39 f1 af 6b 3e 23 2f e1 b8
       -0.000109034976 0.00039264906 0.23016335 -0.00010737616
000040 e9 ee 5e be ec 93 0f b9 47 ef 6e be c4 17 4e 38
       -0.21770824 -0.00013692648 -0.23333465 4.913636e-05
000050 02 fa db 38 e5 19 60 3e d0 58 55 3a 67 6b 89 3a
       0.00010489301 0.21884878 0.0008138539 0.0010484279
000060 cc af a3 be 53 b9 09 3f 44 27 3d 37 0b 7a b0 3a
       -0.3197006 0.5379841 1.127442e-05 0.0013464106
000070 c9 a6 a1 b9 3c 4c 32 38 03 50 f0 39 46 6f b1 3e
       -0.00030832578 4.2509506e-05 0.0004583598 0.34655207
000080 e3 ea dc 3e 83 c4 a5 38 d9 c1 7d 39 25 5b f4 39
       0.43147954 7.904416e-05 0.00024200174 0.00046607215
000090 c8 76 98 be d2 33 fa 3d 31 62 ea be 42 9b 35 b7
       -0.29778123 0.12216915 -0.4577804 -1.08245895e-05
0000a0 b7 7c 79 b9 28 ad 8c b9 33 28 a6 b9 a5 73 90 3a
       -0.0002379295 -0.00026831892 -0.00031691938 0.0011020793
0000b0 75 ea 84 3a 17 4b 80 3a da 97 57 38 cc fb 8b 3a
       0.0010140674 0.0009788004 5.1401417e-05 0.00106799
0000c0 28 a1 be b9 ec fb 7e 3e 8e 02 e6 3a 7c 1d d3 3a
       -0.00036359695 0.24900788 0.0017548369 0.001610681
0000d0 0c 61 1e 3a d0 d7 be 3a ca 72 03 3a d4 ad 56 3e
       0.0006041683 0.0014560167 0.00050143583 0.20964748
0000e0 02 16 3a 3b 46 e5 7d b8 05 9f a0 3e 98 87 39 b8
       0.0028394465 -6.0533428e-05 0.31371322 -4.423372e-05
0000f0 37 98 74 3a 16 bb 6b 3a ca 6c af b9 ad 2d eb b8
       0.0009330543 0.00089924166 -0.00033459655 -0.00011214181
000100 14 ab 94 3d 56 14 a6 b9 07 11 43 38 5e 04 3f ba
       0.07259193 -0.0003167714 4.650748e-05 -0.00072867225
000110 ea ab f0 3d e0 b1 bf 3a 26 d8 00 be 21 5d 91 3d
       0.1175154 0.0014625154 -0.12582454 0.07097841
000120 34 7e 92 be 76 d4 2e 3e 6a b0 77 b9 18 51 93 39
       -0.2861191 0.17073235 -0.00023621475 0.00028098444
000130 03 86 57 3a c4 d3 08 3b 83 38 20 3a 97 8c fe 38
       0.00082215684 0.0020878175 0.00061119365 0.00012137851
000140 34 45 97 3d 23 cf 85 bd 6f ef 44 3e 6e c6 c3 be
       0.07386246 -0.06533649 0.19231962 -0.38237327
000150 49 81 15 be 09 e5 80 be 57 67 a9 b7 cb 06 00 3b
       -0.146001 -0.2517474 -2.0194491e-05 0.00195353
000160 b6 c6 1f be 2b cc b0 b8 de 58 c4 be d1 06 20 bd
       -0.15603146 -8.430363e-05 -0.3834905 -0.039069
000170 41 8a 16 38 43 67 98 39 a5 9f d6 b9 b9 8c a9 39
       3.5891546e-05 0.00029068635 -0.00040936205 0.00032339038
000180 f1 d9 9a 3d 0a 90 e8 b9 be 1e e6 3a d1 17 2a 3e
       0.075611 -0.00044357806 0.0017556769 0.16610648
000190 10 24 b3 ba 17 f8 97 3a 39 90 3c 3e 58 28 f3 39
       -0.0013667364 0.0011594322 0.18414392 0.0004637863
0001a0 ae c8 1b 39 60 8a 31 ba ba d2 e3 b9 31 f7 c0 3a
       0.00014856711 -0.00067726336 -0.00043453817 0.0014722106
0001b0 08 03 06 3c 2a 4f 09 ba a2 5f 07 3a a9 13 70 39
       0.008179434 -0.00052379316 0.00051640917 0.00022895508
0001c0 6b ef aa bd 65 4b 8a 3a f4 5a b7 be b4 b3 84 3e
       -0.083464466 0.0010551034 -0.3581158 0.25918353
0001d0 4a d8 71 ba 53 ab 99 b6 c7 cf 04 39 cb 99 20 3a
       -0.000922565 -4.5797e-06 0.00012665904 0.00061264326
0001e0 30 66 f2 3a fd f7 9b ba e0 eb f9 38 37 bc 0f ba
       0.0018493589 -0.0011899468 0.000119171804 -0.0005483063
0001f0 62 67 d0 ba b7 99 91 3a 44 fd 81 3a 90 9b 9d 38
       -0.0015899951 0.0011108433 0.0009917398 7.515319e-05
