tfg/models20250213095528/model_150.pt (torch, 819382 bytes, 36 tensors)

node_encoder.lins.0.weight f4 [64, 7]
00000000: eb06 b83b 99a0 1c3c 4eca f7bb b15d 773b
00000010: ed61 3ebc 3dd7 9abc 348d 5d3b 66f8 1ebc
00000020: c8c9 0c3d 4c90 d83c e727 db3a 85cf 07bc
00000030: f93f 823b 706b 073b 9174 233c 843c 79bc
00000040: 1776 d9bc fc1e 27bb d550 683b cdd6 92bb
00000050: c2cd ec3b 961f 0080 a41e 0000 eb1f 0000
00000060: 0c22 0080 441e 0080 ec24 0000 0f1d 0080
00000070: 1b3a bc3a 11a2 073c bbd2 773b 8c56 c13e
00000080: 7e98 b8be f228 43bf 9b72 bfbe 353e 3eba
00000090: 19c8 043c 1901 103c ceb2 ad3b 6717 3abc
000000a0: 9eb3 a73b 0ecb a1bb 9b1b 0080 581b 0000
000000b0: 931b 0000 1000 0000 911b 0080 171d 0000
000000c0: 311d 0080 c7fe 3fbe 6a63 87be 122c 8cbe
000000d0: f5da fd3b 4b0a f63b 444c f1bc 24dd 743c
000000e0: 9c8e 9fbb ad6b 96bc ecbd cebc cdcd 37b9
000000f0: 62f5 083b 7f0b f338 da1e 4fbb 2621 0080
00000100: 8520 0000 2c03 0080 4303 0080 7a00 0080
00000110: 9001 0000 cc1b 0000 e2da cdbb b277 78bc
00000120: ae5a 853c 09f0 753a e4f1 14ba ec23 69bc
00000130: e549 1bbb 60e6 403c 1f0e 413c 3882 60bc
00000140: a5b4 343a b995 323a 75d2 0f3b ec31 dc3a
00000150: 2456 fa3a 5eff 843c 4c13 753c 50e3 563b
00000160: 2cf9 08bc 7010 d63b 2832 333c 00f4 f63b
00000170: 0f85 573c 4c9c 5fbc 2ff7 983a 585b a0b8
00000180: 0580 aa39 e847 48bb 576d 3d3c b112 41bc
00000190: b909 b0bc bae3 a2bb e493 f23b 4266 b8bb
000001a0: 756b c43b 1679 b7bb 84cc 703c 5db9 e53c
000001b0: bca4 5e3b 500e ebbb a904 6d3b 926e 7dbb
000001c0: ba1b 0080 8d1b 0080 731b 0000 8804 0080
000001d0: 1f1d 0000 011c 0080 911b 0000 3b7c 20bc
000001e0: d1e1 09bc a338 9d3c b0aa 243b f115 28ba
000001f0: 0c8e 11b9 8319 4a3c e808 043c 3865 8c3c
00000200: e0f7 7b3b 182a 623b 4197 25bb 3e42 b9bb
00000210: e684 c6bb 7e78 d83c 2c47 cfbc efa2 d9bc
00000220: fbcc aeba ae5e ef39 ac84 de3a 23aa 173b
00000230: 1ec8 42bc 7abd 413b efc1 9cbb ed0d 8dbe
00000240: 4fb4 363f ea1a 95be 25f9 ad3e 5ebf 54bc
00000250: 293b b93c 0104 403c be28 163a 83ae 2c3b
00000260: 00ec f9bb dcd3 003c c969 4abc 79ed b93b
00000270: 7969 8a3c 4306 5b3b a63d 6bbb 9eae e53a
00000280: b0e5 aabb fc01 253d 765a 3abd 0535 e9bc
00000290: 3e22 55ba 8ca0 3bbb 4700 0a3c f6ba 26bc
000002a0: 57f2 43bb dcd1 6f3c 7cfe 523c 6203 bb3b
000002b0: d106 cebb eec4 b6ba 2528 73ba d8ff 44bc
000002c0: 92b4 9bbb 7dee 0cbc c1e6 01bb 0116 be3b
000002d0: 10f8 d8bb 691f 613b 12c0 99bc e537 d2bb
000002e0: 855e 12bb 1fdf fd39 679d f1b9 f320 b0ba
000002f0: d2c9 02bb 9ac0 5ebc 8aec 98bb bac3 f1bb
00000300: 7570 a1ba eb1a 8e3b 93cb bebb 6b02 2a3b
00000310: d5d3 9dbb b2eb c33b 1b8c d73a da20 c63e
00000320: 7452 273f 2da2 0cbf 9f91 4dbe 591c 0000
00000330: 1823 0000 df11 0000 ee2a 0080 5107 0000
00000340: 7005 0000 ed21 0000 7696 1cbc 6deb f83b
00000350: 898c d03c 44c7 a83b 4569 2fbb 51d7 2fba
00000360: a944 acba b5eb 5d3a a4b2 06bc 6a40 f5bb
00000370: 80d6 22ba a438 06bb 0211 3e3b 00e6 fcba
00000380: 2d0c 0080 4203 0080 691f 0000 6302 0080
00000390: 5504 0080 8905 0080 6420 0000 c320 babc
000003a0: 8808 0b3d 80f1 ae3c d0a1 533a aa35 613b
000003b0: 3427 d6bb 7135 1c3c 3351 ed3b 9ca5 b1bb
000003c0: 74a0 bfbb d6f9 e8ba c076 403a b63c e23a
000003d0: a81b fd3b 5b3d b7bb 3ebf cebb 118a e53b
000003e0: 2599 77bd e720 e73e 1923 c53e d40a aabe
000003f0: a7c5 3b3d 304a 4abd 1516 eabc 7479 4cba
0.005616059 0.009559774 -0.0075619584 0.0037745053 -0.011620027 -0.018901462 0.0033806087 -0.0097027775
0.03437212 0.026435994 0.0016720266 -0.008289223 0.0039749113 0.0020663403 0.009976522 -0.015212182
-0.026545567 -0.0025500646 0.003544857 -0.0044811727 0.0072266767 -1.1331e-41 1.0992e-41 1.145e-41
-1.2214e-41 -1.0857e-41 1.3245e-41 -1.0424e-41 0.0014360578 0.008278386 0.0037814814 0.37761343
-0.36053842 -0.7623435 -0.37392125 -0.00072571944 0.008104348 0.008789324 0.005300856 -0.011358119
0.0051178476 -0.004937536 -9.903e-42 9.809e-42 9.892e-42 2.2e-44 -9.889e-42 1.0435e-41
-1.0472e-41 -0.18749534 -0.26443034 -0.27377373 0.007747049 0.0075085512 -0.029455312 0.014945302
-0.0048692953 -0.01836189 -0.025237046 -0.00017528907 0.0020898213 0.00011589284 -0.0031604082 -1.1891e-41
1.1666e-41 -1.138e-42 -1.17e-42 -1.71e-43 5.6e-43 9.972e-42 -0.0062821964 -0.015165256
0.016278591 0.00093817763 -0.00056817965 -0.014229756 -0.0023695168 0.011773676 0.011783152 -0.013702922
0.0006893373 0.00068124715 0.002194551 0.0016799546 0.0019099158 0.01623505 0.014958214 0.0032789297
-0.008360188 0.006532721 0.010937251 0.0075364113 0.013154282 -0.013648104 0.0011670346 -7.6464086e-05
0.0003252031 -0.0030560438 0.011561713 -0.011784242 -0.021489011 -0.004970995 0.007402884 -0.0056274245
0.005994255 -0.0055991514 0.014697198 0.02804249 0.00339727 -0.007173337 0.0036166108 -0.0038670641
-9.946e-42 -9.883e-42 9.847e-42 -1.626e-42 1.0447e-41 -1.0046e-41 9.889e-42 -0.009795244
-0.008415655 0.019192046 0.0025126152 -0.0006411961 -0.00013881194 0.012335184 0.008058764 0.017138109
0.0038447306 0.0034509953 -0.0025267156 -0.0056536486 -0.006058323 0.026424643 -0.025302492 -0.02656695
-0.0013336235 0.00045656174 0.0016976795 0.002314218 -0.011888532 0.00295624 -0.004783861 -0.27549687
0.7136888 -0.29122096 0.33979145 -0.012985079 0.022611218 0.011719705 0.0005728117 0.0026349134
-0.0076270103 0.007863011 -0.012354323 0.005674061 0.016895996 0.003342048 -0.00358949 0.0017523353
-0.005215369 0.040285096 -0.045496427 -0.028467664 -0.00081304077 -0.002862963 0.008422918 -0.010176411
-0.0029899084 0.014637437 0.012878057 0.0057071904 -0.0062874337 -0.0013944188 -0.00092756964 -0.0120238885
-0.0047517503 -0.008601782 -0.0019821378 0.005800963 -0.006621368 0.0034350997 -0.018768344 -0.0064153546
-0.002233417 0.0004842216 -0.00046084376 -0.0013437554 -0.001995672 -0.0135957245 -0.0046668695 -0.0073780688
-0.001231684 0.004336705 -0.005822608 0.0025941383 -0.004816512 0.005979025 0.0016444953 0.3869694
0.6536019 -0.5493496 -0.20075081 1.0169e-41 1.2589e-41 6.411e-42 -1.54e-41 2.625e-42
1.95e-42 1.217e-41 -0.009557357 0.0075964243 0.025457637 0.0051507074 -0.0026765626 -0.0006707805
-0.0013143021 0.0008465604 -0.008221302 -0.0074844854 -0.00062117726 -0.0020480538 0.0029001837 -0.001929462
-4.368e-42 -1.169e-42 1.1268e-41 -8.56e-43 -1.554e-42 -1.986e-42 1.162e-41 -0.0227207
0.033943683 0.02135539 0.0008073123 0.0034364262 -0.006535435 0.009534226 0.0072423457 -0.0054213535
-0.005847985 -0.0017774652 0.0007341914 0.0017260525 0.007724244 -0.005592031 -0.006309419 0.007004984
-0.060448784 0.4514229 0.3850334 -0.33211386 0.045842793 -0.049387157 -0.028574983 -0.00078000803

node_encoder.lins.0.bias f4 [64]
00000000: f92c 9fb3 ade1 1cb5 8b09 1fb4 3e01 0000
00000010: c243 b7b8 9edb 7a33 c706 0080 5f0c 0b37
00000020: 752e bcb3 1406 0080 809d b634 7d87 db33
00000030: 18b7 3f35 2cb5 acb1 8d11 9634 849e 3eb3
00000040: 3521 0000 dac3 f434 72b0 c7b4 fb13 0db5
00000050: e14d 9337 2dfb 75b3 25ee 8934 469d d7b1
00000060: d63f d2b3 13e5 2a34 373a adb4 96d7 bc34
00000070: 7045 d1b7 7f24 0080 f06b 24b5 ff61 3d33
00000080: 0723 0080 97f1 69b3 94cc 6b34 63de ffb6
00000090: b3b1 23b4 f40d 6db3 1376 c6b3 191b 0934
000000a0: 6100 b2b5 9882 ccb3 0be9 08b5 d709 9e33
000000b0: 145f 0634 fe7b be33 5b8b 0038 d81c a531
000000c0: 5591 3cb5 7c44 2ab4 1d6b 28b8 5f22 0080
000000d0: 38f7 2635 a0f7 f8b6 b973 0336 742c 3735
000000e0: 803e eeb3 4e32 88b5 ac0b d3b2 6321 0080
000000f0: aac8 5ab4 5268 0938 78cb b535 cedc 9a35
-7.412195e-08 -5.844293e-07 -1.48115e-07 4.46e-43 -8.738741e-05 5.84074e-08 -2.431e-42 8.287926e-06
-8.762883e-08 -2.18e-42 3.4014738e-07 1.02226274e-07 7.141948e-07 -5.0264557e-09 2.7952447e-07 -4.438199e-08
1.1912e-41 4.5591042e-07 -3.719502e-07 -5.255567e-07 1.756003e-05 -5.727195e-08 2.5691511e-07 -6.2752035e-09
-9.790499e-08 1.591582e-07 -3.2266118e-07 3.5174588e-07 -2.4947076e-05 -1.3092e-41 -6.125183e-07 4.409412e-08
-1.2565e-41 -5.4469265e-08 2.1960506e-07 -7.6254814e-06 -1.5245205e-07 -5.5193553e-08 -9.241571e-08 1.2768977e-07
-1.3262144e-06 -9.523245e-08 -5.100307e-07 7.359238e-08 1.2514312e-07 8.8701185e-08 3.0647363e-05 4.805411e-09
-7.0246944e-07 -1.5857398e-07 -4.015408e-05 -1.233e-41 6.219957e-07 -7.4198033e-06 1.958788e-06 6.82375e-07
-1.1094107e-07 -1.014743e-06 -2.456894e-08 -1.1977e-41 -2.0375833e-07 3.27605e-05 1.3544768e-06 1.1538157e-06

node_encoder.lins.1.weight f4 [128, 64]
00000000: b433 a1bb 7bb4 1c3a f869 9dba a407 0780
00000010: 92fd 8d3b f494 823a 4adf 0080 8829 bebc
00000020: 0266 df39 56cf 0000 f258 443b f67d 853b
00000030: 482e c6ba baf3 793b 9932 ec3a fd92 4b3a
00000040: 8481 0400 2d9f c03b c4fd 643b e72e 3e3b
00000050: e3c8 6dbc 8c10 8bba 4896 78bb 5a0c 55bb
00000060: c333 3b39 4104 563b ef7a 6f3b 1722 5fbb
00000070: 4530 8a3a e061 0400 8cd9 2b3b 325c 9bb9
00000080: fe05 0100 253e 04bb 6760 11bb 8594 d839
00000090: 5dc1 643b c980 6f3b 0c1d be39 8ead bb39
000000a0: 798c 3cbb 3e17 203a bfaa dd3b ef07 a83a
000000b0: 4d94 983b cc87 3bbb ed9d ab3a 4a17 baba
000000c0: 752b cb3b 9209 723b d7ef ca3a 4048 0100
000000d0: 80be dd3a 9a48 efba 07e1 ffba 3a85 aabb
000000e0: 3708 9a3a e20f 1dbc 07de 303b 0c7c 0000
000000f0: 05ce afb6 cf11 f7bb f466 ecbb 91dc cdbb
00000100: a1bc 21bb f044 343b 66af 06bb fd9b 0280
00000110: 3ba7 433b a7a2 3cba ea9e 0000 72e5 1bbd
00000120: 186d e8ba 8533 0200 982d 1f3b 3c43 303b
00000130: b8e6 b13b 516a 5d3b d035 703b 57a2 883b
00000140: 8674 0000 cbb0 d63b a75c 683a 9552 313b
00000150: 2f4f 86bc 8498 96b9 f86f 77bb 0d46 43bb
00000160: dd96 dc3a f5e7 32ba 52d7 313a 4f61 f739
00000170: f8ca 4dbb 86f0 0200 d984 c33b c406 dcb9
00000180: f994 0100 b916 aeba b224 e6ba 3dd7 09bb
00000190: 8053 573b 0fe5 623b cd1e 86bb 616f 613b
000001a0: 6403 93bb f4fa a9bb 9e46 df3b ee9e d1ba
000001b0: fccd 443b 07d0 1abb 51c0 083b 33e3 ad3a
000001c0: 3eda cd3a 9c05 9d3a 36a7 313c 3dae 0080
000001d0: b8c8 6139 8177 703b 459b 013b c930 b639
000001e0: 94f4 7a3b 07ba 78bb 02ad 1b3b 57e3 0180
000001f0: 10f4 5f3b a7ab 85bb 88d0 99bc ec3a debb
00000200: 3d07 f83a 2e99 053b 583f 37ba 925a 0580
00000210: 3c4d 8abb 7f32 82ba e3b0 0000 6282 513b
00000220: 3547 01ba e290 0280 28e2 6cba 64e6 89ba
00000230: b0a1 0e3b aa64 8eba 0022 d73a a90e e93a
00000240: 52ba 0080 4889 08bb ed67 31bb 0a30 9139
00000250: 426e 013b 6a9a 9f38 84fc 1139 442f 0aba
00000260: d470 513a 9496 d0ba fbf6 a1ba 47e9 d13a
00000270: c635 f53b 3140 0580 71a9 a83a 2e3e 7539
00000280: aaa9 0680 93a4 9eb9 7970 a339 44e8 da3b
00000290: 777e f039 d3ef 033a 2a0d cdba 6aa7 823a
000002a0: 9272 533c 54f0 5dba bc66 b4ba d258 86b9
000002b0: 5f43 16bb 957f 543a 81d8 2dbc 529b db39
000002c0: 3683 61bb b358 97ba 9dc9 b7bb cc6b 0180
000002d0: 2975 e0ba 1f68 a7bb 23f7 893c ec11 973b
000002e0: 6c0c e83a 965e b63b 6b98 2d3a dfc6 0300
000002f0: 346b 863a e7c7 093c fe10 603c 54bf 063b
00000300: c856 0bbb 1bea 9aba 1368 c0b7 781b 0300
00000310: 0f4a a83b 825b 1938 2999 0280 bd92 843c
00000320: e81b 7b3a d4d6 0080 0b44 023a 6701 9e3a
00000330: e59b 3fbb 3807 843a e6ea acb9 2a50 cbba
00000340: faad 0280 0b94 9d3a 78b0 2a3b 1469 703a
00000350: e372 cdba 4b2a 1dba 02b2 b6ba 722c 5eba
00000360: 236c 9db9 b0ba f43a e332 073b 4382 1bbb
00000370: 58a5 43bc 3a36 0200 b089 a3ba 9b11 b7b9
00000380: 22a8 0300 c576 1eba 763a acba 0cfd b6bb
00000390: 24ec 823a aa81 953a 7665 2b3b 2cf5 d4ba
000003a0: 5990 bc3b 5b69 403b 0990 d03a c7e2 9d3a
000003b0: 33ad f33a 201a 17ba 8a92 2c3b a6c2 adba
000003c0: e62b 3e3b 31a7 a93a fa75 64bb 02f4 0180
000003d0: 12fa ac3a 2bb9 25bb 4ae0 b6bc e970 5fbb
000003e0: df86 84ba 9adc 6abb a07c ef39 9337 0280
000003f0: e1ac ebba 79cb 5aba 0fa0 6abb adaa a8ba
-0.0049194936 0.00059778214 -0.001200973 -6.4559e-40 0.0043332065 0.0009962604 -8.0101e-41 -0.023213163
0.00042609876 7.4378e-41 0.0029960242 0.0040738536 -0.0015119994 0.0038139657 0.001802045 0.00077657384
4.13803e-40 0.00587835 0.0034941295 0.0029019655 -0.014513227 -0.001060979 -0.0037931371 -0.0032508583
0.00017852992 0.0032656344 0.003654178 -0.0034047419 0.001054295 4.02453e-40 0.0026222197 -0.00029632595
9.3985e-41 -0.0020178643 -0.0022182704 0.00041309386 0.0034905293 0.0036545268 0.00036261266 0.00035796728
-0.0028770252 0.0006106979 0.0067647393 0.0012819747 0.0046563507 -0.0028614877 0.001309333 -0.0014197615
0.006200249 0.0036931974 0.0015482855 1.17754e-40 0.0016917735 -0.001825589 -0.001952202 -0.00520387
0.0011751716 -0.009586306 0.0026987807 4.45e-41 -5.2393902e-06 -0.0075399647 -0.0072144214 -0.006282397
-0.0024679082 0.002750691 -0.0020551323 -2.39629e-40 0.0029854316 -0.0007195868 5.7008e-41 -0.038060613
-0.0017732708 2.02153e-40 0.002428865 0.0026895544 0.005429115 0.0033785293 0.0036653168 0.004169743
4.1801e-41 0.006551837 0.0008863904 0.002705728 -0.01639518 -0.00028723862 -0.0037755948 -0.0029796392
0.0016829629 -0.00068247254 0.00067840994 0.00047184012 -0.0031401496 2.69955e-40 0.0059667644 -0.0004196671
1.45277e-40 -0.0013281918 -0.0017558543 -0.0021032833 0.0032856166 0.0034621393 -0.004093027 0.0034398662
-0.004486488 -0.0051873866 0.006813838 -0.0015992799 0.0030030003 -0.002362253 0.0020866583 0.0013266563
0.00157053 0.0011979821 0.010843089 -6.2505e-41 0.00021532446 0.0036692324 0.0019776386 0.00034750093
0.0038292753 -0.0037952678 0.0023754244 -1.7339e-40 0.0034172572 -0.0040793004 -0.018776193 -0.0067819264
0.0018923056 0.0020385492 -0.0006990335 -4.91668e-40 -0.004220633 -0.0009933262 6.3455e-41 0.0031968583
-0.000493157 -2.35645e-40 -0.00090363855 -0.0010520932 0.0021763854 -0.001086374 0.0016413331 0.0017780858
-6.6839e-41 -0.002083378 -0.0027070001 0.00027692347 0.0019749557 7.610473e-05 0.00013922347 -0.00052713254
0.000798953 -0.0015914016 -0.0012356931 0.0016014957 0.007483217 -4.82205e-40 0.001286788 0.00023388184
-6.11877e-40 -0.00030258726 0.0003117358 0.0066805203 0.0004587059 0.000503299 -0.0015644182 0.0009968106
0.012905734 -0.00084662926 -0.0013763527 -0.00025624648 -0.002292834 0.00081061694 -0.010610701 0.00041886658
-0.0034410483 -0.001154682 -0.005608751 -1.30506e-40 -0.001712476 -0.0051088477 0.016841477 0.0046102908
0.0017703897 0.0055654747 0.00066221383 3.46848e-40 0.0010255338 0.008409477 0.013675926 0.0020560818
-0.0021261442 -0.0011819036 -2.2936647e-05 2.8536e-40 0.0051357816 3.6563266e-05 -2.38615e-40 0.016183252
0.00095790485 -7.7066e-41 0.00049692456 0.0012054861 -0.0029237207 0.0010072952 -0.0003298141 -0.0015511562
-2.46082e-40 0.001202227 0.0026045125 0.00091709313 -0.0015674498 -0.0005995377 -0.0013938549 -0.0008475251
-0.00030025942 0.001867136 0.0020629696 -0.0023728765 -0.0119412765 2.03124e-40 -0.0012476947 -0.00034917597
3.35821e-40 -0.000604492 -0.0013139981 -0.0055843648 0.0009988588 0.0011406441 0.0026153005 -0.0016247383
0.0057545123 0.0029359672 0.0015912066 0.0012045734 0.0018591046 -0.0005764086 0.0026332461 -0.0013256862
0.0029017865 0.0012943504 -0.0034860359 -1.79369e-40 0.0013197085 -0.002528737 -0.022323746 -0.00340944
-0.0010110995 -0.0035837055 0.00045678485 -2.03607e-40 -0.0017980599 -0.000834636 -0.0035800969 -0.0012868248

node_encoder.lins.1.bias f4 [128]
00000000: 8efb 8a36 cecc c836 528f 7336 baeb 9136
00000010: e7b6 5637 22e0 0139 d247 df35 7853 0637
00000020: 5e2c 1434 067d 2c36 8619 9ab8 c98e 1f36
00000030: 351e 4736 dcfb 4737 f68f c6b7 f808 b936
00000040: 8d37 25b4 a3de 0fb6 b32e 7d38 8ad2 02b7
00000050: e2ef d537 ff8e edb8 1cad aa35 400d 26b6
00000060: b6ed 72b6 2e98 a5b8 b7fe aeb7 c1b6 21b5
00000070: 2315 7836 6b6d 9fb6 faf9 ebb6 20b6 4bb9
00000080: d774 58b9 2885 00b6 71df 85b6 5453 fd35
00000090: 74aa 1e38 d986 e437 8e60 1139 7fd7 aeb6
000000a0: 835f 1eb6 031e 0c37 f8fa 0e37 458f 03b5
000000b0: 7ce2 8cb0 3932 12b6 53f3 48b7 7564 3037
000000c0: 7aa8 c936 561c 9db2 3e4c aab5 8701 02b7
000000d0: e84d a6b5 a2a0 3cb7 fe9b afb6 c648 e4b8
000000e0: 60ae 40b6 acb2 a536 889b 5ab8 b66b 0037
000000f0: 8199 3c36 3739 35b7 9c14 dfb6 d85e a7b6
00000100: 0123 1d39 7426 2437 9a80 5a36 056b 1636
00000110: b94b 48b8 9924 8235 819c 20b8 7c6c d637
00000120: 6dd9 a338 6990 34b9 5b3f a937 3eaf 6936
00000130: 040e 2bb7 5096 a3b5 473f 45b5 c723 10b4
00000140: 7439 0fb6 058d e537 df17 0ab9 a7ca 28b9
00000150: cceb f1b7 e16d 2cb7 5b98 ab36 e025 dcb6
00000160: 01ae ef37 c8ac 11b6 6ade 9334 765e 42b9
00000170: 4602 0436 68f2 0436 3de3 8eb6 87c1 b2b5
00000180: edd2 62b7 0c32 b1b5 31f3 23b7 dbdf 91b3
00000190: f0dc 1ab7 820e 4936 2110 91b7 33c4 d2b4
000001a0: 53af 9b37 c1a5 a636 7e90 10b5 58b9 6837
000001b0: 3a4c e135 d0f6 feb5 f1cf aa36 8d84 04b7
000001c0: f626 03b8 3444 acb5 4853 0ab9 2cbb 20b9
000001d0: 68d5 b7b5 b070 a136 f5b5 b5b6 f550 a3b6
000001e0: 1672 1537 7c87 a7b4 6a91 04b6 90e0 6ab6
000001f0: 93d4 6c36 edad 5336 aa1c 8036 2c6d d537
4.1420053e-06 5.984307e-06 3.6293245e-06 4.348779e-06 1.2797979e-05 0.00012385895 1.6635697e-06 8.0064565e-06
1.3799715e-07 2.570277e-06 -7.348046e-05 2.3775958e-06 2.9670894e-06 1.1919965e-05 -2.3670476e-05 5.5144737e-06
-1.5387032e-07 -2.1438252e-06 6.0363393e-05 -7.797624e-06 2.5503283e-05 -0.00011327676 1.2716368e-06 -2.474364e-06
-3.6199176e-06 -7.896159e-05 -2.0861027e-05 -6.0243116e-07 3.6967183e-06 -4.751307e-06 -7.032647e-06 -0.00019427435
-0.00020642891 -1.9150993e-06 -3.989721e-06 1.8874221e-06 3.7828882e-05 2.7242511e-05 0.00013864247 -5.210691e-06
-2.359943e-06 8.351638e-06 8.522293e-06 -4.900979e-07 -1.0250711e-09 -2.1784929e-06 -1.1977582e-05 1.0513807e-05
6.00988e-06 -1.8290091e-08 -1.2688176e-06 -7.748959e-06 -1.2390637e-06 -1.12430735e-05 -5.2335663e-06 -0.00010885442
-2.871173e-06 4.9381833e-06 -5.21201e-05 7.654473e-06 2.8103534e-06 -1.0801762e-05 -6.648317e-06 -4.988029e-06
0.00014985727 9.784115e-06 3.2559387e-06 2.2414035e-06 -4.7754238e-05 9.696406e-07 -3.829273e-05 2.5561305e-05
7.8129444e-05 -0.00017219935 2.0175872e-05 3.482171e-06 -1.01956575e-05 -1.2188193e-06 -7.34803e-07 -1.3424061e-07
-2.1342103e-06 2.7364595e-05 -0.00013169598 -0.00016097222 -2.883924e-05 -1.0277582e-05 5.1139336e-06 -6.56092e-06
2.8572047e-05 -2.1707256e-06 2.754271e-07 -0.00018536471 1.9670856e-06 1.9810632e-06 -4.258384e-06 -1.3318357e-06
-1.351976e-05 -1.3202093e-06 -9.7721795e-06 -6.792808e-08 -9.230556e-06 2.9959779e-06 -1.7292858e-05 -3.9258302e-07
1.8559082e-05 4.966482e-06 -5.3854444e-07 1.3871431e-05 1.6785991e-06 -1.8996307e-06 5.0906024e-06 -7.898675e-06
-3.126912e-05 -1.2834848e-06 -0.0001319173 -0.00015328516 -1.3696672e-06 4.8112925e-06 -5.415403e-06 -4.867203e-06
8.907655e-06 -3.1204752e-07 -1.9754175e-06 -3.499943e-06 3.5290475e-06 3.1542688e-06 3.818034e-06 2.5442416e-05

node_encoder.lins.2.weight f4 [128, 128]
00000000: 857f d73b e944 3d3c 19b6 043c f2b4 ff3b
00000010: 7f56 1d3c adde 46bc b600 a83b 9ff7 113c
00000020: 5e94 263b 775a 363c b3b8 553e 0c09 f3bb
00000030: 8e75 cc3b 987b f03a 84aa 233e dade 5c3c
00000040: 126b 073c 4e20 9cba b91a 97be 2247 6a3b
00000050: 4c97 013c 2dbf 893d 21ad 173c f881 b03b
00000060: 60b7 36be 16a5 813d 0035 813c 052d 173c
00000070: 1133 25bc 5580 98b9 ceb3 7e3b 3da8 a0bc
00000080: 51fc 353d f465 003b d423 fabb aaa3 efbb
00000090: 6187 64be 37e3 ee3d a66f 44be a2e3 f53a
000000a0: 0d4c a1ba 7a90 a63b 52f3 063c ef7a 853b
000000b0: be99 5ebc 7da6 6c3b 7611 b33a b7ad 023c
000000c0: 66b8 90bb 4db9 2cbb 8550 093c 2125 4eba
000000d0: 771c 7e3b e6a5 a8bb c412 333b 7f24 663e
000000e0: 0cf7 853c 71c5 a139 e212 5f3e 8193 983b
000000f0: d243 2f3b af5e 7cb9 ff81 b53b 92ef 1bbc
00000100: ca3b a23e 3082 80bc add7 35bb a3f7 4e3b
00000110: 69ac 013e e6be 6cba 5de4 8c3c d46a 0939
00000120: 4449 e8bd c34e 113e a955 c8ba bdb5 31bb
00000130: d48f c7bb 48e3 ae39 d7c0 b93c 2db8 c3bb
00000140: b344 d23c 907f 4d3c 46ac c63e da7a 9d3d
00000150: ee37 3cbe f5e6 b1be 09ba f7bb e877 033a
00000160: befa 7ebe a543 9aba 0045 28be 44d4 a2bc
00000170: f54c 063b dc46 6ebc b11f 153b 32cc 49bc
00000180: a7b4 49bb 999a fdba 8989 19bc 7465 a23b
00000190: 8dd1 e4ba c339 cd3b 2a94 c5bb ff14 503c
000001a0: 8516 a73b 7da5 273c e47c 193a 53d7 5e3b
000001b0: a292 28bc 311d 18ba cc6f 0dbc 3523 593b
000001c0: aab5 43ba 6d05 2e3c 293e 133c a707 0c3e
000001d0: 1e8f 0dbb 5c1e 943b 48c0 533c 9eb3 ccba
000001e0: 4563 063c 496e 4b3b 0930 51ba c80e 06bc
000001f0: d5ab 33bb b2bd d43b 4b80 ac3b 7181 0ebc
00000200: a203 fc3b a2e9 643c ada8 ee3b ec00 8bba
00000210: b65b 7c3b de2f a53a a799 5239 3551 4bbc
00000220: 05c2 52bc a419 873b 0d4f 063d 320f 76bb
00000230: 8ea0 7d3c dbf6 30ba 74c6 b4bd 1efa 513c
00000240: 8800 5abb 58c0 9c3b 212d 5d3d 1fe7 17bc
00000250: d806 b33b f936 c9bb b416 1d3c 8ec0 66ba
00000260: 730b 3fbd 9ff3 263d b1a2 d53b 807f e93b
00000270: a9f4 80bb 326a 2abb e841 9d3a 07dd bcbc
00000280: 11c5 82bc 8b6f f6bb 65e5 ad3b eac8 14bb
00000290: bf9d edbb df61 f93b 3574 d9bd c710 2dbc
000002a0: 861e 373b 2ad1 01bc 1dac 81ba 6c30 12bc
000002b0: 65de 853c ebba cf3a 227a 353c 45e1 7e3b
000002c0: 0a2a 82bc bdeb b3bb e4e2 133b fd97 153a
000002d0: dc68 163b b2af 1a3b 1ff2 3939 d6c9 7e3d
000002e0: 95ea f73b 832c b53b ae35 c3bb 9eb8 df3b
000002f0: 4ee5 5a3b 3dbc e13b e853 033c 4038 7dba
00000300: 3d1c 9cbb 5be1 94bc 001c 983b 7aff 643c
00000310: 6ffe 153c be70 a3bb aa72 163e e6e4 cabb
00000320: e75d 203d 2674 15bd 240b 603c e74d 16bb
00000330: 8047 3ebc cdd6 54bb 8ba8 313b dca3 573b
00000340: 5390 733d e9af 6e3d 7101 6fbd dcc4 fdbc
00000350: 275b 403c a5dd cc3d 4c1d f2bb 9705 43bc
00000360: d8ad c9bc f3d6 4ebb deb2 30bd 43d2 033d
00000370: f8f3 053c dafd 2cbb c00b 91bb 00ec f5bb
00000380: e9c0 babd 72cd a43a 7d33 00bc 1142 8fbb
00000390: 86c9 323b 6d12 56bc 04e1 073b 557b a73b
000003a0: f787 0abb 9164 603b 83c5 deb7 e31e 063b
000003b0: 9ffd 9dba 38b1 503b f9bc 1dba 8c4d 44bc
000003c0: 7bab 913d 8680 5dbb 5878 f63b 76c3 06bd
000003d0: 9f2d ee39 8077 98bb 3a29 493b 7448 80bc
000003e0: bf8f d03a e2f2 f1ba ec24 dfbb ac76 d4ba
000003f0: d12c 7abc c527 063c 9c34 02bc 33f6 1b3d
0.006576481 0.011552074 0.008100056 0.007803553 0.009603142 -0.012138051 0.005127038 0.008909135
0.0025418024 0.011129967 0.20871238 -0.00741685 0.0062395995 0.0018347381 0.15983015 0.013480866
0.008265274 -0.0011911483 -0.29512575 0.0035747965 0.007909607 0.06725917 0.009257586 0.005386587
-0.1784339 0.06330316 0.015772343 0.009227042 -0.010082976 -0.00029087314 0.0038864496 -0.019611472
0.04443008 0.0019592019 -0.0076336656 -0.0073132114 -0.22317268 0.116644315 -0.19183215 0.0018759856
-0.001230599 0.005083141 0.008236723 0.0040734927 -0.01358646 0.0036109977 0.001366182 0.007975987
-0.0044165133 -0.0026355565 0.008381014 -0.0007863809 0.003877429 -0.0051467298 0.0027324418 0.2247486
0.016353153 0.00030855418 0.21784547 0.0046562557 0.0026743305 -0.00024067865 0.0055391784 -0.009517567
0.3168624 -0.015687078 -0.002774696 0.0031580708 0.12663426 -0.00090311316 0.017198736 0.00013105135
-0.11342099 0.14190201 -0.0015284318 -0.002711638 -0.0060901437 0.00033357204 0.022674961 -0.005972883
0.025667524 0.01254262 0.3880331 0.07689448 -0.1838071 -0.3474652 -0.007560019 0.0005015121
-0.24900338 -0.0011769427 -0.16432571 -0.019876607 0.0020492647 -0.014543261 0.0022754485 -0.01231675
-0.0030777843 -0.0019348442 -0.00937117 0.004955942 -0.001745747 0.0062629892 -0.0060296254 0.012700318
0.00509912 0.010232327 0.0005855097 0.0034002855 -0.010288866 -0.00058026897 -0.0086326115 0.0033132557
-0.000746573 0.010621411 0.008986988 0.13674794 -0.0021600197 0.0045202207 0.012924261 -0.0015617495
0.008202379 0.0031041077 -0.0007979875 -0.008182235 -0.0027415652 0.00649234 0.005264317 -0.008697853
0.0076908628 0.013971718 0.0072832913 -0.0010605133 0.0038506812 0.0012602767 0.000200844 -0.012409498
-0.012863641 0.0041229296 0.032790232 -0.0037545678 0.015480174 -0.00067506515 -0.088269144 0.01281598
-0.0033264477 0.0047836713 0.053998116 -0.009271412 0.0054634623 -0.0061405865 0.009587932 -0.00088024966
-0.04664178 0.04075968 0.0065196385 0.007125795 -0.0039354158 -0.0026003239 0.0011997791 -0.023054613
-0.01596311 -0.007520621 0.005306887 -0.0022702762 -0.007251471 0.007610544 -0.10617868 -0.010563082
0.0027941777 -0.007923404 -0.0009893213 -0.0089226775 0.016341398 0.0015848553 0.011076482 0.0038891595
-0.015889186 -0.0054907487 0.0022565657 0.0005706547 0.0022950685 0.0023603258 0.00017733172 0.062204204
0.007565806 0.005528988 -0.005957327 0.006827428 0.0033400836 0.006888895 0.00801561 -0.0009659566
-0.0047641085 -0.018173864 0.0046420097 0.013976926 0.0091549 -0.004987805 0.14692178 -0.0061918376
0.039152052 -0.03648772 0.013674531 -0.0022934617 -0.011613727 -0.0032476664 0.0027108516 0.0032904064
0.05946381 0.05827323 -0.058350984 -0.030977659 0.011740482 0.10003213 -0.0073887464 -0.011903188
-0.024619028 -0.0031561225 -0.04313933 0.032182943 0.008175842 -0.0026396425 -0.0044264495 -0.00750494
-0.09118826 0.0012573435 -0.007824776 -0.0043718894 0.0027280762 -0.0130659165 0.0020733485 0.005111138
-0.002113817 0.003423963 -2.6556436e-05 0.0020465187 -0.0012053734 0.0031843912 -0.0006017234 -0.011981379
0.071127854 -0.003379853 0.0075216703 -0.03290125 0.00045428888 -0.0046529174 0.003069474 -0.015659548
0.001591198 -0.0018459226 -0.0068098214 -0.0016209683 -0.015269474 0.008188193 -0.007947113 0.03807659

node_encoder.lins.2.bias f4 [128]
00000000: 36d0 e13e b6ac b1bd ff44 c13c ad02 46be
00000010: baae cfbd e36e 16be 8f71 f6be ef91 81bd
00000020: 62b8 f3bd ea7e ffbd ae7d 03be 1329 c6bd
00000030: 0f3b dfbd f384 19be ab05 19be 294c 11be
00000040: 4a46 9fbd 5524 00be 70fd fdbd 3140 debd
00000050: a9d0 46be dda0 d2bd 3e4f cbbd d538 c6bd
00000060: 618e fabd bf2d cebd 76d6 82bd 8012 fcbd
00000070: a4cf dfbd 9965 1bbe 06ac 1fbe ee93 0bbe
00000080: dbf8 f5bd 26bf 0ebe af6f 50be e49f 94bd
00000090: 8a15 61bd 97b0 d8bd a92b 73be 648e bebd
000000a0: b985 59be a5c6 63be 5a54 10be b895 babd
000000b0: 8434 05be 86bf 22be f8a9 ad3b 909e 04be
000000c0: 0ad6 30be 7ed2 e4bd 1ebf 5abe 2405 05be
000000d0: 3685 32be e30b f4bd 7850 15be d0f2 56be
000000e0: df95 ccbd d978 cbbd b451 89bd de9e 31be
000000f0: 4718 c6bd be31 d7bd 33cc 11be b39f 58be
00000100: b327 32be 2a4b 09be 48e2 11be d3c4 28be
00000110: 061a d3bd b2bf 2cbe b247 9bbd 8375 0abe
00000120: a104 1fbe 0757 c3bd 0b12 3abe 6fbf c3bd
00000130: e2f1 4dbe fd0f a7bd 6639 48bf 8c92 1ebe
00000140: dd0a 28be f4cf 80be 06d2 0abe 9b9e f1bd
00000150: f84c 08be 63b0 0dbe 6326 2fbe b6fc e4bd
00000160: 6fef 13be 0fcd 4dbe 6aee debd fe5d e6bd
00000170: 7ee3 1abe 7e47 08be d089 75be d548 2dbd
00000180: 8564 58bd 788b 0dbe 7f7d dbbd b741 15be
00000190: cc58 e1bd 4ea1 96bd 6c9e b3bd a99d 59be
000001a0: ea9f b4bd 78b7 5bbd 2fe0 89bd 7a0a 5fbe
000001b0: d580 1dbe baf7 dcbd 1280 0ebe dd53 89be
000001c0: 59bb 27be e449 88bd 2647 02be 07c3 7bbd
000001d0: d90d 69be 2ae5 86be 46f4 4bbe 1953 d5bd
000001e0: 3d08 d6bd 6bf0 5ebe 5267 58be 21d7 1fbe
000001f0: 09f4 ea3a f817 2ebe f6b0 0ebe f6a8 e1bd
0.44104165 -0.0867552 0.02359247 -0.19336958 -0.10140748 -0.14690737 -0.48133513 -0.06326663
-0.119004026 -0.12475379 -0.12840912 -0.09675803 -0.108999364 -0.14992122 -0.14943568 -0.14189209
-0.077770784 -0.1251386 -0.12401855 -0.10852087 -0.19415535 -0.102845885 -0.099272236 -0.096788086
-0.12234188 -0.10067319 -0.063885614 -0.12308216 -0.10928276 -0.15175475 -0.15592965 -0.1363065
-0.12010356 -0.13940105 -0.20355104 -0.07257059 -0.054952182 -0.10580557 -0.23747124 -0.093045026
-0.21242417 -0.22243746 -0.14094678 -0.09110588 -0.13008314 -0.15893373 0.005299803 -0.12951112
-0.1726915 -0.11172961 -0.21361968 -0.12990242 -0.17433628 -0.1191633 -0.14581478 -0.20991063
-0.09989523 -0.09935159 -0.06705037 -0.1734576 -0.09672599 -0.105075344 -0.14238052 -0.2115467
-0.17397957 -0.13407579 -0.14246476 -0.16481332 -0.10307698 -0.16870001 -0.07582034 -0.1352139
-0.1552911 -0.095380835 -0.18170945 -0.095579974 -0.20111802 -0.081573464 -0.78212583 -0.1548559
-0.16410394 -0.25158656 -0.1355668 -0.1179783 -0.13310611 -0.13836817 -0.17104487 -0.11181013
-0.14446805 -0.20097755 -0.108853176 -0.11248396 -0.15125844 -0.13308522 -0.23978353 -0.042305786
-0.052830238 -0.13822734 -0.10717296 -0.1457585 -0.11003265 -0.07354985 -0.08770451 -0.21251549
-0.08819564 -0.053641766 -0.06732213 -0.2178134 -0.15381177 -0.107894376 -0.13916042 -0.26821795
-0.16380061 -0.066547185 -0.12722453 -0.06146529 -0.22759189 -0.26346713 -0.19917402 -0.1041624
-0.1045079 -0.217714 -0.21133164 -0.15609409 0.0017925511 -0.17001331 -0.13934693 -0.11018555

node_encoder.norms.0.module.weight f4 [64]
00000000: bf80 0abd 503b 15bd 08c6 eabc ac10 0000
00000010: 0ab6 013f 4499 c43c 0e23 0000 5411 aa3f
00000020: 1114 c7bc a922 0080 d19e 7bbc 3e1d c73c
00000030: 8f99 42bd ddab e53c 9a2f 2e3d 8463 39bd
00000040: cb02 0080 07df 29bd 790a fc3c 313a da3c
00000050: 8891 f13e c9e8 3c3c 4e62 023d 0c07 e9bc
00000060: 4e14 f4bc 3f95 ffbc c18f dbbc 7423 033d
00000070: a65b f53e a710 0000 57bb 63bd ebbe a3bb
00000080: f221 0000 f332 a33c e003 6bbc 9ef4 7a3e
00000090: a3ec ef3c 391b fa3c d2dd 30bd d098 21bd
000000a0: 6961 973f d298 4cbd a960 493d 9588 f13c
000000b0: a1a1 193d 6c08 6cbc b89b ff3e 035c e43c
000000c0: f927 043d f2b5 b13c 59cd db3e 0022 0000
000000d0: d5d1 d3bc bb34 013f 8c9b b83f dcb8 33bd
000000e0: 1685 2fbd babb 17bd 918c debc 4c25 0000
000000f0: 7ff3 1d3d 8162 103f 7d5a 203f 50c0 37bd
-0.033814188 -0.036433518 -0.028658882 5.981e-42 0.50668395 0.023998864 1.2575e-41 1.3286538
-0.02430156 -1.2434e-41 -0.015357689 0.024305936 -0.047509726 0.028036052 0.042525865 -0.04526092
-1.002e-42 -0.04147246 0.030766713 0.026639076 0.47181344 0.01153011 0.031832032 -0.028445743
-0.029794838 -0.031199096 -0.026801946 0.032016233 0.47921485 5.974e-42 -0.055598583 -0.0049971244
1.2177e-41 0.019921755 -0.014344186 0.24507377 0.029287642 0.030530559 -0.043180294 -0.039452374
1.1826602 -0.04995043 0.049164448 0.029484073 0.037507657 -0.014406305 0.4992349 0.027875906
0.032264683 0.021693204 0.42930105 1.2197e-41 -0.025856892 0.50471085 1.4422469 -0.043877468
-0.04285153 -0.037044264 -0.027166637 1.338e-41 0.038562294 0.56400305 0.62638074 -0.044861138

node_encoder.norms.0.module.bias f4 [64]
00000000: 464a 98b8 9a4a 30b9 6b3e 2d39 589b 6000
00000010: 16fe 443f 5496 adb8 ee25 1880 0cc9 df3d
00000020: ac8a 4139 4077 4d80 4fff 2e39 4a7b 9638
00000030: 79f7 1eba a592 f036 44c4 8839 ed3a e1b9
00000040: 259a 1c00 d99a 283a 75df b537 ef63 ae37
00000050: 23dd 31bf 16d3 1a38 78b0 91b9 16d9 c4b9
00000060: d2ee 5739 b1d4 9b39 72cf e639 7bb8 dbb9
00000070: 31a5 193f a3a4 9880 ce96 ffb8 ff6e 49b7
00000080: 68d8 5680 49d6 ca37 4a73 9ab8 62cc a1be
00000090: a55e 253a 9d23 6d3a f7b9 db3a 0f3b 1a36
000000a0: 7d2a 703b e0ab 673a e31c 81ba 6d88 a739
000000b0: d47c 6839 7aca 0fb9 4cc9 213f f776 21ba
000000c0: 6e35 d839 8377 b438 21b2 09bf 22e2 8600
000000d0: a43b e6b7 9ebd 1e3f a92e 0f3c 7b8b e3ba
000000e0: 7b9a 04b9 c303 98ba 31f3 6a38 d5ee 4480
000000f0: 5afb ceb8 c7ff 3b3f d58d 623c c1bd 11ba
-7.261759e-05 -0.00016812459 0.00016521818 8.871934e-39 0.76950204 -8.2772836e-05 -2.217659e-39 0.109270185
0.00018457574 -7.114112e-39 0.00016689043 7.175522e-05 -0.0006064098 7.169629e-06 0.0002608617 -0.00042959247
2.62669e-39 0.00064317655 2.1680937e-05 2.0788952e-05 -0.6947805 3.691305e-05 -0.00027788035 -0.00037545775
0.00020592965 0.0002972237 0.00044023577 -0.00041908384 0.6001769 -1.4018056e-38 -0.00012187437 -1.2006377e-05
-7.975485e-39 2.418006e-05 -7.3647665e-05 -0.31601244 0.00063083536 0.00090461393 0.0016763796 2.2982165e-06
0.0036646419 0.0008837562 -0.0009850528 0.00031954367 0.00022171746 -0.00013712971 0.6319778 -0.000615939
0.0004123854 8.60533e-05 -0.5378743 1.2387078e-38 -2.7445909e-05 0.6200808 0.008739152 -0.0017360294
-0.0001264605 -0.0011597801 5.6016437e-05 -6.33049e-39 -9.869663e-05 0.7343716 0.013827761 -0.00055595866

node_encoder.norms.0.module.running_mean f4 [64]
00000000: f83b 45bc a49e f6bc 737d 003c 7710 0080
00000010: 0a33 3a3c 37ff a5bb 3e16 0080 1878 943d
00000020: 13e5 a93b c076 0080 4bc9 c63c cd13 81bc
00000030: 492c 26bc e642 9ebc 9498 f43b 562d 92bb
00000040: 7e45 0000 ff27 833c 653b 66bc 7239 dc3c
00000050: 8f17 a13b cebc d0bc 9f9f 58bb 7d4e 613d
00000060: 8151 3ebc dcce 91bb 0546 19bb 0d7e 96bb
00000070: 3cdb 2c3c 8e0a 0080 9973 3c3a d35d be3b
00000080: 0e13 0080 8e8c 1abd 8131 da3b 2c3d c8bb
00000090: 7458 7d3d 53d5 873d 1c7a 143b 569c a63a
000000a0: 9af0 f93e 5f09 5a3b bc1a 28bb ab59 f23b
000000b0: ed66 5fbc 124b 7cbc 430c 163c e4aa 81b9
000000c0: 4eec c93b 1085 6cbc 69e7 b63c d95f 0080
000000d0: 96e0 843c eda7 023c f1c8 23be 2874 0d3b
000000e0: 2eb2 2bbc 3480 7a3b 16cb 23bd 7660 0080
000000f0: 9e12 24bb 7eb0 55bc 25f6 223e 414e 1cbc
-0.012038223 -0.030104943 0.007842409 -5.906e-42 0.011364708 -0.0050658244 -7.979e-42 0.072494686
0.0051847785 -4.26e-41 0.024265906 -0.015756512 -0.010142394 -0.019319009 0.007464478 -0.004460971
2.4929e-41 0.016010283 -0.014052247 0.02688286 0.0049161385 -0.025480654 -0.0033054126 0.055006493
-0.011616112 -0.0044497084 -0.0023387682 -0.004592663 0.010550316 -3.786e-42 0.0007188856 0.0058095246
-6.836e-42 -0.0377317 0.0066587334 -0.006110808 0.061851934 0.06632485 0.002265579 0.0012711387
0.48816377 0.0033269746 -0.00256507 0.007395943 -0.013635379 -0.0153987575 0.009158197 -0.0002473212
0.006162203 -0.014436021 0.022327142 -3.4384e-41 0.016220372 0.007974607 -0.15994622 0.0021584127
-0.010479493 0.0038223388 -0.0399886 -3.4604e-41 -0.002503551 -0.013042567 0.15914209 -0.009540142

node_encoder.norms.0.module.running_var f4 [64]
00000000: 3b13 fb3c 1ba7 853e 6552 1e3e 0400 0000
00000010: ffa4 b93e 0e5a a53c 0400 0000 8890 d541
00000020: c26a 1c3e 0400 0000 5a9d d73d 2962 a63d
00000030: 008c 8d3d e7dd 9f3d 544c dd3d 3bc8 243e
00000040: 0400 0000 0658 d33d fb6b 493d 07e2 8e3e
00000050: 5bbd ae3e 851d dd3d 1fb1 903d 0a30 1b3f
00000060: 6b64 543d c59a 243d b34a 723d 1b5c 2d3d
00000070: 3ade bd3e 0400 0000 5431 053e 540a 8b3c
00000080: 0400 0000 20f5 8f3e 9f6a 813c d05d 4d3e
00000090: 21cb 393f 564a 513f 52ad 543e 5da9 003e
000000a0: 3123 d841 c61a ac3d a017 1d3f a59c a13e
000000b0: f746 e23c e054 4e3d 0770 d03e cfd4 9f3e
000000c0: 436d 8f3c 0445 7c3d d3dd dc3e 0400 0000
000000d0: 653a 6d3d 1378 d73e 33d4 ff41 9f21 ea3c
000000e0: e5f0 203e f200 db3b 58c8 cb3e 0400 0000
000000f0: 7cb8 153e 9ac8 e63e c064 2f41 86e4 f23d
0.030648818 0.26104054 0.15461119 6e-45 0.36258695 0.020184543 6e-45 26.695572
0.152751 6e-45 0.10528059 0.08124191 0.069114685 0.078059964 0.10805574 0.16092007
6e-45 0.103195235 0.049175244 0.2790682 0.34128842 0.10796646 0.07065033 0.60620177
0.05185358 0.040186662 0.05915327 0.042324167 0.37083608 6e-45 0.13007098 0.016972698
6e-45 0.28116703 0.015797911 0.20055318 0.72575575 0.8175405 0.20769241 0.12564607
27.017183 0.08403544 0.61364174 0.31564823 0.02762173 0.05037391 0.4071047 0.31217048
0.017508155 0.061589256 0.43137988 6e-45 0.057917017 0.42083797 31.978613 0.028580485
0.15716894 0.0066834623 0.39801288 6e-45 0.14621156 0.45074922 10.962097 0.11859994

node_encoder.norms.1.module.weight f4 [128]
00000000: 41b5 293d b9ab 9e3d c74c 1ebd 79d1 253d
00000010: b703 5ebd 7f46 9c3e 2feb 1dbd bcdb 1b3d
00000020: 3038 6fbd d4f4 79bd c912 183f 3948 4d3d
00000030: 436e 2cbd 6afc 92bc 49a6 e13e 732a 40bd
00000040: db89 153d fd44 4bbd fda7 2c3f fa58 7b3d
00000050: b5ba 33bd 8c81 8a3e e248 4dbd b7e1 e13c
00000060: 4b72 063f 2ba7 e23e fc94 61bd 4bff 383d
00000070: 5431 62bd 361f 4bbd cba5 133d 8e98 ae3e
00000080: 3721 d03e 4599 60bd bc3a 4fbd e01c 5a3d
00000090: e9e5 023f bdac 583e f338 1b3f 958b 833d
000000a0: 8efd 463d 647e 48bd 57cb 433d 2ee0 c53c
000000b0: bb35 593d d9d8 61bd 6942 653d 3afd 3bbd
000000c0: d0bb 79bd aa85 7639 b98f 103d e2e6 f7bc
000000d0: ad52 06bd aea4 27bd 0d11 62bd 3aba 1c3f
000000e0: 87a6 243d 80fb 693d 569a 0f3f 21fc 0c3d
000000f0: 5682 2c3d 072b 72bd 5a18 61bd 66ae 443d
00000100: 682b 243f b5b9 7d3d f4cf f63c 5cbb 5e3d
00000110: d36b da3e bcf7 4dbd 296c 843f f490 76bd
00000120: 5e78 c33e 4b85 aa3e 8a6d 693d 9bed 8a3c
00000130: b184 873d 6ab0 11bd 9a95 41bd 4aad 143d
00000140: 8a39 a53f 1584 8c3f 02e0 2f3f 83ca 173f
00000150: 3e0c 0e3f 0c52 2d3f 0fc9 563d 3315 6ebd
00000160: 3fac 243f 18fa 363d 65c7 d63e 3f0b 943f
00000170: 5ac4 57bd 9fed 21bd b710 5fbd e229 913d
00000180: 039f 913f a8eb 5dbc 3022 88bd e49e 0b3d
00000190: de94 2abd 02b8 5d3d deca 15bd 0715 ea3b
000001a0: 9d96 65bd bd0b 1dbd 0661 4abb 5846 51bd
000001b0: 6774 953d 5d2b d13c 8223 6b3d 132a 723d
000001c0: 65fc 983f b136 103d d006 943e 0ecf ca3e
000001d0: 30e4 e83c 4eab 40bd c577 2abd e865 98bd
000001e0: 6805 55bd 7c70 bebc a421 593d 7b10 343d
000001f0: 9046 6d3d 3b9b 51bd 7336 373d 3b6f 94bd
0.041432623 0.07747597 -0.03864744 0.04048297 -0.05420276 0.30522534 -0.038554367 0.038051352
-0.058403194 -0.061024502 0.59403664 0.050117705 -0.04209734 -0.017942626 0.44072178 -0.046915483
0.036508422 -0.04962634 0.6744383 0.06136415 -0.04387923 0.2705196 -0.050118335 0.02757345
0.5251815 0.44268164 -0.055073723 0.04516534 -0.055222824 -0.049590312 0.036046784 0.34100765
0.4065034 -0.05483367 -0.050593123 0.053250194 0.51132065 0.21159644 0.6063377 0.064231075
0.048581652 -0.04894866 0.04780134 0.024154749 0.053029757 -0.055138443 0.055971537 -0.045895793
-0.060970128 0.00023510182 0.035293315 -0.03026146 -0.03279369 -0.040928535 -0.055192042 0.6122166
0.040197875 0.057124615 0.5609487 0.034420136 0.042116486 -0.059123065 -0.054954864 0.04801788
0.6412873 0.061944682 0.030128457 0.0543779 0.42660388 -0.050285086 1.0345508 -0.06019683
0.3817777 0.3330482 0.05698923 0.016959002 0.06617106 -0.035568632 -0.04726181 0.036298074
1.2908185 1.0977808 0.68701184 0.59293383 0.5548743 0.6770332 0.05243784 -0.058125686
0.64325327 0.0446721 0.41949 1.1565932 -0.05267749 -0.039533254 -0.0544593 0.07088067
1.1376652 -0.013544954 -0.06647146 0.034087077 -0.041645877 0.05413056 -0.036570422 0.00714362
-0.05605184 -0.038341273 -0.0030880584 -0.051092476 0.072975926 0.025533373 0.05740691 0.059122156
1.1952025 0.035208408 0.28911448 0.39611095 0.02842912 -0.04703837 -0.041618127 -0.07441312
-0.05200711 -0.023246996 0.053010598 0.04396103 0.05792862 -0.05117343 0.04472966 -0.07247778

node_encoder.norms.1.module.bias f4 [128]
00000000: 0f11 053d abae f43c 6930 be3c ffe4 913c
00000010: 215b d53c 3259 9dbd e4de 633c 856a a7bc
00000020: 0718 8ebc 8270 c13c 53af 763e 0c0c 953c
00000030: 9f6e e0bb 7342 dcbc 3732 513e 7fb6 623c
00000040: a2d5 f6bc b831 193c 8e00 0ebf abbf 403c
00000050: a502 7bbc 3361 f1bc 687b ef3c dc5a d1bc
00000060: 6ea0 94be 7a4e 81be fe91 d33c 44ed e33c
00000070: 5c86 9fbc 835e a63c 8d06 873c 59e6 efbd
00000080: 1523 95be 6669 93bc f4c6 22bc c6a3 dbbc
00000090: f6dc e3be 22c5 f03d f8cc 14be 5d68 323c
000000a0: b502 983c 061a 363c 4410 ad3c 74ec fdbc
000000b0: ad4b a9bc 9b59 903c 6114 4f3b dbf2 523c
000000c0: 6d67 45bc 768d d7bc f4a7 b23c d5b0 b83b
000000d0: f38f 803c 83b6 1b3c 9756 6b3c 1183 ed3e
000000e0: ac80 943c 8006 d9bc 1cc8 b63e 1570 dd3c
000000f0: 26cb 8abc ddef 13bc cd36 cd3b 4917 99bc
00000100: b0d4 063f ac76 f0bc aed0 52bc e1d2 aabb
00000110: 9ec0 493e d1c4 663c 5d09 e8bb b3c4 6d3c
00000120: 64ca 063c b03d 053e 7772 543b 8c68 6a3c
00000130: c912 ecbc 9205 f1bc 68e6 8a3c cb34 8abc
00000140: bdf4 2e3d d9a1 8f3c 70fa 2f3f 92f4 663e
00000150: 4f1e b1be 721b 1dbf b841 ebbc a1e5 0d3c
00000160: 6087 17bf ee1d 87bc ae5f 37be 247b 673d
00000170: 9f2a 86bc c475 b5bc 2d57 9c3c 7377 9ebc
00000180: 9c10 27bc bce2 dabc b2c3 6ebc 0e55 ebbb
00000190: ae20 b8bc a041 353c 697a e43c 1eba f13c
000001a0: fa06 0a3c b449 f13c d0a4 cc3c e8bc 96bb
000001b0: f344 863c df5a 013d 1bb0 f1ba 9517 1c3c
000001c0: dbed b93d 19b6 dc3c cfba 093e 1e74 9e3d
000001d0: 8e1d dabc fdf1 223c 6dc1 7d3c e33b acbb
000001e0: 6d53 763c 4630 0ebd 30ca eabb 0778 b0bc
000001f0: f149 84bc 2f1a 8d3c 94ec 68bc cf41 1e3b
0.03248697 0.029868444 0.023216443 0.01780939 0.02604443 -0.07683028 0.013908122 -0.020436535
-0.017345442 0.023613218 0.24090318 0.018194221 -0.0068491246 -0.026887154 0.20429312 0.013837456
-0.030131165 0.009350233 -0.55469596 0.011764447 -0.015320455 -0.029465294 0.02923365 -0.02555602
-0.29028648 -0.25255185 0.02582645 0.027823098 -0.019473247 0.020308739 0.016482616 -0.11713857
-0.29128328 -0.017994594 -0.009935129 -0.026811492 -0.44504517 0.1175635 -0.14531314 0.01088914
0.018555978 0.011114603 0.02112592 -0.030996539 -0.020665968 0.017620852 0.003159784 0.012875284
-0.012048584 -0.026312571 0.021808602 0.0056363144 0.01569364 0.009503963 0.014363906 0.46389058
0.018127762 -0.026492357 0.35699546 0.027030984 -0.016942572 -0.009029356 0.0062626363 -0.018687861
0.52668285 -0.029353462 -0.012867136 -0.005213127 0.19702384 0.014085011 -0.0070811943 0.014512229
0.008226965 0.13011813 0.003241686 0.0143071525 -0.028817551 -0.029421601 0.01695557 -0.016870877
0.04271387 0.01753323 0.6874151 0.22554234 -0.34593436 -0.61370003 -0.02871786 0.008660705
-0.5919094 -0.016493764 -0.17907593 0.05651392 -0.016377745 -0.022150882 0.019084537 -0.019344067
-0.010196831 -0.026719444 -0.014573025 -0.00718177 -0.02247652 0.0110630095 0.027890401 0.029507693
0.008424515 0.02945409 0.024980932 -0.004600156 0.0163903 0.031580802 -0.0018439324 0.009527107
0.090785705 0.0269423 0.13450168 0.07736991 -0.02662542 0.00994539 0.015488011 -0.0052561625
0.015034539 -0.034714006 -0.007165216 -0.021541608 -0.01614854 0.0172244 -0.014216561 0.0024148112

node_encoder.norms.1.module.running_mean f4 [128]
00000000: 6dbd 493b aa36 9d3a f364 d8ba e47e 033b
00000010: 96dc 00bc d463 193f f4ab 653a 0d41 ec3a
00000020: 3fa4 dc3b 063c 18bb 9de4 e73e fae9 963b
00000030: 7314 eabb 347e 9c3b ca55 f33e d590 0cbc
00000040: 615e 40ba 2413 0d3b 9304 d4be 1598 923a
00000050: 61e7 40bb e56d e83e 292c 4abb 794f 623b
00000060: 2d4c a1be 76f9 3d3f cdd6 33bb a7e3 193a
00000070: d9d1 543b b540 bfba 8e15 11bb 8a0b 243f
00000080: b91d 283f c6c0 af3b ffe7 45ba 0562 d1b9
00000090: 4fe1 a9be cbe1 483e 7768 fcbe fbfc 073b
000000a0: 0a04 883b 1437 523a 72dd fb3b a81b c6bb
000000b0: 4841 cabc 9f11 4fbb 4a2c 13bb fe40 65bb
000000c0: 7fde 4d3c bd8b ae3b 47d9 b6ba 08be 8dbb
000000d0: aeba eeba bcbf a0bb 0957 97bb 509f 773e
000000e0: d66f 0739 5f68 f7ba f2df b23e 1c8c db3b
000000f0: 5f3f 9a3b f60e adbb c564 65bb 6900 81bb
00000100: 52bb 783e 1813 45bb 5ec0 3c3b d9d6 433b
00000110: 10e0 833e 56ea 383a c91b 22be 6e88 263c
00000120: ad41 fabe fb66 b53e 9510 0c3c d844 00bc
00000130: e777 3abc 56d1 8bba 4457 d0bb 0fcf b7b9
00000140: f66d 3d3b 1944 e2bd 964f 703e 8275 36bf
00000150: a68a 53be 3971 9ebe 6b7b 2abc 134a 453a
00000160: 4d86 2cbe 9686 f1ba f0f4 ddbe 58ae ecbc
00000170: 2bf4 baba 20ee 123c 4061 1dbb b258 afbb
00000180: 016e 843d bc97 13ba c1b7 27bb 2d6c 57bc
00000190: e3f5 a33a 00df 143a 25c1 393a aed6 66b9
000001a0: 0f36 fc3b b8ee d43b eb55 683a 2c90 0fbb
000001b0: 1883 bf3b 9458 2c3b ec25 2abc c1a2 a1bb
000001c0: e3e7 54ba e2e9 893b e559 1fbf a4bd 103f
000001d0: 3746 1a3a 1f8e 4e3a bb19 c7bb 01bb 9aba
000001e0: 5ac3 023b 5df7 3f3b 0ab3 453a dfa1 39bb
000001f0: 477a 28bb 6d36 c5ba b6a3 8f3b be9d a63c
0.0030783073 0.001199444 -0.0016509577 0.0020064646 -0.007865092 0.5991795 0.000876128 0.0018024758
0.006733447 -0.0023229136 0.45291606 0.004605529 -0.007143551 0.004775787 0.4752639 -0.0085794525
-0.00073382823 0.0021526301 -0.4140974 0.001118424 -0.0029434788 0.45396343 -0.0030849075 0.0034532233
-0.3150343 0.7420877 -0.0027441264 0.00058704097 0.0032473712 -0.0014591428 -0.0022138092 0.6408011
0.65670353 0.0053635566 -0.0007549524 -0.00039936617 -0.3317971 0.19617383 -0.4929845 0.0020750153
0.004150872 0.00080190715 0.0076863104 -0.0060457774 -0.024689332 -0.0031596196 -0.0022456818 -0.0034981365
0.012565254 0.0053267167 -0.0013950252 -0.004325632 -0.0018213594 -0.004905669 -0.0046185297 0.24181867
0.00012916265 -0.001887571 0.34936482 0.006700052 0.0047072615 -0.0052813245 -0.003500269 -0.0039368165
0.24290207 -0.0030071195 0.0028801183 0.0029882698 0.25756884 0.0007053962 -0.15830912 0.010164363
-0.48878232 0.3543013 0.008548875 -0.007828914 -0.011381126 -0.0010667245 -0.006358059 -0.0003505875
0.0028904653 -0.11048145 0.2346786 -0.7127305 -0.20658359 -0.30945757 -0.010405402 0.00075259915
-0.16848107 -0.001842695 -0.43350935 -0.028891727 -0.0014263442 0.008967906 -0.0024014264 -0.0053511495
0.06466294 -0.0005630215 -0.0025591704 -0.01314835 0.0012509193 0.00056789815 0.0007085971 -0.00022014484
0.007696874 0.006498184 0.00088629004 -0.0021906001 0.005844485 0.0026297914 -0.010385018 -0.004932732
-0.0008121712 0.004208789 -0.62246543 0.5653937 0.00058850966 0.0007879454 -0.0060760654 -0.0011804999
0.0019952864 0.0029291727 0.00075416325 -0.0028325242 -0.0025707649 -0.0015046127 0.0043835295 0.02033889

node_encoder.norms.1.module.running_var f4 [128]
00000000: dc19 bb38 0d8a 4e39 9575 3339 b633 0639
00000010: 88df 8a39 1b25 e43a b8b4 3b39 626e 4239
00000020: 33a0 3039 3488 2039 1305 0c3d 758e b839
00000030: e081 8e39 259c c138 7072 a83c 78f7 ec39
00000040: be9f 4f39 bb7f c439 eb5d 5f3d 4e05 1239
00000050: 1569 2739 8790 f23b 39ec 9539 24c6 7e39
00000060: 0c7a 243d 16ee d33b 3ea6 3b39 e26c 1b39
00000070: 9695 5f39 2d2d 0f39 9320 2839 b974 0b3b
00000080: b92c c83b ba8e 0d39 32a3 6239 8532 4939
00000090: be2f 173d 29e2 973c d98c 983c 3209 1a39
000000a0: 88c8 7e39 99c2 0f39 d06f 8039 bee9 8139
000000b0: 0c1c 2f3b bcd9 2939 f446 d639 afec 4139
000000c0: 8d96 4539 ab3f 9a36 a14c 5539 3dc4 453a
000000d0: 2f67 2a39 50e7 9b39 84fc 8b39 3b04 493d
000000e0: d32d 4939 241b 0c39 1f70 313d f727 2039
000000f0: 9b97 9339 20db 7039 d5a3 e238 e5d0 1239
00000100: 10d5 413d 3b63 503b 0675 5039 8e34 1939
00000110: b130 eb3c 6065 bf38 7725 de3c 7ee2 e938
00000120: 0720 3d3c 3492 693c 2434 6339 ad4a 0d39
00000130: e16b 2e39 1b9e 3d39 abd4 2e39 c55c d639
00000140: e277 0d3d 25f0 303d b0ee 243d 348a 023b
00000150: 6a81 033d 8557 5a3d 297a a439 bd8b bb38
00000160: 990f 613d 3e13 f438 8d97 d93c 9ad3 303d
00000170: e27a ab38 981e 6e39 0d1f f938 a062 2639
00000180: edbe 313d 2aad c138 609e 7e39 36c3 bd39
00000190: d903 bd38 461e 2839 ede7 cc38 26aa b338
000001a0: 5139 9a39 a991 0339 531a 0a38 c813 2339
000001b0: aaad 6039 f47f d438 a109 7c39 2930 6639
000001c0: 1fae 3e3d e67b 2f39 1b33 ec3a 0288 533c
000001d0: 31af 9f39 b811 8839 09c0 6539 19bc 4939
000001e0: eb8c ed38 9376 7639 759a 4f39 1940 7039
000001f0: 2606 9d39 c2bc 2339 4bf2 9a39 4229 533b
8.9216715e-05 0.00019697119 0.00017114573 0.000127985 0.00026487955 0.0017406078 0.00017901033 0.00018542403
0.00016844347 0.00015309529 0.034184527 0.00035201354 0.00027181115 9.232041e-05 0.02056238 0.00045197806
0.00019800567 0.000374792 0.054532927 0.00013925621 0.00015965507 0.007402483 0.00028595494 0.00024297141
0.040155455 0.006467591 0.0001789564 0.00014822514 0.00021322662 0.00013654372 0.00016033863 0.002127929
0.006108847 0.00013499978 0.00021613835 0.00019187674 0.036910765 0.018540459 0.018621849 0.0001469001
0.00024298031 0.00013710036 0.0002449737 0.0002477895 0.0026719598 0.00016198208 0.00040870125 0.00018494086
0.00018843469 4.5969696e-06 0.0002034181 0.00075441954 0.00016250902 0.00029736245 0.00026700285 0.0490763
0.00019185925 0.00013361551 0.043319818 0.00015273677 0.0002815098 0.00022969814 0.00010807036 0.00014001464
0.047322333 0.0031797427 0.0001988002 0.00014610795 0.028709741 9.126472e-05 0.027117474 0.00011152493
0.01154328 0.014256049 0.00021667831 0.00013474627 0.00016634121 0.00018083343 0.00016673158 0.0004088638
0.034538157 0.04319777 0.040266693 0.0019918801 0.03210584 0.05330612 0.00031371534 8.942883e-05
0.054946516 0.00011638411 0.026561523 0.04317055 8.176804e-05 0.00022708846 0.00011879029 0.00015867734
0.04339497 9.2352115e-05 0.00024282327 0.00036194333 9.012939e-05 0.00016033006 9.7706776e-05 8.567078e-05
0.00029415873 0.00012547396 3.292628e-05 0.0001555226 0.00021427 0.00010132781 0.0002403618 0.0002195245
0.046552774 0.00016735456 0.0018020602 0.012910845 0.0003045737 0.00025953143 0.0002191068 0.00019238926
0.00011327289 0.0002350456 0.00019798598 0.00022912062 0.00029949954 0.00015615209 0.0002955369 0.0032220636
