tfg/models20250213095528/model_0.pt (torch, 818782 bytes, 36 tensors)

node_encoder.lins.0.weight f4 [64, 7]
0	0x3d85fc48	0.065422595
1	0xbe7042df	-0.2346301
2	0xbeaff769	-0.34368446
3	0x3caaee92	0.020865712
4	0xbcc55546	-0.024088513
5	0xbd88bdb5	-0.06676809
6	0xbea36880	-0.31915665
7	0x3e66a048	0.2252208
8	0xbeb776ac	-0.35832727
9	0x3d490250	0.04907447
10	0x3d06fecb	0.032957833
11	0xbe0fd66a	-0.14046636
12	0x3e13c254	0.14429599
13	0x3e660a66	0.22464904
14	0xbe62731c	-0.22114223
15	0xbe5a408a	-0.21313682
16	0xbe54460a	-0.20729843
17	0x3cb2c554	0.021822609
18	0xbeadd0b7	-0.339483
19	0x3cc918d7	0.024547977
20	0xbe86958d	-0.26285973
21	0xbe967f5c	-0.29394042
22	0x3e1dd57b	0.15413468
23	0x3e9df01f	0.3084726
24	0xbc81caaa	-0.015843708
25	0xbdf44905	-0.1192799
26	0x3db7019c	0.08935854
27	0xbe45e2c5	-0.19324787
28	0xbd9ef8e7	-0.07762318
29	0xbdb9a602	-0.090648666
30	0x3cc88ec7	0.024482144
31	0xbc4813de	-0.012211768
32	0xbe4c6ecd	-0.19964142
33	0xbe79554d	-0.24348946
34	0xbed2363b	-0.41057
35	0x3e0853d3	0.13313226
36	0xbdc796fb	-0.09745594
37	0xbe4ce286	-0.20008287
38	0xbcc88618	-0.024478003
39	0x3e9e9c8d	0.30978814
40	0x3eabb568	0.3353684
41	0xbe02eb85	-0.12785156
42	0x3d58edcc	0.052961156
43	0x3e986f20	0.29772282
44	0x3e0ccf2b	0.13750903
45	0xbc2a7a9c	-0.010405209
46	0xbd00d256	-0.031450592
47	0x3df81a2d	0.12114368
48	0xbd021db0	-0.031766593
49	0xbe7ce0d5	-0.24695142
50	0xbeb46c92	-0.35239083
51	0xbe8c5999	-0.27412108
52	0x3c20a527	0.009805
53	0xbe33d87e	-0.17563054
54	0xbe2d4fcf	-0.16924976
55	0xbe3bebab	-0.18351619
56	0xbdd75b3b	-0.10515448
57	0x3ea5b273	0.32362708
58	0x3baebb97	0.005332421
59	0x3c803ae0	0.015653074
60	0x3e5fe996	0.2186645
61	0xbe63f018	-0.22259557
62	0x3db0d3a1	0.08634115
63	0xbe323b87	-0.1740552
64	0x3e877a67	0.26460573
65	0x3d33d562	0.04390467
66	0xbbf063eb	-0.00733613
67	0xbe843fc0	-0.25829887
68	0xbe74cbe1	-0.23905899
69	0xbe25e32d	-0.16199942
70	0x3ea9bf6f	0.33153865
71	0x3e43e1ae	0.19129059
72	0x3e5a39a0	0.21311045
73	0xbbe81725	-0.007082837
74	0xbaa44315	-0.0012532199
75	0x3e368cd4	0.17827159
76	0xbe9c685e	-0.30548376
77	0x3e7bbd60	0.2458396
78	0x3e256218	0.16150701
79	0xbe80a0d5	-0.25122705
80	0x3d7a32a3	0.061083447
81	0x3e0b7eff	0.13622664
82	0x3b0df917	0.0021663362
83	0xbe8320bd	-0.25610915
84	0x3e807f22	0.25096995
85	0x3e7df9c4	0.2480231
86	0xbeaa830b	-0.33303103
87	0x3ba31d76	0.0049778773
88	0xbe8828e5	-0.265937
89	0x3d5a0161	0.05322397
90	0xbe4b21c5	-0.19837101
91	0x3df77dce	0.12084542
92	0x3e8909aa	0.26765186
93	0x3e96c240	0.29445076
94	0x3bdbf353	0.006712356
95	0x3ca66f98	0.020316884
96	0xbe9cb033	-0.3060318
97	0xbeb7b233	-0.35878143
98	0xbe4e28a4	-0.2013269
99	0x3dabe558	0.08393353
100	0x3e882fbd	0.2659892
101	0x3c5f4874	0.013628114
102	0x3d993226	0.07480268
103	0x3e2c7593	0.16841726
104	0x3e60d760	0.21957159
105	0x3e2c06e5	0.16799505
106	0xba93a634	-0.0011264742
107	0x3e7b7167	0.24554978
108	0x3d2dd043	0.042434942
109	0xbead2220	-0.33815098
110	0xbe3a88aa	-0.18216196
111	0xbd8d3e6f	-0.06896674
112	0xbe56e18b	-0.20984475
113	0xbea00a69	-0.31257942
114	0x3ca82d17	0.020529313
115	0x3dc0f0cc	0.09420928
116	0x3c97b348	0.018518105
117	0xbe7c7e27	-0.24657498
118	0xbe0e87e5	-0.13919027
119	0x3eb2a5f0	0.34892225
120	0x3e7ec1db	0.24878637
121	0xbe9fd648	-0.3121817
122	0xbc42c428	-0.011887588
123	0xbe75da58	-0.24009073
124	0x3e21ba40	0.15793705
125	0xbcd246db	-0.025668552
126	0x3eb9400b	0.36181673
127	0xbdc70fdb	-0.09719821
128	0x3c0dcbfc	0.008654591
129	0xbcb2c742	-0.02182353
130	0xbe8ca34c	-0.27468336
131	0x3d7a2899	0.061073873
132	0xbeb5484e	-0.35406727
133	0xbe04a080	-0.12951851
134	0x3e921c2f	0.28537127
135	0x3e1ad0c3	0.15118699
136	0xbcef3bc2	-0.0292033
137	0x3df1aa77	0.11800092
138	0x3ec6de34	0.38841403
139	0x3ea776f4	0.32707942
140	0x3e1690c2	0.14703658
141	0xbce45592	-0.027872834
142	0x3db1655c	0.08661911
143	0x3c666b52	0.014063673
144	0x3ed4883a	0.41510183
145	0xbe607b24	-0.21921974
146	0x3ea3aefb	0.31969437
147	0x3e77eee2	0.2421222
148	0xbd5a2202	-0.05325509
149	0x3e942229	0.28932312
150	0x3cd11b88	0.025525823
151	0xbe0ff7fc	-0.14059442
152	0x3dcb0d76	0.09914677
153	0xbd130e04	-0.03590204
154	0xbdc3618e	-0.095400915
155	0xbe2e8d33	-0.1704605
156	0xbe7f1651	-0.24910857
157	0x3c8a9d99	0.016920852
158	0xbe1a5562	-0.15071633
159	0x3ea98a99	0.33113554
160	0xbeafa714	-0.34307158
161	0x3ddb86b2	0.107190505
162	0xbd2cbdde	-0.04217326
163	0xbe5e8feb	-0.21734588
164	0xbb1d22d6	-0.0023977063
165	0x3ebfc845	0.3745748
166	0x3e1defec	0.15423554
167	0x3e97430b	0.29543337
168	0xbe92f4ed	-0.2870249
169	0x3dd49bdc	0.1038129
170	0xbe40ac91	-0.18815829
171	0xbc83bdd2	-0.016081724
172	0x3d1519b8	0.03640148
173	0xbe5151c6	-0.2044135
174	0xbdea6402	-0.11444856
175	0x3ad42ad9	0.0016187086
176	0x3e6f9472	0.23396471
177	0xbc781dcd	-0.015143824
178	0xbd1dbd19	-0.038510416
179	0xbe830e48	-0.25596833
180	0x3e63ec01	0.22257997
181	0xbeb535b7	-0.35392544
182	0xbddddc15	-0.10832993
183	0xbe82cc2a	-0.2554639
184	0x3eb44c5f	0.35214517
185	0x3d33c3cc	0.0438879
186	0x3eab75cc	0.3348831
187	0xbe3e0ee8	-0.18560374
188	0xbd1b0d23	-0.037854325
189	0xbdd7a0e7	-0.105287366
190	0x3e5efed9	0.21776904
191	0x3e8ee150	0.27906275
192	0x3ccb9d83	0.02485538
193	0x3e1111f9	0.14167012
194	0x3e448d0e	0.19194433
195	0xbd2789fb	-0.040903073
196	0x3bd2390c	0.006415492
197	0xbc0b4ae5	-0.008501743
198	0xbc18dfb6	-0.009330681
199	0x3cc3b6b1	0.023890825
200	0x3e7f04ac	0.24904126
201	0xbe6b9b34	-0.23008424
202	0x3db4b558	0.08823651
203	0x3be368ff	0.0069400067
204	0xbe0c8a38	-0.13724601
205	0x3e836d99	0.25669554
206	0x3c4e9f3b	0.012611206
207	0x3cd22508	0.025652424
208	0x3e23d882	0.1600056
209	0xbe761ffb	-0.24035637
210	0x3d871e22	0.06597544
211	0x3d54774c	0.051871583
212	0xbe7f2caa	-0.24919382
213	0x3d4db1ea	0.0502185
214	0xbec28ffc	-0.38000476
215	0xbea34c44	-0.31894124
216	0x3eba6e4d	0.36412278
217	0x3e90711e	0.28211302
218	0x3deb5b49	0.11492021
219	0x3d59856b	0.053105753
220	0xbc7e0587	-0.0155042475
221	0x3e014870	0.12625289
222	0x3e5ff8b4	0.21872216
223	0xbe19d138	-0.15021217
224	0xbe9b4d67	-0.3033249
225	0x3e6c9632	0.2310417
226	0x3eb9805a	0.36230737
227	0xbbbba1a5	-0.0057260566
228	0xbe850fcb	-0.25988612
229	0xbd8d9ab0	-0.0691427
230	0x3e082300	0.13294601
231	0x3e854907	0.26032278
232	0xbdfb2de7	-0.122646146
233	0x3e5b51db	0.21417944
234	0x3bd7985d	0.0065794424
235	0xbebf24f8	-0.37332892
236	0xbeb00e91	-0.34386113
237	0xbea3dfa1	-0.32006553
238	0x3ea9318f	0.33045623
239	0xbd79cc3b	-0.060985785
240	0x3e516025	0.20446832
241	0x3ca139d8	0.019680902
242	0xbeb4f777	-0.3534505
243	0x3e3aa093	0.18225317
244	0x3d90d31c	0.07071516
245	0xbe828ce4	-0.25498116
246	0xbd337849	-0.043815885
247	0xbe4e36d8	-0.20138109
248	0xbcba5367	-0.022744847
249	0x3ee2f88f	0.4433026
250	0x3e9f80e1	0.31153014
251	0xbe8629d4	-0.26203787
252	0xbe75b23d	-0.23993774
253	0xbe9451b9	-0.289686
254	0x3e45d81c	0.1932072
255	0xbcf977e8	-0.030452684

node_encoder.lins.0.bias f4 [64]
0	0xbc0dfc79	-0.008666151
1	0x33e14119	1.048922e-07
2	0x334e9ec7	4.810752e-08
3	0x398b3b71	0.00026556433
4	0x3c8a25ba	0.016863693
5	0xbb809dcf	-0.0039250623
6	0xb8aba58b	-8.18475e-05
7	0x33b63cc1	8.4860865e-08
8	0xb389fe9b	-6.425872e-08
9	0xb56689f7	-8.588244e-07
10	0xb39c9a31	-7.292363e-08
11	0x3a54c2c6	0.00081161817
12	0x3ba50ed2	0.005037167
13	0xba0db6f6	-0.00054059864
14	0xb91734c7	-0.00014420143
15	0x378198be	1.5449124e-05
16	0xb8e1aeaa	-0.0001076137
17	0xb5788399	-9.25787e-07
18	0xbc053697	-0.008130691
19	0x382f5567	4.180279e-05
20	0x32204e8e	9.331087e-09
21	0xbb44f8a6	-0.0030055433
22	0x3c3f0314	0.011658449
23	0xbb9739d5	-0.0046150484
24	0x3684d35c	3.958512e-06
25	0xbb2881af	-0.0025712063
26	0xbbbd713c	-0.005781321
27	0x35854c2e	9.931443e-07
28	0x362b191e	2.5495606e-06
29	0xbba51559	-0.005037945
30	0xb59570a6	-1.113415e-06
31	0xb999798e	-0.00029273
32	0xb80dc213	-3.3797765e-05
33	0xb891d1b7	-6.953201e-05
34	0x3385f9b9	6.2387194e-08
35	0x3c2c126d	0.01050244
36	0xb91b43ad	-0.00014807163
37	0xbc4e1e46	-0.01258046
38	0x3424dc81	1.5353909e-07
39	0xb9d8eb80	-0.00041374192
40	0x3398c1d6	7.11331e-08
41	0x3901a05e	0.0001236214
42	0xba956e38	-0.0011400646
43	0x3b468cda	0.0030296356
44	0xbc6eace3	-0.014567587
45	0xb37a33a2	-5.825462e-08
46	0x360b32ca	2.0742177e-06
47	0xb90143a8	-0.00012327603
48	0xba9910c1	-0.0011677967
49	0x3400cece	1.1996164e-07
50	0x34b288e6	3.325469e-07
51	0xbcc54d3e	-0.024084684
52	0xbb94f141	-0.0045453613
53	0x34394da7	1.7257717e-07
54	0xbbd1fcf0	-0.0064083263
55	0xba1ec78e	-0.00060569576
56	0xbc6d16a7	-0.014470733
57	0xbc00ec9a	-0.00786891
58	0xb287e272	-1.5819044e-08
59	0xb551bf8c	-7.8137305e-07
60	0xb4c1a56a	-3.6069406e-07
61	0x33b80e5f	8.570782e-08
62	0xb4885c52	-2.5399146e-07
63	0x3af55143	0.0018716234

node_encoder.lins.1.weight f4 [128, 64]
0	0x3ce1fe1f	0.027586995
1	0xbd58edcc	-0.052961156
2	0xbde4dcef	-0.11174952
3	0xbd06ed51	-0.032941166
4	0x3c43bc7c	0.011946794
5	0x3cd207de	0.025638517
6	0xbdec954d	-0.11551914
7	0xbade9532	-0.001698172
8	0x3d2361c8	0.039888173
9	0xbd0acb5e	-0.033885352
10	0x3dd7b62b	0.10532793
11	0xbdafb203	-0.08578875
12	0x3cb49417	0.022043271
13	0x3d736034	0.05941792
14	0x3c981994	0.018566884
15	0x3d824af7	0.06361955
16	0x3cb94073	0.02261374
17	0xbd94ac92	-0.07259478
18	0xbd8a2a25	-0.0674632
19	0xbd402bac	-0.04691665
20	0x3d754c11	0.059886996
21	0xbd1e6dea	-0.03867904
22	0xbc6139d9	-0.013746702
23	0x3dbb1dce	0.09136544
24	0x3dd1e606	0.102489516
25	0x3d0fae3c	0.035078272
26	0x3d8a5b96	0.0675575
27	0x3da1d922	0.07902743
28	0x3e16587b	0.1468219
29	0xbd2ef8fb	-0.042717915
30	0xbb8e8ff3	-0.004350656
31	0xbd2d4f74	-0.0423121
32	0xbcec59f3	-0.028851485
33	0x3dde8999	0.108660884
34	0xbcf1b750	-0.029506356
35	0xbd983ac1	-0.074330814
36	0x3da5b4d8	0.08091134
37	0x3cad3d1a	0.0211473
38	0x3d53c38e	0.051700167
39	0x3df16bdd	0.117881514
40	0x3d55b21d	0.052171815
41	0xbd158690	-0.036505282
42	0x3d6a14eb	0.057148855
43	0x3d97c81d	0.074112155
44	0x3dd5f6bd	0.10447452
45	0x3d97472e	0.07386623
46	0x3d1ba770	0.038001478
47	0x3b9737a9	0.0046147895
48	0x3d8f4b0e	0.069967374
49	0xbd5d38fe	-0.05400943
50	0x3dd6a466	0.10480575
51	0x3d302766	0.043006323
52	0xbd3b7072	-0.045761533
53	0x3e01b727	0.12667523
54	0x3d399592	0.045308657
55	0xbc8f175d	-0.017467195
56	0x3d48925e	0.04896771
57	0x3cadf40e	0.021234538
58	0xbc084368	-0.008316852
59	0x3d93f713	0.0722486
60	0xbdb7faf2	-0.08983411
61	0x3dcf6cd0	0.10128176
62	0xbd21639c	-0.039401636
63	0x3c576f9b	0.013149167
64	0xbb9fe988	-0.004880134
65	0x3d881426	0.06644468
66	0xbcca3b87	-0.024686588
67	0xbdb7f54d	-0.08982334
68	0x3de8fa82	0.113759056
69	0x3da6d28d	0.08145628
70	0x3a99eddd	0.0011743862
71	0x3da47ca5	0.080315866
72	0x3def85a9	0.116954155
73	0x3d65541e	0.055988424
74	0x3d9b11a4	0.07571724
75	0xbdcf4475	-0.10120479
76	0x3dde2b2b	0.108480774
77	0x3d26660a	0.040624656
78	0xbd0baae1	-0.03409851
79	0x3d6fd03b	0.058548193
80	0x3c2b951d	0.010472563
81	0x3dda0bfb	0.10646816
82	0xbd5eee83	-0.05442668
83	0xbcf3af70	-0.029746741
84	0x3dfbeebd	0.12301395
85	0x3c8abd6d	0.016936028
86	0x3c836bb8	0.016042575
87	0xbc743df4	-0.014907349
88	0x3d757fa3	0.059936177
89	0xbd8a62a3	-0.06757095
90	0x3d293dbd	0.041318644
91	0xbdf511cc	-0.11966285
92	0x3becbe19	0.00722481
93	0xbd76c3ef	-0.06024545
94	0xbd34d50a	-0.044148482
95	0x3de8ce53	0.11367478
96	0x3c32444b	0.01088054
97	0x3d9901e4	0.07471064
98	0xbdedffd9	-0.11621065
99	0x3c208d27	0.009799278
100	0xbe002e68	-0.12517703
101	0x3d1040a0	0.03521788
102	0x3d708fd7	0.058730926
103	0x3d02bfab	0.03192107
104	0x3ddd7dc4	0.108150035
105	0x3d9f9b5d	0.07793305
106	0x3d1c28b3	0.03812475
107	0xbd6cbb49	-0.057795797
108	0x3dc07f76	0.09399311
109	0xbdcc8cac	-0.099877685
110	0xbcdf83c4	-0.02728451
111	0x3cf0438d	0.029329086
112	0x3de36164	0.1110256
113	0xbd33b75f	-0.04387605
114	0x3ca40741	0.02002299
115	0xbd925000	-0.07144165
116	0x3dc65618	0.0968439
117	0xbdc417be	-0.09574841
118	0xbc415a3f	-0.0118013015
119	0x3da4e090	0.080506444
120	0x3da2b69c	0.07944986
121	0x3c6330f5	0.013866653
122	0x3b8f45a3	0.004372315
123	0x3d42c97b	0.047555428
124	0x3db2aba8	0.08724147
125	0x3da2f261	0.07956386
126	0x3c41e0c7	0.011833376
127	0xbde10c6a	-0.10988696
128	0x3deafc42	0.114738956
129	0x3d94d913	0.07267966
130	0x3ded7778	0.115950525
131	0xbd1f47b2	-0.038886733
132	0x3da3b497	0.07993429
133	0xbd343b16	-0.04400166
134	0xbda61650	-0.081097245
135	0xbd35034b	-0.044192594
136	0xbd2f2e65	-0.042768855
137	0xbd64a08d	-0.055817176
138	0xbd5bddf4	-0.053678468
139	0x3d6ff3ae	0.058582
140	0x3dac6315	0.08417336
141	0xbdc35774	-0.09538165
142	0xbda74231	-0.08166922
143	0xbb58e9b9	-0.0033098294
144	0x3deff5f8	0.11716837
145	0xbd2c2611	-0.04202849
146	0xbd3beed2	-0.045882054
147	0xbd8fd52f	-0.070230834
148	0xbda5d8ac	-0.080979675
149	0x3c85618d	0.016281867
150	0x3d7777d6	0.06041702
151	0xbe0e488c	-0.13894862
152	0x3d43c38b	0.047793906
153	0x3de4bc71	0.11168755
154	0x3ba35634	0.0049846414
155	0x3d6417e8	0.05568686
156	0xbcd2e17a	-0.025742281
157	0x3cfaf34a	0.030633587
158	0x3ab49cf4	0.0013779686
159	0x3d08c1c1	0.033387903
160	0x3d25be6d	0.040464807
161	0x3de79d19	0.11309261
162	0x3d8a9f19	0.06768627
163	0x3de60791	0.11231912
164	0xbd6df639	-0.058096144
165	0x3db46fad	0.08810363
166	0xbd7f51ea	-0.06233398
167	0x3d136da2	0.035993226
168	0xbddb9d9b	-0.1072342
169	0xbd3ecae5	-0.046580214
170	0x3dcfbf72	0.10143937
171	0x3d32ec45	0.043682355
172	0xbd28d5c3	-0.041219484
173	0x3dd69d66	0.1047924
174	0xbcfafed5	-0.030639092
175	0x3b80d549	0.0039316756
176	0xbd9ee6cc	-0.07758865
177	0x3dd402b2	0.103520766
178	0x3da53fe4	0.08068827
179	0x3ce2cf57	0.027686758
180	0x3c820c9e	0.015875157
181	0xbe362018	-0.1778568
182	0xbd27c139	-0.040955756
183	0x3d5820f8	0.052765816
184	0xbd9acb60	-0.07558322
185	0xbdc99dcd	-0.09844551
186	0xbda4a212	-0.08038725
187	0xbdec6ae3	-0.115438245
188	0xbdda5e40	-0.10662508
189	0xbd21f12b	-0.039536636
190	0xbdb4d7b5	-0.08830205
191	0xbcfb0ed9	-0.030646728
192	0x3ddc03ea	0.10742934
193	0x3ddce316	0.10785501
194	0x3ca918ca	0.020641703
195	0x3cd7e032	0.026352022
196	0x3dea1765	0.114302434
197	0x3d71fe08	0.059080154
198	0x3db803a4	0.089850694
199	0x3df0a402	0.11750032
200	0xbdb53f53	-0.08849969
201	0xbde522e1	-0.11188293
202	0xbd39175e	-0.0451883
203	0x3d803bc1	0.06261397
204	0x3cf77b90	0.030210286
205	0xbd2a6915	-0.04160412
206	0x3db04e15	0.08608643
207	0xbd98b5b7	-0.07456534
208	0x3ca2fbcd	0.019895459
209	0x3cf9b11e	0.030479964
210	0xbd93b015	-0.07211319
211	0x3ca59f56	0.020217579
212	0x3d0d2744	0.034461275
213	0xbd66f7a8	-0.056388527
214	0xbd2c1c0a	-0.042018928
215	0x3e0175b6	0.1264256
216	0x3c8a5878	0.016887888
217	0xbd275fbf	-0.040862795
218	0xbd24ae3b	-0.04020522
219	0x3d40b358	0.047046036
220	0x3d37a966	0.044839285
221	0x3dd606b3	0.104504965
222	0x3dad5dc4	0.0846515
223	0xbe0373b2	-0.12837103
224	0xbde78d62	-0.113062635
225	0xbd70f600	-0.058828354
226	0x3d5eec7e	0.054424755
227	0x3dacdf4c	0.08441028
228	0x3da34581	0.07972241
229	0x3d76b72b	0.060233276
230	0x3dde2fc3	0.108489536
231	0x3dd30635	0.10303918
232	0x3d91ce64	0.07119444
233	0x3d8f1617	0.06986635
234	0xbc8290b8	-0.015938148
235	0x3d4d6e22	0.05015386
236	0x3de254aa	0.11051305
237	0xbd13321a	-0.035936452
238	0x3db63630	0.08897054
239	0x3d5095fe	0.050924294
240	0xbd319f94	-0.043365076
241	0xbdadbf60	-0.084837675
242	0xbdef2fa2	-0.11679007
243	0x3daa9cf6	0.08330719
244	0xbde610a9	-0.112336464
245	0x3c92244a	0.01783957
246	0x3dc51371	0.09622849
247	0xbdbe6a00	-0.09297562
248	0x3d8d0fdc	0.068877906
249	0x3dec717b	0.11545082
250	0xbd677bd0	-0.05651456
251	0x3ddb1f85	0.10699371
252	0x3db179da	0.086658195
253	0xbcaf67e2	-0.02141184
254	0xbcd43d89	-0.025908248
255	0xbc81cb0e	-0.015843894

node_encoder.lins.1.bias f4 [128]
0	0xb4af336b	-3.2633702e-07
1	0xb7268375	-9.924978e-06
2	0x3413155d	1.3698214e-07
3	0x350c4833	5.225913e-07
4	0xb48b3c34	-2.593457e-07
5	0x33482e06	4.6607987e-08
6	0x35179fd9	5.648449e-07
7	0x35926e1e	1.0909896e-06
8	0x352c0dc7	6.409504e-07
9	0x3449c34e	1.8790635e-07
10	0xb72de6c6	-1.0365335e-05
11	0x3401ae67	1.2077508e-07
12	0x351137cf	5.409792e-07
13	0x35638508	8.4757676e-07
14	0x3651b3dd	3.124812e-06
15	0xb4302fba	-1.640864e-07
16	0xb5a3431d	-1.2163979e-06
17	0x3583cca4	9.819819e-07
18	0xb534eb90	-6.7398014e-07
19	0x37189942	9.095589e-06
20	0xb49b64d2	-2.8944356e-07
21	0xb42db949	-1.6179287e-07
22	0xb624dce8	-2.4566489e-06
23	0xb5529055	-7.8441127e-07
24	0x35e03350	1.6704234e-06
25	0x359de185	1.1763046e-06
26	0xb513ac4c	-5.501249e-07
27	0x357953ab	9.288148e-07
28	0x358a6764	1.0311892e-06
29	0xb45de2b2	-2.06647e-07
30	0x352efb80	6.518603e-07
31	0x3568712e	8.6591433e-07
32	0xb584e966	-9.902694e-07
33	0xb449c915	-1.8792737e-07
34	0x353ebeb9	7.1058054e-07
35	0x33e874ad	1.0824565e-07
36	0xb59d680f	-1.1727697e-06
37	0xb401f009	-1.2101385e-07
38	0xb4a5993b	-3.0845135e-07
39	0xb36a05ee	-5.4487764e-08
40	0x35946ef6	1.1059153e-06
41	0xb5cdc019	-1.5329598e-06
42	0xb5e48903	-1.7027199e-06
43	0xb3e550ef	-1.0678365e-07
44	0xb38a0135	-6.426345e-08
45	0xb55c3206	-8.202918e-07
46	0xb52bf255	-6.4055104e-07
47	0x35036b07	4.895705e-07
48	0xb720e1b4	-9.589294e-06
49	0x36bc3e57	5.610094e-06
50	0xb60fdf1d	-2.143853e-06
51	0x3584ddf3	9.899362e-07
52	0xb49f5695	-2.9679055e-07
53	0xb4012397	-1.2027009e-07
54	0xb5a4d007	-1.2279496e-06
55	0x35c9d951	1.5038914e-06
56	0x34eeab05	4.4455388e-07
57	0xb2f9522c	-2.9024783e-08
58	0xb29b937c	-1.8111443e-08
59	0xb5afebb2	-1.3107112e-06
60	0xb555c80a	-7.963978e-07
61	0x369aaa19	4.6093596e-06
62	0x37f6cbde	2.9420418e-05
63	0x347473a0	2.2766335e-07
64	0x36d5c067	6.3702932e-06
65	0xb5c44acb	-1.4624906e-06
66	0xb5820c8d	-9.689408e-07
67	0x34cad087	3.7777156e-07
68	0xb6471f0f	-2.967139e-06
69	0x35213c41	6.0064855e-07
70	0x32539e7b	1.2317851e-08
71	0x361b9453	2.3183136e-06
72	0xb4124b41	-1.3624687e-07
73	0x36af465f	5.2235987e-06
74	0x36d5ef0b	6.375723e-06
75	0xb52d0997	-6.446148e-07
76	0x34fe6c45	4.7389963e-07
77	0xb62c7188	-2.5696081e-06
78	0x368662ca	4.0050118e-06
79	0xb5686e7f	-8.658753e-07
80	0xb49240dd	-2.7241813e-07
81	0x34bec666	3.5534612e-07
82	0xb5b7c4ca	-1.3691836e-06
83	0x34e9c323	4.3541613e-07
84	0xb5609e16	-8.367655e-07
85	0xb59680f7	-1.1213405e-06
86	0xb6045677	-1.9719862e-06
87	0x33d133c5	9.741738e-08
88	0x3563096c	8.45778e-07
89	0x3562276e	8.424894e-07
90	0x35d6ea17	1.6012372e-06
91	0xb654f843	-3.173497e-06
92	0x368da6ad	4.221531e-06
93	0x353d519c	7.0526744e-07
94	0x36029d95	1.9463234e-06
95	0xb54cbc2c	-7.626975e-07
96	0xb558e968	-8.080592e-07
97	0x368636cb	3.99989e-06
98	0x340ab744	1.2918923e-07
99	0xb5462edc	-7.382894e-07
100	0x34f258c8	4.514061e-07
101	0x34bef8a9	3.5571182e-07
102	0x3380ee7e	6.003846e-08
103	0xb4303560	-1.6410695e-07
104	0x348a9f54	2.582043e-07
105	0xb370553a	-5.5956868e-08
106	0xb3fa191d	-1.16461e-07
107	0xb533208b	-6.673005e-07
108	0xb5323900	-6.6393113e-07
109	0x34902250	2.6847056e-07
110	0x3690e315	4.3179703e-06
111	0x351d93cf	5.870215e-07
112	0x347c91a2	2.352231e-07
113	0xb694b2ba	-4.43155e-06
114	0xb5b4a55a	-1.3459169e-06
115	0x373ac91e	1.113329e-05
116	0x364292f3	2.8993788e-06
117	0x3619eb8b	2.293588e-06
118	0x352cfce1	6.444298e-07
119	0xb3e8ad2f	-1.0834844e-07
120	0xb513fa86	-5.5126327e-07
121	0x33289267	3.92487e-08
122	0xb50f7db8	-5.3454596e-07
123	0xb57ede47	-9.494583e-07
124	0x36a6cc92	4.9710006e-06
125	0xb63ced1a	-2.8152194e-06
126	0x359fa9c6	1.1895834e-06
127	0x363f1eb6	2.8479094e-06

node_encoder.lins.2.weight f4 [128, 128]
0	0xbd85bd27	-0.065302186
1	0x3d8dc362	0.06922032
2	0x3cf15fd3	0.029464638
3	0x3d1b0cfa	0.037854172
4	0xbd86db0d	-0.06584749
5	0xbd42a86b	-0.047523897
6	0xbd9226bf	-0.071362965
7	0x3d4ef9d3	0.05053122
8	0x3ca17d0a	0.019712944
9	0x3c80f439	0.015741454
10	0xbcefa630	-0.029254049
11	0xbd76ee47	-0.060285833
12	0xbcffb932	-0.031216238
13	0xbd93e9ee	-0.07222353
14	0xbbc8c19e	-0.0061265966
15	0xbc87aacd	-0.016560936
16	0xbd8a166d	-0.06742559
17	0xbd1544eb	-0.03644268
18	0xbd6cba42	-0.057794817
19	0xbd25a449	-0.040439878
20	0x3d1b25a3	0.03787769
21	0xbc7faf87	-0.015605814
22	0x3d52e4b5	0.051487643
23	0xbb3d4976	-0.0028882897
24	0x3d9532e3	0.072850965
25	0xbd24658c	-0.040135905
26	0x3cc489fa	0.023991574
27	0xbd829c4f	-0.0637747
28	0x3cb11647	0.021617068
29	0xbd557727	-0.052115586
30	0xbd7e1c38	-0.06203863
31	0xbd50bb12	-0.050959654
32	0xbd478972	-0.048715062
33	0x3d33ee2b	0.043928307
34	0x3cb25ce6	0.021772813
35	0xbbf97ec9	-0.007613991
36	0xbce3a3da	-0.027788091
37	0x3dc0fd9a	0.09423371
38	0xbd097420	-0.03355801
39	0xbdb8fbef	-0.090324275
40	0xbd279f55	-0.040923435
41	0x3d72e40c	0.059299514
42	0x3d9cf057	0.07663029
43	0xbd2a205e	-0.041534774
44	0xbd730e47	-0.059339788
45	0x3d9188d6	0.071061775
46	0xbd812285	-0.06305412
47	0xbdb35b7c	-0.08757684
48	0xbd78302c	-0.060592815
49	0x3d332b37	0.043742385
50	0x3da71df1	0.08160008
51	0xbcff28a6	-0.031147312
52	0xbcefc3dc	-0.029268198
53	0x3c895144	0.016762383
54	0xbd893ca8	-0.067010224
55	0x3d19496b	0.037423532
56	0x3ae73077	0.0017638345
57	0x3da240a0	0.079224825
58	0x3d7b7522	0.061391003
59	0x3a88ee5c	0.0010447013
60	0xbd3c1a61	-0.045923594
61	0x3d92ad6f	0.07161986
62	0xbbc1c8e4	-0.0059138406
63	0xbd921887	-0.071335845
64	0xbd4a975a	-0.049460746
65	0x3db073a8	0.0861581
66	0xbce0a8a8	-0.027424172
67	0x3cff4521	0.031160893
68	0xbca40e2a	-0.020026285
69	0xbcc40958	-0.023930237
70	0xbbaf81e5	-0.005356061
71	0xbcb7543d	-0.022379035
72	0xbd3986c5	-0.045294542
73	0xbdcb1a4b	-0.09917124
74	0x3cf22780	0.02955985
75	0x3d8c9ef8	0.068662584
76	0x3d27b673	0.04094548
77	0x3d6ba308	0.057528526
78	0xbd9dc3d6	-0.07703368
79	0x3daad613	0.08341613
80	0x3d3e6dfc	0.046491608
81	0x3cd5236a	0.026017863
82	0x3db5c436	0.08875315
83	0xbd828abf	-0.0637412
84	0xbd7afd74	-0.061276868
85	0xbc42e1c3	-0.011894646
86	0x3d3ab4a2	0.04558242
87	0x3ceb0650	0.028689533
88	0xbc8d3158	-0.017235443
89	0x3cf55bd7	0.02995102
90	0xbd56077f	-0.052253243
91	0xbcdf15c8	-0.027232066
92	0x3d869c61	0.06572796
93	0x3cd06586	0.025439035
94	0xbd44c555	-0.048039753
95	0x3d450a52	0.048105545
96	0x3da862bf	0.08221959
97	0x3da56356	0.080755875
98	0xbd1b7717	-0.03795537
99	0x3d5df5a4	0.05418934
100	0xbd9aec5e	-0.07564615
101	0xbd1fc28e	-0.0390039
102	0x3c2faa57	0.0107217645
103	0xbc2de3a2	-0.010613354
104	0x3d78b8e9	0.06072322
105	0x3b816b71	0.0039495756
106	0x3d4415c4	0.04787232
107	0xbb96217f	-0.0045816298
108	0x3d5b55c5	0.053548593
109	0x3dc0a19d	0.09405825
110	0xbb33bdb7	-0.0027426311
111	0x3c8455af	0.016154138
112	0x3c0e9e5f	0.008704751
113	0x3d646df3	0.05576892
114	0xbd7780bf	-0.060425516
115	0x3da0deae	0.07854973
116	0x3dca74fc	0.09885594
117	0xbd13c783	-0.03607894
118	0xbdacc5c9	-0.08436162
119	0x3d80cb18	0.06288737
120	0x3bf9fc60	0.0076289624
121	0x3af9d8f9	0.0019061855
122	0xbd6286b5	-0.055304248
123	0xbda123a5	-0.07868127
124	0x3d81b26b	0.06332859
125	0xbdbcfcbf	-0.09227895
126	0xbd799cbe	-0.060940497
127	0xbd36a3ce	-0.04458981
128	0xbd77cac3	-0.060496103
129	0xbd8d0068	-0.06884843
130	0xbbf01239	-0.007326391
131	0xbce5fb4d	-0.028073931
132	0xbc790bad	-0.015200538
133	0x3ce4a25d	0.027909452
134	0xbd83e601	-0.06440354
135	0x3c6301ad	0.01385538
136	0x3d8be426	0.06830625
137	0xbd6425b1	-0.055700008
138	0x3dac4b50	0.08412802
139	0xbd867cdd	-0.065667845
140	0xbc8f3a9a	-0.017483998
141	0x3d4b5dd6	0.049650036
142	0xbdbb06a2	-0.091321245
143	0x3d1ca525	0.03824343
144	0x3c94e09e	0.018173512
145	0xbcb3987d	-0.021923298
146	0x3c758b2a	0.014986793
147	0x3ce41ad2	0.02784482
148	0xbd24d792	-0.040244646
149	0xbda45c99	-0.08025474
150	0x3c3c012a	0.011474887
151	0xbd453172	-0.048142858
152	0xbd01040c	-0.031498
153	0xbd49d557	-0.049275722
154	0x3d01747a	0.03160522
155	0xbd8602e0	-0.06543517
156	0xbd99b08d	-0.075043775
157	0x3d2d33ec	0.042285845
158	0x3d05b14b	0.032639783
159	0x3d882bd9	0.06648988
160	0xbd955909	-0.07292373
161	0x3cc2b15a	0.023766208
162	0x3db0a319	0.086248584
163	0x3dacf624	0.08445385
164	0xbda557bd	-0.080733754
165	0xbd760866	-0.060066603
166	0xbd64f186	-0.055894397
167	0x3d1e58ca	0.038658895
168	0xbd96c12f	-0.073610656
169	0xbdbfc355	-0.093634285
170	0xbd914e3d	-0.07095001
171	0xbc8e1a06	-0.017346393
172	0x3d7c253e	0.061558954
173	0xbd62f909	-0.05541328
174	0xbd9575c1	-0.072978504
175	0x3d7ca04d	0.061676312
176	0xbddf19cb	-0.108935915
177	0x3d09db62	0.033656485
178	0xbceb15d3	-0.02869693
179	0x3d8be86c	0.0683144
180	0x3d8aa0a3	0.0676892
181	0x3d9be288	0.07611567
182	0xbd0fb68a	-0.035086192
183	0xbd0c0142	-0.034180887
184	0x3d10a3df	0.03531253
185	0xbd50ccd1	-0.05097658
186	0x3d8489a1	0.06471563
187	0x3bd7a26e	0.0065806424
188	0xbcd2f989	-0.025753753
189	0x3a7c3b50	0.00096218754
190	0xbc46c8d8	-0.012132846
191	0xbd96e025	-0.07366971
192	0x3d3cb459	0.04607043
193	0x3bd994db	0.0066400594
194	0x3dad50b5	0.08462659
195	0xbc66e563	-0.014092776
196	0xbd482931	-0.04886741
197	0xbda4047f	-0.0800867
198	0x3d127f73	0.035766076
199	0xbc89528a	-0.01676299
200	0x3d669936	0.056298457
201	0xbd248776	-0.040168248
202	0xbd2eeb2d	-0.04270475
203	0x39ea2c09	0.00044664767
204	0x3d8a3ef2	0.06750287
205	0xbd030e87	-0.031996276
206	0x3d721310	0.05910021
207	0xbd4b0988	-0.049569637
208	0xbd798cde	-0.060925357
209	0x3da221e8	0.07916623
210	0xbd1120b4	-0.03543158
211	0xbbc9ee5e	-0.006162449
212	0x3d4b632f	0.049655136
213	0xbda22261	-0.079167135
214	0x3d26b8ed	0.040703703
215	0x3da0e971	0.078570254
216	0x3d25b7ab	0.040458363
217	0xbd5c1b94	-0.053737238
218	0x3d20938e	0.03920322
219	0xbd3532ce	-0.044237904
220	0x3be77b58	0.0070642643
221	0x3d01768f	0.031607207
222	0xbce79ac4	-0.02827204
223	0x3d892fad	0.066985466
224	0xbbe125b8	-0.0068709515
225	0x3dbd9211	0.092563756
226	0x3d4a09ce	0.049325757
227	0xbd0c7440	-0.034290552
228	0x3c1c422d	0.009537262
229	0x3ce678ac	0.028133713
230	0x3d2cec0c	0.0422173
231	0xbd63f4c8	-0.055653363
232	0xbd20ba8a	-0.039240398
233	0x3da1c6a0	0.07899213
234	0xbd760aa9	-0.06006876
235	0x3db67c99	0.08910484
236	0xbbf20ef6	-0.0073870374
237	0xbd4b9a02	-0.04970742
238	0x3cf242bc	0.029572837
239	0xbd230f09	-0.03980926
240	0x3d9ba5d1	0.07599986
241	0xbba8c6cb	-0.005150651
242	0x3d935180	0.07193279
243	0x3d7a25a5	0.061071057
244	0x3d97de07	0.07415395
245	0xbd4f58d6	-0.05062183
246	0x3d8f78d2	0.070054665
247	0xbbbf7ea8	-0.005843956
248	0x3d4890e3	0.0489663
249	0xbd9acd7f	-0.075587265
250	0xbd4c1dfd	-0.049833287
251	0x3d6f86c4	0.058478132
252	0xbd7304e2	-0.05933083
253	0xbcb2e45f	-0.021837411
254	0xbd9d5aaa	-0.076833084
255	0xba958635	-0.0011407795

node_encoder.lins.2.bias f4 [128]
0	0x3d461b4c	0.048365876
1	0xbde7928c	-0.113072485
2	0xbe0425d8	-0.12905061
3	0x3d1dd20a	0.038530387
4	0xbda0bd79	-0.07848639
5	0xbd411af3	-0.04714484
6	0x3cbaff09	0.022826688
7	0x3c125e99	0.008933687
8	0x3d42ee47	0.04759052
9	0x3c37ef99	0.011226558
10	0x3d0af231	0.033922378
11	0xbda1ae82	-0.07894613
12	0xbd5f3be0	-0.05450046
13	0x3cd20d4d	0.025641108
14	0xbd56c65e	-0.05243527
15	0xbdc91d63	-0.09820058
16	0x3cc8ef5b	0.024528196
17	0xbb22c121	-0.0024834352
18	0xbd14a11a	-0.03628645
19	0xbd8a7052	-0.06759705
20	0x3d0422e8	0.03225985
21	0xbc87fde5	-0.016600559
22	0x3de36aab	0.1110433
23	0xbdb94a54	-0.0904738
24	0xbd975057	-0.073883705
25	0x3d6dbbcd	0.05804043
26	0xbd1dbea8	-0.038511902
27	0xbc200537	-0.009766868
28	0xbd8ce8ce	-0.068803415
29	0xbcbb29d1	-0.022847088
30	0xbcce01c6	-0.02514733
31	0xbd8d53f2	-0.06900777
32	0xbdf147d2	-0.11781277
33	0x3d806ac5	0.06270365
34	0xbda81c08	-0.082084715
35	0xbc94ad0f	-0.018148927
36	0xbd430a14	-0.047617033
37	0xbdc8f049	-0.09811456
38	0xbd269a2e	-0.04067438
39	0x3dbf7714	0.09348884
40	0xbd79acb2	-0.06095571
41	0x3c116b17	0.00887563
42	0xbb4b9f88	-0.003107043
43	0x3a066d58	0.0005127988
44	0x3bcdd014	0.0062809084
45	0x3d1ed8a1	0.038780812
46	0xbdf10481	-0.11768437
47	0xbdafa722	-0.085768
48	0xbcdb60cb	-0.026779553
49	0xbcc1507e	-0.023597952
50	0xbdba3280	-0.09091663
51	0xbda5ee05	-0.08102039
52	0xbe1bb88b	-0.15207116
53	0xbd172a44	-0.036905542
54	0xbd62ebed	-0.055400778
55	0xbd90bcd6	-0.070672676
56	0x3cca912a	0.024727423
57	0xbdb6219d	-0.0889313
58	0x3c94bc0a	0.01815607
59	0x3d001e3d	0.031278837
60	0xbdaf8850	-0.085709214
61	0xbcf09d25	-0.029371807
62	0xbbf5d490	-0.007502146
63	0xbdb403e2	-0.08789803
64	0xbd5951b0	-0.05305642
65	0xbd485c2d	-0.04891603
66	0xbc973491	-0.018457683
67	0x3d93a3ea	0.072089985
68	0x3c8d6152	0.01725832
69	0xbcac94be	-0.02106702
70	0xbdf93651	-0.12168563
71	0xbd71b6d8	-0.059012264
72	0x3ce22625	0.02760608
73	0xbde637b0	-0.1124109
74	0xbdd52f88	-0.104094565
75	0x3d953268	0.07285005
76	0xbd7be4fb	-0.06149767
77	0x3d7d18df	0.061791297
78	0x3c27df05	0.010246043
79	0xbdff5c38	-0.12468761
80	0x3d755998	0.059899896
81	0xbe05e994	-0.13077384
82	0xbcc338f1	-0.023830863
83	0x3b7a1647	0.003816025
84	0xbdb790c8	-0.08963162
85	0x3ca0dcb1	0.019636484
86	0xbd4c88f1	-0.049935285
87	0x3d36333f	0.044482466
88	0xbd696eb4	-0.05699034
89	0xbdb871ea	-0.090061024
90	0xbd152cb4	-0.036419585
91	0xbd8e32e0	-0.069432974
92	0x3d1cb7bf	0.03826117
93	0x3c4d8361	0.01254353
94	0xbdea096f	-0.114275806
95	0xbdf3b4a1	-0.118996866
96	0xbd4da4e3	-0.050206076
97	0xbd158a07	-0.036508586
98	0xbcc12c2d	-0.023580635
99	0xbd800048	-0.06250054
100	0xbdb82f9d	-0.089934565
101	0xbdc9916d	-0.09842191
102	0x3d988e21	0.07448984
103	0xbd83ada6	-0.06429605
104	0xbd7c3ee2	-0.061583407
105	0x3d597ada	0.053095676
106	0xbdb4b63f	-0.08823823
107	0x3d5fc1dd	0.05462824
108	0xbb1e9196	-0.0024195663
109	0xbcc86b74	-0.0244653
110	0xbd5fa75a	-0.05460296
111	0xbcfec7d7	-0.03110115
112	0x3d2619a3	0.040551793
113	0xbd3e8318	-0.04651174
114	0x3cd68dc4	0.026190646
115	0xbde19584	-0.11014846
116	0xbd1e4818	-0.038642973
117	0xbda5bfcb	-0.08093222
118	0xbd169b60	-0.03676927
119	0xbd0de474	-0.034641698
120	0x3c6bd5b8	0.014394216
121	0xbd7c7a6b	-0.061640184
122	0xbcb7c911	-0.022434743
123	0xbda0c94d	-0.07850895
124	0xbd712aeb	-0.05887882
125	0xbdae2b5f	-0.08504366
126	0xbe03ef97	-0.12884365
127	0xbd964c2c	-0.073387474

node_encoder.norms.0.module.weight f4 [64]
0	0x3f76a040	0.9633827
1	0x3f78b33d	0.97148496
2	0x3f7bdd5c	0.9838464
3	0x3f792d97	0.9733519
4	0x3f7e0316	0.9922346
5	0x3f7d058c	0.9883659
6	0x3f74aa4f	0.9557237
7	0x3f7c7a02	0.9862367
8	0x3f6edf43	0.9330942
9	0x3f78c967	0.97182316
10	0x3f76a454	0.96344495
11	0x3f7ac2c9	0.9795347
12	0x3f76e3f0	0.96441555
13	0x3f7b167c	0.98081183
14	0x3f7df902	0.9920808
15	0x3f749504	0.9553988
16	0x3f78e49f	0.9722385
17	0x3f79e4c2	0.9761468
18	0x3f725f55	0.94676715
19	0x3f79e9da	0.97622454
20	0x3f78a458	0.9712577
21	0x3f766c7b	0.9625928
22	0x3f7be29c	0.98392653
23	0x3f7d0de1	0.988493
24	0x3f758b49	0.9591566
25	0x3f751222	0.95730793
26	0x3f747a1f	0.9549884
27	0x3f799482	0.9749223
28	0x3f7f7d76	0.99800813
29	0x3f78c32b	0.971728
30	0x3f806c5d	1.003307
31	0x3f7c34e5	0.9851821
32	0x3f79b22a	0.9753748
33	0x3f799147	0.974873
34	0x3f794d00	0.9738312
35	0x3f7ee83a	0.995731
36	0x3f82c33c	1.0215831
37	0x3f71eafa	0.9449917
38	0x3f788517	0.9707808
39	0x3f7c3d5d	0.9853113
40	0x3f7cb5c8	0.98714876
41	0x3f7959df	0.9740276
42	0x3f75814a	0.95900404
43	0x3f791bb5	0.973079
44	0x3f78cc76	0.9718698
45	0x3f793098	0.97339773
46	0x3f8719a4	1.05547
47	0x3f77464c	0.9659164
48	0x3f7f62a9	0.9975992
49	0x3f773e84	0.96579766
50	0x3f7aed54	0.98018384
51	0x3f76f88c	0.96473
52	0x3f724bf1	0.9464713
53	0x3f7c2809	0.9849859
54	0x3f81063f	1.0080031
55	0x3f7aceeb	0.9797198
56	0x3f76c729	0.96397644
57	0x3f7956e3	0.97398204
58	0x3f7db6c0	0.9910698
59	0x3f78e154	0.97218823
60	0x3f78459b	0.9698121
61	0x3f812ea9	1.0092365
62	0x3f7b8538	0.9825015
63	0x3f781d20	0.9691944

node_encoder.norms.0.module.bias f4 [64]
0	0x3b8467dd	0.004040702
1	0x3d5df0c2	0.054184683
2	0x3c957414	0.018243827
3	0x3c982884	0.018574007
4	0x3cda600a	0.026657123
5	0x3d5fbbbb	0.054622393
6	0x3bfa2db9	0.007634845
7	0xbd01940c	-0.03163533
8	0x3c7701e0	0.015076131
9	0xbd5ce7ca	-0.05393199
10	0xbd054590	-0.032537043
11	0xbca0eb05	-0.019643316
12	0x3c96fa4e	0.018429901
13	0xbbb121d5	-0.0054056444
14	0x3c275849	0.01021392
15	0x3d60a69f	0.054846402
16	0xbd78622b	-0.060640495
17	0xbbae5202	-0.0053198347
18	0xbd70d280	-0.0587945
19	0x3d422814	0.047401503
20	0x3c90d907	0.017681612
21	0x3d0e787e	0.03478288
22	0xbc8055e9	-0.015665965
23	0x3b886251	0.004162111
24	0x3cc2efe6	0.023796033
25	0x3d79ff90	0.06103474
26	0xbc4455d6	-0.0119833555
27	0xbd0d4ce7	-0.034497168
28	0x3c7e37c9	0.01551623
29	0xbcdb2f7d	-0.026756043
30	0x3bda5673	0.0066631376
31	0x3d8024e7	0.062570386
32	0x3c87b813	0.016567266
33	0xbc6f6d93	-0.014613527
34	0x3c5cd020	0.013477355
35	0xbc574b5b	-0.013140525
36	0xbd8ec9ba	-0.0697207
37	0x3d6e2a5b	0.058145862
38	0xbc333724	-0.0109384395
39	0xbca8f7b9	-0.020625936
40	0xbb1680d5	-0.0022964973
41	0xbd0b4a64	-0.03400649
42	0x3c1e2ede	0.009654729
43	0xbc36e81b	-0.011163737
44	0xbc08080e	-0.008302702
45	0xbc921c5d	-0.01783579
46	0x3bfb377c	0.0076665264
47	0xbca5fd81	-0.020262482
48	0xbd7c1227	-0.06154075
49	0x3ca680a0	0.020325005
50	0x3d79c7ae	0.060981445
51	0xbd75d30e	-0.06001573
52	0x3c9f85c3	0.019472962
53	0x3c2d619e	0.010582356
54	0x3d3e95c6	0.046529554
55	0xbd0bc7f6	-0.034126244
56	0xbd356a29	-0.044290695
57	0x3c3c96a2	0.011510523
58	0xbcdccd71	-0.02695343
59	0xbcad1a74	-0.021130778
60	0x3ca6e981	0.020375015
61	0x3d225762	0.039634116
62	0xbaf45df4	-0.0018643723
63	0xba95af78	-0.0011420092

node_encoder.norms.0.module.running_mean f4 [64]
0	0xbe1f66ee	-0.15566608
1	0x3e081feb	0.13293426
2	0xbe296a72	-0.16544512
3	0x3d6b5bf8	0.057460755
4	0x3c2091c3	0.009800377
5	0xbd78e018	-0.060760587
6	0x3d72e6ac	0.059302017
7	0xbe458607	-0.19289409
8	0xbd6b1101	-0.057389263
9	0xbd78e75f	-0.060767528
10	0x3e47b963	0.19504313
11	0xbd9eb051	-0.077484734
12	0xbe04371e	-0.1291165
13	0x3e2ac406	0.1667634
14	0x3d9c7f08	0.07641417
15	0x3e3a504a	0.1819469
16	0xbcb42a6f	-0.02199289
17	0xbdb9bbcb	-0.09069022
18	0x3de17fe0	0.11010718
19	0x3c89e0b0	0.016830772
20	0x3dd5e7b3	0.10444584
21	0x3e6d32a1	0.23163845
22	0xbe10d619	-0.14144172
23	0xbda20175	-0.07910434
24	0xbe4eae0d	-0.20183583
25	0xbd2909cd	-0.041269112
26	0x3e389ed8	0.18029344
27	0x3dc83bce	0.09777032
28	0x3b1db261	0.002406262
29	0x3e15cbed	0.14628573
30	0xbdf2d2d5	-0.11856619
31	0x3dd26511	0.10273183
32	0x3da1ff12	0.07909979
33	0x3e4e7012	0.20159939
34	0x3e5db0af	0.2164943
35	0xbe30b3fc	-0.17256159
36	0x3d6ddfe0	0.058074832
37	0x3e0e6cda	0.13908711
38	0x3db28791	0.087172635
39	0xbdc262f8	-0.09491533
40	0x3e5c7dd5	0.21532376
41	0xbddc43fc	-0.107551545
42	0xbdc0c85f	-0.09413218
43	0xbe05d172	-0.13068178
44	0x3e24f6de	0.16109797
45	0x3e227cc9	0.15867914
46	0xbccd919e	-0.02509385
47	0xbcdfddc1	-0.02732742
48	0xbce6a9f2	-0.028157208
49	0x3cfda8a3	0.030964201
50	0x3d828a65	0.06374053
51	0xbd5741ac	-0.052552864
52	0xbce82ebc	-0.028342597
53	0x3d82c5b1	0.06385363
54	0xbdb9b075	-0.0906686
55	0xbe82ffd4	-0.25585806
56	0xbe56931e	-0.20954558
57	0x3e3524ba	0.17689791
58	0xbe2be0bd	-0.1678495
59	0xbe23f9f2	-0.16013315
60	0xbd910975	-0.07081882
61	0xbcff0eb3	-0.031134939
62	0x3e0cc4a1	0.13746883
63	0xbe1114f2	-0.14168146

node_encoder.norms.0.module.running_var f4 [64]
0	0x4220eb68	40.22989
1	0x41fdfb42	31.747684
2	0x41cb2f98	25.39824
3	0x4230fa98	44.24472
4	0x40294095	2.6445668
5	0x417722d7	15.446006
6	0x419bd9a8	19.481277
7	0x423cda63	47.21327
8	0x419cd2d1	19.602938
9	0x41935c2a	18.420002
10	0x420530ea	33.297768
11	0x41f24d98	30.287888
12	0x423caeee	47.17083
13	0x4204eff0	33.234314
14	0x41d772e0	26.931091
15	0x419354f7	18.416487
16	0x41b41488	22.510025
17	0x425596db	53.39732
18	0x41c4a789	24.581804
19	0x41c1a151	24.203768
20	0x40cb97e3	6.362291
21	0x41ec763f	29.557737
22	0x41aaccc3	21.349981
23	0x4160d61c	14.052273
24	0x41c2f6cb	24.370504
25	0x41177dac	9.468182
26	0x422701f1	41.751896
27	0x41ee6fa8	29.80452
28	0x3de6f190	0.11276543
29	0x4190b92f	18.090422
30	0x4176c49b	15.422999
31	0x417dadc0	15.854919
32	0x4273596d	60.83733
33	0x41c2a6cf	24.33145
34	0x41e3d660	28.479675
35	0x41a286eb	20.315878
36	0x41f176e0	30.183044
37	0x41e4949e	28.572567
38	0x42530f2d	52.76482
39	0x41fb8665	31.440622
40	0x41d2f624	26.370186
41	0x41932679	18.393785
42	0x425e5c3c	55.590073
43	0x418ba66e	17.456264
44	0x41a048e4	20.035591
45	0x41964fa5	18.788889
46	0x3f9a11bb	1.2036661
47	0x423a2018	46.53134
48	0x41b3e368	22.486038
49	0x42035e54	32.842117
50	0x41711b5a	15.069178
51	0x40ccf52d	6.4049287
52	0x4205cd62	33.45057
53	0x40b7be7c	5.7420025
54	0x4245e315	49.47176
55	0x420f580b	35.83598
56	0x421c0564	39.005264
57	0x420b76a2	34.865852
58	0x421b1c0d	38.777393
59	0x41db7816	27.433636
60	0x422186c9	40.381626
61	0x40afee91	5.497872
62	0x41ef921f	29.946348
63	0x419b462b	19.409262

node_encoder.norms.1.module.weight f4 [128]
0	0x3f6277e7	0.88464206
1	0x3f6cac4c	0.92450404
2	0x3f80ec73	1.0072159
3	0x3f68097c	0.9063947
4	0x3f740e3b	0.95334214
5	0x3f66ba98	0.9012847
6	0x3f70abad	0.94011956
7	0x3f756018	0.9584975
8	0x3f713fa5	0.9423774
9	0x3f68a2dc	0.90873504
10	0x3f7839fd	0.96963483
11	0x3f69d348	0.91338015
12	0x3f60b61a	0.87777865
13	0x3f69c732	0.9131957
14	0x3f7f67d1	0.99767786
15	0x3f607952	0.8768512
16	0x3f724f3e	0.94652164
17	0x3f6aa04a	0.9165083
18	0x3f6c8502	0.92390454
19	0x3f7afb5f	0.9803981
20	0x3f7f2a7d	0.99674207
21	0x3f616c89	0.88056237
22	0x3f6fee55	0.9372304
23	0x3f6f83cf	0.935605
24	0x3f717018	0.94311666
25	0x3f7ac3e4	0.97955155
26	0x3f6b9fc3	0.9204065
27	0x3f7c58a7	0.9857277
28	0x3f6580cf	0.8964967
29	0x3f707aa7	0.9393715
30	0x3f6ef538	0.93342924
31	0x3f7a62e1	0.9780713
32	0x3f6933d4	0.9109471
33	0x3f63600f	0.8881845
34	0x3f63e882	0.89026654
35	0x3f75c60b	0.96005315
36	0x3f6f3ca0	0.9345188
37	0x3f69653a	0.91170084
38	0x3f7d7ea6	0.99021375
39	0x3f7bf671	0.98422915
40	0x3f7266c5	0.94688064
41	0x3f70fe96	0.9413847
42	0x3f78b8c1	0.9715691
43	0x3f6cab7a	0.9244915
44	0x3f7d3771	0.9891272
45	0x3f6126f8	0.87950087
46	0x3f72e6fc	0.94883704
47	0x3f705a9b	0.9388825
48	0x3f82cc90	1.0218678
49	0x3f70c183	0.94045275
50	0x3f80b5c6	1.0055473
51	0x3f7ffca5	0.9999488
52	0x3f78a81a	0.971315
53	0x3f7f0fed	0.99633676
54	0x3f7fc023	0.9990255
55	0x3f6b04b2	0.9180404
56	0x3f716104	0.9428866
57	0x3f8921ce	1.0713441
58	0x3f7420f6	0.95362794
59	0x3f81b5c1	1.0133592
60	0x3f7a612e	0.97804534
61	0x3f75c43f	0.9600257
62	0x3f608e38	0.8771701
63	0x3f6304a0	0.8867893
64	0x3f7f4f3e	0.9973029
65	0x3f6b5d45	0.91939193
66	0x3f71f812	0.9451915
67	0x3f698599	0.9121948
68	0x3f79f88f	0.97644895
69	0x3f75794c	0.9588821
70	0x3f775cc3	0.9662592
71	0x3f81017a	1.0078576
72	0x3f7297ed	0.9476307
73	0x3f6c3977	0.92275184
74	0x3f74e010	0.9565439
75	0x3f70d79c	0.94078994
76	0x3f6f33cf	0.9343843
77	0x3f64d291	0.893838
78	0x3f78eee7	0.97239536
79	0x3f6b5430	0.91925335
80	0x3f81468e	1.0099657
81	0x3f77b045	0.9675334
82	0x3f6f707f	0.9353103
83	0x3f6b59f5	0.9193414
84	0x3f844560	1.0333672
85	0x3f82f77c	1.0231776
86	0x3f73015e	0.9492396
87	0x3f71e2bb	0.9448659
88	0x3f716114	0.94288754
89	0x3f6f5b2a	0.9349848
90	0x3f8c6218	1.0967436
91	0x3f7b60be	0.9819449
92	0x3f79d6e9	0.9759355
93	0x3f712c62	0.9420835
94	0x3f70913b	0.93971604
95	0x3f791deb	0.97311276
96	0x3f74346e	0.953925
97	0x3f7090b8	0.93970823
98	0x3f7481cb	0.9551055
99	0x3f72b280	0.9480362
100	0x3f61b09e	0.8816012
101	0x3f795d8a	0.97408354
102	0x3f793ae9	0.97355515
103	0x3f779e9d	0.967264
104	0x3f701162	0.93776524
105	0x3f6719a4	0.902735
106	0x3f706b52	0.9391376
107	0x3f6c3a9c	0.9227693
108	0x3f6e2afd	0.93034345
109	0x3f78a2d6	0.9712347
110	0x3f7324fd	0.94978315
111	0x3f7000b4	0.9375107
112	0x3f758dd7	0.95919555
113	0x3f776b07	0.96647686
114	0x3f71855e	0.9434413
115	0x3f75e3ba	0.9605061
116	0x3f714de9	0.94259506
117	0x3f78977e	0.9710616
118	0x3f7100d9	0.9414192
119	0x3f6ac011	0.9169932
120	0x3f796684	0.9742205
121	0x3f74fbcd	0.9569672
122	0x3f76077d	0.96105176
123	0x3f6d9011	0.9279795
124	0x3f705046	0.9387249
125	0x3f7d2bac	0.98894763
126	0x3f7fe734	0.9996216
127	0x3f7a25f8	0.97714186

node_encoder.norms.1.module.bias f4 [128]
0	0xbc39f539	-0.01134997
1	0x3ca3fea6	0.020018887
2	0xbbaf1584	-0.005343141
3	0xbd4c593d	-0.04988979
4	0xbd49a392	-0.04922826
5	0xbb7bc29d	-0.003841556
6	0x3ca855d6	0.020548742
7	0xbd1e6f74	-0.03868051
8	0xbc29d966	-0.010366773
9	0xbbe7c4c0	-0.007073015
10	0x3cd7e85d	0.026355917
11	0x3d44ae8f	0.048018035
12	0xbc05dff7	-0.008171073
13	0xbc26bb0f	-0.010176434
14	0x3cd6bbdf	0.02621263
15	0xbb7895ff	-0.0037931202
16	0xbca794f3	-0.020456767
17	0x3d142bb4	0.03617449
18	0xbdc3849d	-0.09546778
19	0x3b19eb40	0.0023486167
20	0xb9c0cbd0	-0.00036772946
21	0x3d1f6c49	0.03892163
22	0x3d8a16a2	0.06742598
23	0xbba1986a	-0.0049314993
24	0xbd62503d	-0.055252302
25	0x3b552023	0.0032520376
26	0xbd80dbff	-0.06291961
27	0x3d539060	0.05165136
28	0xbb246821	-0.002508648
29	0xbc8391ec	-0.016060792
30	0xbc93e81b	-0.018055012
31	0x3d00a913	0.03141124
32	0x3ca723b7	0.020402772
33	0xbd0641c1	-0.03277755
34	0x3d3e8547	0.046513822
35	0x3ca97860	0.020687282
36	0xbd25e84d	-0.040504742
37	0x3d714405	0.05890276
38	0xbd02879c	-0.03186761
39	0xbc0d4815	-0.008623143
40	0x3c659761	0.014013142
41	0x3c1bed90	0.0095170885
42	0x3c96b983	0.018399006
43	0x3b5c46a6	0.0033611446
44	0x3c3ad4e3	0.011403295
45	0x3c112c1a	0.008860612
46	0x39e80874	0.00044256786
47	0xbd1944b0	-0.03741902
48	0xbc763be6	-0.015028929
49	0x3c7153cf	0.014729454
50	0x3d04a9a5	0.032388348
51	0xbc01e44d	-0.007927966
52	0x3b922bfc	0.0044608098
53	0x3c190681	0.00933993
54	0x3cc126e0	0.023578107
55	0x3d57236a	0.052524008
56	0x39ce7852	0.00039381027
57	0xbc866c93	-0.016409194
58	0x3d852f2f	0.0650314
59	0x3bc61c61	0.0060458635
60	0xbcada3dd	-0.0211963
61	0x3cdf2adb	0.027242115
62	0xbc4ec3ec	-0.012619954
63	0xbbf4cd2b	-0.007470747
64	0x3d978a0e	0.07399379
65	0x3d380bb3	0.044933032
66	0x3cd23044	0.02565778
67	0xbc528e5e	-0.012851326
68	0x3c88a152	0.016678486
69	0x3d074235	0.033022124
70	0x3be4352c	0.0069643464
71	0xb988217e	-0.00025964895
72	0xbd1592d9	-0.036516998
73	0x3c218ea2	0.0098606665
74	0xbc221a2e	-0.009893937
75	0xbc698b9a	-0.014254475
76	0x3d240d51	0.040051762
77	0x3c12b096	0.008953234
78	0xbb5663ad	-0.003271322
79	0x3d5204d7	0.051274147
80	0x3c903bb7	0.0176066
81	0xbc639c26	-0.013892209
82	0x3d370ba6	0.044688843
83	0xbc20ecf4	-0.009822119
84	0xbd36513a	-0.044511057
85	0xbd77d962	-0.060510047
86	0xbcc9d071	-0.024635525
87	0x3cb3909a	0.021919537
88	0xbc820901	-0.015873434
89	0x3c54eb2e	0.012995524
90	0xbb79fcf1	-0.003814515
91	0xbb49a1f7	-0.0030766705
92	0x3c214a3f	0.009844362
93	0x3c7d46cb	0.015458773
94	0xbbba90cb	-0.00569353
95	0xbd1b22b6	-0.0378749
96	0xbc8c3cd6	-0.017118853
97	0x3b10cb5f	0.0022093875
98	0xbdad33f6	-0.084571764
99	0x3d83d581	0.06437207
100	0xbc9c399d	-0.01907044
101	0xbc9fa630	-0.019488424
102	0xbbf4bd8e	-0.0074688857
103	0xbd6d5df5	-0.057950933
104	0xbc09e833	-0.008417177
105	0x3d05712d	0.032578636
106	0x3cff0e9c	0.031134896
107	0xbcb527fd	-0.022113794
108	0x3d4574f0	0.048207223
109	0xbb0d96ef	-0.0021604856
110	0xbcf7d1c3	-0.03025139
111	0x3d572df2	0.05253405
112	0xbbdd522d	-0.006754181
113	0xbc3ebedc	-0.011642184
114	0xbcdd9af7	-0.027051432
115	0x3d45a357	0.048251476
116	0xbd2da3c6	-0.042392515
117	0xbcae4c0d	-0.021276498
118	0x3c0284ad	0.007966203
119	0x3d450f54	0.04811032
120	0x3cbf7503	0.023371225
121	0xbc5053a4	-0.012715254
122	0xbae67695	-0.0017582948
123	0x3c18fdb6	0.009337833
124	0x3b8ccade	0.0042966446
125	0xbc9f1dd4	-0.019423403
126	0x3bcea7bd	0.006306617
127	0xbc7a390b	-0.015272389

node_encoder.norms.1.module.running_mean f4 [128]
0	0xbb791145	-0.0038004678
1	0x3ccdbcf0	0.025114506
2	0x3cbf2fe2	0.023338262
3	0xbbaedb86	-0.005336228
4	0xbc62082d	-0.013795895
5	0xbc87bbc3	-0.016569024
6	0x3cbe5f82	0.023238901
7	0x3c5a8358	0.013336979
8	0x3c90defc	0.017684452
9	0x3c82e752	0.015979443
10	0x3bcb65df	0.0062072123
11	0x3c92508a	0.01786067
12	0xbbf783cf	-0.0075535546
13	0x3b9e6cb7	0.004834737
14	0xbbc18afa	-0.00590646
15	0xbc84846c	-0.016176425
16	0xbcc2d573	-0.023783421
17	0xbc3be72c	-0.01146869
18	0xba5a3c31	-0.0008325009
19	0x3cd05486	0.025430929
20	0xbc1aac51	-0.0094404975
21	0x3d226a49	0.039652143
22	0x3cd85bf0	0.026411027
23	0x3c4f6a06	0.012659555
24	0x3cdcaec9	0.026938813
25	0xbc488a17	-0.012239954
26	0xbcf94863	-0.030430024
27	0x3cca2d00	0.02467966
28	0xbaab537d	-0.0013071146
29	0x3b08938c	0.0020839898
30	0xbc9a5204	-0.018837936
31	0x3c514f6e	0.012775285
32	0x3afe9c8b	0.0019425316
33	0xbc21915e	-0.009861318
34	0x3d0140dc	0.031555995
35	0x3ba39c82	0.0049930224
36	0xbcf74070	-0.030182093
37	0x3cf67ffc	0.030090325
38	0xbc242885	-0.010019426
39	0xbc948bdf	-0.018133102
40	0x3c3fbc0b	0.011702548
41	0xbbdd4314	-0.006752381
42	0xbafd3bb1	-0.0019320158
43	0x3c6245af	0.013810559
44	0xbcf00ed8	-0.029303953
45	0xbc259b8b	-0.010107885
46	0xbc867d57	-0.016417189
47	0xbbbcc2eb	-0.0057605407
48	0xbcd2c807	-0.025730146
49	0x3ca7dde9	0.020491557
50	0xbc6441a9	-0.01393167
51	0xbbdf6404	-0.0068173427
52	0xbac26c70	-0.0014833342
53	0x3ce2f519	0.027704762
54	0xbc0c91a8	-0.008579649
55	0x3be31438	0.0069299005
56	0x3cde9d44	0.0271746
57	0x3cb5471c	0.022128634
58	0xbc1501e8	-0.009094693
59	0x3b9426cf	0.004521228
60	0x3c81c750	0.01584211
61	0x3ce0a770	0.02742359
62	0x3c952376	0.018205386
63	0xbc720b2b	-0.01477317
64	0xbb1d9d0e	-0.002404991
65	0xbd135947	-0.035973813
66	0xbac44d59	-0.0014976665
67	0x3ca6bc64	0.020353504
68	0x3c84c66f	0.016207902
69	0x3b8901fb	0.0041811443
70	0x3c3ec33b	0.011643226
71	0xbd058fab	-0.032607716
72	0xbcb0560d	-0.021525407
73	0xbce58d28	-0.02802141
74	0xbcb51050	-0.022102505
75	0xbca49ac6	-0.020093333
76	0x3c49f853	0.0123272715
77	0x3cdfc43a	0.027315248
78	0xbcbf470e	-0.023349311
79	0x3d0d5ba6	0.03451123
80	0x3c9a93b7	0.018869264
81	0xbce73a9f	-0.028226195
82	0xbc9392fd	-0.018014425
83	0x3cf469e6	0.029835653
84	0xbc8f304c	-0.017479084
85	0xbc9ef6a4	-0.019404717
86	0x3ca4b3fb	0.020105353
87	0x3b19bdc9	0.0023459068
88	0xbc95cd75	-0.018286446
89	0xba507e95	-0.00079534325
90	0x3b008d9c	0.0019615656
91	0x3c8ffc42	0.01757634
92	0xbc408e6b	-0.011752705
93	0x3c2fc0eb	0.010727148
94	0xbbbc76e6	-0.0057514785
95	0x3b1d1a77	0.0023972073
96	0xbc244602	-0.010026457
97	0xbd1b6849	-0.03794125
98	0xbc9a0a49	-0.018803732
99	0x3b129ac7	0.0022370087
100	0x3cd966cf	0.02653828
101	0xbc78f721	-0.015195639
102	0xbc3f5286	-0.01167739
103	0xbd188504	-0.03723623
104	0xbc21cd37	-0.009875587
105	0xbcca7bb8	-0.024717197
106	0xbc27cd8d	-0.010241878
107	0xbcbe3587	-0.023218883
108	0x3cb94ce9	0.022619681
109	0x3caba3f8	0.02095221
110	0x3aac34fb	0.0013138348
111	0x3ca9cbc8	0.020727053
112	0x3bf30e0d	0.0074174465
113	0xbd05c2a1	-0.032656316
114	0xbd1606c1	-0.036627535
115	0x3c6a3558	0.014294945
116	0xbcfce6a6	-0.0308717
117	0xbcc77691	-0.024348529
118	0xbd0308e6	-0.031990908
119	0x3c9f569f	0.019450484
120	0x3aea734e	0.0017887147
121	0xbc2b819d	-0.010467914
122	0xbb8710ff	-0.004121899
123	0xb9ea3d0d	-0.00044677444
124	0xbb1f50e2	-0.0024309685
125	0xbc8fdd06	-0.017561447
126	0x3c191990	0.0093444735
127	0xbd301102	-0.04298497

node_encoder.norms.1.module.running_var f4 [128]
0	0x3d08611f	0.033295747
1	0x3d27a66a	0.04093019
2	0x3cd3a6a1	0.02583629
3	0x3d176a44	0.036966577
4	0x3d77f3cf	0.06053525
5	0x3c6690bd	0.014072594
6	0x3de2b455	0.11069552
7	0x3ce4efe9	0.02794643
8	0x3dfa124f	0.12210523
9	0x3d84107b	0.06448456
10	0x3d060b5b	0.032725673
11	0x3d18f31d	0.037341226
12	0x3d22b6ee	0.039725237
13	0x3d855c58	0.06511754
14	0x3c41e4b4	0.011834312
15	0x3d5a2e7f	0.053267
16	0x3c9987a6	0.01874144
17	0x3cf8edf8	0.03038691
18	0x3cf4beef	0.0298762
19	0x3c92dc4c	0.017927311
20	0x3d26d175	0.040727098
21	0x3cf04351	0.029328974
22	0x3d38764f	0.045034703
23	0x3dad7449	0.08469445
24	0x3cf07328	0.029351786
25	0x3cb8f41e	0.022577342
26	0x3d86987b	0.06572052
27	0x3ceb42ae	0.028718319
28	0x3ccfde3e	0.025374528
29	0x3daed987	0.08537584
30	0x3c0a4f8c	0.008441817
31	0x3c380e89	0.011233934
32	0x3d273bc4	0.04082848
33	0x3d0a3308	0.033740073
34	0x3d47cfd4	0.048782185
35	0x3d3d6612	0.04623992
36	0x3cacf82c	0.021114431
37	0x3cdb3733	0.02675972
38	0x3c6128b7	0.013742617
39	0x3c908a18	0.017643973
40	0x3d2fb458	0.0428966
41	0x3d2273f1	0.03966135
42	0x3c3790ad	0.011203927
43	0x3d15cb8c	0.03657107
44	0x3db9a970	0.09065521
45	0x3d06c78c	0.032905146
46	0x3d29b810	0.0414353
47	0x3cd0ff67	0.02551241
48	0x3c9ee61e	0.019396838
49	0x3c6d60e3	0.014488432
50	0x3d35034b	0.044192594
51	0x3d8c5a9c	0.0685322
52	0x3d1504f8	0.03638169
53	0x3c170b1f	0.00921896
54	0x3c57f521	0.013181002
55	0x3d0d4092	0.034485407
56	0x3db722fa	0.08942218
57	0x3c5afbbc	0.013365682
58	0x3ce1f5a9	0.02758296
59	0x3cbb834e	0.02288976
60	0x3d1bdd9a	0.038053133
61	0x3d04acf5	0.032391507
62	0x3d0a40eb	0.033753317
63	0x3d9cad23	0.07650211
64	0x3c50bb45	0.012739961
65	0x3d76f540	0.060292482
66	0x3d168aa5	0.036753315
67	0x3d00b050	0.031418145
68	0x3c145c29	0.009055176
69	0x3d86557e	0.06559275
70	0x3d84fb3c	0.06493232
71	0x3c26af55	0.010173638
72	0x3d43bd4c	0.04778795
73	0x3cdb8ace	0.026799586
74	0x3c82fd81	0.01599002
75	0x3d85cf82	0.065337196
76	0x3ce6d1eb	0.028176269
77	0x3c917680	0.0177567
78	0x3cb8f23c	0.022576444
79	0x3d5ab66b	0.053396624
80	0x3dbc2281	0.091862686
81	0x3d0d6698	0.03452167
82	0x3c46349a	0.012097502
83	0x3cb47bd2	0.022031698
84	0x3c152f16	0.009105464
85	0x3c83bc34	0.016080953
86	0x3d395819	0.045250032
87	0x3d016a13	0.0315953
88	0x3cf452bd	0.029824609
89	0x3c33e5a6	0.010980045
90	0x3c0b273a	0.008493239
91	0x3d63725b	0.05552898
92	0x3d1c9349	0.0382264
93	0x3d605a41	0.054773573
94	0x3c3fa876	0.011697879
95	0x3d6854ab	0.05672137
96	0x3d43681e	0.047706716
97	0x3c4c8b59	0.012484395
98	0x3d25cdf4	0.040479615
99	0x3cf4cc80	0.02988267
100	0x3d462044	0.048370615
101	0x3cf3a281	0.029740574
102	0x3d1ed5c9	0.0387781
103	0x3d2ae586	0.041722797
104	0x3db49085	0.088166274
105	0x3d5a7f4d	0.05334406
106	0x3cc74199	0.024323272
107	0x3d32781e	0.043571584
108	0x3d4ba80a	0.0497208
109	0x3d7e58c3	0.06209637
110	0x3cb36f96	0.021903794
111	0x3d9097dd	0.070602156
112	0x3d88f6ea	0.0668772
113	0x3cd56003	0.026046759
114	0x3d5d016b	0.05395643
115	0x3c2656c9	0.010152527
116	0x3c0121f7	0.007881633
117	0x3d8b72e5	0.06809024
118	0x3d22ac83	0.0397153
119	0x3d0507b3	0.032478046
120	0x3c87becb	0.01657047
121	0x3d6964fe	0.05698108
122	0x3c380a3c	0.011232909
123	0x3d32adcc	0.043622777
124	0x3d6dfaa7	0.05810037
125	0x3ce66821	0.028125824
126	0x3cf77711	0.030208142
127	0x3da5a565	0.08088187
