tfg/models20250212192958/model_0.pt (torch, 808712 bytes, 26 tensors)

node_encoder.lins.0.weight f4 [64, 7]
000000 52 bc a7 3d 3f cb 79 3e 92 ba 2b be 19 10 25 bc
       0.08190216 0.24393938 -0.1677039 -0.010074639
000010 0e b4 d5 be ac d5 93 be 30 f6 c7 be b8 d2 c3 bd
       -0.41738933 -0.28873956 -0.39055014 -0.09561676
000020 14 1e 32 3e b2 fa a5 be 6f 6c 01 be 4b 2f fd bd
       0.17394286 -0.32417828 -0.1263902 -0.12362536
000030 ad 02 2e be 3e c2 a6 3e 87 57 e0 bd 00 0a c6 3e
       -0.16993208 0.3257007 -0.109541945 0.38679504
000040 aa b0 4b 3c ae db 3c 3e 0d 42 81 3e c4 6b cf 3c
       0.012432257 0.18443176 0.25245705 0.025319941
000050 bc 2c 2e be 7c fe b7 bd f9 b0 1e 3e 23 9c d4 3d
       -0.17009252 -0.08984086 0.15497197 0.10381343
000060 4c 11 15 3d 70 a7 59 be d0 3e 36 bd 68 1e a7 3e
       0.03639345 -0.21255279 -0.044493496 0.32640386
000070 d3 48 0a 3e fc d3 ac be 55 90 86 3e 0d c2 0e bd
       0.13504343 -0.3375548 0.26281992 -0.03485303
000080 93 d7 08 be c3 c2 ba 3d ae f9 b5 3e dc a5 11 be
       -0.13363485 0.09119179 0.35542053 -0.14223427
000090 cb 7f 44 bb 48 e8 b1 bd 6e b0 1d 3e f9 d1 76 3e
       -0.0029983397 -0.08686882 0.15399334 0.24103536
0000a0 cb fc c0 bb 12 1b 6f 3e f6 f0 2f 3e 1f 7e 78 3e
       -0.0058895103 0.2335017 0.17181763 0.24266861
0000b0 7f e3 be bd 4b ac 88 3d f2 d7 d0 be 21 8f a1 3e
       -0.09320735 0.06673487 -0.40789753 0.3155451
0000c0 51 70 fa 3d 3f 88 aa 3b 2e 5f ce be f8 e2 88 bc
       0.12228454 0.00520423 -0.4030699 -0.01670979
0000d0 54 3b 17 3c e0 70 57 be 9b 6e d4 bd f0 4f c5 3d
       0.0092304535 -0.21039152 -0.10372659 0.096343875
0000e0 28 65 94 be 98 27 7e 3e 62 6a 91 3d ef d1 44 be
       -0.28983426 0.24819791 0.07100369 -0.19220708
0000f0 e1 8f c4 3e 5c 3f 8e 3d 68 16 0e bc ff a5 e7 bd
       0.3839102 0.069456786 -0.008672334 -0.11310958
000100 74 b2 96 3e 16 a8 c3 be 81 cc fd bd 67 82 38 be
       0.29433024 -0.38214177 -0.12392522 -0.18018495
000110 fb b7 da bd 9d 3f 83 3d 45 1b bb bd cd 5e 26 bd
       -0.10679623 0.06408618 -0.091360606 -0.040617753
000120 4c 3b 28 3e 00 b8 16 bd 5c bf 23 3d 82 08 e3 3e
       0.1642887 -0.03679657 0.039977416 0.44342428
000130 f2 ca d2 be d8 b0 1c 3e d8 53 8c be ce 2c 8c be
       -0.4117046 0.15301836 -0.27407718 -0.27377933
000140 aa 6d 15 be 24 1a 5e 3e 41 ed a6 bc 4b f3 21 3e
       -0.14592615 0.2168966 -0.020376803 0.15815465
000150 a4 13 48 3e 33 83 d8 3d 55 ec 15 3b b4 69 da 3c
       0.19538742 0.10571899 0.002287646 0.026661731
000160 c8 db 9c 3e ef aa dd 3e 47 b5 20 3e ce ab 04 be
       0.3063643 0.43294474 0.15694152 -0.12956163
000170 45 30 84 bd b2 28 a8 3d eb 24 3b 3e 62 2b e1 be
       -0.06454519 0.08210887 0.18275802 -0.4397841
000180 83 89 db 3d cc b1 98 3d c8 49 66 3e 68 b4 a0 3e
       0.10719588 0.07455787 0.22489083 0.3138764
000190 c6 7e 7a 3e 7f 6b 47 3d b5 8b 26 bc 1f f6 14 3e
       0.24462423 0.0486865 -0.010165145 0.14547013
0001a0 6a 96 3d 3e cb 85 a3 3e 93 00 e0 bd 48 64 a8 bd
       0.1851441 0.31938013 -0.109376095 -0.08222252
0001b0 0b 04 4c be a7 cb c2 3e 59 29 4f be 66 d6 9b 3e
       -0.19923417 0.38046 -0.20230617 0.3043701
0001c0 a9 28 84 3e 7b 89 c2 3e be f1 13 be b7 ef 48 3e
       0.2581227 0.37995514 -0.14447686 0.19622694
0001d0 c0 61 9a be e1 29 d7 bd 29 67 39 be 49 9f 91 3e
       -0.30152702 -0.10506035 -0.18105759 0.28441837
0001e0 97 0d cd 3d 54 c8 97 bc 5e 0f d2 3c db 2d cf 3e
       0.10012358 -0.018528141 0.025642093 0.40464672
0001f0 a7 b2 9e be 38 cd b0 be cd 7f 0f 3e 8b 1b c9 3d
       -0.30995676 -0.3453157 0.14013596 0.098197065
000200 4e 5b 24 be 40 cb 72 be 26 6a f6 bb af 60 e8 be
       -0.16050455 -0.23710346 -0.007519978 -0.45386264
000210 8b bf ac be 76 26 66 3c 71 4c 46 be 6e 7d f8 3d
       -0.33739886 0.014047256 -0.19365098 0.12133299
000220 b1 ea 00 3e e7 ba 84 3b 9c cd 6b be 83 1c 72 be
       0.12589528 0.004050601 -0.23027653 -0.23643689
000230 22 0c 4d b9 f6 2b 8d 3e 79 f5 31 be bb c1 e7 bd
       -0.00019554843 0.27572602 -0.17378797 -0.11316248
000240 bb 7d 67 bc c9 67 bb be ae 29 9d 3e 33 51 fb bd
       -0.014129098 -0.3660262 0.30695862 -0.12271347
000250 18 a9 23 bd f9 08 8e be bc 1e 02 be 38 17 d2 3e
       -0.039956182 -0.2774122 -0.12707037 0.4103334
000260 e7 c3 73 3e 5d dd 9d be 20 a2 00 3e 50 fe a2 be
       0.238052 -0.3083295 0.12561846 -0.3183465
000270 40 d9 84 be 5a 66 b0 bd a4 4b f0 3c 29 7d b4 be
       -0.25947 -0.08613272 0.029332943 -0.3525174
000280 7c e4 0e 3e 1a 73 87 be 74 c5 69 bc c8 1d be be
       0.13954347 -0.26455003 -0.014268268 -0.37132096
000290 d7 9d 3b be db 17 41 3e c4 f3 9f 3d d6 12 53 b8
       -0.1832193 0.18856756 0.078101665 -5.0323863e-05
0002a0 55 08 5d 3e a7 d6 55 3e 5b 4d 7a 3e 40 3f 19 3e
       0.2158521 0.20882665 0.24443571 0.14965534
0002b0 5b 2d a2 be 5c f3 9c bd 20 dc 93 be 21 ec e8 bd
       -0.31675228 -0.076636046 -0.2887888 -0.11373163
0002c0 71 60 c8 3d f5 56 2b 3c 72 b4 24 3e d9 47 92 be
       0.0978402 0.010457744 0.1608446 -0.2857044
0002d0 05 4b 93 bb cc 42 4d bd dc 7f aa 3e 81 cf 9c 3d
       -0.004495027 -0.05011253 0.33300674 0.07656766
0002e0 65 f8 56 be 28 3a c4 bd 22 8e a2 be 44 bc 99 be
       -0.20993192 -0.09581405 -0.31749064 -0.30026448
0002f0 c0 bf 58 be 0b 5c 78 3e 5d 00 55 3e 85 b4 bb be
       -0.21166897 0.24253862 0.2080092 -0.36661163
000300 3f 8b ff 3c 56 d0 c2 be bb 9b 39 3e dd c6 0a be
       0.031194327 -0.38049573 0.18125813 -0.13552423
000310 20 5c 9f 3e 3f 6a a5 3e 99 6d 39 be 15 19 95 bd
       0.31124973 0.32307622 -0.18108214 -0.07280175
000320 db 56 5c 3d 60 2c 94 3e e8 1b e6 bd e2 29 48 bd
       0.05379377 0.28940105 -0.112357914 -0.048868068
000330 10 ed 7d 3e cc 37 21 be b7 34 41 bd ee 9f 93 3e
       0.24797463 -0.15743941 -0.047169413 0.28832954
000340 04 a3 c9 be 48 88 38 3e c8 ed b2 3e 59 34 84 be
       -0.39382184 0.18020737 0.34947038 -0.25821188
000350 13 d3 ab bc 15 85 01 3e 2d ff 86 be 5f b0 bf 3e
       -0.020974671 0.12648423 -0.2636656 0.37439248
000360 22 54 85 be ec 51 1e bd 07 af 81 be e4 c8 a7 be
       -0.2604075 -0.038652346 -0.25328848 -0.32770455
000370 73 0c c2 bd ae e3 be 3e 53 aa c5 3e 6f 69 7f 3e
       -0.09475031 0.3728308 0.3860651 0.24942563
000380 14 85 3a be fd 89 ba 3e fe 8a 3e be 72 ac 1e be
       -0.18214828 0.36433402 -0.18607709 -0.1549547
000390 14 b3 5c be 91 52 a4 3c 0e 10 9c be 93 fc 8b bc
       -0.21552688 0.020058902 -0.30481 -0.01708821
0003a0 23 40 90 3e 75 d8 b5 3e 29 d3 0b bd ed c9 bc 3e
       0.28173932 0.35516706 -0.034136925 0.36872807
0003b0 4f 71 29 3e 77 47 fb bd 90 80 66 bd 16 65 02 be
       0.1654713 -0.1226949 -0.05627495 -0.12733874
0003c0 7f 1c 6a be d5 f5 6c 3e 3a 89 be be 1d 29 8d 3e
       -0.22862433 0.23140652 -0.3721407 0.2757043
0003d0 36 b5 2e 3d b9 48 13 be 7d 4e 6a bc 4a c2 0b be
       0.042653285 -0.1438321 -0.01430094 -0.13648334
0003e0 f6 80 4e 3b 88 a1 74 be 22 3d 64 3d 4a 34 b2 be
       0.0031509972 -0.23889744 0.055722363 -0.34805518
0003f0 c5 08 c1 3e e6 48 88 3e 59 b6 91 be a1 c9 ab bd
       0.37702003 0.26618117 -0.28459433 -0.08388067

node_encoder.lins.0.bias f4 [64]
000000 d8 3c ba 3e 11 06 af 3e be 54 60 be 11 b7 90 3e
       0.36374545 0.34184316 -0.21907327 0.2826467
000010 16 2d 02 3e c0 22 2d 3e 42 4a 9f be 28 99 b2 3e
       0.12712511 0.16907787 -0.31111342 0.34882474
000020 5f f6 49 3e 2c 8f 46 3e 40 06 83 3e 00 c5 b0 be
       0.1972289 0.19390553 0.25590706 -0.345253
000030 ef 28 b4 3e a7 11 99 3e 5f 1d 93 3e 23 68 26 3e
       0.3518748 0.2989628 0.28733346 0.16250663
000040 8b 4c c3 3e 7a 27 91 3e 77 75 21 3d 42 e9 77 3e
       0.38144335 0.2835043 0.039418664 0.24210075
000050 6b 4f db 3d ba 77 87 be d1 7b 27 be 38 03 7a bc
       0.10708507 -0.26458532 -0.16355826 -0.0152595565
000060 65 be aa 3d c6 0b 91 3e 49 3b 1f be 1b 46 ee b9
       0.08337096 0.28329295 -0.15549959 -0.0004544713
000070 d6 ab c5 bd cb d4 2e 3e c1 f6 92 be a5 d3 b3 be
       -0.09651916 0.17073362 -0.28703883 -0.3512241
000080 76 0c a7 3e c2 31 1f 3d d3 e3 a1 be 02 5f 01 3e
       0.32626694 0.038865812 -0.3161913 0.12633899
000090 c5 7e 30 be 95 99 04 3e 55 2f 9e 3e c9 54 86 be
       -0.17235859 0.12949212 0.30895486 -0.2623656
0000a0 9d 40 f4 3b 42 e0 40 3d d8 47 86 3e 2f 7b 92 3e
       0.0074539916 0.04708887 0.26226687 0.28609607
0000b0 54 45 0a be 8a 67 7e 3c 68 ea a7 bd 6d 2e ab be
       -0.13503009 0.015527615 -0.08199006 -0.33433858
0000c0 9c 37 a8 3e 90 02 d4 3d 0b c6 c1 bd dd 9d a2 3e
       0.32854927 0.10352051 -0.09461602 0.31761065
0000d0 e1 2a a2 be 58 21 3a 3e 64 c1 3b be e5 39 17 bd
       -0.3167334 0.18176782 -0.18335491 -0.036920447
0000e0 f5 c2 fc bd 1d 2c e4 3c 73 a5 8b 3e 22 96 d7 bd
       -0.123418726 0.027853066 0.27274665 -0.105266824
0000f0 43 00 a6 be ff 4f a2 be 43 b9 e0 bd 04 b5 7a be
       -0.32422075 -0.31701657 -0.10972836 -0.24483114

node_encoder.lins.1.weight f4 [128, 64]
000000 58 a6 f8 bd 1c 4a 58 3d aa 84 97 3c 85 e6 b8 bc
       -0.121411026 0.05280505 0.018495876 -0.022570858
000010 b8 10 94 bd 17 71 98 3c 43 5e 4f bc dc f4 f9 3c
       -0.07229751 0.018608613 -0.012656751 0.030512266
000020 e9 a8 69 bd ed 63 af bd ee c5 c3 3d 80 02 ed 3c
       -0.05704585 -0.08563981 0.095592365 0.028931856
000030 19 93 b6 bd 11 83 cb 3d 2d 99 40 bc 21 f9 20 3d
       -0.089147754 0.09937108 -0.01175527 0.039300088
000040 d9 1d 6c bd cb b4 d0 bb be 59 90 3d 13 71 48 bb
       -0.057645652 -0.0063692085 0.07048367 -0.0030584976
000050 ca 42 44 bd da ec c3 bd 58 99 f4 bc 2f b5 c6 3c
       -0.047915258 -0.0956666 -0.029858276 0.024256317
000060 ce cc f0 bb 86 dd 3b bd 91 57 65 3c ec dc 9b 3c
       -0.0073486334 -0.045865558 0.013997928 0.019026242
000070 65 b9 c3 bc 83 9e 63 3d 7c eb ec 3d b0 3c 01 be
       -0.023892114 0.05557109 0.115683526 -0.12620807
000080 46 03 a3 3d 60 0c 50 bd 82 d4 62 bd 6a f6 bc 3d
       0.07959609 -0.05079305 -0.055378444 0.09226687
000090 df f7 53 bb 01 67 a7 3d 64 c3 8c bd 7a 3a 98 bd
       -0.0032343788 0.08173943 -0.06873205 -0.074330285
0000a0 a3 93 9b bd 13 ac eb 3d 83 a7 b6 bd 4e 4f 8d 3d
       -0.07596519 0.1150743 -0.08918669 0.06899892
0000b0 98 29 2c 39 6c 57 93 3d 29 39 a8 3d e6 fb 8c bd
       0.00016418693 0.07194409 0.082140274 -0.06883983
0000c0 5f 9b 2b 3d 66 2f 02 bd ab e2 e5 3d 96 ad 69 bd
       0.04189622 -0.031783484 0.11224874 -0.05705031
0000d0 af d5 d7 bd 5d 03 51 3d a6 76 17 bd 5f 24 5f bc
       -0.10538804 0.051028598 -0.036978386 -0.013619511
0000e0 90 0f 43 3d 0e 0b dc 3d eb f4 be 3d 63 61 98 bd
       0.047622263 0.10744296 0.09324058 -0.0744045
0000f0 77 5c 9e bd ea 14 00 be f3 f8 b8 bc 89 22 a5 bc
       -0.0773248 -0.12507978 -0.022579646 -0.02015807
000100 68 d3 81 3d 7d 7f 35 bc 36 8b 46 bc 21 52 1b 3d
       0.06339151 -0.011077759 -0.012118151 0.03792012
000110 14 92 d6 bd 78 63 81 bd 4a 91 94 bd cd ac ac 3d
       -0.10477081 -0.063178 -0.07254274 0.08431397
000120 99 33 10 bc f1 e9 d8 3d 3f 52 01 be 20 9e cb bd
       -0.008801364 0.10591496 -0.1262903 -0.09942269
000130 8e 10 a5 bd 9d 56 cb 3d 98 72 06 be ee 7a 87 3d
       -0.08059798 0.099286295 -0.13129652 0.06615244
000140 c1 42 ac 39 ae 3c db bd cd 92 c9 3d 89 78 f5 3d
       0.00032856132 -0.10704933 0.09842453 0.11985881
000150 3c fa 47 3d 5c ef 74 bd 09 60 b2 3d d8 3a 99 3c
       0.048822626 -0.059798583 0.087097235 0.018704817
000160 ae a6 92 bc 71 37 0c 3d 4f 36 14 3d 67 dc 1b 3d
       -0.017901745 0.03423256 0.036184605 0.03805199
000170 47 e4 73 3d cc 7b af 3d 60 a6 42 39 97 e4 fd bd
       0.059543874 0.08568534 0.00018563261 -0.12397116
000180 f8 05 aa bd 71 82 9d 3d 4b 25 a4 3d b0 4d c1 3d
       -0.0830192 0.07690895 0.080149256 0.09438646
000190 b3 8d 25 bd ab 16 2b bd f7 33 35 3d 45 7b c1 bc
       -0.040418338 -0.041769665 0.04423901 -0.02361835
0001a0 bb ed a6 3c 58 a0 b4 3d af 64 0e be c8 2d 25 bd
       0.02037703 0.08819646 -0.13905595 -0.040326864
0001b0 bb d5 30 3d 72 1e fa 3d 03 85 cf bd 7a 26 14 b9
       0.04317258 0.12212838 -0.10132792 -0.00014128714
0001c0 a0 71 52 3d 09 3e ec 3a f0 de f1 3d ce 5f ef 3c
       0.051377892 0.0018023859 0.118101 0.029220488
0001d0 20 cf 99 bd 51 cb 8a 3d 50 02 91 bd 9f df dc 3d
       -0.07510209 0.06777061 -0.07080519 0.1078484
0001e0 5d 7d 54 3d db 77 ca bd 3d bc de 3d c7 6b d6 bc
       0.05187737 -0.09886142 0.10875747 -0.02617444
0001f0 d7 34 b7 bd 26 84 8c bd 5c 9b 9c bd 58 c0 59 3d
       -0.08945625 -0.06861143 -0.0764682 0.05316195
000200 c1 0b 11 bd ae 02 c7 3d 42 6b b4 bc 2c ef 67 bd
       -0.0354116 0.09717308 -0.0220238 -0.056624576
000210 65 68 d0 3c 83 23 e0 3c 83 05 03 be 8b 02 6c bb
       0.025440404 0.027360683 -0.12795071 -0.0036012258
000220 0a ee fa 3d 9a fa cc bb 38 fd 72 3d fc 8d 72 3d
       0.122524336 -0.00625546 0.05932352 0.059217438
000230 81 d5 65 3d b1 a7 8a bd 44 9a b2 bd 59 ee 9c 3c
       0.056111816 -0.06770266 -0.0872083 0.019156622
000240 f8 0b 33 3c 3a 0a 6e 3d 1a ab ec bd 1b ed 92 3d
       0.010928147 0.05811522 -0.115560725 0.071741305
000250 9e 5d 06 be 34 d6 e7 bb 58 c9 a8 bd 14 b6 8f 3d
       -0.1312165 -0.0070750955 -0.08241528 0.070171505
000260 a9 59 5f 3b c9 70 99 bc fe cb 0e bc 3c 13 c9 bd
       0.0034080541 -0.018730538 -0.008715628 -0.09818122
000270 2f 48 60 3c c0 c8 01 3e ed 3e 38 bd 5a 10 ec 3d
       0.013689085 0.12674236 -0.044981886 0.11526556
000280 a7 7c 88 3d fa 13 8a 3d be af dd bd 47 73 6a bd
       0.066644005 0.067420915 -0.10824536 -0.057238843
000290 20 9a 52 3c 79 66 d0 bd 20 05 c2 bd ea d3 e5 bd
       0.012854129 -0.10175795 -0.09473634 -0.1122206
0002a0 2b 19 65 3d 59 77 e8 bc a6 7c 39 3d 5a f8 58 bd
       0.055932205 -0.028377222 0.04528489 -0.05297122
0002b0 f6 5e b9 bd 50 dd f1 3d de ea b9 bd 2a 7a cb bd
       -0.090513155 0.1180979 -0.090780005 -0.0993541
0002c0 53 15 a9 3d 86 a3 29 bd f2 ec 29 bd 5b e8 9c bd
       0.082560204 -0.041415714 -0.041485734 -0.07661506
0002d0 c5 79 9e bc 19 b0 48 bd 27 e6 b5 bd b1 eb 9c bd
       -0.019345174 -0.048996065 -0.08881789 -0.07662142
0002e0 fd 07 70 bd cb e3 53 3d ea f9 97 bd 64 9d 28 3d
       -0.05860137 0.051730912 -0.07420714 0.041165724
0002f0 a9 44 a9 bd f9 89 95 3d 1f de ab bc fc 60 03 3b
       -0.08265049 0.07301707 -0.020979939 0.002004682
000300 44 b1 bc bd f0 2d ea 3d 57 aa 92 bd bc 30 15 bc
       -0.09213498 0.11434543 -0.07161396 -0.009105857
000310 ff f3 31 bc 15 99 b2 bc 3c a1 54 3c f8 e3 7f 3d
       -0.010861396 -0.02180151 0.012977894 0.062473267
000320 69 18 f7 bc 7c 84 4d bc 75 e1 25 bd dc 43 d5 bc
       -0.030163007 -0.012543794 -0.040498216 -0.026033334
000330 04 dd 70 3c 33 69 da bc a9 72 c8 3d 59 53 2d 3d
       0.014701132 -0.026661491 0.09787495 0.042315815
000340 fe e7 8c bd 82 cf 5a ba 1b 24 99 3d 2c 00 1c bd
       -0.068801865 -0.0008346961 0.0747759 -0.0380861
000350 bc 08 b0 3d 97 16 61 bd 34 6a cd bd fc cd 71 3d
       0.08595416 -0.054953184 -0.10030022 0.059034333
000360 4f e2 db 3d c1 b2 db bc 89 9b f7 3d 63 7a d8 bd
       0.10736524 -0.026818635 0.12090213 -0.105702184
000370 03 19 ff bd f0 63 a8 bb 43 ff a4 bd 10 a7 a2 bd
       -0.124559425 -0.0051388666 -0.080565 -0.07942021
000380 10 ea b2 3d 07 a5 4e bd 4c e0 96 3d 41 9d b1 bd
       0.0873605 -0.05045035 0.07367 -0.08672572
000390 82 69 33 bd bf 55 1a 3d 6b f7 f4 3d d5 57 ed bd
       -0.043801792 0.03767943 0.11961254 -0.11589018
0003a0 76 0c 0a bd 92 46 d7 bd 3c a9 3b bd 2a 19 73 bd
       -0.03370329 -0.10511507 -0.04581569 -0.05935017
0003b0 7f 7b 98 bd 52 7a e1 bc e5 d1 64 3d fd 66 8d bc
       -0.0744543 -0.027524147 0.055864234 -0.017261023
0003c0 4c 64 cb 3d a3 48 b2 3d 4c c0 9e bd 79 bf 2c 3d
       0.099312395 0.087052606 -0.077515215 0.04217479
0003d0 06 80 4c 3c fd bc fe 3d 08 84 f1 3d 55 13 ce bd
       0.012481695 0.124383904 0.11792761 -0.10062281
0003e0 a9 c4 13 3e d3 0a 35 3d 6d 1d 9b bd bd aa 96 bc
       0.14430489 0.044199776 -0.07573972 -0.018391961
0003f0 17 58 60 3c dc 79 ad bd c5 5e 4e 3d 1c 9b 9d bb
       0.013692877 -0.084705085 0.050383348 -0.0048097502

node_encoder.lins.1.bias f4 [128]
000000 bd 4d af bd 74 6a fb bd 1f 43 07 3d a9 5f b4 bd
       -0.08559749 -0.12276164 0.033022996 -0.08807308
000010 8f 58 76 3d b5 9d 46 3c 0c a2 bc 3c 6f 4e 95 3d
       0.06014305 0.012122561 0.023026489 0.07290351
000020 41 85 71 bd 24 85 e7 3d b4 41 96 bd a4 2f bc bd
       -0.05896497 0.113046914 -0.073367506 -0.09188774
000030 74 42 b0 bd 2d e9 b0 3d b1 dd ad bc 85 0d 5f bd
       -0.08606425 0.08638225 -0.021223875 -0.054456253
000040 dd 2c 97 bd 36 59 e6 3d 13 45 86 3d e0 70 82 bd
       -0.07381604 0.112474844 0.065561436 -0.063691854
000050 0f 31 77 bd 86 95 dd 3d 60 63 cb 3d 50 0b 45 bd
       -0.06034952 0.10819535 0.09931064 -0.04810649
000060 25 33 a6 bd 3f ab b3 3d 3b 80 f4 3d 53 67 aa 3d
       -0.08115224 0.08772897 0.119385205 0.08320489
000070 a4 75 5e bc e8 42 d8 bd 48 0d d7 bd 93 17 af bd
       -0.013577852 -0.10559636 -0.1050058 -0.08549418
000080 2a 53 6a bd f8 83 a9 3d 76 38 9b bd 32 b5 0d 3d
       -0.057208218 0.08277124 -0.075791284 0.03459663
000090 30 14 f7 3c c4 e8 bf bd 84 4b 9f bd aa c5 d7 bd
       0.030160993 -0.093705684 -0.07778075 -0.10535748
0000a0 fe 34 ef 3c a4 98 18 bd 4a df 1e ba c2 82 ac 3d
       0.029200073 -0.037254944 -0.00060604943 0.084233776
0000b0 2d f4 e0 bd e9 73 5c bd 85 d0 06 3d 7c e1 ef bd
       -0.10984073 -0.053821478 0.032913703 -0.117129296
0000c0 30 e2 eb bd 8f f1 4d bd b3 5f 26 bd 91 c0 04 3d
       -0.11517751 -0.050279196 -0.04061861 0.032410208
0000d0 87 67 03 bd 1c 65 cd bd 13 79 19 bc 63 eb 46 bd
       -0.032081153 -0.10029051 -0.009367245 -0.048564326
0000e0 e1 32 d2 bd eb 6f b2 bc f9 c1 92 3d a8 2c ef 3d
       -0.10263611 -0.021781882 0.071659036 0.116784394
0000f0 d7 17 af 3c 15 54 11 be f7 a0 76 bc 25 94 ef 3d
       0.021373672 -0.14192231 -0.015053025 0.11698178
000100 b2 66 8f bb 35 73 43 3b 5e 30 53 3c e2 59 af bd
       -0.004376256 0.0029823307 0.01288995 -0.08562066
000110 80 a7 1e 3d d0 93 ce bc ee 4f f3 bd 90 dc 89 bc
       0.03873396 -0.025216967 -0.1188048 -0.016828805
000120 7f f7 df bc 72 66 6c bc f8 03 8f bd ac 61 cf 3d
       -0.027339695 -0.014428722 -0.06983179 0.10126051
000130 a0 98 18 3d 94 94 e7 bd ac d3 8b 3d 93 5d 1f 3d
       0.03725493 -0.11307636 0.068274826 0.0389076
000140 7b 2e 19 3d 94 cf 71 bc ed 17 c5 bd 6b ce 93 3d
       0.037397843 -0.014758963 -0.09623704 0.072171055
000150 df da c5 3d e2 40 46 bd 9e 74 59 3d fa 8b ad bd
       0.09660887 -0.04840172 0.05308973 -0.08473964
000160 2c ff b2 bb f8 0b ae bd 52 d5 81 bc 3a 2b b3 bd
       -0.0054625478 -0.084983766 -0.01584879 -0.08748479
000170 60 d7 ff bd 27 9f 25 3d 3b f6 41 bd 56 8f c7 3d
       -0.124922514 0.040434983 -0.047353964 0.09744136
000180 80 70 58 3d 97 08 0c be dc 4d 8a 3d 02 56 ad bd
       0.052841663 -0.13675152 0.06753132 -0.0846367
000190 b8 1b fa 3c 1e 19 07 bd 23 87 34 bd af 11 b0 3d
       0.030530795 -0.032982938 -0.04407419 0.08597123
0001a0 1d 31 ad 3d 01 4d 84 3d fb e6 1b bd 18 be 3e bd
       0.08456633 0.0646 -0.038062077 -0.046568006
0001b0 92 ba 99 bc a4 ee b8 bd a1 a2 b4 bd 08 45 87 bc
       -0.018765721 -0.09029892 -0.088200815 -0.016512409
0001c0 02 71 ff bd 98 34 8f 3d 1f a7 fe bd e7 06 24 bd
       -0.124727264 0.06992453 -0.124342196 -0.040045645
0001d0 a0 b1 df 3c db d1 8b bd 0e f4 c4 bd 30 06 88 3d
       0.027306378 -0.06827136 -0.09616862 0.06641805
0001e0 a6 ca 3a bd b4 9f 5b 3d 8e 5d 44 3d 09 ce 53 3d
       -0.045603417 0.0536191 0.047940783 0.051710162
0001f0 0a 07 3e 3d ec 0f 2e bd 67 7d 80 bd 5c 2d a1 3d
       0.04639343 -0.042495653 -0.062739186 0.0786998

node_encoder.lins.2.weight f4 [128, 128]
000000 42 1c 9b bc c6 73 10 3d cb 21 e9 3b 79 b3 39 bd
       -0.018934373 0.03526666 0.007114624 -0.045337174
000010 56 8d f1 3b a0 7c 62 3c 6a c1 72 bd 43 0b b2 bc
       0.007371585 0.013823658 -0.059266485 -0.021733886
000020 03 66 aa bd 0f 22 0c 3d 2d 8b 95 3c c3 10 5e bd
       -0.083202384 0.03421217 0.01825484 -0.054215204
000030 db 18 71 3d 22 21 27 bd 05 19 f6 bc 07 86 ad 3c
       0.058861595 -0.040803082 -0.030041227 0.021182073
000040 62 83 2b bd 9c 58 fd bc b4 0e 33 bd e6 cc 01 3d
       -0.041873343 -0.030926041 -0.043715194 0.031689547
000050 68 76 b0 bc f3 43 89 3d 73 78 99 3d aa e4 b8 bc
       -0.021540835 0.067024134 0.07493677 -0.022569973
000060 9c 78 05 bc b2 c3 32 bd 67 62 96 bc e1 3e c0 3c
       -0.008146431 -0.04364366 -0.018357469 0.023467483
000070 c8 2c ef 3c f5 ad 9c bd 46 d2 04 bd 1f 2f 5b 3d
       0.029196158 -0.07650367 -0.032427095 0.053511735
000080 73 50 3a 3d ca 70 41 3d 02 60 85 3c e9 4a ab 3a
       0.04548688 0.047226705 0.016281132 0.001306859
000090 e9 5c 4d 3d fe e3 db bc e0 6b 43 bb df 2b 3d bd
       0.050137434 -0.026842114 -0.0029818937 -0.046184417
0000a0 8d 94 75 3d 29 66 ad bd 45 84 77 3d 4c ed fa 3c
       0.059956122 -0.08466751 0.060428876 0.03063073
0000b0 e2 0b ca 3b a4 a7 95 3d 1b 98 db ba 96 a3 3c 3d
       0.0061659673 0.073073655 -0.0016753705 0.046054445
0000c0 c0 85 87 bd c4 e2 60 bb ca bf a5 3c 23 98 ef bc
       -0.06617308 -0.003431485 0.020233054 -0.02924735
0000d0 22 15 27 3a 22 18 d5 39 9d 7e 11 bc 30 99 a8 bd
       0.00063736935 0.00040644506 -0.008880285 -0.08232343
0000e0 46 e0 d8 3b 1d 21 01 3d 51 fc 86 bd a2 97 52 3d
       0.0066185324 0.03152572 -0.06591094 0.05141414
0000f0 58 ff 27 bd d4 db 8c 3d fc f9 26 bc 2c f8 8d 3d
       -0.041015 0.068778664 -0.010191437 0.06932101
000100 bc 44 1c bb 82 af a1 3c 5b de 7d 3d 6c 88 c6 3c
       -0.002384468 0.019737009 0.061979633 0.024234973
000110 d6 ff ea bc d7 6d 0c bc d6 46 a9 3c 12 a1 c7 bc
       -0.028686445 -0.00857111 0.02066366 -0.024368796
000120 2c 25 80 3b 5c 60 84 bd 7b f3 9e 3d 4b 37 68 3d
       0.003910681 -0.064636916 0.07761284 0.056693356
000130 cf d1 8b bc 6c 11 cb 3b 07 91 0b bd f7 fa b8 bd
       -0.017067818 0.006197145 -0.034073856 -0.09032243
000140 b8 d4 44 3d e8 66 1e 3d c7 f1 89 3d 5f df 85 bd
       0.048054427 0.038672358 0.067355685 -0.06536745
000150 ae ae 87 bc 7c 8c 41 3c 56 ba b6 bb 4b bc 49 bb
       -0.016562786 0.011813279 -0.005576412 -0.0030782397
000160 bf 26 5a 3c a4 8b 80 bd 6f bf a1 3d 72 f0 ad 3b
       0.013314902 -0.06276634 0.07897841 0.0053082043
000170 a6 38 32 bd a6 d0 f1 bb fc aa bb 3c fd d8 7f 3c
       -0.043511055 -0.007379609 0.02290868 0.015615699
000180 74 91 c4 3c ac 54 93 bc 62 19 27 bd e7 0c 8e 3d
       0.023995139 -0.01798471 -0.04079569 0.06936055
000190 f3 03 44 bd 2d 85 10 3b 41 71 83 3d f7 77 af bc
       -0.04785533 0.0022052035 0.06418086 -0.021419508
0001a0 79 83 26 3d 24 21 0a bd ca ea 23 3d b0 a4 47 bc
       0.040652726 -0.03372301 0.040018834 -0.012185261
0001b0 21 f4 97 bd a8 da 12 bd 69 18 0b 3d cc a8 d8 bc
       -0.07419611 -0.035853058 0.033958826 -0.026447676
0001c0 6f 0a f5 3c 71 c7 04 3c ec df 6b 3d 66 5f 0f bd
       0.029912202 0.008104191 0.057586595 -0.03500309
0001d0 23 0a 22 bd 70 53 9c 3c c7 bc c9 bc cf 6d 32 bd
       -0.03956045 0.019082755 -0.024626149 -0.043561753
0001e0 3e e1 6f ba 20 1c ba bb 49 40 01 bc 68 26 89 3d
       -0.000915069 -0.0056796223 -0.007888862 0.066967785
0001f0 73 bc 61 3c 25 4c 44 bd 55 be fe bc 09 af 3e 3d
       0.01377784 -0.04792418 -0.031096617 0.046553645
000200 6f 71 45 3d b7 48 b7 3d 98 e2 13 3c 27 fd 87 3c
       0.04820388 0.08949416 0.009026192 0.016600205
000210 a0 9f 78 3d dd fd 8a bd fc 85 f3 3a 8c db 73 bd
       0.060699105 -0.06786702 0.0018579359 -0.059535548
000220 99 ee a2 bd 80 11 cd bd 0e 07 c7 bd ae 2c 0b 3c
       -0.07955665 -0.100131035 -0.097181424 0.008494539
000230 f4 ea c9 bc 6f b5 a3 3d d4 c3 7e bd 75 17 83 3c
       -0.024648167 0.0799359 -0.062198475 0.016002396
000240 ed 67 7d bc 4c 9f 13 bd e4 6b 01 bd 28 c0 92 3d
       -0.015466672 -0.03604059 -0.031597033 0.07165557
000250 17 78 0a 3d 9d 5c 58 3d 42 61 2b 3c 63 62 f1 3c
       0.033805933 0.052822698 0.0104602 0.02946586
000260 6e ee 19 3d 6c 79 79 3c 94 47 87 bd d5 b7 b6 3d
       0.0375809 0.015226703 -0.06605449 0.08921782
000270 cc 9a da bc 8d 76 b4 3c d2 52 2b bd 20 a6 e7 3c
       -0.026685141 0.022029186 -0.04182703 0.028277457
000280 4e dc d8 3b 25 10 93 3d 1a ca 15 bb 3f d3 a2 bc
       0.0066180592 0.07180814 -0.0022856058 -0.01987612
000290 82 c7 91 bc 30 72 67 3d 02 f9 11 bd b8 14 ef 3a
       -0.017795328 0.056505382 -0.035637863 0.0018240428
0002a0 6f f7 66 bd 75 f6 4c bc e1 b7 c8 bd b5 00 5f 3b
       -0.056388315 -0.012509932 -0.09800697 0.003402752
0002b0 44 dd 97 bd ae 6c a2 bd 8f 65 28 3c 6c 24 8d 3d
       -0.0741525 -0.07930885 0.01027812 0.068917125
0002c0 ee a1 a8 3d 3d 6c 8e 3d e1 36 2b bd 16 64 86 bd
       0.08234011 0.069542386 -0.041800383 -0.06562059
0002d0 b6 e9 85 3c 7f 81 2f 3d c4 1b d0 3b 09 8d 8a bd
       0.016346794 0.042848106 0.006350966 -0.067651816
0002e0 f1 37 cf 3c ec 88 3e bd c4 1a 91 bd a9 5c 08 3c
       0.02529523 -0.046517298 -0.07085183 0.008322873
0002f0 68 3a b5 3d 48 86 c4 3d e4 41 51 3c 91 ee 6e bd
       0.08849031 0.095959246 0.012772057 -0.058332983
000300 e8 84 05 3d 39 2b 8f bd ec 9b 32 3d b1 94 bd bc
       0.032597452 -0.06990666 0.04360573 -0.02314219
000310 f4 f2 a0 3d 59 c6 bc 3d c0 3e ea bc 45 cb 78 bd
       0.0785884 0.09217519 -0.028594375 -0.060740728
000320 03 fa 5e bd 64 4a ba bc 83 c9 8c 3d 35 dd aa 39
       -0.05443765 -0.02274055 0.06874373 0.0003258974
000330 2f 12 94 3d 8f a1 08 bd 1f e0 03 bd e4 2a 99 ba
       0.07230031 -0.0333572 -0.03219616 -0.0011685756
000340 83 5c bd 3c f0 5b 90 3d 4e 76 98 bd e2 77 0d bd
       0.023115402 0.07048786 -0.0744444 -0.034538157
000350 47 66 5f bd c8 b8 4a bd c6 95 fa bc ba 0d 76 3d
       -0.0545409 -0.049492627 -0.030588996 0.060071684
000360 e5 64 f7 3c 08 18 31 bd ab f8 cc 3c c0 a3 23 3b
       0.030199477 -0.04323581 0.025020918 0.0024969429
000370 5a 0e a5 3d 00 45 bc 3d d2 97 9e bd d3 db cd 3d
       0.08059378 0.09192848 -0.07743801 0.10051694
000380 93 f1 59 bd 28 57 73 3d af 87 5c bd ef 6e 31 3d
       -0.0532089 0.05940929 -0.053840335 0.043318685
000390 16 48 6d ba 56 5c 88 bd 49 b6 45 bd 59 a7 a7 3c
       -0.0009051574 -0.06658237 -0.048269544 0.02046554
0003a0 1b 8d b0 bd 59 69 86 bc 42 2c 3a bd f1 7a 00 3d
       -0.08620664 -0.016407656 -0.045452364 0.031367246
0003b0 50 e8 92 3d a4 9c 51 3c a3 c7 8a 3d 40 85 0f 3d
       0.07173216 0.012793694 0.06776359 0.035039186
0003c0 04 83 17 bd cd 18 d2 bc 76 31 cd 3d 1c ea 04 3d
       -0.03699018 -0.025646592 0.100191996 0.032449827
0003d0 86 07 61 bd 80 00 1d bd f2 a7 35 bd ce e6 ac 3d
       -0.054938816 -0.038330555 -0.04434962 0.0844246
0003e0 00 05 aa 3d f4 42 5c bc 0a 80 92 bd 9a 2f aa bc
       0.08301735 -0.013443697 -0.07153328 -0.020774651
0003f0 fb 09 b6 bd 39 70 10 bd b4 40 b4 bd 0c 0c 99 3c
       -0.088886224 -0.035263274 -0.08801404 0.018682502

node_encoder.lins.2.bias f4 [128]
000000 5f 18 9f 3c 91 f7 d6 bc ec af 8f bb 49 7b 80 3d
       0.0194208 -0.026241096 -0.004384985 0.06273515
000010 44 58 aa bd d0 28 95 3d 9a 2a 5b bc fe 16 53 bd
       -0.083176166 0.07283175 -0.013376856 -0.0515356
000020 b9 b1 52 3c b0 3b 25 3d 59 29 42 3d f7 e7 04 3b
       0.012859755 0.040340126 0.047402713 0.0020279863
000030 ad ce c6 bc 85 8a 9f 3d d8 7e af 3b 46 ee 81 3d
       -0.024268473 0.077900924 0.005355697 0.06344275
000040 09 5b 05 3d ea 55 33 bd 51 cd 0a 3d 62 dd 51 bd
       0.03255752 -0.043783106 0.03388721 -0.051236518
000050 8e 4c a8 bd ef bf 04 bd e8 46 f4 3c a9 01 98 bd
       -0.08217727 -0.032409605 0.029818967 -0.07422192
000060 0b 27 45 bc 4d 3f 98 3d c0 cb 8a 3d 37 c9 44 bd
       -0.012033234 0.07433949 0.067771435 -0.048043456
000070 3b 6f 49 bd ff 73 bf bd 4d 5f b2 3d 45 99 1f 3c
       -0.049178343 -0.093482964 0.087095834 0.009741132
000080 29 77 ba 3d 0a 45 42 bd cb 42 84 bd 7f ce ce bc
       0.09104759 -0.047429122 -0.06458052 -0.02524495
000090 08 fb 9b bc e4 43 3c bc 2a 1f 89 3d a6 bf 8a 3d
       -0.0190406 -0.011490796 0.06695397 0.06774835
0000a0 22 d7 e1 bb 1c 24 3f 3d 54 0d 02 3d b8 48 93 bd
       -0.006892101 0.046665296 0.031750992 -0.071916044
0000b0 00 67 68 bd 1c b9 00 bd fa fd 98 bd f2 db 05 3d
       -0.056738853 -0.031426534 -0.07470317 0.03268046
0000c0 ea 19 af bd d0 27 a0 bc 4c 25 0b bd 29 8a d3 3c
       -0.085498646 -0.019550234 -0.033971116 0.025822716
0000d0 02 cf 90 3d 9a ab 1a 3d 01 0f 8b 3d 7b 6e db 3b
       0.070707336 0.03776131 0.06789971 0.00669652
0000e0 af e0 29 bd 58 89 4a 3c 44 70 33 3d 52 25 9b 3c
       -0.04147404 0.012361847 0.043808237 0.018938694
0000f0 9b 18 4d bd 7d 62 95 3d 0d c0 87 bd dc cc b5 3d
       -0.050072294 0.07294176 -0.06628428 0.088769644
000100 3d ee 43 39 49 5e 2a bd 55 77 22 bd f4 a2 9f bc
       0.000186854 -0.041593824 -0.039664585 -0.019486882
000110 fd d5 a3 bd f7 86 9c 3d d9 92 b6 bd 42 3f 8d bd
       -0.079997994 0.0764293 -0.08914728 -0.06896831
000120 0d 2c ab 3c e3 b6 26 3d 8b 34 33 3d ba 66 4b 3b
       0.020895028 0.040701758 0.04375128 0.0031036572
000130 1e b9 91 bd 68 3f c6 3c 4e 1e d5 3c f6 24 13 bd
       -0.071153864 0.024200156 0.026015427 -0.03592392
000140 f7 41 38 ba 46 63 ad bc d1 09 b8 bc 80 33 8c 3d
       -0.00070288725 -0.021165501 -0.022465618 0.0684576
000150 18 94 e4 3c 73 c4 56 bd 31 96 68 bb c5 3c 9d bd
       0.027902648 -0.052433442 -0.0035489912 -0.076776065
000160 80 cf cc 3c 28 56 a4 bb 11 0b 85 bc a4 90 56 3d
       0.025001287 -0.0050151534 -0.016240628 0.052384034
000170 37 8c 81 3d d8 ee 22 3d 21 78 10 3d 0b c3 9a 3d
       0.06325572 0.03977856 0.035270814 0.07556733
000180 06 a7 32 3d 87 c8 a6 bd 6d bd ac 3c 67 39 93 3d
       0.043616317 -0.08143716 0.021086419 0.07188683
000190 da f5 83 3c a2 b9 51 3d ae 18 9f 3d 8d 50 65 bd
       0.016108442 0.051202424 0.07768379 -0.055985022
0001a0 7d 4e 8d 3d 21 00 a3 bb 62 82 8a 3d bb b9 92 3c
       0.06899736 -0.0049743806 0.0676315 0.017910829
0001b0 dc f4 7e bc 5d aa 3e 3d c9 6a 9d 3d 4a d6 1d 3d
       -0.015561309 0.04654919 0.07686383 0.03853444
0001c0 03 92 70 3d df 20 51 bd a9 b7 4e bd 31 de 6b 3d
       0.058732998 -0.05105674 -0.05046812 0.057584945
0001d0 5a 9a 06 3d d0 7a f9 bb 7d 1b 2d 3d 71 36 27 3d
       0.032862045 -0.0076135173 0.042262543 0.040823404
0001e0 05 40 08 3d f5 6d 0d bd fc c2 5e bd ae 16 90 bd
       0.03326418 -0.03452869 -0.05438517 -0.07035576
0001f0 66 67 e6 3b b8 3c 9c bd 39 f2 16 3d 17 36 b5 bd
       0.007031369 -0.07628769 0.036852095 -0.088482074

edge_encoder.lins.0.weight f4 [128, 2]
000000 f8 1d bb be 56 ea 33 bd 2e 23 a9 3e cc 54 fb bd
       -0.36546302 -0.043924652 0.33034652 -0.12272033
000010 71 aa eb bd 69 59 44 34 2a 56 a4 3d 96 1d 94 3e
       -0.115071185 1.828645e-07 0.08024247 0.28928822
000020 1e cd 40 be e0 6d c1 3d f6 e9 b0 3e a2 09 30 bc
       -0.18828246 0.09444785 0.34553498 -0.010744484
000030 5c 5c b8 be e5 d9 7c bd 7a 67 40 3c 2d d2 28 b5
       -0.36007965 -0.061731238 0.011743421 -6.2890723e-07
000040 04 6d e0 be cd a7 83 3e 0d 02 c0 be 00 1d 7a 3c
       -0.43833172 0.2571396 -0.37501565 0.015265703
000050 bd 3e 08 bf 80 42 b1 3e c8 79 e7 bb 63 99 87 bd
       -0.5322073 0.34621048 -0.007064078 -0.06621053
000060 b5 d1 b9 bb ae e6 8c 33 0a 44 63 be 23 34 d9 bd
       -0.005670751 6.5612184e-08 -0.22193924 -0.106056474
000070 20 18 08 bf 0d c0 25 be 28 e8 de be 81 27 a6 3e
       -0.5316181 -0.16186543 -0.43536496 0.32452014
000080 28 9a 06 bf 23 03 7a be e8 78 d3 3e be 5d 5c 3e
       -0.52578974 -0.24415259 0.41303182 0.21520135
000090 8a 71 0b bd d5 a4 a4 be 01 b9 9f 3e 6e e6 bd 3e
       -0.034043826 -0.32157007 0.31195834 0.37089866
0000a0 92 e1 f1 be 7b f7 13 be 78 32 1b bf 48 15 81 3d
       -0.4724241 -0.14449875 -0.60623884 0.06302887
0000b0 13 12 fb 3d b3 34 bc be b2 e0 9a be a0 7e 6b 3e
       0.12259307 -0.36758956 -0.30249554 0.22997522
0000c0 e9 c5 1a 3f 2c ec 0f 3e a3 59 23 3f c2 4a 00 bc
       0.60458237 0.14054936 0.6380865 -0.007830324
0000d0 95 d1 04 3f ba a0 95 3e 38 1c 13 3f b9 fb a6 36
       0.51882297 0.29224187 0.57464933 4.97649e-06
0000e0 92 de 60 bd 13 85 7f bc 9f 4c 0e 3e 3d d8 a0 be
       -0.05489976 -0.015595692 0.13896416 -0.31414977
0000f0 cf 9d 35 bf 01 59 99 3e 5b 5d 1b 3f ee b3 c2 3e
       -0.7094392 0.29950717 0.60689324 0.380279
000100 a0 e1 28 3f 94 e3 fb bd 41 6f 0b 3f ec bf 72 be
       0.65969276 -0.122992665 0.54466635 -0.23706025
000110 21 6f b6 3e 42 8a a0 3d 64 d6 2c 3b 6d 7c 59 3d
       0.3563166 0.078388706 0.0026372904 0.053097177
000120 37 81 08 3f 3c fb 46 3c 6d b1 e7 3d a7 1d 55 3e
       0.53322166 0.01214486 0.11313138 0.20812093
000130 11 1b 07 bd e3 45 1c be 9b a2 57 be 30 02 c5 be
       -0.032984797 -0.15261035 -0.21058123 -0.3847823
000140 1c e4 82 3e 0e 82 a2 bd e9 bd c6 bd cb 78 ff bc
       0.2556466 -0.07934962 -0.09704191 -0.031185528
000150 2b b2 e8 be 61 eb 6d 3e f1 29 1f bf 3c c6 a9 38
       -0.4544843 0.23234321 -0.6217337 8.095472e-05
000160 d1 97 91 be 66 64 a9 3e 9f 44 e2 be 14 f9 94 bc
       -0.2843614 0.3308441 -0.4419298 -0.018185176
000170 a9 39 1f 3e 40 6f b1 3e cf b3 1a bf 47 49 98 3e
       0.1554934 0.3465519 -0.60430616 0.29743406
000180 95 5b b3 3e 11 99 db 3a 91 c0 de be af 2a 5a bc
       0.3503081 0.0016753991 -0.43506292 -0.013315841
000190 93 0e 73 3e 45 bf 6e be ba 39 69 be 55 3c 21 33
       0.23736028 -0.23315151 -0.22775927 3.7540605e-08
0001a0 d1 5d 14 3f 8f 83 41 35 cb 0b 67 3e 06 8f f3 3d
       0.5795565 7.2089546e-07 0.22563092 0.11892514
0001b0 3f da 41 be cd f4 1e 3e a8 16 55 3e 1b 47 25 3b
       -0.1893091 0.15523072 0.20809424 0.0025219384
0001c0 02 8e 21 3f 9f 08 4b ba 9c 46 95 3e 15 ee c8 3e
       0.6310731 -0.000774512 0.29155433 0.39244142
0001d0 87 34 1f 3e 43 aa b7 33 53 bf 24 3f 44 52 c4 bd
       0.15547381 8.552572e-08 0.6435444 -0.095860034
0001e0 c7 6d 21 3f 48 6d c5 35 6b d8 1a bf d7 6b 39 bb
       0.6305813 1.4709449e-06 -0.6048648 -0.0028293037
0001f0 30 58 40 3e be 88 46 bc 65 6e 73 3e 57 b5 0a 3e
       0.18783641 -0.012117563 0.23772581 0.13545738
000200 d4 05 21 3f df 1d 9b 3e 21 8b 00 bf 0d 7e 4d 3e
       0.6289952 0.30296227 -0.50212294 0.20067616
000210 c2 9d 10 bf 30 d1 16 b8 14 1c 0b 3e ac 06 08 bd
       -0.5649072 -3.5957608e-05 0.1358493 -0.033209488
000220 b1 43 04 bf 21 44 26 be 48 25 a2 3e 1f 97 d3 bd
       -0.5166579 -0.16236927 0.31669068 -0.103315584
000230 9a 17 db 3e 7c d4 62 3e 2e bf 99 3e 68 99 6c 35
       0.42791444 0.22151369 0.3002867 8.8140087e-07
000240 cf 23 f3 3d 64 48 67 3d ec a8 10 3f 0a 76 e7 33
       0.11872064 0.05646552 0.56507754 1.0778247e-07
000250 15 9d c6 3e aa 26 aa 3e 50 1d 6e be 0e aa c7 3e
       0.3879172 0.33232623 -0.2325337 0.3899693
000260 e0 2f 80 3e ff e0 15 be ef c6 8c 3d 45 aa c3 bd
       0.25036526 -0.1463661 0.06873881 -0.09553961
000270 d8 98 1b 3f c1 36 6f bc ba a6 00 3f 4f 4d 86 be
       0.60780096 -0.014600457 0.50254405 -0.26230857
000280 9a 50 ca 3e c6 f6 82 3e 92 db 6a 3e ad 1a 71 35
       0.3951462 0.25578898 0.22935322 8.9818315e-07
000290 4a 8d 14 3f 16 60 c0 bd 35 31 33 be da cf d1 35
       0.5802809 -0.09393327 -0.1749924 1.5632206e-06
0002a0 5f 04 86 bd c1 79 4a 3d fd fb 09 3e 15 18 c9 bb
       -0.065438025 0.04943252 0.13475032 -0.006136904
0002b0 13 61 1f bf 6c ba cc 3e dc e6 00 3f 28 98 ff bc
       -0.622575 0.3998598 0.50352263 -0.031200483
0002c0 33 26 89 be 3e 46 36 3c 2c b5 85 3e 03 35 35 35
       -0.26786956 0.0111251455 0.26114786 6.7504897e-07
0002d0 18 60 ca 3e 6c 55 c0 3e 3a ad 4d bd 85 5a 76 be
       0.3952644 0.37565172 -0.05021403 -0.24057968
0002e0 51 a7 ec bd 0d 83 c0 bd 8a 59 1e 3f 59 ed 0d 3e
       -0.115553506 -0.09399996 0.61855376 0.13860072
0002f0 5e 98 4a be 4c 4d 41 be 6d 2e 48 be f0 5c 83 be
       -0.19784686 -0.18877143 -0.1954896 -0.25656843
000300 82 0f 1b 3f 79 00 36 3d 08 59 14 bf 97 ca f0 b4
       0.6057054 0.044434045 -0.5794835 -4.4850887e-07
000310 3a 2b 24 bf 5e 81 df 3a 50 8a 11 bf b7 ec bb b4
       -0.6412846 0.0017052104 -0.56851673 -3.5003697e-07
000320 2a 13 83 be 9d 87 a9 3e 86 83 2a 3f 51 02 3a 3d
       -0.2560056 0.33111277 0.6660694 0.045412365
000330 0e b4 2a 3f 77 6b 3c bd f2 86 f8 ba b5 1c 70 35
       0.6668099 -0.046000924 -0.0018961115 8.944874e-07
000340 81 74 87 be bf 42 be be a1 ff d5 3e b7 b9 b3 be
       -0.26456073 -0.37160298 0.41796592 -0.35102627
000350 a0 03 fc bd 0e d8 8d be 60 02 ec 3d a5 c7 ae 3e
       -0.12305379 -0.277039 0.115238905 0.34136692
000360 68 6e 2c 3f 3d 63 ba 3e 4f 47 0a bf bc 6f 67 3d
       0.67355967 0.36403838 -0.5401506 0.056503043
000370 49 07 1f bf cb ab b0 3d 9b 83 ef be b8 a7 c3 be
       -0.6212049 0.08626517 -0.46780095 -0.38213897
000380 85 da 5a be 5c 5f ae bb 1d 95 47 be 93 69 73 3d
       -0.21372421 -0.0053214263 -0.19490476 0.059426855
000390 cb fa 2d 3f d3 e3 68 35 da f4 ab 3e 57 dd 4f 3e
       0.67960805 8.675826e-07 0.33585244 0.20299278
0003a0 f9 59 5d 3e f1 58 84 34 3a 21 19 bf 2b 5d 1d 3e
       0.21616353 2.465163e-07 -0.59816325 0.15367572
0003b0 bb ef 0c 3f df 5e fd 35 cb 25 0c 3f 9b 50 f9 33
       0.550533 1.887758e-06 0.5474517 1.1609628e-07
0003c0 85 f4 00 3f c0 14 ef 35 15 51 05 3e 61 f1 67 35
       0.5037311 1.7812927e-06 0.13019212 8.640546e-07
0003d0 6b fc 36 be 41 ab e2 ba 32 e5 80 3e fa dd a1 be
       -0.17869727 -0.0017293469 0.25174862 -0.31614667
0003e0 1e eb c9 3e 0f 20 89 3e 64 f6 da 3e 41 a9 34 be
       0.39437193 0.2678227 0.42766106 -0.1764269
0003f0 22 af 2b 3f c1 ea 88 3d d8 f1 11 bf 29 ff 07 3c
       0.67064106 0.06685401 -0.5700965 0.008300581

edge_encoder.lins.0.bias f4 [128]
000000 d6 c5 b7 be 1f 60 2a 3f b5 a1 ce 3c 2a 6d f7 3e
       -0.35893124 0.6655292 0.025223592 0.48325473
000010 31 84 09 3e 58 ff aa be 5f 22 93 be 34 ec 2e 3f
       0.13429333 -0.33397937 -0.2873716 0.6832917
000020 b8 b6 2f 3f fa 35 ce 3e 64 6c f1 3e 7e c6 ea be
       0.6863818 0.40275556 0.47153008 -0.45854563
000030 f7 f1 0e bf 9d df b5 bd 81 44 f7 3e 10 8c bd 3e
       -0.5583796 -0.088805415 0.48294452 0.37020922
000040 5e f4 f6 3e c1 6e a9 3e 06 53 00 bf 42 5e 04 bf
       0.48233312 0.3309231 -0.50126684 -0.51706326
000050 78 eb 37 be 4a 12 e5 be 01 76 82 bd dc d7 11 be
       -0.17960918 -0.44740516 -0.06370164 -0.142425
000060 bc c4 f8 3d cc 0f 08 be 36 35 a3 be 01 76 f6 3e
       0.12146899 -0.13287276 -0.31876534 0.48136905
000070 ec 11 c7 3e f8 87 08 3c bc af 09 bf 00 e2 f3 be
       0.3888086 0.008333199 -0.53783774 -0.47633362
000080 a1 de f8 be df bc 3c bd ec 89 0c bd 58 ac 2d 3f
       -0.48607352 -0.04607856 -0.03431122 0.678411
000090 04 9a fe 3d c5 25 6b bd a2 46 95 be 48 c2 ea be
       0.1243172 -0.057409067 -0.2915545 -0.4585135
0000a0 0e 7e 47 3e ab ac c2 be ef 98 7d be ba 46 1d 3f
       0.1948168 -0.3802236 -0.24765371 0.61436045
0000b0 29 6a c4 3d 6a 5f ec 3e 2c 8b 4d be 3c 35 9a 3d
       0.09590561 0.46166545 -0.20072621 0.07529685
0000c0 42 9d 17 3f c1 14 b4 be be 5b f3 3e 9f 7a e8 be
       0.5922433 -0.35172084 0.4753093 -0.45406052
0000d0 fa 29 46 be c4 bf ba 3e 32 4b bd be bc bc fc 3e
       -0.1935195 0.3647443 -0.36971432 0.49362743
0000e0 fc 85 c0 be 75 e7 02 3f d2 ee 99 be 85 58 97 be
       -0.37602222 0.51134425 -0.30065018 -0.29559723
0000f0 a6 df 9d 3e 7d e7 7d 3e 48 e3 8c bd fd 5a 05 bf
       0.30834693 0.24795337 -0.06879288 -0.5209196
000100 fa 2e 07 be 0e 53 10 3f e1 38 01 3f 2b d0 79 3e
       -0.13201514 0.5637673 0.50477415 0.24395816
000110 84 b8 f1 3e d6 c0 ce be ba e6 29 3f 77 8c 07 3f
       0.47211087 -0.40381497 0.66367686 0.5294871
000120 d7 ab 2e 3f 8e ce be be 97 cd 1e be 18 24 65 be
       0.68230957 -0.37266964 -0.15508114 -0.2237705
000130 35 13 a3 3e 47 c2 15 3f cc 78 70 be da 63 a0 be
       0.3185059 0.5849957 -0.2348358 -0.3132618
000140 dc 78 42 be 59 d1 d2 be b8 bb 53 be 27 1c ab be
       -0.18991417 -0.41175345 -0.20677078 -0.33419916
000150 3c 1b c4 bc ec 4c a2 bd 71 5a 9d 3d f3 3d 98 be
       -0.023938768 -0.07924828 0.07683266 -0.29734764
000160 c7 89 73 be f2 cb 85 be 4c 58 28 be 03 1a 94 bc
       -0.23783027 -0.2613216 -0.16439933 -0.01807881
000170 fb a3 8d be a7 4e b4 be 63 f4 98 3e 0c bc c7 3e
       -0.2766417 -0.35216257 0.29873952 0.39010656
000180 9a 62 d4 be 87 3c 16 bf 19 8e 38 be 00 ba d9 be
       -0.41481477 -0.5868611 -0.18022956 -0.4252472
000190 46 4c 0c 3f 94 5b f0 3c 4d 2b 85 3e e3 d4 ea be
       0.54803884 0.029340543 0.26009598 -0.45865545
0001a0 92 b5 92 be d4 b7 30 3e d6 9a 18 bf 6f 9f 26 be
       -0.28654152 0.17257625 -0.5961126 -0.16271757
0001b0 75 6f d0 be 71 ef 24 3f 16 c6 44 be 64 a6 ad be
       -0.40710035 0.6442786 -0.19216189 -0.33916008
0001c0 e0 ec b8 3d e3 47 96 be b1 34 81 be bf 06 1f 3d
       0.09029555 -0.2935172 -0.25235513 0.038824793
0001d0 29 f8 12 bf 7b 69 f6 bd 28 7f 2e be 0f 2a 1e bf
       -0.5740991 -0.120318376 -0.17040694 -0.61782926
0001e0 e1 bf e1 3e 99 47 81 bd 67 ac 73 bd 50 b9 b4 be
       0.44091704 -0.06312484 -0.059490588 -0.35297632
0001f0 d3 a8 93 3e d3 4a b0 be a4 47 8c 3e 35 ea 2a 3e
       0.2883974 -0.34432086 0.27398407 0.16690905

gnns.0.mlp.0.weight f4 [256, 128]
000000 74 47 e2 bb 34 ce 9e bd c9 4a 05 bc 37 10 8b bd
       -0.0069054905 -0.07754174 -0.008135506 -0.06790202
000010 7f e2 20 bd 8d dc 48 bc cc e9 74 bc 9a 4d 99 3d
       -0.039278504 -0.012259615 -0.01494832 0.074855044
000020 3f 99 8b 3d e1 e0 94 3d e3 ad 99 3d 90 e6 cf 3c
       0.06816339 0.07269455 0.075038694 0.025378495
000030 fd a1 9d bc c5 85 fd 3c 88 7b cd b9 9a 21 94 bd
       -0.019242281 0.030947575 -0.00039192685 -0.072329715
000040 6c ef 94 3c 0f 1c b9 bd e2 bf 3f bd f8 bf 39 3d
       0.018180571 -0.09038555 -0.046813853 0.04534909
000050 d9 04 13 bc 75 a0 fc 3c 07 84 47 bc 0c 99 a5 bd
       -0.008973324 0.03083823 -0.012177474 -0.08085832
000060 20 06 1f 3b 2a 42 95 bd 60 9b f4 3c 84 9b 92 3d
       0.0024265125 -0.072880104 0.029859245 0.071585685
000070 e0 a0 21 3d 94 fa a4 bd 37 54 f2 bc 08 18 82 bd
       0.039460063 -0.080556065 -0.029581172 -0.0635224
000080 11 58 fd 3a 10 b0 89 bd ae 48 ba 3c c4 35 bb bc
       0.0019328614 -0.067230344 0.022739735 -0.022852786
000090 d4 cd f2 bc b1 48 bc bd 47 10 a9 bc 35 77 72 bc
       -0.029639162 -0.09193552 -0.020637644 -0.014798929
0000a0 21 36 0a 3d 7e 28 94 3d aa c8 dd bc 93 c3 78 3d
       0.033743028 0.07234286 -0.027073223 0.06073339
0000b0 41 d1 e5 bc 79 63 68 3c ff e5 da 3c 90 c4 21 3d
       -0.028053882 0.014183872 0.026720999 0.039494097
0000c0 9f 06 b1 bd 44 1a 40 3c 8a 69 cf 3b 60 57 3e bc
       -0.08643841 0.011725012 0.00632972 -0.0116175115
0000d0 80 6a 56 3d ce 49 11 3d 7b f9 27 3d 01 44 2c 3a
       0.05234766 0.035470776 0.041009407 0.00065714127
0000e0 e3 95 0a 3d 62 d0 74 3d a2 e2 8f ba 56 7f c6 bb
       0.03383435 0.05976904 -0.0010977576 -0.00605766
0000f0 4c bf 67 3b 75 91 99 bd ad b8 26 bc 56 a3 87 3d
       0.0035361825 -0.07498447 -0.010175866 0.06622951
000100 86 b9 ab bd 23 7b 9b 3c b5 01 b1 3d 01 71 94 3d
       -0.08384995 0.018979615 0.08642904 0.07248116
000110 4e 9d 8a 3c 31 40 a0 3d a3 5b a5 bd fc 6f 15 bc
       0.016920712 0.078247435 -0.08074119 -0.009120937
000120 75 96 5a 3d 0c 0b 4b 3b d6 52 95 bc 2e 56 ab bc
       0.053366143 0.0030981926 -0.018227976 -0.020915117
000130 e7 a9 52 3c d1 c2 e1 3b f7 5b 41 3d e2 be 56 3d
       0.012857891 0.006889679 0.047206845 0.052428134
000140 2a d4 ad bd ff c8 1d 3d 78 f1 7e bd c5 d7 8c 3d
       -0.08487733 0.038521763 -0.062242 0.06877092
000150 db 3b 63 bc 1b a5 00 bc 38 3b a1 bd 76 e4 a4 bd
       -0.013869251 -0.007851864 -0.07872623 -0.08051388
000160 11 a9 38 bd e5 26 a1 bd d1 e4 b7 bd 7c 4f 55 3d
       -0.04508311 -0.07868747 -0.0897919 0.052077755
000170 33 1e 0a bc 57 24 8c 3d 07 07 62 bd 32 91 99 b9
       -0.008430052 0.06842869 -0.055182483 -0.00029290613
000180 b0 14 78 bd ba e6 e8 bb 7d 1b 16 3d 60 f2 94 bc
       -0.060566604 -0.007107583 0.03664731 -0.01818198
000190 0c 7d 03 3c 5b 7c b4 3c 1c cd 97 3d be f2 d9 3c
       0.008025419 0.022031954 0.074121684 0.026605006
0001a0 b2 2f df bb 0a 36 6f 3c 36 8b d2 bc 26 bb 54 bd
       -0.0068111056 0.014600286 -0.025701147 -0.05193629
0001b0 2d d5 27 bb 16 54 60 3d b4 8e 98 bc be 15 83 3d
       -0.002560924 0.05476769 -0.018622734 0.06400631
0001c0 88 f5 f6 bc 9e b0 3f 3c 2d 9d 14 3d 13 24 aa 3d
       -0.030146375 0.011699824 0.036282707 0.08307662
0001d0 a6 11 b8 bc 80 b5 3e 3c fe 7d 84 bd 86 fa 9f bb
       -0.022469353 0.011639953 -0.064693436 -0.0048821596
0001e0 49 b3 af 3c 5a 6b 76 bc 87 1f b3 bb df fe 91 bd
       0.021447795 -0.015040243 -0.005466405 -0.07128691
0001f0 4c f6 b2 bc c2 07 ad 3c 5b dc 33 3d 90 03 fe 3b
       -0.02184596 0.021121863 0.04391132 0.0077518895
000200 ca 0d 0d 3d e4 5c e5 bb 1b 70 47 3c 61 94 6e bd
       0.03443698 -0.006999599 0.012172724 -0.058246974
000210 9f b7 59 bc a9 bb 2c 3d 70 f9 47 3d 9a bb a2 3d
       -0.013288408 0.042171154 0.048821867 0.079459384
000220 ea 3a c8 bb 1c 2b 0b bd 20 74 4f 3d 7b e1 83 bb
       -0.0061105387 -0.03397666 0.050647855 -0.004024682
000230 6d d6 64 bc 62 25 ed ba fe 5c 90 3d e5 26 c8 bc
       -0.013967139 -0.0018092806 0.07048987 -0.024432609
000240 fd 66 e4 3c 85 a6 55 3c 6f b1 b7 bc 2c d7 70 bc
       0.02788114 0.01304019 -0.022423474 -0.0146997385
000250 f9 b3 a1 bc ba c0 75 bd d3 9d 16 bb bc 8e 86 bc
       -0.019739138 -0.05999825 -0.0022982254 -0.016425483
000260 e3 42 f9 3c ee 8a c8 bc e6 8e 2b bd cb 3e 6c bb
       0.030427402 -0.02448031 -0.041884325 -0.003604817
000270 93 76 0d bd d6 ad fc ba 57 c2 36 3d 7e 0b 81 bd
       -0.03453691 -0.0019277881 0.04461893 -0.0630102
000280 96 3b 59 bd 51 b9 c7 3c af 9d e2 bc a8 e5 20 bc
       -0.05303534 0.024380358 -0.02766308 -0.009820379
000290 54 22 11 bd 8b cd 6e bd 08 4e e0 bb 8d 15 79 3d
       -0.03543313 -0.05830149 -0.0068452395 0.060811568
0002a0 ac 4a fc 3b 8c 1b 16 bd 2d d8 b6 3c a8 9c 35 3d
       0.0076993313 -0.036647364 0.022319878 0.044338852
0002b0 d5 1c 01 bd e4 ad 53 3d ad 93 ae 3d 22 82 5b 3b
       -0.031521637 0.051679507 0.08524261 0.0033494313
0002c0 1d ba 0f 3d dc ef 8f 3c 6e 38 96 bc d8 7c 87 bc
       0.0350896 0.017570429 -0.018337455 -0.016539022
0002d0 48 af 96 3d 3c 87 96 bc 14 03 12 bd bd b1 31 3b
       0.07357651 -0.018375032 -0.035647467 0.0027113997
0002e0 2d 73 9f bd 60 be 09 bd 7f 7c 96 3c 2e 89 9d 3b
       -0.0778564 -0.03362882 0.018369911 0.004807613
0002f0 94 ab 1e bd fa ae 4e bd b4 1e 2e 3b ed c0 c1 bc
       -0.03873785 -0.05045984 0.0026568593 -0.023651564
000300 f6 f5 05 bc 6b 00 a4 3d 42 ab 82 3d 31 cf 6c 3d
       -0.008176317 0.08007892 0.06380321 0.05781478
000310 06 aa 8a 3a da a2 2e bd 12 4a 00 bd aa 08 b4 3d
       0.0010579235 -0.042635776 -0.03132064 0.08790715
000320 69 e1 1e 3d 18 3a ea 3c 27 9f 8e 3d 49 6b 39 3d
       0.038789187 0.028592154 0.0696395 0.04526833
000330 a2 3f 2e bc 2c 98 84 3c 67 45 64 bd ae 13 77 3d
       -0.010635288 0.016185842 -0.05573025 0.060321502
000340 24 0d 25 bd 3a b3 71 bc cc 7a 51 bc f3 56 5d 3d
       -0.040295735 -0.014752204 -0.012785625 0.054038
000350 e4 f2 9a 3c d2 75 12 3d bd 95 93 bd a0 a1 4e 3b
       0.018914647 0.035756893 -0.07206295 0.0031529441
000360 94 9e a1 bc 11 cf a4 bb 40 cf 74 3d 52 8a 0b bc
       -0.019728936 -0.005029567 0.05976796 -0.008516865
000370 a4 ae cc 3c 2b 71 94 3c de 16 62 3d 08 a8 fa bb
       0.024985619 0.018120369 0.05519759 -0.0076494254
000380 cd ad 10 bc a5 fb e8 ba 18 5d 3f bd 2a 3f c9 3b
       -0.0088305 -0.0017775191 -0.04671964 0.006141563
000390 11 5e 34 bd 48 5d 56 3c bb 35 98 bc 7f 99 0e bd
       -0.04403502 0.013083763 -0.018580308 -0.034814354
0003a0 40 95 b7 3c 55 83 f4 3c 38 3d 4d bd 5e 85 24 bd
       0.022410035 0.02984778 -0.05010721 -0.04016625
0003b0 f7 53 92 bc 81 36 a2 bb a2 e5 7b bc 8e 44 3c 3d
       -0.017862303 -0.004950345 -0.015374573 0.045963816
0003c0 48 3f 49 bd 7b dc 87 3c a7 84 4c bc f8 24 02 bd
       -0.049132615 0.016584625 -0.012482799 -0.031773537
0003d0 20 b0 03 3d 5f ce 83 bc a0 7e 50 3c be ac ef 3b
       0.032150388 -0.016089616 0.012725502 0.0073142936
0003e0 bd 97 39 3d ae 21 a6 bd 46 db 58 3c e8 da 5d b9
       0.045310725 -0.08111893 0.013235873 -0.00021157751
0003f0 cd 25 8b 3d ff 40 48 3d 79 12 7d bd 5b 58 8a bd
       0.06794319 0.04889011 -0.061785195 -0.06755134
