tfg/models20250213143451/model_0.pt (torch, 515650 bytes, 26 tensors)

node_encoder.lins.0.weight f4 [32, 7]
0	0xbe77fea5	-0.24218233
1	0xbd034604	-0.032049194
2	0x3e8f3879	0.27972773
3	0xbe3895fc	-0.18025964
4	0x3d968925	0.07350377
5	0x3db1a77e	0.08674525
6	0x3e5189d2	0.2046273
7	0x3e97be73	0.2963749
8	0x3e2bae24	0.16765648
9	0xbe9b7239	-0.30360582
10	0xbeb17106	-0.34656543
11	0x3d849ee0	0.064756155
12	0xbe9671fa	-0.29383832
13	0xbe29f151	-0.16595961
14	0xbe96ef00	-0.29479218
15	0xbe8276cf	-0.2548127
16	0x3ddadb39	0.10686345
17	0x3ec05e11	0.37571767
18	0xbe7efa0d	-0.24900074
19	0x3e8c800f	0.2744145
20	0x3e0100a6	0.12597904
21	0x3e84ef9f	0.25964066
22	0xbeb8b1ee	-0.3607325
23	0xbe7bdf68	-0.24596941
24	0x3d23bf23	0.039977204
25	0xbdf0958c	-0.11747274
26	0xbd7f0e2b	-0.06226937
27	0xbe35cb87	-0.17753421
28	0xbe2d8d46	-0.16948423
29	0xbe5c3fdc	-0.21508735
30	0x3de9638e	0.11395942
31	0xbee89f5a	-0.45434076
32	0x3e808974	0.25104868
33	0xbeac3344	-0.33632863
34	0xbe6970db	-0.22796957
35	0x3e439282	0.19098857
36	0xbd96cdd5	-0.07363478
37	0xbd1b2d5a	-0.037885047
38	0x3c2e02ab	0.010620753
39	0xbe1d7bb1	-0.15379216
40	0x3c9c97a7	0.019115282
41	0x3ec9500f	0.39318892
42	0x3d9bf26c	0.07614598
43	0xbe1c9aa3	-0.15293364
44	0xbea90b51	-0.33016446
45	0x3db7e8fb	0.089799844
46	0xbd30f118	-0.043198675
47	0xbe4fa5fd	-0.20278163
48	0xbd546349	-0.0518525
49	0xbe2b932e	-0.16755363
50	0x3eb6ef3c	0.35729396
51	0x3eac42f2	0.33644825
52	0xbe30e19a	-0.1727356
53	0x3df78a59	0.120869346
54	0xbd98b981	-0.07457257
55	0xbe59c100	-0.2126503
56	0x3dcc3d06	0.09972577
57	0xbde0dca8	-0.10979587
58	0xbe5418c1	-0.20712568
59	0xbeaf8f13	-0.34288844
60	0xbe4334f2	-0.19063166
61	0xbebea251	-0.37233213
62	0xbe8ae9d6	-0.27131528
63	0x3b5d443c	0.0033762595
64	0x3e16bdff	0.14720915
65	0x3e84fc8a	0.25973922
66	0xbea833a5	-0.32851902
67	0x3e7dcd42	0.24785331
68	0xbe5b6bdc	-0.21427864
69	0xbed48f0e	-0.41515392
70	0x3e9e1de2	0.30882174
71	0xbd8d98de	-0.06913923
72	0xbe4e4d56	-0.20146689
73	0xbdf40188	-0.119143546
74	0x3ec35433	0.38150176
75	0x3eb6f446	0.3573324
76	0x3d2d9b7d	0.042384613
77	0x3c5e01fe	0.01355028
78	0xbe0c697e	-0.13712117
79	0x3e4d9d1c	0.20079464
80	0x3e076d4d	0.13225289
81	0x3e35357d	0.17696185
82	0xbe614bb8	-0.2200154
83	0x3e36a23e	0.17835328
84	0x3e9900bd	0.29883376
85	0x3e68b9f7	0.2272719
86	0x3c6ec491	0.014573232
87	0xbda7300d	-0.08163462
88	0x3e8b2ca9	0.2718251
89	0xbeb2ffb1	-0.34960702
90	0xbe8aa83f	-0.27081487
91	0x3e7c8eec	0.24663895
92	0xbe5e5f78	-0.21716106
93	0xbe2ed67e	-0.1707401
94	0xbea59b8a	-0.3234523
95	0x3df7022a	0.1206096
96	0xbe2c9af0	-0.16855979
97	0x3ea445be	0.3208446
98	0xbe35590a	-0.17709747
99	0xbe0bf0af	-0.13666032
100	0x3d10c00b	0.035339396
101	0x3e922f3f	0.2855167
102	0xbe5b1c92	-0.21397617
103	0x3e9498f8	0.29022956
104	0xbe1cb87f	-0.15304755
105	0x3da0cb53	0.07851281
106	0xbeb7fdf7	-0.35935947
107	0x3e5564d2	0.20839241
108	0x3e5e629c	0.21717304
109	0x3df93cc0	0.1216979
110	0x3e9f69c3	0.31135377
111	0x3d81590e	0.06315814
112	0xbdd03a6f	-0.10167395
113	0xbe24f933	-0.16110687
114	0xbe63465e	-0.22194812
115	0x3e07ad90	0.13249803
116	0x3e0a03c0	0.13477993
117	0x3e9da2f3	0.30788383
118	0xbe54bbe7	-0.20774804
119	0xbe3fdccd	-0.18736573
120	0x3e37b517	0.17940174
121	0xbdfaa03f	-0.12237596
122	0x3e07ffff	0.13281249
123	0x3e61fe36	0.2206963
124	0x3e316cf0	0.17326713
125	0xbe5eb516	-0.21748766
126	0xbea33bcc	-0.3188156
127	0xbdcec01d	-0.100952365
128	0x3ea65d4a	0.3249305
129	0x3e48307b	0.19549744
130	0x3eaa73ac	0.33291376
131	0xbe610b98	-0.21977079
132	0x3eb86e85	0.3602182
133	0xbd9c5fc3	-0.076354526
134	0x3dfcdda4	0.12346962
135	0x3d430a9b	0.047617536
136	0x3e9d6a2f	0.30745074
137	0xbeaa6cad	-0.33286038
138	0x3e855b8d	0.2604641
139	0xbe3a9992	-0.18222645
140	0x3e837cd8	0.25681186
141	0xbd42479b	-0.04743157
142	0xbe53a62a	-0.20668855
143	0x3d603082	0.05473376
144	0xbd25512d	-0.04036062
145	0xbe97e250	-0.2966485
146	0x3e993bc7	0.2992842
147	0x3da74224	0.08166912
148	0x3e35ed8b	0.17766397
149	0xbd3630be	-0.044480078
150	0x3efffd7b	0.49998078
151	0x3e8995f1	0.2687221
152	0x3e7f7a06	0.24948892
153	0xbe2e9677	-0.17049585
154	0xbddf65c3	-0.109080814
155	0xbe98a2d3	-0.29811725
156	0xbe7a7012	-0.24456814
157	0x3ca7169c	0.020396523
158	0xbe81ee8b	-0.25377306
159	0xbe72ee3d	-0.23723693
160	0xbdd4fbdc	-0.10399601
161	0xbeabc0e1	-0.33545592
162	0xbe7a5be0	-0.2444911
163	0x3d33e548	0.04391983
164	0xbe240692	-0.16018131
165	0x3dfa5254	0.12222734
166	0xbe0f421a	-0.1399006
167	0xbe8f6fb3	-0.28014907
168	0xbddcc641	-0.107800014
169	0x3e31611a	0.17322198
170	0x3e801356	0.25014752
171	0xbc87698f	-0.016529826
172	0xbdceed85	-0.10103897
173	0x3e816179	0.25269678
174	0xbda5726a	-0.080784634
175	0x3ea51442	0.32242018
176	0xbe412031	-0.18859936
177	0xbe18b570	-0.14912963
178	0x3ee85c1c	0.45382774
179	0xbc91e41b	-0.017808964
180	0xbe6dfb7d	-0.23240466
181	0xbe046a33	-0.12931137
182	0x3e8f45ff	0.2798309
183	0xbdc08e01	-0.09402085
184	0xbe77dddb	-0.24205725
185	0x3e0a2c0a	0.13493362
186	0xbe84c36f	-0.25930354
187	0xbe9eb0f2	-0.30994374
188	0x3e2ea2af	0.17054246
189	0xbeb7cbfc	-0.35897815
190	0x3e0e3fe2	0.13891557
191	0xbe652e50	-0.22380948
192	0xbeac156c	-0.33610094
193	0x3d015810	0.031578124
194	0x3e41048e	0.18849394
195	0x3e9716c0	0.29509544
196	0xbde65782	-0.112471595
197	0xbe948f62	-0.29015642
198	0x3eb5ed13	0.35532436
199	0x3d57da6b	0.052698534
200	0x3c752f0e	0.014964832
201	0x3e540f5d	0.20708986
202	0x3e71c1ca	0.23609081
203	0xbe4e56bd	-0.20150276
204	0x3d82cb8d	0.063864805
205	0x3c558d3d	0.013034162
206	0x3f098c94	0.5373013
207	0xbda4b939	-0.08043141
208	0xbec3f69e	-0.3827409
209	0xbc5beb1a	-0.013422752
210	0xbe3b2087	-0.18274127
211	0xbe98766b	-0.29777846
212	0xbe3877fd	-0.18014522
213	0xbe8697a2	-0.26287562
214	0x3eb77eb5	0.35838857
215	0x3e9df89b	0.30853733
216	0xbe0d4912	-0.13797405
217	0xbe302658	-0.17202127
218	0x3d90e55e	0.07074998
219	0xbd2bcb54	-0.041941956
220	0xbf1f6944	-0.6227
221	0xbebfd9a5	-0.37470737
222	0xbc39dfc1	-0.011344851
223	0x3e8367c8	0.25665116

node_encoder.lins.0.bias f4 [32]
0	0x3d9f1fb8	0.07769722
1	0x3d32d947	0.043664243
2	0xbc47fd70	-0.01220642
3	0x3cf7dc10	0.030256301
4	0x3698088d	4.5309484e-06
5	0x3ca755f6	0.020426732
6	0x3babed7f	0.0052468176
7	0xbcfc1d93	-0.03077582
8	0xb8524367	-5.0130675e-05
9	0xbbc89e08	-0.0061223544
10	0xb6963baf	-4.4772964e-06
11	0xbaeaf22e	-0.0017924958
12	0x3d681eee	0.05667012
13	0xb598774a	-1.13596e-06
14	0x3d8778ca	0.066148356
15	0x39e3916a	0.00043405156
16	0x3b76d334	0.0037662508
17	0xbd30ebd7	-0.043193664
18	0xbc61576e	-0.013753755
19	0xb6a695fa	-4.964645e-06
20	0x35e25da2	1.6865563e-06
21	0xbd95bed4	-0.07311788
22	0x35aeb8fb	1.3017847e-06
23	0xb90e5f25	-0.0001357762
24	0x37fc738b	3.0094545e-05
25	0xbba7bb7a	-0.0051187845
26	0x3ae00d9a	0.0017093897
27	0x35adf6c6	1.2961325e-06
28	0xbce36bae	-0.027761307
29	0xbcbe2821	-0.023212494
30	0x37ca792d	2.4136703e-05
31	0x3d2e4c0b	0.04255299

node_encoder.lins.1.weight f4 [64, 32]
0	0x3e1e5bef	0.15464757
1	0xbde7f992	-0.11326899
2	0x3d37baa0	0.044855714
3	0xbc051d4e	-0.008124663
4	0x3d312b36	0.0432541
5	0xbaac74b1	-0.0013157335
6	0x3e27fcbc	0.16405004
7	0xbd059f55	-0.032622654
8	0xbd78ba20	-0.060724378
9	0xbd53f3b7	-0.051746096
10	0x3bc9cf63	0.0061587556
11	0xbdefa7fc	-0.11701962
12	0xbe03a641	-0.1285639
13	0xbd73b40b	-0.059497874
14	0x3e22af88	0.15887272
15	0x3db827fb	0.08992001
16	0x3dadea1e	0.0849192
17	0x3a3887ad	0.000703926
18	0x3dade91a	0.08491726
19	0x3cfcf4d6	0.030878466
20	0x3c57b61b	0.013165976
21	0x3d525c08	0.0513573
22	0x3d2f632d	0.04281919
23	0xbdfdc09b	-0.12390252
24	0xbe183067	-0.14862214
25	0xbe025b54	-0.12730151
26	0x3d45f55d	0.0483297
27	0x3de7caf6	0.113180086
28	0xbdd119eb	-0.102100216
29	0x3e14322c	0.14472264
30	0xbdfda1e1	-0.123843916
31	0x3d6df31b	0.05809317
32	0x3daa6d0c	0.0832158
33	0xbe2e14d8	-0.17000139
34	0xbd35deb8	-0.044401854
35	0x3da9c6d2	0.08289875
36	0xbded8675	-0.11597911
37	0x3b37dd96	0.002805566
38	0xbc3e0836	-0.011598637
39	0x3d481a19	0.048853014
40	0x3d95be6d	0.073117115
41	0x3e28663e	0.16445252
42	0x3c98523d	0.018593902
43	0x3dc9ae91	0.09847749
44	0xbca80de6	-0.02051444
45	0xbdbf9fba	-0.09356637
46	0x3d00c558	0.0314382
47	0xbc965159	-0.018349336
48	0xbc8928c6	-0.016743075
49	0x3df14468	0.117806256
50	0xbd888c79	-0.06667418
51	0xbc778705	-0.015107875
52	0x3df8b00f	0.121429555
53	0xbdb11471	-0.08646477
54	0x3e18bfef	0.14916967
55	0xbe2fe848	-0.17178452
56	0x3976a286	0.00023520933
57	0x3d212fcb	0.03935222
58	0xbd5bd7c8	-0.053672582
59	0xbdd4c49f	-0.10389065
60	0x3cdf8f71	0.027290078
61	0x3d2fd5fb	0.042928677
62	0xbe32a8a4	-0.17447144
63	0xbe19ec18	-0.15031469
64	0xbe0b3d1d	-0.13597532
65	0xbda261e3	-0.07928827
66	0xbe1b1eab	-0.15148418
67	0x3d171aa6	0.03689065
68	0xbdd8d14d	-0.10586796
69	0xbcfbde72	-0.030745719
70	0xbe0e3854	-0.13888675
71	0x3e08e35a	0.13367978
72	0xbdb27cf5	-0.0871524
73	0x3cf7c970	0.03024742
74	0x3e1c942d	0.152909
75	0xbe15c950	-0.14627576
76	0x3d23a8a9	0.03995577
77	0x3d1ba5a5	0.037999768
78	0x3e09cc38	0.1345681
79	0xbdcfd321	-0.101476915
80	0xbe108572	-0.14113405
81	0xbd92d196	-0.071688816
82	0xbdc7a557	-0.09748333
83	0x3e252df6	0.16130814
84	0x3d80ea53	0.06294694
85	0x3d490b85	0.04908325
86	0x3d1f6234	0.038912013
87	0x3c06c36a	0.008225301
88	0x3e13fd5b	0.14452116
89	0xbc715d83	-0.014731768
90	0x3e044543	0.12917046
91	0x3e12a1ac	0.14319485
92	0x3cad5453	0.021158373
93	0x3e06ab8c	0.13151377
94	0x3e21ba66	0.15793762
95	0xbc08e4d1	-0.008355335
96	0xbe134413	-0.14381437
97	0x3e03040f	0.12794517
98	0x3dac1c46	0.0840383
99	0x3df873ba	0.12131448
100	0x3e17d995	0.14829095
101	0x3e241dcd	0.16026993
102	0x3e03b14c	0.12860602
103	0x3d5a018f	0.053224143
104	0xbe051fa7	-0.13000356
105	0xbde63f6c	-0.112425655
106	0x3e3d3667	0.18477784
107	0x3d71abf4	0.059001878
108	0x3e1198b4	0.14218408
109	0xbc30f7b4	-0.0108012445
110	0x3ba128b6	0.004918183
111	0xbda2b343	-0.07944348
112	0x3d29874e	0.041388802
113	0x3d734aed	0.059397627
114	0xbd84af2f	-0.06478726
115	0xbe2e7c1e	-0.17039534
116	0x3d9793bf	0.07401227
117	0xbe066087	-0.1312276
118	0x3dfe736f	0.12424361
119	0x3d944ced	0.07241235
120	0x3c397988	0.011320479
121	0x3e1717c3	0.14755158
122	0xbdf4ed8d	-0.11959372
123	0xbd4132c5	-0.04716756
124	0x3debd41a	0.115150645
125	0xbe0b2b09	-0.13590635
126	0x3df423c7	0.119208865
127	0x3e23b376	0.15986428
128	0x3dd37e6f	0.1032685
129	0x3df53e20	0.1197474
130	0xbdc55680	-0.09635639
131	0x3e1cc9a0	0.15311289
132	0xbdfff1ab	-0.124972664
133	0x3d3381d2	0.04382498
134	0x3db97b9d	0.090567805
135	0xbe0ef42f	-0.13960336
136	0xbe07c741	-0.13259603
137	0x3e1e0b40	0.15433979
138	0xbe1a4ab7	-0.15067564
139	0x3e019141	0.12653066
140	0xbe2306cc	-0.15920562
141	0xbe44cf19	-0.19219626
142	0x3e1a805d	0.15088029
143	0x3ad794d6	0.0016447555
144	0xbc9c456c	-0.019076072
145	0x3d5c0a32	0.05372066
146	0xbe1d884a	-0.15384021
147	0x3e46d29b	0.19416277
148	0x3e0c259a	0.13686219
149	0xbdad3888	-0.08458048
150	0x3dbc2e6b	0.09188541
151	0xbe1c05cf	-0.15236591
152	0x3d62a7f1	0.055335943
153	0x3e13b3c0	0.14424038
154	0x3d127b8d	0.03576236
155	0xbe3927f4	-0.18081647
156	0xbe1b7c76	-0.15184197
157	0xbe24d4d4	-0.16096812
158	0x3db22572	0.086985484
159	0xbdb3bfec	-0.087768406
160	0xbc286797	-0.010278604
161	0x3d8de5fc	0.06928632
162	0x3e289f7b	0.16467087
163	0xbda47c08	-0.080314696
164	0x3d5bffb7	0.053710666
165	0xbdc1b690	-0.09458649
166	0xbb7ee067	-0.0038891078
167	0xbe0ece2e	-0.13945839
168	0x3e179f34	0.14806825
169	0x3de874c7	0.113503985
170	0xbb820927	-0.003968376
171	0x3e145b56	0.14487967
172	0x3e34bc46	0.17649946
173	0xbe351ac8	-0.17685997
174	0x3e1f14ea	0.15535322
175	0x3e5a6b20	0.21329927
176	0xbd717818	-0.05895242
177	0xbe2dc0d9	-0.16968097
178	0xbc4b70e8	-0.012417056
179	0x3da5f1c8	0.08102757
180	0xbe18864b	-0.14894979
181	0x3dcb9025	0.09939603
182	0x3e1a4bd9	0.15067996
183	0xbe3c6db8	-0.1840123
184	0xbe193a71	-0.149637
185	0x3e0189f2	0.12650278
186	0xb7d80256	-2.5750294e-05
187	0xbd56899c	-0.05237733
188	0x3e1c7064	0.15277249
189	0xbc5e2d2d	-0.013560575
190	0x3da0bff3	0.078491114
191	0xbe249e7e	-0.16076085
192	0xbda7de97	-0.081967525
193	0xbd1b5c34	-0.03792973
194	0xbd3eb78d	-0.046561766
195	0x3d9e5b3e	0.07732247
196	0x3d9160e3	0.07098558
197	0x3e0fc40d	0.14039631
198	0x3e03c87b	0.12869446
199	0x3e22497a	0.15848342
200	0x3befb1b4	0.007314885
201	0xbd752d43	-0.059857618
202	0x3df600ed	0.12011895
203	0x3e1c8622	0.15285543
204	0x3d1e9ae6	0.03872194
205	0x3cf6e4ab	0.030138334
206	0x3e2c729e	0.16840598
207	0xbd7a2b09	-0.061076198
208	0xbd0df428	-0.034656674
209	0xbdf8cade	-0.12148069
210	0x3de5f8fc	0.112291306
211	0x3e0f08ac	0.13968152
212	0x3d59756e	0.053090505
213	0x3e2d8fa1	0.16949321
214	0xbe32e821	-0.17471363
215	0x3d23a941	0.039956335
216	0xbe19dce6	-0.15025672
217	0x3df70ca3	0.12062957
218	0x3d94ad9b	0.07259675
219	0x3d3c36e9	0.045950804
220	0x3e1b52fd	0.15168376
221	0xbe0c9258	-0.137277
222	0x3db92c2e	0.0904163
223	0x3cfd6ff5	0.030937174
224	0xbdb880f0	-0.09008968
225	0xbddd7370	-0.108130336
226	0x3da9eb72	0.08296861
227	0x3e221216	0.15827212
228	0x3dc82ce9	0.09774191
229	0x3d6681b7	0.05627605
230	0x3e12ed24	0.14348274
231	0x3e13a238	0.1441735
232	0x3dc4530d	0.09586153
233	0xbdd62812	-0.104568616
234	0x3db168ae	0.08662544
235	0xbe25831f	-0.161633
236	0xbd4d01fe	-0.050050728
237	0xbcb72efb	-0.02236127
238	0x3e112096	0.14172587
239	0x3dfc4fb6	0.12319891
240	0x3e3de2e8	0.18543589
241	0x3e0b16f9	0.13582982
242	0xbe2fefa0	-0.17181253
243	0xbc9e40e9	-0.019318061
244	0xbbadf41e	-0.005308642
245	0x3d5365f1	0.05161089
246	0xbc812805	-0.015766153
247	0x3cf2e4a2	0.029650036
248	0xbe2e5c72	-0.17027453
249	0x3e0298ed	0.12753649
250	0xbe1b8731	-0.1518829
251	0x3db6fd76	0.089350626
252	0x3d00ebbb	0.03147481
253	0xbdf29017	-0.11843889
254	0xbe1b6f61	-0.15179206
255	0x3d94d3df	0.07266974

node_encoder.lins.1.bias f4 [64]
0	0xb9da95b1	-0.0004169173
1	0x36c32db7	5.816775e-06
2	0x397eafe1	0.00024288848
3	0xb5bba1f5	-1.3979721e-06
4	0x37d26e49	2.5085306e-05
5	0x39e38249	0.00043393884
6	0x3791fd81	1.7403394e-05
7	0x363d8050	2.8237882e-06
8	0x37b89a2b	2.20063e-05
9	0xb70208f5	-7.750689e-06
10	0x36ca1db9	6.0235293e-06
11	0xb6f962b1	-7.4322675e-06
12	0xb7176b27	-9.02525e-06
13	0xb8c23eb8	-9.262323e-05
14	0xb78629f3	-1.5993579e-05
15	0x3ad58748	0.0016290927
16	0xb70f2929	-8.533048e-06
17	0xbaddc8cb	-0.0016920803
18	0xb76f0be7	-1.4248281e-05
19	0xb6cc998e	-6.09755e-06
20	0x378352d5	1.5654989e-05
21	0xb9efa34d	-0.000457073
22	0xb727ce0a	-1.0001948e-05
23	0xb71bcd49	-9.286517e-06
24	0x39e2d5f9	0.000432655
25	0xb9c834a4	-0.00038186193
26	0x37a6b4a9	1.9872869e-05
27	0x36783c70	3.699006e-06
28	0xb81b895b	-3.7082802e-05
29	0x3a93c6bf	0.0011274441
30	0xb77ca929	-1.5059756e-05
31	0xb6fff22f	-7.627786e-06
32	0xba08b5f5	-0.0005215102
33	0xb709ca71	-8.212971e-06
34	0x3813e209	3.5258043e-05
35	0x3785c8d2	1.594835e-05
36	0x3827485b	3.988329e-05
37	0xb7818465	-1.543965e-05
38	0xb66eb3f5	-3.5569512e-06
39	0xba45b170	-0.0007541394
40	0x36d68d1b	6.394124e-06
41	0xb78c154e	-1.6699221e-05
42	0x3a1a2f59	0.0005881689
43	0xb6855b3f	-3.9743313e-06
44	0x38428a3c	4.6381945e-05
45	0xb61e5393	-2.3592481e-06
46	0xba5c94cd	-0.0008414507
47	0xbadd20b4	-0.0016870708
48	0xb61ae165	-2.3078985e-06
49	0xb58a2215	-1.029172e-06
50	0xb7e0abb3	-2.6782835e-05
51	0xb76fc11c	-1.4290472e-05
52	0xb69c1e3c	-4.652682e-06
53	0xbac8fc3c	-0.0015333961
54	0x35c2c030	1.451006e-06
55	0xb9a552de	-0.00031532993
56	0x36122966	2.1779792e-06
57	0x373c3f07	1.1220348e-05
58	0xb62e8feb	-2.6011792e-06
59	0xb72c5fe4	-1.0274325e-05
60	0xb88b59b3	-6.644744e-05
61	0xbadfcb55	-0.0017074147
62	0x36836330	3.915651e-06
63	0x37ebf36e	2.8127539e-05

node_encoder.lins.2.weight f4 [128, 64]
0	0xbdd5f72b	-0.10447534
1	0x3d1b8ce5	0.037976164
2	0xbd9ebecd	-0.07751236
3	0x3d560bb6	0.052257262
4	0x3d72fc01	0.05932236
5	0xbd738870	-0.05945629
6	0xbd4522e5	-0.04812898
7	0xbd455749	-0.048178945
8	0xbd885603	-0.066570304
9	0xbdbe8c59	-0.09304113
10	0xbe0c4c95	-0.13701089
11	0xbc137b45	-0.009001558
12	0x3ddf0291	0.108891614
13	0x3d4cee0a	0.0500317
14	0x3d37a261	0.04483259
15	0xbb02e7d5	-0.0019974608
16	0x3cf03f4f	0.029327063
17	0xbcac2445	-0.021013388
18	0x3dff85a4	0.12476662
19	0x3db7bd9a	0.089717105
20	0x3d97faa6	0.07420854
21	0x3dcc98e7	0.09990101
22	0xbd621a0e	-0.05520063
23	0xbdade154	-0.084902436
24	0xbceafa79	-0.028683888
25	0xbd69e919	-0.057107065
26	0x3db99558	0.09061688
27	0xbc99e329	-0.018785076
28	0x3de0ac3b	0.1097035
29	0x3cb64c29	0.022253113
30	0x3d037d64	0.032102004
31	0xbdbe9ca9	-0.09307224
32	0x3d53f096	0.051743113
33	0xbd80980c	-0.06279001
34	0x3cd64dc3	0.026160127
35	0xbd954f41	-0.07290507
36	0x3c565c17	0.013083479
37	0x3dddcd87	0.10830217
38	0x3d06b39f	0.032886144
39	0xbdc0a620	-0.09406686
40	0xbd06afc2	-0.03288246
41	0xbc4cbbe3	-0.012495968
42	0x3d9b9d21	0.07598329
43	0xbda252db	-0.0792596
44	0x3d98ac95	0.074547924
45	0x3d767a0b	0.060174983
46	0x3de031bb	0.10946985
47	0xbda6faa8	-0.08153278
48	0x3dfa3605	0.12217335
49	0xbd589dd4	-0.05288489
50	0x3db395b5	0.08768789
51	0x3df006be	0.11720036
52	0x3d151d6d	0.036405016
53	0xbc16610c	-0.009178411
54	0x3dd10f5c	0.10208008
55	0x3d885165	0.0665615
56	0xbcbf3682	-0.023341421
57	0x3d9be703	0.07612421
58	0xbc813596	-0.015772622
59	0x3c498915	0.012300749
60	0x3d7fad19	0.06242094
61	0x3d40b180	0.047044277
62	0x3d8e0dd7	0.069362335
63	0x3ceff7f6	0.029293042
64	0xbd845af7	-0.06462663
65	0x3d0dace0	0.034588695
66	0x3d91faec	0.07127938
67	0xbd9c7e83	-0.07641318
68	0xbb938970	-0.004502468
69	0xbdd6e561	-0.10492969
70	0x3b620001	0.0034484866
71	0xbd1aebf9	-0.037822697
72	0x3c204661	0.009782405
73	0x3c5d7263	0.013516041
74	0x3ddf4f1e	0.10903762
75	0x3decd953	0.11564889
76	0x3d13a833	0.03604908
77	0x3bf31102	0.007417799
78	0xbde95ffd	-0.113952614
79	0xbd098b03	-0.033579838
80	0xbd2e266b	-0.042517107
81	0xbd88659a	-0.06660004
82	0xbd788e06	-0.06068232
83	0xbd20700a	-0.03916935
84	0xbc357a0b	-0.011076461
85	0x3ddcb614	0.10776916
86	0xbd1feaeb	-0.039042395
87	0xbd71e0ed	-0.059052397
88	0x3dd3350e	0.10312854
89	0x3c5b0ca5	0.013369714
90	0x3d017e53	0.031614613
91	0x3d96ae97	0.07357519
92	0xbd6e6c60	-0.058208823
93	0xbd6608e2	-0.056160815
94	0xbd9fbb80	-0.07799435
95	0x3d447cfe	0.047970764
96	0x3ddf45a8	0.10901958
97	0x3dbc3ce3	0.09191301
98	0xbda4b36d	-0.08042035
99	0x3d6e3385	0.0581546
100	0x3cab6e42	0.020926598
101	0x3de83bcb	0.113395296
102	0xbd47a9c1	-0.048745874
103	0x3d7c4805	0.06159212
104	0xbdf35447	-0.11881309
105	0xbcba3fd7	-0.02273552
106	0x3dc147a7	0.09437495
107	0x3dcdbe02	0.10046007
108	0x3d84b13d	0.06479118
109	0x3db6c6c2	0.08924629
110	0x3d3689c3	0.044564974
111	0xbdcd38e5	-0.100206174
112	0x3da38e6d	0.0798615
113	0xbcaf5360	-0.021402061
114	0x3d95236f	0.07282149
115	0xbd07bebc	-0.033140883
116	0x3db1b7d8	0.086776435
117	0xbdfefd92	-0.124507084
118	0xbd4ab7a1	-0.04949153
119	0xbdaaed1b	-0.083460055
120	0xbc892608	-0.016741768
121	0xbd78648b	-0.06064276
122	0x3c9e286f	0.01930639
123	0xbdeff9bc	-0.11717555
124	0xbdd8500f	-0.10562145
125	0x3cd306f6	0.025760155
126	0xbd98bad0	-0.07457507
127	0x3cc9d7b1	0.024638982
128	0x3dea578a	0.11442478
129	0xbc69d551	-0.01427205
130	0xbd65eefa	-0.05613611
131	0xbb1e304a	-0.002413767
132	0x3d2a23dc	0.041538104
133	0xbc67e99d	-0.014154819
134	0xbcd6d421	-0.026224198
135	0xbb075aff	-0.0020653603
136	0x3bd3663e	0.006451397
137	0xbdd35958	-0.10319775
138	0x3c4b0c4e	0.01239307
139	0xbdeb3a1b	-0.11485692
140	0xbdb264ff	-0.0871067
141	0xbb831002	-0.003999711
142	0x3c46784f	0.012113645
143	0xbde31d81	-0.11089612
144	0x3d1e7904	0.03868963
145	0xbd39179e	-0.04518854
146	0xbd5d82d7	-0.054079857
147	0xbdb17889	-0.086655684
148	0x3d2cb4bc	0.04216455
149	0x3ddc3306	0.107519194
150	0x3da26328	0.07929069
151	0x3d8b11aa	0.067904785
152	0x3d177dfb	0.03698538
153	0xbc026222	-0.007957967
154	0x3d2f0963	0.04273356
155	0x3d2ad29a	0.04170475
156	0x3e05aa53	0.13053255
157	0xbdefad42	-0.11702968
158	0x3defd99a	0.11711426
159	0x3df193db	0.11795779
160	0x3de10054	0.10986391
161	0x3b2600c4	0.0025330046
162	0x3d08e336	0.03341981
163	0x3cb4eb7f	0.02208495
164	0xbdd559d0	-0.10417521
165	0xbdfb5ec6	-0.12273936
166	0x3dcbc817	0.099502735
167	0xbd36ce11	-0.044630114
168	0xbd6a9cc1	-0.0572784
169	0xbdb953a8	-0.09049159
170	0x3e00ad46	0.12566099
171	0x3dfbbf6e	0.12292372
172	0x3c8d4a7b	0.01724743
173	0xbc88a037	-0.016677959
174	0xbd1fb866	-0.038994215
175	0xbb91d8dd	-0.004450901
176	0xbd2da7fd	-0.042396534
177	0xbd97dff9	-0.07415766
178	0xbd190f9c	-0.037368402
179	0xbd9c3d61	-0.076288946
180	0xbdb8dd7b	-0.09026619
181	0xbdda78ec	-0.10667595
182	0x3d0b6cf1	0.03403944
183	0x3d85824e	0.06518994
184	0xbcac70cd	-0.021049881
185	0x3d206510	0.03915888
186	0x3e010a60	0.12601614
187	0x3deabd52	0.11461891
188	0x3da6889c	0.08131525
189	0xbcbdf8c9	-0.02318992
190	0xbdcea01f	-0.100891344
191	0xbdc04478	-0.093880594
192	0xbd62ac09	-0.055339847
193	0xbd66ca97	-0.05634555
194	0x3db6656f	0.08906066
195	0x3dce152c	0.10062632
196	0xbde0d114	-0.109773785
197	0xbdc42b27	-0.09578543
198	0xbcc79075	-0.024360875
199	0xbd5b8d35	-0.053601462
200	0x3ba5d1c6	0.0050604073
201	0x3e051f64	0.13000256
202	0x3d24f793	0.040275168
203	0x3da3536c	0.07974896
204	0x3dbbed6d	0.09176145
205	0xbdc05a9f	-0.093922846
206	0xbd0abc17	-0.033870783
207	0xbda40254	-0.080082566
208	0xbdc55ace	-0.0963646
209	0xbdb8e889	-0.090287276
210	0x3d46321f	0.048387643
211	0x3de965e1	0.11396385
212	0xbd7078d1	-0.05870897
213	0x3dabd11e	0.08389495
214	0x3de5a19e	0.11212467
215	0x3d16fcfe	0.036862366
216	0x3c4c2efc	0.012462374
217	0xbb373c16	-0.0027959398
218	0xbdde523b	-0.10855528
219	0xbc3869b6	-0.011255672
220	0xbdc831f9	-0.097751565
221	0xbd9977fd	-0.07493589
222	0xbcfea780	-0.03108573
223	0x3d95f053	0.07321229
224	0xbd8c59a1	-0.06853033
225	0xbd4662e5	-0.048434157
226	0xbda83f82	-0.08215238
227	0x3db48b6b	0.08815654
228	0x3de259e1	0.11052299
229	0xbd47e316	-0.04880055
230	0xbda4a331	-0.08038939
231	0x3bc41fb7	0.005985226
232	0xbdb3fcf5	-0.08788482
233	0xbdb09077	-0.086213045
234	0xbd67b92d	-0.05657308
235	0x3d25664b	0.040380757
236	0x3dbd7904	0.092515975
237	0xbd493015	-0.04911812
238	0xbd9dec18	-0.07711047
239	0xbdb379ff	-0.08763503
240	0x3da8f1ba	0.08249231
241	0x3d998819	0.07496662
242	0xbdb80c0a	-0.08986671
243	0xbdda56dc	-0.10661098
244	0xbce2ced6	-0.027686518
245	0xbc423baf	-0.01185505
246	0xbd323481	-0.043507103
247	0x3d89e7bc	0.06733653
248	0xbde6c44e	-0.11267911
249	0xbe065a5d	-0.13120408
250	0xbdc2aebf	-0.095059864
251	0xbc908185	-0.017639885
252	0x3db344c1	0.08753348
253	0x3d8b27a5	0.06794671
254	0x3c99ef5c	0.018790893
255	0xbd3d14da	-0.046162464

node_encoder.lins.2.bias f4 [128]
0	0xbdacd59f	-0.084391825
1	0xbce0cf87	-0.027442707
2	0xbce6c5cf	-0.028170494
3	0x3d86add8	0.06576127
4	0xbceede84	-0.029158838
5	0x3d068f78	0.032851666
6	0x3c27e91a	0.010248447
7	0x3d8344aa	0.06409581
8	0x3c961f3b	0.018325439
9	0xbdb4e030	-0.08831823
10	0x3dcd3502	0.10019876
11	0xbdbf39b6	-0.09337179
12	0xbda1daee	-0.07903086
13	0xbc50af72	-0.012737142
14	0x3dec4b94	0.11537853
15	0xbd26768a	-0.04064039
16	0xbd0351ea	-0.03206054
17	0xbd89a198	-0.06720275
18	0x3de57927	0.112047486
19	0x3d9523ca	0.07282217
20	0x3c30c3b4	0.010788847
21	0xbd56b65e	-0.052420013
22	0xbc12f9bb	-0.008970673
23	0x3d3242fd	0.043520916
24	0x3dcd639e	0.10028766
25	0x3aed3069	0.0018096092
26	0x3db3f869	0.08787615
27	0x3dbaa7c9	0.09114034
28	0x3db10db7	0.08645194
29	0xbd6a9a00	-0.057275772
30	0xbc91cf2e	-0.017798986
31	0xbc83a27d	-0.016068691
32	0xbd40138a	-0.046893634
33	0xbd9a15ce	-0.0752369
34	0xbd8c2f8d	-0.06845007
35	0x3dcb24dd	0.099191405
36	0xbdc394fa	-0.095498994
37	0xbc475c4e	-0.012168003
38	0x392d328f	0.000165174
39	0x3d8dbe11	0.06921018
40	0xbcd1a6f1	-0.0255923
41	0xbd9c2f15	-0.07626168
42	0xbca5a0a8	-0.020218208
43	0x3da51821	0.08061243
44	0xbd9fac51	-0.077965386
45	0x3de3e888	0.11128336
46	0xbddeeeef	-0.10885417
47	0x3de891ce	0.11355935
48	0xbdd5b33b	-0.10434576
49	0x3da86a17	0.0822336
50	0xbd887ad6	-0.06664054
51	0xbdc42a42	-0.095783725
52	0xbd3fa6e8	-0.046790034
53	0x3db307a1	0.087416895
54	0x3d43d509	0.047810588
55	0xbdbecaa2	-0.09315993
56	0x3dc6e983	0.097125076
57	0x3d80b44e	0.062843904
58	0xbc3647ef	-0.011125549
59	0x3dc1b654	0.094586045
60	0xbdb19800	-0.0867157
61	0x3d14d193	0.036332678
62	0xbdb1a0ff	-0.08673286
63	0x3ce2a6ea	0.027667481
64	0x3db2c169	0.08728296
65	0x3dacaf0d	0.08431826
66	0xbda7cfc6	-0.081939265
67	0x3c4fdb93	0.012686628
68	0x3d87f3d2	0.06638302
69	0xbcf1f8b5	-0.029537538
70	0xbdad9f23	-0.084776185
71	0xbbb274d9	-0.005446058
72	0x3c1385da	0.009004081
73	0xbdc15aa8	-0.094411194
74	0xbd3044a0	-0.043034196
75	0x3dc76924	0.09736851
76	0xbcf15375	-0.02945874
77	0x3d6c932f	0.057757553
78	0xbd035d13	-0.032071184
79	0x3dae4a68	0.085102856
80	0x3db83d76	0.08996098
81	0x3db8a2aa	0.09015401
82	0x3d95b019	0.073089786
83	0xbd884220	-0.06653237
84	0xbd9b7376	-0.07590382
85	0xbd420a06	-0.04737284
86	0xbd6ea208	-0.058259994
87	0xbc728490	-0.014802113
88	0x3d8a60e1	0.067567594
89	0x3c0b290f	0.008493676
90	0xbde2e96f	-0.1107968
91	0x3c24f019	0.010067009
92	0x3d8cf649	0.06882913
93	0xbcc35679	-0.023844944
94	0xbcbf257e	-0.023333307
95	0xbd9b10e8	-0.07571584
96	0x3d0aef80	0.03391981
97	0xbd04b3c6	-0.032398008
98	0xbdf628c1	-0.12019492
99	0x3d66a7b3	0.056312274
100	0xbd1b1f39	-0.037871573
101	0xbc182fa9	-0.009288707
102	0x3d969feb	0.07354721
103	0xbda43ac1	-0.08019019
104	0xbd96f20e	-0.07370387
105	0xbd0c54bf	-0.034260508
106	0xbd29290f	-0.041298922
107	0xbdaf3b3a	-0.085562184
108	0x3d9dd384	0.07706359
109	0xbdbc0992	-0.09181513
110	0x3d81bda0	0.06334996
111	0xbdaadd0e	-0.08342944
112	0xbc861c67	-0.016370965
113	0xbdd95518	-0.106119335
114	0xbd90692a	-0.070513085
115	0xbbc16879	-0.0059023467
116	0x3c4933f1	0.01228045
117	0xbd1e59c3	-0.038659822
118	0xbc5384e4	-0.012910102
119	0x3c96b2cd	0.018395806
120	0x3ddd7dd8	0.108150184
121	0x3d185b77	0.037196603
122	0xbc4092b5	-0.011753728
123	0xbd6d469b	-0.057928663
124	0x3d662dd6	0.056196056
125	0xbdb0d9b3	-0.08635273
126	0xbdc07d33	-0.0939888
127	0x3b803ccd	0.003913498

node_encoder.norms.0.module.weight f4 [32]
0	0x3f78368d	0.9695824
1	0x3f77718d	0.9665764
2	0x3f7bfc38	0.9843173
3	0x3f7dcd30	0.99141216
4	0x3f7fd5b9	0.9993549
5	0x3f7ad8f2	0.9798728
6	0x3f7b0398	0.9805236
7	0x3f7c9c48	0.98675966
8	0x3f7cd09f	0.9875583
9	0x3f7e3079	0.99292713
10	0x3f7fa7ad	0.9986523
11	0x3f7d4088	0.9892659
12	0x3f7b5fb2	0.98192894
13	0x3f7bc5e9	0.9834886
14	0x3f7b1933	0.98085326
15	0x3f7b02ac	0.9805095
16	0x3f7f359e	0.9969119
17	0x3f818fbe	1.0121992
18	0x3f80890c	1.0041823
19	0x3f7f5500	0.99739075
20	0x3f7d4466	0.9893249
21	0x3f7cd4a6	0.98761976
22	0x3f7a18b7	0.9769396
23	0x3f72920f	0.9475412
24	0x3f7d8b19	0.9904037
25	0x3f7a1e19	0.97702175
26	0x3f7ca341	0.98686606
27	0x3f8165d3	1.0109199
28	0x3f7c28f0	0.98499966
29	0x3f7e5413	0.9934704
30	0x3f7cfdac	0.9882457
31	0x3f7d84e2	0.9903089

node_encoder.norms.0.module.bias f4 [32]
0	0x3d953aeb	0.07286628
1	0x3d2c2a18	0.04203233
2	0xbd36f5e3	-0.04466809
3	0x3d1a3129	0.03764454
4	0xbd406069	-0.046966944
5	0x3be85767	0.0070904973
6	0x3d3536a1	0.04424155
7	0x3d91be43	0.07116368
8	0xbce6da5a	-0.02818029
9	0xbbc5fc99	-0.006042075
10	0xbd17dd44	-0.03707625
11	0x3ce38753	0.027774489
12	0x3cb8e8d2	0.022571955
13	0x3c177a88	0.009245522
14	0xbd0903e0	-0.03345096
15	0x3cbeedb3	0.023306703
16	0x3d445f86	0.04794266
17	0xbca9540f	-0.020669965
18	0x3daa2231	0.08307303
19	0xbc940741	-0.018069865
20	0xbd620a73	-0.055185746
21	0x3d3fd522	0.04683412
22	0x3d3aad38	0.04557535
23	0xbd25f3bd	-0.04051565
24	0x3bc1cad2	0.0059140706
25	0xbc9c5501	-0.019083502
26	0xbce274a2	-0.027643505
27	0xbc7497f6	-0.014928808
28	0x3da4fc2e	0.08055912
29	0x3b751441	0.0037396105
30	0xbcc02e20	-0.023459494
31	0x3acd5a53	0.0015667178

node_encoder.norms.0.module.running_mean f4 [32]
0	0x3e8a8cfc	0.27060688
1	0xbe48e082	-0.19616893
2	0x3e3090b7	0.17242704
3	0xbd959ae7	-0.07304936
4	0x3e09ec21	0.13468982
5	0xbd0af26f	-0.03392261
6	0xbde4c847	-0.11171012
7	0x3d977705	0.07395748
8	0xbdb86e23	-0.09005382
9	0x3d63032f	0.055422958
10	0xbe27bf07	-0.16381465
11	0x3dc72bdc	0.097251624
12	0xbd9c315c	-0.07626602
13	0xbdc9da38	-0.09856075
14	0x3e2998ef	0.16562246
15	0x3dfc5822	0.123214975
16	0xbc9652bf	-0.018350003
17	0xbd904c21	-0.070457704
18	0x3e6c2132	0.23059538
19	0x3c974f59	0.018470453
20	0xbe15d332	-0.14631346
21	0xbe1fb5c1	-0.15596677
22	0x3b1e6d26	0.0024173944
23	0x3e2b3f75	0.16723426
24	0x3dbfdd1c	0.09368345
25	0xbe0186b5	-0.12649043
26	0xbe1ea73b	-0.15493481
27	0x3b6de1c6	0.0036297902
28	0x3e494cb2	0.19658163
29	0x3d0e42bd	0.034731615
30	0x3d2f8b12	0.042857237
31	0x3d940142	0.072268024

node_encoder.norms.0.module.running_var f4 [32]
0	0x419672ec	18.806114
1	0x41e06ad6	28.052166
2	0x4199d8b4	19.230812
3	0x4201ffef	32.499935
4	0x4135579e	11.333891
5	0x409e77d9	4.95213
6	0x419babda	19.458912
7	0x4208303b	34.0471
8	0x4113b8e8	9.232643
9	0x413d1725	11.8181505
10	0x418ac099	17.344042
11	0x41210277	10.063102
12	0x4175e30f	15.367934
13	0x418817bf	17.011595
14	0x40b9287c	5.786192
15	0x41d78840	26.941528
16	0x4130cff5	11.050771
17	0x413fde97	11.991843
18	0x41ea6af6	29.302227
19	0x4050805a	3.257834
20	0x415a8457	13.65731
21	0x40af899c	5.485548
22	0x41a0b66c	20.089073
23	0x4198e4be	19.11169
24	0x415fbbcb	13.983348
25	0x419d6f52	19.679356
26	0x41900c27	18.005934
27	0x41d5af51	26.710604
28	0x420ae43b	34.72288
29	0x40a5dc43	5.1831374
30	0x418c59ff	17.543943
31	0x40999494	4.799387

node_encoder.norms.1.module.weight f4 [64]
0	0x3f7bca01	0.9835511
1	0x3f7f77fc	0.99792457
2	0x3f7df0ad	0.9919537
3	0x3f6df5ae	0.92953
4	0x3f76b45c	0.96368957
5	0x3f7e0e79	0.99240834
6	0x3f7ddb94	0.99163175
7	0x3f79dd96	0.9760374
8	0x3f6d599c	0.9271486
9	0x3f689c67	0.9086365
10	0x3f7701cf	0.96487135
11	0x3f826966	1.0188415
12	0x3f82bf41	1.0214616
13	0x3f74b4b0	0.9558821
14	0x3f7be1e8	0.9839158
15	0x3f798f57	0.97484344
16	0x3f7bd62a	0.98373663
17	0x3f7cb6eb	0.9871661
18	0x3f739773	0.9515297
19	0x3f771084	0.96509576
20	0x3f81a2a5	1.012776
21	0x3f6cc03e	0.9248084
22	0x3f834d1e	1.0257909
23	0x3f807ce8	1.0038118
24	0x3f7c124b	0.9846541
25	0x3f73fe6b	0.95310086
26	0x3f7a292f	0.9771909
27	0x3f6fbb26	0.9364494
28	0x3f792f8b	0.9733817
29	0x3f76a161	0.96339995
30	0x3f83f097	1.0307797
31	0x3f738bda	0.9513527
32	0x3f736350	0.95073414
33	0x3f830c4f	1.0238131
34	0x3f749117	0.9553389
35	0x3f7fc17c	0.9990461
36	0x3f6f8a48	0.93570375
37	0x3f7f45f9	0.99716145
38	0x3f7daf49	0.9909559
39	0x3f78a350	0.97124195
40	0x3f804199	1.0020019
41	0x3f80a3cb	1.0049986
42	0x3f7da60e	0.99081504
43	0x3f7d519e	0.9895266
44	0x3f7cb126	0.9870781
45	0x3f814e7d	1.0102078
46	0x3f73cffa	0.9523922
47	0x3f7272ff	0.9470672
48	0x3f76ef66	0.96459043
49	0x3f69c1e8	0.913115
50	0x3f6cc62a	0.92489874
51	0x3f7bebbf	0.98406595
52	0x3f742b39	0.9537845
53	0x3f7431b8	0.95388365
54	0x3f77e53e	0.9683417
55	0x3f784a92	0.96988785
56	0x3f6bba67	0.920813
57	0x3f7fc8cd	0.9991577
58	0x3f7295e2	0.94759953
59	0x3f74ba05	0.95596343
60	0x3f73dc35	0.95257884
61	0x3f76eb2a	0.9645258
62	0x3f7e2463	0.9927427
63	0x3f833ba9	1.0252582

node_encoder.norms.1.module.bias f4 [64]
0	0xbc63ac9e	-0.013896136
1	0x3bc42499	0.005985808
2	0xbbceaa92	-0.0063069547
3	0xbcc91e02	-0.024550442
4	0x3c6afc19	0.014342331
5	0x3b021dd4	0.0019854205
6	0xbb85b4ba	-0.004080382
7	0x3c6406ee	0.013917668
8	0x3cdc56fb	0.026896944
9	0xbd194571	-0.03741974
10	0x3c0c0e4c	0.0085483305
11	0xbc1f0fcd	-0.009708357
12	0x3bffa7eb	0.007802
13	0xbcd5245d	-0.026018316
14	0xbc974c86	-0.018469106
15	0x3c9ac46a	0.018892486
16	0xbc24e7da	-0.010065043
17	0x3b97da04	0.004634144
18	0xbc9f5727	-0.019450737
19	0xbc3faf1d	-0.011699465
20	0xbba487f6	-0.0050210906
21	0x3c8c2368	0.017106727
22	0xbc181e90	-0.00928463
23	0x3c26ec83	0.010188225
24	0x3b8c2baf	0.0042776684
25	0xbac9f94b	-0.0015409378
26	0x3ac5f97f	0.0015104263
27	0x3cd24a22	0.025670115
28	0x38bf9fc5	9.137349e-05
29	0x3c056603	0.008141997
30	0xbc5b13d4	-0.013371427
31	0xba91467d	-0.0011083629
32	0x3b92961b	0.0044734604
33	0x3c844f37	0.016151054
34	0x3caa4e18	0.020789191
35	0xbb52e4b4	-0.0032179775
36	0x3cc537a4	0.024074383
37	0x3cbf40e3	0.02334637
38	0x3c989210	0.018624336
39	0xbc7e1d51	-0.015509919
40	0xbba82bfd	-0.005132197
41	0xbc9c92fb	-0.019113054
42	0xbb5fa384	-0.0034124563
43	0xbae971e6	-0.0017810434
44	0xbb9fcf30	-0.0048769936
45	0xbc05845c	-0.008149233
46	0xbc20223c	-0.009773787
47	0xbc1f4bd1	-0.009722666
48	0xbc3febbd	-0.011713919
49	0xbca4a960	-0.020100296
50	0x3c5869ab	0.013208787
51	0x3cc722b5	0.024308542
52	0x3c8b8952	0.017033253
53	0x3cbcd490	0.023050576
54	0x3c2439b9	0.010023528
55	0x3c224073	0.009903061
56	0x3c062495	0.008187433
57	0x3b090ac6	0.0020910962
58	0x3b6f3075	0.0036497389
59	0x3c6bcb97	0.014391801
60	0xbc82838c	-0.015931867
61	0x3c867586	0.016413461
62	0xbb3a7af7	-0.002845464
63	0xbaf45041	-0.001863964

node_encoder.norms.1.module.running_mean f4 [64]
0	0x3bfdbaed	0.0077432306
1	0x3bb95059	0.00565533
2	0xbcd70233	-0.026246166
3	0x3c83a4a5	0.01606972
4	0xb95b7822	-0.0002093022
5	0x3c357b3c	0.011076745
6	0x3c8efc1a	0.017454196
7	0x3bac5fc2	0.0052604387
8	0xbcb359b6	-0.021893363
9	0xbcc075ce	-0.023493674
10	0xbc1c9d23	-0.009558949
11	0xbbc58c3a	-0.006028679
12	0xbc86486f	-0.01639196
13	0xbd29ff9d	-0.041503537
14	0xbcf31da2	-0.029677216
15	0x3b779dc3	0.0037783242
16	0x3ae57329	0.0017505634
17	0x3cd0229e	0.025407132
18	0xbce47100	-0.027885914
19	0xbae7b469	-0.0017677668
20	0xbacbce4b	-0.0015549151
21	0x3bb53e1f	0.005531087
22	0xbc9d8e9f	-0.019233046
23	0x3c928bac	0.017888866
24	0x3c6756a5	0.014119779
25	0xbcaa47c2	-0.02078617
26	0x3cb54a64	0.022130199
27	0x3c97c64f	0.018527178
28	0xbb9d09a5	-0.0047924095
29	0x3bb72f05	0.005590322
30	0xbcc221d7	-0.023697777
31	0x3cacc80c	0.021091484
32	0xbd1e7a16	-0.03869065
33	0xbc7c18a4	-0.015386734
34	0x3d0abe08	0.033872634
35	0x3b60a6b6	0.0034279055
36	0x3d0380ac	0.032105133
37	0x3cb3e237	0.021958454
38	0x3caa9299	0.020821856
39	0xbd586e16	-0.05283936
40	0x3c84404d	0.016143942
41	0x3c8c41a8	0.017121151
42	0x3c274a9c	0.010210659
43	0xbc9ea57f	-0.019366024
44	0x3cc24b9e	0.023717698
45	0x3c3d19aa	0.011541763
46	0xbb258b07	-0.0025259869
47	0xbc82e0c1	-0.015976312
48	0xbd12c07c	-0.0358281
49	0xbb6bc52f	-0.0035975685
50	0x3d203d5d	0.03912102
51	0x3a98f1f4	0.0011668787
52	0x3d3c4e6e	0.045973234
53	0x3d2e38a9	0.042534504
54	0x3bcde2df	0.0062831487
55	0xbbafdb80	-0.0053667426
56	0x3ce4cfb5	0.027931074
57	0xbc2ba177	-0.010475508
58	0xbc9d9584	-0.019236334
59	0xbd3ff524	-0.046864644
60	0x3bacb4d9	0.005270582
61	0xbc325123	-0.010883602
62	0xb9e9f331	-0.00044622415
63	0xba3bc3b0	-0.00071626436

node_encoder.norms.1.module.running_var f4 [64]
0	0x3d4b5e62	0.049650557
1	0x3ca82af7	0.0205283
2	0x3d030060	0.03198278
3	0x3dc35e9f	0.09539532
4	0x3c9a90fb	0.01886796
5	0x3d2fc5b9	0.042913172
6	0x3cbe1e2d	0.023207748
7	0x3dabaa75	0.083821215
8	0x3bb5d03d	0.0055485056
9	0x3bd102a7	0.00637849
10	0x3ccfd92c	0.02537211
11	0x3da0fa43	0.07860234
12	0x3d415f4a	0.047210015
13	0x3cc0ca79	0.023534046
14	0x3d16a627	0.03677955
15	0x3cf6da41	0.030133368
16	0x3d7a7edf	0.06115615
17	0x3d5a464a	0.05328969
18	0x3cd169c7	0.025563134
19	0x3d4f4e8b	0.050612014
20	0x3c9bd383	0.019021755
21	0x3d22f780	0.039786816
22	0x3cc711f2	0.02430055
23	0x3cc2a8c1	0.023762109
24	0x3cf6fca1	0.03014976
25	0x3dcde23b	0.10052916
26	0x3ce985f2	0.028506253
27	0x3bef0a05	0.0072948956
28	0x3d4720b4	0.048615173
29	0x3d1a38ea	0.037651934
30	0x3d82b7b2	0.06382693
31	0x3d3e233e	0.04642033
32	0x3d41fc0d	0.047359515
33	0x3d28bcc7	0.041195657
34	0x3c37933d	0.011204538
35	0x3d1fcbe0	0.03901279
36	0x3c85197a	0.0162475
37	0x3d5cd80f	0.053916987
38	0x3d5060ac	0.050873443
39	0x3cb47a9b	0.02203112
40	0x3d3f7ead	0.046751667
41	0x3be7d023	0.0070743724
42	0x3ba30373	0.0049747764
43	0x3d09f3be	0.033679716
44	0x3cf74e5a	0.030188728
45	0x3cfe93ee	0.031076398
46	0x3c70c731	0.014695928
47	0x3c07a5d0	0.008279279
48	0x3d2e769e	0.04259359
49	0x3c62a19f	0.013832479
50	0x3c071547	0.008244819
51	0x3c4c4282	0.012467029
52	0x3c0fe3e2	0.008782359
53	0x3d5a16c4	0.053244367
54	0x3cb5814f	0.022156386
55	0x3befe7b3	0.007321322
56	0x3de10b11	0.10988439
57	0x3cd9c19c	0.026581578
58	0x3d1caef9	0.038252804
59	0x3d24250f	0.040074404
60	0x3c8b6315	0.01701502
61	0x3d4b2634	0.04959698
62	0x3d901db4	0.070369154
63	0x3c38aff3	0.011272418

gnns.0.nn.0.weight f4 [128, 256]
0	0x3bb9b2ab	0.005667051
1	0xbd3bc73a	-0.045844294
2	0x3ae0cc58	0.0017150743
3	0xbc52f8e5	-0.012876724
4	0x3b6877eb	0.0035471867
5	0x3d62c8e8	0.05536738
6	0x3ce8a3d4	0.028398432
7	0x3c7df5d3	0.015500504
8	0x3bc310de	0.0059529385
9	0xbb4bbb42	-0.0031086956
10	0xbc9de60b	-0.019274732
11	0x3d72f954	0.05931981
12	0xbc302430	-0.010750815
13	0x3bc208b9	0.00592145
14	0x3cdd30e9	0.027000861
15	0x3c52995e	0.012853948
16	0xbcdcc6d5	-0.02695028
17	0xbd5ebcf7	-0.05437943
18	0x3cae1462	0.021249954
19	0x3d50cc8d	0.050976325
20	0xbd15160b	-0.036397975
21	0xbd0be47a	-0.03415344
22	0x3c18f764	0.009336326
23	0xbbbcf604	-0.005766632
24	0xbd4036c7	-0.04692724
25	0xbd3849ce	-0.04499226
26	0x3d20555e	0.039143912
27	0xbd51f418	-0.051258177
28	0xbd80ff72	-0.06298722
29	0xbca5be55	-0.020232359
30	0x3d63babc	0.055598006
31	0x3d56642c	0.052341625
32	0xbce06fd1	-0.027397068
33	0xbc70bdd3	-0.014693695
34	0x3c8b6c6d	0.017019475
35	0x3d3cc030	0.04608172
36	0xbca13330	-0.019677728
37	0x3cf0bf05	0.02938796
38	0xbc87275d	-0.016498262
39	0xbd10a93c	-0.035317644
40	0xbd680bca	-0.056651868
41	0xbc959921	-0.018261494
42	0xbd0dfe49	-0.034666333
43	0x3d590e92	0.05299241
44	0x3d0ee15b	0.034882884
45	0xbcd73c80	-0.026273966
46	0xbd70cc97	-0.058788862
47	0x3c355682	0.011067988
48	0xbbd00c83	-0.0063491478
49	0x3c93f7bc	0.018062465
50	0x3d2a37cf	0.04155713
51	0x3d618a08	0.055063277
52	0x3d48c7b9	0.049018595
53	0xbcd25700	-0.02567625
54	0x3b35cd3a	0.0027740733
55	0x3cfc6cd4	0.030813612
56	0xba94076b	-0.0011293715
57	0xbcce747f	-0.025202034
58	0xbd489510	-0.048970282
59	0xbd0e4899	-0.034737203
60	0x3c39459a	0.011308098
61	0xbd6b31fa	-0.05742071
62	0x3cf6c0fe	0.030121323
63	0xbd08ff05	-0.03344633
64	0xbd5523d5	-0.052036125
65	0x390217e8	0.00012406672
66	0x3c6728a4	0.014108811
67	0x3d0e9d3f	0.03481793
68	0xbcf9ad25	-0.03047807
69	0x3c238377	0.009980074
70	0x3ca51afd	0.02015447
71	0x3b6c5f69	0.003606761
72	0x3d7e7107	0.06211951
73	0x3c83ba86	0.016080152
74	0xbabe9c68	-0.0014542462
75	0xbd347778	-0.044059247
76	0xbd411a4f	-0.04714423
77	0x3d31f80d	0.04344945
78	0x3d2afdfd	0.04174613
79	0xbd0f4a3f	-0.034982916
80	0xbca2fe02	-0.019896511
81	0xbd226db8	-0.039655417
82	0x3c16edba	0.009211952
83	0x3d151071	0.036392633
84	0xba51aeb2	-0.0007998749
85	0xbca76a3a	-0.020436395
86	0x3d25da39	0.040491316
87	0x3d3273a0	0.0435673
88	0xbd4529d6	-0.0481356
89	0x3c9d12b7	0.019173963
90	0x3d528bb1	0.05140275
91	0xbcaa024f	-0.020753054
92	0x3d2a45b0	0.041570365
93	0x3b8868ee	0.004162899
94	0x3c6670cb	0.014064978
95	0xbd1013ba	-0.035175063
96	0x3c494bcb	0.012286137
97	0x3c41193e	0.011785803
98	0x3ce55a7c	0.027997248
99	0x3cb733ec	0.022363625
100	0xbd64db73	-0.055873346
101	0x3d4b05f6	0.04956623
102	0x3c4d1b6c	0.012518745
103	0x3c89192d	0.016735638
104	0x3d288e47	0.04115131
105	0x3c0144d8	0.007889949
106	0xbd1d40ac	-0.038391754
107	0xbd406853	-0.04697449
108	0x3c9ff421	0.01952559
109	0x3aae0220	0.001327578
110	0xbd5877e1	-0.0528487
111	0x3bc891f9	0.006120917
112	0xbbb6c732	-0.005577945
113	0xbba25bbc	-0.0049547832
114	0x3c7fe166	0.015617704
115	0x3b0e2896	0.0021691672
116	0xbd4e6e13	-0.050397944
117	0x3cf7351a	0.030176688
118	0x3d0da38d	0.034579802
119	0x3cf85b1e	0.030316886
120	0x3cbddbf8	0.023176178
121	0xbd7c4292	-0.061586924
122	0x3ca1ea00	0.0197649
123	0xbbbe38cf	-0.005805112
124	0xbd085025	-0.033279557
125	0xbcd681e7	-0.02618499
126	0xbcd2f389	-0.025750892
127	0x3cfdb844	0.030971654
128	0xbca494d8	-0.020090505
129	0x3c613965	0.013746594
130	0xbd55cacc	-0.052195355
131	0xbc7961c0	-0.015221059
132	0xbd963617	-0.073345356
133	0xbb94899e	-0.004533007
134	0x3dd7e7fa	0.10542293
135	0x3c32a431	0.010903404
136	0xbaeeeb35	-0.0018228056
137	0xbaba06ee	-0.0014192739
138	0xbcc48abd	-0.023991937
139	0xbbd22760	-0.0064133853
140	0xbd73dcfc	-0.05953692
141	0xbd85fb6d	-0.06542096
142	0xbcc8001a	-0.02441411
143	0xbd1f735b	-0.03892837
144	0xbcd6b963	-0.026211446
145	0xbd0ccc68	-0.034374624
146	0x3c973621	0.018458428
147	0xbd0860c1	-0.033295397
148	0x3d355c32	0.044277377
149	0xbbfe9ab4	-0.007769907
150	0x3dcc502f	0.09976231
151	0xbb64ce0b	-0.003491285
152	0xbd4df220	-0.050279737
153	0xbcd0887c	-0.025455706
154	0x3d8f18ff	0.069871895
155	0xbce7a487	-0.028276695
156	0xbd9a237e	-0.07526301
157	0xbc1f6db0	-0.009730741
158	0xbd0286ba	-0.031866767
159	0xbd4b67aa	-0.04965941
160	0xbc7bd5d9	-0.0153708095
161	0x3d074e51	0.033033673
162	0x3cfe5cad	0.03105005
163	0xbcedfd16	-0.029051345
164	0x3bc322ed	0.005955091
165	0x3b29ffd0	0.002593983
166	0x3c85b910	0.016323596
167	0x3d0985e4	0.033574954
168	0xbceb3a26	-0.02871425
169	0xbd29c4b7	-0.041447368
170	0xbd64aae0	-0.05582702
171	0xbd8e24a2	-0.06940581
172	0x3c2bb5fb	0.010480399
173	0xbd16292f	-0.03666037
174	0xbd76c1d2	-0.060243435
175	0x3d886f88	0.06661898
176	0xbda89d57	-0.08233135
177	0xbbdac765	-0.0066766017
178	0xbd03edee	-0.03220933
179	0x3b8946bf	0.004189342
180	0xbbaa4554	-0.005196253
181	0xbd97ceee	-0.074125156
182	0xbccac806	-0.024753582
183	0x3caceaec	0.021108113
184	0x39c88367	0.00038244875
185	0xbdfe465b	-0.12415763
186	0x3d277287	0.040880706
187	0x3c723ce9	0.01478503
188	0x3d5d7537	0.054066863
189	0x3cdb798d	0.026791358
190	0xbc0878bb	-0.008329566
191	0x3d873b59	0.066031165
192	0x3cd7dc38	0.026350126
193	0xbd8bc25c	-0.068241805
194	0x3c3bd5bc	0.011464532
195	0xbc307356	-0.010769686
196	0xbc39fff8	-0.011352532
197	0xbc66b37a	-0.0140808765
198	0x3d56a3c9	0.05240229
199	0x3c22be73	0.009933102
200	0xbd9413dd	-0.07230351
201	0xbc6a348b	-0.014294754
202	0xbcfcb365	-0.03084726
203	0xbd319b7e	-0.04336118
204	0x3b7e6fa1	0.003882386
205	0x3d839b4f	0.06426107
206	0xbca3ccbb	-0.019995084
207	0x3ca13d19	0.019682454
208	0xbd9921be	-0.07477139
209	0xbd118011	-0.035522524
210	0x3c49fa0e	0.012327684
211	0x3d974023	0.0738528
212	0xbda3a6e5	-0.07990817
213	0x3d027d76	0.03185793
214	0xbcc6a774	-0.02424977
215	0xbd511e97	-0.051054563
216	0xbc74c90c	-0.014940511
217	0x3c762179	0.015022629
218	0x3d7d7209	0.06187633
219	0x3babc008	0.005241398
220	0x3bfc8e42	0.007707388
221	0x3dbaf83a	0.09129377
222	0x3c9d0fb2	0.019172523
223	0xbb6aa560	-0.0035804138
224	0x3cb9b9cd	0.022671605
225	0xbc6b0d9e	-0.014346508
226	0x3d9a73a5	0.07541589
227	0xbd81028f	-0.06299316
228	0x3c9b97c4	0.018993266
229	0xbceacbe4	-0.028661676
230	0xbd9b33d5	-0.075782456
231	0x3d949411	0.07254804
232	0xbb3dc594	-0.0028956877
233	0x3c2d573a	0.010579878
234	0xbc8a5962	-0.016888324
235	0xbd8f62be	-0.070012555
236	0x3aa19c44	0.0012329896
237	0x3d9a9753	0.07548394
238	0xbdc4b128	-0.096041024
239	0xbc1f9a1b	-0.009741331
240	0xbd4d382f	-0.05010241
241	0xbd543392	-0.051806994
242	0xbd3c7fb9	-0.046020243
243	0xbc919cd8	-0.017774984
244	0x3d6162ae	0.05502575
245	0x3bff1fe8	0.007785786
246	0x3c2099e4	0.009802315
247	0xbd1f10a0	-0.038834214
248	0xbc0c1699	-0.00855031
249	0x3d5b0773	0.0534739
250	0xbcb79344	-0.022409089
251	0x3c45d084	0.01207364
252	0xbcc3dc3b	-0.023908725
253	0x3d1c50ac	0.038162872
254	0xbd87aba0	-0.06624532
255	0xbd39f8bf	-0.04540324

gnns.0.nn.0.bias f4 [128]
0	0x3d2e13bc	0.04249929
1	0x3ce8c2c5	0.028413186
2	0xbc3fd4c9	-0.011708447
3	0x3cb502ff	0.022096155
4	0x3d31c9be	0.043405287
5	0x3cc8dfdb	0.024520805
6	0xbd2e5093	-0.04255731
7	0xbb862157	-0.00409333
8	0x3d3c1059	0.045914028
9	0xbd5b40c3	-0.05352856
10	0x3d32988c	0.04360251
11	0xbcd0720e	-0.02544501
12	0x3d4500c0	0.04809642
13	0xbd51c2b2	-0.051211067
14	0xbd3cb9c8	-0.046075612
15	0x3d60667e	0.054785244
16	0xbd14c0fd	-0.03631686
17	0xbca00a11	-0.01953605
18	0xbc30fd25	-0.010802542
19	0x3b8f712c	0.004377505
20	0xbd7228ec	-0.059121057
21	0x3d2beb67	0.041972544
22	0xbb7b283f	-0.003832355
23	0x3c7d83bc	0.015473302
24	0x3d5c3c9d	0.053768743
25	0xbcafe0a8	-0.02146943
26	0x3d192608	0.037389785
27	0x3cab8419	0.020937013
28	0xbbe15358	-0.0068763904
29	0xbc297de9	-0.010344961
30	0x3ad5a125	0.0016298635
31	0xb913ac44	-0.00014083186
32	0x3d516504	0.051121727
33	0xbbd5dcb8	-0.006526556
34	0xbc736c2c	-0.014857333
35	0x3d5c62d9	0.053805206
36	0xbcec3575	-0.028834084
37	0x3b23c63a	0.0024989978
38	0x3c87eb43	0.016591674
39	0xbca792f7	-0.02045582
40	0xbd0fb42c	-0.035083935
41	0x3d5ac308	0.053408653
42	0xb98e31db	-0.00027121496
43	0xbcafb5ed	-0.021449054
44	0x3c3b6fb3	0.011440205
45	0x3c049dd2	0.008094268
46	0x3c1fdd53	0.009757358
47	0x3c073ce4	0.008254264
48	0x3cfc0df1	0.030768367
49	0xbd3eebed	-0.046611715
50	0xbd185ee1	-0.03719986
51	0xbc07e019	-0.008293175
52	0xbd0ae64f	-0.033911046
53	0x3d3e2661	0.04642332
54	0x3cdcd3cc	0.026956461
55	0x3d22d62d	0.039755035
56	0xbc9a2378	-0.018815741
57	0xbc5ff9ca	-0.013670394
58	0xbd16aac9	-0.036783967
59	0x3d592954	0.05301793
60	0xbb86c718	-0.0041130893
61	0xbc0152bf	-0.007893263
62	0x3d43f6fa	0.047842957
63	0xbb844553	-0.0040365844
64	0xbbef8409	-0.007309441
65	0x3d3757e7	0.044761565
66	0xbc44336e	-0.011975152
67	0x3973b520	0.0002324176
68	0xbd5b2dcd	-0.053510476
69	0x3d62bae4	0.055354014
70	0xbbc34ef7	-0.005960341
71	0x3d2304bb	0.039799433
72	0x3c4b71a6	0.012417233
73	0x3c669f09	0.014076003
74	0xbce0e4cc	-0.027452849
75	0xbd0f9a3f	-0.03505921
76	0x3d2bd9d4	0.041955784
77	0x3b975574	0.004618341
78	0x3d13e595	0.03610762
79	0xbb845645	-0.0040386044
80	0xbd71ff57	-0.0590814
81	0x3b4c6a05	0.0031191122
82	0x3d1ea5c5	0.03873231
83	0x3ceae350	0.028672844
84	0x3bfa5ac3	0.007640214
85	0x3c93b026	0.01802833
86	0x3c7b015e	0.01532015
87	0xbd41e999	-0.047341917
88	0xbcf5ba06	-0.02999593
89	0x3d14a178	0.0362868
90	0xbbf70c50	-0.0075393096
91	0xba84b929	-0.0010125983
92	0x3c51f04f	0.012813642
93	0x3d487ff1	0.04895014
94	0xba8e0b8f	-0.0010837185
95	0x3d425ed3	0.047453713
96	0xbd40c00c	-0.04705815
97	0x3d0ae5fc	0.033910736
98	0x3d028b7d	0.031871308
99	0xbcde296a	-0.027119357
100	0xbb918737	-0.0044411677
101	0xbd3c771c	-0.04601203
102	0xbcf975e2	-0.030451719
103	0xbd5e0d74	-0.05421205
104	0x3cc72022	0.024307314
105	0xbc94d8d9	-0.018169807
106	0xba9bbb58	-0.0011881394
107	0x3ccc6331	0.024949642
108	0x3b741806	0.0037245764
109	0x3d3ee521	0.046605233
110	0x3cca1740	0.02466929
111	0x3c5835fc	0.013196465
112	0x3cfb80a2	0.030700985
113	0xbcb07087	-0.021538032
114	0xbd4805ea	-0.048833765
115	0x3ce9b590	0.028528959
116	0x3cf4b9c2	0.029873732
117	0xbd47ee9e	-0.048811547
118	0x3d2647c7	0.040595796
119	0xbb8a5754	-0.004221836
120	0x3c852385	0.016252289
121	0x3c76bc75	0.01505958
122	0xbc343b9b	-0.011000539
123	0x3d0ad3a6	0.03389325
124	0xbcc3d7d2	-0.023906622
125	0x3cb34bcc	0.021886729
126	0x3b900420	0.004395023
127	0x3c564809	0.013078698
