tfg/models20250214105301/model_0.pt (torch, 518332 bytes, 28 tensors)

node_encoder.lins.0.weight f4 [32, 7]
0	0x3ea20907	0.31647512
1	0x3e36e2f8	0.17860019
2	0x3d84a09c	0.06475946
3	0x3e336e34	0.17522508
4	0xbdb98e54	-0.0906035
5	0xbe849ad8	-0.25899386
6	0xbeb2c740	-0.3491764
7	0xbd37a404	-0.044834152
8	0xbeb07624	-0.34465134
9	0xbd8fff5a	-0.07031126
10	0x3e98dcc5	0.29855934
11	0xbe708868	-0.23489535
12	0xbe6bf924	-0.23044258
13	0xbecd6679	-0.40117243
14	0x3e735310	0.23762155
15	0x3ea10a8c	0.3145336
16	0x3e7ec596	0.2488006
17	0x3d1945d5	0.037420113
18	0x3c883b7e	0.01662993
19	0xbe48556f	-0.1956384
20	0x3e65a981	0.22427942
21	0xbd50e213	-0.05099685
22	0x3e846223	0.25856122
23	0x3ea5a762	0.32354265
24	0xbcf20225	-0.029542038
25	0x3ead3619	0.33830336
26	0x3d101eaf	0.035185512
27	0x3df82490	0.12116349
28	0xbbd8df66	-0.006618428
29	0x3d41d576	0.047322713
30	0x3de8982a	0.11357148
31	0xbdb08377	-0.08618825
32	0xbeba028c	-0.36330068
33	0x3dc5cdd6	0.09658401
34	0xbdc1421a	-0.09436436
35	0xbe55ba66	-0.20871887
36	0x3e64c96a	0.22342458
37	0xbea51336	-0.3224122
38	0x3e24d84a	0.16098133
39	0x3e97685f	0.29571816
40	0xbea13e8e	-0.31493038
41	0x3d6de1fa	0.058076836
42	0xbe56cc56	-0.20976385
43	0x3e44a3a2	0.19203046
44	0xbe9691bf	-0.2940807
45	0xbdd5a35b	-0.10431548
46	0x3ea418e3	0.32050237
47	0x3e960a69	0.29304817
48	0xbce42b9d	-0.027852828
49	0xbd5838fa	-0.052788712
50	0xbea15c78	-0.3151586
51	0x3d61e1bd	0.05514692
52	0x3eb8027d	0.35939398
53	0xbd95338c	-0.072852224
54	0x3dceb404	0.10092929
55	0x3ec99cfa	0.39377576
56	0x3e777176	0.24164376
57	0x3e83e73b	0.25762352
58	0x3ea0c09d	0.31396952
59	0x3dcc5aae	0.09978233
60	0xbdcd790b	-0.10032853
61	0x3ec7f868	0.39056706
62	0xbdcb9310	-0.09940159
63	0x3e339d78	0.17540538
64	0x3e9a8034	0.30175936
65	0x3db98846	0.09059195
66	0xbe333e32	-0.17504194
67	0xbde739b8	-0.11290306
68	0xbe824696	-0.25444478
69	0xbe8d393c	-0.2758273
70	0x3e75ea7b	0.24015228
71	0xbe2ff56b	-0.17183463
72	0xbe29fc8a	-0.16600242
73	0xbeafb11c	-0.3431481
74	0x3c044f09	0.008075484
75	0xbdf95b29	-0.121755905
76	0x3dae9d75	0.08526126
77	0xbdfc921f	-0.12332558
78	0x3e872199	0.2639282
79	0xbeb829d3	-0.3596941
80	0x3dd8f3e2	0.10593392
81	0x3e5167f7	0.20449816
82	0xbec5827b	-0.3857611
83	0xbd9e6cab	-0.077355705
84	0xbd3026ac	-0.04300563
85	0xbdaaef33	-0.08346405
86	0xbe555e80	-0.2083683
87	0xbe459623	-0.19295554
88	0x3e8e939c	0.27846992
89	0x3d1273ab	0.03575484
90	0xbe374dad	-0.17900725
91	0xbe9f4c77	-0.31113026
92	0x3da38358	0.07984036
93	0x3da401b2	0.08008136
94	0xbeea5376	-0.457668
95	0xbe27a319	-0.1637081
96	0xbe3442d5	-0.1760362
97	0xbe904740	-0.2817936
98	0xbe346013	-0.17614774
99	0xbdbfad0d	-0.09359179
100	0xbe360f54	-0.17779285
101	0xbe0bdc10	-0.13658166
102	0xbe298832	-0.1655586
103	0x3ea99e3d	0.3312854
104	0x3e85d44c	0.26138532
105	0x3db5ab97	0.08870619
106	0xbe8ff409	-0.28115872
107	0xbe01ed30	-0.12688136
108	0xbdd6882d	-0.10475192
109	0x3e6440b6	0.2229031
110	0x3dc2ddee	0.09514986
111	0xbe7468fb	-0.23868172
112	0x3eaf38a1	0.34222892
113	0x3de15ecc	0.11004409
114	0xbe63695b	-0.22208159
115	0xbc3176e2	-0.0108315665
116	0xbe58efe5	-0.21185263
117	0x3e9f3df6	0.3110196
118	0x3d99487e	0.0748453
119	0x3eb2e55f	0.3494062
120	0x3d88de6c	0.066830486
121	0xbcbb5a0c	-0.022870086
122	0xbed0cda8	-0.40781903
123	0x3ea64221	0.32472327
124	0xbd132355	-0.035922367
125	0xbb63288b	-0.0034661617
126	0xbd854a95	-0.06508366
127	0xbe8a834a	-0.2705329
128	0x3e7a1ac9	0.2442428
129	0xbe156d95	-0.14592583
130	0xbead1e7a	-0.33812314
131	0xbd5df75c	-0.05419098
132	0xbdb3f442	-0.08786823
133	0xbdebc7b6	-0.11512701
134	0x3e9d7147	0.30750486
135	0x3e0d75b8	0.13814437
136	0xbe958d12	-0.2920919
137	0xbe845fb9	-0.2585428
138	0x3e39de31	0.18151166
139	0x3e14a200	0.14514923
140	0xbe3e8dcd	-0.1860878
141	0x3c9d8749	0.019229548
142	0x3ec5c9b6	0.38630456
143	0xbe04d117	-0.12970386
144	0xbe8fb871	-0.28070405
145	0xbdc20b6f	-0.09474837
146	0xbe16160d	-0.14656849
147	0x3d72c8a8	0.059273392
148	0xbe6d5a3c	-0.23178953
149	0xbe26adbc	-0.16277212
150	0x3ec84170	0.39112425
151	0x3e01a8c4	0.12662035
152	0x3eadc4aa	0.33939105
153	0xbd9af7dd	-0.075668074
154	0xbdca8f21	-0.09890581
155	0x3e658547	0.22414123
156	0x3e69e166	0.22839889
157	0x3ee85a6c	0.45381486
158	0xbe995276	-0.29945725
159	0xbe8708da	-0.2637394
160	0xbe8f0995	-0.27936998
161	0xbea81e04	-0.328354
162	0x3ea1e5ea	0.31620723
163	0xbea21b63	-0.3166152
164	0xbe078aee	-0.13236591
165	0x3e9ecf5f	0.31017587
166	0x3e996f90	0.29967928
167	0xbe1cef3a	-0.15325633
168	0xbeaf907c	-0.3428992
169	0x3e01dbad	0.12681456
170	0x3e864862	0.262271
171	0x3d905ed3	0.07049336
172	0x3ea52bc0	0.3225994
173	0xbe677fad	-0.22607298
174	0x3e053c90	0.13011384
175	0xbe9b1b23	-0.3029414
176	0xbc083f2a	-0.008315841
177	0x3e3faa55	0.1871732
178	0x3e5f5a4c	0.2181179
179	0x3db53aba	0.08849092
180	0xbeb2acdb	-0.34897503
181	0xbd2ade07	-0.041715648
182	0xbe040b25	-0.12894876
183	0xbeb995d0	-0.3624711
184	0xbe6f8d27	-0.23393689
185	0x3d88b916	0.06675927
186	0x3e90a004	0.28247082
187	0x3d5c8215	0.053834993
188	0xbda2b5e3	-0.079448484
189	0x3e9cbc48	0.30612397
190	0xbdb26663	-0.08710935
191	0xbb76cd2f	-0.003765892
192	0x3de173d3	0.1100842
193	0x3e7ca372	0.24671724
194	0xbe8c4b04	-0.27400982
195	0x3e1531b3	0.1456974
196	0x3e6ed47a	0.23323241
197	0x3e927434	0.2860428
198	0xbe9a820f	-0.30177352
199	0x3d5e2885	0.05423786
200	0x3e2377a5	0.1596361
201	0x3d75ab48	0.0599778
202	0x3db01b0a	0.08598907
203	0xbdae1a39	-0.08501095
204	0xbe1b1ef5	-0.15148528
205	0x3e13c791	0.14431597
206	0xbe6f9f75	-0.23400672
207	0x3c0287b2	0.007966923
208	0x3dcc132a	0.09964593
209	0x3eb6548a	0.35611373
210	0x3e3f910c	0.18707675
211	0x3e51acd1	0.2047608
212	0xbe885d56	-0.2663371
213	0xbc6321c3	-0.01386303
214	0x3d0d4b74	0.034495786
215	0xbe462643	-0.19350533
216	0xbeb45a1f	-0.35225007
217	0xbe8be62f	-0.27324054
218	0xbe6e9b24	-0.23301369
219	0xbd96be22	-0.07360484
220	0xbe88de8e	-0.26732296
221	0x3e1d201f	0.15344284
222	0x3d6c0860	0.057625175
223	0x3e3d8783	0.18508725

node_encoder.lins.0.bias f4 [32]
0	0x3d41570d	0.04720216
1	0xbcff4714	-0.031161822
2	0x3e0ef9d7	0.13962494
3	0x38903ebf	6.8781424e-05
4	0xbd715298	-0.05891666
5	0xbbdb3290	-0.006689377
6	0x3ce984b0	0.028505653
7	0x36938d48	4.3973887e-06
8	0xbd4f820d	-0.050661135
9	0x3c933b3b	0.01797258
10	0xbdc6e61f	-0.09711861
11	0xbc318644	-0.010835234
12	0x3db1e5c4	0.086864024
13	0x36304a88	2.6269427e-06
14	0xb5eb3d86	-1.752677e-06
15	0x3e2616ef	0.16219686
16	0x3e46a508	0.19398892
17	0xbe3e88ba	-0.18606845
18	0xbe431be8	-0.19053614
19	0x3d810310	0.06299412
20	0x3d7d94a1	0.06190932
21	0xb7b5ece2	-2.1687189e-05
22	0xbdf8dcde	-0.12151502
23	0x3ca70ac8	0.020390883
24	0xbdcb9c74	-0.099419504
25	0x37305c7d	1.0511952e-05
26	0x3c2c23a6	0.010506546
27	0x3e18baea	0.14915052
28	0x3b1bdc1b	0.0023782316
29	0x3e44abbd	0.19206138
30	0x3d321ac3	0.043482553
31	0xbdb45d47	-0.08806854

node_encoder.lins.1.weight f4 [64, 32]
0	0x3e1baff0	0.15203834
1	0x3d75481a	0.059883215
2	0xbbfb4033	-0.0076675653
3	0x3b2d2577	0.0026420036
4	0x3de736e8	0.112897694
5	0xbe3ca4e6	-0.18422279
6	0x3ce3194b	0.027722022
7	0x3d71b1ea	0.059007563
8	0x3c82d032	0.015968416
9	0x3d68ff24	0.056883946
10	0x3e013f02	0.12621692
11	0xbd3d829c	-0.046267137
12	0x3e186da3	0.14885573
13	0x3e014152	0.12622574
14	0xbc1eb764	-0.009687278
15	0x3c84c360	0.016206443
16	0xbd6eaf8c	-0.058272883
17	0x3c42973b	0.0118768765
18	0x3cc25449	0.02372183
19	0xbdf34d17	-0.11879938
20	0xbdf213f1	-0.1182021
21	0x3e0f6229	0.14002289
22	0xbdd98309	-0.10620696
23	0xbe1d100e	-0.15338156
24	0xbbf1b002	-0.007375718
25	0x3e22e9a7	0.15909444
26	0xbc846eb5	-0.01616607
27	0x3e066c84	0.13127333
28	0xbd6daebc	-0.058027968
29	0x3df3e06e	0.11908041
30	0xbdbf1849	-0.09330804
31	0x3dafec34	0.08589974
32	0x3d83c042	0.06433155
33	0x3defe145	0.11712889
34	0xbd0098cb	-0.031395715
35	0xbd65bcfe	-0.05608844
36	0xbdc830d1	-0.09774936
37	0x3d4434e0	0.047901988
38	0x3dbbac36	0.09163706
39	0x3cea051c	0.02856689
40	0xbe331ecb	-0.17492215
41	0xbc4590db	-0.012058462
42	0x3e14309f	0.14471672
43	0xbe0c5743	-0.13705163
44	0x3dd21bed	0.10259233
45	0xbd21f69e	-0.039541833
46	0xbc72760a	-0.0147986505
47	0x3e03a8b2	0.12857321
48	0xbe230c28	-0.15922606
49	0xbd17c90a	-0.03705696
50	0xbde9e3a3	-0.114203714
51	0x3e0d8b1f	0.13822602
52	0xbdd75e2a	-0.10516007
53	0x3dc7c157	0.097536735
54	0xbc2c9be3	-0.010535213
55	0x3cdea519	0.027178334
56	0xbe102b3b	-0.14078991
57	0x3c93ef8d	0.018058563
58	0xbd81c31d	-0.06336043
59	0x3dac9f2f	0.08428799
60	0xbd1b921d	-0.03798114
61	0x3d311020	0.04322827
62	0xbe2dd77a	-0.16976729
63	0x3cf0c354	0.029390015
64	0xbd8d3dc4	-0.068965465
65	0xbd861fb5	-0.065490164
66	0xbdb4d8f8	-0.08830446
67	0x3db5c5bc	0.088756055
68	0x3d083115	0.033249933
69	0xbd059bd0	-0.032619298
70	0xbd3ce248	-0.046114236
71	0xbd99efe4	-0.07516459
72	0x3d68eacf	0.056864556
73	0x3e0ebef7	0.13940035
74	0x3ddca6d8	0.107740104
75	0x3d5631c7	0.052293565
76	0x3da9d0f1	0.082918055
77	0x3c0f6048	0.008750983
78	0xbdebe5ea	-0.11518462
79	0x3e0fb4b7	0.14033781
80	0xbe03dca8	-0.12877142
81	0xbd2cfa91	-0.042231146
82	0x3cc66e4c	0.024222516
83	0xbdb7aaf9	-0.08968157
84	0xbceb84c9	-0.02874984
85	0x3e19ff80	0.15038872
86	0xbcdcc2b0	-0.026948303
87	0xbe22448d	-0.15846463
88	0x3e014169	0.12622608
89	0x3e2d3b1e	0.16917083
90	0xbcc0c4ed	-0.023531402
91	0x3cb574b5	0.022150377
92	0x3e14a3c0	0.1451559
93	0xbd03540f	-0.032062586
94	0xbd96f724	-0.07371357
95	0xbdd37e3a	-0.1032681
96	0xbd3329ef	-0.043741163
97	0xbd19fb02	-0.037592895
98	0xbd322c92	-0.043499537
99	0x3cc6d743	0.024272567
100	0x3e1c8a17	0.15287052
101	0x3e077197	0.13226925
102	0x3d69e07f	0.05709886
103	0x3d55ee47	0.052229192
104	0x3e17087a	0.14749327
105	0xbd9cf880	-0.07664585
106	0xbe132017	-0.1436771
107	0xbe3387b9	-0.17532243
108	0xbe2610d3	-0.16217355
109	0xbe137c7d	-0.14402957
110	0x3dc47fbe	0.095946774
111	0x3d7c7a6f	0.0616402
112	0x3e215e87	0.15758716
113	0x3b8dcbcb	0.0043272725
114	0xbe28e8f4	-0.16495115
115	0xbc3bf555	-0.011472066
116	0xbe046a62	-0.12931207
117	0xbda9011b	-0.08252164
118	0xbe211b2e	-0.15733024
119	0xbc8e81ca	-0.017395873
120	0xbcf4824a	-0.029847283
121	0x3d213e6b	0.039366167
122	0x3dc21225	0.09476117
123	0xbde592a3	-0.11209609
124	0xbbc36128	-0.0059625097
125	0x3d973803	0.0738373
126	0x3d1228f0	0.035683572
127	0xbd61a89d	-0.055092443
128	0x3bff0c8b	0.0077834777
129	0x3da1979f	0.078902476
130	0x3e12b597	0.14327084
131	0x3db526e0	0.088453054
132	0xbd19f47c	-0.037586674
133	0x3d6c55bc	0.05769895
134	0xbd5ee5c9	-0.05441836
135	0xbe23ddb7	-0.16002546
136	0xbce13a89	-0.027493732
137	0x3c250883	0.01007283
138	0x3d1f6eca	0.038924016
139	0x3c29f0da	0.010372365
140	0x3e126b6b	0.14298789
141	0xbe1d2eeb	-0.15349929
142	0x3e030a61	0.12796928
143	0xbe2e06fe	-0.16994855
144	0x3daf9c17	0.08574694
145	0x3ce5ed27	0.028067185
146	0xbe1eb0dc	-0.15497154
147	0x3e17bdf1	0.1481855
148	0xbd090de9	-0.03346053
149	0xbe0fd489	-0.1404592
150	0x3e0324ca	0.12807003
151	0x3d9396d4	0.072065026
152	0xbe198969	-0.14993824
153	0x3d741be3	0.059596907
154	0x3e19aeed	0.15008135
155	0xbd2f67e7	-0.0428237
156	0x3e130c08	0.14360058
157	0xbe12bec2	-0.14330581
158	0x3ba88a4c	0.0051434394
159	0xbd3fd197	-0.04683074
160	0x3e0ba04a	0.13635364
161	0xbd8cd5cb	-0.06876715
162	0x3d83052e	0.06397472
163	0xbe0d939b	-0.13825838
164	0x3d8fd997	0.07023924
165	0x3c660769	0.014039853
166	0x3d8ffad0	0.070302606
167	0x3e00f012	0.1259158
168	0x3e0044f9	0.12526311
169	0xbe133cb0	-0.14378619
170	0xbd56d649	-0.052450452
171	0x3dc6c851	0.09706176
172	0x3da371d6	0.07980697
173	0xbc3c3ee2	-0.011489602
174	0x3d80d2f8	0.06290239
175	0xbe211de3	-0.15734057
176	0xbe20d422	-0.15705922
177	0x3c7196f1	0.01474546
178	0xbde8bdd7	-0.11364334
179	0x3db9e6b9	0.0907721
180	0xbe2e89be	-0.17044732
181	0xbcdc7b44	-0.026914246
182	0xbe1fcbd2	-0.15605095
183	0x3e02bbc6	0.12766942
184	0x3db45602	0.08805467
185	0x3c0f0b51	0.008730725
186	0xbd1dcbdd	-0.038524497
187	0x3e230fd3	0.15924005
188	0x3d95c41b	0.07312795
189	0x3dac0fbe	0.0840144
190	0xbe219c0f	-0.15782188
191	0x3de94b7a	0.11391349
192	0x3b2db416	0.0026505045
193	0x3e0502ad	0.12989302
194	0xbe0eab4d	-0.13932534
195	0xbdb9c93a	-0.09071584
196	0x3c92559f	0.017863093
197	0xbcbfb95a	-0.023403812
198	0x3de5f0a7	0.112275414
199	0x3d477cba	0.048702933
200	0xbd22ef07	-0.039778735
201	0x3c0fd7b7	0.008779458
202	0xbdf55bf3	-0.119804285
203	0x3dfe179f	0.12406849
204	0x3d992c14	0.0747911
205	0xbd90cf84	-0.070708305
206	0x3e35311b	0.17694513
207	0x3c913759	0.017726587
208	0x3d8488dc	0.06471416
209	0x3e22eb69	0.15910114
210	0xbdab8570	-0.083750606
211	0x3e19e30f	0.15028022
212	0x3e12e559	0.14345302
213	0xbe0b516f	-0.13605283
214	0x3d897598	0.06711882
215	0x3e2ebbf1	0.17063881
216	0x3d04b4ed	0.032399107
217	0xbd937355	-0.07199732
218	0x3d87332d	0.06601558
219	0x3e2c61cf	0.16834186
220	0x3e2eac95	0.17058022
221	0xbd8eb815	-0.069687046
222	0x3b7dde59	0.0038737266
223	0x3cf56094	0.029953279
224	0x3e02f279	0.12787808
225	0x3e155d76	0.14586434
226	0x3d37834b	0.044802945
227	0xbd326d4b	-0.04356126
228	0x3db7fce7	0.08983784
229	0x3e302aae	0.17203781
230	0xbddf907b	-0.10916229
231	0xbe29f5ab	-0.16597621
232	0xbcf6ebad	-0.030141676
233	0x3ddc6b5b	0.10762664
234	0xbd379aef	-0.04482549
235	0xbe1ccb14	-0.15311843
236	0xbc24a2e0	-0.010048598
237	0xbd0b8386	-0.034060977
238	0xbd5edf74	-0.05441232
239	0xbdb259ae	-0.08708511
240	0x3ce1de60	0.027571857
241	0x3ba7ed51	0.005124726
242	0x3e15fa6a	0.14646307
243	0x3e0f7b0e	0.14011785
244	0xbdb55be2	-0.08855416
245	0xbdaa4752	-0.083143845
246	0xbdb460be	-0.088075146
247	0xbe050867	-0.12991486
248	0xbc44a76c	-0.012002807
249	0x3d534209	0.051576648
250	0xbdffde3c	-0.1249356
251	0xbe1bc386	-0.15211305
252	0xbdf419d0	-0.11918986
253	0xbbbf0c28	-0.0058303066
254	0x3e35ba25	0.1774679
255	0x3df5f0bb	0.12008806

node_encoder.lins.1.bias f4 [64]
0	0x37bcd4f1	2.2510505e-05
1	0xbc6d666f	-0.014489754
2	0x3d4611ae	0.048356704
3	0x37a50873	1.9673467e-05
4	0x3d45cc9c	0.048290834
5	0xb60e4fa8	-2.1206015e-06
6	0xb707ae86	-8.087261e-06
7	0x38b1cbd0	8.477981e-05
8	0xbc921e72	-0.017836783
9	0x3c0dd634	0.008657027
10	0x3cb86b7d	0.022512192
11	0xb86da33f	-5.6657238e-05
12	0xb8261af0	-3.960257e-05
13	0x382deadd	4.1465148e-05
14	0x35fde5b5	1.8916822e-06
15	0xbb0e7a77	-0.0021740475
16	0x3d47f231	0.048814956
17	0x37052460	7.935887e-06
18	0x399f955a	0.0003043812
19	0xbd3dda09	-0.046350513
20	0x3ca5688f	0.020191459
21	0x374bfdfb	1.2158877e-05
22	0xb81e41fa	-3.773158e-05
23	0xbd5232d9	-0.051318023
24	0x36ff7a99	7.6138645e-06
25	0xb51d8b9d	-5.869022e-07
26	0xb8aa4a32	-8.120052e-05
27	0x3bc8a437	0.0061230916
28	0xbab2ddb4	-0.0013646395
29	0xb72e7479	-1.0398327e-05
30	0xbceb9511	-0.028757604
31	0x361f9125	2.3777332e-06
32	0xb7cd1456	-2.4447374e-05
33	0xbd21e6da	-0.039526798
34	0x3a0bed6e	0.0005337809
35	0x3794cda6	1.7738737e-05
36	0x38b24cfb	8.50204e-05
37	0xb7381488	-1.0972035e-05
38	0xbb067434	-0.002051604
39	0xb8d0ec72	-9.962254e-05
40	0xbc2879e7	-0.01028297
41	0x3a6f8ffa	0.00091385806
42	0xbaf3e756	-0.0018608372
43	0x39a9fc8a	0.00032422348
44	0xbc0cbfe8	-0.008590676
45	0x3d16db4a	0.036830224
46	0xbb920822	-0.004456536
47	0xb9312d51	-0.00016896917
48	0x3cdb43da	0.026765753
49	0xb881d97c	-6.191709e-05
50	0xbd1c39d8	-0.0381411
51	0x3c62fe7b	0.013854618
52	0xbc29235c	-0.010323372
53	0xbd574b77	-0.052562203
54	0x3c271aa6	0.010199225
55	0xbc8a7be8	-0.016904786
56	0xb7b1790e	-2.1156415e-05
57	0x3ba38978	0.004990753
58	0xbd296caa	-0.041363396
59	0xbc8d8bf8	-0.017278656
60	0x3d1992cf	0.037493523
61	0xb6fc5182	-7.519674e-06
62	0x39b17a15	0.0003385103
63	0x38438d52	4.6623238e-05

node_encoder.lins.2.weight f4 [128, 64]
0	0x3d7a1118	0.061051458
1	0x3d823dab	0.063594185
2	0xbdd5547d	-0.104165055
3	0x3dc45610	0.095867276
4	0xbc907394	-0.017633237
5	0x3dcf0268	0.10107881
6	0xbd8e2f8c	-0.069426626
7	0x3cb49f4e	0.022048619
8	0xbd224754	-0.039618805
9	0xbd17c04c	-0.037048623
10	0xbbadc5bb	-0.0053031123
11	0x3df263ae	0.11835419
12	0xbd82af6e	-0.06381117
13	0xbe003702	-0.12520984
14	0xbdbbd5e3	-0.09171655
15	0x3dca25e2	0.09870507
16	0x3d977f75	0.073973574
17	0x3cb6ba47	0.02230562
18	0x3ca5c3b8	0.020234928
19	0xbdbae15a	-0.09125014
20	0x3d8e7380	0.069556236
21	0xbdd5037a	-0.10401054
22	0xbdb383ce	-0.08765374
23	0x3da4ec9d	0.08052943
24	0x3d797ec6	0.060911916
25	0x3d941862	0.07231213
26	0x3cd5f0a2	0.02611572
27	0xbd955590	-0.072917104
28	0xbd93086d	-0.071793415
29	0x3cdd63d0	0.027025133
30	0x3dc1b17f	0.09457683
31	0xbd6ad925	-0.05733599
32	0x3d085dd6	0.033292614
33	0x3daaa0d6	0.08331458
34	0xbccad80c	-0.024761222
35	0xbcb542a0	-0.022126496
36	0xbde0f2f3	-0.10983839
37	0xbc941e26	-0.018080782
38	0x3ca8284f	0.020527033
39	0xbd94ef84	-0.072722465
40	0xbd2dd4cf	-0.04243928
41	0xbdae9cb3	-0.08525982
42	0xbd6936a0	-0.05693686
43	0xbe010393	-0.1259902
44	0x3d9e78cb	0.07737883
45	0xbd99fe2f	-0.07519185
46	0x3d187ed9	0.037230346
47	0x3b9d4d79	0.004800495
48	0xbb05c7f3	-0.0020413368
49	0xbd8bcff5	-0.06826774
50	0x3dfde236	0.12396662
51	0x3d82e2b4	0.063908964
52	0x3a8d0f29	0.0010761964
53	0x3d4653f3	0.048419904
54	0xbc17cf41	-0.009265722
55	0x3dd74951	0.10512031
56	0xbdc4beb8	-0.09606689
57	0xbda1a480	-0.07892704
58	0x3d24cc8f	0.040234145
59	0x3d54a217	0.051912393
60	0x3d461725	0.048361916
61	0xbdfa4bd5	-0.12221495
62	0x3dd12d49	0.102137156
63	0xbd2b7c96	-0.04186686
64	0xbc978b39	-0.018499004
65	0xbd4508c2	-0.048104055
66	0x3df3fbb5	0.11913244
67	0xbdcd0862	-0.100113645
68	0x3d879d98	0.066218555
69	0xbca12cfc	-0.01967477
70	0x3c052717	0.0081269955
71	0x3cda005a	0.026611496
72	0x3cb086af	0.021548597
73	0xbdb89de1	-0.09014488
74	0xbd6a2d86	-0.05717232
75	0x3df42d64	0.1192272
76	0x3ded2999	0.115802
77	0xbd9e6cb8	-0.0773558
78	0x3d97b5ba	0.074077085
79	0x3b0238ad	0.0019870207
80	0x3b86f47e	0.004118501
81	0xbcb032b6	-0.021508556
82	0xbdd8d27a	-0.1058702
83	0x3dcea2c3	0.10089638
84	0x3c03aa75	0.008036246
85	0x3d2042e9	0.03912631
86	0xbd3336f4	-0.04375358
87	0x3d55ee9b	0.052229505
88	0xbd20bcf6	-0.039242707
89	0xbd05142c	-0.03248994
90	0x3ca61811	0.020275148
91	0x3dc864ca	0.09784849
92	0xbda8a1d1	-0.08233989
93	0xbd9814cb	-0.07425841
94	0xbcf5c201	-0.029999735
95	0xbdd32121	-0.10309053
96	0x3da5f811	0.081039555
97	0xbc986780	-0.01860404
98	0xbdf77788	-0.12083346
99	0xbd8d9f1f	-0.069151156
100	0x3d19bafd	0.03753184
101	0xbdeef4f1	-0.116678126
102	0xbbe80b04	-0.0070813913
103	0x3b7b6380	0.0038358867
104	0xbd58d6d0	-0.052939236
105	0xbdbf666f	-0.093457095
106	0x3d91b66f	0.071148746
107	0xbda231a1	-0.07919622
108	0x3db99733	0.09062042
109	0x3dd69e9b	0.1047947
110	0xbc550d84	-0.013003711
111	0x3ce5dc6d	0.028059209
112	0xbd6e5ff9	-0.058196995
113	0x3da84f0a	0.082182005
114	0x3d57b850	0.05266601
115	0xbd523a37	-0.05132505
116	0xbdcdf111	-0.100557454
117	0x3d71c9a1	0.05903018
118	0x3dac77b9	0.08421273
119	0xbde0887c	-0.10963532
120	0x3d8eed5d	0.06978867
121	0xbdc7c5dc	-0.097545356
122	0xbdd01aee	-0.101613864
123	0x3de5de7b	0.112240754
124	0x3cbffed9	0.02343695
125	0x3dfae83b	0.12251326
126	0x3cf880bd	0.030334825
127	0x3ce72f22	0.028220717
128	0x3d971fc6	0.07379107
129	0xbda37f40	-0.079832554
130	0xbc6bb21c	-0.014385726
131	0xbdb49bc1	-0.0881877
132	0x3bc2c2e5	0.0059436434
133	0xbd1eb4ad	-0.038746525
134	0x3b872711	0.00412453
135	0x3d4ec5be	0.05048155
136	0x3d8fe60e	0.07026301
137	0xbd86a955	-0.06575266
138	0x3b64e32d	0.0034925446
139	0xbc7826e5	-0.015145992
140	0xbbba3cd8	-0.0056835227
141	0x3d747ccd	0.05968933
142	0x3d8bae8a	0.068204
143	0xbcc16a16	-0.023610156
144	0xbd2b7764	-0.041861907
145	0x3dda16b4	0.106488615
146	0x3cdabc57	0.026701136
147	0x3c17dd23	0.009269032
148	0xbd441c14	-0.04787834
149	0x3dcb075b	0.09913512
150	0xbdc86c7e	-0.09786318
151	0xbcf8323e	-0.030297395
152	0x3c588b8e	0.013216866
153	0x3d7d6a86	0.061869167
154	0x3d67367a	0.056448437
155	0xbd98d602	-0.07462694
156	0xbbd6794d	-0.006545222
157	0x3d3ea464	0.046543494
158	0xba5d5499	-0.0008443087
159	0x3df2174d	0.118208505
160	0x3cae62de	0.021287378
161	0x3c556f24	0.013026986
162	0x3d86a6e1	0.065747984
163	0xbd09cb1e	-0.033640973
164	0x3dac2697	0.08405798
165	0xbddb3c26	-0.10704832
166	0xbd803219	-0.06259555
167	0xbdb36701	-0.08759881
168	0x3da4d14c	0.08047733
169	0xbd844f87	-0.06460481
170	0xbd5f016a	-0.054444708
171	0x3d45ff4d	0.048339177
172	0xbde8d763	-0.11369207
173	0xbdf3fefb	-0.11913868
174	0x3de74447	0.1129232
175	0x3d7b7147	0.061387327
176	0x3d8d54a8	0.069009125
177	0x3d808c77	0.062767915
178	0x3dac36c4	0.08408883
179	0x3bee880f	0.007279403
180	0xbc90be39	-0.01766883
181	0xbce25bc2	-0.027631644
182	0x3dfea283	0.124333404
183	0x3ced50ee	0.028969254
184	0x3d340898	0.04395351
185	0x3cb7a568	0.022417739
186	0xbc58b8de	-0.0132276695
187	0x3de8a1ae	0.11358963
188	0xbd5f6ec1	-0.054548983
189	0x3cc0d5b4	0.023539402
190	0x3cb92424	0.022600241
191	0x3d5e99f2	0.054346032
192	0xbde823c2	-0.11334945
193	0x3d501102	0.05079747
194	0xbd7fb63d	-0.062429655
195	0xbb38961f	-0.002816565
196	0xbabdbb89	-0.0014475445
197	0xbd4c700d	-0.049911547
198	0x3c49c287	0.012314445
199	0xbde8fe69	-0.1137665
200	0xbda8f071	-0.082489856
201	0x3d043d73	0.032285165
202	0xbcad9111	-0.021187337
203	0xbddb5135	-0.107088484
204	0xbc546597	-0.012963674
205	0xbdfe3df2	-0.12414159
206	0xbdb63202	-0.08896257
207	0xbd8a9224	-0.06766155
208	0x3d9c91e8	0.07645017
209	0xbd803313	-0.06259742
210	0x3bd1ba59	0.006400388
211	0xbdde273c	-0.10847327
212	0x3e005b00	0.12534714
213	0x3d1ca89e	0.038246743
214	0x3d05ced4	0.03266795
215	0x3d6f8353	0.05847485
216	0xbd1566f9	-0.036475156
217	0x3dd7d217	0.10538118
218	0xbd04f364	-0.032458678
219	0x3be65ecb	0.007030343
220	0x3d6f1301	0.058367733
221	0xbd79f6f6	-0.061026536
222	0x3df0fa7b	0.11766525
223	0x3d69a059	0.057037685
224	0xbcf20ec9	-0.029548066
225	0x3d14d770	0.03633827
226	0xbdbd6a39	-0.09248776
227	0x3de88ed1	0.11355365
228	0xbd654f6d	-0.05598395
229	0xbd941aad	-0.072316505
230	0x3dee0774	0.11622515
231	0xbdc5853c	-0.09644553
232	0x3d03a58a	0.032140292
233	0x3dcc2063	0.09967115
234	0xbdc56670	-0.09638679
235	0x3dbf6d2d	0.093469955
236	0x3ceb710e	0.028740432
237	0x3cc1e0f4	0.023666836
238	0x3abf84c9	0.0014611717
239	0x3d5184a1	0.051151875
240	0x3de26b6f	0.110556476
241	0xbd4dd8c7	-0.050255563
242	0x3dee19d6	0.116260216
243	0x3c2ec0cf	0.010666086
244	0x3c2ac96c	0.010423999
245	0x3dcf69f0	0.10127628
246	0xbd41f2e2	-0.04735077
247	0xbd171909	-0.03688911
248	0x3da45190	0.08023369
249	0xbce36c5f	-0.027761636
250	0x3de31e2e	0.11089741
251	0x3dd1dba2	0.1024697
252	0xbdc8690a	-0.097856596
253	0x3dbff480	0.093728065
254	0xbce72e5a	-0.028220344
255	0x3de6d7f7	0.11271661

node_encoder.lins.2.bias f4 [128]
0	0xbd49d0b4	-0.0492713
1	0xbd9e81c6	-0.07739596
2	0xbbd588c7	-0.0065165493
3	0x3b7bd6e4	0.0038427645
4	0xbcd776f9	-0.026301848
5	0xbd94e076	-0.07269375
6	0xbba932a5	-0.005163508
7	0xbb3b6567	-0.0028594376
8	0x3dabcfcb	0.08389243
9	0xbdbc4618	-0.09193057
10	0xbd88ba0c	-0.066761106
11	0x3d79104f	0.06080657
12	0x3cdcb463	0.026941484
13	0xbdadb815	-0.084823765
14	0x3dce0fe7	0.10061627
15	0xbdcd1fbc	-0.100158185
16	0xbdb417da	-0.08793612
17	0xbd12211b	-0.035676103
18	0x3d90dd52	0.070734635
19	0xbddc266a	-0.107495144
20	0xbdd390ef	-0.10330378
21	0xbd980ebe	-0.07424687
22	0xbd8c5ca0	-0.06853604
23	0x3c3217b4	0.010869909
24	0xbd82d84f	-0.06388914
25	0x3b24e39a	0.0025160075
26	0xbdb5cd9d	-0.08877108
27	0x3dc057e3	0.09391763
28	0xbd9c6e16	-0.07638185
29	0x3df28f03	0.118436836
30	0xbab4a883	-0.001378313
31	0xbdabb65c	-0.08384392
32	0xbd3eb0d0	-0.04655534
33	0xbd97d38f	-0.074133985
34	0xbd30f536	-0.0432026
35	0xbda7a79a	-0.08186264
36	0x3dc49496	0.09598653
37	0x3dbc94ac	0.092080444
38	0x3da7262d	0.08161578
39	0x3dca6cf7	0.09884065
40	0x3de97c2c	0.11400637
41	0xbd3dac7c	-0.046307072
42	0x3cd190d3	0.025581753
43	0x3d8af840	0.06785631
44	0xbd8190aa	-0.063264206
45	0xbd9822af	-0.0742849
46	0x3dbc123b	0.09183165
47	0xbdb050f9	-0.08609194
48	0x3d5c1ea9	0.053740177
49	0xbdcfc2cd	-0.10144577
50	0xbd3043e7	-0.043033507
51	0x3df91eee	0.121641025
52	0xbd76e96b	-0.0602812
53	0xbdb91f69	-0.09039194
54	0x3dcdb5b1	0.100444205
55	0x3c56ff78	0.013122432
56	0x3dd737cc	0.10508689
57	0xb98f4f4c	-0.00027334166
58	0x3bf00b02	0.007325531
59	0x3cd9a400	0.02656746
60	0x3bb76ad1	0.0055974503
61	0x3bc23907	0.0059272083
62	0x3d99995e	0.074999556
63	0x3d950707	0.07276731
64	0xbdc00ccd	-0.093774416
65	0xbc7cbeea	-0.015426377
66	0x3ddf8908	0.109148085
67	0xbcf3d48b	-0.029764434
68	0xbdd84c66	-0.10561447
69	0x3c3d6fb4	0.011562277
70	0xbdd4004d	-0.1035162
71	0xbbc508f2	-0.0060130293
72	0xbdb8fecf	-0.09032976
73	0xbd38dfd0	-0.04513532
74	0x3dbd3323	0.09238269
75	0x3dd3b49d	0.103371836
76	0x3d43f6c9	0.047842775
77	0x3dba5991	0.09099115
78	0x3d9407d9	0.07228059
79	0x3d0b5474	0.034016088
80	0x3c006e59	0.007838809
81	0x3dbe0a55	0.092793144
82	0x3de30ff7	0.110870294
83	0xbcf61deb	-0.030043563
84	0xbce07078	-0.02739738
85	0xbd76801d	-0.060180772
86	0x3d9c71ea	0.07638915
87	0xbc8d8dc3	-0.017279511
88	0xbdea5e58	-0.11443776
89	0x3d962054	0.07330385
90	0xbd807fc2	-0.06274368
91	0xbdb1e5e0	-0.08686423
92	0xbdb7579d	-0.08952258
93	0x3ca740dc	0.02041667
94	0x3cd3d6c8	0.025859252
95	0xbdae7135	-0.08517686
96	0xbdfe6368	-0.12421304
97	0xba8a8a34	-0.0010569752
98	0xbde21d8e	-0.11040793
99	0x3d9d0717	0.07667368
100	0xbdbfd106	-0.0936604
101	0xbe0258ab	-0.12729137
102	0x3d33df94	0.043914393
103	0x3dbceb02	0.09224512
104	0xbb4638dc	-0.0030246293
105	0xbd1be4d4	-0.038060024
106	0xbd555c0e	-0.052089743
107	0xbc80640f	-0.015672712
108	0xbcf31246	-0.0296718
109	0xbdd637ee	-0.104598865
110	0xbdb0ba00	-0.08629227
111	0x3c9969c3	0.018727189
112	0x3dad8a00	0.08473587
113	0x3da68296	0.08130376
114	0x3da69c38	0.08135265
115	0x3d95f954	0.07322946
116	0xbd85877c	-0.06519982
117	0xbdc742a8	-0.097295105
118	0xbd4e3b83	-0.050349724
119	0x3d8f3753	0.06992974
120	0xbd6742d9	-0.056460235
121	0xbdc00f85	-0.0937796
122	0xbd97dcdf	-0.07415175
123	0xbdc3a0f4	-0.09552184
124	0x3d9d6689	0.07685573
125	0x3d87c8fb	0.06630131
126	0xbcdc19d1	-0.026867779
127	0x3dac93ce	0.08426629

node_encoder.norms.0.module.weight f4 [32]
0	0x3f7e837b	0.99419373
1	0x3f7d3c54	0.9892018
2	0x3f7eb5df	0.99496263
3	0x3f80826c	1.0039802
4	0x3f7e4726	0.99327314
5	0x3f820196	1.0156734
6	0x3f7ddf9b	0.9916932
7	0x3f7e0655	0.9922841
8	0x3f803ae7	1.0017976
9	0x3f7fa3da	0.9985939
10	0x3f8031c8	1.0015192
11	0x3f7fdf46	0.99950063
12	0x3f80a9e8	1.0051851
13	0x3f7ded87	0.9919056
14	0x3f806e9e	1.0033758
15	0x3f809d0e	1.0047929
16	0x3f81334d	1.0093781
17	0x3f7f040b	0.99615544
18	0x3f7dc706	0.9913181
19	0x3f7d3302	0.98905957
20	0x3f7f97b5	0.9984086
21	0x3f80969b	1.0045961
22	0x3f7d49a3	0.98940486
23	0x3f7d9d3e	0.9906806
24	0x3f7fa0bb	0.9985463
25	0x3f7de95e	0.99184215
26	0x3f7f981e	0.9984149
27	0x3f804e26	1.0023849
28	0x3f7da04d	0.99072725
29	0x3f801968	1.0007753
30	0x3f7c58fd	0.98573285
31	0x3f7e4618	0.99325705

node_encoder.norms.0.module.bias f4 [32]
0	0xbd1039da	-0.03521142
1	0x3cf0de3f	0.02940285
2	0x3bc6b45f	0.0060639824
3	0xbcc5a865	-0.024128148
4	0xbc9440e6	-0.018097352
5	0x3b9cada9	0.004781444
6	0x3bbcc260	0.005760476
7	0x3c075257	0.008259377
8	0x3d8f2568	0.069895566
9	0xbaa33be2	-0.001245376
10	0x3b9c6176	0.0047723604
11	0x39fc737d	0.0004815123
12	0xbcd1e929	-0.025623875
13	0xbc30fda3	-0.010802659
14	0xbd55349a	-0.052052118
15	0xbc9066da	-0.017627168
16	0xbd50b37c	-0.05095242
17	0x3cbc9b98	0.023023412
18	0x3c5c8458	0.013459288
19	0x3c81f6d0	0.01586476
20	0x3c243286	0.010021811
21	0x3c4dfcc0	0.012572467
22	0x3d10858b	0.035283606
23	0x3c82736a	0.015924174
24	0xbd1ee5f5	-0.038793523
25	0xbd223c28	-0.03960815
26	0x3d6cb7e4	0.05779256
27	0x3af9ec87	0.0019067683
28	0x3b9abd24	0.0047222544
29	0xbae9c694	-0.001783567
30	0x3cb727f8	0.022357926
31	0x3d8d10f1	0.06887997

node_encoder.norms.0.module.running_mean f4 [32]
0	0xbe129369	-0.14314045
1	0x3e8334ed	0.25626317
2	0x3d34e54d	0.04416399
3	0x3ddbcabc	0.10732028
4	0x3c5b6302	0.0133903045
5	0xbf0b821e	-0.5449542
6	0xbee761be	-0.4519176
7	0x3ed35aa3	0.41280088
8	0xbd2e287e	-0.042519085
9	0xbe735234	-0.23761827
10	0xbe2f4996	-0.17117915
11	0xbf28526e	-0.6575078
12	0xbd448844	-0.047981516
13	0x3dac311d	0.08407805
14	0xbd67d40d	-0.05659871
15	0x3e94a7d9	0.29034308
16	0xbe826e84	-0.25474942
17	0xbec3a900	-0.38214874
18	0x3ec0618b	0.3757442
19	0xbd8c675f	-0.06855654
20	0x3f077f46	0.5292858
21	0x3d17e739	0.037085745
22	0xbd9f17a2	-0.077681795
23	0xbf164d03	-0.5871126
24	0x3e196d8e	0.14983198
25	0x3e9a913e	0.30188936
26	0x3e240658	0.16018045
27	0x3e2e11b5	0.16998942
28	0xbf31a5e4	-0.69393754
29	0x3f0bcd96	0.54610574
30	0xbf04374e	-0.5164689
31	0x3e0d0678	0.13771999

node_encoder.norms.0.module.running_var f4 [32]
0	0x41b5f0b6	22.742535
1	0x41a2b2a5	20.337229
2	0x41e4eeb0	28.616547
3	0x419aa47a	19.33031
4	0x4004799b	2.0699222
5	0x4234bdae	45.185234
6	0x421a3af0	38.557556
7	0x41b90afb	23.130362
8	0x41e971c0	29.180542
9	0x41a10606	20.127941
10	0x416fded9	14.991906
11	0x425658b1	53.586613
12	0x40eab56d	7.3346467
13	0x418b9e55	17.45231
14	0x412629a3	10.385165
15	0x414ba548	12.727852
16	0x4213ce8e	36.951714
17	0x41b8364e	23.026516
18	0x42149e9d	37.154896
19	0x4180e090	16.10965
20	0x4207b6c7	33.928493
21	0x4111243e	9.071348
22	0x414211b7	12.129325
23	0x4289633b	68.69381
24	0x41eddaea	29.731892
25	0x41b83e9f	23.030577
26	0x41c683a7	24.814283
27	0x418722c3	16.891973
28	0x42691a8c	58.275925
29	0x415cfab0	13.811203
30	0x4218204a	38.031532
31	0x41b1b710	22.214386

node_encoder.norms.1.module.weight f4 [64]
0	0x3f80a2e3	1.0049709
1	0x3f7f7650	0.99789906
2	0x3f7b9b1d	0.9828356
3	0x3f824c6f	1.0179576
4	0x3f808bed	1.0042702
5	0x3f7a900b	0.9787604
6	0x3f7f10f4	0.99635243
7	0x3f79a0d5	0.97511035
8	0x3f7ee56c	0.9956882
9	0x3f80116f	1.000532
10	0x3f813cdd	1.0096699
11	0x3f7c444c	0.9854171
12	0x3f7cbc88	0.98725176
13	0x3f7c507e	0.9856032
14	0x3f80f9ff	1.0076293
15	0x3f799122	0.9748708
16	0x3f804909	1.0022289
17	0x3f7d04fc	0.9883573
18	0x3f7e3811	0.993043
19	0x3f7e0f0c	0.9924171
20	0x3f78e462	0.97223485
21	0x3f7ae7b7	0.9800982
22	0x3f7e8f06	0.99436986
23	0x3f7d9d40	0.9906807
24	0x3f7e5381	0.99346167
25	0x3f7fb48e	0.9988488
26	0x3f7b6c4a	0.9821211
27	0x3f7f15e2	0.99642766
28	0x3f7ae400	0.9800415
29	0x3f8115db	1.0084795
30	0x3f7f5e62	0.9975339
31	0x3f7f01c0	0.99612045
32	0x3f799e80	0.97507477
33	0x3f7edc0e	0.99554527
34	0x3f7edf25	0.9955924
35	0x3f7cbf5d	0.987295
36	0x3f7e3e85	0.9931415
37	0x3f7f9d6c	0.9984958
38	0x3f7e5a54	0.9935658
39	0x3f7db7f5	0.9910882
40	0x3f8090e7	1.0044221
41	0x3f8067dd	1.0031697
42	0x3f81689c	1.0110049
43	0x3f8050a7	1.0024613
44	0x3f7b88a3	0.98255366
45	0x3f82e978	1.0227499
46	0x3f8071ea	1.0034764
47	0x3f856d0f	1.0423907
48	0x3f803a80	1.0017853
49	0x3f7db585	0.991051
50	0x3f7c7565	0.9861663
51	0x3f7a7469	0.9783388
52	0x3f77eecc	0.9684875
53	0x3f7b590b	0.98182744
54	0x3f762242	0.96146023
55	0x3f7bc7c8	0.98351717
56	0x3f772e6d	0.96555215
57	0x3f806462	1.0030634
58	0x3f83a8dd	1.0285908
59	0x3f7ea30a	0.9946753
60	0x3f7b3bb3	0.9813797
61	0x3f80b646	1.0055625
62	0x3f7a9337	0.9788088
63	0x3f79b8d4	0.9754765

node_encoder.norms.1.module.bias f4 [64]
0	0x3b23baaf	0.0024983098
1	0xbbd6f3f3	-0.0065598427
2	0xbb169b8a	-0.0022980892
3	0x3bb1d643	0.0054271533
4	0xbcb8c7cc	-0.022556208
5	0xbbf80550	-0.0075689927
6	0xbc14ee99	-0.009090089
7	0xbb4c52bb	-0.003117724
8	0xbb0836f4	-0.0020784708
9	0xbcfe90dd	-0.031074936
10	0xbc2a4a3b	-0.0103936745
11	0xbbff4129	-0.00778975
12	0xbc43fbc5	-0.011961882
13	0x3c2576a5	0.010099088
14	0x3b5a05e3	0.003326767
15	0xbc34e847	-0.011041707
16	0xbb8e301e	-0.004339232
17	0xbc38e562	-0.011285158
18	0x3c8ade59	0.016951727
19	0x3b661fa9	0.0035114086
20	0x3c7f1211	0.015568272
21	0x3949f47a	0.00019259928
22	0xbb31bf02	-0.0027121906
23	0x3bed3072	0.007238441
24	0x3cbf3b4e	0.023343708
25	0xba2809dd	-0.0006410161
26	0x3c85545a	0.016275574
27	0xbb9da38a	-0.004810755
28	0xb99dd733	-0.0003010571
29	0x3bf7efa6	0.00756641
30	0x3c8d4b79	0.017247902
31	0x3c2ec2bc	0.0106665455
32	0x3c64ebe0	0.013972253
33	0xbb73429c	-0.003711856
34	0xbbc7d8ad	-0.006098828
35	0xbbf2a96d	-0.007405451
36	0x3b415655	0.002950092
37	0x37b1d8c2	2.120098e-05
38	0x3bfe330a	0.007757549
39	0xbb02439a	-0.001987672
40	0xbc0113e3	-0.0078782765
41	0xbb2d795e	-0.0026470046
42	0xbc91eac8	-0.017812148
43	0x3c890c9f	0.016729651
44	0xbc57b2e1	-0.013165207
45	0xbaa2eb94	-0.0012429827
46	0x3c21f405	0.009884839
47	0x3c54aa84	0.012980107
48	0xbc209d6c	-0.009803157
49	0x3c92931d	0.017892415
50	0x3c665944	0.0140593685
51	0x3ca18014	0.019714393
52	0xbbf84127	-0.007576126
53	0x3c177b62	0.009245725
54	0x3bfec5bd	0.007775037
55	0x3c88df48	0.016708031
56	0xb9e1b1c9	-0.00043047805
57	0xbc501ac9	-0.012701699
58	0x3b13d3d1	0.0022556672
59	0x3c94c48e	0.01816013
60	0xbcc21bfe	-0.023694988
61	0x3c45aae2	0.012064667
62	0xbb6152bf	-0.0034381596
63	0xbc104507	-0.00880552

node_encoder.norms.1.module.running_mean f4 [64]
0	0xbc9e8e56	-0.01935498
1	0xbc3091bb	-0.010776932
2	0x3d20bc43	0.03924204
3	0xbc2002ad	-0.009766263
4	0x3d9254c0	0.07145071
5	0x3c044d9b	0.008075143
6	0x3c9bee72	0.019034598
7	0xbbb0f52e	-0.0054003214
8	0xbc377c00	-0.0111989975
9	0x3b920325	0.0044559413
10	0x3c5f008f	0.013610973
11	0xbc4c920d	-0.012485993
12	0x3c47f465	0.012204264
13	0xbc434bbf	-0.011919915
14	0x3cc65e2c	0.024214827
15	0xb82a3ab0	-4.0585815e-05
16	0x3d2a09c2	0.041513212
17	0x3a8bbadc	0.0010660547
18	0xbb6d731f	-0.0036231948
19	0xbd9ba033	-0.07598915
20	0x3c2e7465	0.010647868
21	0xbbf5f557	-0.0075060534
22	0xbc1b3ec4	-0.009475414
23	0xbd31a6b8	-0.043371886
24	0x3aa7ffb4	0.0012817294
25	0x3ba46b13	0.005017647
26	0xb8de9586	-0.00010613636
27	0xb768a4a2	-1.3866609e-05
28	0x3ccb6a24	0.024830885
29	0xbc7f8d53	-0.015597659
30	0x3b988529	0.004654546
31	0xbb902165	-0.004398512
32	0xba095b86	-0.00052397733
33	0xbcfa0681	-0.03052068
34	0xbc2a9e0f	-0.010413661
35	0xbc869d07	-0.016432298
36	0xbca27672	-0.01983187
37	0xbbcf617c	-0.0063287597
38	0x3b6e5e39	0.003637208
39	0xbaa2fe80	-0.0012435466
40	0xbcfe6659	-0.031054663
41	0xbc64912f	-0.01395063
42	0xbc58df26	-0.0132367965
43	0xbc8f6dc3	-0.017508393
44	0xbcbf8081	-0.023376705
45	0x3ccadbbe	0.024762984
46	0xbc26ff1e	-0.010192661
47	0x3d2b904a	0.04188565
48	0x3d1f788f	0.038933333
49	0xbc45fd15	-0.012084265
50	0xbd1cde9f	-0.038298246
51	0x3901c35d	0.00012375177
52	0xbcbbc11c	-0.02291923
53	0xbd080bf5	-0.033214528
54	0x3b2b0d00	0.0026100278
55	0x3b97bd6f	0.0046307365
56	0x3cde78c6	0.027157199
57	0xbc51df58	-0.012809597
58	0xbdb23e31	-0.08703268
59	0xbd628800	-0.05530548
60	0xba5cb33d	-0.00084190426
61	0x3ccd0a8e	0.025029447
62	0xbc68b3dc	-0.014203038
63	0x3c1e18a0	0.009649426

node_encoder.norms.1.module.running_var f4 [64]
0	0x3d50d7b3	0.050986957
1	0x3d137084	0.035995975
2	0x3c040bf8	0.008059494
3	0x3ba16e4d	0.004926479
4	0x3da479c5	0.08031038
5	0x3c103f09	0.008804091
6	0x3cffecfb	0.03124093
7	0x3c7ccaf5	0.015429248
8	0x3ce5dd52	0.028059635
9	0x3d16ff56	0.0368646
10	0x3c9f7a90	0.019467622
11	0x3ac1e181	0.0014791937
12	0x3c9c589c	0.019085221
13	0x3c5a3a2f	0.013319536
14	0x3b834032	0.0040054554
15	0x3ca72b3b	0.020406356
16	0x3d5b3ee1	0.053526763
17	0x3d2329bf	0.039834734
18	0x3c64b317	0.013958714
19	0x3af84c7f	0.0018943696
20	0x3cbebb7f	0.023282764
21	0x3c2213b8	0.009892397
22	0x3ba252af	0.0049537043
23	0x3c063269	0.00819073
24	0x3d78bdc8	0.060727865
25	0x3db0ce75	0.086331286
26	0x3d2f72d6	0.042834125
27	0x3c116cd0	0.008876041
28	0x3d652483	0.055943023
29	0x3d1e0df9	0.038587544
30	0x3ca630d9	0.020286964
31	0x3d2100d8	0.039307445
32	0x3cd5fd08	0.026121631
33	0x3d3b2730	0.04569167
34	0x3ca1d1bc	0.01975333
35	0x3d192627	0.0373899
36	0x3d3a6bd0	0.045512974
37	0x3c27fea6	0.010253584
38	0x3d900107	0.07031446
39	0x3b112d91	0.0022152404
40	0x3c04c966	0.008104658
41	0x3cba8786	0.0227697
42	0x3d3a7e0e	0.04553037
43	0x3da900b6	0.08252089
44	0x3d2693d7	0.040668335
45	0x3d028fac	0.031875297
46	0x3b37021d	0.0027924844
47	0x3d65012a	0.055909313
48	0x3d1aef87	0.037826087
49	0x3d802d9a	0.06258698
50	0x3c6c4dbb	0.014422829
51	0x3d8cc30b	0.06873139
52	0x3cb5cd5e	0.022192653
53	0x3ccd52c5	0.025063882
54	0x3c5df8fe	0.013548134
55	0x3c05adda	0.008159125
56	0x3c42377e	0.011854051
57	0x3c10a78f	0.008829012
58	0x3caae051	0.020858916
59	0x3d735d5b	0.059415203
60	0x3d1830cc	0.03715591
61	0x3cd53729	0.026027279
62	0x3b88e432	0.0041775936
63	0x3b5bb41a	0.0033524097

gnns.0.nn.0.weight f4 [128, 256]
0	0x3d175938	0.03695032
1	0xbd94e22b	-0.072697006
2	0x3c12bf9e	0.008956818
3	0x3cca6129	0.024704533
4	0xbd4903c1	-0.049075846
5	0x3d56b00a	0.052413978
6	0x3c1c96f1	0.009557472
7	0x3d70553f	0.058675047
8	0x3b3cec75	0.0028827463
9	0x3cca9d55	0.024733225
10	0x3d3cf7a7	0.046134617
11	0x3d2e96d4	0.04262431
12	0xbc800cc2	-0.015631083
13	0x3c991f69	0.018691735
14	0x3cbf15b2	0.023325775
15	0x3d068aca	0.032847203
16	0xbcc2df01	-0.023787977
17	0x3cf5931b	0.029977372
18	0x3d7fe7ff	0.062477108
19	0x3d433311	0.047656123
20	0x3cd88de7	0.026434852
21	0x3cb6a1ca	0.022293944
22	0x3c260a07	0.010134227
23	0x3c12a82a	0.008951226
24	0xbcf7b894	-0.03023938
25	0xbd2308b7	-0.039803233
26	0x3beac698	0.0071647875
27	0x3d2d2817	0.04227456
28	0x3d5fb79e	0.05461847
29	0x3d531d57	0.051541653
30	0xbd42b3b1	-0.04753465
31	0x3d2f9f5e	0.042876594
32	0xbcf87ac9	-0.030331986
33	0x3d17e5b3	0.037084293
34	0x3d30f0d6	0.04319843
35	0x3c23080d	0.00995065
36	0x3d243608	0.04009059
37	0x3d1619bb	0.036645632
38	0x3cc382de	0.023866113
39	0x3cdbb2a5	0.026818583
40	0xbc91f60a	-0.017817516
41	0xbbc99081	-0.0061512594
42	0x3cb1f70e	0.02172425
43	0x3d688ecb	0.056776803
44	0x3cb1b488	0.02169253
45	0xbd5774fb	-0.052601796
46	0x3c8655ac	0.016398273
47	0x3d44e62a	0.048071064
48	0xbd54438d	-0.051822234
49	0x3ab71ca5	0.0013970329
50	0x3d22cf5e	0.039748542
51	0xbd8b3b85	-0.06798462
52	0x3d342581	0.04398108
53	0x3c83dce8	0.016096547
54	0xbd864e1a	-0.065578654
55	0x3d244a88	0.04011014
56	0x3d5dca4d	0.054148007
57	0x3c9f0cc2	0.019415263
58	0x3b8c36d0	0.004278995
59	0x3d161921	0.03664506
60	0x3d175bc8	0.036952764
61	0x3d4cd8e9	0.05001155
62	0xbcf73409	-0.03017618
63	0x3d6a7a50	0.057245553
64	0xbd2bb13e	-0.04191708
65	0xbc9167a3	-0.017749613
66	0xbc846241	-0.016160132
67	0x3d0f614d	0.035004903
68	0x3d65d269	0.056108866
69	0x3ce6cc6a	0.028173644
70	0x3d719c46	0.058986925
71	0x3d378303	0.044802677
72	0x3c4fc1f5	0.01268052
73	0x3d624b4c	0.05524759
74	0xbd81034e	-0.062994584
75	0xbbb712d8	-0.005586963
76	0xbd0daae4	-0.034586802
77	0x3ca13e35	0.019682983
78	0xbc32bc7c	-0.010909196
79	0xbd019507	-0.031636264
80	0xbcc213e3	-0.023691123
81	0x3c5533a1	0.013012798
82	0xbd857ff4	-0.06518546
83	0x3c8797b8	0.016551837
84	0x3d457ed2	0.04821665
85	0x3d5ee303	0.054415714
86	0x3d4d959b	0.050191503
87	0xbb8faa6e	-0.0043843305
88	0x3b261b17	0.0025345737
89	0x3d3cfa7d	0.04613732
90	0x3befdaea	0.0073197978
91	0xbc1eb509	-0.009686717
92	0xbca99eeb	-0.02070566
93	0xbb227132	-0.0024786708
94	0x3d31cdc9	0.043409143
95	0x3b365972	0.002782431
96	0x3b3f2961	0.002916895
97	0x3ca82fc7	0.020530595
98	0x3c7f406e	0.015579326
99	0x3b4d2eaa	0.0031308332
100	0x3c8287a5	0.015933821
101	0x3d0640a8	0.032776505
102	0xbcf4d879	-0.029888378
103	0xbc4476e3	-0.011991235
104	0xbcf67f39	-0.030089961
105	0x3c83b521	0.01607758
106	0x3c62ab78	0.013834827
107	0x3d0f8a9b	0.035044294
108	0xbd4ada9e	-0.049524896
109	0x3ccaa55c	0.024737053
110	0x3ce3dc69	0.02781506
111	0x3cc5eade	0.024159845
112	0xbd119acf	-0.035548028
113	0xbbdf540d	-0.0068154396
114	0x3cd4c81a	0.025974322
115	0x3c4bb3ea	0.012433032
116	0xbd454a30	-0.048166454
117	0xbd639e83	-0.05557109
118	0xbd4d5bf8	-0.050136536
119	0x3c1fe5eb	0.009759407
120	0xbd7b82b2	-0.061403938
121	0xbc70274e	-0.0146578085
122	0x3d134b1d	0.035960305
123	0xbd1d411a	-0.038392164
124	0x3cafbdc3	0.02145279
125	0xbc8b0571	-0.016970368
126	0x3c43044a	0.011902878
127	0x3cef38a9	0.029201822
128	0xbdab1472	-0.08353509
129	0x3cb7a778	0.022418723
130	0x3c600a37	0.01367431
131	0xbdb17193	-0.08664241
132	0x3c503070	0.012706861
133	0x3b968151	0.0045930524
134	0x3d6d3f67	0.057921793
135	0xbd1ef2f2	-0.03880591
136	0x3d62ffd0	0.055419743
137	0xbcc4a4b6	-0.024004322
138	0x3d2d6e74	0.042341664
139	0x3cba9859	0.022777723
140	0xbd8603b0	-0.06543672
141	0x3c71d54e	0.014760328
142	0x3d8f794c	0.070055574
143	0xbc94f8ea	-0.018185098
144	0xbc94b3ce	-0.018152144
145	0x3d821172	0.06350984
146	0xbcc0496c	-0.02347251
147	0x3d8626fb	0.06550404
148	0xbcf268b6	-0.029590946
149	0x3d4746f4	0.04865165
150	0x3d56cd27	0.052441742
151	0x3c196b97	0.00936403
152	0x3d468d40	0.04847455
153	0xbd944323	-0.07239368
154	0xbd29dc55	-0.04146989
155	0xbdcfafb4	-0.101409346
156	0x3ccb1125	0.024788449
157	0x3c7e5a7c	0.015524503
158	0x3d137c51	0.03600723
159	0xbdb21c4c	-0.086968035
160	0xbd2e04eb	-0.04248516
161	0x3bb85645	0.0056255185
162	0xbb81e5bf	-0.0039641554
163	0x3c5d64c9	0.013512799
164	0x3d540ef0	0.051772058
165	0x3cc794f4	0.024363019
166	0x3cfd4534	0.030916788
167	0x3d03b3a0	0.032153726
168	0x3c8015ba	0.01563536
169	0xbbb5b62a	-0.0055453973
170	0xbd974100	-0.07385445
171	0x3d38e1eb	0.045137327
172	0xbde9bbad	-0.114127494
173	0xbd5990b5	-0.05311652
174	0x3d9ac718	0.07557505
175	0x3d91683a	0.07099958
176	0x3d9968d2	0.07490696
177	0xbd456a99	-0.048197363
178	0x3cf9c427	0.03048904
179	0x3c665c61	0.014060111
180	0xbd3a74cc	-0.045521542
181	0xbbaf668d	-0.005352801
182	0xbbde10f6	-0.0067769242
183	0x3d8f521f	0.06998085
184	0x3d6ee64d	0.0583251
185	0xbb2d08b4	-0.0026402893
186	0x3caa8f5c	0.020820312
187	0x3c235d04	0.009970907
188	0x3dcf4ee8	0.10122472
189	0xbd389307	-0.04506209
190	0xbbd59454	-0.006517926
191	0x3d20037f	0.039065834
192	0xbd4e655a	-0.050389625
193	0xbdfeb88d	-0.12437544
194	0xbd83acb2	-0.064294234
195	0x3d783394	0.060596064
196	0x3dcefcd0	0.10106814
197	0x3caf9c8f	0.021436958
198	0x3d9e928d	0.07742796
199	0x3c7d7250	0.015469149
200	0xbd679a7f	-0.056543823
201	0xbda1ef06	-0.07906918
202	0xbd014246	-0.031557344
203	0xbcaf142a	-0.02137192
204	0xbc7181bd	-0.014740405
205	0x3d6f6f04	0.058455482
206	0xbd74d812	-0.059776373
207	0xbd0e00af	-0.03466862
208	0xbdeb8f76	-0.115019724
209	0x3bf73af0	0.0075448677
210	0xbc9a0fa2	-0.018806282
211	0xbcdce801	-0.026966097
212	0x3d3179f9	0.043329213
213	0xbd29f4a6	-0.04149308
214	0xbc94413e	-0.018097516
215	0x3c7aa846	0.015298909
216	0xbba16c26	-0.0049262224
217	0xbcfb3b56	-0.030667942
218	0x3aae967f	0.0013319998
219	0x3bfadbd8	0.007655602
220	0x3ad79fc6	0.0016450814
221	0xbd1f065c	-0.038824424
222	0xbdad8299	-0.08472175
223	0x3cda68e2	0.02666134
224	0xbd65e4a6	-0.05612626
225	0x3d5e925e	0.054338805
226	0x3ddd8181	0.108157165
227	0xbd65c0c6	-0.056092046
228	0x3d16599d	0.036706556
229	0xbd866694	-0.06562534
230	0xbcc84180	-0.024445295
231	0xbdac360e	-0.084087476
232	0x3cef104b	0.029182574
233	0xbc5abe60	-0.013351053
234	0xbc2f9575	-0.010716786
235	0xbc88b438	-0.016687497
236	0x3d26cf6f	0.040725168
237	0xbcfafe6c	-0.030638896
238	0xba16a877	-0.0005747149
239	0xbc025e84	-0.007957105
240	0xbc5299b0	-0.012854025
241	0x3c91c8ab	0.017795881
242	0xbc82345e	-0.015894111
243	0xbd752ab0	-0.059855163
244	0xbc9ffb4d	-0.01952901
245	0x3d94ec74	0.07271662
246	0xbd86412d	-0.065554
247	0xbae1388e	-0.0017182992
248	0x3d1cfffd	0.038330067
249	0xbd24211e	-0.040070646
250	0xbbca3838	-0.0061712526
251	0x3d57e5c2	0.05270935
252	0xbcb77e62	-0.022399131
253	0xbd0c745e	-0.034290664
254	0x3ddd5d4d	0.10808811
255	0xbce49b15	-0.02790598

gnns.0.nn.0.bias f4 [128]
0	0x3cf8ec1a	0.03038602
1	0xbcb56377	-0.022142155
2	0xbcc12092	-0.023575101
3	0x3d4073c6	0.04698541
4	0xbd2ec9cc	-0.042672917
5	0xbb2944c3	-0.0025828339
6	0xbd37c718	-0.044867605
7	0x3d12d2e8	0.035845667
8	0xbd02a9dc	-0.03190027
9	0xbd14d150	-0.03633243
10	0xbccb2cfc	-0.024801724
11	0x3be7562a	0.007059832
12	0xbcaa36cb	-0.02077808
13	0xbd2db52c	-0.042409107
14	0xbca81da4	-0.020521946
15	0xbc4e8f82	-0.012607457
16	0x3d743ed1	0.05963022
17	0x3d659730	0.056052387
18	0x3d4422fa	0.04788492
19	0xbcd50d0c	-0.026007198
20	0x3a96755d	0.0011479069
21	0x3cc4f2ec	0.024041615
22	0x3d382dd6	0.044965588
23	0x3d06ddf8	0.03292653
24	0xbc7487e6	-0.014924979
25	0xbc506c3f	-0.01272112
26	0x3d16d4af	0.036823925
27	0xbc19d97c	-0.009390231
28	0xbd6d54f8	-0.05794236
29	0xbc2a7c31	-0.010405586
30	0xbb8fecfe	-0.0043922653
31	0xba9e1691	-0.0012061169
32	0xbcd88899	-0.026432322
33	0x3d14c4a9	0.036320362
34	0xbd26a9d8	-0.04068932
35	0xbd68ee9f	-0.05686819
36	0x3d9b34aa	0.07578404
37	0x3ce24305	0.027619848
38	0x3c5b1177	0.013370863
39	0x3d78b3de	0.06071841
40	0xbcdf3272	-0.027245734
41	0xbc8ddc09	-0.017316835
42	0x3caaec6d	0.02086469
43	0xbd12f4a2	-0.03587783
44	0x3d810bbe	0.06301068
45	0xbd4e0103	-0.050293934
46	0x3cece2e2	0.02891678
47	0xbb403491	-0.0029328207
48	0xbd5a0f00	-0.05323696
49	0xbd4b9ebd	-0.04971193
50	0xbd3aeea3	-0.045637738
51	0x3c293e48	0.01032979
52	0xbd2a720d	-0.041612674
53	0x3d302eca	0.04301337
54	0x3cd0aaf9	0.025472151
55	0x3c212d5c	0.009837475
56	0xbcc7588c	-0.024334215
57	0xbd7fdda8	-0.062467247
58	0xbcf659f0	-0.030072182
59	0x3c2a6a97	0.01040139
60	0x3ce5d653	0.0280563
61	0xbd3c7970	-0.04601425
62	0x3d1c20b2	0.03811712
63	0x3d248378	0.04016444
64	0x3d09c666	0.033636473
65	0x3c21e5b9	0.00988143
66	0x3a99bbf0	0.0011728983
67	0xbb82524b	-0.0039770952
68	0xbc5117ff	-0.012762069
69	0xbca2fb9b	-0.019895365
70	0xbd01ab26	-0.03165736
71	0xbd1e6a54	-0.03867562
72	0xbd18db73	-0.037318658
73	0xbd14a8f5	-0.036293942
74	0x3d428dc9	0.047498498
75	0xbd1e2e65	-0.038618464
76	0x3d2551f4	0.04036136
77	0x3d1fac02	0.0389824
78	0xbd355164	-0.044267073
79	0x3b65ebff	0.0035083292
80	0xbc95fea4	-0.018309899
81	0x3d132e33	0.03593273
82	0x3d00407f	0.03131151
83	0xba480829	-0.00076306105
84	0x3cf7ad8f	0.030234126
85	0xbb07680a	-0.0020661377
86	0xbd11dce0	-0.035611033
87	0xbceb487b	-0.028721085
88	0xbbabd56c	-0.0052439477
89	0x3c93d5bd	0.018046254
90	0xbccbd32f	-0.024880974
91	0xbcaba620	-0.020953238
92	0x3d207721	0.03917611
93	0x3d398c4a	0.045299806
94	0xbd3d4b61	-0.046214465
95	0xbb4e94d7	-0.003152182
96	0xbbd760c8	-0.0065728165
97	0xbd42e0e8	-0.04757777
98	0xbc997ce4	-0.01873631
99	0x3cfa12ee	0.030526605
100	0xbd774122	-0.06036485
101	0xbcff077d	-0.0311315
102	0xbd8fb0cc	-0.07016143
103	0x3d1768cb	0.036965173
104	0x3c7f0e2d	0.015567345
105	0x3d190bc7	0.037364747
106	0x3d51e1c4	0.051240698
107	0x3d944ba6	0.07240991
108	0x3d107631	0.035268966
109	0xbd4d1089	-0.050064597
110	0xbd613b5a	-0.054988243
111	0xbcb2ec94	-0.021841325
112	0xbbb169f6	-0.005414243
113	0x3c7f7444	0.015591685
114	0x3d2e00ba	0.04248116
115	0x3d069e8b	0.032866042
116	0x3bbabb94	0.0056986306
117	0x3c93dc67	0.018049432
118	0x3b009f20	0.0019626096
119	0x3d05fa33	0.03270931
120	0xbd0e7776	-0.034781896
121	0x3ae6c2a1	0.0017605611
122	0xbd5f10ef	-0.05445951
123	0x3cbdcc4e	0.02316871
124	0x3d26bc5a	0.04070697
125	0xbd1199a2	-0.035546906
126	0x3cd6fb97	0.026243014
127	0x3d4131be	0.04716658
