tfg/models20250208122239/model_0.pt (torch, 66482 bytes, 12 tensors)

node_encoder.lins.0.weight f4 [64, 13]
0	0x3e54a55c	0.20766205
1	0x3cbf7ad3	0.023373997
2	0x3e67c446	0.22633466
3	0xbee57645	-0.44816795
4	0x3dcf2f82	0.10116483
5	0x3d0b318c	0.0339828
6	0xbe0a04c7	-0.13478385
7	0x3da28b0f	0.079366796
8	0x3e6dbaaa	0.23215738
9	0xbc2d83d9	-0.010590517
10	0x3e58189e	0.2110314
11	0xbe6d0941	-0.23148061
12	0xbd81fe90	-0.06347382
13	0xbe8b4601	-0.27201846
14	0x3e3ed94a	0.18637577
15	0xbe3e9521	-0.18611576
16	0xbeab5dc8	-0.33469987
17	0xbc2cc9bb	-0.010546143
18	0xbe8b27a1	-0.27178672
19	0xbdea2a54	-0.11433855
20	0x3e339d14	0.1754039
21	0x3b4e9005	0.0031518948
22	0x3e400bbc	0.18754476
23	0x3e30a02d	0.17248602
24	0x3dbd5b63	0.09245946
25	0xbd40afaa	-0.047042526
26	0xbe0a7568	-0.1352135
27	0x3e403020	0.18768358
28	0xbe5fe33e	-0.2186403
29	0xbeb3147d	-0.3497657
30	0x3cb47232	0.022027109
31	0x3e3af891	0.18258883
32	0xbe34d0dd	-0.176578
33	0x3e309cad	0.17247267
34	0xbe61b037	-0.22039877
35	0xbe3da434	-0.1851967
36	0xbe0e849b	-0.13917772
37	0xbe64c713	-0.22341566
38	0x3ea15996	0.3151366
39	0xbbbf91cf	-0.005846239
40	0xbeacc752	-0.3374582
41	0x3db760f2	0.08954038
42	0xbdd364a5	-0.10321931
43	0x3e7008b4	0.2344082
44	0xbe4b53b5	-0.1985615
45	0x3cea11dc	0.02857297
46	0x3e1dcd52	0.15410355
47	0xbe39b21f	-0.18134354
48	0x3b06c693	0.0020565137
49	0x3dd493da	0.10379763
50	0x3d96ed3a	0.07369466
51	0xbcd68daf	-0.026190607
52	0xbe639a9b	-0.22226946
53	0xbd145b69	-0.036219988
54	0xbe8dd56b	-0.27701887
55	0xbd90f793	-0.07078471
56	0x3e131b4b	0.1436588
57	0xbec9b8bd	-0.39398757
58	0x3e9ff0bd	0.31238356
59	0x3c58862d	0.013215584
60	0x3d9cf1fd	0.07663343
61	0x3e1fc50a	0.15602508
62	0x3e6f68f6	0.23379883
63	0xbe6e033c	-0.23243421
64	0x3db27589	0.08713824
65	0xbd42f0fd	-0.047593106
66	0x3d2f975f	0.042868968
67	0x3dfe1dd8	0.12408036
68	0x3f34efe6	0.70678556
69	0xbe89885f	-0.26861855
70	0x3e52e859	0.20596446
71	0xbe38c459	-0.1804365
72	0xbb1f0d14	-0.002426927
73	0x3aaf52aa	0.0013376076
74	0x3dbf71ec	0.09347901
75	0x3e13685d	0.1439528
76	0x3d78e316	0.06076344
77	0x3befc2b0	0.0073169097
78	0xbe4f0db3	-0.2022007
79	0x3e508e9e	0.20366904
80	0x3e9cb4a0	0.30606556
81	0xbef8e3b5	-0.48611227
82	0x3d00bd03	0.031430256
83	0xbd51115b	-0.051041942
84	0x3e88a19b	0.26685795
85	0xbe376a25	-0.17911585
86	0xbd63406a	-0.055481352
87	0x3e984bd8	0.29745364
88	0x3cbfac8c	0.023397706
89	0x3c83fb61	0.016111078
90	0x3d93157f	0.071818344
91	0x3d4ff1c8	0.05076769
92	0x3e7cdc49	0.24693407
93	0x3c98ee9b	0.018668463
94	0xbeb5f3d8	-0.355376
95	0xbe947cca	-0.29001456
96	0xbe7f8626	-0.24953517
97	0x3e537f37	0.20653997
98	0x3c2421a8	0.01001779
99	0x3cddc465	0.027071187
100	0xbd85aef6	-0.06527512
101	0x3d872087	0.06598001
102	0xbe3107f2	-0.17288187
103	0x3e2345bd	0.15944572
104	0xbe4e6ffa	-0.20159903
105	0xbdd045d0	-0.10169566
106	0xbc14f8ba	-0.009092504
107	0x3ed9750e	0.42472118
108	0x3e05c0b9	0.13061799
109	0xbe25f889	-0.1620809
110	0xbeb3f2ae	-0.35146087
111	0xbb2cf249	-0.002638953
112	0xbdcae051	-0.09906066
113	0xbd1c0256	-0.038088165
114	0x3d8e54a4	0.06949738
115	0xbe1ef936	-0.15524754
116	0xbdfb3984	-0.122668296
117	0x3defa6cd	0.117017366
118	0xbe9e9a1b	-0.30976948
119	0xbe72adc9	-0.23699106
120	0xbe7e308c	-0.24823207
121	0x3e40adcf	0.18816303
122	0xbc32c5d2	-0.010911422
123	0xbdf52611	-0.11970151
124	0xbdf735c3	-0.12070801
125	0x3e6bc246	0.23023328
126	0x3d9e8f2e	0.07742153
127	0xbdfb98c5	-0.12284998
128	0xbe6a845f	-0.22902058
129	0x3e41855f	0.18898533
130	0xbe75a578	-0.23988903
131	0x3d10bf1e	0.035338514
132	0x3e6573d8	0.22407472
133	0xbcfddd4d	-0.030989313
134	0xbe897cc0	-0.2685299
135	0xbe255aba	-0.1614789
136	0x3d4cbdd4	0.04998572
137	0x3e274443	0.16334634
138	0xbdab3212	-0.083591595
139	0x3e796030	0.24353099
140	0x3df957d0	0.12174952
141	0x3e6e08ae	0.23245499
142	0x3ea5003a	0.32226735
143	0x3c981d61	0.018568696
144	0xbd9b0382	-0.075690284
145	0xbe724257	-0.23658119
146	0xbebfd07e	-0.37463754
147	0x3e7c2f28	0.24627364
148	0x3e637359	0.2221197
149	0xbead1b5a	-0.3380993
150	0x3e0c8d9a	0.13725892
151	0xbdc8dd4a	-0.098078325
152	0x3e839635	0.25700536
153	0x3e2523cb	0.16126935
154	0x3d13b04d	0.036056805
155	0xbe56fbfc	-0.20994562
156	0x3e62ad0b	0.22136323
157	0x3d3aab25	0.045573372
158	0xbe094bda	-0.13407841
159	0x3de6303c	0.11239669
160	0xbe028eca	-0.12749782
161	0xbe8c1c66	-0.27365416
162	0xbe865bb4	-0.2624184
163	0xbd7fc921	-0.06244767
164	0x3e282660	0.16420889
165	0x3dd4de36	0.10393946
166	0x3e4e66b5	0.20156367
167	0x3e3ea205	0.18616493
168	0xbe8e3895	-0.27777544
169	0x3e1e3745	0.15450771
170	0xbe88a815	-0.26690736
171	0xbe07c4d5	-0.13258679
172	0x3ea6370d	0.32463875
173	0x39a16500	0.00030783564
174	0x3e622702	0.22085193
175	0xbe300d5b	-0.17192595
176	0xbc212536	-0.009835532
177	0x3d555037	0.052078452
178	0x3e5a9417	0.21345554
179	0x3e8bbada	0.27290994
180	0xbe5bf533	-0.21480255
181	0x3e20db60	0.15708685
182	0xbe8defde	-0.27722067
183	0xbdbd03fd	-0.09229276
184	0x3e618b4c	0.22025794
185	0xbd67e0f2	-0.05661101
186	0x3e051b81	0.12998773
187	0x3e876d9e	0.2645082
188	0xbd3787fb	-0.044807415
189	0x3e3881a5	0.18018205
190	0x3df2586d	0.11833272
191	0xbd296228	-0.041353375
192	0xbe51c88a	-0.20486656
193	0x3d6e0082	0.058105953
194	0x3c57f570	0.013181075
195	0xbe7fd9af	-0.24985383
196	0xbe339e7d	-0.17540927
197	0x3d99a165	0.07501487
198	0x3de60ede	0.112333044
199	0xbdfaa7e0	-0.12239051
200	0x3e4217f6	0.18954453
201	0x3e8749fb	0.2642363
202	0xbdc166a2	-0.09443404
203	0x3dff57f7	0.1246795
204	0xbe9a198e	-0.30097622
205	0x3e2ab96a	0.16672292
206	0xbe4ee50f	-0.20204566
207	0xbe1abbd8	-0.15110719
208	0x3e27ed58	0.16399133
209	0x3e3f7eaa	0.18700662
210	0x3e6a08cd	0.2285492
211	0xbeadc0e9	-0.3393624
212	0x3dfcc914	0.1234304
213	0x3e56a984	0.20963103
214	0x3d6f7b33	0.0584671
215	0x3df05b4c	0.117361635
216	0x3d8823e8	0.066474736
217	0xbe6001e9	-0.21875729
218	0x3e508020	0.20361376
219	0x3ca3a92e	0.019978132
220	0xbe03f55d	-0.12886567
221	0x3e5582be	0.20850655
222	0xbcd0c9ce	-0.025486853
223	0x3e532d73	0.20622806
224	0xbda6ed6e	-0.08150755
225	0x3e2068c3	0.15664963
226	0x3ddaf4c1	0.10691214
227	0x3ce3d8bc	0.027813308
228	0x3cd4bde4	0.025969453
229	0xbd3a3557	-0.045461025
230	0xbe798764	-0.24368054
231	0x3e863c00	0.2621765
232	0x3e34a5da	0.17641392
233	0x3e0db8bb	0.1384
234	0x3d53ef85	0.051742096
235	0xbd755941	-0.059899572
236	0x3e584ce9	0.21123089
237	0x3f20b8c5	0.62781936
238	0x3e825fa3	0.2546359
239	0x3ea74f4c	0.32677686
240	0xbe3f4cb7	-0.18681608
241	0xbdc127c7	-0.09431415
242	0xbdbf0905	-0.09327892
243	0xbe0242db	-0.12720816
244	0x3e6f6f88	0.2338239
245	0x3dd93b82	0.10607053
246	0x3cdaabdf	0.026693283
247	0xbe2fd79d	-0.17172094
248	0x3e223992	0.15842274
249	0x3da0dc62	0.07854535
250	0x3bf126cf	0.0073593627
251	0xbd5f3587	-0.054494407
252	0xbbf4423a	-0.007454184
253	0xbea3831c	-0.31935966
254	0x3e7fbc8f	0.24974273
255	0xbe413533	-0.1886795

node_encoder.lins.0.bias f4 [64]
0	0x3e406f7a	0.18792525
1	0x3e5394d4	0.20662242
2	0x3e4777a0	0.19479227
3	0x3d7637ff	0.060111996
4	0xbe5124d3	-0.20424204
5	0x3d8b1202	0.06790544
6	0xbe4367be	-0.19082543
7	0x3e80b843	0.2514058
8	0x3c6dd34c	0.014515709
9	0x3e29aae2	0.16569093
10	0xbe2597d9	-0.16171207
11	0x3d5d013d	0.05395626
12	0xbe5dd484	-0.216631
13	0x3e7a1997	0.24423824
14	0xbe90b37a	-0.2826193
15	0xbe1f11b6	-0.155341
16	0xbe346b59	-0.17619075
17	0x3e77dfa7	0.2420641
18	0xbc9fedbb	-0.019522538
19	0xbd0b2ae7	-0.03397646
20	0xbdcb0baa	-0.09914334
21	0xbd28ce3c	-0.041212305
22	0xbe3fde57	-0.1873716
23	0xbcf8df79	-0.030379998
24	0xbe21482f	-0.15750192
25	0x3cef258a	0.029192705
26	0x3e5e5953	0.21713762
27	0x3e525afb	0.20542519
28	0xbd84fc0e	-0.06493388
29	0xbdeed2ee	-0.116613254
30	0x3e182ce6	0.14860877
31	0xbe2ad6f9	-0.16683568
32	0xbe646deb	-0.22307555
33	0x3e76d537	0.24104773
34	0x3dfc0c56	0.123070404
35	0xbe23bb5f	-0.15989445
36	0xbe470267	-0.1943451
37	0x3d83d550	0.064371705
38	0xbde3414b	-0.11096438
39	0xbdc3b55f	-0.09556078
40	0x3e2b612c	0.16736287
41	0x3e6eab3e	0.23307511
42	0x3e3f6e0e	0.18694326
43	0xbd80c4ac	-0.06287512
44	0xbd8c152c	-0.06839976
45	0xbe701cc3	-0.23448472
46	0x3da1214d	0.0786768
47	0xbd8b4ad2	-0.0680138
48	0x3e5162e4	0.2044788
49	0xbe383bb9	-0.17991532
50	0xbdc5254a	-0.09626253
51	0x3ddd6dfb	0.10811993
52	0x3d9cda58	0.07658833
53	0xbe2e730b	-0.17036073
54	0xbcd99401	-0.026559832
55	0x3e5de029	0.21667542
56	0xbe5ca137	-0.21545874
57	0xbe109db2	-0.14122656
58	0xbe473ede	-0.19457576
59	0xbe382589	-0.17983069
60	0x3d420444	0.04736735
61	0x3c8e6ef4	0.017386891
62	0x3c9fb6dc	0.019496374
63	0xbdedfb65	-0.11620215

node_encoder.lins.1.weight f4 [64, 64]
0	0x3d729b74	0.059230283
1	0x3d12c028	0.035827786
2	0xbe1e6e2f	-0.15471719
3	0x3d8b25bf	0.06794309
4	0x3dc1cf09	0.09463317
5	0xbd917939	-0.071031995
6	0xbc038578	-0.008027427
7	0xbd9f2929	-0.077715226
8	0x3c6fd88e	0.014639033
9	0xbdd679a8	-0.10472423
10	0xbe305477	-0.17219721
11	0xbdbae498	-0.09125632
12	0x3d46bd7c	0.04852055
13	0xbda629f2	-0.08113469
14	0xbc7bf319	-0.015377783
15	0x3d47ae73	0.048750352
16	0x3c6134d1	0.013745503
17	0xbd93114e	-0.07181035
18	0x3d086f40	0.03330922
19	0xbce4e2c3	-0.02794016
20	0x3ddc2252	0.107487336
21	0xbcc7df1b	-0.024398377
22	0x3d9260fb	0.07147404
23	0xbd87bb42	-0.066275135
24	0x3ca7fce1	0.020506324
25	0xbc92ed2e	-0.017935362
26	0xbe191063	-0.14947657
27	0xbd7eea5d	-0.062235225
28	0x3dd6645c	0.10468361
29	0x3d306f8c	0.04307513
30	0x3da7cfae	0.08193909
31	0x3d1c3859	0.038139675
32	0x3dff997b	0.12480446
33	0xbde7c0c1	-0.11316062
34	0xbd2e133b	-0.04249881
35	0x3dfc6e09	0.12325675
36	0x3d0c379a	0.034232713
37	0xbd5633b3	-0.052295398
38	0xbdfcf567	-0.12351494
39	0xbddd4d72	-0.10805787
40	0xbd30f91b	-0.043206315
41	0x3b537fad	0.0032272146
42	0xbcda001f	-0.026611386
43	0x3d9570b6	0.072968885
44	0x3d87c549	0.06629426
45	0xbd986bdc	-0.074424475
46	0x3d116ab4	0.03550215
47	0x3d9a4d44	0.075342685
48	0xbd937ebd	-0.07201908
49	0xbd6ffac1	-0.058588747
50	0x3d798119	0.060914133
51	0x3d784cd0	0.06062013
52	0xbda1065b	-0.0786254
53	0x3d8c26e3	0.068433546
54	0xbd0aa2aa	-0.033846535
55	0xbcfb1aba	-0.030652393
56	0x3e251b74	0.16123754
57	0xbc8bda7f	-0.01707196
58	0xbd8a4f85	-0.067534484
59	0x3d8913cc	0.06693229
60	0xbe4a0093	-0.19726782
61	0xbd532b2d	-0.051554848
62	0xbde4ade4	-0.111659795
63	0x3e19d37e	0.15022084
64	0x3d7fd2b8	0.062456816
65	0x3d1297a9	0.035789166
66	0xbc53e978	-0.012934081
67	0xbd251794	-0.04030569
68	0x3d9e9fec	0.077453464
69	0x3dd557a8	0.1041711
70	0x3cc626cb	0.02418842
71	0x3c3a2422	0.011361154
72	0xbcd6386a	-0.026149947
73	0xbde9e3ec	-0.11420426
74	0x3cdba429	0.026811676
75	0x3ab0a3d9	0.0013476565
76	0x3c08202e	0.0083084535
77	0xbd0722c2	-0.032992132
78	0xbd6ad26e	-0.057329588
79	0xbc51d34b	-0.012806724
80	0x3de130c3	0.10995629
81	0xbd755526	-0.059895657
82	0xbd88fd08	-0.06688887
83	0xbd9fe683	-0.078076385
84	0xbe2c18fb	-0.16806404
85	0x3d55bfe0	0.05218494
86	0xbd42c4c7	-0.047550943
87	0x3d733b46	0.0593827
88	0x3d1d210d	0.038361598
89	0xbdad42ee	-0.084600314
90	0x3c9c011e	0.019043501
91	0x3b72e601	0.0037063363
92	0xbd1672cf	-0.036730584
93	0x3d6c563e	0.057699434
94	0x3dc68344	0.09693006
95	0x3d8e1e74	0.06939402
96	0x3c8465f9	0.016161906
97	0x3d9cdce0	0.07659316
98	0x3d834d06	0.064111754
99	0x3db2faf3	0.08739271
100	0xbce6a622	-0.02815539
101	0x3d3e7227	0.046495583
102	0xbe1200b6	-0.14258084
103	0xbc81db87	-0.01585175
104	0xbd66690f	-0.056252535
105	0x3ddd27e4	0.10798624
106	0xbdc3dc7b	-0.09563538
107	0x3c910cc7	0.017706288
108	0xbdea94d7	-0.1145417
109	0xbcd60a9e	-0.02612811
110	0xbd5f4f55	-0.054519016
111	0x3ded7ed0	0.11596453
112	0xbde66c83	-0.11251166
113	0xbda59cd0	-0.0808655
114	0x3dbe8fdc	0.09304783
115	0xbdeae81d	-0.11470053
116	0x3dca2e8a	0.09872158
117	0x3dd285f4	0.10279456
118	0xbd0327fe	-0.03202056
119	0xbd85be06	-0.06530385
120	0x3cf30a3f	0.029667972
121	0x3d02c586	0.031926654
122	0x3d8da9f2	0.0691718
123	0xbc90e3f2	-0.017686818
124	0xbcacc4bc	-0.021089904
125	0x3de14476	0.10999386
126	0xbd821ecc	-0.0635353
127	0x3dab291d	0.08357451
128	0x3d94a4bc	0.07257983
129	0xbd1ce0bb	-0.038300257
130	0xbdd7f4b6	-0.10544722
131	0x3bb14ed2	0.0054110074
132	0xbe46d2a2	-0.19416288
133	0x3da560cb	0.080751024
134	0xbdbc6d96	-0.09200589
135	0xbd45684b	-0.048195165
136	0x3cecae91	0.028891833
137	0x3d9939f8	0.0748176
138	0xbe2b1777	-0.1670817
139	0x3c3405d0	0.010987714
140	0xbdb459e5	-0.088062085
141	0x3d9d2d6c	0.07674679
142	0x3da1fd18	0.07909602
143	0xbe001974	-0.1250971
144	0x3d4f30d8	0.05058369
145	0xbbbc7428	-0.0057511516
146	0x3d103017	0.035202112
147	0xbd4aee6f	-0.049543794
148	0x3a9fa9ea	0.0012181376
149	0x3d842420	0.06452203
150	0x3dac81ee	0.084232196
151	0xbaced5c5	-0.0015780261
152	0xbd813aa5	-0.06310014
153	0x3d3ac32a	0.04559628
154	0xbc05df13	-0.008170861
155	0x3de9f3a0	0.11423421
156	0xbdc48449	-0.09595544
157	0xbdba5cf3	-0.0909976
158	0xbd9878dc	-0.07444927
159	0xbdb0aa2c	-0.08626208
160	0xbd55adc3	-0.052167665
161	0x3da8d5da	0.08243914
162	0x3c200570	0.009766921
163	0x3bf9cc2c	0.007623216
164	0xbd02683b	-0.031837683
165	0xbdda7ba5	-0.106681146
166	0x3d6f4bda	0.058421947
167	0x3ddb2852	0.1070105
168	0x3c3931d0	0.01130338
169	0xbcadfe51	-0.021239432
170	0x3de7f0d9	0.11325235
171	0xbd973942	-0.07383968
172	0xbe124a7d	-0.14286228
173	0xbd40ee26	-0.047102116
174	0x3d159aac	0.03652446
175	0xbd8ea1c7	-0.0696445
176	0xbdf5d5c2	-0.12003662
177	0xbd42ebb3	-0.04758806
178	0xbe1ec606	-0.15505227
179	0x3d3259ff	0.04354286
180	0xbd65774f	-0.056021985
181	0x3e01183a	0.12606898
182	0x3cac3106	0.02101947
183	0xbb90f2d2	-0.0044234777
184	0xbb221b3a	-0.0024735467
185	0x3dc69b42	0.09697582
186	0xbe1ef838	-0.15524375
187	0x3c711323	0.014714035
188	0xbd47848e	-0.0487104
189	0xbd7f61f2	-0.062349267
190	0xbd800df6	-0.06252663
191	0x3ddf8704	0.10914424
192	0xbdb1e78b	-0.086867414
193	0x3c9d0352	0.019166622
194	0x3dbfb3bb	0.09360453
195	0x3e12f68f	0.14351867
196	0x3dc12028	0.094299614
197	0xbc358635	-0.011079361
198	0x3d2350f4	0.039872125
199	0xbd07bb8a	-0.033137836
200	0x3cbe0f99	0.023200797
201	0x3cc009d8	0.023442194
202	0x3c891ed9	0.016738342
203	0xbda992c3	-0.08279946
204	0x3d8bf7af	0.06834351
205	0xbda0ec70	-0.07857597
206	0xbd7dab86	-0.061931156
207	0xbdc8c0f4	-0.09802428
208	0xbd9fb889	-0.07798869
209	0xbd6ce506	-0.0578356
210	0x3df99b96	0.12187879
211	0xbcd27afe	-0.025693413
212	0xbde42f0c	-0.11141786
213	0x3d9fc1b1	0.078006156
214	0xbde0aa11	-0.109699376
215	0xbd9b3191	-0.075778134
216	0x3daa67f7	0.08320611
217	0xbb98e79a	-0.004666281
218	0x3bfe2eb2	0.0077570314
219	0x3d8c1f16	0.06841867
220	0xbd45139c	-0.048114404
221	0xbd0d611d	-0.034516443
222	0x3c48c3ad	0.012253684
223	0xbdb8a0dc	-0.090150565
224	0x3ca64243	0.020295268
225	0xbda9ae0d	-0.08285151
226	0x3d789b2b	0.060694855
227	0xbc9a4528	-0.018831804
228	0x3c7f92bb	0.015598948
229	0xbde3424e	-0.11096631
230	0x3de8e4e3	0.11371782
231	0xbd548780	-0.051887035
232	0x3d27fe36	0.04101392
233	0xbd1971ea	-0.037462153
234	0xbc3fb194	-0.011700053
235	0x3d6f1e98	0.058378786
236	0x3ce658fc	0.028118603
237	0x3e20617c	0.15662187
238	0x3db1891b	0.08668729
239	0xbcd7a0e4	-0.026321836
240	0xbd6d09ad	-0.057870556
241	0x3d719d82	0.0589881
242	0xbd943462	-0.07236554
243	0x3dae16c7	0.08500438
244	0xbd684a9a	-0.05671177
245	0x3cf4ce5e	0.02988356
246	0xbd58535a	-0.052813865
247	0xbd01a9ab	-0.03165595
248	0x3c25e2ce	0.010124875
249	0x3dc990ba	0.098420575
250	0xbdfc92b4	-0.12332669
251	0xbaf8d5f4	-0.0018984661
252	0xbd8574df	-0.06516432
253	0xbda0fea6	-0.0786107
254	0x3d97b6ce	0.07407914
255	0x3da22819	0.07917804

node_encoder.lins.1.bias f4 [64]
0	0x3c423fa3	0.0118559925
1	0x3dd880ba	0.10571428
2	0x3c3a955e	0.011388151
3	0x3d5097c0	0.05092597
4	0x3d624032	0.055237003
5	0xbd56f798	-0.052482218
6	0xbca949cd	-0.020665074
7	0x3d5660eb	0.052338522
8	0x3de22439	0.11042065
9	0xbdc4e7de	-0.09614538
10	0xbd69b571	-0.0570578
11	0xbdd0fc4b	-0.10204371
12	0xbd1674a6	-0.03673234
13	0xbd5b5c9b	-0.053555112
14	0x3d2a7b19	0.0416213
15	0xbda19d46	-0.07891326
16	0xbd83d748	-0.06437546
17	0xbd5cb3f0	-0.05388254
18	0xbd1fdb25	-0.039027352
19	0xbdfdff7d	-0.12402246
20	0xbd334b7a	-0.043773152
21	0xbda0deb8	-0.0785498
22	0x3dc9e2cc	0.09857711
23	0x3da3ae79	0.079922624
24	0xbd8a810b	-0.06762894
25	0x3dab4cda	0.08364268
26	0xbd994d20	-0.074854136
27	0xbdb9e62b	-0.09077104
28	0xbb046387	-0.0020200924
29	0xbd58b91e	-0.052910917
30	0xbdad05d3	-0.084483765
31	0xbd33356a	-0.04375211
32	0x3d926e71	0.07149971
33	0xbc4cdd40	-0.012503922
34	0xbde1d8a4	-0.11027649
35	0x3ddf1cb3	0.10894146
36	0xbd9fd8fc	-0.07805058
37	0x3d82926f	0.06375586
38	0xbde00a40	-0.10939455
39	0x3d8a8b16	0.0676481
40	0xbd816499	-0.063180156
41	0x3d920743	0.07130291
42	0xbdf88f85	-0.12136749
43	0xbdd3712b	-0.103243195
44	0xbdeb2042	-0.11480762
45	0xbddd5185	-0.10806564
46	0xbcbdc86c	-0.023166858
47	0x3d71736d	0.05894797
48	0xbaf91ca0	-0.0019005723
49	0x3dce7bbc	0.10082194
50	0x3df3cd8c	0.11904439
51	0xbdd46be1	-0.10372139
52	0x3dc6a427	0.09699278
53	0x3da7f3de	0.08200811
54	0xbcf32593	-0.029681003
55	0xbdff917f	-0.12478923
56	0x3e20fed8	0.15722215
57	0x3d1efed4	0.03881724
58	0xbde044bc	-0.1095061
59	0xbdbcd452	-0.092201844
60	0x3d492a6f	0.049112733
61	0x3d96a356	0.073553726
62	0x3c52b068	0.012859441
63	0xbd16c131	-0.036805335

node_encoder.lins.2.weight f4 [64, 64]
0	0x3d4147b5	0.047187526
1	0xbdd38d32	-0.10329665
2	0xbd21db41	-0.039515737
3	0x3cda8ceb	0.026678523
4	0x3d8fda9c	0.07024118
5	0xbdaff439	-0.08591504
6	0xbd1e2e14	-0.038618162
7	0xbe05d760	-0.1307044
8	0x3d117089	0.035507713
9	0xbdafef9f	-0.08590626
10	0xbd5861dd	-0.052827705
11	0x3e19ab42	0.15006736
12	0xbddfb3dc	-0.10922977
13	0xbd50cc86	-0.0509763
14	0x3dc03cdb	0.09386607
15	0xbdf6c1b2	-0.12048663
16	0xbde494b0	-0.111611724
17	0x3de9d591	0.11417688
18	0x3d87dcdf	0.06633925
19	0x3e111994	0.14169914
20	0x3d52fa69	0.05150834
21	0x3d8d4f09	0.068998404
22	0xbc4f5298	-0.012653969
23	0x3932e600	0.00017061085
24	0x3c824f81	0.015907051
25	0xbc9501e3	-0.018189376
26	0x3e026764	0.12734753
27	0x3dae65b0	0.08515489
28	0x3de2abc4	0.11067918
29	0xbd0f2e4c	-0.03495626
30	0xbc2cc51b	-0.0105450405
31	0xbd785835	-0.060630996
32	0xbd4a0359	-0.0493196
33	0xbdb0e55e	-0.08637498
34	0x3ba92b86	0.005162659
35	0xbd450f8f	-0.04811054
36	0x3dd99892	0.106248036
37	0x3ce429df	0.027851997
38	0xbd318c6e	-0.043346815
39	0xbd7039ca	-0.058648862
40	0xbc1cde38	-0.009574465
41	0x3dba0e6f	0.09084784
42	0xbe0b23ad	-0.13587828
43	0xbb310fb8	-0.0027017426
44	0x3d791e9c	0.060820207
45	0xbdecf51c	-0.115701884
46	0xbc0503a2	-0.008118542
47	0x3d911eb1	0.07085932
48	0x3c5e8c5d	0.01358327
49	0xbd5f6562	-0.054540046
50	0xbe26ba43	-0.1628199
51	0x3df4943a	0.119423345
52	0xbba3445f	-0.0049825157
53	0x3dc82fde	0.09774755
54	0xbd8bf47c	-0.06833741
55	0x3d079703	0.033103
56	0x3c9aa059	0.018875288
57	0x3d6afb8a	0.057368793
58	0x3d4b14b7	0.049580302
59	0xbd449b98	-0.04799995
60	0xbe08bc53	-0.1335309
61	0x3b735b10	0.0037133135
62	0x3e0d5ec1	0.13805677
63	0x3dc73d3c	0.097284764
64	0xbde39f80	-0.111144066
65	0x3dbda3b6	0.09259741
66	0x3d188bfe	0.037242882
67	0x3d86a49b	0.06574365
68	0x3dddc185	0.108279265
69	0xbd1a08a2	-0.03760589
70	0x3d6935cd	0.056936074
71	0x3d6934b7	0.05693504
72	0x3d01dd10	0.031704962
73	0xbdcec99b	-0.10097047
74	0xbca85e16	-0.020552676
75	0x3dbcd4a9	0.09220249
76	0x3cb50607	0.0220976
77	0xbdd1e73f	-0.10249185
78	0xbcb40771	-0.021976205
79	0xbd297262	-0.04136885
80	0xbcfb326e	-0.030663695
81	0xbd67901b	-0.056533914
82	0x3d972813	0.073806904
83	0x3ceee748	0.029163018
84	0x3c41c0f6	0.011825791
85	0xbcd71935	-0.026257137
86	0xbb1afc35	-0.0023648862
87	0x3dd3e959	0.10347242
88	0x3e11047b	0.14161865
89	0x3d91d047	0.07119804
90	0x3dfeb3d8	0.12436646
91	0x3d9af993	0.07567134
92	0xbd26b2ec	-0.040697977
93	0x3d4aecd3	0.04954226
94	0xbd1a6d2e	-0.037701778
95	0x3dac1e71	0.08404244
96	0xbdf540a9	-0.119752236
97	0x3d7afc9f	0.061276074
98	0xbd9a277d	-0.07527063
99	0xbd1acb5c	-0.037791595
100	0xbdb0167b	-0.08598038
101	0x3cd13a92	0.025540624
102	0x3db6c271	0.089238055
103	0x3d15c609	0.036565814
104	0x3dec30cd	0.115327455
105	0x3d09d940	0.03365445
106	0x3d8e1aa1	0.06938673
107	0x3df3fb3a	0.11913152
108	0xbd4dd5f1	-0.05025286
109	0x3cc80d75	0.02442048
110	0x3d94ef1e	0.072721705
111	0xbdca78f0	-0.09886348
112	0x3de24654	0.1104857
113	0xbd3fb935	-0.046807487
114	0x3da6614f	0.08124029
115	0x3da7ad39	0.081873365
116	0xbd5a502f	-0.053299125
117	0xbd67d204	-0.05659677
118	0x3d41aab7	0.047281947
119	0xbdd8c347	-0.10584121
120	0xbd67fa04	-0.056634918
121	0xbd63f6c0	-0.05565524
122	0xbd6e5019	-0.058181856
123	0xbde1b360	-0.11020541
124	0x3d24924e	0.04017859
125	0xbbb0a40d	-0.00539065
126	0x3d9b0851	0.075699456
127	0xbc5b87f2	-0.013399111
128	0x3cbd939a	0.023141671
129	0x3dd0ba28	0.101917565
130	0xbc939080	-0.018013239
131	0x3dd7c86e	0.10536276
132	0x3d983e05	0.07433704
133	0xbde27207	-0.11056905
134	0xbda4c7dd	-0.080459334
135	0xbd8e15bb	-0.069377385
136	0x3d94aeaf	0.07259881
137	0xbde9250e	-0.11384021
138	0xbd788088	-0.060669452
139	0xbd745d7e	-0.059659474
140	0x3cfdb7a2	0.030971352
141	0xbd1445a0	-0.036199212
142	0xbd4f4941	-0.05060697
143	0xbbf6de95	-0.007533858
144	0x3e0a02fd	0.13477702
145	0xbd0c244c	-0.034214303
146	0xbdc762e2	-0.09735657
147	0x3ce0fc84	0.027464159
148	0x3d476573	0.048680734
149	0xbceb635a	-0.028733898
150	0xbcda0c5b	-0.02661722
151	0x3dc5c3ca	0.096564844
152	0x3ccce493	0.025011336
153	0xbcf38cd2	-0.029730234
154	0xbd68927a	-0.056780316
155	0xbc406a4a	-0.011744091
156	0x3d9f7b2d	0.07787166
157	0x3d95d149	0.073153086
158	0xbbd3d82c	-0.0064649787
159	0x3da65b76	0.081229135
160	0xbd9201eb	-0.07129272
161	0x3d2ea42f	0.042637046
162	0xbd4eac6b	-0.0504574
163	0xbe04b655	-0.12960179
164	0x3d0a93be	0.033832304
165	0x3d975582	0.07389356
166	0x3d946142	0.07245113
167	0x3dd3563d	0.10319183
168	0xbdc018f8	-0.093797624
169	0xbde9bc7f	-0.11412906
170	0xbd7f8f12	-0.0623923
171	0xbd6b872c	-0.057501957
172	0x3dec967c	0.1155214
173	0xbd401d35	-0.046902854
174	0x3df8c71a	0.121473506
175	0xbde8216e	-0.11334501
176	0xbd86eb2c	-0.06587824
177	0x3e0bc0a9	0.13647713
178	0x3d8754cc	0.066079706
179	0xbd344a7f	-0.044016358
180	0xb9b4843d	-0.000344308
181	0xbd260d80	-0.04054022
182	0xbd8b2bce	-0.067954645
183	0xbdd550c5	-0.10415796
184	0x3a82f6ce	0.0009991766
185	0x3cf0eeaa	0.029410679
186	0xbcfef142	-0.0311209
187	0xbcd27a61	-0.02569312
188	0x3df713ae	0.120643005
189	0xbd2126b6	-0.03934356
190	0xbaceddf0	-0.0015782695
191	0xbdd83ab7	-0.10558074
192	0x3d86c820	0.065811396
193	0x3dda2adc	0.10652706
194	0xbcae598e	-0.021282937
195	0x3dad4cee	0.08461939
196	0xbdafaa18	-0.08577365
197	0x3d43e8e8	0.04782954
198	0x3debef8a	0.11520298
199	0xbd41018e	-0.047120623
200	0xbe02fbcc	-0.12791365
201	0xbdd22705	-0.10261349
202	0xbd504116	-0.05084332
203	0xbe0b1b15	-0.1358455
204	0x3d591052	0.05299408
205	0xbdbfd283	-0.09366324
206	0x3d3d26b2	0.04617948
207	0x3dcd161e	0.10013984
208	0x3db27370	0.08713424
209	0xbd53f4a7	-0.05174699
210	0xba3ecc41	-0.0007278361
211	0x3d25d633	0.04048748
212	0x3db4920b	0.08816918
213	0x3d52b59a	0.05144272
214	0xbdb32c3c	-0.087486714
215	0x3e12563b	0.14290707
216	0x3da0a6ec	0.07844338
217	0xbd800ca0	-0.06252408
218	0xbd395656	-0.045248352
219	0x3deabf2e	0.11462246
220	0x3df7a2e4	0.12091616
221	0x3b4318c9	0.0029769412
222	0xbdcbd412	-0.099525586
223	0xbd882de6	-0.066493794
224	0xbc17b97b	-0.009260531
225	0x3d7009a2	0.058602937
226	0x3c416e99	0.011806154
227	0x3ceb2efe	0.028708931
228	0xbcbb1597	-0.022837443
229	0x3c6bf02e	0.014400525
230	0xbd3fb178	-0.046800107
231	0xbd169112	-0.036759444
232	0x3d8d7eb1	0.0690893
233	0x3dd306f2	0.10304059
234	0x3dd70499	0.10498924
235	0xbd0d1430	-0.03444308
236	0xbdc018a8	-0.09379703
237	0xbc11fa61	-0.008909793
238	0x3df370bc	0.11886737
239	0xbdb34f12	-0.08755316
240	0x3e005913	0.12533979
241	0x3db62950	0.088945985
242	0x3dc40e76	0.09573071
243	0x3daa5df2	0.083187
244	0x3d749840	0.05971551
245	0x3cb119e6	0.021618795
246	0xbde6fa05	-0.11278156
247	0x3d39dd77	0.04537722
248	0x3d6c1d42	0.05764509
249	0xbd143bc2	-0.036189802
250	0xbbd00275	-0.006347949
251	0x3cd617ae	0.026134338
252	0x3e1626b1	0.14663197
253	0xbda7a665	-0.08186034
254	0x3dc5dd29	0.096613236
255	0xbddd81c1	-0.10815764

node_encoder.lins.2.bias f4 [64]
0	0x3c11d486	0.008900767
1	0x3db939d7	0.09044235
2	0xbc95c076	-0.01828025
3	0x3dd2cf38	0.1029343
4	0x3d941b2b	0.072317444
5	0xbd9e2e16	-0.07723634
6	0xbdb94095	-0.09045521
7	0x3da234fe	0.07920264
8	0x3d13dcc8	0.036099225
9	0xbdc764dd	-0.09736035
10	0x3dfc95f8	0.12333292
11	0xbc8699e5	-0.016430805
12	0x3dcbbd6e	0.0994824
13	0xbbf53a4d	-0.0074837566
14	0x3db0c358	0.08631009
15	0x3b5f47c7	0.0034069882
16	0xbccfc507	-0.025362505
17	0xbda62496	-0.08112447
18	0xbdab04b2	-0.08350505
19	0x3dbd1fc5	0.09234575
20	0xbdcb8b96	-0.09938733
21	0xbd230a90	-0.039804995
22	0xbe4d7c85	-0.20067032
23	0x3e02e677	0.12783228
24	0xbbdecb07	-0.006799105
25	0x3de38cfb	0.11110874
26	0xbe0039c2	-0.12522033
27	0x3dcd7289	0.100316115
28	0x3d853701	0.06504632
29	0x3d7a7473	0.06114621
30	0x3cba040c	0.022707008
31	0x3d1e976d	0.03871863
32	0x3c89ba7f	0.016812561
33	0x3c6ee4b2	0.014580892
34	0x3dd539cb	0.10411414
35	0x3cbe3d94	0.023222722
36	0xbda06df8	-0.07833475
37	0x3da7bd16	0.08190362
38	0x3bcf07c5	0.006318065
39	0xbc954baa	-0.018224556
40	0xbcc7ac8a	-0.024374265
41	0x3d00e547	0.031468656
42	0x3d95f304	0.07321742
43	0xbcf017d1	-0.029308232
44	0xbd23b206	-0.0399647
45	0xbd2b1361	-0.041766528
46	0x3d53a18e	0.051667742
47	0xbd8ca0c2	-0.068665996
48	0xbd2ecc51	-0.04267532
49	0x3dce68b4	0.10078564
50	0x3db6e107	0.08929639
51	0x3db77664	0.08958128
52	0xbbe0d9f4	-0.0068619195
53	0x3cb8e204	0.02256871
54	0x3d0b7571	0.034047548
55	0xbdaa1c71	-0.08306206
56	0x3da5c452	0.08094086
57	0x3db62c9d	0.08895228
58	0xbdcc369f	-0.09971356
59	0xbb4a1808	-0.0030837078
60	0xbdb7ac85	-0.08968452
61	0xbd6b9442	-0.057514437
62	0x3ba7b31c	0.005117787
63	0x3dee67b9	0.11640877

output.0.weight f4 [64, 64]
0	0xbdd86a18	-0.10567111
1	0x3c2ef2d6	0.010678014
2	0xbd9bf182	-0.07614423
3	0xbdd9d37b	-0.1063604
4	0x3d2682f7	0.04065224
5	0xbddb8382	-0.107184425
6	0xbd96f137	-0.07370227
7	0x3ce8d042	0.028419618
8	0xbdd78831	-0.10524023
9	0x3df88451	0.12134612
10	0xbe008b83	-0.1255322
11	0x3d7d1eee	0.061797075
12	0x3d4219d8	0.047387928
13	0xbd47c813	-0.04877479
14	0x3dfa35f8	0.12217325
15	0x3cbfd91c	0.023418956
16	0x3d7c9238	0.061662883
17	0xbde61123	-0.11233737
18	0x3d8eb8a7	0.069688134
19	0x3dc84fb6	0.09780829
20	0xbd6ba81d	-0.057533372
21	0x3c4b0cb2	0.0123931635
22	0x3d28bcbb	0.041195612
23	0x3d9b4858	0.07582158
24	0x3cb490cf	0.022041706
25	0xbda84d14	-0.082178265
26	0xbd30175b	-0.042991024
27	0x3dfbfc20	0.123039484
28	0x3d9afcf0	0.07567775
29	0xbd66b70a	-0.056326903
30	0x3d9692d4	0.07352224
31	0x3d068e02	0.032850273
32	0xbdebf6c0	-0.11521673
33	0xbd404e28	-0.046949536
34	0x3d94775c	0.072493285
35	0x3dd1c720	0.10243058
36	0xbd91c429	-0.07117493
37	0xbdd8af00	-0.105802536
38	0xbdd1c909	-0.102434225
39	0x3b7fbb68	0.0039021615
40	0xbd5f36c6	-0.054495595
41	0x3cf20fef	0.029548613
42	0x3dd3ede8	0.103481114
43	0xbc24973e	-0.010045825
44	0x3daded2c	0.084925026
45	0x3e033050	0.12811399
46	0x3dade3f1	0.08490742
47	0xbe03edaa	-0.1288363
48	0xbd89347e	-0.06699465
49	0xbdba69a4	-0.091021806
50	0xbdd2cc63	-0.1029289
51	0xbdd6ea9e	-0.104939684
52	0xbd3af7c0	-0.04564643
53	0x3d65ff95	0.056151945
54	0x3ddb2179	0.10699744
55	0x3d9dbe4e	0.07702313
56	0x3da18752	0.078871384
57	0x3d85c164	0.06531027
58	0x3ce2f971	0.027706834
59	0xbda9f778	-0.08299154
60	0x3d527d32	0.051388927
61	0xbdea8098	-0.114503086
62	0x3c3566ba	0.011071855
63	0x3dd90037	0.10595744
64	0xbd8d9423	-0.069130205
65	0xbd16d6e4	-0.03682603
66	0xbdd57bd2	-0.104240075
67	0x3bc7dec7	0.006099555
68	0xbdcc51dc	-0.09976551
69	0xbd75e938	-0.060036868
70	0xbdaea391	-0.085272916
71	0xbd2a77a6	-0.041618012
72	0x3cf9abfb	0.030477514
73	0xbd774231	-0.06036586
74	0xbc1360dd	-0.008995262
75	0xbcc1c004	-0.02365113
76	0xbd812cb1	-0.06307352
77	0x3e19632e	0.1497924
78	0x3daf14c7	0.08548885
79	0x3de01975	0.109423555
80	0x39cf21cd	0.000395073
81	0xbdde21f8	-0.10846323
82	0x3ba248ed	0.004952541
83	0x3dcf02d4	0.10107961
84	0xbdd18bc9	-0.1023174
85	0xbd70d644	-0.05879809
86	0x3c0ecc34	0.008715678
87	0x3ca1ccb5	0.019750932
88	0xbdd43ebf	-0.1036353
89	0x3dad9a63	0.084767126
90	0xbd57c1b9	-0.052674983
91	0x3e12a0ba	0.14319125
92	0x3d84b6f4	0.06480208
93	0xbbe09a2a	-0.0068543153
94	0x3d949709	0.0725537
95	0x3dedfb82	0.11620237
96	0x3db86485	0.090035476
97	0x3dc170b2	0.09445323
98	0x3c791477	0.015202633
99	0xbcc73079	-0.024315106
100	0x3de11ddd	0.10992024
101	0xbce410ed	-0.027840102
102	0xbd02a28a	-0.03189329
103	0xbdf49479	-0.119423814
104	0xbcd3d098	-0.025856301
105	0x3da52a0f	0.08064663
106	0xbdb2febf	-0.08739995
107	0x3e1f27bf	0.15542506
108	0xbdef92c5	-0.11697916
109	0xbbfe83c4	-0.0077671725
110	0x3d7e0b3b	0.06202243
111	0x3d41d3b7	0.047321048
112	0xbd412797	-0.047156896
113	0x3c506f44	0.01272184
114	0xbcb6e173	-0.0223243
115	0xbdd54816	-0.1041414
116	0xbcbe85c3	-0.023257142
117	0xbe15631e	-0.14588591
118	0xbd829e86	-0.06377892
119	0x3dbefdcf	0.09325754
120	0xbd301839	-0.04299185
121	0x3e00c79f	0.1257615
122	0x3c902152	0.017594013
123	0x3d3a2e34	0.04545422
124	0xbd875395	-0.06607739
125	0xbd99d02f	-0.07510411
126	0xbb8fa77b	-0.004383979
127	0x3d250d8b	0.04029612
128	0xbd4da874	-0.050209478
129	0x3d02bcc3	0.0319183
130	0xbd96310e	-0.07333575
131	0x3daf88a9	0.08570988
132	0xbda6bb95	-0.08141247
133	0xbd0be391	-0.03415257
134	0xbdc6f57a	-0.0971479
135	0x3d4913a0	0.04909098
136	0xbd2741f9	-0.0408344
137	0x3db9b619	0.090679355
138	0xbd4733f9	-0.04863355
139	0xbdd41404	-0.1035538
140	0x3c14a3c4	0.009072248
141	0xbdace727	-0.08442526
142	0xbde3a043	-0.11114552
143	0x3d2f57c9	0.042808328
144	0x3ca17342	0.01970828
145	0x3d8200f4	0.06347838
146	0xbd27fc48	-0.04101208
147	0x3d82b3fb	0.06381985
148	0x3d9d17c5	0.07670549
149	0xba62dcc0	-0.000865411
150	0x3dd3fa97	0.103505306
151	0xbdd8ce11	-0.10586179
152	0x3d6777fb	0.056510907
153	0x3dc71c01	0.09722138
154	0xbcceb717	-0.025233788
155	0x3d5461ed	0.0518512
156	0xbdc64ece	-0.096829996
157	0xbdd9f140	-0.10641718
158	0xbdbaaea6	-0.09115343
159	0x3db8c64e	0.090221986
160	0xbd533369	-0.0515627
161	0x3c685d05	0.014182334
162	0x3ad700b2	0.0016403405
163	0xbcac7ea1	-0.021056475
164	0x3da673f6	0.081275865
165	0x3d287783	0.0411296
166	0x3e32487a	0.1741046
167	0x3d038483	0.032108795
168	0x3e029fc0	0.12756252
169	0xbd8d18ff	-0.06889533
170	0xbd4add13	-0.04952724
171	0x3e110497	0.14161907
172	0xbcc6491b	-0.024204781
173	0xbc3c1963	-0.011480662
174	0xbcb89b8e	-0.022535112
175	0x3d5c8c45	0.05384471
176	0xbdc22e5c	-0.094814986
177	0x3cb616c2	0.022227649
178	0x3d54ae6b	0.05192415
179	0xbe027ebb	-0.12743656
180	0xbcafa544	-0.02144111
181	0xbc74c01a	-0.014938379
182	0xbdd815c1	-0.10551024
183	0x3cff8356	0.031190556
184	0xbc3cf00f	-0.011531844
185	0x3c821724	0.015880175
186	0x3dbbb835	0.09165994
187	0xbdbe8da6	-0.09304361
188	0xbd73b5f4	-0.059499696
189	0xbdad59b7	-0.084643774
190	0xbc8dfba7	-0.017331911
191	0xbda34319	-0.07971782
192	0x3debece0	0.1151979
193	0x3dfb57c7	0.122726016
194	0x3d300313	0.04297168
195	0x3dc54828	0.09632903
196	0xbc283212	-0.010265844
197	0xbd9800c6	-0.074220225
198	0xbdb0e361	-0.08637119
199	0x3dfb4de1	0.122707136
200	0xbdd8b479	-0.105812974
201	0x3e035dcd	0.12828751
202	0x3d5937ce	0.053031735
203	0xbd587470	-0.05284542
204	0x3dc3ebf1	0.095664866
205	0x3c142294	0.009041447
206	0xbd57c00b	-0.05267338
207	0x3d6b5ebc	0.057463393
208	0xbd87f923	-0.06639316
209	0xbc5ead0a	-0.01359106
210	0xbccfc762	-0.025363628
211	0xbdb932ba	-0.090428784
212	0xbd31d32b	-0.043414276
213	0x3d0886cb	0.033331674
214	0x3d338b68	0.04383412
215	0x3d8e02a4	0.069340974
216	0xbdc06bda	-0.09395571
217	0x3ce766e1	0.028247299
218	0xbd6e8011	-0.058227602
219	0x3d015902	0.031579025
220	0x3d953134	0.072847754
221	0xbdc65eac	-0.09686026
222	0xbdabd464	-0.0839012
223	0x3de86904	0.11348155
224	0x3e13da53	0.14438753
225	0xbd48ad1c	-0.048993215
226	0x3b3768e5	0.0027986106
227	0xbde98844	-0.11402944
228	0x3e3c41a6	0.18384418
229	0xbce3d865	-0.027813146
230	0x3c4426e2	0.011972161
231	0xbe46db0f	-0.19419502
232	0x3d8835a9	0.0665086
233	0x3ddd58c1	0.10807944
234	0xbdc0b9c9	-0.09410436
235	0x3dfa3c01	0.12218476
236	0x3e579bb5	0.21055491
237	0x3cef974d	0.02924695
238	0x3e06d8ca	0.13168636
239	0xbd1258d8	-0.03572926
240	0x3e41d6d4	0.18929607
241	0xbd7e1d54	-0.06203969
242	0xbe36fb06	-0.17869195
243	0x3cffe210	0.031235725
244	0xbd9c966f	-0.076458804
245	0x3e345d67	0.17613755
246	0xbde5ae29	-0.11214859
247	0xbd65257f	-0.055943962
248	0xbc3a98be	-0.011388956
249	0xbd90f166	-0.07077293
250	0x3d98ba53	0.074574135
251	0x3df2bc30	0.118523
252	0x3d6e6ce8	0.05820933
253	0xbe536702	-0.20644763
254	0x3b991d77	0.004672702
255	0xbe0d72d0	-0.13813329

output.0.bias f4 [64]
0	0x3da24c55	0.079247154
1	0x3e8f840b	0.28030428
2	0x3ed21488	0.4103129
3	0x3f1d25cb	0.6138579
4	0xbddae8d5	-0.106889404
5	0x3e122135	0.1427048
6	0x3e5bbf5d	0.21459718
7	0x3e10266f	0.14077161
8	0x3e83fd55	0.25779215
9	0x3f0f84cc	0.56062007
10	0x3f22acba	0.6354481
11	0x3d30129e	0.042986505
12	0x3e898a50	0.26863337
13	0xbe18fdf9	-0.14940633
14	0xbea54847	-0.32281706
15	0x3e52e04c	0.20593375
16	0x3ebeab59	0.37240103
17	0xbe123562	-0.14278176
18	0xbe153442	-0.14570716
19	0xbe854e82	-0.2603646
20	0xbde9e056	-0.11419742
21	0xbe5a8088	-0.21338093
22	0x3e483302	0.19550708
23	0x3e117d4c	0.14207953
24	0x3c205129	0.009784975
25	0xbec7a397	-0.38991997
26	0x3d144876	0.036201917
27	0xbe2eb012	-0.17059353
28	0xbdc9a303	-0.09845545
29	0x3d8a7938	0.06761402
30	0x3eb17adc	0.34664047
31	0x3e93d9af	0.28877017
32	0x3dabe0bb	0.08392473
33	0x3d9c1c7a	0.07622619
34	0x3f40e666	0.7535156
35	0x3f1b7af4	0.60734487
36	0x3cf1f844	0.029537328
37	0x3d8207fc	0.06349179
38	0xbdffebea	-0.12496169
39	0xbea63185	-0.32459655
40	0x3f063c6c	0.52435946
41	0x3e11578a	0.1419355
42	0x3e1f6a81	0.15567972
43	0xbf0723d3	-0.5278904
44	0xbe876a43	-0.2644826
45	0xbcc126e7	-0.02357812
46	0xbcc4a5dd	-0.024004871
47	0x3d3c2b16	0.045939527
48	0xbe3e5cee	-0.18590137
49	0x3d5a1d86	0.053250812
50	0xbe883cec	-0.2660898
51	0x3e29ef60	0.1659522
52	0xbf1f3421	-0.6218892
53	0x3e4a9674	0.19783956
54	0x3e160077	0.14648615
55	0x3e01a47c	0.12660402
56	0x3e85d152	0.2613626
57	0x3e2896f4	0.16463834
58	0x3e822ed1	0.25426343
59	0x3cc50fb6	0.024055343
60	0xbe92a9e8	-0.28645253
61	0x3ee1201e	0.43969816
62	0x3dde1e36	0.10845606
63	0xbd89f494	-0.06736103

output.2.weight f4 [32, 64]
0	0x3de55af2	0.11198987
1	0xbe0f1d76	-0.13976082
2	0xbd8ad7d5	-0.06779448
3	0x3c61e1d8	0.0137867555
4	0x3cc280a9	0.02374299
5	0x3b731acf	0.0037094837
6	0x3dcf7b00	0.10130882
7	0x3d805ed2	0.062680855
8	0xbd1e1cb1	-0.03860158
9	0x3d93bd42	0.072138324
10	0xbd46018a	-0.04834131
11	0xbdd95260	-0.10611415
12	0xbd1f61d3	-0.03891165
13	0x3d0e97c8	0.03481272
14	0xbe0661b3	-0.13123207
15	0xbbf8e765	-0.0075959438
16	0xbab68d21	-0.0013927558
17	0x3dbfc83b	0.09364363
18	0xbadcc536	-0.0016843441
19	0xbdafda79	-0.08586592
20	0x3c306b79	0.010767811
21	0xbdad031f	-0.08447861
22	0x3cdd5dbe	0.027022239
23	0x3d20b7dd	0.039237846
24	0x3d614075	0.05499311
25	0xbda5ce35	-0.080959715
26	0x3bbfaaaf	0.0058492045
27	0xbda5cf5b	-0.080961905
28	0xbb548e3f	-0.0032433418
29	0x3d972873	0.07380762
30	0x3db51f66	0.088438794
31	0xbdae828b	-0.08520993
32	0xbdaf346e	-0.08554922
33	0xbdf0461f	-0.117321245
34	0xbe1e0623	-0.15432028
35	0xbdc736be	-0.09727238
36	0xbb606371	-0.003423896
37	0x3e016cf4	0.12639219
38	0x3d5f5566	0.0545248
39	0xbdb913a1	-0.09036947
40	0x3cd7dd7f	0.026350735
41	0xbdb2712a	-0.087129906
42	0xbdd35d78	-0.10320562
43	0xbc1707c2	-0.009218158
44	0x3d1a432b	0.037661713
45	0x3d1c7e1f	0.038206216
46	0xbe1ca6a4	-0.15297943
47	0xbc72e621	-0.014825375
48	0x3dbaaa7b	0.09114548
49	0xbc8c7ed5	-0.017150322
50	0x3caa586b	0.020794114
51	0x3b5cc32e	0.0033685672
52	0x3d0098c9	0.031395707
53	0x3d5a3aa5	0.053278584
54	0xbdaffda5	-0.08593301
55	0xbd671f62	-0.056426413
56	0xbd667fb7	-0.056274142
57	0x3d468a70	0.048471868
58	0xbdfeb008	-0.12435919
59	0x3d289a89	0.041163
60	0xbe08d104	-0.13360983
61	0xbe19b43b	-0.15010159
62	0x3c874a21	0.01651484
63	0xbdfd63e7	-0.123725705
64	0xbcfd39f2	-0.03091142
65	0x3d427a1e	0.04747974
66	0x3dcf29a1	0.10115362
67	0xbded93c4	-0.1160045
68	0xbd0abf1d	-0.033873666
69	0x3e1f08a6	0.15530643
70	0x3d837c14	0.064201504
71	0xbd91df54	-0.071226746
72	0x3dc63f17	0.09680002
73	0xbab65f65	-0.0013913928
74	0xbdd70467	-0.104988866
75	0x3be95486	0.0071206717
76	0x3da09317	0.07840555
77	0x3e00d97b	0.12582962
78	0x3d59c04f	0.053161915
79	0xbd11432b	-0.035464447
80	0xbd6c9c0d	-0.05776601
81	0xbddd8c8d	-0.108178236
82	0x3d7bb15d	0.061448444
83	0xbd9262fb	-0.07147785
84	0xbcb1cbab	-0.021703562
85	0xbda7f6fa	-0.08201404
86	0x3c83d047	0.016090525
87	0x3dfbda45	0.12297491
88	0x3dbcc523	0.09217288
89	0x3df2e750	0.118605256
90	0x3d5e2154	0.054231003
91	0x3c3eb6f6	0.011640301
92	0xbb96f409	-0.004606728
93	0x3d038e81	0.032118324
94	0xbe0a2e13	-0.13494138
95	0xbdd276ee	-0.1027659
96	0xbd8f626a	-0.07001193
97	0x3de4c33c	0.111700505
98	0x3e7543a5	0.23951586
99	0x3e609e49	0.21935381
100	0xbd86e34b	-0.065863214
101	0xbb93627e	-0.004497825
102	0x3c9c0624	0.019045897
103	0x3dc74837	0.09730571
104	0xbced3f24	-0.028960772
105	0x3d124a56	0.035715424
106	0xbd291c9e	-0.041287057
107	0x3d6ab961	0.057305697
108	0xbbe3339c	-0.0069336426
109	0xbcdf3df4	-0.027251221
110	0x3bbf80f4	0.00584423
111	0xbcfbe883	-0.030750519
112	0xbd1c1383	-0.038104545
113	0x3ca15cf9	0.019697653
114	0x3d536680	0.051611423
115	0x3d217a52	0.039423294
116	0xbdec83c3	-0.11548569
117	0x3dbdc22f	0.09265553
118	0x3b812b70	0.0039419457
119	0xbd76ba35	-0.060236175
120	0x3d46d738	0.048545092
121	0x3e53d860	0.2068801
122	0xbc1dc388	-0.009629138
123	0x3c371fa5	0.011176978
124	0x3db074aa	0.08616002
125	0x3d2ab47d	0.041676033
126	0xbdde2759	-0.10847349
127	0x3da8f7f2	0.08250417
128	0xbd29fca7	-0.041500714
129	0x3cfb5929	0.030682163
130	0xbd829a7e	-0.06377123
131	0xbcd1cee6	-0.025611352
132	0xbd412a50	-0.047159493
133	0xbdbff324	-0.09372547
134	0x3cfc3946	0.030789029
135	0x3dd09de5	0.10186366
136	0xbd07fddd	-0.033201087
137	0xbc6bd01a	-0.014392877
138	0xbe69dc7b	-0.22838013
139	0x3b2f4d52	0.0026748967
140	0x3babc1fd	0.005241631
141	0xbca5d867	-0.02024479
142	0xbd453338	-0.04814455
143	0xbec286f7	-0.37993595
144	0x3dabf129	0.08395607
145	0x3d3b894d	0.045785237
146	0xbddd096d	-0.107928135
147	0x3dce3b4d	0.100699045
148	0x3cb23a13	0.021756208
149	0xbdececc4	-0.11568597
150	0x3db4021d	0.087894656
151	0x3dbb3620	0.09141183
152	0xbc870bed	-0.016485179
153	0xbdee8354	-0.116461426
154	0xbbd7f75d	-0.0065907673
155	0xbd4ca521	-0.049962167
156	0xbd4e618b	-0.050385993
157	0xbd739efa	-0.059477784
158	0xbd68142d	-0.056659866
159	0x3daf17d7	0.08549469
160	0x3d4404a0	0.047855973
161	0xbc94657a	-0.018114794
162	0x3e95c8a3	0.29254636
163	0xbdfa0c94	-0.1220943
164	0x3a1ec717	0.00060568884
165	0x3d9c392f	0.076280944
166	0x3db79145	0.08963255
167	0xbcc44b2e	-0.02396163
168	0xbe486880	-0.19571114
169	0x3e82dc03	0.2555848
170	0xbcee73e1	-0.02910799
171	0xbdcfdd40	-0.10149622
172	0x3d6e6236	0.05819913
173	0xbdcf204b	-0.10113581
174	0x3d1abd2d	0.03777807
175	0x3d9d2c84	0.07674506
176	0x3d0e636a	0.034762777
177	0xbdf8afc0	-0.12142897
178	0xbd447571	-0.047963563
179	0x3d95ad47	0.07308441
180	0xbe34ee92	-0.17669132
181	0xbdd284d9	-0.10279245
182	0xbdc3cb33	-0.095602416
183	0xbce47b17	-0.027890725
184	0xbcee3b05	-0.029080877
185	0x3e9683be	0.29397386
186	0x3d09e6f9	0.03366754
187	0xbba48d6f	-0.005021743
188	0x3c12cc6f	0.008959874
189	0x3d394c66	0.045238875
190	0x3e030285	0.1279393
191	0x3d9c65e4	0.076366216
192	0xbdd08720	-0.10182023
193	0xbd904728	-0.07044822
194	0x3dcf5762	0.10124089
195	0x3e6d3301	0.23163988
196	0x3d8869e8	0.06660825
197	0x3d4c0b4a	0.049815454
198	0x3def4831	0.11683691
199	0x3cbf300b	0.023338338
200	0x3d6d8357	0.057986584
201	0xbdc7c14a	-0.09753664
202	0x3dff2013	0.124572895
203	0xbde281fd	-0.110599495
204	0xbd702b5b	-0.058635097
205	0x3d9e1abc	0.07719943
206	0x3ceeb3f6	0.029138546
207	0xbe714499	-0.23561324
208	0x3d3f6888	0.04673055
209	0x3e045f9a	0.12927094
210	0xbd0131e2	-0.031541713
211	0xbdac261a	-0.08405705
212	0xbc535e9f	-0.012900977
213	0x3dbc0115	0.09179894
214	0x3bfc6f3f	0.0077036913
215	0x3db8e177	0.09027379
216	0x3d94d0dc	0.07266399
217	0x3dd77951	0.10521186
218	0xbdc35945	-0.09538511
219	0x3d2df0d5	0.042466003
220	0x3dbba6b9	0.09162659
221	0xbd3790b5	-0.044815738
222	0x3ac72c46	0.001519569
223	0xbd1fae84	-0.03898479
224	0xb78b7d2d	-1.662838e-05
225	0xbd0f0b09	-0.034922633
226	0x3d830cde	0.063989386
227	0x3e21e60a	0.15810409
228	0x3dd3b883	0.10337927
229	0x3ca342d9	0.019929336
230	0xbd4c5be3	-0.049892318
231	0xbc682a8a	-0.014170298
232	0xbdaf66c7	-0.08564525
233	0xbe2b2d8b	-0.16716592
234	0xbd3796a9	-0.044821415
235	0xbd917524	-0.07102421
236	0x3e08beea	0.13354078
237	0xbcf8dd43	-0.030378943
238	0xbd918e52	-0.071072236
239	0xbc9e13be	-0.019296523
240	0xbdd8cd46	-0.10586028
241	0xbdc1a3c0	-0.09455061
242	0xbdf70c75	-0.12062923
243	0x3d6b7d3c	0.05749248
244	0x3d216d3e	0.039410822
245	0x3e15b5bd	0.14620109
246	0x3d5c0120	0.05371201
247	0xbd170c74	-0.03687711
248	0xbcffc098	-0.031219766
249	0xbeb8f9ec	-0.36128175
250	0x3d18f009	0.03733829
251	0xbd36a736	-0.04459306
252	0xbd866f00	-0.0656414
253	0xbd8c94c4	-0.06864312
254	0x3ddbcb23	0.10732105
255	0xbdbd3f8d	-0.09240637

output.2.bias f4 [32]
0	0xbccdb8fe	-0.025112625
1	0x3c496004	0.012290958
2	0x3e324546	0.17409238
3	0x3d581b51	0.052760426
4	0x3cab9bef	0.020948378
5	0x3e8fdc27	0.2809765
6	0xbe0380d2	-0.1284211
7	0xbe3c276d	-0.18374415
8	0x3e4559f8	0.19272602
9	0x3ca577ae	0.02019867
10	0x3e97ccb3	0.2964836
11	0x3d3edcc7	0.04659727
12	0xbe0943db	-0.13404791
13	0x3e69af20	0.22820711
14	0xbecc048b	-0.39847216
15	0x3d2f91b3	0.04286356
16	0xbea0053e	-0.31254
17	0x3e87d7ea	0.26531917
18	0xbdc03c8a	-0.09386547
19	0x3e1a6e46	0.15081128
20	0xbdec7a11	-0.1154672
21	0x3ee91419	0.45523146
22	0x3e1714df	0.14754055
23	0x3c161b8d	0.009161842
24	0x3dfbaaf9	0.1228847
25	0x3da53645	0.08066992
26	0xbd073c51	-0.033016507
27	0x3df1b620	0.11802316
28	0xbd358782	-0.044318683
29	0x3f19ff33	0.6015503
30	0x3e329d36	0.17442784
31	0x3dc8bbf6	0.09801476

output.4.weight f4 [3, 32]
0	0xbd696349	-0.05697945
1	0xbcb1979b	-0.021678736
2	0xbe377176	-0.17914376
3	0x3e43ae76	0.1910952
4	0x3d5a9a8e	0.05337005
5	0xbdbe7f18	-0.09301585
6	0xbe10c981	-0.14139368
7	0x3d6bb05e	0.057541244
8	0x3d86bf58	0.06579465
9	0xbe1b26fc	-0.1515159
10	0x3dd4e387	0.1039496
11	0x3d396bbd	0.045268763
12	0x3d1ea293	0.03872926
13	0xbe298234	-0.16553575
14	0xbe675a0a	-0.22592941
15	0x3df4f827	0.11961394
16	0xbe16317c	-0.14667314
17	0x3e1163ad	0.1419818
18	0x3c040909	0.008058795
19	0xbdf4e10d	-0.119569875
20	0xbde862ce	-0.113469705
21	0xbee9c517	-0.4565818
22	0x3e0e6566	0.13905868
23	0xbe06695d	-0.1312613
24	0xbdb1b915	-0.0867788
25	0xbd064d8e	-0.032788806
26	0xbe1d0e83	-0.15337567
27	0x3e194ece	0.14971468
28	0xbe0048a3	-0.12527709
29	0x3ea69a73	0.3253971
30	0x3de831ee	0.11337648
31	0xbe04d1e6	-0.12970695
32	0x3dd59878	0.10429472
33	0xbdf43a8b	-0.11925229
34	0xbe409714	-0.18807632
35	0xbd5e4d31	-0.054272834
36	0x3deab22c	0.11459765
37	0x3e94f56d	0.29093495
38	0xbc8ca65b	-0.017169168
39	0x3dbff460	0.09372783
40	0xbe06dc7d	-0.13170047
41	0x3d4acaac	0.04950969
42	0xbd947ca8	-0.07250339
43	0x3cfdccb8	0.030981407
44	0x3d40f197	0.047105398
45	0xbd1cfb0b	-0.03832535
46	0xbd7fa006	-0.06240847
47	0x3e2e47e3	0.1701961
48	0x3e260b09	0.16215147
49	0xbdb77f09	-0.08959777
50	0x3e0b0d54	0.13579303
51	0xbe10c01d	-0.14135785
52	0x3da22e61	0.07919002
53	0x3ebbe35f	0.36696908
54	0xbdf34090	-0.11877549
55	0xbe089b58	-0.13340509
56	0x3d102477	0.035191026
57	0xbe20a31c	-0.15687221
58	0xbd86756a	-0.06565364
59	0xbd87ba10	-0.066272855
60	0xbe08d485	-0.1336232
61	0xbe8f9f4d	-0.28051224
62	0x3d8e5a91	0.06950868
63	0x3ddf735a	0.109106734
64	0xbe12e2d4	-0.1434434
65	0xbdc9b2bc	-0.09848544
66	0xbe0b808f	-0.1362326
67	0x3daab4ef	0.083352916
68	0xbd97483e	-0.07386826
69	0xbe7a8ae1	-0.2446704
70	0x3d5e05da	0.0542048
71	0xbe3392cd	-0.17536469
72	0x3e7b47a5	0.24539049
73	0x3c2d3ee6	0.010574078
74	0x3e8d794a	0.276316
75	0xbcd63b4d	-0.026151324
76	0x3e45d540	0.1931963
77	0x3e403a05	0.18772133
78	0x3d32beba	0.043638922
79	0x3e183bde	0.14866588
80	0x3d9cb968	0.07652551
81	0x3d12824e	0.0357688
82	0xbdc48b07	-0.0959683
83	0xbd5d3a3a	-0.054010607
84	0xbddd2b8f	-0.10799324
85	0xbc3bc313	-0.011460084
86	0xbd853b1c	-0.06505415
87	0x3c8230d0	0.015892416
88	0x3dbd2b1c	0.09236738
89	0x3e2ba785	0.16763122
90	0x3b61f429	0.0034477806
91	0xbe2cfed9	-0.16894092
92	0xbce5a23b	-0.02803146
93	0xbf1d447d	-0.6143263
94	0x3dfc23eb	0.12311538
95	0x3d8f604e	0.070007905

output.4.bias f4 [3]
0	0x3c8ba01b	0.017044118
1	0x3d8c0a83	0.068379425
2	0x3b76af21	0.0037641006
