models/particle_gnn_49.pth (torch, 820468 bytes, 38 tensors)

encoder.0.weight f4 [128, 9]
-0.026082495 -0.067812465 -0.06709249 0.058678333 0.18171056 0.116612695 -0.55952114 -0.1065379
-0.17834042 -0.08688281 -0.019010501 -0.09189478 0.18717074 -0.15485987 0.082680784 -0.53210145
-0.15493357 -0.51105005 -0.019674743 -0.0027317156 -0.041925013 0.031148834 0.008786549 0.0665419
-0.18866858 -0.20603192 -0.1655547 -0.12330001 -0.023134887 -0.06651313 0.02036468 0.06354619
0.059774317 -0.44527155 -0.23202069 -0.4644806 -0.048175585 0.056557022 0.09177799 -0.033435993
0.21541674 0.066961944 -0.44475195 -0.074589565 -0.6107969 -0.019996684 -0.018307125 -0.07021651
-0.13157669 -0.05567466 -0.043284453 -0.41985473 -0.53961366 -0.23239438 0.027584093 -0.007318262
0.06583112 0.078355566 -0.08818528 -0.09545554 -0.12617974 -0.038714346 -0.34360605 -0.06194393
-0.114015035 0.037080124 -0.13216531 0.12956136 0.022613171 -0.323365 -0.07681818 -0.26868212
-1.5148658 1.004303 1.13915 -0.0004172976 0.0012686786 0.0074905716 0.23350903 -0.35873985
0.014760561 -0.05079241 -0.039736226 0.048598085 -0.06491551 -0.06294995 -0.02991057 -0.4831625
-0.47376457 -0.5680717 0.31795806 -0.30342743 0.24648894 0.077738084 0.1152199 0.019134834
-0.38606274 -0.5810133 -0.41897947 -0.048323214 -0.09797166 -0.06551873 0.06840168 0.10095397
-0.08940289 -0.2843236 -0.11213982 -0.27780345 0.13822605 0.058203008 0.013039923 -0.19408777
-0.05737802 0.07409661 -0.69022185 -0.57558584 -0.6874276 -0.061007414 0.009596012 0.010930807
-0.014923969 -0.041348193 -0.06808947 -0.036238283 -0.093367524 -0.1127881 -0.18368174 0.1850435
-0.19425076 0.0322476 -0.052845795 0.04632249 -0.5804696 -0.34897253 -0.54024315 -0.2755872
0.102052875 -0.1323001 0.034701876 -0.17075023 0.088509485 -0.8361344 -0.92746377 -0.51224524
1.0186613 -0.12597522 1.2927393 0.00022877645 -0.0017872015 -0.006446259 0.24415275 0.081994556
0.21642111 0.3478179 0.22670619 0.114743344 0.047779486 0.075901955 0.016517384 -0.5546874
-0.3703607 -0.4625585 0.05798044 -0.095236786 0.07316257 -0.017958855 0.10362475 0.0948229
-0.4563932 -0.7959825 -0.40172818 -0.058940206 0.059905384 0.12958091 -0.004615288 -0.13342305
-0.16075599 -0.46142325 -0.41398302 -0.3780251 -0.017117234 -0.028163606 0.0387847 0.082989715
0.12725872 -0.070831545 -0.3691946 -0.026420306 -0.053095266 0.024087427 0.014586259 0.009462867
-0.0006399139 0.0641529 0.072982684 -0.23438103 -0.5696858 -0.2904769 0.121149115 -0.07546596
0.09756364 -0.059084874 0.10022723 -0.07793413 -0.50999314 -0.93330365 -0.6692466 -0.15993847
0.04978048 0.19791716 0.06974269 -0.07292748 -0.07626707 -0.3951442 -0.9507298 -0.5979059
-0.32926995 -1.4979979 1.0191596 -0.008535844 -0.01605615 0.013580145 -0.60818857 -0.45489407
-0.06860238 -0.0037473727 -0.0017822816 0.130575 0.100143135 -0.10996848 -0.0724376 -0.5933163
-0.12809469 -0.36396113 0.20264989 0.106277354 0.066441864 0.06852479 0.2543176 0.07882398
-0.49893087 -0.51848906 -0.42268425 0.007821577 0.11708859 -0.041141864 -0.03197452 -0.12642479
-0.107412264 -0.39752883 -0.19138551 -0.48179486 0.07686278 -0.07932845 0.34376687 -0.012400947
00000000: f5aa d5bc 43e1 8abd ca67 89bd b158 703d
00000010: 5512 3a3e a3d2 ee3d c73c 0fbf 8b30 dabd
00000020: df9e 36be 9def b1bd e9bb 9bbc 5533 bcbd
00000030: b0a9 3f3e 9693 1ebe 8b54 a93d cd37 08bf
00000040: e8a6 1ebe 2dd4 02bf ed2c a1bc 9506 33bb
00000050: 90b9 2bbd d72b ff3c 75f5 0f3c 1f47 883d
00000060: 5632 41be 08fa 52be 2c87 29be b784 fcbd
00000070: 6085 bdbc 0938 88bd d4d3 a63c 8124 823d
00000080: ead5 743d a2fa e3be d596 6dbe 67d0 edbe
00000090: c353 45bd 56a8 673d 19f6 bb3d 2ef4 08bd
000000a0: 3596 5c3e 5823 893d 87b6 e3be 6ac2 98bd
000000b0: 305d 1cbf 16d0 a3bc d3f8 95bc accd 8fbd
000000c0: 0abc 06be 1d0b 64bd 0a4b 31bd 33f7 d6be
000000d0: 1f24 0abf cbf8 6dbe 09f8 e13c 08ce efbb
000000e0: 77d2 863d e278 a03d 7c9a b4bd 327e c3bd
000000f0: 4335 01be ef92 1ebd 22ed afbe ebb8 7dbd
00000100: b780 e9bd 54e1 173d 5856 07be bcab 043e
00000110: 423f b93c 1990 a5be da52 9dbd b490 89be
00000120: 1fe7 c1bf 008d 803f abcf 913f bcc8 dab9
00000130: ca49 a63a 7873 f53b fe1c 6f3e c0ac b7be
00000140: 48d6 713c b40b 50bd 74c2 22bd c90e 473d
00000150: 6cf2 84bd e7eb 80bd 0307 f5bc 1361 f7be
00000160: 4591 f2be 266d 11bf 66cb a23e d75a 9bbe
00000170: 9967 7c3e 2535 9f3d 69f8 eb3d a8c0 9c3c
00000180: 04aa c5be 4abd 14bf 7a84 d6be 90ee 45bd
00000190: 5ea5 c8bd af2e 86bd 2e16 8c3d f4c0 ce3d
000001a0: dd18 b7bd dd92 91be 90a9 e5bd 413c 8ebe
000001b0: 218b 0d3e 4766 6e3d 67a5 553c f2be 46be
000001c0: 3705 6bbd f7bf 973d 61b2 30bf 9859 13bf
000001d0: 41fb 2fbf e9e2 79bd 9738 1d3c 2117 333c
000001e0: aa83 74bc b95c 29bd 7e72 8bbd 986e 14bd
000001f0: 7937 bfbd 73fd e6bd 1117 3cbe 0b7c 3d3e
00000200: ace9 46be 0f16 043d d574 58bd a7bc 3d3d
00000210: a899 14bf 87ac b2be 604d 0abf c419 8dbe
00000220: 1901 d13d ad79 07be 8e23 0e3d 26d9 2ebe
00000230: 7644 b53d e70c 56bf 446e 6dbf 8122 03bf
00000240: 7e63 823f a6ff 00be 7b78 a53f b6e3 6f39
00000250: 8840 eaba 243b d3bb 2e03 7a3e c3ec a73d
00000260: 7f9d 5d3e 3015 b23e ab25 683e 8ffe ea3d
00000270: 6cb4 433d 7c72 9b3d 774f 873c feff 0dbf
00000280: eb9f bdbe 78d4 ecbe e67c 6d3d 810b c3bd
00000290: 42d6 953d 731e 93bc 3739 d43d 8232 c23d
000002a0: 5fac e9be 82c5 4bbf 51af cdbe 496b 71bd
000002b0: 595f 753d dcb0 043e d83b 97bb 0da0 08be
000002c0: 389d 24be ab3f ecbe 95f5 d3be 828c c1be
000002d0: 7139 8cbc 5db7 e6bc b5dc 1e3d 83f6 a93d
000002e0: 1c50 023e 2110 91bd 1307 bdbe 666f d8bc
000002f0: 6c7a 59bd ff52 c53c 34fb 6e3c 240a 1b3c
00000300: e5bf 27ba 9862 833d f277 953d 9501 70be
00000310: eed6 11bf 63b9 94be 071d f83d e68d 9abd
00000320: 72cf c73d fb02 72bd ef43 cd3d ee9b 9fbd
00000330: e98e 02bf fdec 6ebf bf53 2bbf e9c6 23be
00000340: 9ee6 4b3d ccaa 4a3e 41d5 8e3d 015b 95bd
00000350: e931 9cbd 5750 cabe 0763 73bf 5c10 19bf
00000360: 1296 a8be 65be bfbf d273 823f edd9 0bbc
00000370: 3088 83bc 427f 5e3c 3fb2 1bbf e0e7 e8be
00000380: 687f 8cbd 7b96 75bb 729b e9ba 74b5 053e
00000390: d817 cd3d 2837 e1bd 2a5a 94bd 94e3 17bf
000003a0: 412b 03be 1d59 babe 7483 4f3e f1a7 d93d
000003b0: ac12 883d ba56 8c3d eb35 823e 786e a13d
000003c0: de73 ffbe b3bb 04bf 126a d8be 1226 003c
000003d0: 25cc ef3d 5f84 28bd b7f7 02bd 8075 01be
000003e0: f6fa dbbd e688 cbbe 90fa 43be d1ad f6be
000003f0: 3c6a 9d3d f476 a2bd 3602 b03e 572d 4bbc

encoder.0.bias f4 [128]
-0.468564 -0.3781187 -0.09588432 -0.34378824 -0.5811577 -0.24014606 -0.45292303 -0.5550411
0.13414174 -0.09805951 -0.531082 -0.6245669 -0.22092484 -0.35746878 -0.80438673 -0.72450787
0.02119311 -0.6410172 -0.53775424 -0.5210607 -0.33545756 -0.13373804 -0.61054415 -0.8579014
-0.33542785 -0.1950317 -0.93875474 -0.2979001 -0.66497695 -0.72009224 -0.46826974 -0.14393592
-0.2139946 -0.23253605 -0.2647274 -0.31626743 -0.54364985 -0.6354602 -0.36535135 -0.55929637
-0.41439652 -0.1197289 -0.459395 -0.7506316 -0.2780821 -0.5944581 -0.59504926 -0.506493
-0.5241842 -0.187643 -0.46130002 -0.6596655 -0.33144417 -0.68815523 -0.25899848 -0.25816655
-0.06369814 -0.44212532 -0.40120953 -0.44390935 -0.61573017 -0.44177818 -0.49723005 -0.6333649
-0.3595996 -0.70879817 -0.5463288 -0.7355214 -0.61175275 -0.5109311 -0.27253968 -0.6309032
-0.14495727 -0.99045604 -0.43455106 -0.67133874 -0.58827835 -0.37900504 0.12548926 -0.45810923
-0.6280455 -0.5453066 -0.19483939 -0.11891482 -0.93448263 -0.6369923 -0.57295233 -0.29433492
-0.52038354 -0.33710906 -0.43238196 -0.7331755 -0.6098896 -0.37392178 -0.6526392 -0.5757078
-0.3962149 -0.6616551 -0.51667434 -0.71916026 -0.49024367 -0.28937045 -0.1662255 -0.40059268
-0.4832529 -0.17529817 -0.70404416 -0.70592284 -0.67819273 -0.52887666 -0.5992401 -0.8854227
-0.2830498 -0.118408084 -0.55200756 -0.35477826 -0.69633436 -0.28017205 -0.57836705 -0.7165906
-0.23145956 0.26079798 -1.0832577 -0.5509466 -0.4386134 -0.50104743 -0.28755367 -0.6487896
00000000: 9fe7 efbe c698 c1be 005f c4bd 0305 b0be
00000010: c0c6 14bf d9e8 75be 87e5 e7be 2c17 0ebf
00000020: 745c 093e 6dd3 c8bd fdf4 07bf 9ee3 1fbf
00000030: 1f3a 62be 2606 b7be 4aec 4dbf 5979 39bf
00000040: 2c9d ad3c b419 24bf 43aa 09bf 3c64 05bf
00000050: 18c1 abbe a0f2 08be 9f4c 1cbf 6d9f 5bbf
00000060: 33bd abbe 64b6 47be 3b52 70bf 5d86 98be
00000070: ee3b 2abf f757 38bf 0dc1 efbe f063 13be
00000080: 6721 5bbe ee1d 6ebe 5a8a 87be ceed a1be
00000090: a32c 0bbf 85ad 22bf 550f bbbe 0c2e 0fbf
000000a0: c82b d4be 6d34 f5bd d235 ebbe 6429 40bf
000000b0: c760 8ebe 682e 18bf 2655 18bf 86a9 01bf
000000c0: f030 06bf 7d25 40be 842f ecbe d7df 28bf
000000d0: 0db3 a9be f12a 30bf 739b 84be 682e 84be
000000e0: 2c74 82bd 405e e2be 566b cdbe 1648 e3be
000000f0: 7ea0 1dbf c030 e2be f094 febe 3424 22bf
00000100: 701d b8be cc73 35bf 34dc 0bbf 214b 3cbf
00000110: d49b 1cbf 61cc 02bf 528a 8bbe df82 21bf
00000120: ae6f 14be 878e 7dbf 7a7d debe dbdc 2bbf
00000130: 6999 16bf f30c c2be 4280 003e 4b8d eabe
00000140: 97c7 20bf 3799 0bbf fa83 47be 9d89 f3bd
00000150: 413a 6fbf ed11 23bf 01ad 12bf 11b3 96be
00000160: db37 05bf 8f99 acbe 2b61 ddbe 64b1 3bbf
00000170: ba21 1cbf ad72 bfbe 5d13 27bf 9661 13bf
00000180: aedc cabe 3b62 29bf c544 04bf e31a 38bf
00000190: 3801 fbbe 5d28 94be 0437 2abe 7c1a cdbe
000001a0: ed6c f7be 5d81 33be 3d3c 34bf 5cb7 34bf
000001b0: 0a9e 2dbf 7664 07bf cd67 19bf 10ab 62bf
000001c0: e7eb 90be f07f f2bd 5e50 0dbf 7fa5 b5be
000001d0: f842 32bf b672 8fbe dd0f 14bf 7b72 37bf
000001e0: bc03 6dbe 5087 853e 30a8 8abf d60a 0dbf
000001f0: f091 e0be a544 00bf 3c3a 93be 1317 26bf

encoder.2.weight f4 [128, 128]
-0.05633038 0.13623782 -0.03367561 0.049862932 0.021371895 -0.03120613 -0.2145394 -0.059617
-0.009315245 0.075617105 -0.21127829 -0.06351754 -0.06137886 0.039386958 -0.34862307 0.30511248
-0.041328873 -0.12497547 -0.04099346 -0.06717844 -0.120386325 -0.060145777 0.18620233 -0.38029745
0.036181442 -0.04943781 -0.25364584 0.013643846 -0.0778053 0.09195299 -0.10448155 -0.15096188
0.02260533 -0.052030567 0.042813458 -0.15178512 -0.1127489 0.4317011 0.06639935 0.61191714
0.02224141 -0.0562182 0.004861888 0.18344055 0.008315913 -0.029256614 -0.09699359 -0.111960664
-0.108527415 0.043417584 0.071484774 -0.0313988 -0.2570663 -0.2552017 -0.058314368 -0.2225403
0.1820475 -0.5136853 0.01162372 0.04679237 0.063308224 0.05066604 -0.011395873 -0.19008556
-0.2374791 -0.008638049 -0.16308616 -0.20575519 0.24295355 -0.1936464 -0.06690766 0.09045481
-0.005813647 0.18671545 -0.07560328 0.14000751 0.12038488 0.020418761 -0.06089839 -0.035374276
0.027304402 0.11975596 0.31636906 -0.08097927 0.0990833 0.04861526 0.103275426 -0.19389929
-0.19328311 -0.12771998 -0.12884475 -0.056444585 0.0034054494 0.2699663 0.07398542 0.05654421
-0.0310143 0.20705669 -0.2233929 -0.16265754 0.02239995 0.058001637 -0.1429227 -0.021998528
-0.020948349 -0.08032433 0.016270194 -0.1721728 -0.05978987 -0.038605355 0.030050298 0.21641932
-0.094096474 0.019133158 0.11064627 0.039936226 -0.104716316 -0.12534729 -0.034285016 0.20582607
-0.037714373 -0.019787164 0.2329549 -0.11025515 0.0968609 0.08927688 -0.026580645 -0.03959912
-0.094309665 -0.14772952 0.087129444 -0.2502133 -0.0042050527 -0.13330932 0.007388715 0.17623278
-0.0016264679 -0.021974944 0.014788631 0.22534432 -0.06524617 0.027239745 0.06842833 -0.17196503
0.0694281 -0.22182317 -0.16237253 -0.16046235 0.06893199 -0.022483347 -0.04493166 -0.32595354
-0.019215854 0.087919 -0.02554523 -0.056719095 -0.1760068 0.18820496 -0.124847285 0.048935108
-0.10205981 0.081174806 -0.075619586 0.022696767 0.032538507 0.5667557 -0.050898977 -0.06397203
0.013771128 -0.1460426 -0.0088509265 0.007242603 0.092767686 -0.004568884 -0.015430592 -0.22611341
0.016819943 0.023158744 0.3334538 0.23625866 -0.30034587 -0.13480534 0.042407118 0.044676926
0.2821424 -0.7363457 -0.11045912 0.0352293 -0.60323465 -0.34256974 -0.29538497 -0.08960525
0.24239358 -0.12704195 -0.34522876 -0.31513315 0.14855881 -0.25339052 -0.044878885 -0.15496558
0.015997319 -0.106962055 0.10043697 -0.22006628 0.09101195 -0.17552288 0.039871216 -0.0679146
0.13643013 0.018887121 -0.29945332 -0.007913205 -0.123135455 -0.31677994 0.06254407 -0.16177504
0.015923217 -0.09394438 -0.08470604 -0.43381205 0.15663606 0.12277491 -0.24914604 0.017169224
0.28847703 -0.09501321 -0.15925163 0.25725853 0.09622165 -0.084009744 -0.071095 -0.28702384
0.09411732 0.24840218 0.024070632 0.056479156 -0.21070658 -0.0046865926 0.0075393915 -0.13044596
-0.13423894 0.10325034 -0.1893884 0.007365154 0.3296655 -0.27901435 -0.07467968 -0.20125219
-0.04348686 0.050883673 -0.10074792 -0.07297743 0.22949812 -0.03671046 -0.0004190987 -0.0869157
00000000: afba 66bd ed81 0b3e 70ef 09bd 133d 4c3d
00000010: 1d14 af3c ffa3 ffbc 37b0 5bbe f530 74bd
00000020: f89e 18bc 24dd 9a3d 5659 58be 7c15 82bd
00000030: 6668 7bbd 3854 213d b97e b2be b437 9c3e
00000040: 7748 29bd 24f3 ffbd c2e8 27bd da94 89bd
00000050: 1b8d f6bd 6b5b 76bd d3ab 3e3e 59b6 c2be
00000060: fe32 143d 4d7f 4abd dedd 81be 708a 5f3c
00000070: 6358 9fbd d951 bc3d 6cfa d5bd c095 1abe
00000080: d02e b93c 011e 55bd 2a5d 2f3d 8f6d 1bbe
00000090: e5e8 e6bd ed07 dd3e 62fc 873d 9aa6 1c3f
000000a0: 9e33 b63c 0e45 66bd 7950 9f3b d7d7 3b3e
000000b0: 783f 083c 91ab efbc 93a4 c6bd a24b e5bd
000000c0: 9f43 debd a3d6 313d 9c66 923d 079c 00bd
000000d0: 329e 83be cca9 82be 0cdb 6ebd 9be1 63be
000000e0: a96a 3a3e e180 03bf 6a71 3e3c 5ba9 3f3d
000000f0: bea7 813d 3287 4f3d c1b5 3abc caa5 42be
00000100: b92d 73be 9a86 0dbc 0f00 27be 7db1 52be
00000110: d1c8 783e 3e4b 46be e206 89bd 5f40 b93d
00000120: 6880 bebb 5632 3f3e e4d5 9abd 215e 0f3e
00000130: 598c f63d 3f45 a73c 9770 79bd 9ee4 10bd
00000140: 7bad df3c 9d42 f53d 20fb a13e 76d8 a5bd
00000150: 2fec ca3d cb20 473d 1182 d33d 898d 46be
00000160: 02ec 45be 07c9 02be e1ef 03be 7032 67bd
00000170: f62d 5f3b 0639 8a3e ab85 973d e79a 673d
00000180: b411 febc ab06 543e 1cc1 64be b38f 26be
00000190: 1a80 b73c 2093 6d3d 545a 12be 4236 b4bc
000001a0: df9b abbc 1581 a4bd 1249 853c 114e 30be
000001b0: 39e6 74bd a620 1ebd 0b2c f63c 079d 5d3e
000001c0: a7b5 c0bd 24bd 9c3c 839a e23d 2b94 233d
000001d0: 8275 d6bd 0a5b 00be 726e 0cbd 12c4 523e
000001e0: 637a 1abd b118 a2bc bb8b 6e3e 74cd e1bd
000001f0: 025f c63d ccd6 b63d a7bf d9bc b032 22bd
00000200: 6d25 c1bd 6846 17be ec70 b23d f51b 80be
00000210: 8aca 89bb 3d82 08be 091d f23b 5e76 343e
00000220: 352f d5ba cc04 b4bc 044c 723c a9c0 663e
00000230: c99f 85bd e325 df3c 2724 8c3d 9a17 30be
00000240: 5230 8e3d 9d25 63be fc44 26be 3e50 24be
00000250: 372c 8d3d ff2e b8bc 430a 38bd 62e3 a6be
00000260: 916a 9dbc e00e b43d 3b44 d1bc 4852 68bd
00000270: 203b 34be cdb8 403e efaf ffbd 2e70 483d
00000280: bc04 d1bd fa3e a63d 71de 9abd 92ee b93c
00000290: 1947 053d e716 113f 727b 50bd c503 83bd
000002a0: 4ca0 613c 318c 15be 7a03 11bc 5c53 ed3b
000002b0: fcfc bd3d 94b6 95bb 98d0 7cbc 468a 67be
000002c0: fac9 893c 68b7 bd3c 75ba aa3e caed 713e
000002d0: efc6 99be 690a 0abe 16b3 2d3d 27ff 363d
000002e0: f874 903e 2781 3cbf 6438 e2bd 994c 103d
000002f0: 966d 1abf 4d65 afbe b33c 97be f582 b7bd
00000300: 0636 783e 4917 02be d3c1 b0be 2259 a1be
00000310: cd1f 183e 67bc 81be ecd2 37bd 4caf 1ebe
00000320: cf0c 833c ec0e dbbd e6b1 cd3d 0e59 61be
00000330: 7964 ba3d 45bc 33be 0050 233d cf16 8bbd
00000340: 57b4 0b3e 2ab9 9a3c f251 99be 63a6 01bc
00000350: 712e fcbd fb30 a2be 1b17 803d 5ba8 25be
00000360: 6871 823c e965 c0bd 5c7a adbd 9d1c debe
00000370: 3465 203e 6971 fb3d 2420 7fbe 79a6 8c3c
00000380: 43b3 933e 4996 c2bd dc12 23be 64b7 833e
00000390: db0f c53d 4d0d acbd 419a 91bd caf4 92be
000003a0: 95c0 c03d 245d 7e3e c62f c53c b056 673d
000003b0: 77c3 57be fd91 99bb 000d f73b a093 05be
000003c0: ef75 09be ea74 d33d 08ef 41be 6457 f13b
000003d0: ebc9 a83e f8da 8ebe a9f1 98bd 0e15 4ebe
000003e0: 471f 32bd 666b 503d ed54 cebd 3175 95bd
000003f0: 8e01 6b3e b55d 16bd 7aba dbb9 dc00 b2bd

encoder.2.bias f4 [128]
0.07718756 -0.09801866 0.042610817 0.0023013619 -0.0066172113 -0.025692614 -0.09080765 0.1168223
-0.0060943575 -0.030493649 0.02309296 0.14063519 -0.040771708 -0.019946804 0.041190233 -0.08685569
-0.0606096 -0.14828591 -0.0008053277 -0.035912808 0.027123502 0.07083535 -0.08799299 -0.0014671955
0.019137526 0.09889009 -0.25075388 -0.022337219 0.012954169 0.060041193 -0.15706238 -0.015683047
0.018051568 0.003409899 -0.010523791 0.0055959653 -0.10285889 -0.026876258 -0.082675144 0.08843331
0.04289362 -0.0076466775 0.031728745 -0.009259979 -0.025490783 -0.07184966 -0.16642977 -0.00081014674
0.521818 0.03327148 0.02840261 0.011273872 -0.041566197 -0.010585068 -0.04485342 -0.032774273
-0.055128835 -0.023309674 0.008190484 0.04107661 -0.15442023 0.22041433 0.037010014 -0.061413668
-0.095695205 0.03322717 0.054259222 0.041873667 0.0036529116 -0.021546843 0.08348592 0.07412649
-0.07949924 -0.021541547 0.035255674 -0.018423518 0.07175779 0.064166546 -0.04116883 -0.19100274
0.015171637 -0.05260196 -0.026942072 0.0028846164 -0.02172136 0.02886423 0.0018537077 -0.12271808
-0.040516924 0.05405329 0.15352768 -0.025532316 0.039042324 -0.023952216 0.058875546 -0.094618656
0.0027037193 0.02464933 -0.024152767 0.0063729375 -0.099280216 -0.036779605 -0.029675977 0.06713118
0.062120225 -0.46622202 -0.14936654 0.010892455 -0.06339229 -0.032983787 0.017550481 0.09785818
0.9708866 -0.03583525 0.059180055 -0.024446158 -0.0055691367 0.0756116 0.049239032 -0.056827974
-0.02415858 0.021250391 -0.030406898 -0.022467967 -0.0090081645 0.015313913 -0.025626529 -0.013857943
00000000: 8314 9e3d 02be c8bd ae88 2e3d 72d2 163b
00000010: 31d5 d8bb 5179 d2bc 5cf9 b9bd 8840 ef3d
00000020: 2db3 c7bb d1cd f9bc 722d bd3c ac02 103e
00000030: 3c00 27bd 7b67 a3bc 17b7 283d 65e1 b1bd
00000040: c641 78bd 43d8 17be a11c 53ba 4f19 13bd
00000050: 1b32 de3c 2012 913d ab35 b4bd e94e c0ba
00000060: 4dc6 9c3c e386 ca3d d062 80be 8bfc b6bc
00000070: b93d 543c c1ed 753d f6d4 20be bc79 80bc
00000080: e2e0 933c 9d78 5f3b fb6b 2cbc 5c5e b73b
00000090: afa7 d2bd 992b dcbc 9651 a9bd 861c b53d
000000a0: 38b1 2f3d fb90 fabb 00f6 013d 2bb7 17bc
000000b0: 0cd2 d0bc ea25 93bd 916c 2abe 0760 54ba
000000c0: dd95 053f ad47 083d 97ac e83c 0cb6 383c
000000d0: 5141 2abd fe6c 2dbc 38b8 37bd 513e 06bd
000000e0: c6ce 61bd eef3 bebc 6131 063c f33f 283d
000000f0: 5620 1ebe 4bb4 613e d097 173d e68c 7bbd
00000100: d9fb c3bd 3719 083d eb3e 5e3d b983 2b3d
00000110: b065 6f3b 0183 b0bc abfa aa3d a1cf 973d
00000120: 7fd0 a2bd e677 b0bc 4168 103d ebec 96bc
00000130: c0f5 923d c069 833d a6a0 28bd 3996 43be
00000140: 7592 783c 2775 57bd 9fb5 dcbc d50b 3d3b
00000150: fef0 b1bc ad74 ec3c 1cf8 f23a 9e53 fbbd
00000160: 13f5 25bd fc66 5d3d 5c36 1d3e 2629 d1bc
00000170: d8ea 1f3d 7037 c4bc 7c27 713d 6dc7 c1bd
00000180: e230 313b 64ed c93c 06dc c5bc 13d4 d03b
00000190: 6d53 cbbd 36a6 16bd 091b f3bc 127c 893d
000001a0: c771 7e3d a7b4 eebe 8bf3 18be 4476 323c
000001b0: d1d3 81bd 021a 07bd 07c6 8f3c df69 c83d
000001c0: 068c 783f fcc7 12bd c966 723d 4f43 c8bc
000001d0: 4e7d b6bb 41da 9a3d deae 493d 73c4 68bd
000001e0: 37e8 c5bc 4d15 ae3c e317 f9bc be0e b8bc
000001f0: fb96 13bc 35e7 7a3c baee d1bc 6d0c 63bc

gnn_0.lin_msg.weight f4 [128, 128]
-0.16592796 -0.02510597 -0.16888382 -0.10379612 -0.1284374 0.43295303 0.10963415 0.04491457
-0.19877353 -0.27331075 0.1658097 0.14026196 0.12102254 0.041915838 0.15746404 -0.1306456
0.06418622 -0.15199162 0.0322877 -0.14020675 0.21992448 -0.028486544 0.1442816 0.0871124
-0.04812211 -0.117448 -0.0074785673 0.016265303 0.16216893 -0.10288991 0.018022394 -0.43357605
-0.0476126 -0.17390999 0.079138264 0.15810038 -0.03274256 -0.091345064 -0.158248 -0.33582306
0.0019138874 0.02976999 -0.048330776 -0.17521302 -0.26831225 -0.023954172 -0.13881968 -0.08157486
-0.061472777 0.25023818 0.0071960115 -0.32307634 -0.10123553 -0.11431903 -0.09684333 0.0759139
0.08703909 -0.11299002 -0.22525053 0.07008654 -0.17729731 0.048814267 0.04414298 -0.27179366
-0.24029435 0.2116928 -0.06088595 -0.12577614 -0.0029244502 -0.02958757 0.57817227 0.09681691
-0.2801266 -0.17269892 0.020958735 -0.033984423 -0.11014662 -0.12888777 -0.08897241 -0.02079492
-0.03670055 -0.09256107 -0.16494785 0.094908684 -0.06797773 0.18932024 -0.14981748 0.18620704
-0.07312202 0.069663815 -0.26234418 0.024879957 0.07650327 -0.22564262 -0.14950022 0.11137479
-0.022699416 0.05564117 0.12196657 0.16421835 -0.09165757 0.006554721 0.08030769 -0.026549745
-0.3173166 -0.11828445 0.09698708 -0.05397733 0.102516994 0.03686241 -0.26509297 -0.043477815
0.13187432 -0.07679746 0.13103195 -0.16660607 0.027314497 0.13724771 -0.048338972 0.008518078
0.09780496 -0.12790133 -0.07749215 0.34680173 -0.09461273 -0.08807858 0.12551504 0.08736596
-0.03482513 0.025774479 -0.010650555 -0.014332612 0.022238305 -0.016997987 -0.0010876792 0.022040775
-0.101351984 -0.00243287 -0.029395929 -0.063124746 -0.05319769 -0.06332548 -0.024387596 -0.007178327
0.0071311756 0.02526261 0.006880651 0.013042734 0.013171681 0.024818586 0.027357776 -0.017380105
0.00095399766 -0.019961372 -0.03883025 0.0182273 -0.034318388 -0.019860385 0.0027019235 -0.0029891932
0.020419028 -0.01651423 -0.0153114535 -0.045406677 0.060711104 0.011945868 -0.120731115 -0.12028304
-0.047668602 0.061369784 -0.11606991 -0.022256473 0.03197705 -0.0057853176 0.058907915 0.011710744
-0.03183253 0.044291425 -0.0355452 -0.013102479 0.028017946 -0.00022459755 0.028303307 -0.010383396
-0.050380662 -0.12839378 -0.03157447 -0.02743525 0.067868814 0.0891358 0.006005815 0.06229244
-0.034501955 -0.024563141 0.04451721 0.022709481 0.052471448 -0.005475794 -0.041667208 -0.045530308
0.0633361 -0.029812848 -0.011877194 0.11614609 -0.031135172 -0.047495764 -0.0061455416 0.03882088
0.02860995 -0.00551959 0.01856077 -0.0039797095 -0.005391623 0.007086879 -0.12575091 0.03447138
0.15425625 -0.020674052 -0.03722505 0.005025472 0.0027669014 0.022110747 -0.028531896 -0.016717339
-0.017017275 -0.124256596 0.02828073 -0.025484016 -0.0020047356 -0.008384263 -0.008370379 0.032997437
0.001972159 -0.06995272 -0.05021289 0.037129186 -0.007010578 0.020855105 -0.04138384 -0.023647519
0.005742862 -0.00754185 -0.004764878 -0.0077321893 -0.010235317 -0.022729112 0.011030431 0.023234045
0.034055825 0.05537698 4.4568887e-06 0.10875493 0.017442051 0.08732163 0.014533456 0.02935533
00000000: 05e9 29be 09ab cdbc e1ef 2cbe 0f93 d4bd
00000010: 1885 03be 05ac dd3e df87 e03d 57f8 373d
00000020: 4a8b 4bbe 63ef 8bbe 05ca 293e d5a0 0f3e
00000030: aada f73d f1af 2b3d 413e 213e f6c7 05be
00000040: 1174 833d b1a3 1bbe 1b40 043d 5c92 0fbe
00000050: e233 613e 9d5c e9bc 8ebe 133e fc67 b23d
00000060: b11b 45bd 9488 f0bd c50e f5bb d03e 853c
00000070: 9d0f 263e f2b7 d2bd b3a3 933c aefd ddbe
00000080: 6e05 43bd 7615 32be 3e13 a23d 11e5 213e
00000090: 101d 06bd 1f13 bbbd c40b 22be 00f1 abbe
000000a0: 68db fa3a 32e0 f33c 7ef6 45bd 0b6b 33be
000000b0: 3960 89be 8a3b c4bc bf26 0ebe b810 a7bd
000000c0: e1ca 7bbd 381f 803e 85cc eb3b 436a a5be
000000d0: 9354 cfbd 1820 eabd cc55 c6bd bf78 9b3d
000000e0: 8d41 b23d 5067 e7bd 13a8 66be 8889 8f3d
000000f0: 6d8d 35be 78f1 473d 45cf 343d 8a28 8bbe
00000100: b90f 76be ffc5 583e 8c63 79bd 76cb 00be
00000110: 22a8 3fbb a261 f2bc 1903 143f f247 c63d
00000120: c16c 8fbe fcd7 30be a7b1 ab3c 4033 0bbd
00000130: 8d94 e1bd 28fb 03be 2b37 b6bd 1c5a aabc
00000140: 5153 16bd a990 bdbd 17e8 28be 7c5f c23d
00000150: e837 8bbd 2add 413e c169 19be 0fad 3e3e
00000160: ffc0 95bd e7ab 8e3d fa51 86be 0dd1 cb3c
00000170: bfad 9c3d dc0e 67be 9616 19be 7718 e43d
00000180: 20f4 b9bc ffe7 633d 9cc9 f93d db28 283e
00000190: f7b6 bbbd fcc8 d63b 5c78 a43d da7e d9bc
000001a0: 5277 a2be 1e3f f2bd 2aa1 c63d 5517 5dbd
000001b0: 6ef4 d13d 0afd 163d 44ba 87be cb15 32bd
000001c0: 100a 073e fd47 9dbd 3d2d 063e c89a 2abe
000001d0: a7c2 df3c aa8a 0c3e 16ff 45bd 698f 0b3c
000001e0: f84d c83d 91f8 02be 34b4 9ebd ff8f b13e
000001f0: 52c4 c1bd 8b62 b4bd 0487 003e edec b23d
00000200: cca4 0ebd 0025 d33c aa7f 2ebc 55d3 6abc
00000210: 1b2d b63c 5d3f 8bbc 7590 8eba db8e b43c
00000220: a191 cfbd c970 1fbb bbcf f0bc 8c47 81bd
00000230: d2e5 59bd cab0 81bd 7fc8 c7bc 2c38 ebbb
00000240: a3ac e93b 88f3 ce3c 1677 e13b 31b1 553c
00000250: 09ce 573c 5950 cb3c 6a1d e03c b960 8ebc
00000260: b315 7a3a 0886 a3bc 780c 1fbd 6b51 953c
00000270: 7091 0cbd 3fb2 a2bc c112 313b 57e6 43bb
00000280: ce45 a73c da48 87bc e4dc 7abc 5afc 39bd
00000290: 35ac 783d 9ab8 433c e041 f7bd f456 f6bd
000002a0: 2740 43bd e25e 7b3d 10b6 edbd 3553 b6bc
000002b0: 5efa 023d c392 bdbb 6d49 713d 6cde 3f3c
000002c0: d462 02bd ed6a 353d d897 11bd c8ab 56bc
000002d0: e485 e53c f281 6bb9 56dc e73c 1f1f 2abc
000002e0: f45b 4ebd a979 03be 3b54 01bd e4bf e0bc
000002f0: cefe 8a3d d58c b63d 6ecc c43b 5c26 7f3d
00000300: ec51 0dbd a438 c9bc ae57 363d 3c09 ba3c
00000310: 4dec 563d 4a6e b3bb 3cab 2abd fd7d 3abd
00000320: 5bb6 813d 133a f4bc 9098 42bc 00de ed3d
00000330: 300f ffbc eb8a 42bd 8a60 c9bb a502 1f3d
00000340: 6a5f ea3c addd b4bb c20c 983c 3968 82bb
00000350: 36ac b0bb 0d39 e83b d9c4 00be dd31 0d3d
00000360: 5af5 1d3e a15c a9bc 4b79 18bd b7ac a43b
00000370: e754 353b 9921 b53c b9bb e9bc cdf2 88bc
00000380: d067 8bbc 3e7a febd fdac e73c dbc3 d0bc
00000390: e261 03bb 265e 09bc ea23 09bc 5228 073d
000003a0: 563f 013b 5f43 8fbd 08ac 4dbd c614 183d
000003b0: feb8 e5bb 53d8 aa3c 1a82 29bd 71b8 c1bc
000003c0: 9e2e bc3b a021 f7bb b222 9cbb 4e5e fdbb
000003d0: 08b2 27bc 6732 babc fbb8 343c 5355 be3c
000003e0: 1f7e 0b3d f9d2 623d 628c 9536 e8ba de3d
000003f0: a2e2 8e3c afd5 b23d bc1d 6e3c 977a f03c

gnn_0.lin_msg.bias f4 [128]
-0.39067674 -0.3770889 -0.3666275 -0.42364717 -0.8434888 -0.50877535 -0.52371585 -0.12291528
-0.122038804 -0.25927398 -0.28698874 -0.42162928 -0.28600928 -0.2527375 -0.30606923 -0.19651586
-0.100673996 0.15493043 -0.15631579 -0.2169111 -0.2998456 -0.17957237 -0.22436038 -0.9303014
-0.23475176 0.13092418 -0.69189435 -0.20559517 -0.25829518 -0.5768642 0.093384825 -0.2361819
-0.37184042 -0.14451925 -0.30899376 -0.25027955 -0.16204505 -0.5038349 -0.091791645 0.07419696
-0.5988972 -0.88827175 -0.19362289 -0.4373542 0.23224758 -0.22244935 -0.1011421 -0.6925721
-0.56824577 0.10539982 -0.28578156 -0.39760783 -0.60308814 -0.16118562 -0.4769616 -0.82687545
-0.43168554 -0.30003434 -0.5460499 -0.22631054 -0.78996485 -0.3788956 -0.23516372 -0.07375521
-0.3478752 -0.3659552 -0.32931927 -0.14209409 -0.72790927 -0.32072222 0.132745 -0.45242545
-0.00081909104 -0.31538433 -0.31792304 -0.13510312 -0.8812497 -0.28267464 -0.20181598 -0.51396775
-0.7472681 -0.58211875 -0.2824779 -0.32953218 -0.498354 -1.1388328 -0.66458935 -0.6309332
-0.68955517 -0.28438386 -0.7491669 -0.47970402 -0.33270445 -0.32141778 -0.5023953 -0.40990517
-0.2928141 -0.8591187 -0.8006342 -0.36491796 -0.25183353 -0.43510532 -0.58428675 -0.24058348
0.1254863 -0.3838761 -0.73334014 -0.26365358 -0.19528416 -0.4772614 -0.2730336 -0.46745116
-0.46753958 -0.9435044 -0.77418524 -0.7769968 -0.4057077 -0.412555 -0.47805095 -0.5169851
-0.43693116 0.017395495 -0.38630223 -0.23704329 -0.23209119 -0.79072845 -0.37680522 -0.31098172
00000000: c806 c8be cc11 c1be 9ab6 bbbe 48e8 d8be
00000010: e2ee 57bf 1a3f 02bf 3e12 06bf 02bb fbbd
00000020: 7bef f9bd 8fbf 84be 30f0 92be cbdf d7be
00000030: cf6f 92be cf66 81be 1bb5 9cbe 743b 49be
00000040: 2b2e cebd 15a6 1e3e 3f11 20be f21d 5ebe
00000050: 5d85 99be d2e1 37be babe 65be 3c28 6ebf
00000060: c462 70be fd10 063e fd1f 31bf 8a87 52be
00000070: 443f 84be 5fad 13bf 8b40 bf3d abd9 71be
00000080: de61 bebe dbfc 13be 6e34 9ebe a424 80be
00000090: 23ef 25be 53fb 00bf 42fd bbbd 93f4 973d
000000a0: 5451 19bf c765 63bf 1445 46be e4ec dfbe
000000b0: 4fd2 6d3e c3c9 63be 9723 cfbd 684c 31bf
000000c0: 8e78 11bf dcdb d73d f651 92be 4193 cbbe
000000d0: fc63 1abf d80d 25be 5034 f4be 1cae 53bf
000000e0: e305 ddbe 1a9e 99be edc9 0bbf f3bd 67be
000000f0: 233b 4abf 9bfe c1be c2ce 70be f90c 97bd
00000100: b31c b2be 7b5e bbbe 899c a8be 1d81 11be
00000110: 4358 3abf b435 a4be 4eee 073e 4fa4 e7be
00000120: 45b8 56ba 0e7a a1be cfc6 a2be 7958 0abe
00000130: 9599 61bf bbba 90be d9a8 4ebe 6493 03bf
00000140: f64c 3fbf bc05 15bf f1a0 90be 71b8 a8be
00000150: 4128 ffbe 46c5 91bf 8722 2abf d784 21bf
00000160: b086 30bf c39a 91be 67c9 3fbf c49b f5be
00000170: 3d58 aabe df90 a4be fa9c 00bf 17df d1be
00000180: bbeb 95be 34ef 5bbf 5df6 4cbf 87d6 babe
00000190: 53f0 80be 20c6 debe d193 15bf 845b 76be
000001a0: 7b7f 003e 688b c4be 2ebc 3bbf 9afd 86be
000001b0: 92f8 47be 9b5b f4be 0fcb 8bbe c255 efbe
000001c0: 5961 efbe 8189 71bf 0131 46bf 43e9 46bf
000001d0: ebb8 cfbe 693a d3be 18c3 f4be 2359 04bf
000001e0: 71b5 dfbe ff80 8e3c 68c9 c5be 7abb 72be
000001f0: 50a9 6dbe 2e6d 4abf 9dec c0be ff38 9fbe

gnn_0.lin_msg_i.weight f4 [128, 128]
-0.15397316 -0.21704987 0.07746138 0.014842423 0.016487684 0.29716936 0.15111196 0.18038327
-0.20461327 -0.2610513 0.14443946 0.24208432 0.14723808 -0.062259983 -0.055139855 -0.17190965
0.03488643 -0.17972039 0.1856699 0.07732467 -0.18527849 -0.14402081 0.045572586 -0.023394143
-0.0014519911 -0.06741425 -0.10052933 0.20108019 0.07755748 -0.17051871 -0.08343459 -0.13137904
0.065506056 -0.0072788745 0.15757579 0.014963994 0.015889911 -0.014431692 -0.28114924 -0.36951178
0.07155393 -0.052580982 0.024635572 -0.33218333 -0.14159273 0.097945616 -0.1222638 -0.12983315
-0.008496071 -0.030782077 0.040141344 -0.016321287 0.15832706 -0.08790495 -0.13574058 -0.05005591
0.015942466 -0.16778179 0.10097031 0.024732431 -0.07237182 -0.042469706 -0.0666056 -0.15848392
-0.19820389 -0.048779916 -0.30532414 -0.08243722 -0.11649056 -0.13345173 0.5925671 -0.027149359
-0.10670544 -0.020980319 0.041199546 -0.030180879 -0.1751969 -0.0034576366 -0.03568866 -0.15911992
-0.08638071 0.13065185 -0.2637722 -0.043268293 -0.08202326 -0.12617862 -0.22068502 0.052058984
-0.050358675 0.06915955 -0.029065859 0.05633746 -0.020292234 -0.040338974 0.087353334 0.11872656
0.12476132 0.12177674 0.12317181 0.0917454 -0.3494572 0.10839263 -0.031010995 -0.05304087
-0.27102205 0.05545219 -0.081686825 -0.012167732 0.21885672 0.15860039 -0.12276466 -0.18948941
-0.078500316 0.024168806 0.173994 -0.007593067 -0.022716766 0.14748222 -0.030796327 0.065423004
0.09552318 -0.28146192 0.055926926 0.39737642 -0.036745828 -0.14368834 -0.007291441 0.18645522
0.044333607 -0.3253332 0.018929413 -0.009942711 -0.022426756 0.019357052 0.034710746 0.005546454
0.06557762 0.029630713 -0.0012105904 0.04488467 0.022130804 0.036496505 -0.008845539 -0.016438281
-0.03928138 0.10055636 -0.07254162 -0.022749495 0.03399148 -0.011900798 -0.108162254 0.024653327
0.033047304 0.031728838 0.048259493 -0.022579616 0.07011989 0.0162135 -0.034917008 -0.027890876
-0.01616622 0.0039631785 -0.018521843 0.027906068 -0.037698895 -0.03577573 0.014003844 0.13567269
0.03478174 -0.028572923 0.08381556 -0.0015989749 -0.16509436 0.015966617 -0.035253566 -0.04671776
0.020878129 0.096520886 -0.011809308 -0.0005075869 0.02702065 0.026384464 0.0008625405 0.033985063
-0.026563087 0.038850266 0.037981704 0.022215104 -0.09878378 0.0155658815 0.00486661 -9.6657786e-05
-0.02702263 0.058285158 -0.02570812 0.020275358 -0.04575416 -0.04007781 0.18330014 0.05049338
0.086371236 0.021762868 0.043431535 -0.045970567 -0.008508612 0.031885955 0.009117977 -0.059421632
-0.030775975 -0.037024587 -0.0026371388 -0.010821994 0.019680547 0.014404862 0.086553544 -0.036629632
-0.07205823 0.03761161 -0.046568938 -0.00558251 -0.031663533 -0.009691055 0.04273247 0.06516598
-0.034582213 0.14204836 -0.004293198 0.0071499054 0.013638873 0.018810807 0.00982898 0.0041271993
-0.06164269 -0.004554041 0.061418027 -0.00042819887 -0.019051999 -0.021929938 0.00027447625 0.047243036
0.015489603 0.019831924 0.04816436 0.051797614 0.007828827 0.023865461 0.01052245 -0.020873878
-0.031672318 0.07669835 0.006711437 -0.057988543 -0.0062998687 -0.033592306 0.034607217 -0.036254317
00000000: 24ab 1dbe 5242 5ebe 12a4 9e3d a22d 733c
00000010: 2e11 873c 9526 983e 18bd 1a3e 64b6 383e
00000020: 2486 51be 84a8 85be f0e7 133e f4e4 773e
00000030: 94c5 163e 5304 7fbd 54da 61bd 1509 30be
00000040: 13e5 0e3d 9f08 38be 4020 3e3e 665c 9e3d
00000050: a5b9 3dbe 317a 13be 52aa 3a3d 13a5 bfbc
00000060: bd50 beba 7b10 8abd 52e2 cdbd f7e7 4d3e
00000070: 75d6 9e3d 759c 2ebe c1df aabd 3a88 06be
00000080: 0a28 863d a083 eebb 8c5b 213e 8a2b 753c
00000090: 8f2b 823c e772 6cbc cbf2 8fbe a630 bdbe
000000a0: de8a 923d 285f 57bd 8ad0 c93c ef13 aabe
000000b0: affd 10be b697 c83d 7165 fabd fbf2 04be
000000c0: 1b33 0bbc b22a fcbc 406b 243d 38b4 85bc
000000d0: 7d20 223e 8307 b4bd 94ff 0abe 6d07 4dbd
000000e0: c699 823c fdce 2bbe 86c9 ce3d ab9b ca3c
000000f0: ad37 94bd b7f4 2dbd 8468 88bd 9c49 22be
00000100: f6f5 4abe 73cd 47bd 7253 9cbe d8d4 a8bd
00000110: 9a92 eebd 92a7 08be 7ab2 173f 5568 debc
00000120: 6288 dabd ebde abbc dbc0 283d e43d f7bc
00000130: d166 33be 8499 62bb 462e 12bd 55f0 22be
00000140: 5fe8 b0bd 99c9 053e 260d 87be 183a 31bd
00000150: d0fb a7bd f834 01be 41fb 61be cd3b 553d
00000160: e644 4ebd 86a3 8d3d 861b eebc 1cc2 663d
00000170: e63b a6bc 7b3a 25bd 4ee6 b23d e926 f33d
00000180: dd82 ff3d 1566 f93d 8041 fc3d 03e5 bb3d
00000190: 0eec b2be f5fc dd3d c50a febc 6241 59bd
000001a0: 67c3 8abe d621 633d 6c4b a7bd 2b5b 47bc
000001b0: fa1b 603e 2468 223e 0a6c fbbd 8309 42be
000001c0: c6c4 a0bd a9fd c53c 7c2b 323e 43cf f8bb
000001d0: 8318 babc 9405 173e 9448 fcbc 7ffc 853d
000001e0: a8a1 c33d c71b 90be a213 653d ec74 cb3e
000001f0: cb82 16bd 0923 13be 0aed eebb 1eee 3e3e
00000200: 2897 353d 1392 a6be db11 9b3c c1e6 22bc
00000210: 51b8 b7bc ae92 9e3c db2c 0e3d 07bf b53b
00000220: 8f4d 863d 1cbc f23c acac 9eba fdd8 373d
00000230: a94b b53c 5c7d 153d e1ec 10bc 93a9 86bc
00000240: 83e5 20bd 7ef0 cd3d b390 94bd 265d babc
00000250: a63a 0b3d 91fb 42bc 2c84 ddbd c6f5 c93c
00000260: 9c5c 073d 19f6 013d bfab 453d e3f8 b8bc
00000270: 049b 8f3d 2dd2 843c 2305 0fbd 687b e4bc
00000280: 056f 84bc 8ddd 813b 1fbb 97bc 449b e43c
00000290: 286a 1abd 9289 12bd 6170 653c c8ed 0a3e
000002a0: 4c77 0e3d c311 eabc 7ea7 ab3d b294 d1ba
000002b0: 7f0e 29be 6ccc 823c 0b66 10bd 1f5b 3fbd
000002c0: 9c08 ab3c beac c53d d47b 41bc 950f 05ba
000002d0: 695a dd3c 3b24 d83c 1d1c 623a ec33 0b3d
000002e0: d59a d9bc 7521 1f3d b492 1b3d 73fc b53c
000002f0: 274f cabd 0a08 7f3c 1578 9f3b c1b4 cab8
00000300: 905e ddbc 6bbc 6e3d d699 d2bc 8218 a63c
00000310: b768 3bbd a128 24bd 08b3 3b3e 25d2 4e3d
00000320: 67e3 b03d 0b48 b23c 44e5 313d a24b 3cbd
00000330: b567 0bbc d99a 023d 9163 153c 1964 73bd
00000340: e61d fcbc 18a7 17bd d9d3 2cbb bc4e 31bc
00000350: 1939 a13c 5f02 6c3c fc42 b13d f408 16bd
00000360: 4493 93bd a20e 1a3d 12bf 3ebd 7ded b6bb
00000370: 9fb1 01bd 3bc7 1ebc 3e08 2f3d be75 853d
00000380: 14a6 0dbd 2075 113e f5ad 8cbb c149 ea3b
00000390: 9475 5f3c 1f19 9a3c bb09 213c 753d 873b
000003a0: 0c7d 7cbd 113a 95bb 7891 7b3d e17f e0b9
000003b0: f012 9cbc 6aa6 b3bc 94e7 8f39 ea81 413d
000003c0: 1bc8 7d3c 8f76 a23c fe47 453d bc29 543d
000003d0: 7b44 003c 8081 c33c 5b66 2c3c b2ff aabc
000003e0: d5ba 01bd 0614 9d3d 9deb db3b 6585 6dbd
000003f0: 216f cebb 1698 09bd 4cc0 0d3d 687f 14bd

gnn_0.lin_msg_i.bias f4 [128]
-0.46969128 -0.3718477 -0.40903422 -0.42260334 -0.80820495 -0.5590327 -0.68523973 -0.1289027
-0.09258097 -0.21800564 -0.38621432 -0.34334716 -0.34464157 -0.3093642 -0.3579721 -0.2282774
-0.21148776 0.21522982 -0.2943883 -0.21382537 -0.3496774 -0.24234095 -0.22775957 -1.0047164
-0.1335859 0.12501581 -0.6325414 -0.19639277 -0.26469657 -0.59310526 0.15723003 -0.25183135
-0.45698112 -0.14554633 -0.44848698 -0.31166974 -0.22475772 -0.41245797 -0.076039 0.035749286
-0.64415604 -0.9510269 -0.24901728 -0.5538317 0.16956007 -0.30957654 -0.07791401 -0.71883935
-0.5372088 -0.0524178 -0.26883668 -0.23350121 -0.52329546 -0.1703859 -0.5115 -0.9712142
-0.39161396 -0.18654588 -0.50090516 -0.29699937 -0.8729864 -0.36166674 -0.090997905 -0.17837514
-0.39624196 -0.30556038 -0.46983567 -0.2573849 -0.6478312 -0.25654322 0.065547176 -0.5215076
0.070669845 -0.3926657 -0.23563465 -0.2737979 -0.7570269 -0.2818517 -0.16224924 -0.56739914
-0.9034319 -0.57034457 -0.32021564 -0.24916983 -0.52539074 -1.0709841 -0.67658496 -0.5850358
-0.6202069 -0.20177679 -0.7347112 -0.485486 -0.27006933 -0.38154098 -0.36403948 -0.34112513
-0.34180516 -0.79891 -0.6915693 -0.43026257 -0.13397595 -0.30102408 -0.49944502 -0.35030606
0.1273398 -0.29389223 -0.6985295 -0.23979317 -0.13644198 -0.51162803 -0.28869835 -0.5727636
-0.510408 -0.8904649 -0.73161644 -0.7739551 -0.4658535 -0.47238445 -0.3726642 -0.530219
-0.35773584 -0.08473308 -0.49530938 -0.3643493 -0.18325071 -0.7368614 -0.42127168 -0.26503307
00000000: 607b f0be d262 bebe ef6c d1be 775f d8be
00000010: 85e6 4ebf c41c 0fbf df6b 2fbf 12ff 03be
00000020: 179b bdbd df3c 5fbe e2bd c5be 33cb afbe
00000030: dc74 b0be fc64 9ebe 1e48 b7be 8dc1 69be
00000040: 3f90 58be 3565 5c3e 10ba 96be 0af5 5abe
00000050: eb08 b3be 3a28 78be ce39 69be 8c9a 80bf
00000060: beca 08be 2504 003e 3cee 21bf 301b 49be
00000070: 4f86 87be bfd5 17bf e900 213e 0af0 80be
00000080: 6ef9 e9be 190a 15be 16a0 e5be 2d93 9fbe
00000090: e326 66be b12d d3be 56ba 9bbd d86d 123d
000000a0: 69e7 24bf 8076 73bf 63fe 7ebe eac7 0dbf
000000b0: 28a1 2d3e d180 9ebe 6191 9fbd db05 38bf
000000c0: 8486 09bf 0cb4 56bd f6a4 89be f11a 6fbe
000000d0: b1f6 05bf a479 2ebe aaf1 02bf 7ea1 78bf
000000e0: a081 c8be e205 3fbe 523b 00bf 4d10 98be
000000f0: 097c 5fbf 622c b9be 1c5d babd f9a7 36be
00000100: 3ae0 cabe 6972 9cbe 4d8e f0be f4c7 83be
00000110: 44d8 25bf a259 83be 993d 863d 8681 05bf
00000120: 5abb 903d 7b0b c9be 364a 71be 3d2f 8cbe
00000130: 84cc 41bf de4e 90be aa24 26be 1241 11bf
00000140: 5047 67bf 1a02 12bf 4ef3 a3be 6026 7fbe
00000150: 0280 06bf 0216 89bf ac34 2dbf e8c4 15bf
00000160: e1c5 1ebf 939e 4ebe 0916 3cbf 9f91 f8be
00000170: 8746 8abe 5759 c3be 6263 babe f4a7 aebe
00000180: 1601 afbe 5e85 4cbf b00a 31bf 604b dcbe
00000190: fe30 09be d41f 9abe 42b7 ffbe 515b b3be
000001a0: 5d65 023e 0b79 96be d4d2 32bf 578c 75be
000001b0: 72b7 0bbe 0efa 02bf 45d0 93be a3a0 12bf
000001c0: 19aa 02bf 82f5 63bf 374b 3bbf ec21 46bf
000001d0: 5a84 eebe 60dc f1be d8cd bebe 6fbc 07bf
000001e0: 2729 b7be 8988 adbd 3199 fdbe fe8b babe
000001f0: 13a6 3bbe f3a2 3cbf ecb0 d7be 6ab2 87be

gnn_0.lin_edge.weight f4 [128, 2]
-0.8681218 0.0690616 -0.112275876 1.6541103 0.1911492 0.16393884 -0.6322001 0.10399546
-0.400645 0.3305036 -0.16942514 -1.4077563 -0.039048996 -0.09277052 -0.50895476 0.6248192
-0.06926177 -1.0119256 -0.5345993 -0.36238748 -0.54110485 -0.15976553 -0.27393168 -0.07441254
0.28477666 -0.8493269 -0.41108853 -0.95571744 -0.4322446 -0.5300239 -0.00907443 -1.0717067
-0.58355063 -0.37376997 -0.04185004 -1.3946962 -0.83256495 -1.0156391 0.32573003 -0.7681546
-0.8006469 -0.0034507127 0.31436104 -0.57225686 -0.64511377 -0.45938703 -0.7672999 0.42095932
0.23843707 -0.15373264 -0.184844 2.2646224 -0.9990197 -0.2770277 0.35488382 -0.6483024
-0.19817314 -0.09704487 -0.9785735 0.44047552 0.056389276 -1.6146817 0.2320245 -0.13013668
-0.74604285 0.0006815403 -0.57784563 -0.60580516 -0.71121657 -0.14328834 -0.9944188 0.10707886
-0.80959076 -0.4827605 -0.7329005 -1.22145 -0.0011817229 -0.7287415 -0.12287514 -1.3126768
0.17338064 0.12873414 -0.63969475 0.44810474 0.35569245 -0.7071031 0.23302224 -0.03841374
0.007576544 -1.4289814 -1.0068351 -0.6571973 0.11572423 -0.8806261 -0.07938605 0.257258
-0.7939031 -0.5874674 0.08935179 1.4101769 -0.25365308 -0.93280816 -0.092062294 -0.81492525
-0.78403246 0.36516565 -0.26943564 -1.1170262 -0.6316777 -0.40829426 -0.90502036 -0.25604802
-0.21179652 -0.5985515 -0.94329405 -0.9253784 -0.18465346 -0.08346442 -0.52980113 -0.8348531
-0.48080915 0.34018466 -0.43030438 0.2133886 -0.27321315 -0.20348778 -0.33614895 -0.48564902
-0.7720245 -0.2582179 0.034674462 -0.61673105 0.26345095 -1.0129784 0.31497347 -0.16020508
-0.46176153 0.055339374 -0.47170538 -0.53404623 -0.16141903 0.62513727 -0.082014166 -1.0703032
-0.036538273 -1.4286851 -0.754449 -0.40711012 -0.20935895 -0.4255365 -0.7141203 -0.14730997
-0.84346473 0.19460627 -0.63242674 0.0042697964 0.2468252 -1.1563401 -1.1469836 0.0044279513
-0.80433106 0.53912383 -0.7165513 -0.21275562 -0.5063199 -0.92248166 0.04893173 -0.388782
-0.77013606 -0.31064478 -0.7244335 0.4986503 -0.5206457 0.08912285 -0.76182276 -0.7127723
0.039171275 0.21229666 -1.145268 -0.8612997 -0.16243981 0.24255595 0.1617516 0.015814697
0.2131462 -1.2788037 -0.39990792 -1.0761553 -0.48257297 -0.1175842 -0.4381943 -1.2865679
-0.51774144 -0.80319124 -0.23209563 0.23578396 -0.93324596 0.14223298 0.1192422 -0.6942724
0.2702829 -0.4417377 0.36685947 0.030034939 -0.7364055 0.23903611 -0.067561135 -0.43467972
-0.27604988 2.4887447 -0.5619013 -0.91793287 -0.7151013 0.23035212 -0.4411481 -0.15605718
-0.6457446 -0.7608291 -0.47580397 0.012838074 -0.71308815 -0.465869 -0.8480741 -0.68147445
-0.5831532 -1.2704375 -1.0458673 0.4253777 -1.0181843 0.69266665 -1.4049776 0.7227322
-0.6986397 -0.48011038 0.027379239 0.09380935 -0.019434622 -0.5844942 0.118579045 -0.48610237
-0.16495469 -0.9444905 0.08389405 -0.23403916 -0.3301229 -0.57283705 -0.5503901 -0.072328314
-0.74889433 -0.39744058 -0.9940807 0.64004564 -0.35590088 0.12287146 -0.9514083 -0.1668529
00000000: 3b3d 5ebf 2b70 8d3d e5f0 e5bd e3b9 d33f
00000010: 9ebc 433e 95df 273e ded7 21bf 92fb d43d
00000020: 5721 cdbe c537 a93e c97d 2dbe 5c31 b4bf
00000030: d7f1 1fbd 78fe bdbd dc4a 02bf 27f4 1f3f
00000040: 1dd9 8dbd c786 81bf 80db 08bf da8a b9be
00000050: d985 0abf 9399 23be c640 8cbe 9a65 98bd
00000060: 3fce 913e 7d6d 59bf 327a d2be e6a9 74bf
00000070: 2a4f ddbe a5af 07bf ebac 14bc af2d 89bf
00000080: 9363 15bf c75e bfbe f36a 2bbd 6885 b2bf
00000090: fa22 55bf 7600 82bf 16c6 a63e c8a5 44bf
000000a0: 32f7 4cbf 5a25 62bb eef3 a03e 6d7f 12bf
000000b0: 2d26 25bf c734 ebbe c46d 44bf fb87 d73e
000000c0: d928 743e 176c 1dbe bf47 3dbe 93ef 1040
000000d0: c1bf 7fbf 93d6 8dbe 55b3 b53e 25f7 25bf
000000e0: e6ed 4abe 76bf c6bd cb83 7abf 0286 e13e
000000f0: 71f8 663d e4ad cebf d597 6d3e 8d42 05be
00000100: aafc 3ebf 65a9 323a b1ed 13bf 0c16 1bbf
00000110: 4a12 36bf 2eba 12be 3b92 7ebf 294c db3d
00000120: 5741 4fbf 622c f7be 5e9f 3bbf 7958 9cbf
00000130: 0ae4 9aba ce8e 3abf f6a5 fbbd cb05 a8bf
00000140: b28a 313e e2d2 033e 09c3 23bf fc6d e53e
00000150: 521d b63e b504 35bf 629d 6e3e ba57 1dbd
00000160: a844 f83b dde8 b6bf f9df 80bf 153e 28bf
00000170: d300 ed3d b670 61bf 2795 a2bd 52b7 833e
00000180: 3c3d 4bbf 4364 16bf 12fe b63d ad80 b43f
00000190: d1de 81be 84cc 6ebf 288b bcbd f19e 50bf
000001a0: 5ab6 48bf fef6 ba3e 78f3 89be b7fa 8ebf
000001b0: a1b5 21bf f20b d1be 6aaf 67bf ba18 83be
000001c0: 30e1 58be ac3a 19bf b87b 71bf 99e5 6cbf
000001d0: cc15 3dbe 65ef aabd 0ca1 07bf efb8 55bf
000001e0: 9e2c f6be af2c ae3e db50 dcbe 8b82 5a3e
000001f0: 98e2 8bbe 1a5f 50be b71b acbe fda6 f8be
00000200: 66a3 45bf 2335 84be cf06 0e3d 16e2 1dbf
00000210: 0be3 863e 47a9 81bf 3444 a13e cd0c 24be
00000220: 026c ecbe 8aab 623d 5e83 f1be 41b7 08bf
00000230: 084b 25be ff08 203f 0bf7 a7bd b2ff 88bf
00000240: 28a9 15bd 27df b6bf 9223 41bf bd70 d0be
00000250: 3162 56be ecdf d9be 97d0 36bf 6dd8 16be
00000260: 4eed 57bf de46 473e b8e6 21bf a6e9 8b3b
00000270: bfbf 7c3e f402 94bf 5cd0 92bf 5918 913b
00000280: a4e8 4dbf 0504 0a3f e86f 37bf 9cdc 59be
00000290: 2e9e 01bf c227 6cbf a36c 483d 6f0e c7be
000002a0: a327 45bf d50c 9fbe 7974 39bf 184f ff3e
000002b0: 0949 05bf 0a86 b63d d106 43bf 3f78 36bf
000002c0: 0f72 203d 4c64 593e 2498 92bf 237e 5cbf
000002d0: 9f56 26be 9660 783e 36a2 253e d38d 813c
000002e0: ff42 5a3e d7af a3bf bbc0 ccbe 75bf 89bf
000002f0: ce13 f7be fccf f0bd 015b e0be 42ae a4bf
00000300: b48a 04bf f19d 4dbf 7aaa 6dbe 5a71 713e
00000310: 35e9 6ebf 86a5 113e 4135 f43d d6bb 31bf
00000320: 8562 8a3e 722b e2be 01d5 bb3e d50b f63c
00000330: 1285 3cbf e2c5 743e 7e5d 8abd 578e debe
00000340: 6956 8dbe 9847 1f40 c3d8 0fbf a6fd 6abf
00000350: e110 37bf 6de1 6b3e 2ade e1be 74cd 1fbe
00000360: 854f 25bf b2c5 42bf 949c f3be c956 523c
00000370: f28c 36bf 6286 eebe 621b 59bf 1c75 2ebf
00000380: 8749 15bf b29d a2bf fbde 85bf 1bcb d93e
00000390: dd53 82bf 9a52 313f 4ed6 b3bf fa04 393f
000003a0: 0dda 32bf 07d1 f5be 6d4a e03c 1e1f c03d
000003b0: 5b35 9fbc 69a1 15bf 92d9 f23d 69e2 f8be
000003c0: e2e9 28be 21ca 71bf a5d0 ab3d f6a7 6fbe
000003d0: de05 a9be 73a5 12bf 5ee6 0cbf de20 94bd
000003e0: 8ab7 3fbf 557d cbbe 137c 7ebf 08da 233f
000003f0: a438 b6be 08a4 fb3d 7f8f 73bf 7ddb 2abe

gnn_0.lin_edge.bias f4 [128]
0.16227224 -1.011917 -0.6705564 0.053014558 -1.4660578 0.10720543 -0.43568882 -0.21929875
0.53654414 -0.73656285 0.2204418 -0.5076782 -0.37597778 -0.11324886 -0.025537075 -0.16416515
-0.6804201 -0.048575625 -0.36343658 -0.6171275 0.13990666 -0.7154107 0.048057854 -0.78561217
-0.85989696 0.025829876 -0.40844396 -0.76398146 -0.17177372 -0.9535411 0.044978384 -0.72315115
-0.4054759 -0.40226835 -0.25136042 -0.98503274 -0.29482555 0.07483223 0.5099752 0.23510803
-0.18056935 -1.1080248 -0.82436043 0.07784752 -0.04488285 0.16718839 0.4651487 -0.93382657
-0.4778699 0.4297048 -0.41582432 -0.046666916 -1.1413262 -0.63555145 0.19917981 -0.9923656
0.017080184 -0.53162605 -0.6433427 -0.23649527 -1.3312215 -0.5746146 -0.69671524 -0.8264269
-0.20709732 -0.022924302 -0.14288409 -0.71245545 -0.9650227 -0.23067482 0.5212504 0.2239833
0.2680955 -0.2342937 0.06654236 -0.5991222 -1.2867079 -0.3701594 -0.58809304 -0.36322787
-1.1704382 -0.15555789 -0.5185228 -0.60735804 0.15420392 -1.3649992 -0.23193161 -0.87472993
-0.90069336 0.016886678 -0.8584463 -0.11121269 -0.41095516 0.026031336 0.16935354 -0.41014108
-0.6774286 -0.89003843 -0.71543837 -0.14477257 -0.5432652 -0.36140683 -0.7013839 -0.2613614
-0.4266967 -0.7941619 -1.3380524 -0.7855761 -0.23088637 -0.20555583 0.094324574 0.055981666
-0.15618172 -1.251844 -0.19106674 -0.6661015 0.094030045 -0.22061613 -0.15931213 -0.77707654
-0.044934742 0.20243159 0.16558135 -0.24025565 -0.8372576 -1.1167307 -0.033153627 0.20460251
00000000: b22a 263e 7f86 81bf 96a9 2bbf cb25 593d
00000010: c8a7 bbbf 858e db3d 9b12 dfbe da8f 60be
00000020: f55a 093f 628f 3cbf 7fbb 613e 33f7 01bf
00000030: 2980 c0be 05ef e7bd 2133 d1bc e91a 28be
00000040: 0330 2ebf 3cf7 46bd 5c14 babe 11fc 1dbf
00000050: b143 0f3e 2825 37bf 50d8 443d e11d 49bf
00000060: 3522 5cbf 2d99 d33c 911f d1be 4a94 43bf
00000070: 73e5 2fbe 451b 74bf 413b 383d 6f20 39bf
00000080: 8a9a cfbe 1ef6 cdbe 50b2 80be 1b2b 7cbf
00000090: 60f3 96be a441 993d bc8d 023f 29c0 703e
000000a0: 2ce7 38be c2d3 8dbf 4909 53bf 856e 9f3d
000000b0: 14d7 37bd 6f33 2b3e f827 ee3e 420f 6fbf
000000c0: 5dab f4be 4402 dc3e ede6 d4be cf25 3fbd
000000d0: fa16 92bf 80b3 22bf cbf5 4b3e ac0b 7ebf
000000e0: beeb 8b3c a518 08bf 1bb2 24bf d12b 72be
000000f0: 7765 aabf f119 13bf ee5b 32bf b790 53bf
00000100: 5211 54be bfcb bbbc 3550 12be 7b63 36bf
00000110: ba0b 77bf 0536 6cbe ab70 053f e15b 653e
00000120: d043 893e b0ea 6fbe 5c47 883d 1360 19bf
00000130: d8b2 a4bf 8885 bdbe 448d 16bf 01f9 b9be
00000140: ebd0 95bf 914a 1fbe e9bd 04bf d17b 1bbf
00000150: a2e7 1d3e 4bb8 aebf 7b7f 6dbe 4dee 5fbf
00000160: d793 66bf ee55 8a3c 23c3 5bbf 7bc3 e3bd
00000170: b768 d2be ab3f d53c 046b 2d3e 03fe d1be
00000180: f66b 2dbf 8fd9 63bf f826 37bf 433f 14be
00000190: 6e13 0bbf 510a b9be e58d 33bf 29d1 85be
000001a0: fd77 dabe 324e 4bbf 4d45 abbf 841b 49bf
000001b0: 7a6d 6cbe 3a7d 52be 3e2d c13d 084d 653d
000001c0: 1aee 1fbe 6d3c a0bf 00a7 43be a185 2abf
000001d0: d392 c03d 32e9 61be b822 23be 7dee 46bf
000001e0: 7e0d 38bd 3a4a 4f3e 288e 293e 9405 76be
000001f0: 8456 56bf 08f1 8ebf 19cc 07bd 5283 513e
