models/particle_gnn_3.pth (torch, 475642 bytes, 18 tensors)

encoder.0.weight f4 [128, 9]
0	0xbe25eebe	-0.16204354
1	0xbe38f086	-0.18060502
2	0xbe03b7a2	-0.12863019
3	0xbe6ccb52	-0.23124436
4	0x3f3e666e	0.74375045
5	0xbdd6efc1	-0.10494948
6	0xbe9a8695	-0.30180803
7	0xbe4d1ea9	-0.20031227
8	0xbf6df954	-0.9295857
9	0xbf40f7ed	-0.75378305
10	0x3e95ef4c	0.29284132
11	0xbf0381ee	-0.5137013
12	0xbec7ef24	-0.39049637
13	0xbe38ce48	-0.1804744
14	0x3ea46589	0.32108715
15	0xbe01d434	-0.12678605
16	0xbd9a3ff0	-0.07531726
17	0xc0008a47	-2.0084398
18	0x3f6bafe3	0.92065257
19	0x3cf6b064	0.030113406
20	0x3f5ddb57	0.8666281
21	0xbd804362	-0.06262852
22	0xbd8ad4b3	-0.067788504
23	0x3d7be28a	0.06149534
24	0xbd1e88a4	-0.03870453
25	0xbe56efda	-0.20989934
26	0xc04622a5	-3.0958645
27	0x3f3074b5	0.6892808
28	0x3d2432b1	0.040087406
29	0x3f61a177	0.88137
30	0x3db09ec7	0.086240344
31	0x3db22659	0.086987205
32	0x3e49e47d	0.19716068
33	0xbf133c16	-0.5751356
34	0xbf0816f3	-0.5316002
35	0xbf356ee1	-0.7087231
36	0x3d9133c9	0.07089955
37	0x3f562359	0.83647686
38	0x3ec4362e	0.38322586
39	0xbda018c9	-0.078172274
40	0x3c176146	0.0092395
41	0xbe0adcae	-0.13560745
42	0xbe5aa1bb	-0.21350758
43	0xbeb16090	-0.34643984
44	0xc0564bb6	-3.348371
45	0x3eb9f5fd	0.36320487
46	0xbf8c924a	-1.0982144
47	0x3e22212c	0.15832967
48	0x3dbdfe40	0.0927701
49	0x3d65e1f6	0.056123696
50	0xbee66c6a	-0.45004588
51	0x3b136e08	0.0022496004
52	0xbe39e26c	-0.1815278
53	0xc0194792	-2.3949933
54	0x3e0ac663	0.13552241
55	0x3d26ff75	0.040770967
56	0xbed154c8	-0.40884995
57	0x3eb51ed8	0.35375094
58	0xbec0801f	-0.3759775
59	0x3f227828	0.63464594
60	0xbe27ba3d	-0.16379638
61	0xbd376f5c	-0.044783935
62	0xbf8ebaee	-1.1150796
63	0xbeda8993	-0.42683086
64	0xbf4656e5	-0.7747634
65	0xbeaa0434	-0.33206332
66	0xbe3f74e1	-0.1869693
67	0xbec30a48	-0.3809378
68	0xbe8b3e7b	-0.27196106
69	0xbf2d4d28	-0.67695856
70	0xbe7668c9	-0.2406341
71	0x4001cda0	2.0281754
72	0x3d1f3661	0.03887022
73	0x3e831225	0.2559978
74	0x3ef38685	0.47563568
75	0x3ef5f378	0.48037314
76	0xbd88d8b0	-0.06681955
77	0xbe64d358	-0.22346246
78	0xbf7316b2	-0.94956505
79	0xbf364740	-0.7120247
80	0x3e8515de	0.25993246
81	0x3e761e47	0.24034987
82	0x3ef147e3	0.47125158
83	0xbe6991b4	-0.22809488
84	0xbd01a22b	-0.031648796
85	0x3e5bfe85	0.2148381
86	0x3f39a147	0.72511715
87	0xbefd46f8	-0.49468207
88	0xbf551a14	-0.8324292
89	0x3ea70baf	0.326261
90	0x3f847d04	1.0350652
91	0x3db6acec	0.08919701
92	0xbdb2ea4b	-0.08736094
93	0x3d1a57c7	0.037681367
94	0xbd6c273c	-0.057654604
95	0x3eac69f0	0.33674574
96	0xbf8dec1d	-1.1087681
97	0xbfc2d12a	-1.5220082
98	0xbf5e8e9c	-0.86936355
99	0xbe964bc2	-0.29354674
100	0x3f2a8a25	0.6661704
101	0x3ee25150	0.44202662
102	0xbe9bbdc7	-0.30418226
103	0x3ea0aac8	0.31380296
104	0xbe7944fe	-0.24342725
105	0xbf436f67	-0.7634186
106	0xbf2608c8	-0.6485715
107	0xbfa65c42	-1.2996905
108	0xbe5416c3	-0.20711808
109	0x3e069639	0.13143243
110	0x3f2e973d	0.6819952
111	0xbea0f01a	-0.31433183
112	0xbeb517d7	-0.3536975
113	0xbe3df489	-0.18550314
114	0xbf236795	-0.6382993
115	0xbf774caf	-0.96601385
116	0x3fc749cf	1.55694
117	0x3e631147	0.2217456
118	0x3e57c549	0.21071352
119	0xbf926d6c	-1.1439643
120	0xbd4581d0	-0.048219502
121	0x3d8eedc6	0.069789454
122	0xbd00b6b4	-0.03142424
123	0xbf6e8bcc	-0.93182063
124	0xbef87acf	-0.48531196
125	0x3f8db50c	1.1070876
126	0xbf04f818	-0.5194106
127	0xbe7910c7	-0.24322806
128	0xbf5aed4b	-0.8551833
129	0x3e5d7730	0.21627498
130	0x3f1224f5	0.5708764
131	0x3f2279d9	0.63467175
132	0xbf0d9fd8	-0.5532203
133	0xbf12a236	-0.57278764
134	0x3f9d61c7	1.2295464
135	0xbe96652c	-0.29374063
136	0x3df7aa08	0.12092978
137	0xbdbd8790	-0.09254372
138	0x3f5d7728	0.86509943
139	0x3e8b72be	0.2723598
140	0x3e8f5fb1	0.28002694
141	0xbef9d67c	-0.4879645
142	0xbef23b5a	-0.47310907
143	0xbf85edb9	-1.0463172
144	0x3f928ab0	1.1448574
145	0x3df6e868	0.12056047
146	0x3db53444	0.088478595
147	0xbe4c6c49	-0.19963183
148	0x3e47c684	0.19509321
149	0x3e880f23	0.26574048
150	0xbf288040	-0.65820694
151	0xbf15394a	-0.5829054
152	0xbf9c83c3	-1.222771
153	0xbe6a8404	-0.22901922
154	0x3f2f03af	0.68364996
155	0xbef6f861	-0.48236373
156	0x3db50dbb	0.088405095
157	0xbf4e8c9a	-0.8068329
158	0xbe166a47	-0.14688979
159	0xbf2f72b6	-0.6853441
160	0xbea4a2a7	-0.32155344
161	0x3fc01298	1.5005674
162	0x3d837b60	0.06420016
163	0xbeaa4bf0	-0.3326106
164	0x3f589ed8	0.84617376
165	0x3d80e480	0.06293583
166	0x3a9a8050	0.0011787508
167	0x3dce9e7f	0.100888245
168	0xbf224e33	-0.6340057
169	0xbf2ea566	-0.6822113
170	0x3ff9c920	1.9514503
171	0xbf8a1012	-1.0786154
172	0x3f06a015	0.52588016
173	0x3cb655e3	0.02225775
174	0xbdde508c	-0.10855207
175	0xbcc663b1	-0.024217458
176	0x3e77a785	0.24184997
177	0xbf3534cc	-0.70783687
178	0xbed80ff2	-0.42199665
179	0x3fa3c9c8	1.2795954
180	0xbefaa2fe	-0.48952478
181	0xbf784613	-0.96981925
182	0xbf019b66	-0.50627744
183	0x3ed89de8	0.42307973
184	0x3d51c6b6	0.051214896
185	0xbd168cb4	-0.03675528
186	0xbf05939f	-0.52178377
187	0xbf12e160	-0.57375145
188	0x3f6cbbee	0.9247426
189	0xbb5c4b90	-0.0033614375
190	0xbe97ca47	-0.29646513
191	0x3f3c41cd	0.73537904
192	0xbe0ab32d	-0.13544913
193	0x3f3840d9	0.7197395
194	0xbeb237c3	-0.34808168
195	0xbf13f98a	-0.5780264
196	0xbf07cd90	-0.5304804
197	0xbf0315f2	-0.5120536
198	0xbc852952	-0.016255055
199	0x3f5f19d0	0.8714876
200	0x3ecc4c23	0.39901838
201	0xbda1dbca	-0.079032496
202	0xbe038064	-0.12841946
203	0x3d0c5545	0.034261007
204	0xbdbfb53d	-0.0936074
205	0xbf091e03	-0.5356142
206	0xc03a3265	-2.9093258
207	0x3c18d376	0.00932776
208	0x3f7f141a	0.9964005
209	0xbe21be32	-0.1579521
210	0xbef9f69e	-0.48820966
211	0xbe52a378	-0.20570171
212	0xbc94129f	-0.018075285
213	0xbf09b181	-0.53786474
214	0xbe364049	-0.1779796
215	0xbfa3fef2	-1.2812178
216	0xbe262e00	-0.16228485
217	0xbf5294d1	-0.82258326
218	0x3efa08cc	0.48834836
219	0x3ea56de8	0.32310414
220	0xbebe25b6	-0.37138146
221	0xbe09f2a1	-0.13471462
222	0xbf200ee0	-0.625227
223	0xbf650932	-0.89467156
224	0xbfd6625a	-1.6748765
225	0x3eba88af	0.36432406
226	0xbe902968	-0.2815659
227	0xbf1fceb0	-0.62424755
228	0xbae34aca	-0.0017341014
229	0xbd7c777d	-0.06163739
230	0x3db48e90	0.08816254
231	0xbef8fb12	-0.4862905
232	0xbf012757	-0.5045065
233	0xbf8f6c63	-1.1204952
234	0xbf8adb13	-1.0848106
235	0xbee01117	-0.4376304
236	0xbe1bf173	-0.15228824
237	0xbe1c229b	-0.15247576
238	0x3ca7d70f	0.02048829
239	0x3ebc89ca	0.36823875
240	0xbf54feca	-0.8320128
241	0xbf8d20bc	-1.1025615
242	0xbe9984c9	-0.2998412
243	0x3f1fca48	0.6241803
244	0xbe500ae0	-0.20316648
245	0x3f228dca	0.634976
246	0xbe1aa7da	-0.15103093
247	0xbf30a9d5	-0.69009143
248	0xbc259d42	-0.010108294
249	0xbf47189c	-0.77771926
250	0xbf64a5ab	-0.8931529
251	0x3fa711a1	1.3052255
252	0x3f0b7294	0.5447171
253	0xbeec0fd6	-0.46105832
254	0x3eaa34ed	0.33243504
255	0xbec8f8f3	-0.39252433

encoder.0.bias f4 [128]
0	0xbe6dcf66	-0.23223647
1	0xbe965ba7	-0.293668
2	0x3e2a2a7e	0.16617772
3	0xbf32346f	-0.6961126
4	0xbecf2cb2	-0.40463787
5	0xbe92832c	-0.286157
6	0xbe19ab59	-0.1500677
7	0xbf22a6fd	-0.63536054
8	0xbf699a3a	-0.91250956
9	0xbf0eff0b	-0.55857915
10	0xbf82ce62	-1.0219233
11	0xbf1dcb33	-0.6163818
12	0xbf1e13b5	-0.6174882
13	0xbef28f39	-0.47374895
14	0xbf3d851e	-0.74031246
15	0xbc2e8273	-0.010651219
16	0xbf104e0e	-0.563691
17	0xbf3e7755	-0.74400836
18	0xbf11d5f3	-0.56967086
19	0xbf5ca031	-0.8618193
20	0xbf6a429d	-0.91507894
21	0xbf0fe8c0	-0.56214523
22	0xbea06c25	-0.31332508
23	0xbeaa99e6	-0.3332054
24	0xbf1c29bb	-0.61001176
25	0xbee95b93	-0.45577678
26	0xbf86e1a4	-1.053761
27	0xbf231b8e	-0.6371392
28	0xbf114adb	-0.56754845
29	0xbec59491	-0.3858991
30	0xbf33efeb	-0.7028796
31	0xbe07e230	-0.13269877
32	0xbf2ef3bb	-0.68340653
33	0x3dea684b	0.114456736
34	0xbf0105b4	-0.5039933
35	0xbf4c413c	-0.7978704
36	0xbf185ec5	-0.59519607
37	0xbf538e4b	-0.82638997
38	0xbf1e6d8d	-0.6188591
39	0xbf3ffab2	-0.74991906
40	0xbe48b861	-0.19601585
41	0xbf35e154	-0.7104695
42	0xbf270a93	-0.6525051
43	0xbf4fbb5b	-0.81145257
44	0xbf1e512a	-0.61842597
45	0xbf43f80f	-0.7655038
46	0xbf8918b5	-1.0710665
47	0xbf2be6f1	-0.67149264
48	0xbe052989	-0.13004126
49	0xbe87aa0b	-0.2649692
50	0xbf269ef9	-0.65086323
51	0xbf4d8178	-0.8027568
52	0xbf00294a	-0.50063
53	0xbe9c1903	-0.30487832
54	0x3d02ab92	0.031901903
55	0xbf3af958	-0.7303672
56	0xbf27dab2	-0.6556808
57	0xbf397777	-0.72447914
58	0xbf598dfc	-0.84982276
59	0xbf62ee5e	-0.8864497
60	0xbeda726d	-0.42665425
61	0xbf046957	-0.51723236
62	0xbf66c459	-0.9014335
63	0xbf6f7575	-0.935386
64	0xbf11d937	-0.5697207
65	0xbf224062	-0.6337949
66	0xbf148ab6	-0.58024156
67	0xbf063acf	-0.52433485
68	0xbef293c0	-0.4737835
69	0xbf3fc774	-0.74913716
70	0xbf6c4714	-0.92295957
71	0xbf85582b	-1.0417532
72	0xbf038f1c	-0.5139024
73	0xbf4a1d44	-0.78950906
74	0xbf0c42a3	-0.5478918
75	0xbf3376d0	-0.7010317
76	0xbe1663ba	-0.1468648
77	0xbef39303	-0.475731
78	0x3d168460	0.036747336
79	0xbf412c00	-0.75457764
80	0xbf1c0536	-0.6094545
81	0xbf555cd1	-0.8334475
82	0xbdab081c	-0.08351156
83	0xbf187bda	-0.5956398
84	0xbf320a6e	-0.69547164
85	0xbedebf5d	-0.43505374
86	0xbed6138a	-0.41811782
87	0xbf220b2c	-0.63298297
88	0xbf8275cb	-1.0192198
89	0xbee73040	-0.45154
90	0xbf4c3898	-0.79773855
91	0xbf13da5a	-0.57755053
92	0xbe9ee305	-0.31032577
93	0xbf28a5b4	-0.6587784
94	0xbec9bf4f	-0.3940377
95	0xbf5c4de2	-0.8605634
96	0xbee3d78f	-0.44500396
97	0xbf1ef473	-0.6209175
98	0xbf5e2563	-0.867758
99	0xbf2318e0	-0.6370983
100	0xbe869490	-0.2628522
101	0xbf336a7c	-0.7008436
102	0xbf10fe14	-0.5663769
103	0xbe9cf9f0	-0.30659437
104	0xbf2a763b	-0.66586655
105	0xbf265460	-0.64972496
106	0xbf12da81	-0.5736466
107	0xbefd04df	-0.4941778
108	0xbf31abca	-0.69402754
109	0xbf2f7332	-0.6853515
110	0xbeeb4855	-0.45953622
111	0xbf1fb64e	-0.6238755
112	0xbf1572a8	-0.58378077
113	0xbf005d3a	-0.5014225
114	0xbf7364fa	-0.95075953
115	0xbeeedd1b	-0.46653065
116	0xbf201591	-0.6253291
117	0xbe869904	-0.26288617
118	0xbf095a61	-0.5365353
119	0xbf3b2365	-0.7310088
120	0xbeabe0bb	-0.33569893
121	0xbed0f574	-0.40812266
122	0xbf3a21aa	-0.7270762
123	0xbf1b444a	-0.60651076
124	0xbe819cc8	-0.25314927
125	0xbeac6bdd	-0.33676043
126	0xbf2fa2d0	-0.6860781
127	0xbf3ad5f9	-0.72982746

encoder.2.weight f4 [128, 128]
0	0xbe14b083	-0.14520459
1	0xbeacde8f	-0.3376355
2	0x3e69c84c	0.22830313
3	0x3f6a7536	0.915851
4	0xbdc0a181	-0.094058044
5	0x3ecd9e32	0.40159756
6	0x3f479ffb	0.77978486
7	0xbe93fbb7	-0.2890298
8	0xbf61e826	-0.88244855
9	0x3eb43dbf	0.3520336
10	0x3f5e9a2a	0.86953986
11	0x3cd010ef	0.0253987
12	0xbf09a496	-0.53766763
13	0x3daa39af	0.083117835
14	0xbf1a0f71	-0.6017981
15	0xbec5e0c1	-0.38648036
16	0x3f80777b	1.0036463
17	0x3f66bde2	0.9013349
18	0xc01d885a	-2.4614472
19	0x3f0d982a	0.5531031
20	0x3f7bfbf2	0.98431313
21	0x3d496717	0.04917058
22	0xbeb2363b	-0.34807
23	0xbd12b8ab	-0.035820644
24	0x3decf249	0.1156965
25	0xbeeb6186	-0.45972842
26	0x3e3946c5	0.18093403
27	0x3e563870	0.20919967
28	0x3f278dc5	0.654507
29	0xbf7d8e75	-0.990455
30	0xbf2381d8	-0.6387
31	0x3f446361	0.7671414
32	0xbe776008	-0.24157727
33	0x3e4d6537	0.20058142
34	0xbd1f916c	-0.038957044
35	0xbc0c5f37	-0.008567623
36	0xbe1670fa	-0.14691535
37	0xbf481597	-0.78157943
38	0xbfa4fe2b	-1.2890066
39	0xbf76b012	-0.9636241
40	0xbeb2d4de	-0.3492803
41	0x3ed0c999	0.40778807
42	0x3f677e8d	0.90427476
43	0xbdc60eba	-0.096707776
44	0x3ea556a6	0.3229267
45	0x3f5d06a7	0.86338276
46	0xbfb0e2ee	-1.3819253
47	0x3d9ff934	0.078112036
48	0x3f6ebdc3	0.93258303
49	0x3eb844bd	0.35989943
50	0x3ea3c46a	0.3198579
51	0xbef41743	-0.47673997
52	0x3e14288e	0.14468595
53	0x3e3e642a	0.18592897
54	0xbe1ae46e	-0.15126202
55	0x3e033420	0.12812853
56	0x3fe339d6	1.7752025
57	0x3f2adab8	0.6673999
58	0xbecaad8c	-0.3958553
59	0xbf22948f	-0.6350793
60	0x3e403064	0.1876846
61	0xbe353318	-0.17695272
62	0xbf8c4ed7	-1.096156
63	0xbefad634	-0.4899155
64	0xbe66a60c	-0.2252428
65	0xbb90802d	-0.004409811
66	0x3f2810a6	0.65650403
67	0x3f7a6bf1	0.97820956
68	0xbf7130be	-0.94215
69	0x3e833332	0.25624996
70	0x3fc98854	1.5744729
71	0x3e944d3c	0.28965175
72	0x3d93b841	0.07212878
73	0xbea96d0d	-0.33091012
74	0xbed37aa7	-0.41304514
75	0xbbf2f02c	-0.0074138846
76	0x3f23da45	0.6400493
77	0xbd51d97e	-0.051232807
78	0x3f25a44d	0.6470383
79	0xbee47834	-0.44622958
80	0xbd5116b7	-0.051047053
81	0x3cc7783a	0.02434932
82	0x3eae5df9	0.3405607
83	0x3ea34fdc	0.31896865
84	0xbe4b6f1a	-0.198666
85	0xbca15ea4	-0.019698448
86	0xbeb917fb	-0.36151108
87	0xbdcd2553	-0.10016885
88	0x3f652721	0.8951283
89	0xbe64dd4e	-0.22350046
90	0xbea5cb58	-0.323817
91	0xbfb7c0f0	-1.4355755
92	0x3ecc27d3	0.39874133
93	0x3efe0bc1	0.49618343
94	0x3ecf1404	0.40444958
95	0x3e3ef6b2	0.18648794
96	0x3ed2026a	0.41017467
97	0x3d35f210	0.044420302
98	0xbe002f60	-0.12518072
99	0xbf50b890	-0.8153162
100	0xbeb8ec50	-0.36117792
101	0x3d8e7398	0.069556415
102	0x3f65d10d	0.8977211
103	0x3f6cce2b	0.9250209
104	0xbf3169e5	-0.6930221
105	0xbf244154	-0.6416218
106	0xbdecb579	-0.11558051
107	0xbf113667	-0.56723636
108	0xbf4af6eb	-0.79283017
109	0xbf44e708	-0.76915026
110	0x3f478010	0.7792978
111	0x3c7ac642	0.015306057
112	0xbe6549c1	-0.22391416
113	0xbe9c7f99	-0.305661
114	0x3f668d82	0.90059674
115	0x3e15ee62	0.14641717
116	0x3f58d5d4	0.84701276
117	0xbca508ab	-0.020145735
118	0xbeedfaba	-0.46480352
119	0x3f67e056	0.90576684
120	0x3ed37e8e	0.4130749
121	0xbf24b2dd	-0.64335424
122	0x3f20bfef	0.6279287
123	0xbdfb3efa	-0.12267871
124	0xbe3779bd	-0.17917533
125	0x3da385bc	0.07984492
126	0x3e977362	0.29580218
127	0xbe8f477e	-0.27984232
128	0xbe83e18e	-0.25758022
129	0x3f26701e	0.6501483
130	0xbcfecc02	-0.031103138
131	0x3e0c7300	0.13715744
132	0x3f247ac6	0.6424984
133	0xbdac17a0	-0.084029436
134	0x3d2b2c67	0.041790392
135	0x3eafed7a	0.34360868
136	0xbdb0aa49	-0.08626229
137	0x3f16ccf9	0.58906513
138	0xbf864914	-1.0491052
139	0x3f2d7ed0	0.67771626
140	0xbf732edd	-0.9499338
141	0xbed6f66d	-0.41984883
142	0xbe95641c	-0.2917794
143	0x3c954c7b	0.018224945
144	0xbf6bcdc6	-0.9211086
145	0xbef7e260	-0.48414898
146	0xbf5cb332	-0.8621093
147	0xbfe0f18a	-1.7573712
148	0xbfdf4ad2	-1.7444708
149	0xbe8e6949	-0.278147
150	0x3f64c3db	0.8936135
151	0x3f0cea5f	0.5504512
152	0x3e9b9904	0.3039018
153	0x3e0cb7db	0.1374201
154	0xbe2e6e53	-0.17034273
155	0xbf2966c5	-0.6617244
156	0xbf8c0885	-1.09401
157	0x3f77f394	0.96856046
158	0xbf978037	-1.1836003
159	0x3eb8051d	0.359414
160	0x3fb23325	1.3921858
161	0xbe9d306b	-0.30701002
162	0xbe2dfb90	-0.16990495
163	0xbef324d8	-0.47489047
164	0x3fc293b2	1.5201323
165	0x3f3a60f8	0.7280421
166	0xbf9d1afd	-1.2273861
167	0xc015b322	-2.3390584
168	0xbd843ad4	-0.06456533
169	0x3f3bcdf6	0.73361146
170	0xbed46c4f	-0.41488883
171	0x3e5ea732	0.21743467
172	0xbf1444b8	-0.57917356
173	0x3e56bb23	0.20969824
174	0x3e1d5589	0.1536466
175	0xbf9f52bb	-1.2447122
176	0x3ecdf0ee	0.40222877
177	0xbe0230bf	-0.12713908
178	0x3e34f75c	0.17672485
179	0x3d30695a	0.04306922
180	0xbf216808	-0.63049364
181	0x3ef8d678	0.48601127
182	0x3dabd822	0.083908334
183	0x3efd95b4	0.49528277
184	0xbe21f81f	-0.15817307
185	0x3da55700	0.080732346
186	0xbf68e5b8	-0.90975523
187	0x3f8368dc	1.0266376
188	0x3e8e52d4	0.27797568
189	0x3ed3d0a7	0.41370127
190	0x3eb1c63c	0.34721553
191	0xbf95ae57	-1.1693829
192	0xbbaa5e13	-0.005199203
193	0x3eb90026	0.36132926
194	0x3f86ed3a	1.0541146
195	0x3ef76c41	0.4832478
196	0x3ea0943e	0.313631
197	0x3f170653	0.58994025
198	0x3f151e59	0.5824943
199	0x3f2526f3	0.64512557
200	0xbf6ef19f	-0.93337435
201	0xbc35cdb4	-0.011096407
202	0x3f9affc8	1.2109308
203	0xbe66325c	-0.22480148
204	0x3c9d6ab6	0.019215923
205	0x3f045bcb	0.51702565
206	0xbd18163f	-0.03713059
207	0x3f8303cd	1.0235535
208	0xbdc82a72	-0.09773721
209	0x3ddc1a22	0.10747172
210	0x3ec59038	0.38586593
211	0xbc8acdcb	-0.016943833
212	0x3f604481	0.8760453
213	0xbdede7d1	-0.11616481
214	0xbf31d9a1	-0.694727
215	0xbf3c02e7	-0.7344193
216	0xbf45640b	-0.7710578
217	0xbfaf0141	-1.3672258
218	0xbeb7719b	-0.35828862
219	0xbea0e2a3	-0.3142291
220	0xbf5232be	-0.82108676
221	0x3ed76eee	0.4207682
222	0xbdfb6da7	-0.12276774
223	0x3f87f698	1.062213
224	0xbe5223ac	-0.2052142
225	0x3cdd5fde	0.027023252
226	0x40737b20	3.80439
227	0xbe996c0f	-0.29965255
228	0x3eed0abb	0.4629725
229	0xbed1ef7b	-0.41003022
230	0xbf1c5168	-0.61061716
231	0xbe659d64	-0.22423321
232	0xbe1a265d	-0.15053697
233	0x3f0c6782	0.5484544
234	0xbeb333c9	-0.35000446
235	0xbb806746	-0.003918561
236	0xbef2d030	-0.4742446
237	0x3f90b5a9	1.1305438
238	0xbfa06828	-1.2531786
239	0xbede3fb1	-0.43407968
240	0xbe3e8708	-0.18606198
241	0xbf9811de	-1.1880453
242	0xbf7a0c88	-0.9767537
243	0xbeea0aa9	-0.45711258
244	0x3e3e69bb	0.1859502
245	0x3edf15b2	0.4357124
246	0x3e9f3359	0.31093863
247	0xbdc9c719	-0.09852428
248	0x3ed48408	0.41506982
249	0x3fae892e	1.3635614
250	0x3f0e78b1	0.5565291
251	0x3f32604c	0.6967819
252	0x3e76a6bd	0.24087043
253	0x3e63de35	0.22252734
254	0xbf836ce4	-1.0267606
255	0xbf6c5340	-0.9231453

encoder.2.bias f4 [128]
0	0xbf22126e	-0.6330937
1	0xbdfc1827	-0.12309294
2	0xbe2d4c1d	-0.16923566
3	0xbd3d0e77	-0.046156373
4	0xbe74f633	-0.23922043
5	0x3ec0a978	0.37629294
6	0xbdab5911	-0.083665974
7	0x3bce2130	0.0062905774
8	0x3f2d3a81	0.67667395
9	0x3e69884c	0.228059
10	0xbefeee9b	-0.49791417
11	0x3e97502a	0.29553348
12	0x3e9bbe27	0.30418512
13	0xbe14cff9	-0.1453246
14	0x3e3f9791	0.18710162
15	0x3e43c996	0.19119868
16	0xbe8811fe	-0.26576227
17	0x3eed2f21	0.4632502
18	0x3f1d8e08	0.6154485
19	0x3ecf53c0	0.40493584
20	0xbe122259	-0.14270915
21	0xbdf20e38	-0.11819118
22	0x3eccd151	0.40003446
23	0xbc864b3e	-0.0163933
24	0xbe066f8e	-0.13128492
25	0x3e2b0e37	0.16704641
26	0x3e0d393b	0.13791363
27	0xbe88bc6e	-0.2670626
28	0xbe302aca	-0.17203823
29	0xbe32c9ba	-0.17459765
30	0x3be578b7	0.0070029157
31	0xbe8e7d93	-0.2783018
32	0xbecf44e2	-0.4048224
33	0xbe362792	-0.17788532
34	0xbe0adcdc	-0.13560814
35	0x3c77dffc	0.015129086
36	0xbe17e1ac	-0.1483218
37	0xbebc0b91	-0.36727574
38	0xbeba36bc	-0.36369884
39	0xbeb0322e	-0.34413284
40	0xbe851c2a	-0.2599805
41	0xbf07f9ea	-0.53115714
42	0x3e2ed47d	0.17073245
43	0x3ef7e6f0	0.4841838
44	0x3f980b44	1.1878438
45	0xbe18259c	-0.14858097
46	0xbd9b25d9	-0.07575578
47	0x3efaa5a6	0.48954505
48	0xbf3369ca	-0.70083296
49	0x3ed4d282	0.41566855
50	0xbe57373f	-0.21017168
51	0xbd0f5d16	-0.035000883
52	0xbed4aca2	-0.41537958
53	0xbe1cca11	-0.15311457
54	0xbdd55626	-0.10416822
55	0xbeded869	-0.43524483
56	0xbe9af485	-0.3026468
57	0xbea1b75d	-0.31585208
58	0x3e981397	0.29702446
59	0xbe022e81	-0.12713052
60	0xbf1bc14d	-0.6084183
61	0x3ed82ae0	0.4222021
62	0x3f268384	0.65044427
63	0xbe47c32a	-0.19508043
64	0xbd5c5dfc	-0.053800568
65	0x3ea5c7ee	0.32379097
66	0xbea726ad	-0.32646695
67	0x3f19b5fc	0.6004331
68	0xbec93c3c	-0.39303768
69	0xbeb248c4	-0.3482114
70	0xbe6ae3b2	-0.22938421
71	0x3ef5ce01	0.4800873
72	0xbdb68708	-0.08912474
73	0x3eab653c	0.33475673
74	0xbdee8d03	-0.116479896
75	0x3e584ecb	0.21123807
76	0x3c910cb7	0.017706258
77	0x3e99644b	0.2995933
78	0x3e83e161	0.25757888
79	0xbf167683	-0.58774585
80	0x3e0374bb	0.12837498
81	0xbdc811d0	-0.097690225
82	0x3d5e86d7	0.054327812
83	0xbed64c6b	-0.41855177
84	0x3e6a311c	0.22870296
85	0xbe81fd5f	-0.2538862
86	0x3ec1d862	0.378604
87	0x3a91a8f5	0.0011112975
88	0xbf4aaf84	-0.79174066
89	0x3de645c0	0.112437725
90	0x3e957161	0.29188064
91	0xbcc5bdeb	-0.024138412
92	0xbeec0cd7	-0.46103546
93	0xbdf4788b	-0.11937054
94	0x3e062fe2	0.13104203
95	0x3dbdb2b6	0.09262602
96	0xbdba0610	-0.090831876
97	0x3e4ca214	0.19983703
98	0x3e00c180	0.12573814
99	0x3dd8c823	0.10585048
100	0xbe2f9a97	-0.17148815
101	0xbd1536ac	-0.036429092
102	0xbf2b0b61	-0.6681424
103	0x3ed8975f	0.42302987
104	0xbe13b07a	-0.14422789
105	0xbd5df3a5	-0.054187436
106	0x3d08d301	0.033404354
107	0xbde595e0	-0.11210227
108	0x3de9e649	0.114208765
109	0x3cfaae5e	0.030600723
110	0x3e729df2	0.23693064
111	0xbdbad602	-0.0912285
112	0xbce34cc7	-0.027746571
113	0xbe0de3e0	-0.13856459
114	0xbf15522b	-0.58328503
115	0xbd554aca	-0.052073278
116	0xbdb6643d	-0.08905838
117	0xbc979821	-0.018505158
118	0x3d5a9940	0.053368807
119	0x3b867dc4	0.004104348
120	0x3e3ddc9f	0.18541192
121	0xbe161e56	-0.1466001
122	0x3d5e0c2e	0.054210834
123	0x3e8a9f0e	0.27074474
124	0x3ea0d03a	0.31408864
125	0x3dac209a	0.08404656
126	0xbe3e261c	-0.18569225
127	0xbeb57875	-0.35443464

gnn_0.bias f4 [128]
0	0xbf1894f1	-0.59602267
1	0xbeba579d	-0.3639497
2	0xbe9ecef7	-0.31017277
3	0xbf4e3bbd	-0.80559903
4	0xbdcfb0a1	-0.10141111
5	0xbf0bc1ca	-0.54592574
6	0x3c36a1f4	0.011147011
7	0xbf8c52cf	-1.0962771
8	0xbfa72235	-1.3057314
9	0xbf4d1f97	-0.8012633
10	0xbfe74604	-1.8068242
11	0xbf656b32	-0.8961669
12	0xbf86450f	-1.0489825
13	0xbf373f76	-0.7158121
14	0xbf56cfae	-0.83910644
15	0xbe2f778d	-0.17135449
16	0xbe23785a	-0.15963879
17	0xbc217358	-0.00985416
18	0xc0050fac	-2.0790815
19	0x3e695f4e	0.22790262
20	0xbe8be652	-0.27324158
21	0xbfaad9d5	-1.3347727
22	0xbfa01065	-1.2505003
23	0xbeacd449	-0.3375571
24	0xbeb7e113	-0.35913906
25	0xbf761c6f	-0.96137136
26	0xbecad628	-0.39616513
27	0xbf832d96	-1.0248287
28	0xbedfb122	-0.4368983
29	0xbf72c044	-0.94824624
30	0x3ce6371f	0.028102456
31	0xbf75b5f9	-0.95980793
32	0xbf295f76	-0.66161287
33	0xbf862855	-1.0481058
34	0xbf7d902c	-0.99048114
35	0xbef3c7dc	-0.47613418
36	0x3f062527	0.5240044
37	0xbfa69e19	-1.3016998
38	0xbeac50e0	-0.33655453
39	0xbf22c8d8	-0.63587713
40	0xbf140e00	-0.5783386
41	0xbfa2713c	-1.2690806
42	0xbf4fa73c	-0.81114554
43	0x3e728825	0.23684748
44	0x3de06196	0.10956113
45	0xbf4dedf5	-0.8044122
46	0xbf86006a	-1.0468876
47	0xbf14bd4f	-0.5810136
48	0xbfa816d7	-1.313197
49	0xbf187578	-0.59554243
50	0xbee8c846	-0.45465297
51	0xbdecc274	-0.115605265
52	0xbf2683c4	-0.6504481
53	0xbf0f00ac	-0.558604
54	0xbf907fc7	-1.1288995
55	0xbf747ff3	-0.95507735
56	0xbeb626c1	-0.35576442
57	0x3e82cd5f	0.2554731
58	0xbfcb3b01	-1.5877382
59	0xbfb72527	-1.4308213
60	0xbf95002a	-1.1640675
61	0xbfc94677	-1.5724629
62	0xbf052659	-0.5201164
63	0xbf39fbef	-0.72650045
64	0x3dbcd080	0.09219456
65	0xbeabcc3c	-0.33554256
66	0xbf17309a	-0.59058535
67	0xbef7f633	-0.48430023
68	0xbf71371b	-0.9422471
69	0xbf5bc25a	-0.8584343
70	0xbf34b979	-0.7059551
71	0xbeaeedeb	-0.34165892
72	0xbf0dc877	-0.5538401
73	0xbfcc719a	-1.5972168
74	0xbe39b0b7	-0.18133818
75	0x3d58e050	0.052948296
76	0xbee14335	-0.43996587
77	0xbf7da4f8	-0.9907985
78	0xbfbfe90b	-1.4992994
79	0x3d8fc0d2	0.070191994
80	0xbf425e8c	-0.7592552
81	0xbcf11e15	-0.02943329
82	0xbe284dab	-0.16435878
83	0xbf856637	-1.0421818
84	0xbedfa4ac	-0.43680322
85	0xbde268bb	-0.11055132
86	0xbf7355a5	-0.9505256
87	0x3efda9ab	0.4954351
88	0xbf24a503	-0.6431429
89	0xbe198086	-0.14990434
90	0xbf20d934	-0.62831426
91	0xbecc083b	-0.3985003
92	0xbec12438	-0.37722945
93	0xbee9a988	-0.45637155
94	0x3dd9809a	0.10620232
95	0xbfcf0dbf	-1.617607
96	0xbead6e12	-0.3387304
97	0xbf1a44a0	-0.60260963
98	0x3e1de3bd	0.15418907
99	0xbf050fa2	-0.5197698
100	0xbf82377a	-1.017318
101	0xbf5ae4ae	-0.8550519
102	0xbf296a55	-0.66177875
103	0xbf41bb80	-0.7567673
104	0xbefe118a	-0.49622756
105	0xbf104a47	-0.5636334
106	0xbec492cd	-0.3839325
107	0xbfcb2a66	-1.5872314
108	0xbf5c1265	-0.8596557
109	0xbf02886b	-0.5098941
110	0xbf75e2ce	-0.960492
111	0xbbf2eccb	-0.007413482
112	0xbf62b382	-0.8855516
113	0xbf57ad9a	-0.8424927
114	0xbf01c66c	-0.5069339
115	0xbe6fec30	-0.23429942
116	0x3cd236c1	0.025660874
117	0xbe299ea3	-0.16564421
118	0xbf09001e	-0.53515804
119	0xbf2d848a	-0.67780364
120	0xbf0cbf91	-0.5497981
121	0xbf7cc726	-0.98741376
122	0xbe662e4d	-0.224786
123	0xbed49078	-0.4151647
124	0xbec246fa	-0.37944776
125	0xbf9d3b11	-1.2283651
126	0xbfa94a78	-1.3225851
127	0xbf8f47b3	-1.1193756

gnn_0.lin.weight f4 [128, 128]
0	0xbf0a9778	-0.5413737
1	0x3d8b6cbf	0.06807851
2	0xbfa61e6c	-1.2978034
3	0xbd981036	-0.07424967
4	0x3f5dfaea	0.8671099
5	0xbf51337e	-0.81719196
6	0x3d89a17a	0.06720252
7	0x3ed63250	0.4183526
8	0xbe2027dc	-0.15640205
9	0x3ec3f5da	0.38273507
10	0xbeb0f055	-0.3455836
11	0xbf8a6aa8	-1.0813799
12	0x3f3b2b99	0.731134
13	0xbeabbd7b	-0.33543
14	0xbec5aa8b	-0.38606676
15	0xbf2c0b2e	-0.6720456
16	0x3e934953	0.2876688
17	0xbed86a7f	-0.4226875
18	0x3ed2d2d4	0.41176474
19	0x3fa26f64	1.2690244
20	0xbe54a4d7	-0.20766006
21	0xbe4a46a1	-0.19753505
22	0xbe5ca9af	-0.21549104
23	0xbf197b4c	-0.5995376
24	0x3f24ccc2	0.64374936
25	0xbf24b9b6	-0.6434587
26	0x3f2be501	0.6714631
27	0xbd6c1ff1	-0.05764765
28	0xbf26646a	-0.6499697
29	0x3ed543e0	0.41653347
30	0x3e232d83	0.1593533
31	0xbe608d0d	-0.21928807
32	0x3edb380c	0.42816198
33	0xbe953a32	-0.29145962
34	0xbecbf4fa	-0.3983534
35	0x3e35b1f5	0.17743666
36	0xbf1ffeda	-0.6249825
37	0xbe47fd04	-0.19530112
38	0xbeeca634	-0.46220553
39	0x3e3af521	0.18257572
40	0x3f290e20	0.6603718
41	0xbe75d2b7	-0.24006163
42	0xbeaf8f04	-0.342888
43	0x3dd1e583	0.10248854
44	0xbebd410c	-0.3696369
45	0xbf014ae1	-0.5050488
46	0xbe9e6053	-0.30932865
47	0xbd28c153	-0.041199993
48	0xbb0bd112	-0.0021334332
49	0x3ec86af5	0.39144102
50	0x3fb4781d	1.4099156
51	0xbf10d977	-0.56581825
52	0x3e875585	0.26432434
53	0x3f0dffee	0.5546864
54	0xbe2bb479	-0.16768064
55	0xbe63836f	-0.22218107
56	0x3e3f9621	0.18709613
57	0x3cf23815	0.029567758
58	0xbebc6588	-0.36796212
59	0x3e996f65	0.299678
60	0x3e9d6fc4	0.30749333
61	0x3fa814eb	1.3131384
62	0xbe2d64c8	-0.16932976
63	0x3d7b0e96	0.061293207
64	0xbe173526	-0.14766368
65	0xbe887051	-0.2664819
66	0x3efd3873	0.4945713
67	0x3e526194	0.20545036
68	0xbf4ad356	-0.79228723
69	0xbe962106	-0.2932207
70	0xbe84aa7a	-0.25911313
71	0x3f28f830	0.66003704
72	0x3d52e3a1	0.051486615
73	0xbd5803ee	-0.052738123
74	0x3f588497	0.84577316
75	0xbe8aa8fa	-0.27082044
76	0xbed2bbc4	-0.4115888
77	0xbefedea7	-0.49779245
78	0x3efb5bad	0.4909338
79	0xbee71f47	-0.4514105
80	0xbeac70ca	-0.336798
81	0x3e9ef4d7	0.31046173
82	0xbf38a5ec	-0.72128177
83	0xbf17ba5a	-0.59268725
84	0xbe1bd0c2	-0.15216354
85	0xbbdbec14	-0.0067114923
86	0xbda4508e	-0.08023177
87	0xbed172f5	-0.40908018
88	0xbf25eec3	-0.64817446
89	0xbf3c61eb	-0.7358691
90	0x3ebf20a8	0.37329602
91	0x3e34a0b8	0.17639434
92	0xbebebdb3	-0.37254104
93	0x3e4e90aa	0.20172372
94	0xbef99e46	-0.48753566
95	0x3f073abc	0.52823997
96	0x3f155a4f	0.58340925
97	0xbc304cb6	-0.010760477
98	0xbf82b720	-1.0212135
99	0x3d336193	0.043794226
100	0x3e534a83	0.20633893
101	0x3edeb3af	0.43496463
102	0x3f01c561	0.506918
103	0x3ed627a8	0.4182713
104	0x3f6c13cd	0.92217714
105	0x3ea5f741	0.32415202
106	0xbe6e1bfe	-0.23252866
107	0xbe2f4df0	-0.17119575
108	0x3fc8f110	1.5698566
109	0x3d7bdb5f	0.061488505
110	0xbdbfc51a	-0.09363766
111	0xbf0bb3a5	-0.5457099
112	0x3f874645	1.056832
113	0xbe6c97ce	-0.23104784
114	0x3ff285bb	1.8947061
115	0xbf31ce6b	-0.69455594
116	0xbd84b167	-0.06479149
117	0x3e75f90b	0.24020784
118	0x3c52d071	0.012867079
119	0x3e92cc49	0.28671482
120	0x3f569148	0.8381543
121	0x3d75cfb7	0.060012545
122	0xbe3f2ba0	-0.18668985
123	0xbea7fea6	-0.3281147
124	0xbe3a16bd	-0.18172736
125	0x3e13c50d	0.14430638
126	0xbed35555	-0.4127604
127	0x3f31490e	0.692521
128	0xbd8938db	-0.067002974
129	0x3c6038cd	0.013685417
130	0x3c04a8bc	0.00809687
131	0x3d582cd5	0.05277713
132	0x3dd9c12b	0.10632547
133	0xbe2f0169	-0.17090382
134	0xbdd1adc3	-0.102382205
135	0xbc82278b	-0.015887996
136	0xbbb42a77	-0.0054982263
137	0x3d05dcf2	0.032681413
138	0xbd953ea7	-0.072873406
139	0xbe210d8e	-0.15727827
140	0xbdf5591a	-0.119798854
141	0x3dd5c972	0.10438813
142	0x3d678edd	0.05653273
143	0xbe57419e	-0.21021125
144	0x3db5fcfd	0.08886144
145	0x3e2dafe4	0.16961628
146	0x3beb567d	0.007181941
147	0xbc15d8fe	-0.009145973
148	0xbe1a56bf	-0.15072154
149	0x3c5f9080	0.013645291
150	0xbcc8a36a	-0.024491984
151	0xbce2a292	-0.02766541
152	0xbe0435f0	-0.129112
153	0x3d9d99fd	0.076953866
154	0xbc1e3e85	-0.0096584605
155	0x3ca6780d	0.020320917
156	0xbde9673c	-0.113966435
157	0xbdc7b457	-0.09751194
158	0x3e063377	0.1310557
159	0xbe4a1e41	-0.19738103
160	0xbd1a44cf	-0.037663277
161	0xbe050a58	-0.12992227
162	0x3e077b60	0.13230658
163	0xbe881663	-0.2657958
164	0xbdbc6183	-0.091982864
165	0x3e8ce22b	0.27516302
166	0x3e1aabd9	0.15104617
167	0x3e1a5941	0.1507311
168	0xbd6dbbb3	-0.058040332
169	0x3e29c158	0.16577661
170	0x3e4339b5	0.19064982
171	0x3dd1da27	0.102466874
172	0x3cd67d67	0.026182843
173	0x3e4309dc	0.1904673
174	0x3ddbba6c	0.107289165
175	0xbe0ebb18	-0.13938558
176	0x3e37c2e2	0.17945436
177	0xbe7cafda	-0.24676457
178	0xbcbfe935	-0.023426631
179	0x3d5db862	0.05413092
180	0xbd218025	-0.03942885
181	0x3d6374d7	0.05553135
182	0x3e03871c	0.12844509
183	0xbcbd1e7a	-0.023085821
184	0xbd1f34fa	-0.03886888
185	0x3e135e53	0.1439145
186	0xbd843dc6	-0.06457095
187	0x3ddbd7c2	0.10734512
188	0x3e262efb	0.16228859
189	0xbd6975e2	-0.056997187
190	0xbd0e4545	-0.03473403
191	0x3ea22fee	0.31677192
192	0xbce5ec0a	-0.028066654
193	0x3e7510a1	0.23932125
194	0x3c6ae559	0.014336907
195	0xbe292f74	-0.16522008
196	0xbdacc052	-0.0843512
197	0xbe5564e7	-0.20839272
198	0x39262c1c	0.00015847426
199	0x3c1cba22	0.009565862
200	0xbd1cf7f6	-0.03832241
201	0xbcf64636	-0.030062776
202	0xbd8ae475	-0.06781856
203	0xbe4b271f	-0.19839142
204	0xbdd80a97	-0.10548895
205	0xbdb149ff	-0.08656692
206	0x3e51511d	0.20441099
207	0xbe0a9119	-0.13531913
208	0x3dd71271	0.10501564
209	0xbcde3e7c	-0.027129404
210	0x3d417bb9	0.04723713
211	0xbda3be29	-0.079952545
212	0x3eb291bb	0.3487681
213	0x3e111c88	0.1417104
214	0xbe0519af	-0.12998079
215	0xbd0259e4	-0.031824008
216	0xbe538da2	-0.20659497
217	0xbdde8ab3	-0.108662985
218	0x3cbae138	0.02281247
219	0x3e04e489	0.12977804
220	0xbe22ec26	-0.15910396
221	0x3c6c189a	0.014410162
222	0xbd931afd	-0.07182882
223	0x3e9d69d0	0.3074479
224	0x3e2b6150	0.1673634
225	0xbc8228f6	-0.015888672
226	0x3e72e0b3	0.23718528
227	0x3c723dd8	0.0147852525
228	0x3d8608e8	0.065446675
229	0xbde4071e	-0.1113417
230	0x3e2c65df	0.16835736
231	0x3cb77da8	0.022398785
232	0xbe1ac14e	-0.15112802
233	0xbd07ba73	-0.033136796
234	0xbd78b804	-0.060722366
235	0xbd8f5b33	-0.06999817
236	0x3ec097a7	0.37615702
237	0xbe10f922	-0.14157537
238	0x3dbf6aed	0.09346566
239	0x3c9435f1	0.018092128
240	0xbcb00e08	-0.021491066
241	0xbc7a301a	-0.015270257
242	0x3e7c5218	0.24640691
243	0x3caacb89	0.020849006
244	0xbdcfc701	-0.10145379
245	0xbc963568	-0.018336013
246	0x3dadea7b	0.08491989
247	0xbe19210c	-0.14954013
248	0xbd9cba3b	-0.07652708
249	0x3d8b88cd	0.06813202
250	0x3df9d069	0.12197954
251	0x3e3decb2	0.18547323
252	0xbe5e0e96	-0.21685252
253	0xbdfc6a7e	-0.12324999
254	0x3dbaea0b	0.091266714
255	0x3da3eed3	0.080045365

gnn_1.bias f4 [128]
0	0x3f94dbe8	1.162961
1	0x3de40cb1	0.11135233
2	0xbf5403ec	-0.82818484
3	0x3ea6918d	0.3253292
4	0xbd4c52db	-0.049883705
5	0x3e87daf6	0.2653424
6	0x3f7ea0f8	0.9946437
7	0xbf94ae1d	-1.1615635
8	0xbf8174cc	-1.0113769
9	0xbf51f1c0	-0.82009506
10	0xbf158019	-0.58398587
11	0x3d29caca	0.04145316
12	0xbf610e56	-0.879125
13	0xbe4338b0	-0.19064593
14	0xbf71fcf1	-0.9452658
15	0x3f6ee264	0.93314195
16	0xbf5d95cf	-0.86556715
17	0xbec6620a	-0.38746673
18	0x3f7daa96	0.9908842
19	0x3fbbffc5	1.468743
20	0xbf83f12d	-1.0307976
21	0xbdbe42fa	-0.092901185
22	0xbedfe88c	-0.43732107
23	0x3f91bb08	1.1385202
24	0x3f75018f	0.95705503
25	0xbe2250c1	-0.15851118
26	0x3efbf62e	0.49211258
27	0x3f16ddff	0.5893249
28	0x3de892d9	0.11356134
29	0xbc2f08e2	-0.01068327
30	0xbf025206	-0.5090641
31	0xbf460542	-0.7735177
32	0xbea9896a	-0.3311265
33	0x3e23834e	0.15968058
34	0xbed3b7eb	-0.41351256
35	0xbf9eb0e5	-1.2397734
36	0xbf6d8f38	-0.9279666
37	0xbe72ca1d	-0.23709913
38	0x3dee7bc5	0.11644701
39	0x3b345289	0.0027515015
40	0x3e87abbc	0.2649821
41	0xbf1696ad	-0.58823663
42	0xbf9e0c5e	-1.2347524
43	0x3e936f69	0.28795937
44	0xbfd6e0f1	-1.6787397
45	0x3f1a85ac	0.6036022
46	0x3fc310f9	1.5239555
47	0x3eb2f092	0.34949166
48	0xbf01cd54	-0.5070393
49	0x3eb90ca1	0.36142448
50	0xbfa9fc6e	-1.328016
51	0x3e9bc5af	0.30424258
52	0xbe8dc679	-0.27690485
53	0x3fbb185b	1.4616808
54	0xbf4b4705	-0.7940524
55	0x3ed6cf96	0.4195525
56	0x3e931b47	0.28731748
57	0xbfadd3fc	-1.3580317
58	0xbeb69793	-0.35662517
59	0xbe8d16e5	-0.2755653
60	0xbf7d7eda	-0.99021685
61	0x3f151b20	0.58244514
62	0xbfa2ff8e	-1.2734239
63	0x3ef28a3b	0.47371086
64	0xc00c2bfd	-2.1901848
65	0x3ecbbe6e	0.39793724
66	0xbf2eaea1	-0.6823521
67	0xbf0f6e75	-0.5602792
68	0x3ea3a071	0.31958345
69	0x3e5e45c5	0.21706302
70	0x402845e3	2.6292655
71	0xbf1ab81b	-0.6043717
72	0x3e99f57f	0.3007011
73	0x3f6aba5b	0.91690606
74	0x3f1f0fb3	0.6213333
75	0xbe95b888	-0.2924235
76	0xbcfddefd	-0.030990118
77	0xbeb8794a	-0.36030036
78	0xbca223f1	-0.019792529
79	0x3e7e9995	0.24863274
80	0xbefe1f08	-0.4963305
81	0xbee35e44	-0.44407856
82	0x3f47a859	0.77991253
83	0xbe89fa7c	-0.26948917
84	0xbf04f813	-0.5194103
85	0xbf7d86e0	-0.9903393
86	0x3fab85c1	1.3400193
87	0xbf41df52	-0.75731385
88	0x3f5b1bea	0.8558947
89	0x3e720c7b	0.23637573
90	0xbec23d6a	-0.3793748
91	0xbfa49008	-1.2856455
92	0x3f1ae289	0.60501915
93	0x3f4e540b	0.8059699
94	0xbe3b110a	-0.18268219
95	0x3ea8cddb	0.32969555
96	0xbd0afd8e	-0.033933215
97	0xbf959e55	-1.1688944
98	0x3e696489	0.22792257
99	0x3f4443c0	0.7666588
100	0xbed41e67	-0.41429445
101	0xbeca9886	-0.3956949
102	0xbd2eeab6	-0.042704307
103	0x3e1975f0	0.14986396
104	0xbf96da12	-1.17853
105	0xbf8b8272	-1.0899184
106	0xbf1cb160	-0.6120815
107	0xbf79e1c6	-0.9761013
108	0xbfea21d7	-1.8291577
109	0xbce0af19	-0.027427243
110	0x3f93f3f1	1.155882
111	0x3f079e5b	0.52976006
112	0xbea4754c	-0.3212074
113	0x3c7b35e6	0.015332675
114	0xbf360cf0	-0.7111349
115	0xbe263a9d	-0.16233297
116	0x3e74f77b	0.23922531
117	0xbebc0f54	-0.36730444
118	0xbe892013	-0.26782283
119	0xbf8918e7	-1.0710725
120	0x3f6d7076	0.92749727
121	0xbf90ea0d	-1.1321427
122	0x3e4b3763	0.19845347
123	0xbe87bc09	-0.26510647
124	0xbd80e79e	-0.062941775
125	0xbadfdb51	-0.0017078911
126	0x3e9d3a4f	0.30708548
127	0x3eff2359	0.49831656

gnn_1.lin.weight f4 [128, 128]
0	0x3e112677	0.1417483
1	0xbd737917	-0.059441652
2	0x3eb7a00e	0.358643
3	0x3e970f10	0.2950368
4	0xbddef72b	-0.10886987
5	0xbf588c08	-0.8458867
6	0x3e87809a	0.26465303
7	0x3ddaa1b3	0.10675373
8	0xbf5665ff	-0.83749384
9	0xbe8a85af	-0.27055117
10	0x3e00c8a5	0.1257654
11	0xbe6265cd	-0.22109146
12	0x3eaa909b	0.3331345
13	0x3eff587f	0.49872205
14	0xbd6f2488	-0.05838445
15	0xbed5ed97	-0.4178283
16	0xbe4f1e02	-0.20226291
17	0x3d9fc024	0.0780032
18	0xbb137f47	-0.0022506283
19	0x3d1fe43f	0.03903603
20	0xbf6870d0	-0.9079714
21	0x3eb4938c	0.3526882
22	0xbb87c29e	-0.004143073
23	0xbea73be3	-0.32662877
24	0xbd51078e	-0.051032595
25	0xbe09952f	-0.13435815
26	0x3f0725fd	0.5279234
27	0xbf986ed8	-1.1908827
28	0x3f54d361	0.8313504
29	0xbdf10d14	-0.117700726
30	0xbe837ad0	-0.25679636
31	0x3e6770b2	0.22601584
32	0xbda3caba	-0.079976514
33	0x3f1af883	0.6053545
34	0x3e3de6b6	0.1854504
35	0xbf72135b	-0.94560784
36	0x3d5f9a19	0.05459032
37	0x3b9cd44e	0.004786051
38	0xbefea5e4	-0.4973594
39	0x3e06074b	0.1308872
40	0xbf5f3896	-0.8719572
41	0x3e278c4b	0.16362111
42	0x3e9fff98	0.3124969
43	0x3eb3597e	0.35029215
44	0xbd7ee6b4	-0.062231734
45	0xbf208e88	-0.62717485
46	0x3ee48d7c	0.44639194
47	0x3e22d549	0.15901674
48	0xbf4c62b1	-0.7983809
49	0x3e0a2695	0.1349128
50	0x3cbd8270	0.023133487
51	0xbf10d688	-0.5657735
52	0xbea78912	-0.32721764
53	0xbf56b553	-0.8387043
54	0xbf8066aa	-1.003133
55	0x3f0934e2	0.5359632
56	0x3d6f07d3	0.05835707
57	0x3f003a6f	0.5008916
58	0xbf2b6bd4	-0.6696141
59	0x3edbc437	0.42923138
60	0xbe9d3977	-0.30707905
61	0x3f3ea51b	0.7447068
62	0xbe6c1bef	-0.23057531
63	0x3f4f263d	0.8091772
64	0x3d907603	0.07053759
65	0xbef54411	-0.47903493
66	0xbf92ff3e	-1.1484144
67	0xbe5cf3d5	-0.2157739
68	0xbf083d4f	-0.5321855
69	0x3f1e9e27	0.6196007
70	0x3f108f7e	0.5646895
71	0x3cf8dbd3	0.030378258
72	0x3eba02ff	0.3633041
73	0x3f18c8cc	0.5968139
74	0x3e163b7f	0.14671133
75	0xbf23a3ba	-0.639217
76	0xbf2e7725	-0.6815055
77	0xbe85667e	-0.26054758
78	0xbeeb5227	-0.45961115
79	0x3e4579bf	0.19284724
80	0x3c0baa7c	0.008524533
81	0x3d95f191	0.07321466
82	0xbe8a13ca	-0.26968223
83	0xbf3338f0	-0.70008755
84	0x3f8d399a	1.1033204
85	0xbea7d41f	-0.32779023
86	0x3e3e1aa6	0.18564853
87	0x3ef51cb7	0.4787347
88	0x3d0e6917	0.03476819
89	0x3e880354	0.2656504
90	0xbea76534	-0.326944
91	0xbbddc2ce	-0.0067676073
92	0xbe129dc7	-0.14318
93	0x3e75b1f7	0.2399367
94	0x3e34ea29	0.1766745
95	0x3eaf8776	0.34283036
96	0xbea68b98	-0.32528377
97	0x3fb269c8	1.3938532
98	0x3e01967c	0.12655061
99	0x3f5b22a3	0.85599726
100	0x3ebcfab2	0.36910015
101	0xbf3e9d18	-0.74458456
102	0x3e967e55	0.2939326
103	0x3ed424de	0.41434377
104	0xbb1333fd	-0.0022461407
105	0xbf073cca	-0.5282713
106	0xbe9c4662	-0.30522448
107	0x3c819cbe	0.01582181
108	0xbf22b98c	-0.6356437
109	0xbe4b45ac	-0.19850796
110	0x3f7bdd43	0.98384494
111	0x3c3d4cfc	0.011553999
112	0xbe90ae20	-0.28257847
113	0x3ef957df	0.48699853
114	0xbf45ed92	-0.7731563
115	0xbf61c154	-0.8818562
116	0xbe00a15f	-0.12561558
117	0x3ea99bdd	0.33126727
118	0x3c55926c	0.013035398
119	0xbe93f6cd	-0.28899232
120	0xbf5828d3	-0.8443729
121	0xbf1ad03b	-0.60473984
122	0x3f948356	1.160258
123	0x3e8aee20	0.271348
124	0xbec1ac22	-0.3782664
125	0x3db14ae3	0.08656862
126	0x3d9294cf	0.07157289
127	0x3e2b4d5d	0.1672873
128	0xbf8910e7	-1.0708283
129	0xbd6ba5c8	-0.05753115
130	0xbf275e2c	-0.6537807
131	0x3f532326	0.8247551
132	0x3df74c49	0.12075097
133	0xbcdcd21a	-0.026955653
134	0xbe960880	-0.2930336
135	0xbecd40af	-0.40088412
136	0x3ddeded7	0.10882347
137	0xbf9a8c09	-1.2073985
138	0xbf85dac2	-1.0457385
139	0x3df5fe09	0.12011344
140	0xc013bc1b	-2.308356
141	0xbf321165	-0.6955779
142	0x3f9129ff	1.1340941
143	0xbd7cfead	-0.061766315
144	0xbeb78be6	-0.35848922
145	0x3e7bfbb6	0.24607739
146	0xbf586b96	-0.84539163
147	0xbe9e6d5c	-0.3094281
148	0x3ebee023	0.37280378
149	0xbd10487a	-0.03522537
150	0xbf39de58	-0.72604895
151	0xbe128b47	-0.14310943
152	0x3d820074	0.06347743
153	0xbf809565	-1.0045592
154	0x3f90250f	1.1261309
155	0xbe9ea807	-0.3098757
156	0x3e66f9d4	0.2255624
157	0xbefe4823	-0.4966441
158	0x3d422eae	0.0474078
159	0x3f0b8d2b	0.5451228
160	0xbfc4052e	-1.5314081
161	0xbf7bdcbb	-0.9838368
162	0xbe1ff575	-0.15620978
163	0x3eb5b9f8	0.35493445
164	0xbd9073ad	-0.070533134
165	0xbf9ddef2	-1.2333663
166	0xbf71611f	-0.9428882
167	0xbf996e82	-1.1986849
168	0x3e5b92ce	0.2144272
169	0x3e8d5778	0.27605796
170	0xbecb08e8	-0.39655232
171	0xbe502f7b	-0.20330612
172	0xbf58dc57	-0.8471121
173	0xbf4345f1	-0.762786
174	0xbff5f07b	-1.9214014
175	0x3f6283e8	0.8848252
176	0x3dc806c9	0.09766919
177	0xbee277a7	-0.44231912
178	0xbebd8088	-0.37012124
179	0x3bc5afed	0.006032935
180	0x3e11735e	0.14204165
181	0x3de20592	0.11036219
182	0x3f5fe9b2	0.87465966
183	0x3f035521	0.5130177
184	0x3e2869ba	0.16446581
185	0x3f8d7b00	1.1053162
186	0xbead2b27	-0.33821985
187	0xbf719a8f	-0.9437646
188	0x3eb9b30e	0.3626942
189	0xbf578b55	-0.8419698
190	0xbf255d52	-0.6459552
191	0xbf6c57a8	-0.9232125
192	0xbed209ea	-0.4102319
193	0x3f82a7f3	1.0207504
194	0xbe9b0cab	-0.30283102
195	0xbf451424	-0.7698386
196	0xbf06bbc2	-0.52630246
197	0xbfa9cfee	-1.326658
198	0x3ef8b64b	0.48576578
199	0x3f0a9687	0.54135936
200	0xbf1236a4	-0.57114625
201	0x3f255ea1	0.6459752
202	0x3f368872	0.7130195
203	0xbfa87233	-1.3159851
204	0x3ddb4c10	0.10707867
205	0x3e89f76e	0.26946586
206	0xbde0ba50	-0.10973036
207	0x3dec2f5a	0.11532469
208	0xbf696905	-0.9117587
209	0xbe60947f	-0.21931647
210	0xbf085fa8	-0.5327096
211	0xbe6f115e	-0.23346469
212	0x3f0b13e1	0.5432721
213	0x3ebc9714	0.36834013
214	0xbe8a114c	-0.2696632
215	0xbd39083c	-0.04517387
216	0xbcaf0263	-0.021363443
217	0x3e5a54f6	0.21321473
218	0xbcf74ce7	-0.030188037
219	0x3f35c403	0.71002215
220	0x3f2b3879	0.66883045
221	0x3f0f920c	0.56082225
222	0xbea69d3c	-0.32541835
223	0xbf99d224	-1.2017255
224	0xbf29a3b2	-0.66265404
225	0xbd54cbab	-0.051952045
226	0xbf819e5a	-1.012645
227	0xbd05f7a4	-0.03270687
228	0x3ea031e6	0.3128807
229	0x3e3eff36	0.18652043
230	0xbd40b118	-0.04704389
231	0xbcd625b6	-0.026141029
232	0xbf144a4e	-0.5792588
233	0x3ee1a628	0.4407208
234	0x3e271ae6	0.16318855
235	0x3ea6eba4	0.32601655
236	0xbfa92a1f	-1.3215979
237	0xbe0e884b	-0.13919179
238	0xbf563576	-0.83675325
239	0x3f1d6d49	0.6149488
240	0xbe58ab78	-0.2115916
241	0xbde0df8b	-0.109801374
242	0x3e438f50	0.19097638
243	0xbe3821ab	-0.17981593
244	0x3ec2b54f	0.38028952
245	0xbf45d9d2	-0.7728549
246	0x3e55e9e6	0.20890006
247	0xbf0b3d47	-0.54390377
248	0xbe99f6a3	-0.3007098
249	0x3eccc28b	0.39992175
250	0xbf250291	-0.6445704
251	0x3f93a5f0	1.1535015
252	0x3f62af0a	0.8854834
253	0xbf01a647	-0.50644344
254	0x3f016bee	0.5055531
255	0xbe556f46	-0.20843229

gnn_2.bias f4 [128]
0	0xbf8b8b52	-1.0901892
1	0x3ec2e555	0.3806559
2	0xbec7e4b5	-0.39041677
3	0x3d8306e9	0.063978024
4	0xbf328f3d	-0.69749814
5	0xbeb87fb7	-0.3603494
6	0xbf4113a8	-0.7542062
7	0x3f25070c	0.6446388
8	0x40b962d7	5.7933154
9	0xbf9e3316	-1.235934
10	0x3f3a1a6a	0.72696555
11	0x3e1d2fe9	0.15350308
12	0xbe554328	-0.208264
13	0xbe82aaa2	-0.25520808
14	0xbec04cdb	-0.37558636
15	0xc060c1a1	-3.5118182
16	0xbf4b5f81	-0.794426
17	0xbf7fe4b4	-0.9995835
18	0x3e2180f2	0.15771845
19	0xbf14d4e0	-0.5813732
20	0xbda726d4	-0.08161703
21	0x3e001eaa	0.12511697
22	0xbfb294d1	-1.3951665
23	0xbf1d4b77	-0.61443275
24	0xbf4459f9	-0.7669979
25	0xbe7f65cd	-0.24941178
26	0x3f14cbde	0.58123577
27	0x3e2ced74	0.16887456
28	0xbf88c345	-1.0684592
29	0x3ec88792	0.39165932
30	0x3fb67b1e	1.4256322
31	0x3bcaf519	0.0061937687
32	0x3f16d656	0.589208
33	0x3ef8013e	0.48438448
34	0x3ed46476	0.41482896
35	0x3ea8ad6f	0.3294482
36	0x3eddd88f	0.43329284
37	0xbefe25a7	-0.496381
38	0x3fd56082	1.6670077
39	0x3f59d7a9	0.85094696
40	0xbcf5b4d1	-0.029993447
41	0x3ed6c0cc	0.41943967
42	0x3f1f8beb	0.6232287
43	0xbf0be49a	-0.54645693
44	0x3f85877c	1.0431972
45	0xbe09ed74	-0.13469487
46	0x3e375988	0.17905247
47	0x3c915cab	0.017744383
48	0x3f3bd7ce	0.73376167
49	0xbf34c65d	-0.7061518
50	0x3f264644	0.64950967
51	0x3f57a4f4	0.84236073
52	0x3e1af062	0.15130761
53	0x3e47aa62	0.1949859
54	0x3ed7e1e5	0.4216453
55	0x3eb44c36	0.35214394
56	0xbeea833b	-0.45803246
57	0xbf0a0f46	-0.53929555
58	0x3fa3da65	1.2801024
59	0x3d9c7cb5	0.076409735
60	0x3e4dc9ed	0.2009656
61	0xbdea4d03	-0.1144047
62	0xbf9b581d	-1.2136265
63	0xc02ea22b	-2.728648
64	0x3f4cc275	0.7998422
65	0x3e1d8053	0.15380983
66	0x3ef29e35	0.47386327
67	0x3c6f1acf	0.014593794
68	0x3f22cc4d	0.6359299
69	0xbd6cc4a9	-0.057804737
70	0xbe9c50c1	-0.3053036
71	0xbefa4c99	-0.48886564
72	0x3f2d11a3	0.67605036
73	0x3e87a245	0.2649099
74	0x3e8945f8	0.26811194
75	0x3e992e7c	0.29918277
76	0xbe97dec1	-0.29662135
77	0x3eb4d225	0.35316578
78	0x3f00c5d0	0.5030184
79	0x3e8233fe	0.25430292
80	0xbe8676c8	-0.26262498
81	0x3e33020a	0.17481247
82	0x3eec1761	0.46111587
83	0xbf830d2e	-1.0238397
84	0xbed05f53	-0.40697727
85	0x3fa153d6	1.260371
86	0xbf8c4272	-1.0957778
87	0x3f767bf9	0.9628292
88	0x3f91755d	1.1363941
89	0xbf19f407	-0.6013798
90	0x3e76d046	0.24102888
91	0xbe189902	-0.14902118
92	0xbf860b49	-1.0472194
93	0xbe02cbdf	-0.12773083
94	0xbe997341	-0.29970744
95	0xbd3dc1b0	-0.046327293
96	0xbeec624e	-0.4616875
97	0x3f248397	0.6426329
98	0xbe9cc52c	-0.3061918
99	0x3f2a9e21	0.66647536
100	0xbeefec1e	-0.4685983
101	0x3f9c77e7	1.2224091
102	0x3ed36bdc	0.41293228
103	0x3e1afbd7	0.15135132
104	0x3f08f123	0.53492945
105	0xc0011800	-2.0170898
106	0x3f18865a	0.59580004
107	0xbde4d439	-0.11173291
108	0xbedda31a	-0.432885
109	0x3e466c8f	0.1937735
110	0x3fa19f19	1.2626678
111	0x3eb9e987	0.3631098
112	0xbfa8fda2	-1.3202403
113	0x3f188336	0.5957521
114	0xbf075b0f	-0.5287332
115	0x3e60374c	0.21896094
116	0x3daa0453	0.08301606
117	0x401fe6fa	2.4984727
118	0x3ec9b9b5	0.39399496
119	0xbeed8aa3	-0.46394834
120	0xbe25b96b	-0.16184013
121	0x3e95073c	0.29107082
122	0x3f137a54	0.5760853
123	0x3e826256	0.2546565
124	0x3f34a8b0	0.70569897
125	0xbf282817	-0.6568617
126	0x3fcce23c	1.6006541
127	0x3f8332dc	1.0249896

gnn_2.lin.weight f4 [128, 128]
0	0xbf34e332	-0.7065917
1	0xbf5669a4	-0.83754945
2	0xba838612	-0.0010034463
3	0xbe12bd3b	-0.14329998
4	0xbf0a4d69	-0.5402437
5	0xbf7b7eec	-0.9824054
6	0xbf2edca9	-0.6830545
7	0xbe90aa2f	-0.2825484
8	0xbf2637d1	-0.6492892
9	0x3dcff4dc	0.10154125
10	0xbfd94711	-1.6974813
11	0x3d97019a	0.07373352
12	0x3ea66c70	0.32504606
13	0xbcdb77a0	-0.02679044
14	0xbba1acfb	-0.004933951
15	0xbfa0bdf4	-1.2557969
16	0xbd2dce88	-0.04243329
17	0xbf3d1557	-0.73860687
18	0xbdc3fda8	-0.095698655
19	0xbf650763	-0.89464396
20	0xbf232df6	-0.63742006
21	0xbe00f8e9	-0.12594952
22	0xbddfb255	-0.10922686
23	0xbf055c82	-0.5209428
24	0x3dbbd578	0.09171575
25	0xbe211150	-0.1572926
26	0xbd979af6	-0.07402603
27	0xbee60962	-0.44929034
28	0x3e1f70a7	0.15570317
29	0xbe9b9904	-0.3039018
30	0xbe913cfb	-0.28366837
31	0x3e45910e	0.19293615
32	0xbe32449d	-0.17408986
33	0x3e83b639	0.25724962
34	0x3d4d66df	0.050146934
35	0x3f87e51c	1.0616794
36	0xbf3e2fa1	-0.74291426
37	0xbf01b364	-0.50664353
38	0xbf81043b	-1.0079416
39	0x3daacf2f	0.083402984
40	0xbe8638f9	-0.26215342
41	0xbeb550a8	-0.35413098
42	0xbec92413	-0.39285335
43	0x3d8fed9c	0.07027742
44	0xbf83215a	-1.0244553
45	0xbf9c5709	-1.2214061
46	0xbda9ddff	-0.082942955
47	0x3c1fdb6f	0.009756907
48	0xbf19d5ae	-0.60091674
49	0xbea2cfde	-0.31799215
50	0x3dcf90ab	0.10135015
51	0xbe8c50f7	-0.2740552
52	0xbe43b64f	-0.19112514
53	0xc04924ba	-3.1428666
54	0x3d1e321f	0.038622018
55	0xbea5ed26	-0.32407492
56	0x3e2ee741	0.17080404
57	0xbeb7b661	-0.35881332
58	0x3f0fa67d	0.56113416
59	0xbf44acbe	-0.76826084
60	0xbf517d76	-0.81832063
61	0xbc0d8508	-0.008637674
62	0x3e3ae3d2	0.18250969
63	0xbfdbe117	-1.7178067
64	0xbf03c87b	-0.51477784
65	0xbeba3587	-0.36368963
66	0xbea0866b	-0.31352553
67	0xbe0b3721	-0.13595249
68	0xbfd4ff47	-1.6640404
69	0xbe973b89	-0.2953761
70	0xbe30b89e	-0.17257926
71	0xbf6992b4	-0.91239476
72	0xbe413268	-0.18866885
73	0x3cb3041f	0.021852551
74	0x3f0060a1	0.50147444
75	0xbebc63fd	-0.36795035
76	0xbf8b8047	-1.0898522
77	0xbfa2082b	-1.2658743
78	0x3f11006b	0.5664126
79	0xbd02a8d9	-0.031899307
80	0xbe275d62	-0.16344216
81	0xbf04decc	-0.5190246
82	0x3ec8934c	0.3917488
83	0x3f0bbcfa	0.5458523
84	0xbe483c92	-0.19554356
85	0xbf46237a	-0.7739788
86	0x3ccaa9ef	0.024739234
87	0xbe8cf956	-0.27533978
88	0x3e4a756c	0.19771355
89	0xbf28e60b	-0.6597602
90	0x3ca7c0ea	0.02047773
91	0x3d4e1cbc	0.050320372
92	0xbf653803	-0.8953859
93	0xbff528c6	-1.9153068
94	0x3ce75ded	0.02824303
95	0x3ea9c60e	0.33158916
96	0xbf768595	-0.9629758
97	0xbd3db1d4	-0.04631217
98	0x3e90e52b	0.2829984
99	0x3e7ad511	0.24495341
100	0xbeaf097f	-0.34186932
101	0xbe56ea40	-0.20987797
102	0xbe3bec19	-0.18351783
103	0x3d9294be	0.071572766
104	0xbf305dc4	-0.68893075
105	0xbc34d781	-0.011037708
106	0xbeed57f7	-0.46356174
107	0xbe3783e9	-0.17921413
108	0x3eaca414	0.33718932
109	0xbf74e8d0	-0.95667744
110	0x3d84230e	0.06451999
111	0x3e6f9f66	0.2340065
112	0x3eaa94f0	0.33316755
113	0xbeb9d3aa	-0.362943
114	0x3e6fe516	0.23427233
115	0xbea1553f	-0.3151035
116	0xbe4ceb2d	-0.20011587
117	0x3e8434ee	0.25821632
118	0x3e6b66a7	0.22988378
119	0xbf318fda	-0.69360125
120	0xbdea16f8	-0.11430162
121	0xbf4a54db	-0.7903573
122	0x3d782afa	0.06058786
123	0xbdcc2d15	-0.09969536
124	0xbf3a76a6	-0.72837293
125	0xbef96b32	-0.48714596
126	0x3f06ae87	0.5261006
127	0xbd54c809	-0.05194858
128	0xbf82d1d1	-1.0220281
129	0xbc13af2a	-0.00901393
130	0x3eacd46c	0.33755815
131	0xbfa1418b	-1.2598127
132	0x3f03dc02	0.5150758
133	0xbd0fba03	-0.035089504
134	0x3e81f652	0.2538324
135	0x3f0501e7	0.5195603
136	0x3f18b4b6	0.59650743
137	0x3e963298	0.29335475
138	0x3c8c7e99	0.01715021
139	0xbf93ca7a	-1.1546166
140	0xbcc504e3	-0.024050182
141	0xbdd4ab7e	-0.10384272
142	0xbefeba1f	-0.49751374
143	0xbeb0eb87	-0.34554693
144	0x3ed096e7	0.4074013
145	0xbf104cae	-0.56367004
146	0x3dbf8ab7	0.0935263
147	0xbcf51e02	-0.029921535
148	0xbd7e5f4f	-0.062102612
149	0x3ec1b205	0.3783113
150	0xbee02246	-0.4377615
151	0x3dca951b	0.09891721
152	0xbbb96968	-0.0056583174
153	0x3c80e5a8	0.015734509
154	0xbe6f40d3	-0.23364572
155	0x3eead556	0.45865887
156	0x3df4f7ad	0.11961303
157	0x3e859a6e	0.26094383
158	0xbf168835	-0.58801585
159	0x3f49d0ab	0.7883403
160	0x3e8f8f54	0.28039038
161	0x3e9e760d	0.3094944
162	0x3db91df8	0.09038919
163	0x3e97faeb	0.29683623
164	0xbf4977cf	-0.7869844
165	0xbd108272	-0.035280652
166	0x3dfbceae	0.122952804
167	0x3ea5727d	0.3231391
168	0x3f8723c3	1.0557789
169	0x3de5b640	0.11216402
170	0xbe946775	-0.2898518
171	0xbef8df58	-0.48607898
172	0xbf3f8df2	-0.74825966
173	0xbf1ad879	-0.6048656
174	0x3eec7563	0.4618331
175	0xbe73fd7f	-0.2382717
176	0x3e5ce176	0.21570382
177	0x3eb2a604	0.34892285
178	0x3e5f7fe0	0.21826124
179	0xbf2b42a2	-0.6689855
180	0xbf3eb0c0	-0.7448845
181	0xbebc65b7	-0.36796352
182	0xbe54fc91	-0.20799471
183	0xbe093850	-0.13400388
184	0xbe9cd375	-0.3063008
185	0xbed6454c	-0.41849744
186	0xbfbadc9e	-1.4598577
187	0xbe5b41da	-0.21411839
188	0xbd91efec	-0.071258396
189	0xbd85265a	-0.065014556
190	0xbe665ba6	-0.22495899
191	0xbf536b47	-0.8258557
192	0x3e97a855	0.29620615
193	0x3e68891d	0.22708555
194	0xbf09f2d0	-0.5388613
195	0xbe28c827	-0.16482602
196	0xbf368810	-0.71301365
197	0x3c675d3d	0.014121351
198	0x3f315358	0.692678
199	0xbd67c23d	-0.056581724
200	0xbe46f973	-0.19431095
201	0xbf012bbe	-0.5045737
202	0x3e30ad5b	0.1725363
203	0xbe99e51f	-0.30057618
204	0xbdf7e4d7	-0.121041946
205	0x3e2edc70	0.17076278
206	0x3e8c06be	0.27348894
207	0xbccb616d	-0.02482673
208	0x3cf50286	0.02990843
209	0x3ddc1b42	0.107473865
210	0xbec3716b	-0.3817247
211	0x3f152f74	0.5827553
212	0x3df6f056	0.12057559
213	0x3f021d0b	0.50825566
214	0xbe501955	-0.20322163
215	0xbe9dbaee	-0.3080668
216	0x3e8df735	0.27727666
217	0xbee58455	-0.44827524
218	0x3cefd941	0.0292784
219	0x3d70a0d3	0.058747124
220	0xbec8a827	-0.3919079
221	0xbf1adada	-0.6049019
222	0xbd9a85f4	-0.07545081
223	0x3e3d3e82	0.18480876
224	0xbf3648e2	-0.7120496
225	0x3f06184c	0.52380824
226	0xbeaedb8d	-0.3415188
227	0x3cbd91e3	0.023140853
228	0x3eb0d7bb	0.3453959
229	0x3c39daa4	0.011343632
230	0x3eac035f	0.33596322
231	0x3e28c763	0.1648231
232	0xbe6d0473	-0.23146228
233	0x3ebc33ca	0.36758262
234	0x3dc41150	0.095736146
235	0xbd23dfcd	-0.040008355
236	0xbf32ba41	-0.6981545
237	0x3f6bed30	0.92158794
238	0x3e98ce3d	0.29844847
239	0x3df05af6	0.117360994
240	0x3d46fb5a	0.04857955
241	0x3f6d7e9a	0.92771304
242	0xbdccbc67	-0.099968724
243	0x3ee97bf5	0.45602384
244	0xbe52ea45	-0.20597179
245	0xbee1e088	-0.44116616
246	0xbe59ea7b	-0.21280853
247	0x3edfe130	0.43726492
248	0x3e28c58c	0.16481608
249	0xbedda0fd	-0.43286887
250	0x3e018d59	0.12651576
251	0xbe1651a5	-0.14679582
252	0xbefbede6	-0.4920494
253	0x3dfc8338	0.123297155
254	0x3ea36238	0.31910872
255	0x3ea24a90	0.31697512
