models/particle_gnn_0.pth (torch, 475642 bytes, 18 tensors)

encoder.0.weight f4 [128, 9]
000000 f9 2b e6 3d 99 81 a7 bd d3 6e 9b bc d0 1e 80 be
       0.11238856 -0.08179016 -0.018973744 -0.25023508
000010 15 02 fa 3e c2 02 b3 3d 6c 39 b2 bd ee 31 6d 3c
       0.48829713 0.087407604 -0.087023586 0.014477236
000020 fe 33 ad be ce 0f 2a bf c5 19 17 3e 9a 5f a1 be
       -0.3382873 -0.66430366 0.14755924 -0.3151825
000030 90 93 4e be 98 af 27 3c 32 e9 53 3e 3b 8f 2a bd
       -0.20173478 0.010234736 0.20694426 -0.0416405
000040 84 05 21 3c 17 d3 92 bf c0 e0 27 3f 08 6c 16 be
       0.009827975 -1.147067 0.65577316 -0.14689648
000050 89 a7 0a 3f 06 42 38 3d 61 54 1a bd b3 6c 49 3a
       0.5416189 0.04498484 -0.037678126 0.0007683739
000060 15 1c 9e bd 57 5c 7e be bf a6 83 bf 84 b6 ae 3e
       -0.077202 -0.24839912 -1.0285262 0.34123623
000070 4f de 49 be 3b bc 1d 3e d1 ca 94 bd 63 15 4f 3e
       -0.1971371 0.15403835 -0.07265247 0.20223002
000080 62 54 95 bd be 48 71 bd 5c dc 7b bc 95 88 52 be
       -0.07291485 -0.058907263 -0.015372362 -0.20559914
000090 ff c5 c8 3e 27 e3 2a 3f a0 83 cd 3d 50 9c 58 bd
       0.3921356 0.66752857 0.10034871 -0.052883446
0000a0 4d 01 e3 3d c3 34 39 be b3 2b 5c 3d a9 2b a2 bd
       0.110842325 -0.18086533 0.053752612 -0.07918484
0000b0 47 d9 a9 bf fe 8d 48 3f a3 5a 08 bf 5d 40 d7 bc
       -1.3269433 0.7834166 -0.532633 -0.026275808
0000c0 e6 37 09 bd 6a 45 24 be 9b 29 75 be ee c9 2b 3a
       -0.033500575 -0.16042104 -0.23941652 0.0006553222
0000d0 41 85 3b be 7d de a7 bf f5 bf 97 bd e7 7b 04 3e
       -0.18312551 -1.3114773 -0.0740966 0.1293789
0000e0 4a b4 e8 bd 0a c5 e4 3d 8f b6 80 be 45 e4 11 3f
       -0.113625124 0.11170395 -0.2513928 0.56988937
0000f0 08 89 0e be 18 53 a5 bc 4a 19 4e 3d af d9 97 be
       -0.13919461 -0.020181224 0.050317086 -0.29658267
000100 a1 a7 20 bf f0 99 c6 bb 2b f0 52 3d 13 0d dd be
       -0.6275578 -0.0060608312 0.051498573 -0.43174037
000110 0a b8 94 3d 87 d4 0d bf 41 05 f1 bd 81 85 b7 3f
       0.07261665 -0.55402416 -0.1176858 1.4337617
000120 3e 8c 01 be 49 94 01 3e 53 b7 c3 bd 35 ce a3 3e
       -0.12651154 0.12654223 -0.09556451 0.3199326
000130 a5 ad 81 bd 0b f3 c4 3c 32 26 d7 be 90 0b 3b be
       -0.06331948 0.024041673 -0.42021328 -0.1826613
000140 b0 03 06 bf b4 2b 47 3d 83 e4 a5 3e 61 a4 5c bd
       -0.52349377 0.048625663 0.32400903 -0.0538677
000150 32 95 dc 3d d1 cc 57 3d c7 eb dc 3e 3b 5c 15 be
       0.10770644 0.052685563 0.43148634 -0.14585964
000160 c5 9b f7 be ef 14 16 3e e6 f9 81 3e c7 13 11 be
       -0.4836103 0.14656423 0.2538597 -0.141677
000170 cc 3d 82 bd 38 69 25 be 92 c6 83 be 1b 20 6d be
       -0.06359443 -0.16153419 -0.25737435 -0.23156779
000180 b1 ab d2 be 5a 1e 53 bf cd 81 2a bf ec 4f 0c 3e
       -0.41146615 -0.8246819 -0.6660431 0.13702363
000190 0a 3f bb 3e c9 46 0c be e7 34 4c 3d ba 55 c0 bd
       0.36571532 -0.13698877 0.04985514 -0.09391351
0001a0 d8 e3 43 be 52 e5 8b bc de 62 c8 3d 97 b4 5e bf
       -0.19129884 -0.017077122 0.097844824 -0.8699431
0001b0 11 47 49 bd d6 9c 37 bd dd d5 ac 3d ea 67 2a 3e
       -0.04914004 -0.044827305 0.08439229 0.16641203
0001c0 e8 9c 70 be 28 4b 37 bd 9b d5 99 bd 81 3f ce be
       -0.23497355 -0.04474941 -0.07511445 -0.40282825
0001d0 60 7b 6f 3f ca 38 61 3d c3 c9 b5 3e d4 e1 30 be
       0.9354763 0.0549858 0.35505494 -0.17273647
0001e0 08 83 7a bd e7 95 cf bc 8b ab ff bd 1f 90 0c bf
       -0.061160117 -0.025340034 -0.12483891 -0.5490741
0001f0 0c 0d d2 bd 93 72 2b 3f 57 a9 93 be 32 1b bd be
       -0.10256395 0.669717 -0.28840134 -0.3693481
000200 50 43 0f bf 09 30 95 bd 72 31 6d 3e 75 49 bb 3e
       -0.55962086 -0.072845526 0.23163393 0.3657948
000210 cb 80 a3 be 60 85 ad be df 20 3d 3f da 40 0c be
       -0.319342 -0.3389082 0.7387828 -0.13696614
000220 2a b3 6e 3d 19 5b 53 be 0f a6 05 3f 3b e9 c6 3e
       0.058276333 -0.2064022 0.5220651 0.38849816
000230 ed b9 05 3f 2e 28 ca be 78 8d c2 be 4c 38 d8 3d
       0.52236825 -0.3948378 -0.37998557 0.10557613
000240 7b 87 e0 3e 77 fb 72 3e cd c4 ab 3e 58 3e 0f 3d
       0.43853363 0.23728739 0.33548585 0.034971565
000250 b3 01 f3 3d ba ee f8 bd f8 11 9f be 18 08 71 be
       0.118655585 -0.121549085 -0.31068397 -0.23538244
000260 1d 02 13 bf 2c 7a 9b 3e 07 f0 f2 3e fa 09 c2 be
       -0.574251 0.30366647 0.4744875 -0.37898237
000270 43 d3 7d 3e c0 90 1d bf b1 25 11 be 90 d6 a8 be
       0.24787621 -0.61548996 -0.14174534 -0.32976198
000280 c4 62 0b 3d d0 28 8c 3f 3a e0 4f 3e a5 0d 9b be
       0.034029737 1.0949955 0.2030038 -0.30283847
000290 88 37 02 3f 7a f0 3f bd 2b bc a4 bc 78 36 72 bd
       0.50865984 -0.046860196 -0.020109257 -0.059133977
0002a0 ad fb eb be 88 54 02 bf 35 ed a5 3f 93 b2 07 bf
       -0.4609045 -0.50910234 1.2963015 -0.5300686
0002b0 8d 38 c7 3e 71 80 b8 bc 52 96 f1 bd c9 da 66 3d
       0.38910332 -0.022522183 -0.117962494 0.056360994
0002c0 09 63 62 3d 5e 55 d3 be 36 fa 01 be 7e 9b cd bd
       0.05527023 -0.41276067 -0.12693104 -0.100394234
0002d0 05 35 29 be e4 19 df be 55 11 9c be 59 d3 cc bd
       -0.16524132 -0.4357444 -0.30481973 -0.10001249
0002e0 33 a5 83 bd c5 ba 4d bd 27 98 d9 bd 0f 02 22 be
       -0.064279936 -0.050226945 -0.10624724 -0.15821098
0002f0 29 57 05 bf 60 4a d4 3e a9 25 7a be 51 b9 da 3e
       -0.5208612 0.41462994 -0.24428429 0.4271951
000300 c4 7e 93 bd 12 a4 09 3f 57 07 20 3c 61 e2 ab be
       -0.07201913 0.53765976 0.009767375 -0.3357115
000310 2d 8a 93 be 5f 2c 1a be 51 d6 be 3e 12 be ce 3e
       -0.28816357 -0.15055989 0.37272885 0.40379387
000320 88 51 be 3e 70 c8 47 bd 83 78 aa bd fc 4f 74 be
       0.37171578 -0.048775136 -0.08323767 -0.23858637
000330 9c ab c9 3d e4 e2 af be 3e a2 53 bf ea 5d a2 3e
       0.09847185 -0.3435279 -0.82669437 0.31712276
000340 38 a9 4d 3f 0a 55 03 bc 47 2f cb be 6f 61 aa 3d
       0.8033633 -0.00801588 -0.39684507 0.08319365
000350 30 66 a8 3d a9 25 a9 be da d4 f1 3c fd 0e 4f bf
       0.08222616 -0.33036545 0.02952044 -0.80882245
000360 5f 9b fa 3b 96 bc 11 bf ad 8a 85 3e 8e dc df 3d
       0.007647916 -0.56928384 0.26082364 0.10930739
000370 b0 70 17 be 65 41 44 be e1 9a a2 be 36 48 16 bf
       -0.1478908 -0.19165571 -0.31758788 -0.58703935
000380 22 c5 93 bf 08 30 88 3e 1f bb 55 bd 13 8a 90 be
       -1.1544535 0.26599145 -0.052180406 -0.28230342
000390 51 a3 24 be 9e 2a ac bd db 6a a7 3e b2 1f 8b bc
       -0.16077925 -0.08406566 0.32698712 -0.016982887
0003a0 a8 25 10 bd 46 0b 1b bf 87 2e 66 be 59 02 d0 bb
       -0.03519216 -0.60564077 -0.22478686 -0.006347936
0003b0 5c c8 f2 bd 0d c3 77 be 7e f1 8a 3e 97 21 5e 3d
       -0.11854622 -0.241955 0.2713737 0.054231253
0003c0 b9 10 ae be aa 48 1c bf 6c 3f 05 be 59 fb b4 3e
       -0.33997133 -0.61048377 -0.13012475 0.35348013
0003d0 65 c9 e0 3e a7 32 e6 3d ce 23 05 bf f1 6c 47 be
       0.43903652 0.1124013 -0.5200776 -0.19475152
0003e0 3f a5 6e 3d 9d 48 ac be aa 63 e7 be 06 2a 41 3f
       0.05826306 -0.3364915 -0.45193225 0.7545475
0003f0 e4 f8 f1 3e 94 46 06 bf 65 ef 62 3e b0 87 52 be
       0.472602 -0.52451444 0.22161634 -0.20559573

encoder.0.bias f4 [128]
000000 b5 ed 8e bc 7a 85 55 be fb bd 02 3e cf 34 38 be
       -0.017447332 -0.20851699 0.12767784 -0.17988895
000010 9a ae 0c be 5d 54 93 be 37 7a 00 be 64 2e 03 bf
       -0.1373848 -0.28775302 -0.12546621 -0.5124266
000020 03 2d c4 be 40 cd 56 be 16 38 a6 be 89 13 05 3e
       -0.3831559 -0.20976734 -0.32464665 0.12995733
000030 20 6c 5e bd 5c 5f ba bd c3 a5 01 bf 5c e7 a8 3d
       -0.054302335 -0.091002196 -0.5064356 0.08247253
000040 02 5b 5d be 9a df c6 be 42 0c cb be 23 16 11 bf
       -0.21616748 -0.3884247 -0.3965779 -0.566744
000050 8e c4 ff be fe c0 a3 be a3 50 f8 bd 21 ba 00 be
       -0.49954647 -0.3198318 -0.12124755 -0.12571003
000060 f6 cf 9a be 47 b6 5d 3c 33 cb 0f bf 86 a1 48 be
       -0.30236787 0.013532228 -0.5616943 -0.19592866
000070 ad 5f da be 8c 1e 81 bc 17 84 01 bf 2f e5 5f be
       -0.4265112 -0.015761636 -0.5059218 -0.2186477
000080 d4 c1 0d bf 84 c6 3d 3e bd 66 84 be df 3c a2 be
       -0.55373883 0.18532759 -0.25859633 -0.31687066
000090 82 bf cb be 9b a2 dd be 03 cd 20 be f1 b9 a3 be
       -0.39794546 -0.4328812 -0.15703206 -0.319778
0000a0 b3 f0 cd bd e8 29 18 be 7c 63 d5 be f6 ba ec be
       -0.10055675 -0.14859736 -0.41677463 -0.4623639
0000b0 0c 22 a8 be fb f3 fe be d3 4d 0e bf 86 b3 87 be
       -0.32838476 -0.49795517 -0.555875 -0.26504153
0000c0 52 34 91 be a9 fe 34 3d 1f 1d a2 be dc f1 ef be
       -0.2836023 0.044188175 -0.31662843 -0.46864212
0000d0 36 67 a7 be 9e a7 15 be 61 c1 30 bd b3 97 9e be
       -0.3269593 -0.14614722 -0.04315317 -0.30975112
0000e0 ce ee de be b5 b9 99 be b5 bb c4 be e9 c3 b4 be
       -0.4354157 -0.30024496 -0.3842446 -0.35305718
0000f0 6b 06 33 be 0a 7e ea bd 38 f2 b2 be 01 e8 ee be
       -0.17482917 -0.11449821 -0.34950423 -0.4666138
000100 ff d0 0b be 5c a1 92 be c3 84 89 be e5 18 9e be
       -0.13653944 -0.28638732 -0.26859102 -0.30878368
000110 66 be c9 be dd 87 d9 be b0 01 f2 be f8 d1 0e bf
       -0.39403075 -0.42486468 -0.47266912 -0.55789137
000120 f8 76 e0 3d eb 8e 6a be 7f 4e 70 be 1a bf 9f be
       0.109601915 -0.22906081 -0.23467444 -0.31200486
000130 6b 79 55 3c ee 0b 55 be 34 ff bb 3d 70 9a e8 be
       0.013029437 -0.20805332 0.091795355 -0.45430326
000140 b3 e9 cc be 74 1e 09 bf 9a d8 84 3e ef 07 e5 be
       -0.40022048 -0.5356209 0.25946504 -0.44732615
000150 fd 44 bf be a1 d9 65 bd a7 34 48 be 83 a6 cc be
       -0.3735732 -0.05611575 -0.19551335 -0.39970788
000160 31 1a e2 be f1 fb 5c be 48 03 4e be 14 06 c6 be
       -0.44160607 -0.21580483 -0.20118439 -0.38676512
000170 56 d9 51 be 7a 51 a1 be 17 99 97 be f5 73 c9 be
       -0.20493063 -0.31507474 -0.29608986 -0.3934628
000180 6d fb 83 be 98 0d b4 be f2 91 bc be 04 04 ad be
       -0.2577776 -0.3516662 -0.36830097 -0.33792126
000190 6b 5b 24 be 21 55 97 be 60 c6 e8 be 2c 44 45 be
       -0.16050498 -0.29557136 -0.45463848 -0.19264287
0001a0 d7 a2 c8 be ef cb c2 bd 5f 51 b9 3d 1e a6 01 bc
       -0.39186737 -0.095115535 0.090487234 -0.007913141
0001b0 60 f4 79 be ca 21 13 bf a6 3d ce bd c5 8e c5 be
       -0.24409628 -0.57473433 -0.10070352 -0.38585487
0001c0 ea 65 b4 be 1b fc 12 be 28 eb cc be 85 90 85 be
       -0.35234004 -0.14353983 -0.4002316 -0.26086822
0001d0 8b 0f a0 be 45 e9 06 be 48 72 a4 be 0f 68 dd be
       -0.31261858 -0.13174923 -0.3211844 -0.43243453
0001e0 9a e2 29 be 3d 7f c6 bd 72 bc ff be 37 4c 94 be
       -0.16590348 -0.096922375 -0.4994846 -0.28964397
0001f0 86 99 17 be fa 7d 74 be ce cf ae be 2e 12 aa be
       -0.14804658 -0.23876181 -0.34142917 -0.33216995

encoder.2.weight f4 [128, 128]
000000 43 73 c9 bd c0 95 a1 be 65 22 71 3e 38 24 62 3e
       -0.098364376 -0.31559563 0.23548277 0.22084129
000010 30 27 e6 3c 1f eb 5e 3d 38 72 ed 3e 08 f7 14 bf
       0.028094858 0.054423448 0.46376204 -0.5818944
000020 29 0c a7 3e 52 67 13 3e a8 27 80 3e 8f 13 27 be
       0.32626465 0.14394882 0.25030255 -0.16316055
000030 92 78 a5 be 2a 2b ea 3e 36 c5 a3 3e aa 2b 97 bd
       -0.3231855 0.45736057 0.31986398 -0.07381375
000040 a0 ff cf 3e 21 7c 0c 3f 7b c2 c5 bf 4b be 15 3e
       0.40624714 0.54876906 -1.5449976 0.14623372
000050 67 e6 83 be 46 e4 05 3e d0 90 64 be c1 fe 0b be
       -0.2576172 0.1307536 -0.22320867 -0.136714
000060 58 81 46 3e 3f 1e dd bd 28 bc ab bd c2 a7 51 3e
       0.19385278 -0.107967846 -0.08385497 0.20474151
000070 8a 8c 7c 3e ff 5d 02 be 21 70 8b be bc f0 11 3f
       0.24662986 -0.12731169 -0.27233985 0.57007957
000080 93 6e cd be 70 e2 17 3d 47 88 ba bd 54 ce 46 3f
       -0.40123424 0.037081182 -0.09108024 0.7765858
000090 87 fe 47 3e 11 b1 88 be 94 f0 dd be fc 08 6d bd
       0.19530688 -0.2669759 -0.4334761 -0.057869896
0000a0 50 19 88 be 87 b0 4c 3e 96 35 89 3e 69 84 84 be
       -0.26581812 0.19989215 0.26798695 -0.2588227
0000b0 77 29 95 be d0 c9 12 3f d4 a9 07 3e de 4f 99 bd
       -0.29133198 0.5733919 0.13248378 -0.074859366
0000c0 a6 25 15 3f a1 f0 80 3e 77 dc 13 3d 8a 9a 8d be
       0.5826057 0.25183585 0.036098924 -0.27656966
0000d0 50 74 19 bd a7 2b 8f 3d 83 7e b7 bd 97 c9 a0 3e
       -0.03746444 0.06990748 -0.08959677 0.314038
0000e0 b8 7d 19 3f 61 60 d4 3b 7d e2 33 3d 51 34 45 be
       0.59957457 0.006481216 0.043917168 -0.19258238
0000f0 dc c4 a9 3e ba 86 71 bd f6 8c 95 3c f1 22 f6 be
       0.33158004 -0.058966376 0.018255692 -0.48073533
000100 5a fc 91 be e9 c0 d0 bd 29 df 6d bd 5b 7c 9a 3e
       -0.2851284 -0.10193045 -0.05807415 0.30173
000110 64 05 b6 be 97 a0 ad 3e 85 4d 9d 3f 00 3e d6 3e
       -0.35550988 0.33911583 1.2289282 0.41844177
000120 77 fb 04 bd b8 c5 66 be 01 d7 6c bf e6 81 e7 3e
       -0.032466378 -0.22536361 -0.9251557 0.45216292
000130 68 27 e2 3e 98 d1 da bd 5f 4c 44 3f 32 36 54 3d
       0.4417069 -0.10684508 0.76679033 0.051809497
000140 d2 de b1 3e c5 76 6b bd 74 4b 9a be 72 af 9b 3f
       0.3474031 -0.057486314 -0.3013569 1.2162917
000150 13 c6 bb 3d 0a 82 98 3e 89 56 8a be 6c 41 7a 3d
       0.09168639 0.29786712 -0.27019146 0.061097547
000160 da ad d1 3d 1a b0 9c be 1f 54 0d be 4d 8a 74 bf
       0.10238238 -0.30603105 -0.13801621 -0.9552353
000170 f2 ed 75 3e 6b 07 91 3e 4c 4f ff 3e 80 83 6e 3e
       0.2401655 0.28325972 0.49865186 0.23292351
000180 ff 15 ca 3e ae e8 71 bd 7e 74 24 3d 4d 5d 94 be
       0.39469907 -0.05905979 0.040150158 -0.28977433
000190 35 64 ab bd e9 33 2a 3c 39 c1 a9 3e 35 da 0a 3f
       -0.08368722 0.010388353 0.3315523 0.5423921
0001a0 2b 1d 81 be df e7 98 be 7d 99 8f 3d 56 79 d0 3b
       -0.25217566 -0.29864404 0.070116974 0.0063621206
0001b0 d6 f9 bd 3d f8 29 05 bf 6d 32 03 3e a2 d7 0e 3e
       0.09276168 -0.52017164 0.12812205 0.13949445
0001c0 c0 9d 08 3e 59 b4 b5 3e 1f ce a7 3d 7c 16 b4 3e
       0.13341427 0.35489157 0.08193611 0.35173404
0001d0 a2 cb ab 3e 3b df 04 bd 99 8e 9c be 5e c2 0b 3f
       0.33553797 -0.03243945 -0.30577543 0.54593456
0001e0 c1 49 b0 3b df 30 07 bd 65 fa 41 be 61 73 09 bd
       0.005379886 -0.03300559 -0.18943174 -0.0335573
0001f0 cd 3b 27 3d 3a a0 9f 3e 05 08 0f 3e 83 fa 47 3e
       0.040828515 0.3117693 0.13967903 0.19529156
000200 12 fe b8 bd 1e 70 3f 3e d6 46 7e bc a2 c9 b2 3d
       -0.09032835 0.18695113 -0.015519818 0.08729865
000210 7a ab 14 3e b3 18 b9 3d f1 4d ca bd b0 63 08 bd
       0.14518538 0.09037914 -0.098781474 -0.033298194
000220 6f c5 6c 3e b9 80 91 3d 71 ca 4b be 28 1e fe bd
       0.2312219 0.0710463 -0.19901444 -0.124080956
000230 2a 5a 33 3e c2 0d 8a 3e b3 84 cb 3d b6 aa ba bd
       0.17514864 0.2696362 0.0993742 -0.09114592
000240 3d f1 14 3c 0c 54 c1 be ce dd 28 bf 1b 2b 5f bf
       0.009090719 -0.37759435 -0.6596345 -0.8717515
000250 77 d1 9d be 71 23 b8 be 0b e8 dd 3e 8e d2 e2 3e
       -0.30823871 -0.3596454 0.43341097 0.44301265
000260 fd 9c 0d 3e d6 02 44 be a3 40 b4 3e 3a fe 7f 3e
       0.13829418 -0.19141707 0.35205564 0.24999323
000270 10 a7 9f bd eb 39 20 3e 29 e7 f1 bd 2b 1b 8a 3e
       -0.077955365 0.15647094 -0.118116684 0.26973853
000280 8b 77 c5 3e 3d 70 08 be ac 2b 43 be dc b9 26 3d
       0.38567767 -0.13324066 -0.19059628 0.040704593
000290 6a 37 58 3f fe 89 03 3e 5d a1 b3 be 58 15 b2 be
       0.84459555 0.12845609 -0.35084048 -0.3478191
0002a0 e0 ba b0 bd 05 2f d0 3e 2a 30 c3 be 80 d3 4e 3e
       -0.086293936 0.40660873 -0.38122684 0.20197868
0002b0 33 1a 8d 3e 4a 42 05 3e 28 e6 2e 3e 17 45 a4 be
       0.2755905 0.13013569 0.17079985 -0.3208396
0002c0 1b 6e a5 3d 30 ba b5 3c fb ac 24 be 52 94 a6 3e
       0.080776416 0.022183508 -0.16081612 0.32535034
0002d0 31 51 c9 bd 95 aa 89 3e 33 ec 5b 3c d4 cf 60 bc
       -0.09829939 0.26887956 0.0134230135 -0.013721425
0002e0 73 26 32 be bd 2f 2d 3d 5a 44 69 3e 45 d6 96 3c
       -0.1739748 0.042281855 0.2277998 0.018412719
0002f0 3d 1d c2 3e aa 82 b4 3d fd e0 d7 3e 15 20 30 3e
       0.37912932 0.08813985 0.4216384 0.17199738
000300 8b 28 2f 3e 68 86 1d 3f d2 d0 03 3f c7 66 dc 3e
       0.1710531 0.6153321 0.5149051 0.43047163
000310 e2 cc a8 3c 1f 48 24 3f 7b 20 ca 3e 09 47 2d 3f
       0.020605508 0.6417255 0.39477906 0.67686516
000320 50 20 f1 3d d0 48 3d 3e d8 c0 dd 3e 86 84 80 bd
       0.11773741 0.18484807 0.4331119 -0.06275277
000330 72 9c 58 3e f7 95 84 3e e6 e7 1b be bd 51 17 bf
       0.21153429 0.25895664 -0.15225181 -0.591091
000340 1d 15 66 3d f4 14 21 be 79 5a dc 3e 8a ee a4 3d
       0.05617248 -0.15730649 0.43037775 0.0805331
000350 2e 15 63 3e 15 88 28 be 62 ee cf 3d 0a 99 75 be
       0.22176048 -0.16458161 0.1015289 -0.23984161
000360 07 05 ea bd 4b f9 40 be e6 fc 6c 3e c7 01 a3 be
       -0.1142674 -0.18845098 0.23143348 -0.31837294
000370 87 25 d2 be e3 a9 8e 3e ba ac 2f 3e 63 29 1b bd
       -0.41044256 0.27863988 0.17155734 -0.037881266
000380 94 43 4f 3e 78 5e 55 3f 26 d3 04 3d 43 16 e9 bd
       0.20240623 0.8334727 0.03242793 -0.11381199
000390 3b 56 5d bd 6e a7 73 3e 47 5f b5 be 61 a7 63 be
       -0.054037314 0.23794338 -0.35424253 -0.22231819
0003a0 ef 7b c1 bd 0c 90 24 bc 07 d4 d2 bd 2a 1d d9 bd
       -0.094474666 -0.010044109 -0.10294347 -0.10601266
0003b0 d5 de 16 3e cb 87 1f 3f 99 0e 73 bd 4d b8 85 3d
       0.14733441 0.6231658 -0.059340093 0.06529293
0003c0 71 02 17 bf b2 a4 45 be 82 ac 8f be 9a 97 ec bd
       -0.589881 -0.19301108 -0.280613 -0.11552353
0003d0 01 42 eb be 7a 1b 08 3f 17 46 9c 3e 10 8c 30 3e
       -0.45948794 0.53166926 0.30522224 0.1724093
0003e0 10 7a 41 3e e2 eb fe 3e 37 e2 32 3f 1c d4 db bd
       0.1889422 0.4978934 0.69876426 -0.10733816
0003f0 b8 35 84 3e 3f b9 a5 bd 78 4c 38 bd 90 cd 01 be
       0.25822234 -0.080919735 -0.0449948 -0.12676072

encoder.2.bias f4 [128]
000000 b5 a4 f1 be a0 d3 3b be a1 fc a3 bd 5a 4a cc 3c
       -0.47195974 -0.18342447 -0.080071695 0.024937797
000010 2e 13 91 be d7 6c 3e 3e 79 b7 41 bc 87 12 65 3c
       -0.28334945 0.18596207 -0.011823528 0.013981468
000020 1e a2 fc 3e bb 94 07 3e 86 6e 97 be 19 23 ae 3e
       0.49342436 0.1324033 -0.2957651 0.34011152
000030 c1 8d 9c 3d c2 26 cd bd b7 5f 39 3e 25 7b 73 3d
       0.07644225 -0.10017158 0.18102919 0.05944361
000040 bb 0b 83 be 97 57 37 3e 47 87 ae 3e ae 74 82 3d
       -0.25594887 0.17904507 0.34087583 0.06369911
000050 0d c5 c2 bd 69 09 bb bd e5 c3 60 3e c6 2b 96 bd
       -0.09510241 -0.09132654 0.21949728 -0.07332568
000060 c9 3f 10 bc ce 24 eb 3d 8b 55 a3 3e 4b 5c fb bd
       -0.00880427 0.11481629 0.31901202 -0.12273463
000070 cd a8 13 be bc d7 37 be 9c 53 7a bd 0b 29 c9 bd
       -0.14419861 -0.1795339 -0.061114892 -0.098222815
000080 f2 eb ae be cd f9 13 bd b1 67 2d be 7d 15 cb 3c
       -0.34164387 -0.0361269 -0.16934086 0.02479052
000090 1e 79 69 bd d0 d6 40 be 36 c9 19 be cf e7 62 be
       -0.057000272 -0.18831944 -0.15018162 -0.2215874
0000a0 d2 91 7b be dc 85 bf be c0 ba db 3d ff 1d 78 3e
       -0.24567345 -0.37406814 0.10728979 0.24230193
0000b0 45 9b 32 3f f0 5e a8 bc 93 1a 7f bd d3 3d 66 3e
       0.6976817 -0.020553082 -0.062281203 0.22484522
0000c0 7f 09 09 bf 35 37 b4 3e 29 51 b5 bd a8 62 bc bd
       -0.53530115 0.3519837 -0.08853371 -0.09198505
0000d0 2d 31 91 be 87 b8 b2 3d 54 b0 0e 3d 79 57 c1 be
       -0.2835783 0.08726602 0.03483613 -0.3776205
0000e0 be 1c bd be 65 0f ad be 46 4b 24 3e 29 9d 26 be
       -0.3693599 -0.33800808 0.1604434 -0.1627089
0000f0 a0 2e c5 be 94 14 a4 3e 4f 0c bc 3e e6 ff f6 bb
       -0.38512135 0.3204695 0.3672814 -0.0075378297
000100 6d 1e 30 bd 6b 47 49 3e eb 96 9f bd 11 af ec 3e
       -0.042997766 0.1965615 -0.07792457 0.46227315
000110 68 e9 7c be 1f 4a 94 be 73 e7 b0 bd ea de 92 3e
       -0.24698412 -0.289628 -0.086378954 0.28685695
000120 24 e9 11 be 17 d5 58 3e 24 0a 13 be 27 5e 73 3e
       -0.14249092 0.21175037 -0.14359337 0.23766385
000130 7e b0 21 3d e7 ab 92 3e 84 6a 6c 3e 0b 7c 6d be
       0.039474957 0.28646776 0.23087507 -0.2319185
000140 8a be 89 3d 40 59 9f bc 21 28 69 3d ab c0 a7 be
       0.067257956 -0.019451737 0.056923036 -0.32764181
000150 04 35 0a 3e 68 9f 5b be 83 7a 08 3e e2 08 7e 3c
       0.13496786 -0.21447527 0.13327985 0.0155050475
000160 b1 99 0c bf 67 28 59 3d 1e dd 3d 3e ee 82 6b be
       -0.54922014 0.053017046 0.18541381 -0.22999164
000170 13 df b0 be 1b c3 12 be e3 17 f1 3d 22 09 20 3e
       -0.34545192 -0.1433224 0.11772134 0.15628484
000180 72 88 78 bd 2e d4 b0 3d 74 39 af 3d f9 da 76 bc
       -0.060677 0.0863422 0.0855588 -0.015066856
000190 9e b3 e9 bd c5 96 6d 3d 3a e5 98 be 2a 6f 95 3e
       -0.114112124 0.058005113 -0.29862386 0.29186374
0001a0 b0 2e 0e be e9 74 06 be 54 c8 44 be ed 35 c7 bd
       -0.13884997 -0.13130535 -0.19217044 -0.097270824
0001b0 e5 05 6e bd e3 09 18 3d b8 d1 b1 3d 42 33 0c 3d
       -0.05811109 0.037118804 0.08682579 0.03422857
0001c0 78 59 94 bd e8 6a 66 bc d1 3d d3 be 50 a4 ab bd
       -0.07243627 -0.014063574 -0.412581 -0.083809495
0001d0 cb 72 c3 bd 72 0e 1c be de 96 05 be f1 dc 8e 3c
       -0.095433794 -0.15239885 -0.13045833 0.017439337
0001e0 c7 af d4 3d 34 46 05 be b5 05 9c bd 3d 67 1c 3e
       0.10385089 -0.13015062 -0.07618276 0.15273757
0001f0 12 da 9a 3e 10 16 16 3e da 0b fe bd ea e1 c6 be
       0.302445 0.14656854 -0.12404604 -0.38844234

gnn_0.bias f4 [128]
000000 9f 72 4e be 44 0e 8f be 25 cb 8e bd 6b 15 05 bf
       -0.20160912 -0.2794057 -0.069723405 -0.51985806
000010 51 0d 07 bc 06 55 c2 be 6e af 04 be f8 8a 41 bf
       -0.008242921 -0.37955493 -0.12957546 -0.75602674
000020 49 01 2f bf 44 af 5e be 99 54 0c bf 83 73 b3 be
       -0.68361336 -0.21746546 -0.54816586 -0.35049066
000030 24 22 1d be cc 23 2c be 26 01 0a bf 6d 15 ce bd
       -0.15345055 -0.1681053 -0.53908 -0.100626804
000040 00 af b5 3c 80 6c e3 be ce 58 b3 bf b4 11 83 bd
       0.022178173 -0.44418716 -1.4011476 -0.06399861
000050 0e 4e 3e be b9 5c 03 bf 79 98 d7 be 14 e9 f1 bd
       -0.18584463 -0.5131336 -0.42108515 -0.11812034
000060 30 c7 6a be 02 f6 91 be 28 be 87 be 59 6d ed be
       -0.22927547 -0.28508002 -0.26512265 -0.46372488
000070 06 3d 72 be ae d1 14 bf 70 83 d6 bd 98 65 42 be
       -0.23656091 -0.58132446 -0.104742885 -0.18984067
000080 29 17 c4 be 06 4a 7e be 31 76 7c be 14 e9 5a be
       -0.3829892 -0.24832925 -0.24654461 -0.21377975
000090 c0 18 36 bd 20 ce 54 bf 3f b8 97 bd 95 41 a0 be
       -0.044457197 -0.8312702 -0.07408189 -0.31300035
0000a0 5e f3 a9 be 79 b9 1b bf e8 a2 ca be b8 54 05 3e
       -0.33193487 -0.60829884 -0.39577413 0.13020599
0000b0 aa 2a 50 be b2 ab 90 be b4 a8 2a bf 5f 51 f8 be
       -0.20328775 -0.28255993 -0.6666367 -0.4849958
0000c0 bf 9f 10 bf 11 b1 a3 be 72 da 9b be 04 15 e6 bb
       -0.56493753 -0.31971028 -0.30440098 -0.007021548
0000d0 83 eb 32 be d3 4f d6 be 02 3e 15 bf 51 f6 18 be
       -0.17472653 -0.41857776 -0.5829774 -0.14937712
0000e0 8c c4 d4 be 7a 13 dc be db 27 62 bf 60 87 30 bf
       -0.41556203 -0.4298361 -0.88342065 -0.68956566
0000f0 2f 19 e6 be 82 c7 bf be 20 fc b3 be 57 38 8e be
       -0.4494109 -0.374569 -0.35153294 -0.2777736
000100 34 a1 e5 bb 8a 28 9f 3d 6b b4 ae be f7 32 a8 be
       -0.0070077423 0.07771404 -0.34122023 -0.32851383
000110 d5 50 a6 be eb f5 38 bf 61 d4 c0 3c cb 58 33 be
       -0.32483545 -0.7225024 0.02353877 -0.1751434
000120 14 11 f0 be 37 11 89 bf 35 c6 3d be d6 28 83 be
       -0.4688803 -1.0708379 -0.18532641 -0.25617093
000130 d9 27 04 bd 2a 5b e0 be d6 7f 1a bf 71 af 8d 3e
       -0.032264564 -0.43819553 -0.6035131 0.27672914
000140 c7 d4 f2 be 2b 0b e3 3d 53 aa 21 bd 3e 54 c7 be
       -0.4742796 0.110861145 -0.039469074 -0.3893146
000150 4d 5a 3f be 41 6f d3 bd 9b d6 fd be 2a aa f3 3c
       -0.18686791 -0.103239544 -0.49577793 0.029744226
000160 e9 7b 08 bf 5d 53 39 3c fe de e4 be 5c b9 46 be
       -0.5331407 0.011311379 -0.4470138 -0.19406646
000170 ce 0d a6 3b cc 70 dd be 9c ab 0d be e9 0b 51 bf
       0.0050675636 -0.4325012 -0.13834995 -0.816588
000180 b0 52 b9 be f8 c1 44 be 2b 93 82 be 7c b9 b7 be
       -0.36195898 -0.19214618 -0.25502905 -0.358837
000190 d6 f4 f1 be c5 68 91 be 9f 9c 8d 3d 6c a5 00 bf
       -0.47257107 -0.28400245 0.06914639 -0.50252414
0001a0 27 cd 03 bf fe 0d b8 be ee 96 69 bd c2 19 33 bf
       -0.5148491 -0.35948175 -0.057028703 -0.6996118
0001b0 4c f7 92 be 57 b3 09 bf 83 cf ec bd 7f bd 1d be
       -0.28704298 -0.53789276 -0.11563017 -0.15404318
0001c0 aa 8c 8b bd 4d bf 76 bf 88 79 62 bf 41 3c bc bd
       -0.06813939 -0.9638565 -0.8846669 -0.0919118
0001d0 91 a3 30 be 41 b8 8f be 90 45 c3 bd 36 34 07 bf
       -0.17249896 -0.28070262 -0.09534752 -0.5281404
0001e0 78 7c d1 be 36 9b 05 bf be 0b f0 bc ea 79 93 be
       -0.40915275 -0.5218996 -0.029302474 -0.2880395
0001f0 c8 c2 4e be 47 77 bc be 74 8e c5 be c5 c5 39 bf
       -0.2019149 -0.3680975 -0.38585246 -0.725674

gnn_0.lin.weight f4 [128, 128]
000000 a0 80 ff 3c a5 7a f6 3d 1d 77 55 be 42 b3 cd bd
       0.031189263 0.12035111 -0.2084622 -0.10043956
000010 21 41 1f 3e 2a 57 3c be 7a be 21 3e 19 45 bf 3c
       0.15552188 -0.18392625 0.15795317 0.023348378
000020 3e 31 fb 3d 14 f7 01 3e 3d b9 c7 bc 1f 4f d4 bd
       0.122652516 0.12691909 -0.02438032 -0.10366654
000030 08 32 4b 3d d0 2b 2a bd 1b d7 c9 bc 23 f8 52 be
       0.04960826 -0.04154569 -0.024638703 -0.20602469
000040 39 b0 02 3e b9 ba ca bd 2f f5 9e 3d 02 1f 94 3e
       0.12762536 -0.09898896 0.07761609 0.28929907
000050 e3 7c ea bd 73 23 e6 3d 8d fd ac 3d e7 19 b8 bd
       -0.114496015 0.1123723 0.084467985 -0.089893155
000060 b1 66 19 3e bb 07 23 3e d8 f9 07 3e 89 b2 c3 bd
       0.1498058 0.15920918 0.13278902 -0.09555537
000070 67 44 a1 3d 3b 29 b3 3d 71 8d 02 3e 4d 07 63 bc
       0.07874375 0.087480985 0.12749268 -0.013856721
000080 d4 81 b0 bd 65 19 1b be 20 f3 67 bd c4 ee 8a 3c
       -0.08618513 -0.15146406 -0.056628346 0.016959555
000090 8e 41 ba bb 01 24 b3 3c e8 fd 95 bd 2f 81 5f 3c
       -0.0056840843 0.021867754 -0.073238194 0.01364164
0000a0 f7 5f 94 bc 19 d2 dc 3d 46 95 e9 bc 11 50 9d bd
       -0.018112166 0.107822604 -0.028513562 -0.07681287
0000b0 0c 0b 2c be 83 1e 63 3c 3e 54 7c 3d 34 f3 51 3c
       -0.16801089 0.013862255 0.061603777 0.012814332
0000c0 0e 79 f7 3d 25 ef f6 3d 52 c1 8c 3e 3b c3 2f 3d
       0.12083636 0.12057332 0.27491242 0.042910796
0000d0 12 01 b8 bd f4 99 b8 bc 6a cc 88 3d 9b 4f f6 bb
       -0.08984579 -0.022534348 0.06679614 -0.007516814
0000e0 94 4b 29 3c 11 d0 7c 3e 2b 99 aa 3d a6 d1 e6 3d
       0.010332961 0.24688746 0.08329996 0.11270456
0000f0 8f f6 60 3e 86 96 52 3d b9 12 38 be 6a aa f0 bb
       0.21969055 0.05141308 -0.17975892 -0.0073445337
000100 a6 e7 60 3d 74 d1 5a 3e e3 66 52 bd 3e d3 c4 bd
       0.054908417 0.21368963 -0.05136765 -0.09610604
000110 ef 2f 11 3e b1 06 19 bd 6f 30 86 bd 39 47 82 3d
       0.14178441 -0.037359897 -0.06552207 0.06361241
000120 a9 65 10 be 1c 48 90 bd 82 c5 d6 3d 35 f5 79 be
       -0.1410128 -0.07045004 0.104868904 -0.24409945
000130 03 13 19 3d ce 7f af bd 2c 8f 32 3e 3c 7e 20 be
       0.037371647 -0.08569299 0.17437428 -0.15673155
000140 02 6c 85 3d 42 e3 40 3e 26 22 03 bc ba 0a 27 be
       0.065147415 0.18836692 -0.008003747 -0.16312686
000150 4e 46 10 3d c7 63 59 3c 3a 46 a0 3c 4d 88 b3 bd
       0.035223298 0.013268418 0.019564737 -0.08766232
000160 c7 71 ae bd e7 63 0e be 14 ce d2 bd b5 49 e4 3d
       -0.08517795 -0.13905297 -0.102932125 0.11146871
000170 c6 59 48 bd cc 73 c8 bd 24 a2 16 bd 62 48 15 3e
       -0.04891374 -0.097877115 -0.036775723 0.14578393
000180 d9 8f bb 3d d3 74 14 3d 26 cf b1 3d 58 48 e9 3d
       0.09158296 0.036244225 0.086820886 0.113907516
000190 3f e2 96 bc 44 c5 13 3e 2a 8b 0e 3e d6 e6 2e be
       -0.01841843 0.1443072 0.13920274 -0.17080244
0001a0 bf e9 70 3d 05 8a 95 bc 46 dc 91 3c 99 e8 f7 bc
       0.058816668 -0.01825429 0.01780523 -0.030262278
0001b0 77 ea 2f 3e 74 5c 97 3d e1 a8 6e bd 23 17 f9 3c
       0.17179285 0.07390681 -0.058266524 0.03040654
0001c0 62 f3 6b 3e de 84 d3 bd d4 a6 bb 3e c4 e0 9d 3d
       0.23042062 -0.10328077 0.36650717 0.07708886
0001d0 95 aa ef 3c d4 c3 80 3d bd 48 65 3e ce de 9e bd
       0.029256145 0.06287351 0.22391029 -0.0775734
0001e0 0b 9c 55 3e ea de 3f 3b 26 56 f9 bd 0a 0a 04 3e
       0.20860307 0.0029277154 -0.12174635 0.12894455
0001f0 b0 0e 80 be 6a 43 07 bd c0 a5 e8 bd 3e 0d 1b 3e
       -0.25011206 -0.033023275 -0.11359739 0.1514177
000200 3b 7c a6 bd 6d c5 16 bc 1b 6e 51 bb 29 17 21 3d
       -0.08129164 -0.009202343 -0.0031956497 0.039328728
000210 6c 14 1d 3e 4f fc 9b bd 0f 92 d8 bd 80 ea 26 3d
       0.15339822 -0.076164834 -0.105747335 0.04075098
000220 e1 a5 58 bd 66 b1 d9 3c 32 9c c3 bd 66 a8 1a be
       -0.05289257 0.026573848 -0.09551276 -0.15103301
000230 00 9a c6 bc be ce 9d 3d 2e 6d 27 bb 27 08 3a be
       -0.024243355 0.077054486 -0.0025547254 -0.18167172
000240 07 ac 30 3d 8b 0f be 3d 2a 20 de bc d1 83 e3 3b
       0.043132808 0.09280308 -0.027114946 0.006943204
000250 cb ec df bd 5b 36 64 bc 07 35 17 3d d4 6a 81 bd
       -0.109338365 -0.013928975 0.036915805 -0.06319204
000260 e1 89 0c bd cf 68 14 3e 3d 70 ce bb 36 1d 8b 3d
       -0.03431118 0.14493106 -0.006300001 0.06792681
000270 25 3e 9f bd 40 a5 c9 bd 66 b5 22 3e fc 5b 61 be
       -0.07775525 -0.09845972 0.1588951 -0.22007746
000280 e2 f5 f2 3a db b4 0b be aa 11 c2 3d 25 8b 4e be
       0.0018536414 -0.1364321 0.094760254 -0.20170267
000290 2f 5e ee bc 18 39 1b 3e 3b 8f aa 3d eb 5a 39 3e
       -0.029097645 0.15158498 0.083281 0.18101089
0002a0 56 55 ea bd dc d6 f7 3d 10 54 db 3d ee 2a 43 3e
       -0.11442058 0.12101528 0.10709393 0.19059345
0002b0 8d 17 5f 3d bc 16 3a 3d d9 71 9f 3d 31 7f e0 bd
       0.05446582 0.045431837 0.077853866 -0.1096176
0002c0 a2 bd 3c 3e 50 cf 34 be 5a 3f 0e 3d 4d 00 dd bb
       0.18431714 -0.17657208 0.034728386 -0.0067444206
0002d0 51 f2 d7 bd bc 67 ac 3d 65 a0 2d 3e 5e 34 e2 bc
       -0.10544265 0.08418223 0.16955717 -0.027612861
0002e0 28 d1 dd bc 2d 8e 5c 3d 77 2c 4b bc a8 81 9e 3d
       -0.027077273 0.053846527 -0.012400738 0.07739574
0002f0 27 ef 5f 3e 23 1c 7b bd 15 16 c7 bc fd 2c 8b 3e
       0.21868573 -0.06130613 -0.024302522 0.2718276
000300 7e d6 1d bd b8 e6 fd 3d 44 bf 9f 3b 50 3f 3f be
       -0.038534634 0.12397522 0.0048750956 -0.18676496
000310 45 59 d3 bd 96 08 67 be 87 92 4e 3c 90 0c 7a 3d
       -0.10319761 -0.22561869 0.012608177 0.061047137
000320 c8 37 f6 3c 4b 51 2c bd 47 79 0c be 36 39 2a be
       0.030055895 -0.042069715 -0.13718139 -0.16623387
000330 26 80 16 be f9 7c 30 bd 4b 55 26 3e aa 17 09 be
       -0.14697322 -0.043087933 0.16243474 -0.13387933
000340 52 ef c2 3d d5 a1 6c 3d 0b 29 5f 3c 14 31 86 bd
       0.09518303 0.057771523 0.013620625 -0.0655233
000350 e0 e7 5b 3e f4 a5 10 3e be 07 42 be 5b 1c 80 bd
       0.21475172 0.14125806 -0.18948266 -0.062554084
000360 af 24 30 be 3a f9 59 bd 7b 34 f6 3c e2 37 3e 3e
       -0.17201494 -0.053216197 0.030054322 0.18576005
000370 97 d8 46 bd 2c f1 c4 3d cc 7a 36 bc 0e dd 77 3e
       -0.0485464 0.096163124 -0.0111376755 0.2420542
000380 87 71 40 3e 56 39 45 bc 2e d3 48 3e 9c 8c 97 3d
       0.18793307 -0.012037596 0.19611809 0.07399866
000390 9d 59 76 bc 2b da 2d 3d fa df 6f 3d 9a 7e b9 3c
       -0.015036014 0.04244439 0.05856321 0.022643376
0003a0 0b 48 54 be c0 92 30 bd 99 e2 4a bd d7 e1 84 bd
       -0.20730607 -0.0431087 -0.049532507 -0.06488388
0003b0 42 1d ab 3e b7 cb 02 be 18 e6 8e 3d 11 c5 5b bd
       0.3342076 -0.12773024 0.06977481 -0.053654734
0003c0 46 05 04 3b 6b 8c cb 3c 83 f4 33 3e f1 3a 7a 3d
       0.0020144745 0.02484723 0.17573743 0.061091367
0003d0 c5 d5 f8 bc 8d 02 a1 bd 27 17 e0 3d 11 b7 17 be
       -0.03037537 -0.07861815 0.10941916 -0.14815928
0003e0 e7 14 22 bd aa 4c 00 3e 0f 41 86 3c da 49 9c 3d
       -0.039570715 0.12529245 0.016388444 0.076312736
0003f0 52 e0 59 be e3 29 cc bd 54 c7 32 3d ef f3 a3 3d
       -0.21276978 -0.09968927 0.043647125 0.08005511

gnn_1.bias f4 [128]
000000 bd f6 29 3e 0b a2 aa 3e 8e db 7d be 18 b6 9d be
       0.1659803 0.33326754 -0.24790785 -0.3080299
000010 27 c2 af 3d 9a 9d 1d bd d5 7b c1 3e ba 62 07 bf
       0.085819535 -0.03848038 0.3778979 -0.5288502
000020 67 bf 8c be ec 55 75 be bb 5e d4 bd 43 60 62 3e
       -0.27489778 -0.23958558 -0.10369631 0.22107033
000030 9c 21 1b bf 0e b6 22 be d3 c6 0f bf f1 51 17 3f
       -0.6059816 -0.15889761 -0.56162757 0.5910941
000040 73 16 9e be 0a 8f 00 be 79 de 5a 3e 72 27 05 3e
       -0.30876502 -0.12554565 0.21373929 0.13003328
000050 e5 fb 17 bf 6e 54 00 be 52 3a 91 bd 59 8c c2 3e
       -0.59368736 -0.12532207 -0.07091202 0.37997702
000060 20 fd e1 3e 1d 07 1b be 14 85 32 be 85 80 04 3d
       0.44138432 -0.15139432 -0.17433578 0.03234913
000070 70 56 9d bc f8 69 06 bd 1a 3b 2c be a7 92 91 be
       -0.019206256 -0.032815903 -0.1681942 -0.284322
000080 41 d3 80 be e2 5c 8f 3e d2 fe c5 be e8 39 53 be
       -0.25161174 0.2800055 -0.38670975 -0.20627558
000090 b2 a8 ab bd bd b2 06 bf 63 f4 a8 3e 2b fa 08 bf
       -0.083817855 -0.5261648 0.32998952 -0.53506726
0000a0 e4 be 1e 3e a5 a4 a8 bd f1 6a 76 be d9 1a e5 bd
       0.15502506 -0.082345285 -0.24064232 -0.111867614
0000b0 a9 10 3f bf 76 db 29 3e ca e0 8c 3e aa 5f 45 bd
       -0.74634796 0.16587624 0.2751525 -0.048186935
0000c0 81 e9 a2 be 9a 7f d6 bd ae 48 b1 bc a8 c1 11 be
       -0.31818774 -0.10473557 -0.021641102 -0.1423403
0000d0 e3 2e 8d bd 70 c9 ad 3e 54 8b 75 be 9d 61 f9 3c
       -0.068937086 0.33942747 -0.2397893 0.030442053
0000e0 08 ee 54 be 62 15 db be 87 8d f4 be a4 9c f9 bd
       -0.20793927 -0.4278975 -0.47764227 -0.1218808
0000f0 95 19 b8 bc 6b 07 54 be 10 69 56 be 3d 4b 00 be
       -0.022473136 -0.20705955 -0.20938516 -0.12528701
000100 0d d2 e4 be 56 3d f6 bb 72 7b d7 be 9d c6 8b be
       -0.44691506 -0.007514636 -0.4208637 -0.27299967
000110 33 99 ae 3e 98 85 69 3e a5 8a db 3e 3d c0 d2 be
       0.34101257 0.22804868 0.42879215 -0.4116229
000120 ea 6d fa 3d 25 9a 6e 3d d8 17 f1 3e c7 2b 66 be
       0.12227996 0.058252472 0.47088504 -0.22477637
000130 18 36 50 be f7 71 ea be 3a 55 eb bd 42 79 95 bd
       -0.20333135 -0.45790073 -0.11490865 -0.07298519
000140 a3 28 88 bd 56 fb 83 be ac f2 4b 3f af e1 97 be
       -0.06648376 -0.25777692 0.7966716 -0.2966437
000150 87 df 76 be 12 30 d5 bb f2 1b 42 3f 0d f5 b6 be
       -0.24108706 -0.0065059746 0.7582389 -0.35733834
000160 0c 22 31 3f 9b f1 a0 be 64 87 84 be e0 d4 e9 bd
       0.69192576 -0.3143433 -0.25884545 -0.11417556
000170 9a f2 f6 3e ec 93 83 3e fe d2 f4 bd 9d c9 82 bc
       0.48231965 0.25698793 -0.11954306 -0.015965277
000180 d2 94 c7 bd 83 33 0b bf b5 de 64 be 3d 8d cc bd
       -0.09745182 -0.54375476 -0.22350581 -0.099878766
000190 10 2e af be 83 aa df be 34 d4 2c be c3 5a a6 be
       -0.3421483 -0.43684778 -0.16877824 -0.3249112
0001a0 10 04 04 bf d8 ce c5 be c1 a9 14 be a3 18 cf be
       -0.515687 -0.38634372 -0.14517881 -0.40448484
0001b0 be 2c 0c be e3 ae 78 be 7c 91 bd 3e dc 1e d7 3e
       -0.13688943 -0.24285464 0.37025058 0.4201573
0001c0 15 61 06 be ae 0d 0e 3e 71 51 86 be 63 3d 11 be
       -0.13122971 0.13872406 -0.2623401 -0.14183573
0001d0 95 54 c2 bd fd ad 6f bc 53 17 31 be 57 f8 14 bf
       -0.09488789 -0.014628884 -0.17294054 -0.58191437
0001e0 ff 93 c3 3e 1f 5a e5 be 88 39 cb 3e 8e 44 4f be
       0.3819885 -0.4479532 0.3969233 -0.20240995
0001f0 b4 9d 08 be 38 df af 3d d3 e5 2f be 42 ce 8e 3e
       -0.13341409 0.085874975 -0.17177515 0.27891737

gnn_1.lin.weight f4 [128, 128]
000000 c3 57 be bd 15 fd 83 bd c3 e5 a7 3e 7c bd 09 bc
       -0.09294083 -0.06444756 0.32792482 -0.008406993
000010 d4 79 f1 be cf 43 42 bf 8a 66 00 3e 6f 9c a0 3d
       -0.4716326 -0.7588472 0.12539116 0.07842337
000020 bc b8 ef be 46 43 71 bd 1f f9 73 3e 58 25 e2 3d
       -0.4682063 -0.058902048 0.23825501 0.11042279
000030 46 ef 06 3e e0 68 78 3e 6a 94 bd 3e bb e8 c1 bd
       0.13177213 0.24258757 0.37027293 -0.09468218
000040 92 37 26 be 12 34 79 3e 0a 14 10 3f f1 88 05 3e
       -0.16232136 0.2433627 0.5628058 0.1304052
000050 b3 c6 85 bd f2 6c 9b 3d 22 94 87 3e 69 91 a4 3d
       -0.065320395 0.07589139 0.26480204 0.08035547
000060 91 81 63 ba 9f 29 5c 3c be 99 d3 3e 06 f4 4a bf
       -0.00086786697 0.013437658 0.41328233 -0.792786
000070 0c d0 bd 3e d2 a4 ff bd b4 5e c6 bd 9e 26 03 bf
       0.3707279 -0.12482609 -0.09686032 -0.512308
000080 b1 e3 e4 bd df be 08 be 94 b4 ab 3e 91 7e bc be
       -0.11176241 -0.13354062 0.33536208 -0.36815313
000090 ac 4e 85 3e 21 57 74 3e d7 6d 56 bd bd 7e 4b 3e
       0.26036584 0.23861362 -0.052350845 0.19872566
0000a0 05 83 ef be 56 ed 21 3f bd 72 b9 3e 36 d8 4c 3e
       -0.46779647 0.6325277 0.3622035 0.20004353
0000b0 60 ef 3a be 73 f4 b1 bc dc 13 00 be 33 3f b1 3d
       -0.18255377 -0.021723008 -0.12507576 0.086546324
0000c0 76 e7 23 3e b0 c7 b4 bc 98 b1 aa bd c7 6f 81 be
       0.16006264 -0.022067875 -0.083346546 -0.25280592
0000d0 51 fd 59 3d 8e f4 63 be af 63 f3 be 9b 0d c0 be
       0.053220097 -0.22261259 -0.4753699 -0.3751038
0000e0 22 e8 9c 3e 97 10 01 3e 12 48 cf bd ce c8 9e bc
       0.30645853 0.12603985 -0.10121168 -0.01938286
0000f0 55 62 3f bd 2a 7b df be fb 60 db bd 40 cc cb 3e
       -0.046724636 -0.43648654 -0.10711857 0.39804268
000100 76 c0 6a bd 21 2a 6f bd 77 cd 33 be b5 fc d5 bb
       -0.05731245 -0.058389787 -0.17558847 -0.006530369
000110 1c 3f c3 be 2d 7e 34 3f d7 9f 07 3c f6 41 63 3e
       -0.38134086 0.7050503 0.008277855 0.22193131
000120 39 dd 7e bd 09 c2 8e 3e 65 8a b2 bd 82 d5 a1 bc
       -0.062222693 0.27882412 -0.08717803 -0.019755129
000130 d2 b1 2c bf 68 a8 45 bf 8e b0 ac be a3 d5 90 3e
       -0.6745883 -0.7721009 -0.3372845 0.28287992
000140 ef f4 5d 3e 4f 75 18 3e 9b 56 0a 3d 63 25 55 bf
       0.21675466 0.148885 0.033774 -0.8326017
000150 c4 81 65 bd e9 c6 35 bf 87 af 33 3e a6 84 20 3e
       -0.056031957 -0.7100664 0.17547427 0.15675601
000160 90 db f0 3d 2d 56 2a be cc fc dd be ad 44 c8 3d
       0.11760628 -0.16634436 -0.4335693 0.09778724
000170 15 a4 77 bd 9e 3e 92 bd ef 2c a4 3d bd 1b 03 3e
       -0.060459215 -0.071408495 0.08016383 0.1280355
000180 02 0a 86 be 69 3c 0a be eb 00 d3 be 80 50 ab 3e
       -0.2617951 -0.13499607 -0.41211638 0.33459854
000190 1a 27 49 3e 20 a2 6e bf 07 ae 08 3e 0d ea 02 3e
       0.19643822 -0.93216133 0.13347636 0.12784596
0001a0 72 c2 6e bc 1a dc f0 be a8 46 04 3e 65 e8 86 3e
       -0.014572727 -0.47042924 0.12917578 0.26349178
0001b0 51 00 01 bc 1d a3 9e 3d 45 e0 0a bd b5 bc 04 3e
       -0.007873611 0.07745955 -0.033905286 0.12962611
0001c0 dc 64 b0 be d9 c2 29 3f 0d c0 25 be b8 bb 3b be
       -0.3445195 0.6631294 -0.16186543 -0.18333328
0001d0 c5 9c d1 3d a7 b6 9b bd 49 36 0c 3e 03 c9 2c be
       0.102349795 -0.076031975 0.13692583 -0.16873555
0001e0 6f 2c 69 be b4 f7 cd bd 06 a9 96 3e d1 77 d7 bd
       -0.22770856 -0.10057011 0.2942583 -0.105209
0001f0 08 69 84 3e 58 38 e8 be c7 80 16 3d 15 18 2f 3e
       0.25861382 -0.45355487 0.036743905 0.1709903
000200 0c 56 f7 bc 89 c3 69 bd 71 85 d2 be 67 ce b8 be
       -0.030192398 -0.057071242 -0.41117433 -0.36094972
000210 50 7d a9 bd b8 18 eb be f0 88 3c bf 18 a7 a4 3e
       -0.082758546 -0.45917296 -0.7364645 0.32158732
000220 0a 2e b3 be 84 69 02 bf 2f ae 04 be 07 a8 d8 be
       -0.34996063 -0.50942254 -0.12957071 -0.42315695
000230 42 cb d1 bd c1 31 79 bf 67 58 13 3f e0 1e 11 bf
       -0.102438465 -0.97341543 0.57556766 -0.56687737
000240 1f 47 ae be 97 9d 16 be 48 bd 83 be 7a 91 22 bf
       -0.34038636 -0.14708553 -0.25730348 -0.6350323
000250 a0 1d ae 3e 9e 9d 96 bb 53 af 66 bf cf 08 6a 3e
       0.34006977 -0.004596426 -0.90111274 0.22854923
000260 74 00 82 3d 81 75 19 bf 48 a0 4c 3f aa 3c a4 3e
       0.06347743 -0.5994492 0.7993207 0.32077533
000270 c1 a8 a2 be 2b 7c 22 3e 50 47 8c be fb 1e 40 3e
       -0.31769374 0.15867679 -0.27398157 0.18761818
000280 ce fa d1 be c9 12 c3 3e 76 83 16 3f e0 e0 08 3e
       -0.4101166 0.3810027 0.58794343 0.13367033
000290 a6 c6 40 bd 81 f9 e5 be ab bf a7 3d a0 4c a6 3e
       -0.047064446 -0.4491692 0.08190855 0.32480335
0002a0 be f2 ae bc 3a 9c b5 bd a9 df 4e be ae 70 89 3d
       -0.021355983 -0.088676885 -0.20202507 0.06710945
0002b0 d0 d4 d9 be 60 78 91 3e 91 38 aa bc 98 59 0f 3f
       -0.42545176 0.2841215 -0.020778926 0.55996084
0002c0 ba f5 f6 3d ae ca a3 bc b9 07 26 bf f6 b6 0d 3a
       0.12058587 -0.019994106 -0.64855534 0.00054059864
0002d0 75 a5 41 bc ce b9 86 bc ac b5 2e be a8 b3 38 3e
       -0.011819233 -0.01644602 -0.1706149 0.18037283
0002e0 88 4f 29 bf c5 13 07 3f 73 25 03 bf cf 92 8d 3b
       -0.6613698 0.5276454 -0.5122902 0.0043204795
0002f0 fa fb 72 3e bf 26 25 be fd b9 7c bd 2c 90 00 be
       0.23728934 -0.16128062 -0.06170081 -0.12554997
000300 38 3a d7 3d ac c9 04 3d f2 3b 12 bf c0 78 33 bf
       0.10509151 0.03241889 -0.5712272 -0.70106125
000310 79 4e b4 be c5 a8 19 bf b0 46 b7 bc 59 6c 1b 3e
       -0.3521612 -0.60023147 -0.022372574 0.1517805
000320 95 b8 1a 3d 49 3d 7a bd bb ca a0 3e c5 53 98 be
       0.037773687 -0.061093602 0.3140467 -0.2975141
000330 a2 67 38 3e b5 94 ee 3c 7a bf 93 be df 36 98 3d
       0.18008283 0.029123643 -0.28857023 0.07432341
000340 4f 6a 2f bf 9e 13 a3 3d c5 8a 6c be 3e c3 07 bf
       -0.6852159 0.07962726 -0.23099811 -0.5303229
000350 ad f2 22 bd e4 cf 4a 3d dd d3 d9 3d c5 bb 9f 3e
       -0.039782215 0.049514666 0.10636113 0.31197944
000360 60 a2 05 bf 2c a1 46 3c b7 58 bf 3a cc 55 06 3f
       -0.5220089 0.012123387 0.0014598583 0.52474666
000370 fc 66 e2 3d 99 64 20 be f3 e1 af be 3f 88 e8 be
       0.11054799 -0.15663375 -0.34352073 -0.45416448
000380 65 b3 0c 3e c7 42 da bd 7f 05 63 bf ee 27 0c be
       0.13740309 -0.10657268 -0.8868026 -0.13687107
000390 32 4b c1 3e 04 ad d6 be 6b 90 86 be 09 d3 a5 3e
       0.37752682 -0.41928875 -0.26282057 0.3238757
0003a0 32 f7 34 bf fb 93 1e 3d b0 fd 00 3f 8f 4e 70 be
       -0.7068969 0.038715344 0.50387096 -0.23467468
0003b0 61 e5 5c bf 43 61 5b be 42 63 78 bc 15 fd 7f 3e
       -0.86287504 -0.21423821 -0.015160384 0.24998887
0003c0 f7 09 dc bd ac 19 af be 13 6a 34 bd 63 3f a6 bd
       -0.10744088 -0.34199274 -0.044046473 -0.08117559
0003d0 5f 6e 3f 3e 06 04 02 be 68 2d 38 bf fd 36 1e be
       0.18694447 -0.12696847 -0.71944284 -0.15450664
0003e0 44 f6 b7 be 0a 2a 3b 3d 60 42 08 be d6 94 b7 bd
       -0.35930073 0.04569439 -0.1330657 -0.08963935
0003f0 e4 35 da 3d d3 74 09 bf 9b 14 e5 3e 35 fa c3 3b
       0.1065481 -0.53693885 0.44742283 0.0059807547

gnn_2.bias f4 [128]
000000 63 70 ee be 94 54 ac bd 0c 14 e2 bd a0 81 10 3e
       -0.4657012 -0.084145695 -0.1103898 0.14111948
000010 d6 3e f4 be 8a 5e 37 3e 9c 1c 8d be 51 a2 77 bd
       -0.4770419 0.17907158 -0.2756089 -0.06045753
000020 70 1f 9a 3f 40 1b 33 bf b9 2b 4e 3e c7 c7 80 3e
       1.2040844 -0.69963455 0.20133866 0.25152418
000030 3f ee 4c be 2c 8b 69 be 04 f2 c1 be 95 c2 58 bf
       -0.20012759 -0.22806996 -0.37879956 -0.8467191
000040 bd 17 ad be f3 7c 1b be a4 02 a6 3e 62 26 08 bf
       -0.33807173 -0.15184383 0.3242389 -0.5318357
000050 6f 37 51 be 66 16 21 bd 7f e4 24 bf 27 c6 72 bd
       -0.20431302 -0.039328 -0.6441116 -0.059271004
000060 c0 7d 35 be 97 34 44 be 1f a8 0b 3f 6f cc c0 bd
       -0.17723751 -0.19160686 0.5455341 -0.094139926
000070 70 50 16 be 22 78 30 be 03 02 bf 3e b5 50 24 3e
       -0.14679122 -0.17233327 0.37306222 0.16046412
000080 18 97 ad 3d 85 d4 17 be 32 17 1a be 65 5c ec 3d
       0.084760845 -0.14827164 -0.15047911 0.1154106
000090 29 ad 08 3e 34 20 81 be 35 9a 8e 3e 89 7f b1 3e
       0.13347305 -0.25219882 0.27852026 0.34667614
0000a0 79 88 23 be 3b 23 a4 3d 28 3e 60 bd 40 9d 66 be
       -0.15970029 0.08014532 -0.054746777 -0.22520924
0000b0 92 c8 3e 3e 6b 42 e3 be fa da 81 3e 9c 8c 34 bd
       0.18631199 -0.4438661 0.25362378 -0.044079408
0000c0 3d 58 b7 bd ab fd e3 be 4e 70 91 3e 1f 8f 7a bc
       -0.08952377 -0.4452947 0.28405994 -0.015292912
0000d0 d5 09 eb bd a0 a8 88 3e 60 3b 61 be aa 01 97 bd
       -0.11476485 0.2669115 -0.21995306 -0.07373364
0000e0 ac 2a 05 be 10 74 70 be b9 66 9f 3e 99 28 18 3e
       -0.1300456 -0.23481774 0.3113306 0.14859237
0000f0 e8 57 8b 3e ab 8e 0e be cb 19 80 be cc 09 36 bf
       0.27215505 -0.13921611 -0.25019678 -0.711087
000100 8b f2 45 3e ed 5a 1c 3d 55 23 d6 3e f3 7f 2a 3e
       0.19330804 0.03817265 0.4182383 0.16650371
000110 96 89 9e be ba 21 b0 bc fb e4 3b be 90 b1 3c be
       -0.30964345 -0.021500457 -0.18349068 -0.1842711
000120 d2 da e1 3e 83 b3 fd bd a9 c9 e4 3d 62 86 6e 3e
       0.4411226 -0.12387755 0.11171276 0.2329345
000130 3a 1d 5f 3d 0a 3d cb 3d 9a 7e 7d bd 19 f9 4b 3c
       0.054471232 0.09923752 -0.061888315 0.012449526
000140 2d ee 19 be 3a 86 47 be 38 d4 88 bd 1e 79 a5 be
       -0.15032263 -0.19484797 -0.066811025 -0.32318968
000150 f8 10 7d be 1e 72 56 3e b9 5d 9d be 68 12 13 3f
       -0.24713504 0.2094197 -0.30735567 0.5744996
000160 0c 88 64 bd 63 a7 9d bb 4f 13 cc bb b4 7d 5c be
       -0.055793807 -0.004811214 -0.0062278877 -0.21532327
000170 fc f4 c2 be c8 8a bb be d7 4e 82 be a3 b1 38 bc
       -0.38077533 -0.3662932 -0.25450775 -0.011272821
000180 a1 25 5d be 1d db 78 3e e2 7f 91 3e fe 2e ea bd
       -0.21596386 0.24302335 0.2841788 -0.11434744
000190 95 c0 21 be 5e 7d 1f 3f 98 0f 56 be dd 1a 5a bb
       -0.1579612 0.6230067 -0.20904386 -0.0033280172
0001a0 11 1b 94 3d 60 1f b7 be 1d 70 d2 3e 96 f1 b2 3d
       0.07231725 -0.35766125 0.4110116 0.08737485
0001b0 4c 01 ae be e0 c0 1b be f0 44 a8 3e 68 ed f9 3d
       -0.33985364 -0.15210295 0.32865095 0.12203485
0001c0 ff b5 bb 3d e9 d5 4f 3e 45 2a a0 be 0d 4b da bd
       0.091655724 0.20296444 -0.3128225 -0.10658846
0001d0 cd 7a 77 be bc d2 51 bd 95 12 85 3c b0 b7 b2 3d
       -0.24167939 -0.051226363 0.016244212 0.08726442
0001e0 1f d1 73 be c3 9f 83 3e 14 76 0f be 76 2e 09 be
       -0.23810242 0.25707826 -0.14009887 -0.1339663
0001f0 b6 cd 19 3f f8 cd 8f be d3 46 a4 3e 42 8d 14 3f
       0.60079515 -0.2808683 0.32085285 0.5802804
