models/particle_gnn_39.pth (torch, 820468 bytes, 38 tensors)

encoder.0.weight f4 [128, 9]
0	0x3e2b440f	0.16725181
1	0xbdfb9e78	-0.12286085
2	0xbf50dbaf	-0.8158521
3	0x3a516e9b	0.0007989199
4	0xba8b2825	-0.0010616822
5	0x39ac7751	0.00032895294
6	0x3f1f889f	0.6231784
7	0x3e9d14d6	0.3067996
8	0x3e5db3fc	0.2165069
9	0x3e846773	0.25860175
10	0xbd6353bd	-0.05549978
11	0xbf0b8635	-0.5450166
12	0xbe05bd0d	-0.13060398
13	0xbe3b0b63	-0.18266062
14	0x3e14828a	0.14502922
15	0xbe82d3c3	-0.25552186
16	0xbe838f0d	-0.25695077
17	0x3e549d2c	0.20763081
18	0xbea57612	-0.32316643
19	0xbf20b710	-0.6277933
20	0xbdd979dd	-0.10618947
21	0x3ae91123	0.0017781596
22	0x39ea57ba	0.0004469732
23	0xbb63e165	-0.0034771797
24	0xbdf92edd	-0.121671416
25	0x3d597985	0.053094406
26	0xbe3eac4d	-0.18620415
27	0xbe24a744	-0.16079432
28	0x3e1fa142	0.15588859
29	0xbed39c08	-0.4132998
30	0x38662664	5.4872027e-05
31	0x39d09577	0.00039784212
32	0x3ab8d7c4	0.0014102389
33	0x3dd62f26	0.104582116
34	0xbe5c376f	-0.21505521
35	0xbcd6dd7c	-0.026228659
36	0xbe95f764	-0.29290307
37	0x3e199914	0.14999801
38	0x3d4ba47c	0.04971741
39	0xba8eb07a	-0.0010886334
40	0x3aaeaa69	0.0013325933
41	0xbb21735f	-0.0024635417
42	0x3ea35dcb	0.31907496
43	0xbe774d5a	-0.24150601
44	0xbd2a2431	-0.04153842
45	0xbd8eb761	-0.069685705
46	0xbddb752a	-0.10715707
47	0x3ede6921	0.43439582
48	0x3d0404b2	0.03223104
49	0x3d047b67	0.03234425
50	0x3d582d21	0.052777413
51	0xbe363eec	-0.1779744
52	0xbee9df87	-0.4567835
53	0xbe874727	-0.26421472
54	0x3ed86288	0.42262673
55	0x3df66f0a	0.12032898
56	0xbecc21f6	-0.3986966
57	0xbd255ba7	-0.04037061
58	0x3cdf3b3b	0.027249923
59	0x3dc815ed	0.09769807
60	0x3e8a3c30	0.26999044
61	0x3d43eee5	0.04783525
62	0xbdbcb519	-0.09214229
63	0xbeb3875a	-0.35064203
64	0x3edd785a	0.43255883
65	0xbdbb6335	-0.091497816
66	0x3ca18543	0.019716864
67	0x3da6520b	0.08121117
68	0x3d55be66	0.05218353
69	0xbeb9de2f	-0.36302325
70	0xbe695688	-0.22786915
71	0x3cf3ccda	0.029760767
72	0xbe9d724b	-0.3075126
73	0xbdee8757	-0.11646908
74	0x3f0a2a36	0.5397066
75	0x3c8c075d	0.017093355
76	0xbc2e3985	-0.010633831
77	0xbc829dcf	-0.01594439
78	0x3e1ac7c1	0.15115263
79	0x3e2b2fc5	0.16717441
80	0x3e83f415	0.25772157
81	0xbe011897	-0.12607037
82	0xbcf1eff7	-0.02953337
83	0x3ed3543e	0.4127521
84	0x3b3fe1b6	0.0029278821
85	0xbafa1616	-0.0019080068
86	0x3aaaccad	0.0013030969
87	0x3e81fe5c	0.25389373
88	0xbe8c544f	-0.27408072
89	0xbd1628f8	-0.036660165
90	0x3e327fb6	0.1743153
91	0x3f1bceb0	0.60862255
92	0x3f0e4ba3	0.5558416
93	0xbd491ba7	-0.049098637
94	0xbdedf3ed	-0.11618791
95	0xbe0eb9e2	-0.13938096
96	0xbe8c8613	-0.2744604
97	0x3e88d7ab	0.26727042
98	0x3de6857f	0.11255931
99	0xbe9506ff	-0.291069
100	0x3e735381	0.23762323
101	0xbf088fcf	-0.53344434
102	0x3a669dcb	0.00087973167
103	0x3c19befe	0.009383915
104	0xbb1caedb	-0.0023907933
105	0x3e4ec37f	0.20191763
106	0xbe0490d2	-0.1294587
107	0x3d4a8d23	0.049451005
108	0x3dbb0e22	0.09133555
109	0x3e65d09b	0.22442858
110	0x3ecb15c8	0.39665055
111	0xbd91b0c3	-0.07113793
112	0xbc1ec2b3	-0.009689975
113	0x3d662f4d	0.056197453
114	0xbea6efe9	-0.32604912
115	0xbe05726d	-0.13031931
116	0xbec4f46e	-0.38467735
117	0xbde445a0	-0.111460924
118	0xbef86805	-0.4851686
119	0x3e52bc9a	0.20579758
120	0xbc95909e	-0.018257435
121	0xbca3c04c	-0.019989155
122	0xbab286db	-0.0013620512
123	0x3f1a4356	0.60258996
124	0x3e952685	0.2913095
125	0x3f0bcee1	0.5461255
126	0x3e902b25	0.28157917
127	0xbd08d38a	-0.033404864
128	0x3db17a07	0.08665853
129	0x3d29f1cd	0.041490365
130	0xbd2e9c14	-0.042629316
131	0x3c8d7df6	0.017271977
132	0xbcbee454	-0.023302235
133	0xbedc26ff	-0.42998502
134	0xbe83eeed	-0.25768223
135	0xbf155d31	-0.58345324
136	0x3f01be1b	0.506807
137	0xbea5571b	-0.3229302
138	0xbbfca1bd	-0.0077097104
139	0x3a87a21d	0.0010347996
140	0xbbc27df2	-0.005935424
141	0x3e1e3886	0.1545125
142	0xbe7c7a06	-0.24655923
143	0xbdea95b8	-0.11454338
144	0xbe201972	-0.15634707
145	0x3dd5994e	0.10429631
146	0x3eda9806	0.4269411
147	0x3ae14ee1	0.0017189645
148	0xba8080da	-0.0009804026
149	0xba6e6d52	-0.00090952695
150	0xbea9794c	-0.33100355
151	0xbd13b801	-0.03606415
152	0xbdf38593	-0.11890712
153	0xbe4ee6ce	-0.20205233
154	0x3e225a12	0.15854672
155	0xbf32363d	-0.6961401
156	0xbc93fc21	-0.01806456
157	0x3d3574bf	0.04430079
158	0xbd18b274	-0.03727956
159	0xbe71fced	-0.2363164
160	0x3e591293	0.21198492
161	0x3d472c5c	0.04862629
162	0x3e8a3806	0.26995867
163	0xbe5ba656	-0.21450171
164	0x3f01d57c	0.50716376
165	0x3b410e0f	0.0029457842
166	0xbbd96021	-0.006633774
167	0x3be2b7cb	0.0069188825
168	0x3e157f69	0.14599384
169	0x3d116045	0.0354922
170	0xbd6955de	-0.056966655
171	0xbe37567e	-0.17904088
172	0xbeb26df5	-0.34849516
173	0xbedde928	-0.43341947
174	0x3e03e9ae	0.1288211
175	0x3dddbfce	0.108275995
176	0xbd6ba44b	-0.05752973
177	0xbe21abac	-0.15788144
178	0x3e2f9011	0.171448
179	0x3df5e88f	0.12007248
180	0x3f3d093d	0.7384222
181	0xbf27aaeb	-0.65495175
182	0x3ecd0619	0.40043715
183	0x3c5ce029	0.013481178
184	0xbb6b9ffb	-0.003595351
185	0x3c35b04b	0.011089395
186	0x3e16a783	0.14712338
187	0x3e93c8ec	0.2886423
188	0x3e628c99	0.22123946
189	0xbdc77ea2	-0.0974095
190	0x3e54150d	0.20711155
191	0x3e0801de	0.13281962
192	0xbcefc81c	-0.029270224
193	0xbb765fa3	-0.0037593625
194	0xbd3a8e5e	-0.04554593
195	0xbe68d442	-0.2273722
196	0x3d39ce5f	0.045362826
197	0xbe222d98	-0.15837705
198	0x3e47dafa	0.19517127
199	0x3eb793ae	0.35854858
200	0x3edc3ffb	0.43017563
201	0xbdcfa060	-0.10138011
202	0x3d2b596b	0.041833322
203	0x3afaad7f	0.0019125192
204	0xbdd07347	-0.101782374
205	0x3e8b5617	0.2721412
206	0x3dc9f1a2	0.09860541
207	0xbf1ad31c	-0.6047838
208	0xbe918659	-0.28422812
209	0x3e1993e6	0.14997825
210	0x3c37a209	0.011208066
211	0xba9c01da	-0.0011902407
212	0xbc5c2f8d	-0.013439071
213	0xbebfdccd	-0.37473145
214	0xbe5dc907	-0.21658717
215	0xbdc6c5c7	-0.09705692
216	0xbd00327d	-0.03129815
217	0x3b8c14a8	0.0042749234
218	0xbecd969f	-0.40153977
219	0xbb794cbb	-0.003804012
220	0xbbc8c042	-0.0061264345
221	0x3b555632	0.0032552597
222	0xbe6c3f06	-0.23070917
223	0xbed3a881	-0.41339496
224	0xbe25a5c5	-0.16176517
225	0xbf0ff721	-0.56236464
226	0xbf03ca49	-0.5148054
227	0x3ccd35c7	0.025050057
228	0xbcaa93a0	-0.020822346
229	0x3d7acf6b	0.061232965
230	0xbd66adea	-0.0563182
231	0x3eb88e7a	0.360462
232	0x3e99ad9b	0.30015263
233	0x3deecfeb	0.11660751
234	0x3f035b2b	0.51310986
235	0xbe2e515f	-0.17023228
236	0x3eb63052	0.3558374
237	0xbba12465	-0.0049176686
238	0x3c397f03	0.011321786
239	0x3c2e0674	0.010621656
240	0x3d493da0	0.049131036
241	0x3df15c0c	0.11785135
242	0x3eef8811	0.46783498
243	0x3f0aa3e7	0.54156345
244	0x3ea3a413	0.31961116
245	0xbe494c77	-0.19658075
246	0x3cbb0584	0.022829778
247	0x3cef18f4	0.029186703
248	0xbd2a5e4c	-0.041593835
249	0xbe2bad59	-0.16765346
250	0x3dc3330f	0.09531223
251	0x3aca7d94	0.0015448802
252	0x3e371e19	0.17882575
253	0xbdfbe189	-0.12298877
254	0xbeb211b3	-0.34779128
255	0xbc13ff6e	-0.009033067

encoder.0.bias f4 [128]
0	0x3f317208	0.6931462
1	0xbdfcc7e4	-0.123428136
2	0x3d7e89c4	0.062143102
3	0xbe97edbf	-0.29673573
4	0x3e34d8c0	0.17660809
5	0xbded5d7e	-0.11590098
6	0x3d1b6e93	0.03794725
7	0x3e242fc0	0.1603384
8	0xbddf7deb	-0.10912689
9	0x3b1b7875	0.002372292
10	0xbd99cd8d	-0.07509909
11	0xbea491b6	-0.3214242
12	0xbe0590a9	-0.13043465
13	0x3ec5bab7	0.38619015
14	0xbe96e04f	-0.2946801
15	0xbe6bad88	-0.23015416
16	0x3c798840	0.015230238
17	0xbe2f0895	-0.17093118
18	0xbd4d963e	-0.05019211
19	0xbe9ca040	-0.3059101
20	0xbdf8fe11	-0.12157834
21	0xbe501895	-0.20321877
22	0x3e0692e0	0.13141966
23	0xbed1d7d6	-0.40984982
24	0xbd1e1f14	-0.038603857
25	0x3ec9bbf1	0.394012
26	0x3edc04a5	0.42972293
27	0x3e9a66cf	0.30156562
28	0xbe89f8f5	-0.26947752
29	0xbdd5f3fd	-0.10446928
30	0x3e9f6082	0.31128317
31	0xbe353b4f	-0.17698406
32	0xbe695837	-0.22787558
33	0xbebe384f	-0.37152335
34	0x3e55b44f	0.20869564
35	0x3d9ec127	0.07751685
36	0x3ee9f7c2	0.45696837
37	0x3e5aeae2	0.21378663
38	0xbea2b492	-0.3177839
39	0x3d8b5139	0.06802601
40	0xbdd3454f	-0.10315954
41	0xbf12f3c1	-0.5740319
42	0x3d809029	0.06277496
43	0xbe057401	-0.13032533
44	0xbe482cfc	-0.1954841
45	0x3f3d0943	0.7384226
46	0x3e21791e	0.15768859
47	0xbe6934c4	-0.22774035
48	0x3b54851b	0.003242797
49	0x3f907c4c	1.1287932
50	0x3e8c9e0b	0.27464327
51	0x3d3cc288	0.046083957
52	0x3e482061	0.19543602
53	0xbcc44838	-0.023960218
54	0xbe95ba2d	-0.29243603
55	0xbd9c5932	-0.076342
56	0x3de18638	0.11011928
57	0x3e2763c9	0.16346659
58	0x3e14402c	0.14477605
59	0x3ef3e7b4	0.47637713
60	0x3ea9c20b	0.33155856
61	0xbd3bda15	-0.045862276
62	0xbe0ada81	-0.13559915
63	0xbe67574c	-0.22591895
64	0xbb1bf91b	-0.0023799601
65	0xbe649353	-0.22321825
66	0xbdfab01a	-0.1224062
67	0xbea7a33e	-0.3274173
68	0x3d3ad378	0.04561183
69	0x3ec6df74	0.38842356
70	0xbe7bca76	-0.24588951
71	0x3d51c1be	0.051210158
72	0xbe3d7c75	-0.18504508
73	0xbe4facd2	-0.2028077
74	0x3e8e372b	0.27776465
75	0x3e134324	0.14381081
76	0xbcb30442	-0.021852616
77	0xbf09c2fe	-0.5381316
78	0xbe195f9f	-0.14977883
79	0x3f66725e	0.9001826
80	0x3ded7964	0.11595419
81	0x3e07318f	0.13202499
82	0xbecf64af	-0.40506503
83	0xbed80a84	-0.42195523
84	0xbebdce00	-0.37071228
85	0xbe2f793b	-0.1713609
86	0xbe56619f	-0.20935677
87	0x3ebbae56	0.36656445
88	0x3e4816d2	0.19539955
89	0x3e81d89a	0.25360566
90	0x3d578b1b	0.052622896
91	0xbd19686f	-0.03745311
92	0x3f639513	0.88899344
93	0xbea68512	-0.325234
94	0x3d8f1e67	0.06988221
95	0x3f29ab4c	0.66277003
96	0xbe21deec	-0.15807694
97	0x3eb390b5	0.3507134
98	0xbe95cfe5	-0.29260173
99	0xbecde6bb	-0.40215096
100	0xbee98a56	-0.45613354
101	0xbeadd1ab	-0.33949026
102	0x3e49a569	0.19692005
103	0xbe247933	-0.16061859
104	0x3f69ef37	0.9138064
105	0x3dd2230b	0.1026059
106	0x3e717b0e	0.23582098
107	0x3e877c89	0.264622
108	0x3e928dc5	0.28623787
109	0xbe4f5cc3	-0.2025023
110	0xbea3510a	-0.31897765
111	0xbd838ce5	-0.06423358
112	0xbed6e063	-0.41968068
113	0x3ea11984	0.3146478
114	0x3ee252d5	0.4420382
115	0xbeb13d61	-0.3461714
116	0x3d823de7	0.06359463
117	0xbeafbcbc	-0.3432368
118	0xbed5c8dd	-0.4175481
119	0x3f46fdbc	0.7773092
120	0x3f0f0697	0.5586943
121	0x3ea5d0b4	0.3238579
122	0x3dce03a8	0.10059291
123	0x3ccf9104	0.025337704
124	0xbe18636e	-0.1488168
125	0x3b463f89	0.0030250272
126	0x3e648cb8	0.22319305
127	0x3d856796	0.06513898

encoder.2.weight f4 [128, 128]
0	0x3db9c67b	0.0907106
1	0xbc4d7eb5	-0.012542416
2	0xbd8a76bc	-0.06760928
3	0x3d5bb352	0.05363781
4	0xb973fb3d	-0.0002326788
5	0x3d235148	0.039872438
6	0xbd9d1640	-0.076702595
7	0xbcdc97df	-0.026927887
8	0xbc98382a	-0.018581469
9	0x3c792e3a	0.015208775
10	0x3be8442d	0.0070882053
11	0xbc879e64	-0.016555019
12	0x3d176ee2	0.03697098
13	0xbcc45e77	-0.023970826
14	0xbd721c38	-0.059108943
15	0xbcad88e7	-0.021183444
16	0x3e25c64a	0.16188923
17	0xbbb86c1b	-0.0056281216
18	0x3c9b4b28	0.018956736
19	0x3aa4c017	0.0012569454
20	0xbd669efa	-0.056303956
21	0x3eea8ffa	0.4581297
22	0xbc87e183	-0.016587025
23	0x3dc72fb5	0.09725896
24	0xbecf2834	-0.4046036
25	0xbcdeb73b	-0.02718698
26	0x3c791830	0.015203521
27	0xbc6bdc72	-0.01439582
28	0xbb160910	-0.0022893585
29	0xbc58a06c	-0.013221841
30	0x3c2b4423	0.010453257
31	0xbb6e4f97	-0.0036363357
32	0x3d48550c	0.048909232
33	0xbd0addf0	-0.033903062
34	0xbb577fc5	-0.0032882553
35	0x3ccb1c8f	0.024793891
36	0xbccac2d8	-0.024751112
37	0x3e05cefb	0.13067238
38	0xbc7870b8	-0.015163593
39	0xbafbc54f	-0.0019208583
40	0x3dad27cd	0.08454857
41	0x3d0cb0c3	0.03434826
42	0x3d2b7f45	0.04186942
43	0x3daf7169	0.08566553
44	0xbe2a9def	-0.1666181
45	0x3c6a568e	0.014302863
46	0xbd9da85e	-0.07698129
47	0xbdceb77f	-0.10093593
48	0xbe1862e6	-0.14881477
49	0xbcc20129	-0.023682194
50	0xbdb7f23a	-0.08981748
51	0x3d386cc8	0.045025617
52	0xbc811a3f	-0.015759585
53	0xbd35ad15	-0.044354517
54	0x3d173c82	0.03692294
55	0x3c805e13	0.015669858
56	0x3caa7104	0.020805843
57	0xbd118030	-0.03552264
58	0x3bb5b09b	0.0055447347
59	0x3d184538	0.037175387
60	0xbc8c15f9	-0.017100321
61	0x3dbe3dca	0.09289129
62	0x3e946b67	0.2898819
63	0x3db40895	0.087906994
64	0xbd8cfe76	-0.06884472
65	0xbd4a828b	-0.0494409
66	0xbdada928	-0.084795296
67	0x3e6c909e	0.23102042
68	0x3cefd82f	0.029277889
69	0xbd4871e0	-0.048936725
70	0x3d6284dd	0.05530249
71	0x3da71644	0.08158544
72	0xbe9f9548	-0.3116858
73	0x3d22d204	0.039751068
74	0xbd93642b	-0.0719684
75	0xbcdb2669	-0.026751714
76	0x3df7eb59	0.12105436
77	0x3cd2e131	0.025742145
78	0xbe346864	-0.17617947
79	0x3bb6e84d	0.0055818916
80	0x3d70899b	0.05872498
81	0x3bb1831a	0.00541724
82	0xbe2a136b	-0.1660897
83	0xbd1561d7	-0.03647026
84	0x3d8f5e6b	0.07000431
85	0xbd2be80a	-0.041969337
86	0xbe84fa9f	-0.2597246
87	0xbd9f7131	-0.077852614
88	0x3cd27193	0.025688922
89	0xbcd096fe	-0.025462624
90	0xbb35eefc	-0.0027760854
91	0x3bea11ca	0.007143234
92	0xbb91e3d8	-0.00445221
93	0x3d277ebb	0.040892344
94	0xbd4f78e8	-0.050652415
95	0xbd214b64	-0.03937854
96	0xbd8b68ad	-0.06807075
97	0x3e2d4575	0.16921027
98	0x3e766afb	0.24064247
99	0xbe870e9b	-0.2637833
100	0xbd4a677d	-0.0494151
101	0xbda767dc	-0.081741065
102	0x3d13b758	0.036063522
103	0xbe8ae03a	-0.27124196
104	0xbbaaceb8	-0.005212631
105	0x3c86c387	0.016450657
106	0xbdeb43cc	-0.114875406
107	0x3bf75b28	0.0075487085
108	0x3c4d05b6	0.012513569
109	0xbee5a64e	-0.44853443
110	0xbde7fc75	-0.11327449
111	0x3df1950d	0.11796007
112	0xb9cd4c2c	-0.000391574
113	0xbd2a7183	-0.04161216
114	0x3c3dc5da	0.011582816
115	0x3e032f8c	0.12811106
116	0x3d29a5ea	0.041417994
117	0xbd0b628a	-0.03402952
118	0x3e8b9173	0.27259406
119	0xbc3a0234	-0.011353064
120	0x3d5cdce7	0.053921606
121	0xbdc36210	-0.09540188
122	0x3d14576c	0.036216184
123	0x3d6d38aa	0.057915367
124	0x3aa28c78	0.0012401482
125	0x3ccf1311	0.025277646
126	0x3dabea26	0.0839427
127	0x3bdec737	0.0067986506
128	0xbcea36ea	-0.028590638
129	0xbd6b9f4a	-0.057524957
130	0xbd689999	-0.056787107
131	0x3a5c2314	0.0008397561
132	0x3d8bf167	0.06833153
133	0x3dbdbf4a	0.09265001
134	0xbd3846c6	-0.04498937
135	0xbdb9e3a5	-0.09076623
136	0xbd8f22d8	-0.06989068
137	0xbd9d3a43	-0.07677128
138	0x3d12f38d	0.0358768
139	0x3d5102c3	0.051028024
140	0x3e1f853c	0.15578169
141	0x3db5786c	0.08860859
142	0xbd347cb4	-0.04406424
143	0x39d74654	0.00041060394
144	0x3e05499b	0.1301636
145	0xbd4811a7	-0.04884496
146	0xbbf97f04	-0.0076140184
147	0xbb000bf4	-0.0019538375
148	0x3d158b34	0.036509708
149	0xbd8c1989	-0.06840808
150	0x3d2edd9c	0.042691812
151	0xbe460fa2	-0.19341901
152	0xbc0b0be0	-0.008486718
153	0x3b890c0a	0.0041823434
154	0x3d801c11	0.06255353
155	0xbc8a9285	-0.01691557
156	0xbd8ab48b	-0.06772717
157	0xbcf0c4c3	-0.029390698
158	0xbd8a15a3	-0.06742408
159	0x3c73e7f1	0.014886842
160	0x3c13acb8	0.009013347
161	0xbef48ae1	-0.47762206
162	0x3d82b965	0.063830175
163	0x3d37ed0b	0.044903796
164	0x3d26ee92	0.040754862
165	0xbe263e6e	-0.16234753
166	0xbbb50601	-0.0055243974
167	0x3dc79c10	0.097465634
168	0xbdc478b9	-0.095933385
169	0xbab8352a	-0.001405393
170	0xbb0ca22e	-0.0021458971
171	0xbd645267	-0.055742647
172	0xbe4d5160	-0.20050573
173	0xbcd57737	-0.026057823
174	0xbdce0a1d	-0.10060523
175	0xbc88de1f	-0.016707478
176	0x3df46d1d	0.11934874
177	0xbd9ae7bc	-0.07563731
178	0xbaa61f04	-0.0012674038
179	0xbd8e45f1	-0.06946934
180	0x3cce42ea	0.025178391
181	0x3d90ada0	0.07064366
182	0xbc4464d6	-0.011986932
183	0x3d0b4db1	0.03400964
184	0x3d819531	0.06327284
185	0xbbf5da8e	-0.0075028604
186	0xbdc3e070	-0.095642924
187	0x3cd1ea25	0.025624344
188	0x3d537819	0.051628206
189	0x3d353c31	0.044246856
190	0xbd5da4b7	-0.054112162
191	0x3d434b38	0.047679156
192	0xbc7b3451	-0.015332297
193	0xbd8a709f	-0.06759762
194	0xbe1ced3f	-0.15324877
195	0xbe389ea2	-0.18029264
196	0x3e07ce34	0.13262254
197	0x3d915334	0.07095948
198	0x3d15849f	0.03650343
199	0xbe0371f2	-0.12836435
200	0xbc2e5c43	-0.010642114
201	0x3dea474e	0.114393815
202	0x3d52b5d9	0.051442955
203	0x3b9ed8ef	0.004847638
204	0x3eb4e2f2	0.35329396
205	0xbe9b56db	-0.30339703
206	0xbc25e179	-0.010124558
207	0xbc127e01	-0.0089411745
208	0x3c8cd616	0.017191928
209	0x3d7224c5	0.059117097
210	0xbde4d0d4	-0.11172643
211	0x3e306286	0.17225084
212	0x3d5b2374	0.053500608
213	0x3cfb60c1	0.030685784
214	0xbe16d95e	-0.14731357
215	0x3c303c01	0.010756494
216	0x3ca5b6a8	0.020228699
217	0xbca35541	-0.019938113
218	0xbe459041	-0.1929331
219	0xbdc03d35	-0.09386674
220	0x3d58f799	0.052970503
221	0xbb1730e7	-0.002306992
222	0xbd5092fe	-0.050921433
223	0x3cb144bc	0.02163922
224	0x3ddb4407	0.107063346
225	0x3d66ff31	0.056395713
226	0xbdb84c03	-0.08998873
227	0x3e02f0ef	0.12787221
228	0xbe0b6dd1	-0.1361611
229	0xbdcd4343	-0.10022595
230	0x3ca1799d	0.01971131
231	0x3d1c4cf3	0.038159322
232	0xbe10d2b3	-0.14142875
233	0x3d4fdd32	0.050748058
234	0x3c8c95f8	0.017161354
235	0x3c44d728	0.012014188
236	0x3d162b7c	0.036662564
237	0x3e3822e4	0.1798206
238	0xbe0834e3	-0.13301425
239	0xbe477752	-0.19479111
240	0xbe63db25	-0.22251566
241	0x3dafc5ea	0.08582671
242	0xbc3d3ff4	-0.011550892
243	0xbe2371d0	-0.15961385
244	0xbab93bba	-0.001413218
245	0x3e29c74a	0.16579929
246	0x3d59b4b2	0.05315084
247	0xbd46906d	-0.04847758
248	0x3b6d0149	0.0036164096
249	0xbcf6eb14	-0.03014139
250	0x3d9bf073	0.076142214
251	0xbe0eb6ee	-0.1393697
252	0xbc5a6f61	-0.013332219
253	0xbb8556c1	-0.0040691798
254	0x3e11b260	0.14228201
255	0x3d7f1d11	0.06228358

encoder.2.bias f4 [128]
0	0x3d3e1c9a	0.046413995
1	0x3b41e398	0.002958512
2	0x3d404f6c	0.046950743
3	0xbd02ae0a	-0.031904258
4	0x3c9e8264	0.019349284
5	0xbd80ebf9	-0.06295008
6	0x3d208ae9	0.039194975
7	0xbd9ac04f	-0.07556211
8	0xbdc297b0	-0.09501588
9	0x3d76edc0	0.06028533
10	0x3d6ccd9a	0.057813264
11	0x3d255a0d	0.040369082
12	0xbe268622	-0.16262105
13	0x3d090422	0.033451207
14	0x3e3192a7	0.173411
15	0xbd00aee1	-0.031416778
16	0xbd7fbace	-0.06243401
17	0xbdae5aa1	-0.0851338
18	0x3cacf9f6	0.021115284
19	0xbdf722ed	-0.120672084
20	0xbd085eb5	-0.033293445
21	0xbd123898	-0.035698503
22	0xbdf6cd76	-0.12050907
23	0xbde69e69	-0.11260683
24	0xbde4305a	-0.11142035
25	0xbdaff0c6	-0.08590846
26	0x3dbd3e17	0.09240358
27	0xbda4d034	-0.08047524
28	0xbcfa3ecb	-0.03054752
29	0x3de85c67	0.11345749
30	0xbda45238	-0.080234945
31	0xbe6a928f	-0.2290747
32	0xbd8b54aa	-0.06803258
33	0xbd547d31	-0.051877204
34	0x3c72aa81	0.014811159
35	0x3db33a97	0.087514095
36	0x3d051608	0.032491714
37	0x3b802edc	0.003911836
38	0x3dfbbb41	0.12291575
39	0x3d5bf896	0.053703867
40	0x3e226db9	0.15862168
41	0xbe2f9137	-0.17145239
42	0xbcbde9b5	-0.02318273
43	0xbb95d920	-0.0045730025
44	0xbdf2d3b4	-0.118567854
45	0x3d2c7034	0.042099193
46	0xbc2c2880	-0.010507703
47	0x3e183a52	0.14865997
48	0x3c646cd2	0.01394196
49	0x3da1e1d2	0.079044
50	0xbde145d0	-0.10999644
51	0xbcbf1b67	-0.023328496
52	0x3d85ef76	0.06539814
53	0x3dc433b1	0.09580172
54	0xbdb7ad55	-0.08968607
55	0x3db104b2	0.08643474
56	0x3da8b67c	0.08237931
57	0xbcc5bc10	-0.024137527
58	0xbdcced06	-0.10006146
59	0x3becfb5d	0.0072321133
60	0x3d7b03d0	0.061282933
61	0xbe0866e7	-0.13320504
62	0xbddf0c3f	-0.10891008
63	0x3d97f418	0.07419604
64	0x3d8034b9	0.06260056
65	0x3d29a885	0.04142048
66	0x3dfeb079	0.12436003
67	0xbe11c006	-0.14233407
68	0xbd57ecec	-0.05271618
69	0x3c923c36	0.017850976
70	0xbc90af27	-0.017661644
71	0x3d8bfa0c	0.06834802
72	0x3d27253b	0.04080699
73	0x3e0aa5b2	0.1353977
74	0x3dc77ae7	0.09740239
75	0xbd6411f4	-0.055681184
76	0x3c7026eb	0.014657716
77	0xbe2d2015	-0.1690677
78	0x3dc06128	0.09393531
79	0x3dce87ad	0.10084472
80	0xbd8e23d4	-0.069404274
81	0xbe249a4d	-0.16074486
82	0x3d418ddb	0.047254425
83	0xbe2255aa	-0.15852991
84	0xbde22fc9	-0.110442705
85	0x3d87916c	0.06619534
86	0x3d31b300	0.0433836
87	0xbd423f73	-0.04742379
88	0xbc44d015	-0.012012501
89	0xbb9b8f2d	-0.0047472925
90	0x3d8f3ae5	0.06993655
91	0x3dd4e2eb	0.10394844
92	0x3d5faed4	0.05461009
93	0xbbfcb4b4	-0.007711971
94	0x3e4327ae	0.19058105
95	0xbbfe42f1	-0.007759445
96	0xbe173d06	-0.14769372
97	0xbd265813	-0.040611338
98	0xbd498f6a	-0.049209036
99	0x3dbb5aeb	0.091482006
100	0xbd1d016e	-0.03833144
101	0xbd803357	-0.06259792
102	0x3c7d55fd	0.015462396
103	0x3d0d39ac	0.03447883
104	0x3c75364d	0.01496656
105	0xbd47ac22	-0.048748143
106	0x3c6c9d7a	0.014441842
107	0xbbb6ca67	-0.0055783275
108	0xbd8ce179	-0.06878943
109	0x3d1c1031	0.03810138
110	0x3d0418f1	0.03225035
111	0x3b957fd5	0.004562358
112	0x3dca1674	0.09867564
113	0x3dd1814c	0.102297395
114	0xbcabe17f	-0.020981548
115	0xbc70d42c	-0.014699023
116	0xbd020b24	-0.031748906
117	0x3ce095af	0.027415125
118	0x3dcc2c75	0.09969417
119	0xbde4d749	-0.11173875
120	0xbbc537de	-0.006018623
121	0x3d8ce81f	0.06880211
122	0xbd7b954b	-0.061421674
123	0x3d10ef2d	0.035384346
124	0xbc0045d0	-0.007829145
125	0x3df32ef0	0.11874187
126	0x3d20dcd5	0.0392731
127	0x3d95c4fe	0.07312964

gnn_0.lin_msg.weight f4 [128, 128]
0	0xbddc8142	-0.107668415
1	0xbe33440f	-0.17506431
2	0x3d1c8583	0.038213264
3	0xbdd09d1a	-0.10186215
4	0xbe1fea93	-0.15616827
5	0xbe7bfa62	-0.24607232
6	0x3dd5f65d	0.10447381
7	0xbe13e065	-0.14441068
8	0xbd80661f	-0.06269478
9	0xbcc6367f	-0.024195908
10	0x3e0708e4	0.13186985
11	0x3b5d26c6	0.0033745035
12	0x3e4ff53e	0.20308396
13	0xbdba615c	-0.09100601
14	0xbe08f91a	-0.13376275
15	0xbc5c8fb9	-0.0134620005
16	0xbe1e60ed	-0.15466662
17	0x3c3f13f5	0.011662473
18	0x3d3f2422	0.04666532
19	0xbc90c205	-0.01767064
20	0x3db34723	0.087538026
21	0xbbd988d0	-0.006638624
22	0xb9823575	-0.0002483536
23	0xbe30d80e	-0.17269918
24	0x3d96c8b4	0.073625
25	0x3a81afc8	0.0009894306
26	0xbd63639e	-0.055514924
27	0xbdad8248	-0.08472115
28	0x3d72e4f5	0.05930038
29	0xbdecde17	-0.11565798
30	0xbe4910ff	-0.1963539
31	0x3d8b4328	0.067999184
32	0xbd64d681	-0.05586863
33	0x3ccf7050	0.02532211
34	0xbca23695	-0.019801417
35	0xbd3a9842	-0.04555536
36	0x3deeb931	0.11656416
37	0xbca5053d	-0.0201441
38	0x3cbe469c	0.023227029
39	0xbd4fce66	-0.050733946
40	0xbd4dc59b	-0.05023728
41	0x3d058b93	0.03260381
42	0xbdb567d3	-0.088576935
43	0x3d5f4273	0.05450673
44	0x3dc03998	0.09385985
45	0x3c2f7eda	0.010711396
46	0xbac74a12	-0.001520457
47	0xbe39d802	-0.18148807
48	0xbd2590a7	-0.040421154
49	0x3e0ff169	0.14056934
50	0xbc767449	-0.015042373
51	0xbd5c5273	-0.053789567
52	0x3d8e3e20	0.06945443
53	0xbdf4418b	-0.11926564
54	0xbe00f724	-0.12594277
55	0x3d770a35	0.06031247
56	0xbd626284	-0.055269733
57	0x3d1a42dd	0.037661422
58	0xbd47adb9	-0.04874966
59	0x3e810835	0.25201574
60	0xbd6a7ee6	-0.057249926
61	0x3bc2c90d	0.0059443773
62	0xbbdde2f3	-0.006771439
63	0x3dd06f3f	0.101774685
64	0xbe296653	-0.1654294
65	0xbd94b8f8	-0.072618425
66	0x3dd61d07	0.10454755
67	0x3dd1fd68	0.102534115
68	0xbd8c3f04	-0.06847957
69	0xbdef7aa2	-0.11693312
70	0xbc5ba34b	-0.013405631
71	0xbe04b0ba	-0.12958041
72	0x3a1430fe	0.00056530524
73	0xbde9baa3	-0.11412551
74	0x3da68999	0.081317134
75	0xbd466845	-0.048439283
76	0xbe5ccfb7	-0.21563612
77	0xbddb3979	-0.107043214
78	0x3d42ae05	0.04752924
79	0x3c13c0bd	0.00901812
80	0xbd470f37	-0.048598494
81	0x3dca298c	0.09871206
82	0xbd1e15d4	-0.038595036
83	0xbd48c6fc	-0.04901789
84	0x3d8c4235	0.068485655
85	0x3c8e64c1	0.017382028
86	0x3c78479e	0.015153794
87	0xbdada21d	-0.08478186
88	0xbc624bc7	-0.013812012
89	0x3d61b527	0.0551044
90	0xbc80b98d	-0.015713478
91	0x3dd7c23d	0.10535095
92	0xbdb7bde2	-0.08971764
93	0xbd9027d3	-0.07038846
94	0xbdd68e11	-0.10476316
95	0xbd860f48	-0.065458834
96	0xbd101c4f	-0.035183247
97	0x3dbb86ca	0.09156568
98	0xbd8a745c	-0.06760475
99	0x3e3d90b8	0.18512237
100	0x3cf03299	0.029321002
101	0xbd821209	-0.06351096
102	0x3e1e81ae	0.15479156
103	0x3d9db31f	0.0770018
104	0x3dc13f6a	0.094359234
105	0xbde1f3e9	-0.1103285
106	0x3de743ae	0.11292206
107	0x3cfb67b7	0.030689104
108	0x3d94050d	0.07227526
109	0xbda6ebc7	-0.0815044
110	0xbda766c8	-0.08173901
111	0x3e889f20	0.26683903
112	0xbc179476	-0.009251704
113	0xbe64a298	-0.2232765
114	0x3dbbe94f	0.091753595
115	0x3d4d664d	0.05014639
116	0x3e46b938	0.19406593
117	0x3dc0491d	0.09388945
118	0x3d909a67	0.070607
119	0xbd8c9613	-0.06864562
120	0xbd176f78	-0.03697154
121	0xbc9d745c	-0.019220524
122	0x3d68161a	0.056661703
123	0x3c50c337	0.012741855
124	0x3c860ec0	0.016364455
125	0xbd574159	-0.052552555
126	0xbd8bc09c	-0.06823847
127	0x3dcc7bc4	0.09984544
128	0x3cbde32d	0.023179615
129	0xbdd7498e	-0.10512076
130	0x3a7e1e4d	0.0009693846
131	0xbcaa4c1e	-0.020788249
132	0xbd102e61	-0.03520048
133	0xbccb3a90	-0.024808198
134	0x3d9c89cf	0.076434724
135	0x3d16cbdc	0.03681551
136	0x3d6825a0	0.056676507
137	0xbc40ed4a	-0.011775324
138	0x3d8b609b	0.068055354
139	0x3d9b6381	0.07587338
140	0xbcb56cbe	-0.022146579
141	0xbca7b59f	-0.020472346
142	0xbcd1af72	-0.025596354
143	0xbaa61070	-0.0012669694
144	0xbd993cc7	-0.074822955
145	0xbd54857d	-0.051885117
146	0xbe1ac828	-0.15115416
147	0xbcdcc75f	-0.026950536
148	0xbd71ed76	-0.05906435
149	0x3cfaebf0	0.030630082
150	0xbd4d817d	-0.050172318
151	0xbd7b7d99	-0.061399076
152	0x3cc013db	0.023446968
153	0x3d37d76c	0.044883177
154	0xbd43a9f0	-0.047769487
155	0xbdade7fc	-0.08491513
156	0xbc56fd72	-0.0131219495
157	0x3de112e5	0.10989932
158	0xbdde3554	-0.10850015
159	0xbc46e9af	-0.012140675
160	0xbda21b41	-0.079153545
161	0xbd7adaf1	-0.061243955
162	0xbdade477	-0.08490842
163	0xbe05bb45	-0.13059719
164	0xbdaa9152	-0.08328499
165	0x3dbccd4a	0.09218843
166	0xbd0de774	-0.03464456
167	0xbde5bf3a	-0.11218114
168	0x3d7a362b	0.061086815
169	0x3c2446d8	0.010026656
170	0x3c784cc4	0.015155021
171	0x3d70143f	0.05861306
172	0xbd56556b	-0.052327555
173	0xbd15abbd	-0.036540736
174	0xbd937aec	-0.0720118
175	0x3d06f0f1	0.032944623
176	0xbe07e3c0	-0.13270473
177	0x3cde3e14	0.02712921
178	0xbcc9b08a	-0.024620313
179	0x3db218cf	0.08696138
180	0xbaea5c39	-0.0017880268
181	0xbd2516b1	-0.040304843
182	0xbd5ba89f	-0.053627606
183	0x3e2322a1	0.15931179
184	0xbc949c95	-0.01814107
185	0xbca30971	-0.019901963
186	0xbd20b623	-0.0392362
187	0x3d7a215c	0.06106697
188	0xbda16e0d	-0.07882319
189	0xbdcdcf88	-0.10049349
190	0xbd23adbd	-0.03996061
191	0x3dcf2e0f	0.10116207
192	0xbc216f23	-0.009853157
193	0xbd8070f2	-0.062715426
194	0xbdb4251c	-0.087961406
195	0x3d758e9f	0.059950467
196	0xbccb3f8c	-0.024810575
197	0xbc5051d5	-0.012714823
198	0x3d1c11ba	0.038102843
199	0xbe131f37	-0.14367376
200	0x3ccd6f90	0.025077611
201	0xbcfa6423	-0.030565327
202	0x3d5eaca3	0.054363858
203	0xbd834f48	-0.06411606
204	0x3cb19f30	0.021682352
205	0xbdacb886	-0.084336326
206	0x3d897bd5	0.06713072
207	0xbb73cb13	-0.00371999
208	0xbd815407	-0.06314855
209	0xbc9e600a	-0.019332904
210	0x3cd786eb	0.026309451
211	0x3d282a14	0.041055754
212	0x3d923e56	0.07140796
213	0xbe03ef6a	-0.12884298
214	0x3c77364d	0.01508863
215	0xbca0d3e7	-0.019632293
216	0x3b479949	0.0030456355
217	0xbd0c0e04	-0.034193054
218	0xbd093e53	-0.033506703
219	0x3b2d5b0a	0.0026451969
220	0x3daaa3fb	0.08332058
221	0xbca105cc	-0.019656084
222	0xbba984ce	-0.0051733023
223	0x3c3a8098	0.011383198
224	0x3b2b9daa	0.0026186504
225	0xbcd6d30c	-0.026223682
226	0xbda10b04	-0.07863429
227	0x3d8d097b	0.06886574
228	0x3cee8888	0.029117838
229	0x3d2483b4	0.040164664
230	0xbdbbac14	-0.09163681
231	0x3dab3f77	0.08361714
232	0x3ddc67de	0.107619986
233	0x3ce09a00	0.027417183
234	0x3d7d042f	0.061771568
235	0x3d8ad9da	0.06779833
236	0xbd280568	-0.04102078
237	0x3debe383	0.11518004
238	0xbdb04d3a	-0.0860848
239	0xbdcd0c47	-0.10012107
240	0x3e08333f	0.13300799
241	0xbc8622ac	-0.016373955
242	0xbce8651f	-0.02836853
243	0x3d848fb0	0.06472719
244	0xbd32f6d0	-0.04369241
245	0xbd9b9a1b	-0.07597753
246	0xbc4049fa	-0.011736387
247	0xbd8019a3	-0.0625489
248	0xbc0de327	-0.008660114
249	0x3c97b45a	0.018518616
250	0x3c7f5db0	0.015586302
251	0xbd20b06f	-0.03923076
252	0x3d3390aa	0.043839134
253	0xbd556fa8	-0.052108437
254	0xbdb38bf3	-0.087669276
255	0x3d4ecd40	0.05048871

gnn_0.lin_msg.bias f4 [128]
0	0xbdfd47b6	-0.123671934
1	0xbd054202	-0.032533653
2	0xbd7e4341	-0.062075857
3	0x3c8f496b	0.017491063
4	0xbdbc7a04	-0.0920296
5	0xbda932a8	-0.08261615
6	0xbe0b4575	-0.13600715
7	0xbcfea33b	-0.031083694
8	0x3c514259	0.012772166
9	0xbdbdecb4	-0.09273663
10	0xbe0305aa	-0.1279513
11	0xbe73e653	-0.2381833
12	0x3c2bcae5	0.010485386
13	0x3d85194e	0.06498967
14	0xbd987de7	-0.07445889
15	0xbe8e9f2c	-0.27855814
16	0xbdb00ff7	-0.08596795
17	0x3d777f42	0.060424097
18	0xbd2f6a7f	-0.042826172
19	0xbdaa9657	-0.08329456
20	0xbaf99abf	-0.001904331
21	0xbd089461	-0.03334463
22	0xbdff63b7	-0.12470191
23	0xbdd5d16e	-0.10440336
24	0xbe1d30f8	-0.15350711
25	0xbd7e4c1f	-0.062084313
26	0xbe203030	-0.15643382
27	0xbd939760	-0.07206607
28	0x3d182b83	0.03715087
29	0xbd7df74b	-0.062003415
30	0xbcdaabff	-0.026693342
31	0xbe3687fe	-0.17825314
32	0xbd4cb5b4	-0.049977973
33	0xbe1c61bc	-0.15271658
34	0xbd2810d8	-0.04103169
35	0x3cc47fa0	0.023986638
36	0x3dab1b8f	0.08354866
37	0xbe73a3de	-0.23792979
38	0x3dd16ac1	0.1022544
39	0xbceb5fc2	-0.028732184
40	0xbdb46a40	-0.08809328
41	0xbcce95cf	-0.025217919
42	0x3bd212b8	0.006410923
43	0xbde9ff52	-0.114256516
44	0xbd44cab2	-0.048044868
45	0xbc30ab0a	-0.010782966
46	0xbe5fb6a5	-0.21847017
47	0xbd6b51e1	-0.057451133
48	0xbe28dfb0	-0.1649158
49	0xbc535a53	-0.012899953
50	0xbdc3d702	-0.09562494
51	0xbddb829d	-0.10718272
52	0xbdb427b5	-0.08796636
53	0x3d7f2ad2	0.062296696
54	0xbd05b0c1	-0.03263927
55	0xbde9a7c8	-0.11408955
56	0xbe408346	-0.18800077
57	0x3aba7ddb	0.0014228182
58	0xbe2d2dc5	-0.16911991
59	0xbd220f18	-0.039565176
60	0xbd55a11c	-0.0521556
61	0xbe0bcbed	-0.1365201
62	0xbdc1ea7a	-0.09468551
63	0xbd981f7e	-0.07427882
64	0xbd80be8f	-0.06286346
65	0xbd3cd8f3	-0.046105336
66	0xbd5eb93e	-0.05437588
67	0x3cab7cdc	0.020933561
68	0xbde45556	-0.11149089
69	0x3bd17359	0.0063919243
70	0xbdc28fb1	-0.09500063
71	0xbcd59489	-0.026071804
72	0xbd85b05f	-0.06527781
73	0xbde7ec73	-0.11324396
74	0xbd3b5924	-0.045739308
75	0xbd947e24	-0.07250622
76	0xbc29c01d	-0.010360745
77	0xbe129776	-0.1431559
78	0xbdad0d9a	-0.0844986
79	0x3ad5123b	0.0016256043
80	0xbd96bbbb	-0.073600255
81	0xbe36ed6f	-0.17864011
82	0xbd9dd69f	-0.07706951
83	0xbe8176b3	-0.25285873
84	0xbdf51b8f	-0.11968147
85	0x3a9cef56	0.0011973183
86	0xbdcb8f83	-0.09939482
87	0x3cf54c69	0.029943662
88	0x3c9df630	0.01928243
89	0xbe10f735	-0.14156802
90	0xbe37a800	-0.1793518
91	0xbd898cfb	-0.06716343
92	0xbd10865f	-0.035284396
93	0xbd6fb993	-0.058526587
94	0xbddc3d40	-0.1075387
95	0x3dc3f06a	0.0956734
96	0x3b88bc94	0.004172871
97	0xbd3220ab	-0.043488186
98	0xbe089268	-0.133371
99	0xbcba06eb	-0.022708377
100	0xbdb156b3	-0.08659115
101	0x3c04ab0f	0.008097424
102	0xbd8ce4f8	-0.0687961
103	0xbe3ced0d	-0.18449803
104	0xbdb01c03	-0.08599093
105	0xbd993315	-0.07480446
106	0xbdc36c64	-0.09542158
107	0x3c1e2ed1	0.009654717
108	0xbe49954c	-0.19685858
109	0xbe01582f	-0.12631296
110	0xbc76b819	-0.015058541
111	0xbc175508	-0.009236582
112	0xbd951ae4	-0.072805196
113	0xbc8ca54a	-0.01716866
114	0xbe2445e6	-0.16042289
115	0xbe46b2a3	-0.19404082
116	0xbd9171fb	-0.07101818
117	0xbd0beb65	-0.034160037
118	0xbdea3b15	-0.1143705
119	0xbe80848c	-0.25101125
120	0xbae04ad6	-0.0017112147
121	0xbd0f767a	-0.035025097
122	0xbdc5f3f1	-0.09665669
123	0xbdabe9c0	-0.08394194
124	0x3cec5f13	0.028853929
125	0xbb45562e	-0.0030111182
126	0xbdd8a80b	-0.10578927
127	0xbe7bf8db	-0.2460665

gnn_0.lin_msg_i.weight f4 [128, 128]
0	0xbd46bccf	-0.048519906
1	0xbd71e968	-0.059060484
2	0x3c185b01	0.009299041
3	0xbd309574	-0.04311128
4	0xbb7ac24e	-0.0038262787
5	0xbd886673	-0.06660166
6	0xbcfb217c	-0.030655615
7	0xbe0eba8d	-0.13938351
8	0xbdbdd9c9	-0.09270055
9	0x3d1fd714	0.039023474
10	0x3e0fea58	0.14054239
11	0x3cd452f6	0.025918465
12	0xbbf03100	-0.00733006
13	0xbc48ac2e	-0.012248082
14	0x3c5dcf9f	0.01353827
15	0xbbd6ad40	-0.0065514147
16	0xbdba3a4d	-0.09093151
17	0xbd1be5ab	-0.038060825
18	0xbd70baa7	-0.058771756
19	0x3d493d83	0.049130928
20	0xbd4d1a0c	-0.05007367
21	0x3d9474ae	0.072488174
22	0x3d127481	0.035755638
23	0x3d0eb8df	0.034844276
24	0xbdd199b8	-0.10234398
25	0xbd4518ae	-0.04811924
26	0xbd0fa6d1	-0.035071198
27	0x3d839f40	0.06426859
28	0x3d25704d	0.0403903
29	0x3dc386b2	0.095471755
30	0xbe12032b	-0.14259021
31	0x3d225936	0.03963586
32	0xbd18321b	-0.03715716
33	0x3c9267ec	0.01787182
34	0xbd94a7d8	-0.07258576
35	0x3c5a1eb3	0.013312983
36	0x3becd3f5	0.0072274157
37	0x3cede9d7	0.029042168
38	0x3dbcc71b	0.09217664
39	0xbd68d189	-0.056840453
40	0x3cad4324	0.02115018
41	0xbe2e600a	-0.17028823
42	0xbc147e51	-0.009063319
43	0x3d5dbd82	0.054135807
44	0xbcbc9e0e	-0.023024585
45	0x3c239704	0.009984735
46	0x3d0dd75b	0.034629207
47	0xbb98c03b	-0.0046615875
48	0xbda891f4	-0.08230963
49	0x3d4d6de7	0.05015364
50	0x3c3c42a7	0.0114905005
51	0xbd92c6b5	-0.071668066
52	0x3d2cb57a	0.042165257
53	0xbab09b7d	-0.0013474073
54	0xbd923ab6	-0.071401045
55	0x3e3c5d20	0.183949
56	0x3e2f0cf4	0.17094785
57	0xbda00709	-0.07813842
58	0x3e25e78a	0.16201606
59	0x3d844179	0.064578004
60	0xbcbe9b3a	-0.023267377
61	0xbcc6e335	-0.024278263
62	0xbdb2b504	-0.08725932
63	0xbccd372d	-0.025050724
64	0xbda003ec	-0.07813248
65	0xbd6df715	-0.058096964
66	0xbcc90d50	-0.02454248
67	0xbbd2854f	-0.006424583
68	0xbe5d2546	-0.2159625
69	0xbdaa1802	-0.083053604
70	0xbd818b1c	-0.06325361
71	0xbe16100a	-0.14654556
72	0xbdcc22cb	-0.09967574
73	0x3e1863fb	0.1488189
74	0x3cd669c2	0.026173476
75	0xbc8faccd	-0.017538453
76	0xbd892493	-0.06696429
77	0xbc95dfdd	-0.018295223
78	0xbc0f32ae	-0.00874011
79	0xbd87b4d1	-0.06626285
80	0x3d1b89ee	0.037973337
81	0x3ca32874	0.01991675
82	0x3d902238	0.07037777
83	0xbde1f85b	-0.11033698
84	0xbcd9d712	-0.026591811
85	0x3dff4fd8	0.12466401
86	0x3d84147a	0.06449218
87	0x3d3024a4	0.043003693
88	0x3cb099ec	0.02155777
89	0x3df90e0e	0.12160884
90	0xbd0d77cc	-0.034538075
91	0x3e34e7ee	0.17666599
92	0xbd3bb7cd	-0.045829583
93	0xbdbb11c3	-0.09134247
94	0x3debdea2	0.11517073
95	0x3bef96fa	0.007311699
96	0xbd9504b7	-0.0727629
97	0xbd89e90b	-0.067339025
98	0x3d96bb2d	0.0735992
99	0x3b8845dc	0.0041587185
100	0x3dbcea58	0.09224385
101	0xbce1c7ad	-0.027561033
102	0x3e00a574	0.12563115
103	0xbdc902e8	-0.098150074
104	0x3e98a78f	0.29815337
105	0xbc50edb0	-0.012751982
106	0x3c1166d9	0.008874618
107	0xbd347a61	-0.044062022
108	0x3df264fe	0.11835669
109	0x3d4f4714	0.050604895
110	0xbd99b927	-0.07506018
111	0x3d378c2d	0.044811416
112	0x3d8b147a	0.06791015
113	0xbdc49301	-0.09598351
114	0xbda6b25b	-0.08139487
115	0x3e36d26f	0.17853712
116	0xbd315c52	-0.043300934
117	0x3e4b9e3b	0.19884579
118	0x3dcc1be2	0.09966256
119	0x3c8d829e	0.017274197
120	0x3c268969	0.010164597
121	0x3e126dda	0.14299718
122	0x3dad9d6f	0.08477294
123	0x3d210e51	0.039320294
124	0x3d9514e8	0.07279378
125	0x3dd46c4e	0.1037222
126	0xbce409d9	-0.027836727
127	0xbd70fe09	-0.058836017
128	0x3d802d8b	0.06258687
129	0xbdd68ad5	-0.10475699
130	0x3d64b268	0.055834204
131	0x3d772a30	0.060342968
132	0x3d8bb56f	0.06821715
133	0x3a4f2902	0.0007902534
134	0x3cbba13c	0.022904031
135	0x3bfcc02a	0.0077133374
136	0xbcbf16c1	-0.02332628
137	0x3c234432	0.0099649895
138	0x386e5997	5.682706e-05
139	0xbcbe9b29	-0.023267346
140	0x3dd18b2c	0.10231623
141	0xbbb07d99	-0.005386066
142	0x3b16ee3b	0.002303018
143	0xbd9110cc	-0.07083282
144	0xbc886c62	-0.016653243
145	0x3d03164e	0.032003693
146	0xbd8c1d63	-0.068415426
147	0xbd51f68c	-0.051260516
148	0xbdd70772	-0.10499467
149	0x3c1dd5a3	0.0096334545
150	0xbc1ba4fb	-0.009499784
151	0xbdc1feaa	-0.094724014
152	0x3dad8c98	0.08474082
153	0x3cd36330	0.025804132
154	0x3d06ab8e	0.03287845
155	0x3bd6530a	0.0065406607
156	0xbbad32f8	-0.005285617
157	0x3c03e01b	0.008049036
158	0xbcf49ba3	-0.02985937
159	0x3ce5d209	0.028054254
160	0xbd0b6631	-0.034033004
161	0x3d1713e0	0.03688419
162	0xbd84bdf7	-0.064815454
163	0xbd02cb5f	-0.03193223
164	0xbd785768	-0.060630232
165	0xbb9fce77	-0.0048769074
166	0xbd40380b	-0.046928447
167	0xbd6a5d0e	-0.05721765
168	0xbd44444a	-0.047916688
169	0xbdc62263	-0.096745275
170	0xbdfc770f	-0.12327396
171	0xbbae0bff	-0.0053114886
172	0x3d066203	0.032808315
173	0xbde09b6d	-0.10967145
174	0xbc921fd3	-0.01783744
175	0xbdb0584b	-0.086105905
176	0xbe160ca1	-0.14653255
177	0x3c674b34	0.014117051
178	0xbb581596	-0.003297185
179	0xbbdd3c38	-0.0067515634
180	0x3c9e020e	0.01928809
181	0x3c8fa474	0.017534472
182	0x3d646d3c	0.055768237
183	0x3d90058b	0.07032307
184	0x3cf36335	0.029710392
185	0x3d8efafa	0.06981464
186	0x3d480b42	0.04883886
187	0xbcbe787f	-0.023250816
188	0xbdc8a585	-0.09797195
189	0xbc80979b	-0.015697291
190	0xbd253cad	-0.040341068
191	0x3d2f5f5c	0.04281555
192	0x3dab807c	0.08374116
193	0xbd42eb52	-0.0475877
194	0x3d885550	0.06656897
195	0xbccc3d51	-0.024931582
196	0xbca7c010	-0.020477325
197	0xbe1525ed	-0.14565249
198	0xbc5e4710	-0.013566747
199	0x3cea45b8	0.028597698
200	0xbdb4d353	-0.088293694
201	0x3d7b735d	0.061389316
202	0xbb366a95	-0.0027834524
203	0x3d1ef080	0.038803577
204	0x3d0adb35	0.03390046
205	0xbdc5ec18	-0.09664172
206	0x3cdd87dd	0.027042324
207	0x3d7e266b	0.062048357
208	0x3b2a9de9	0.0026034063
209	0xbc5308ad	-0.012880486
210	0x3c92f5d6	0.01793949
211	0x3c297651	0.01034315
212	0x3d520aba	0.05127976
213	0x3c810871	0.015751095
214	0x3da5b33f	0.08090829
215	0x3cc388bf	0.023868917
216	0x3cd87f1a	0.026427794
217	0xbd11fc99	-0.035641287
218	0x3c28116e	0.010258062
219	0x3dad70ea	0.08468802
220	0x3c061385	0.008183365
221	0xbc7d6c76	-0.015467754
222	0x3c99b8a4	0.018764801
223	0x3ce2b3d2	0.027673636
224	0x3d90c968	0.07069665
225	0xbdbe283d	-0.092850186
226	0xbd83bcfc	-0.0643253
227	0xbccedfcf	-0.025253205
228	0xbd2f8202	-0.042848594
229	0x3cf01a5c	0.029309444
230	0xbab9622d	-0.0014143639
231	0x3ce3018a	0.027710695
232	0x3ce7b8ee	0.028286424
233	0x3d22d354	0.03975232
234	0x3d5386b4	0.051642135
235	0xbc0651d7	-0.008198223
236	0x3dcbd332	0.09952392
237	0x3c791085	0.0152016925
238	0xbd210803	-0.03931428
239	0xbcd4e6b5	-0.025988916
240	0x3d5597ea	0.05214683
241	0xbd4beffe	-0.04978942
242	0xbca5ab8c	-0.020223401
243	0xbdefcd65	-0.11709098
244	0x3d88b0e7	0.066743664
245	0x3c828e35	0.01593695
246	0xbd92454e	-0.07142125
247	0x3dac5584	0.08414748
248	0xbd9a17cd	-0.07524071
249	0xbd5e75f1	-0.054311696
250	0x3bde59ac	0.006785592
251	0x3dc940e9	0.09826834
252	0x3e124afc	0.14286417
253	0xbe029d7f	-0.12755392
254	0x3d571e5c	0.052519187
255	0x3d9c6138	0.076357305

gnn_0.lin_msg_i.bias f4 [128]
0	0xbcc6f412	-0.024286304
1	0xbe090d0e	-0.13383886
2	0xbdcca653	-0.09992661
3	0x3ce38ff1	0.027778598
4	0xbc875a95	-0.016522685
5	0xbd99868c	-0.07496366
6	0xbe28e10f	-0.16492103
7	0xbe0ca8e1	-0.13736297
8	0x3d889fe9	0.066711254
9	0x3cea94b9	0.02863537
10	0xbd7bb9a4	-0.061456338
11	0xbe68c7c4	-0.22732455
12	0x3b686e9b	0.0035466317
13	0x3ccda817	0.025104566
14	0xbdd1c009	-0.10241706
15	0xbe64611f	-0.22302674
16	0xbe17c666	-0.14821777
17	0xbd7aa467	-0.061191943
18	0xbdbd817b	-0.09253212
19	0xbe623565	-0.22090681
20	0xbab36c56	-0.0013688903
21	0x3d6b7167	0.057481196
22	0xbd8c1254	-0.06839433
23	0xbe1d9979	-0.15390576
24	0xbddb930a	-0.10721405
25	0xbd2c2455	-0.042026836
26	0xbdebf1b8	-0.115207136
27	0xbc7b23ba	-0.015328342
28	0x3c6fa866	0.014627552
29	0xbddf548b	-0.10904797
30	0xbc58a445	-0.013222759
31	0xbe7f2083	-0.24914746
32	0xbe4b1d2a	-0.19835344
33	0xbe408ea6	-0.18804416
34	0xbe01199a	-0.12607422
35	0xbd49180e	-0.049095206
36	0xbcff660f	-0.031176595
37	0xbe207bb5	-0.1567219
38	0xbd27f7fc	-0.04100798
39	0x3cce6078	0.025192484
40	0x3c663928	0.014051713
41	0x3dd4e91b	0.10396024
42	0xbb536006	-0.003225328
43	0xbe31bddf	-0.17357586
44	0xbe506b3d	-0.20353408
45	0x3c2aeb37	0.010432056
46	0xbe66f1b1	-0.22553135
47	0xbd19431c	-0.037417516
48	0xbde91efb	-0.11382862
49	0x3c4012e1	0.011723251
50	0xbdc759b6	-0.09733908
51	0xbe19cdfc	-0.15019983
52	0xbddcefd7	-0.10787933
53	0x3d127907	0.035759952
54	0x3d73ba4c	0.05950384
55	0xbe450101	-0.19238664
56	0xbde6b661	-0.11265255
57	0xbd274c30	-0.040844142
58	0xbdccf1f9	-0.1000709
59	0xbda4fffa	-0.08056636
60	0x3dc954a0	0.09830594
61	0xbe0cf054	-0.13763553
62	0xbe1c09e9	-0.15238155
63	0xbccd0834	-0.025028326
64	0xbdbfad9f	-0.093592875
65	0xbddbd8a5	-0.10734681
66	0x3d903f92	0.07043375
67	0x3d8629ce	0.06550942
68	0xbe0cd400	-0.13752747
69	0xbe0642b6	-0.13111386
70	0xbd84dc6d	-0.064873554
71	0xbd80afd0	-0.062835336
72	0x3cbc5fc5	0.022994885
73	0xbd68ba10	-0.056818068
74	0xbd27b287	-0.04094174
75	0xbdabb599	-0.083842464
76	0x3b75a56f	0.003748264
77	0xbe1b2453	-0.15150575
78	0xbe164561	-0.14674903
79	0x3d5b69b1	0.053567592
80	0xbd81e76a	-0.06342967
81	0xbe07674b	-0.13222997
82	0x3ce2f303	0.027703768
83	0xbe4f3991	-0.20236804
84	0xbd92e629	-0.07172806
85	0xbd8d0823	-0.068863176
86	0x3b3d1180	0.0028849542
87	0xbc87bece	-0.016570475
88	0x3ccbdac5	0.02488459
89	0xbe1d3ee7	-0.15356027
90	0xbe0107fb	-0.126007
91	0xbd7a1ae8	-0.061060816
92	0x3dd560fb	0.10418888
93	0x3d09af4a	0.033614434
94	0xbe09fb5b	-0.13474791
95	0x3c4bfb00	0.01244998
96	0x3d81d96f	0.063403
97	0xbdd71220	-0.10501504
98	0xbe25c598	-0.16188657
99	0xbd3bf25a	-0.04588542
100	0x3c2164cf	0.009850695
101	0xbd9bc2a5	-0.07605485
102	0xbe2ffc32	-0.17186049
103	0xbe00b372	-0.12568453
104	0x3c5bc2ed	0.013413173
105	0xbc346a7f	-0.011011719
106	0x3c8091fd	0.015694613
107	0x3d640612	0.05566985
108	0xbd347102	-0.044053085
109	0xbcc3ccc3	-0.023901349
110	0x3cd13a5f	0.025540529
111	0x3dc97b02	0.09837915
112	0xbdf278a9	-0.1183942
113	0xbd7dc221	-0.061952714
114	0xbe281042	-0.16412452
115	0xbd80fd18	-0.06298274
116	0xbc1107f2	-0.008851992
117	0x3cbe3617	0.023219151
118	0xbc36fb06	-0.011168247
119	0xbe50b187	-0.20380221
120	0xbe32156b	-0.17390983
121	0x3d02d03f	0.03193688
122	0xbdcffaaf	-0.10155236
123	0x3c4ae52a	0.0123837385
124	0xbcd6b1ee	-0.02620789
125	0x3dab88b3	0.08375683
126	0xbe160bb0	-0.14652896
127	0xbe35401a	-0.17700234

gnn_0.lin_edge.weight f4 [128, 2]
0	0x3dd32e74	0.103115946
1	0xbefaf7c9	-0.4901717
2	0xbe0e2765	-0.13882215
3	0xbf251a78	-0.64493513
4	0xbf1dfd99	-0.61715084
5	0x3fb96cc5	1.4486319
6	0x3f0a01a0	0.5390873
7	0xbf206c6b	-0.6266543
8	0x3e5e835c	0.21729797
9	0xbe771996	-0.24130854
10	0xbf0aa1e0	-0.5415325
11	0xbf0b61ba	-0.54445994
12	0x3dfa2bbe	0.122153744
13	0xbe083b4f	-0.13303874
14	0xbeb96437	-0.3620927
15	0xbf712cb6	-0.9420885
16	0x3f126291	0.5718165
17	0x3fa9a792	1.3254263
18	0xbfa28bce	-1.2698915
19	0x3f0b880b	0.5450446
20	0xbd826e70	-0.063687205
21	0x3e2ded62	0.16985086
22	0xbe87cfba	-0.2652567
23	0xbd8f22d6	-0.06989066
24	0xbde3638b	-0.11102971
25	0x3f2ed0c3	0.68287295
26	0xbe68741a	-0.22700539
27	0x3f2aa781	0.6666184
28	0x3efaba4e	0.48970264
29	0x3f23f827	0.64050525
30	0xbf408750	-0.7520647
31	0xbe5ec5fe	-0.21755216
32	0x3e01c78a	0.12673774
33	0x3ef39a4c	0.47578657
34	0x3f2010cd	0.62525636
35	0xbf4a6470	-0.79059505
36	0x3e3508ed	0.17679186
37	0x3f0f0348	0.5586438
38	0x3ed1fd86	0.41013736
39	0x3e85b912	0.2611776
40	0xbf25fd1e	-0.6483935
41	0xbe06983c	-0.1314401
42	0x3ed0e57a	0.40800077
43	0x3f75716e	0.95876205
44	0x3e958153	0.2920023
45	0xbf3a532f	-0.7278318
46	0x3f1c9da2	0.6117803
47	0x3cb35c05	0.021894464
48	0x3d750024	0.059814587
49	0xbeb92432	-0.36160427
50	0xbee7a4c1	-0.45242885
51	0x3fe707ef	1.8049296
52	0x3eab8589	0.33500317
53	0xbe077553	-0.1322835
54	0xbec99c9d	-0.393773
55	0xbf3ec6f0	-0.74522305
56	0x3dbabbd5	0.09117857
57	0xbf62a0a5	-0.88526374
58	0x3ef895bb	0.48551735
59	0x3f01db6a	0.50725424
60	0x3e020b82	0.12699702
61	0xbf5663f4	-0.83746266
62	0x3c569c13	0.013098734
63	0xbe34a73f	-0.17641924
64	0x3f11dd12	0.5697795
65	0xbf3fd42d	-0.7493313
66	0x3e270a5b	0.16312544
67	0x3ec09139	0.37610796
68	0x3f224282	0.6338273
69	0x3eecb9bc	0.46235454
70	0xbe8bc659	-0.27299765
71	0x3f24adab	0.64327496
72	0xbeec0f17	-0.46105263
73	0x3f748c3f	0.955265
74	0xbecb2d8d	-0.3968319
75	0xbf65632c	-0.8960445
76	0x3e97768a	0.29582626
77	0xbecc85ef	-0.39945933
78	0x3e6f7d48	0.23387635
79	0x3fdaf474	1.7105851
80	0xbe4f6125	-0.20251901
81	0xbf439312	-0.76396286
82	0x3f197ff0	0.5996084
83	0xbf601e93	-0.8754665
84	0xbe3cdd09	-0.18443693
85	0x3fc49282	1.5357211
86	0xbd4f4a30	-0.05060786
87	0x3ed5f381	0.4178734
88	0xbecdc49c	-0.40189064
89	0x3e76f739	0.24117745
90	0xbe96193e	-0.29316133
91	0x3f9060a2	1.127949
92	0x3ef22112	0.47290856
93	0xba92dfd4	-0.0011205622
94	0xbe8ac5ee	-0.27104133
95	0x3f8490c9	1.0356685
96	0xbed84376	-0.4223897
97	0xbf81130e	-1.008394
98	0x3ee6321f	0.44960114
99	0xbf51bc1d	-0.81927663
100	0x3e2c602b	0.1683356
101	0xbf2958ca	-0.66151106
102	0x3f03b18a	0.5144278
103	0xbf2948ef	-0.6612691
104	0xbf159535	-0.58430797
105	0x3d6ae200	0.057344437
106	0x3da4f67a	0.08054824
107	0xbdb1996b	-0.0867184
108	0x3f25c763	0.64757365
109	0x3f3b529d	0.7317293
110	0x3ecbdff5	0.39819303
111	0x3eca5be3	0.3952323
112	0xbf28a88d	-0.6588219
113	0xbf3aa07b	-0.72901124
114	0xbf14c5d0	-0.5811434
115	0xbf8c4592	-1.0958731
116	0xbf1861c4	-0.5952418
117	0xbe788b3d	-0.24271865
118	0xbe9f584c	-0.31122053
119	0xbeff1303	-0.49819192
120	0xbeb53053	-0.3538843
121	0x3f769c53	0.9633228
122	0x3e827a32	0.25483853
123	0xbf635050	-0.8879442
124	0x3e1f68f5	0.15567382
125	0xbd1a810c	-0.037720725
126	0x3f25a3af	0.64702886
127	0x3f841f56	1.0322063
128	0x3e2083ca	0.15675274
129	0xbf313e0d	-0.69235307
130	0xbd659876	-0.0560536
131	0xbf97d08d	-1.186052
132	0xbd19bbb7	-0.037532534
133	0x3f3608fc	0.7110746
134	0x3f0492de	0.517866
135	0xbe3c1170	-0.18366027
136	0xbd0160bc	-0.031586394
137	0x3f2b8f65	0.6701568
138	0xbdacaa9d	-0.084309794
139	0x3ec61f26	0.3869564
140	0xbe0b5f1c	-0.136105
141	0xbe1e3142	-0.15448478
142	0xbf175149	-0.59108406
143	0xbf867cfb	-1.0506891
144	0xbf06c1ad	-0.52639276
145	0xbf3fd7f5	-0.749389
146	0xbef90d60	-0.48643017
147	0x3ea5963b	0.3234118
148	0xbed3678e	-0.41289943
149	0xbe950e96	-0.2911269
150	0x3a79cabe	0.0009528807
151	0xbe67b7a0	-0.22628641
152	0xbee78670	-0.45219755
153	0x3f9353ee	1.1509988
154	0xbedbaf69	-0.42907265
155	0x3f1a43f6	0.6025995
156	0x3f0bd24f	0.5461778
157	0xbed7be55	-0.421374
158	0xbe9aa468	-0.30203557
159	0x3fa0cf32	1.2563231
160	0x3d2cb009	0.042160068
161	0xbe47cfa7	-0.19512807
162	0x3e5f59bd	0.21811576
163	0x3e8ce815	0.27520815
164	0x3ebffea6	0.3749897
165	0x3fc2f8c9	1.5232173
166	0xbe0edf2c	-0.13952321
167	0xbd8dfa9c	-0.069325656
168	0xbe2e83b1	-0.17042424
169	0xbe924241	-0.28566173
170	0x3e7c0c49	0.24614061
171	0x3f67ab2d	0.9049557
172	0xbec7cc11	-0.39022878
173	0xbf02482d	-0.5089138
174	0x3f02343e	0.50860965
175	0xbe83c9b9	-0.2573984
176	0xbf106fef	-0.564208
177	0x3ed36b36	0.41292733
178	0x3db61e80	0.08892536
179	0xbf842876	-1.0324848
180	0xbe8281bc	-0.25489604
181	0x3e96d1a2	0.29456812
182	0x3bdf45f6	0.00681376
183	0xbec3d054	-0.3824488
184	0x3e9e1ac5	0.308798
185	0xbf65a6b6	-0.89707506
186	0x3e4333cd	0.19062729
187	0xbf3e76d2	-0.74400055
188	0x3cf1666d	0.029467786
189	0x3eff141a	0.49820024
190	0xbbe279be	-0.0069114855
191	0x3fbd1e13	1.4774803
192	0x3f21b00d	0.6315926
193	0x3f41032b	0.7539546
194	0x3f3bc430	0.73346233
195	0x3f39b880	0.7254715
196	0x3e8147b0	0.25250006
197	0xbebcb324	-0.36855423
198	0x3e84a53e	0.2590732
199	0xbf010d3f	-0.50410837
200	0xbeba870d	-0.3643116
201	0xbeeaa6c9	-0.45830372
202	0x3de754ea	0.11295493
203	0x3f5bd3a0	0.8586979
204	0xbe62f5f7	-0.2216414
205	0x3dcb6354	0.09931055
206	0xbe0e0245	-0.13868053
207	0xbf21838e	-0.6309136
208	0x3e4e8643	0.20168404
209	0xbf39d732	-0.72593987
210	0x3f0f4e72	0.55979073
211	0xbe95dc51	-0.2926965
212	0xbf484139	-0.7822452
213	0x3edfa742	0.43682295
214	0x3eeb7080	0.45984268
215	0x3f88a365	1.0674864
216	0xbf1b6a10	-0.60708714
217	0xbf5330ed	-0.8249653
218	0x3e8dba5e	0.2768125
219	0x3e01449d	0.1262383
220	0x3e6dd4ef	0.23225759
221	0x3fc73910	1.5564289
222	0xbe9df4e2	-0.30850893
223	0x3f19f263	0.6013548
224	0xbe87cd30	-0.26523733
225	0xbd10c8e8	-0.03534785
226	0xbf1ee41f	-0.62066835
227	0x3f271985	0.65273315
228	0x3ecd167e	0.40056223
229	0xbf3c3a16	-0.7352613
230	0xbde3327a	-0.11093612
231	0xbf2b4839	-0.6690708
232	0x3e901a8c	0.28145254
233	0xbe7b91bb	-0.2456731
234	0xbf2ea27b	-0.68216676
235	0xbed058ab	-0.40692648
236	0x3e675e79	0.22594632
237	0x3edc5889	0.43036297
238	0xbe907435	-0.2821366
239	0xbe7f4eb0	-0.2493236
240	0x3e9b147a	0.3028906
241	0xbe47c5c0	-0.1950903
242	0xbe289de7	-0.16466485
243	0x3ff84eb7	1.9399022
244	0x3e22ce2e	0.15898964
245	0xbe48bc8e	-0.19603178
246	0x3c26ec23	0.010188135
247	0xbf84cb2a	-1.0374501
248	0x3e9b9825	0.30389515
249	0xbe930f91	-0.28722814
250	0x3ecd0ffe	0.40051264
251	0xbf7f337c	-0.99687934
252	0x3efa83fb	0.48928818
253	0xbf78b436	-0.9714998
254	0x3e38906d	0.18023844
255	0xbf5150f6	-0.8176416
