models/particle_gnn_-1.pth (torch, 820426 bytes, 38 tensors)

encoder.0.weight f4 [128, 9]
0.1620309 -0.024859259 -0.54132175 0.026308818 -0.02390628 0.05517275 0.4026469 0.08629934
0.2156135 0.23372324 -0.0513229 -0.49258932 -0.18814445 -0.25449753 0.19736573 -0.24774812
-0.24917874 0.22123419 -0.24913958 -0.4234493 -0.04309975 0.014691848 -0.0003036978 -0.10663098
-0.10238764 0.07237811 -0.21701412 -0.12413744 0.21039882 -0.3505032 -0.024488032 0.07121812
-0.0701062 0.09732896 -0.22230269 -0.035485808 -0.19015332 0.12283529 0.0068245637 -0.009756095
0.013870805 -0.07006666 0.36453086 -0.1960549 0.02626282 -0.06690889 -0.08608874 0.3675888
0.06990123 0.0686861 0.107459605 -0.13788873 -0.41670617 -0.29183817 0.3611967 0.08851381
-0.3336156 -0.071918264 0.049358983 0.19308738 0.2607338 0.03858484 -0.12078684 -0.2864213
0.37277755 -0.076366805 0.030140076 0.110697605 0.070937574 -0.3450896 -0.20993504 0.02957898
-0.24382971 -0.11822829 0.40880102 0.12773414 -0.065504424 -0.11899961 0.14100358 0.15702465
0.25279808 -0.27167565 -0.063480124 0.41879344 0.067680195 0.060910977 -0.08208251 0.255778
-0.272202 -0.113330804 0.12823515 0.553209 0.50672084 -0.059630312 -0.16700457 -0.2075585
-0.27369675 0.26803392 0.1177556 -0.22340417 0.21055298 -0.39555737 0.01927562 0.121817775
-0.108664356 0.23745677 -0.09392045 0.048050273 0.070939735 0.23324418 0.34254748 -0.13686156
-0.031067675 0.089463964 -0.29646996 -0.10075294 -0.38477704 -0.13556348 -0.30433866 0.18000256
-0.087193556 -0.042870164 -0.0326924 0.46215537 0.15084127 0.5502244 0.06345804 0.03894797
-0.100703806 0.0538592 0.05319703 0.012838054 0.008125683 -0.39854395 -0.23295769 -0.45875308
0.42509088 -0.23528984 -0.024936406 0.0058991374 -0.024881884 0.13889526 -0.26217392 -0.058375623
0.016525123 0.082052425 0.4966163 0.01756154 -0.013794539 0.007236328 -0.090096906 0.20483746
-0.29520363 -0.15862432 0.15432923 -0.54763234 -0.044065636 0.12373142 -0.08945447 -0.24720745
0.20109385 0.042273436 0.20255779 -0.19002911 0.36189714 -0.020651953 -0.1182912 0.11004802
0.134918 0.02441666 -0.07372977 -0.1718808 -0.3175843 -0.37234896 0.20730706 0.17439677
-0.104520224 -0.13622361 0.19310582 0.18198821 0.5794379 -0.51971 0.29698277 0.035834264
-0.000603754 0.04622251 0.1426206 0.28415525 0.25639996 -0.058900565 0.07395247 -0.018935472
0.14127219 0.040886052 -0.015898425 -0.2298715 0.043034237 -0.26028866 0.16901374 0.3248186
0.35742408 -0.19195691 0.081195384 -0.009421579 -0.09870901 0.27520353 0.079416856 -0.5389135
-0.15214346 0.072886676 0.0010080193 0.006917123 -0.0041389647 -0.15757412 0.0005769247 -0.16938062
0.13288534 -0.014099949 -0.31397396 0.04243886 -0.044171553 0.01427713 -0.19361076 -0.3762986
-0.37672484 -0.4585604 -0.43670964 0.03327964 -0.063275084 0.13747807 -0.11277712 0.32046366
0.26015437 0.08842018 0.38740396 -0.19555397 0.28426248 -0.059783928 0.10795113 0.05062672
-0.00017539799 0.06854602 0.4900116 0.41487193 0.2751463 -0.1523976 0.067104384 0.0664285
-0.11772221 -0.18549506 0.077471584 0.008821563 0.14842613 -0.092810936 -0.27145755 -0.08678142
00000000: 6eeb 253e a5a5 cbbc 1094 0abf 9785 d73c
00000010: 1ad7 c3bc d2fc 613d bc27 ce3e b5bd b03d
00000020: c9c9 5c3e 2555 6f3e f637 52bd ab34 fcbe
00000030: f0a8 40be 804d 82be 3e1a 4a3e afb1 7dbe
00000040: b628 7fbe 378b 623e 721e 7fbe 59ce d8be
00000050: 5d89 30bd 14b6 703c a139 9fb9 5861 dabd
00000060: 9cb0 d1bd f93a 943d f338 5ebe c53b febd
00000070: ca72 573e 2875 b3be 209b c8bc ceda 913d
00000080: d793 8fbd 6854 c73d 51a3 63be 9159 11bd
00000090: 8db7 42be 1291 fb3d 97a0 df3b 07d8 1fbc
000000a0: 5f42 633c 1c7f 8fbd caa3 ba3e 9ec2 48be
000000b0: 2025 d73c 8707 89bd 4b4f b0bd 9934 bc3e
000000c0: 6028 8f3d 4cab 8c3d c813 dc3d b432 0dbe
000000d0: 835a d5be d06b 95be c6ee b83e ba46 b53d
000000e0: aacf aabe e249 93bd a52c 4a3d b3b8 453e
000000f0: e77e 853e 230b 1e3d 175f f7bd d0a5 92be
00000100: b3dc be3e 3366 9cbd 52e8 f63c 6db5 e23d
00000110: b847 913d 96af b0be 36f9 56be 9e4f f23c
00000120: 7fae 79be ac21 f2bd 5e4e d13e bdcc 023e
00000130: 2f27 86bd 11b6 f3bd 3e63 103e 12cb 203e
00000140: c06e 813e 1219 8bbe de01 82bd 186c d63e
00000150: ea9b 8a3d ca7d 793d e01a a8bd 56f5 823e
00000160: 0f5e 8bbe fb19 e8bd 1350 033e 1b9f 0d3f
00000170: 75b8 013f ea3e 74bd 3f03 2bbe 378a 54be
00000180: fb21 8cbe be3b 893e d929 f13d 10c4 64be
00000190: 339b 573e 7f86 cabe e8e7 9d3c 997b f93d
000001a0: 6b8b debd de27 733e 5d59 c0bd 5dd0 443d
000001b0: da48 913d 90d7 6e3e 6262 af3e 7025 0cbe
000001c0: a381 febc e238 b73d e9ca 97be 8f57 cebd
000001d0: 7f01 c5be 27d1 0abe 47d2 9bbe 9752 383e
000001e0: 8992 b2bd a098 2fbd 77e8 05bd a19f ec3e
000001f0: 2276 1a3e 82db 0c3f 4af6 813d e887 1f3d
00000200: cc3d cebd 779b 5c3d 21e5 593d b456 523c
00000210: 9621 053c f40d ccbe 768c 6ebe afe1 eabe
00000220: 83a5 d93e d2ef 70be 6f47 ccbc 8d4d c13b
00000230: 18d5 cbbc 8f3a 0e3e a93b 86be 471b 6fbd
00000240: b25f 873c 1a0b a83d 7e44 fe3e 38dd 8f3c
00000250: 7d02 62bc b81e ed3b ba84 b8bd e9c0 513e
00000260: ee24 97be 6a6e 22be 7b08 1e3e a231 0cbf
00000270: 2b7e 34bd e666 fd3d e833 b7bd f323 7dbe
00000280: 8ceb 4d3e e926 2d3d 4f6b 4f3e fe96 42be
00000290: 954a b93e 492e a9bc a842 f2bd db60 e13d
000002a0: f227 0a3e 7305 c83c a2ff 96bd 8501 30be
000002b0: 699a a2be 86a4 bebe 4d48 543e 1195 323e
000002c0: b30e d6bd 347e 0bbe 88bd 453e 1e5b 3a3e
000002d0: 0b56 143f b70b 05bf 200e 983e f3c6 123d
000002e0: 3f45 1eba d153 3d3d 220b 123e cc7c 913e
000002f0: db46 833e b841 71bd 6574 973d 901e 9bbc
00000300: a8a9 103e 2278 273d 6a3d 82bc 6f63 6bbe
00000310: ab44 303d 8e44 85be f011 2d3e a04e a63e
00000320: 4a00 b73e 5a90 44be c449 a63d f75c 1abc
00000330: f327 cabd 7ae7 8c3e 4ea5 a23d 3cf6 09bf
00000340: 7fcb 1bbe 9c45 953d 841f 843a 09a9 e23b
00000350: 27a0 87bb 1c5b 21be c33c 173a 1d72 2dbe
00000360: 1813 083e 7903 67bc 32c1 a0be 5fd4 2d3d
00000370: 3bed 34bd a0ea 693c e641 46be 36aa c0be
00000380: 14e2 c0be 6ec8 eabe 6898 dfbe 3b50 083d
00000390: 5e96 81bd 0dc7 0c3e b1f7 e6bd d013 a43e
000003a0: f432 853e a415 b53d d059 c63e 4d3f 48be
000003b0: da8a 913e fedf 74bd 7b15 dd3d f75d 4f3d
000003c0: 0aeb 37b9 db61 8c3d cde2 fa3e 186a d43e
000003d0: fadf 8c3e 1e0e 1cbe 066e 893d aa0b 883d
000003e0: 5818 f1bd 6bf2 3dbe 6ca9 9e3d 5188 103c
000003f0: 05fd 173e a913 bebd 7cfc 8abe 75ba b1bd

encoder.0.bias f4 [128]
0.47260618 -0.11565279 0.08142736 -0.30399054 0.22205965 -0.075819075 0.028696548 0.17827228
-0.119276255 0.004258183 -0.07432806 -0.28588465 -0.10086879 0.24572161 -0.26324537 -0.24577092
0.25613484 -0.18182229 -0.06126667 -0.28425577 -0.12608105 -0.20571804 0.13449201 -0.19268072
-0.0015059105 0.35401314 0.3804173 0.28372103 -0.226515 -0.0841404 0.30140588 -0.17924131
-0.0026641148 -0.2735124 0.19246282 0.07174358 0.3969117 0.22800863 -0.27763787 0.067053586
-0.11072769 -0.42243937 0.11487356 -0.07093597 -0.05534154 0.54386747 0.19936563 -0.24149096
-0.028265622 0.8382986 0.27437848 0.049579803 0.1824085 -0.03640049 -0.28313488 -0.03694763
0.11234127 0.12849317 0.14339325 0.4004473 0.2787035 -0.001442942 -0.0048549287 -0.17356177
-0.02071598 -0.15810895 0.034526788 -0.30353403 0.17006217 0.3733539 -0.24639145 0.15642868
-0.27454326 -0.21781172 0.25780964 0.07782701 0.06578843 -0.4743806 -0.28130862 0.7742859
0.098765925 0.07511871 -0.30107233 -0.38192487 -0.355614 -0.17257021 -0.13785966 0.33417454
0.25907117 0.2429551 0.13519226 0.027715465 0.7506106 -0.3178874 0.05132979 0.4974022
-0.12773053 0.34147498 -0.21866114 -0.42277807 -0.42144802 -0.30944398 0.23713152 -0.100547
0.6120135 0.110709205 0.257835 0.26154393 0.24357039 -0.084934995 -0.3156259 -0.062079336
-0.33420673 0.3097077 0.36959362 -0.34589595 0.0547027 -0.3143874 -0.31538874 0.5794567
0.43823403 0.3213705 0.10043154 0.032682832 -0.13852118 0.05181874 0.2162089 0.047145624
00000000: 70f9 f13e 5fdb ecbd 63c3 a63d a6a4 9bbe
00000010: 9b63 633e 0847 9bbd 0615 eb3c 028d 363e
00000020: 1c47 f4bd 3a88 8b3b 4f39 98bd 795f 92be
00000030: 4c94 cebd 729e 7b3e 19c8 86be 5fab 7bbe
00000040: 1b24 833e 9f2f 3abe c2f2 7abd f989 91be
00000050: 641b 01be c0a7 52be 46b8 093e 184e 45be
00000060: f961 c5ba 3641 b53e 0ec6 c23e e243 913e
00000070: 8cf3 67be cd51 acbd df51 9a3e 098b 37be
00000080: 6e98 2ebb d109 8cbe f914 453e 4cee 923d
00000090: 0338 cb3e 187b 693e 8d26 8ebe 6453 893d
000000a0: 33c5 e2bd f949 d8be d442 eb3d e146 91bd
000000b0: d0ad 62bd e63a 0b3f 8126 4c3e 6849 77be
000000c0: 4e8d e7bc bd9a 563f 567b 8c3e 3114 4b3d
000000d0: 4bc9 3a3e ae18 15bd 0ef7 90be 6656 17bd
000000e0: 2e13 e63d b793 033e aed5 123e 6e07 cd3e
000000f0: 3ab2 8e3e 1921 bdba 1816 9fbb 2dba 31be
00000100: 8fb4 a9bc 50e7 21be f66b 0d3d d068 9bbe
00000110: c724 2e3e 3e28 bf3e 0a4e 7cbe d72e 203e
00000120: ef90 8cbe 090a 5fbe a0ff 833e c463 9f3d
00000130: 16bc 863d 04e2 f2be af07 90be 9a37 463f
00000140: ca45 ca3d d7d7 993d 2726 9abe a88b c3be
00000150: 0a13 b6be 3fb6 30be 152b 0dbe ed18 ab3e
00000160: faa4 843e 39c9 783e d76f 0a3e 8b0b e33c
00000170: 0428 403f 23c2 a2be 303f 523d 80ab fe3e
00000180: cbcb 02be cfd5 ae3e b5e8 5fbe 5e76 d8be
00000190: 09c8 d7be 716f 9ebe 9bd2 723e 96eb cdbd
000001a0: ebac 1c3f 82bb e23d f302 843e 16e9 853e
000001b0: 846a 793e 66f2 adbd b899 a1be e746 7ebd
000001c0: 251d abbe 0292 9e3e 603b bd3e 4619 b1be
000001d0: f00f 603d 63f7 a0be a27a a1be 4657 143f
000001e0: 3660 e03e ad8a a43e 0daf cd3d 6fde 053d
000001f0: 7fd8 0dbe e33f 543d de65 5d3e c51b 413d

encoder.2.weight f4 [128, 128]
0.093251936 0.026926316 -0.08155232 0.0155264605 0.015285864 -0.017707415 -0.10663067 -0.05886926
-0.06841455 0.0108173 -0.027708942 0.02052598 0.025910215 -0.021613283 -0.050063353 -0.032291625
0.024307538 -0.038459394 0.0012115975 -0.0059360233 -0.07163679 0.038529485 -0.030120336 0.034070116
-0.16111259 -0.023245635 -0.023951737 -0.021811899 -0.08707178 0.015016356 0.017966643 -0.0321683
0.013825202 -0.02472786 0.013714228 -0.017302727 0.011186535 0.083109245 -0.014603924 -0.038369104
0.07610381 -0.036914248 -0.026537625 0.0587337 -0.079805344 -0.013673455 -0.09117121 -0.080741726
-0.083883554 -0.007915279 -0.11263204 0.06570788 -0.04797862 -0.00076132047 0.058423836 0.002842837
0.055192005 -0.034484267 -0.019363996 0.048293963 -0.07132332 0.060351618 0.10267331 0.08472358
-0.1135706 -0.083049074 -0.0017900959 0.041338395 0.0031098966 -0.059164 -0.010187501 0.049286555
-0.09251089 0.026833117 -0.036083024 -0.031898648 -0.016700106 -0.03793424 -0.11270309 0.01397628
0.02717359 0.017005768 -0.015592398 -0.07510367 0.058477335 -0.037140727 -0.034179717 -0.07341811
0.05515089 0.036992777 0.060994055 0.019201213 -0.0014708728 0.028833425 9.02218e-06 -0.046414115
-0.017579772 0.08885163 0.045387626 -0.044692203 -0.044371154 0.0145641295 0.014906984 -0.11106546
-0.0051488564 0.014109225 -0.091692105 0.018118614 -0.018592421 -0.09448975 0.0013085627 -0.04416389
0.03971783 -0.055520084 0.009014049 0.03230745 0.0393899 -0.0007677121 0.051890478 0.008845103
0.053699117 -0.07293753 -0.0057681473 0.057416476 0.016771572 -0.020516915 0.051518414 -0.007508415
-0.07339696 -0.045440484 -0.063746996 0.08497115 0.05551749 0.10211284 -0.08178196 -0.04936928
-0.04601128 -0.042254414 0.07630992 0.057418473 0.052841064 0.1041722 -0.0668611 0.0016063824
0.055871088 -0.09611746 0.00450269 0.035490114 0.0498434 0.0020618136 0.011338087 -0.039378427
0.019372152 -0.03211321 0.069432974 -0.13183166 0.0079442505 -0.06738146 -0.068135574 0.03566254
0.025653368 -0.119980454 0.06674502 0.09860699 0.037155163 -0.09679219 0.01465627 0.07124525
-0.085439034 -0.044875674 0.014428147 -0.002122815 -0.09637466 -0.03323749 -0.017529892 -0.055081278
0.012093208 -0.0571266 -0.010615295 -0.03922011 -0.0072121625 -0.007214797 0.04720686 0.07906227
0.07919694 -0.05780582 -0.08525033 -0.0029589683 0.04082602 -0.015671698 -0.040286332 0.07016151
-0.041938048 -0.0009233124 -0.028920755 0.058745965 0.053956456 0.08703471 -0.04704437 -0.042694516
-0.0060011707 0.11797618 0.08683082 0.0481008 0.00918476 -0.08001649 0.04356673 -0.03253678
0.023439826 0.029987048 0.05482905 0.07333085 0.11454715 0.006381755 -0.0031445073 -0.03375112
0.041641768 -0.088971816 -0.021300318 -0.07724321 0.05416362 -0.05128913 -0.044466358 0.027337637
-0.11434018 0.045331467 0.020007228 0.0753998 -0.008187121 -0.0793241 0.045310333 -0.05041633
-0.21224739 0.034024473 0.087594755 -0.03430602 0.01680356 0.040099047 -0.009289918 0.03117391
-0.10136073 0.011837974 0.016316978 -0.053640556 -0.014927545 0.025432771 0.013168073 -0.12368864
-0.036789972 -0.07398054 0.06944684 -0.1362227 -0.07703202 -0.067476094 0.07421986 0.09657245
00000000: dffa be3d 9494 dc3c e704 a7bd b262 7e3c
00000010: 8f71 7a3c 240f 91bc 2e61 dabd e520 71bd
00000020: ed1c 8cbd 0b3b 313c ddfd e2bc 1a26 a83c
00000030: a941 d43c 570e b1bc 3b0f 4dbd 3944 04bd
00000040: 9a20 c73c 9987 1dbd 77ce 9e3a f982 c2bb
00000050: 4fb6 92bd 18d1 1d3d ecbe f6bc 1b8d 0b3d
00000060: b3fa 24be a16d bebc 6f36 c4bc deae b2bc
00000070: b052 b2bd 2907 763c c82e 933c e8c2 03bd
00000080: 1a83 623c 1592 cabc a4b1 603c 73be 8dbc
00000090: ba47 373c 2e35 aa3d 4c45 6fbc ec28 1dbd
000000a0: 50dc 9b3d 6533 17bd 6f65 d9bc c092 703d
000000b0: fc70 a3bd a106 60bc f9b7 babd eb5b a5bd
000000c0: 24cb abbd 16af 01bc a1ab e6bd da91 863d
000000d0: 3b85 44bd 5a93 47ba d54d 6f3d e44e 3a3b
000000e0: 0311 623d 603f 0dbd 3ea1 9ebc e4cf 453d
000000f0: f611 92bd 4233 773d 6246 d23d 8e83 ad3d
00000100: b497 e8bd a215 aabd a7a1 eaba 7352 293d
00000110: 68cf 4b3b f355 72bd 7ae9 26bc b3e0 493d
00000120: 5976 bdbd 20d1 db3c cbcb 13bd 28a8 02bd
00000130: a9ce 88bc ef60 1bbd e1d0 e6bd c4fc 643c
00000140: 269b de3c ae4f 8b3c 4277 7fbc f4cf 99bd
00000150: ee85 6f3d e020 18bd 0800 0cbd 3c5c 96bd
00000160: e6e5 613d bd85 173d e7d4 793d dd4b 9d3c
00000170: 4dca c0ba 1334 ec3c f85d 1737 ba1c 3ebd
00000180: 7403 90bc d8f7 b53d 60e8 393d 2c0f 37bd
00000190: 87be 35bd 639e 6e3c 6c3c 743c 4a76 e3bd
000001a0: bdb7 a8bb 612a 673c 12c9 bbbd 7d6d 943c
000001b0: 224f 98bc d883 c1bd 1484 ab3a 32e5 34bd
000001c0: 2aaf 223d 0769 63bd a9af 133c d154 043d
000001d0: 4e57 213d 4940 49ba 1c8b 543d 0deb 103c
000001e0: 9bf3 5b3d 4660 95bd ba02 bdbb 8a2d 6b3d
000001f0: 8964 893c 1713 a8bc f904 533d 2609 f6bb
00000200: 2551 96bd cd1f 3abd c98d 82bd 5b05 ae3d
00000210: 4f66 633d 8920 d13d 4d7d a7bd 7137 4abd
00000220: 5376 3cbd f712 2dbd 6048 9c3d a22f 6b3d
00000230: df6f 583d 3c58 d53d 79ee 88bd 408d d23a
00000240: 15d9 643d 3bd9 c4bd 4d8b 933b 155e 113d
00000250: 9828 4c3d 7e1f 073b 62c3 393c 464b 21bd
00000260: 59b2 9e3c 2489 03bd e032 8e3d e1fe 06be
00000270: 9a28 023c 4aff 89bd aa8a 8bbd e212 123d
00000280: 0327 d23c 50b8 f5bd 9db1 883d 76f2 c93d
00000290: 0330 183d fc3a c6bd da20 703c 08e9 913d
000002a0: a9fa aebd 8ecf 37bd 0964 6c3c ed1e 0bbb
000002b0: 1460 c5bd 0924 08bd d99a 8fbc e89c 61bd
000002c0: 9722 463c 95fd 69bd c6eb 2dbc 44a5 20bd
000002d0: 0154 ecbb 1b6a ecbb fb5b 413d 66eb a13d
000002e0: 0132 a23d ccc5 6cbd ba97 aebd 40eb 41bb
000002f0: 2f39 273d ef61 80bc 4803 25bd d6b0 8f3d
00000300: 3bc7 2bbd 720a 72ba 38eb ecbc 9c9f 703d
00000310: 7201 5d3d 413f b23d 99b1 40bd 72e0 2ebd
00000320: 78a5 c4bb 7f9d f13d 5bd4 b13d 5805 453d
00000330: ad7b 163c afdf a3bd 0773 323d 4945 05bd
00000340: e104 c03c 66a7 f53c 6d94 603d 7c2e 963d
00000350: b297 ea3d 0b1e d13b 1414 4ebb 9d3e 0abd
00000360: 8f90 2a3d db36 b6bd 017e aebc b031 9ebd
00000370: acda 5d3d 8d14 52bd 5b22 36bd 2ef3 df3c
00000380: 2f2b eabd 7dad 393d 33e6 a33c 366b 9a3d
00000390: 4623 06bc ac74 a2bd 5497 393d 5b81 4ebd
000003a0: 6157 59be 3f5d 0b3d e164 b33d 7884 0cbd
000003b0: 9fa7 893c e63e 243d bd34 18bc 6d60 ff3c
000003c0: 3796 cfbd 10f4 413c 2fab 853c 33b6 5bbd
000003d0: a992 74bc 6358 d03c e7be 573c 7850 fdbd
000003e0: 15b1 16bd 1c83 97bd 253a 8e3d f77d 0bbe
000003f0: f7c2 9dbd e830 8abd 9500 983d c7c7 c53d

encoder.2.bias f4 [128]
0.04088924 -0.023625644 0.047596198 -0.020241005 0.034038853 -0.07189548 0.023414137 -0.078803085
-0.062761694 0.017729517 0.054591138 0.0065769693 -0.113409355 0.020813866 0.17211491 -0.024143325
-0.058464002 -0.054877643 0.016418168 -0.10445999 -0.04118454 -0.07116754 -0.09250212 -0.057269566
0.014887084 -0.079666376 -0.011347289 -0.06740688 0.009808718 0.08296172 -0.07479129 -0.17009729
-0.07327064 -0.06846834 0.026320389 0.07538426 0.033438537 -0.0039801593 0.053962886 0.051406927
0.10698691 -0.111957125 -0.022036042 5.9255995e-05 -0.081861444 0.05970714 -0.021821424 0.119682424
0.0219514 0.07148089 -0.08728879 -0.026127584 0.058248054 0.12323254 -0.0983081 0.06800387
0.0058978936 -0.00092720776 -0.12097983 -0.026495695 0.05184793 -0.11885803 -0.10505604 0.06265234
0.07514706 0.018780278 0.13090114 -0.1048099 -0.038167447 0.04073001 -0.026102012 0.07529852
0.04680291 0.07429053 0.07820486 -0.05095812 -0.004443294 -0.1445635 0.11166909 0.10818369
-0.11811002 -0.081679836 0.039721143 -0.104327545 -0.07332049 0.05963494 0.048671123 -0.061323475
0.06123572 -0.00768317 0.0070468555 0.09814188 0.04016575 -0.023912944 0.080529965 -0.0472278
-0.036089927 0.025553787 -0.0325115 0.07841103 -0.0639466 -0.038617276 0.02722112 0.04152769
0.027054457 -0.027889729 0.007843911 0.0021933767 -0.09349683 -0.032169417 0.01797628 0.0062253363
0.03315223 0.08302719 -0.008474998 -0.016770868 -0.023113104 -0.016004594 0.08083556 -0.08988609
0.00085957954 0.05894718 -0.078700416 -0.023694277 -0.0046101366 0.12941535 0.04924938 0.016045582
00000000: 7a7b 273d 918a c1bc 3bf4 423d 77d0 a5bc
00000010: 536c 0b3d f03d 93bd 01cf bf3c 8363 a1bd
00000020: 3489 80bd 7e3d 913c f59a 5f3d 9e83 d73b
00000030: 2a43 e8bd d781 aa3c e43e 303e 39c8 c5bc
00000040: f377 6fbd 61c7 60bd 657f 863c 1fef d5bd
00000050: 1fb1 28bd 4ac0 91bd c071 bdbd 7e93 6abd
00000060: f5e8 733c 2028 a3bd fbe9 39bc 9e0c 8abd
00000070: bfb4 203c d6e7 a93d 2d2c 99bd fc2d 2ebe
00000080: eb0e 96bd 2139 8cbd db9d d73c 1063 9a3d
00000090: d9f6 083d ff6b 82bb 3008 5d3d 1290 523d
000000a0: f41b db3d c749 e5bd ee84 b4bc a489 7838
000000b0: f9a6 a7bd 798f 743d d8c2 b2bc 0f1c f53d
000000c0: 6cd3 b33c 9364 923d 77c4 b2bd 8409 d6bc
000000d0: 8395 6e3d 5861 fc3d c255 c9bd 9d45 8b3d
000000e0: 1e43 c13b dc0f 73ba 46c4 f7bd 800d d9bc
000000f0: 7f5e 543d d76b f3bd 9f27 d7bd df4f 803d
00000100: b4e6 993d 19d9 993c f30a 063e 93a6 d6bd
00000110: 7855 1cbd 83d4 263d e3d3 d5bc 1c36 9a3d
00000120: 68b4 3f3d a225 983d df29 a03d 76b9 50bd
00000130: 0d99 91bb 7408 14be c4b2 e43d 698f dd3d
00000140: abe3 f1bd c247 a7bd a3b2 223d aea9 d5bd
00000150: 0e29 96bd c443 743d 5f5b 473d 532e 7bbd
00000160: 4ed2 7a3d 1ac3 fbbb 4fe9 e63b 9cfe c83d
00000170: d784 243d 14e5 c3bc e5ec a43d f071 41bd
00000180: 08d3 13bd 2d56 d13c c72a 05bd f695 a03d
00000190: 6ff6 82bd 262d 1ebd d4fe de3c f018 2a3d
000001a0: 4fa1 dd3c 0079 e4bc bf83 003c c1be 0f3b
000001b0: 447b bfbd 14c4 03bd fe42 933c e8fd cb3b
000001c0: a2ca 073d 290a aa3d b8da 0abc 0f63 89bc
000001d0: b157 bdbc 111c 83bc 1d8d a53d 3316 b8bd
000001e0: 6855 613a 9972 713d af2d a1bd 801a c2bc
000001f0: a110 97bb 7585 043e b8b9 493d 0672 833c

gnn_0.lin_msg.weight f4 [128, 128]
-0.07544729 -0.088696025 0.03573957 -0.08229258 -0.1010695 -0.1010844 0.056926318 0.011544936
-0.03474947 -0.049662802 0.020464106 -0.041608274 0.119490325 -0.042295907 -0.09544732 -0.07002325
-0.07786992 0.056035284 0.04525716 0.032636285 0.040808007 -0.0032049876 -0.04671397 -0.110618554
0.081536114 0.017614547 -0.033476666 0.016006034 0.03357919 -0.09558347 -0.11215177 0.042369023
-0.014020302 -0.053697377 0.011834408 -0.11713356 0.05701707 -0.08114368 0.029358415 -0.02799545
-0.05757521 0.07167589 -0.028651373 -0.008896632 0.006785336 0.047124635 0.05351534 -0.07096025
-0.07217692 0.07505332 -0.048880305 -0.06612449 0.008565397 -0.022670805 -0.039591152 -0.015643949
-0.04599978 -0.036322776 0.032030687 0.07617342 -0.007046942 0.053186752 -0.012726726 0.07406147
-0.031781107 0.009883424 0.06600134 0.04944907 -0.007956932 0.0086514 -0.085038066 -0.049291924
-0.012328613 -0.057498068 -0.042359725 -0.01409455 -0.14769593 -0.0653635 0.009800282 0.029922957
0.010925178 0.098172896 -0.08270513 0.01804798 0.058036987 -0.009832279 -0.045127407 -0.06533478
-0.034044348 0.030671503 0.038032204 -0.024301425 -0.028851427 -0.043013167 -0.055250537 -0.024945527
-0.027015237 0.093738616 -0.05224118 0.05074779 0.025685446 0.009921884 0.036688987 0.0674671
-0.041868076 -0.058108684 0.067131 0.04254518 0.007977605 -0.0476627 0.011033079 0.12419538
-0.02365533 -0.082791224 0.021190716 0.007264333 0.07284817 0.071698934 0.016767856 0.009636715
0.03195001 -0.012196342 0.11930221 0.02806769 -0.013472217 -0.03358475 -0.053433325 0.055757094
0.03483314 -0.098845765 0.0109710535 -0.0042742817 -0.07532921 -0.0049089193 0.098776355 0.01617944
0.053995613 -0.02867408 0.07919404 0.08024703 -0.026765443 0.00044181757 -0.03790485 -0.018687384
-0.06977391 -0.051122542 -0.10234369 -0.0035223619 -0.08132336 0.01073421 -0.05659651 -0.057239372
0.04926075 0.06834712 -0.05270194 -0.114725195 -0.027689956 0.105010584 -0.083664976 0.016711812
-0.05925516 -0.09366613 -0.082070835 -0.07939513 -0.054016687 0.04942798 -0.058264006 -0.09083786
0.03875772 0.030126978 0.046236496 0.059916303 -0.018794134 -0.0071333773 -0.059110276 0.046931997
-0.11208592 0.066263385 -0.0365958 0.06544724 -0.008559792 -0.03609108 -0.004591201 0.10596792
-0.026084438 -0.049481377 -0.010882256 0.059999716 -0.06721155 -0.061766613 -0.039335 0.10031664
-0.008582824 -0.025127929 -0.09551715 0.053229507 0.025689265 0.019239793 0.022529144 -0.104478024
0.021809047 -0.0058006286 0.064092845 -0.037476517 0.053895667 -0.052427035 0.04066196 0.023897775
-0.05149986 0.010411626 0.01970713 0.04664079 0.071445875 -0.08190074 -0.003538938 0.005041961
0.020648398 -0.06684674 -0.045227606 -0.034740336 0.08232444 -0.021973731 -0.0062570497 0.02387868
0.005067731 -0.014933964 -0.059351534 0.06536759 0.020860288 0.055797193 -0.057376098 0.060023516
0.09244907 0.016280983 0.060271226 0.07314227 -0.041131523 0.10829531 -0.04696439 -0.09042539
0.089261934 0.046194024 -0.040447656 0.06929774 -0.028685348 -0.04325072 -0.004685693 -0.06963658
-0.034803115 0.049269788 0.05186133 -0.037035175 0.06295842 -0.0070926403 -0.08094793 0.0462884
00000000: 1c84 9abd 43a6 b5bd a863 123d 0389 a8bd
00000010: 87fd cebd 5705 cfbd 922b 693d f926 3d3c
00000020: 7655 0ebd 396b 4bbd 57a4 a73c 706d 2abd
00000030: 58b7 f43d 793e 2dbd e279 c3bd 5a68 8fbd
00000040: 447a 9fbd 4185 653d 925f 393d a0ad 053d
00000050: 4c26 273d c50a 52bb 2657 3fbd fb8b e2bd
00000060: 68fc a63d 624c 903c d41e 09bd 161f 833c
00000070: 558a 093d 44c1 c3bd d4af e5bd 248b 2d3d
00000080: 69b5 65bc c8f1 5bbd 1be5 413c b8e3 efbd
00000090: bb8a 693d a82e a6bd 0f81 f03c b756 e5bc
000000a0: fcd3 6bbd cfca 923d 49b6 eabc 2ec3 11bc
000000b0: 8657 de3b c305 413d e732 5b3d 9c53 91bd
000000c0: 7ed1 93bd 8eb5 993d b736 48bd 476c 87bd
000000d0: e155 0c3c 20b8 b9bc 552a 22bd bd27 80bc
000000e0: 446a 3cbd 31c7 14bd 9c32 033d cf00 9c3d
000000f0: 09ea e6bb 5ada 593d c283 50bc 8aad 973d
00000100: e82c 02bd 16ee 213c b62b 873d 1c8b 4a3d
00000110: cb5d 02bc 9abe 0d3c 7028 aebd 54e6 49bd
00000120: f3fd 49bc 1883 6bbd 6481 2dbd d4ec 66bc
00000130: 9a3d 17be 4cdd 85bd 5d91 203c fd20 f53c
00000140: 85ff 323c df0e c93d 4f61 a9bd 5bd9 933c
00000150: 31b8 6d3d 9117 21bc 84d7 38bd 3ece 85bd
00000160: 1672 0bbd ce42 fb3c a8c7 1b3d c813 c7bc
00000170: d459 ecbc 932e 30bd 634e 62bd 905a ccbc
00000180: 0f4f ddbc 08fa bf3d d9fa 55bd eadc 4f3d
00000190: 496a d23c 668f 223c 3147 163d 312c 8a3d
000001a0: dc7d 2bbd 5f03 6ebd fa7b 893d db43 2e3d
000001b0: 80b4 023c f739 43bd 16c4 343c 265a fe3d
000001c0: d3c8 c1bc 728e a9bd 2798 ad3c a409 ee3b
000001d0: 6c31 953d e4d6 923d be5c 893c 50e3 1d3c
000001e0: 04de 023d 2bd3 47bc b854 f43d 36ee e53c
000001f0: 93ba 5cbc 2a90 09bd e7dc 5abd 8d61 643d
00000200: 32ad 0e3d a66f cabd efbf 333c 460f 8cbb
00000210: 3346 9abd 00db a0bb 424b ca3d bf8a 843c
00000220: 812a 5d3d e7e5 eabc 7c30 a23d 8e58 a43d
00000230: 3443 dbbc c0a3 e739 1e42 1bbd 4916 99bc
00000240: a0e5 8ebd df65 51bd 9299 d1bd 6dd7 66bb
00000250: dd8c a6bd 8ade 2f3c bed1 67bd d573 6abd
00000260: a4c5 493d 93f9 8b3d fddd 57bd 0bf5 eabd
00000270: 0cd6 e2bc ca0f d73d 8b58 abbd 36e7 883c
00000280: 8ab5 72bd 07d4 bfbd c114 a8bd ea99 a2bd
00000290: 9a40 5dbd fe74 4a3d 3da6 6ebd 3309 babd
000002a0: 6ac0 1e3d dacc f63c 7b62 3d3d cc6a 753d
000002b0: 28f6 99bc 1bbf e9bb 9e1d 72bd c43b 403d
000002c0: 4e8d e5bd 19b5 873d 7ae5 15bd 3409 863d
000002d0: 5f3e 0cbc 3ed4 13bd c971 96bb b505 d93d
000002e0: 08af d5bc fcac 4abd 7d4b 32bc 43c2 753d
000002f0: 36a6 89bd fdfe 7cbd bd1d 21bd d072 cd3d
00000300: f99e 0cbc 16d9 cdbc 7f9e c3bd 2f07 5a3d
00000310: 4b72 d23c c59c 9d3c 0a8f b83c 93f8 d5bd
00000320: e3a8 b23c 3313 bebb 1c43 833d fa80 19bd
00000330: b4c1 5c3d bbbd 56bd 288d 263d 44c5 c33c
00000340: 84f1 52bd 8695 2a3c d970 a13c 6a0a 3f3d
00000350: 3752 923d 93bb a7bd 87ed 67bb 0937 a53b
00000360: d426 a93c f2e6 88bd 9540 39bd e24b 0ebd
00000370: b799 a83d 4102 b4bc f007 cdbb 399d c33c
00000380: 350f a63b 96ad 74bc 981a 73bd 71df 853d
00000390: 32e3 aa3c 998b 643d 3303 6bbd 38db 753d
000003a0: f055 bd3d b25f 853c f6de 763d 9dcb 953d
000003b0: 8779 28bd eec9 dd3d bb5d 40bd f230 b9bd
000003c0: f6ce b63d f235 3d3d 71ac 25bd f9eb 8d3d
000003d0: 89fd eabc ab27 31bd 718a 99bb a09d 8ebd
000003e0: b68d 0ebd 1ecf 493d 8c6c 543d 32b2 17bd
000003f0: 58f0 803d 6169 e8bb 07c8 a5bd e898 3d3d

gnn_0.lin_msg.bias f4 [128]
-0.041988477 0.0068338695 -0.03291135 -0.035459742 -0.043413512 -0.074506104 -0.006617217 0.00039011592
0.02424126 -0.090112984 -0.053294905 -0.13316238 -0.0026630587 0.09334115 0.01222075 -0.20640232
0.023194108 0.051021475 0.028036984 0.018684523 0.065639086 -0.037460715 -0.08681386 0.0345916
-0.057830226 -0.057852734 -0.11079676 -0.048920643 -0.0094905095 0.051946804 0.0056386185 -0.034916338
-0.009160972 -0.07802194 -0.0047708945 0.01750232 0.066671215 -0.11538236 0.09606969 -0.013169133
-0.050367627 -0.04328324 -0.006033506 -0.011995613 0.040627666 0.015076571 -0.1418165 -0.028542576
-0.084309444 0.056452975 -0.09562494 -0.07521218 -0.028811261 0.07729065 -0.022974458 -0.005932363
-0.15316422 0.077724576 -0.10668554 0.013031491 -0.040015627 -0.06509384 -0.032108165 -0.0697548
-0.036046486 -0.030503936 -0.032566417 0.023259077 -0.06446389 0.056965243 -0.07187043 0.037915748
-0.055751346 -0.06873999 -0.020006264 -0.046351135 -0.014578346 -0.09929094 -0.066420905 0.0017247457
-0.014568139 -0.099061154 -0.04850372 -0.12296144 -0.013825745 0.018218555 -0.09460655 0.031097805
-0.0029696391 -0.044108555 -0.10217305 0.007043331 -0.043268196 -0.052063875 -0.06841997 0.0828095
-0.007016616 0.009236222 -0.10812478 0.07122923 -0.07350286 0.021027116 -0.03642646 -0.10710999
-0.08053196 0.010166821 -0.052570574 0.005068697 -0.17287464 -0.087511264 0.0040754355 -0.020839037
-0.018425263 0.032713793 -0.13067718 -0.11023345 -0.0646651 -0.008960051 -0.0628962 -0.14676864
0.008771753 -0.026727092 -0.09665669 -0.028738057 0.03373031 -0.00506212 -0.08120466 -0.17197947
00000000: 1cfc 2bbd a7ee df3b 0dce 06bd 3c3e 11bd
00000010: 5ed2 31bd a896 98bd 3dd5 d8bb 7988 cc39
00000020: 9b95 c63c 288d b8bd c24b 5abd b85b 08be
00000030: b686 2ebb a529 bf3d 8a39 483c 215b 53be
00000040: 9201 be3c e5fb 503d d1ad e53c 4910 993c
00000050: c96d 863d 6870 19bd 77cb b1bd ecaf 0d3d
00000060: 63df 6cbd fdf6 6cbd 69e9 e2bd 0361 48bd
00000070: 157e 1bbc 2cc6 543d 29c4 b83b 6f04 0fbd
00000080: e717 16bc f8c9 9fbd 2a55 9cbb 0761 8f3c
00000090: eb8a 883d 964d ecbd 30c0 c43d 59c3 57bc
000000a0: 494e 4ebd c449 31bd b7b4 c5bb 3f89 44bc
000000b0: 3269 263d b903 773c 5838 11be 1fd2 e9bc
000000c0: 6eaa acbd 3c3b 673d 02d7 c3bd d808 9abd
000000d0: 9805 ecbc 8f4a 9e3d ee34 bcbc 4564 c2bb
000000e0: 15d7 1cbe 102e 9f3d f37d dabd 0982 553c
000000f0: 6de7 23bd eb4f 85bd da83 03bd 9bdb 8ebd
00000100: 7ba5 13bd 64e3 f9bc 5d64 05bd d289 be3c
00000110: a505 84bd 6354 693d ce30 93bd 8b4d 1b3d
00000120: 865b 64bd 8dc7 8cbd 2de4 a3bc b0da 3dbd
00000130: 04da 6ebc 0c59 cbbd af07 88bd dd10 e23a
00000140: 34af 6ebc 93e0 cabd d6ab 46bd 35d3 fbbd
00000150: 6185 62bc 143f 953c 14c1 c1bd d3c0 fe3c
00000160: 479e 42bb 2cab 34bd 1b40 d1bd becb e63b
00000170: fe39 31bd ee40 55bd c51f 8cbd 0798 a93d
00000180: a4eb e5bb 8653 173c 8670 ddbd a1e0 913d
00000190: ab88 96bd 0f41 ac3c e933 15bd 7c5c dbbd
000001a0: f1ed a4bd bd92 263c 3e54 57bd 5017 a63b
000001b0: 0d06 31be 1b39 b3bd 3b8b 853b a1b6 aabc
000001c0: 94f0 96bc e6fe 053d 3dd0 05be 13c2 e1bd
000001d0: 236f 84bd 2ecd 12bc b9cf 80bd 854a 16be
000001e0: 66b7 0f3c c6f2 dabc f1f3 c5bd 136c ebbc
000001f0: cb28 0a3d 24e0 a5bb a14e a6bd 631b 30be

gnn_0.lin_msg_i.weight f4 [128, 128]
-0.039290603 -0.10528558 0.008916474 -0.025257735 0.028791241 0.06509553 -0.038586613 -0.03866123
-0.028963262 0.019848455 0.061378878 0.017141167 -0.018308815 -0.08077615 0.02869413 0.017843362
-0.028569039 0.0021527004 -0.04715166 0.008863297 0.009064531 0.0045991 0.015384877 0.051375438
-0.090296105 0.003714056 0.029138189 0.073203824 0.026148072 0.04533167 -0.018860443 0.002085819
-0.049871214 0.011421551 -0.039728243 0.0056400634 -0.0035763292 0.050070535 0.06815254 -0.027081134
0.029975947 -0.13984448 0.06289904 0.028639657 -0.03805063 0.034920856 -0.02581558 0.080298945
-0.013369092 -0.045168918 0.027194537 -0.0077063367 -0.0043299827 0.062170714 0.016798122 0.046377067
0.12441281 -0.06781189 0.099378474 -0.00633954 -0.028270181 0.009861991 -0.0031893086 0.019742988
-0.027806614 -0.032349456 -0.0295617 0.035927467 -0.09684919 -0.008172415 -0.09738858 -0.09063951
-0.015615773 0.09046813 -0.016461242 -0.056318685 -0.0077536665 0.067025445 -0.021688892 -0.081946336
0.05350034 -0.0015934138 0.016189232 0.00091628276 -0.04078781 0.011910145 0.018257566 0.043206025
0.04137982 0.11876885 -0.021946229 0.03177474 -0.03873977 -0.07791263 0.11613393 0.025678923
-0.07320805 0.01844272 0.07653436 7.7847064e-05 0.06114442 0.00523485 0.07144835 -0.06199304
0.09755137 -0.039738294 0.0711439 0.027422776 0.060312442 0.033176083 0.016167581 -0.022566147
0.028771017 -0.059084665 -0.016306391 0.078825414 -0.032647524 0.10173976 0.04033122 0.018807344
0.033555605 0.1165722 0.027146256 0.03392507 -0.055564944 0.013561162 -0.004049246 -0.08260478
0.047213655 -0.03434849 0.057876803 0.07405891 0.06127262 0.019321222 0.056136996 -0.011692479
-0.021016004 0.00081900397 0.004144995 -0.017673103 0.095868155 0.007574791 -0.02625043 -0.04667659
-0.03491596 0.023615725 -0.048015606 -0.009129641 -0.08889092 0.0395754 -0.011668617 -0.09642745
0.09730171 0.050787684 0.028258013 -0.006641007 -0.015241639 0.003801008 -0.011052734 0.015682122
-0.00531597 0.03581603 -0.06445211 -0.0089258365 -0.062394034 -0.01649965 -0.049753327 -0.03573717
-0.06304408 -0.07890909 -0.09210143 -0.034774985 0.040706243 -0.08364934 -0.0026479808 -0.070674084
-0.12560403 0.02426795 -0.028603826 -0.013015273 0.02012117 0.043205444 0.06478728 0.018621042
0.022224557 0.03827032 0.04284687 -0.06774481 -0.07836104 0.005916403 -0.02983451 0.047856804
0.105470985 -0.0026546419 0.04139187 -0.04861578 -0.007432466 -0.113836735 0.0015307753 0.04131435
-0.0805949 0.06832152 -0.025989318 0.04864499 0.06815869 -0.08639278 0.009346756 0.053080693
0.025192518 -0.0029898798 0.015562683 0.0017591444 0.049054436 0.031195205 0.046432458 0.041445505
0.040011756 -0.03360859 0.0202118 0.08122521 0.027735027 -0.012895374 0.021058038 0.04563421
0.09132591 -0.08498078 -0.066945165 -0.019720284 -0.05425033 0.0459178 -0.026857423 -0.0009001199
0.012679155 0.018669304 0.048194177 -0.01205171 0.097181566 0.015879866 0.002493408 -0.044297278
0.012665254 0.0035470382 -0.02634034 -0.121719845 0.011271189 0.042642202 -0.07922481 0.06071721
-0.07880125 -0.058931988 -0.023301873 0.09132891 0.13950162 -0.10974181 0.02568907 0.07375242
00000000: 2fef 20bd f79f d7bd 6716 123c 4fe9 cebc
00000010: 9cdb eb3c ce50 853d ff0c 1ebd 3d5b 1ebd
00000020: 5d44 edbc 3a99 a23c 6b68 7b3d a26b 8c3c
00000030: 5efc 95bc f76d a5bd f40f eb3c 3e2c 923c
00000040: 9e09 eabc 5214 0d3b 1922 41bd 5d37 113c
00000050: 6683 143c 0cb4 963b da10 7c3c 0d6f 523d
00000060: 2aed b8bd 8567 733b 36b3 ee3c e3eb 953d
00000070: 7b34 d63c b4ad 393d 3781 9abc 3cb2 083b
00000080: c245 4cbd 7521 3b3c 15ba 22bd 48d0 b83b
00000090: d960 6abb c316 4d3d 8f93 8b3d 41d9 ddbc
000000a0: 1e90 f53c 6433 0fbe 36d1 803d b79d ea3c
000000b0: fada 1bbd 2c09 0f3d 327b d3bc c673 a43d
000000c0: 090a 5bbc 0b03 39bd 14c7 de3c 7085 fcbb
000000d0: 87e2 8dbb b8a6 7e3d 379c 893c e1f5 3d3d
000000e0: 25cc fe3d f6e0 8abd f186 cb3d eabb cfbb
000000f0: de96 e7bc 3094 213c b803 51bb 0cbc a13c
00000100: b2ca e3bc dd80 04bd 612b f2bc ae28 133d
00000110: de58 c6bd 98e5 05bc aa73 c7bd 35a1 b9bd
00000120: 4dd9 7fbc 5b47 b93d bad9 86bc 6cae 66bd
00000130: 7812 febb a344 893d e7ac b1bc 7bd3 a7bd
00000140: 2c23 5b3d 18da d0ba 489f 843c b232 703a
00000150: 1e11 27bd c522 433c e490 953c cdf8 303d
00000160: e37d 293d 153d f33d 94c8 b3bc 3b26 023d
00000170: 98ad 1ebd a890 9fbd a0d7 ed3d 9b5c d23c
00000180: 1aee 95bd 3015 973c 0cbe 9c3d d341 a338
00000190: 9272 7a3d 1b89 ab3b 8353 923d 6aec 7dbd
000001a0: 03c9 c73d 9fc4 22bd e5b3 913d bba5 e03c
000001b0: 2e0a 773d a5e3 073d e071 843c a4dc b8bc
000001c0: 32b1 eb3c c302 72bd fb94 85bc 386f a13d
000001d0: 69b9 05bd ef5c d03d 5932 253d dc11 9a3c
000001e0: 9a71 093d 68bd ee3d d361 de3c 04f5 0a3d
000001f0: 1198 63bd a32f 5e3c 8aaf 84bb b22c a9bd
00000200: 1b63 413d 01b1 0cbd 3a10 6d3d 33ac 973d
00000210: 00f9 7a3d 8a47 9e3c e8ef 653d d091 3fbc
00000220: c129 acbc 6db2 563a bdd2 873b 2fc7 90bc
00000230: 8656 c43d f435 f83b 240b d7bc f42f 3fbd
00000240: 0a04 0fbd c475 c13c 03ac 44bd 7d94 15bc
00000250: 710c b6bd d119 223d ba2d 3fbc c17b c5bd
00000260: 1e46 c73d bf06 503d 597d e73c ce9c d9bb
00000270: 11b8 79bc 551a 793b 8716 35bc cb77 803c
00000280: 9731 aebb d4b3 123d 78ff 83bd ac3d 12bc
00000290: e390 7fbd 462a 87bc 25ca 4bbd 2461 12bd
000002a0: 411d 81bd 179b a1bd ad9f bcbd 3770 0ebd
000002b0: 97bb 263d 5850 abbd bf89 2dbb 93bd 90bd
000002c0: 589e 00be 94cd c63c 9252 eabc 033e 55bc
000002d0: 27d5 a43c 31f8 303d 32af 843d 288b 983c
000002e0: 4610 b63c 57c1 1c3d 3380 2f3d cabd 8abd
000002f0: c17b a0bd 63de c13b 8167 f4bc 7f05 443d
00000300: 2c01 d83d 80f9 2dbb 858a 293d 5721 47bd
00000310: 0b8c f3bb 3c23 e9bd 4ca4 c83a 3c39 293d
00000320: f00e a5bd 27ec 8b3d 8de7 d4bc f83f 473d
00000330: c996 8b3d b3ee b0bd 2323 193c 246b 593d
00000340: 8a60 ce3c dcf1 43bb a0fa 7e3c 1793 e63a
00000350: 4eed 483d 168d ff3c f62f 3e3d c3c2 293d
00000360: 5ee3 233d 29a9 09bd 3793 a53c 6759 a63d
00000370: 9134 e33c 1e47 53bc e881 ac3c f0ea 3a3d
00000380: 1409 bb3d 670a aebd 8c1a 89bd 6f8c a1bc
00000390: 9835 5ebd 4e14 3c3d 1904 dcbc 06f6 6bba
000003a0: 3bbc 4f3c 5ef0 983c 4267 453d 8974 45bc
000003b0: 2107 c73d 7e16 823c 7268 233b 1071 35bd
000003c0: ed81 4f3c 6d75 683b b2c7 d7bc 4148 f9bd
000003d0: cbaa 383c 97a9 2e3d 9e40 a2bd 9cb2 783d
000003e0: 8d62 a1bd ab62 71bd 92e3 bebc a70a bb3d
000003f0: 83d9 0e3e 50c0 e0bd e271 d23c 820b 973d

gnn_0.lin_msg_i.bias f4 [128]
0.057399187 -0.09447204 -0.070763566 -0.02517156 0.0320942 -0.066853605 -0.035531435 -0.1058901
0.078179516 0.03126046 0.013200345 -0.1223032 -0.00960217 0.05345604 -0.01573662 -0.1508715
-0.039054405 -0.07059528 -0.021668747 -0.1189253 0.06617469 0.053364765 -0.030506847 -0.014908714
-0.011536179 -0.037793905 -0.06956884 0.007817274 -0.032014426 0.0049008136 0.01910913 -0.105810925
-0.15753542 -0.11335166 -0.08981548 -0.05558084 -0.04805404 -0.034173567 -0.047191728 0.04075482
0.051777437 0.08589284 -0.015669644 -0.07131085 -0.114857584 0.036292307 -0.14887768 -0.008508589
-0.03322294 0.08107366 -0.09733908 -0.11822992 -0.048723496 0.050755214 0.06916907 -0.08422424
-0.07781322 0.03545739 -0.037638128 -0.027969146 0.11044305 -0.066209294 -0.08980325 -0.020502161
-0.066775925 -0.09174408 0.092243865 0.067833565 -0.090502776 -0.08054068 -0.04174372 0.0011525338
0.032521367 -0.012314752 -0.015208993 -0.057686556 -0.00046923736 -0.10764154 -0.1286718 0.05366693
-0.0043979743 -0.052647173 0.05626848 -0.07247015 0.034127973 -0.05184143 0.0076733 -0.015416022
0.0026326843 -0.056100342 -0.048825234 0.013146021 0.09620503 0.040077146 -0.095627524 -0.00041319316
0.052215125 -0.052293196 -0.13663888 0.048050497 0.02293912 -0.06312322 -0.13949205 -0.04829817
0.018872354 0.0739602 0.058545213 0.05108441 -0.020068789 0.014900769 0.044674847 0.08677616
-0.06401759 -0.012070663 -0.1343788 0.020829491 -0.0024989077 0.048418656 0.04030652 -0.0995583
-0.16342695 0.040235065 -0.10155236 0.06758848 -0.021331422 0.081706546 -0.12194489 -0.102915466
00000000: 691b 6b3d 8f7a c1bd 7dec 90bd 9634 cebc
00000010: 3575 033d 8bea 88bd 6989 11bd e9dc d8bd
00000020: 951c a03d f80a 003d 4346 583c 1a7a fabd
00000030: 6c52 1dbc b8f4 5a3d 16ea 80bc 0f7e 1abe
00000040: 83f7 1fbd 4294 90bd a882 b1bc 1c8f f3bd
00000050: 9986 873d 0395 5a3d 7fe9 f9bc ae43 74bc
00000060: 3e02 3dbc c8cd 1abd 1c7a 8ebd 0614 003c
00000070: 8f21 03bd 0197 a03b c08a 9c3c 66b3 d8bd
00000080: f750 21be ea24 e8bd 2ef1 b7bd bca8 63bd
00000090: 50d4 44bd 95f9 0bbd 1d4c 41bd 87ee 263d
000000a0: 9414 543d 96e8 af3d a05d 80bc 6c0b 92bd
000000b0: 743a ebbd 3ea7 143d 6473 18be 9c67 0bbc
000000c0: c714 08bd f209 a63d b659 c7bd 8722 f2bd
000000d0: 4a92 47bd b3e4 4f3d 83a8 8d3d c27d acbd
000000e0: 8a5c 9fbd c53b 113d 702a 1abd 8d1f e5bc
000000f0: f72f e23d bd98 87bd c4ea b7bd 26f4 a7bc
00000100: d1c1 88bd 52e4 bbbd 5aea bc3d 53ec 8a3d
00000110: 8559 b9bd 83f2 a4bd 77fb 2abd 9e10 973a
00000120: 2035 053d d0c3 49bc 242f 79bc bd48 6cbd
00000130: f903 f6b9 2b73 dcbd 8ac2 03be dbd1 5b3d
00000140: e21c 90bb 90a4 57bd c779 663d 3b6b 94bd
00000150: c6c9 0b3d ae57 54bd 4e70 fb3b 7c93 7cbc
00000160: 1d89 2c3b 79c9 65bd f8fc 47bd 6962 573c
00000170: 2507 c53d ef27 243d 5dd8 c3bd d9a1 d8b9
00000180: 87df 553d 6431 56bd 10eb 0bbe 99d0 443d
00000190: d2ea bb3c bf46 81bd 01d7 0ebe 4dd4 45bd
000001a0: 329a 9a3c 7278 973d 1bcd 6f3d e33d 513d
000001b0: 4d67 a4bc 5b22 743c f9fc 363d b3b7 b13d
000001c0: a71b 83bd 08c4 45bc 999a 09be 9ca2 aa3c
000001d0: b7c4 23bb a452 463d 7318 253d 39e5 cbbd
000001e0: 6559 27be 86cd 243d affa cfbd d46b 8a3d
000001f0: 3cbf aebc c355 a73d 3ebe f9bd 58c5 d2bd

gnn_0.lin_edge.weight f4 [128, 2]
0.20551427 -0.45649642 -0.10615679 -0.5845773 -0.62651443 1.1429101 0.45715517 -0.54264873
0.2617601 -0.2330114 -0.5329731 -0.5344092 0.25247282 0.14978926 -0.32806626 -0.90753955
0.5776669 1.0132539 -0.7750728 0.39978608 -0.028696315 0.17356597 -0.10110137 0.03379862
-0.142759 0.52602625 -0.33020473 0.605657 0.49397624 0.58870196 -0.731628 -0.24638207
0.2201738 0.53228915 0.66793007 -0.7377145 0.25213534 0.4903002 0.47943833 0.38326052
-0.568443 -0.12474324 0.3725267 0.7370815 0.32799125 -0.74729407 0.69514227 0.11955551
0.20485982 -0.249778 -0.42065063 1.3321763 0.38612387 -0.13595134 -0.37061688 -0.71065134
0.06815013 -0.8170169 0.5386256 0.5414256 0.15278837 -0.79557955 0.11398226 -0.17797922
0.592629 -0.7258552 0.31004274 0.33488932 0.6684816 0.49901432 -0.37040806 0.61424077
-0.5597472 0.7212257 -0.33509544 -0.87682277 0.25806084 -0.4676496 0.27760473 1.2465532
-0.16576782 -0.697106 0.61435115 -0.7330622 -0.2270034 1.0616122 0.03338412 0.5101522
-0.24087419 0.23676293 -0.28557616 0.88157415 0.47496298 0.0725691 -0.22145513 0.8413725
-0.32769033 -0.8159224 0.56017476 -0.65865654 0.1683356 -0.66151106 0.55717623 -0.62754667
-0.49857113 0.06420716 0.06434087 0.19975053 0.565813 0.6821064 0.49291816 0.44272807
-0.630258 -0.74324566 -0.5269351 -0.86897624 -0.5208554 -0.2092172 -0.22418734 -0.42462814
-0.3559458 0.8767078 0.31799892 -0.8146282 0.21946856 -0.012248565 0.6684024 0.8556055
0.18324511 -0.66294396 -0.10366225 -0.8145212 -0.08972378 0.5557077 0.5524155 -0.114529125
0.026035726 0.510208 0.0155959185 0.2805655 -0.10783133 -0.13399655 -0.47822836 -0.86222094
-0.51686805 -0.7398672 -0.465998 0.23929603 -0.40222305 -0.30905482 0.025260387 -0.24839273
-0.44720346 0.9033189 -0.45282963 0.52176774 0.56038475 -0.38410875 -0.33332536 0.89778817
0.094035685 -0.23378794 0.30451342 0.17979598 0.426032 1.1235981 -0.19878365 -0.2843201
-0.05530172 -0.28562218 0.1665166 0.7803482 -0.38519785 -0.50009286 0.53848916 -0.116771095
-0.47681057 0.35635757 0.2037315 -0.86967874 -0.18232124 0.335971 0.08215891 -0.33470336
0.26500848 -0.4222259 0.13917813 -0.38756943 0.1088519 0.3592452 -0.027308486 1.0669419
0.62480325 0.5037805 0.7152809 0.7239158 0.2503357 -0.33030158 0.30746007 -0.3779991
-0.35142916 -0.43907976 0.16798596 0.5706775 -0.17451327 0.12072827 -0.13305944 -0.5849285
0.20788516 -0.7194059 0.7150679 0.067408025 -0.81921184 0.30234513 0.4239316 0.8250747
-0.58575815 -0.7590995 0.275956 0.19509944 0.26140246 1.1243795 -0.324556 0.42114928
-0.22443864 -0.019196229 -0.5464396 0.6598976 0.4292904 -0.70439357 -0.04850045 -0.6396143
0.2878052 -0.23932043 -0.6511134 -0.38269788 0.3814046 0.26224083 -0.22166406 -0.21020934
0.3154262 -0.1845883 -0.18053037 1.4629551 0.15898964 -0.19603178 0.06076443 -0.75487167
0.30285287 -0.29494882 0.4612171 -0.73599297 0.511546 -0.9460014 0.27107918 -0.75962794
00000000: 5572 523e e6b9 e9be bb68 d9bd dca6 15bf
00000010: 4063 20bf e14a 923f 3e10 ea3e 07eb 0abf
00000020: 6b05 863e 8a9a 6ebe ed70 08bf 0bcf 08bf
00000030: 1e44 813e 5b62 193e 4df8 a7be 8354 68bf
00000040: fae1 133f 4eb2 813f 2c6b 46bf c3b0 cc3e
00000050: 8914 ebbc 47bb 313e 3c0e cfbd 6c70 0a3d
00000060: 6a2f 12be a8a9 063f 9810 a9be 560c 1b3f
00000070: 74ea fc3e 2cb5 163f f94b 3bbf 954b 7cbe
00000080: 3e75 613e 1a44 083f 77fd 2a3f dcda 3cbf
00000090: e217 813e a108 fb3e f178 f53e b93a c43e
000000a0: 7b85 11bf 6279 ffbd d2bb be3e 60b1 3c3f
000000b0: 78ee a73e aa4e 3fbf d8f4 313f 85d9 f43d
000000c0: c6c6 513e cec5 7fbe 855f d7be c184 aa3f
000000d0: 07b2 c53e d436 0bbe 7fc1 bdbe 3fed 35bf
000000e0: 4c92 8b3d 0528 51bf 5ee3 093f de9a 0a3f
000000f0: 8e74 1c3e 1aab 4bbf 886f e93d 2f40 36be
00000100: 89b6 173f a5d1 39bf ecbd 9e3e 9d76 ab3e
00000110: 9c21 2b3f ce7e ff3e 20a6 bdbe e23e 1d3f
00000120: 984b 0fbf 3fa2 383f a191 abbe 7577 60bf
00000130: 8d20 843e c56f efbe 3522 8e3e 0e8f 9f3f
00000140: 0abf 29be 8a75 32bf 1e46 1d3f f7a9 3bbf
00000150: 9473 68be e9e2 873f c9bd 083d 5699 023f
00000160: b9a7 76be fb71 723e 0a37 92be d8ae 613f
00000170: 592e f33e 1c9f 943d 22c5 62be 3064 573f
00000180: 07c7 a7be 4ae0 50bf 9d67 0f3f b79d 28bf
00000190: 2b60 2c3e ca58 29bf 1aa3 0e3f e6a6 20bf
000001a0: b744 ffbe 0b7f 833d 25c5 833d 678b 4c3e
000001b0: 1fd9 103f 869e 2e3f c55f fc3e 41ad e23e
000001c0: 9758 21bf 5945 3ebf 38e5 06bf 3a75 5ebf
000001d0: c856 05bf 093d 56be 5e91 65be dc68 d9be
000001e0: 873e b6be ec6f 603f c1d0 a23e 798b 50bf
000001f0: 5ebc 603e 35ae 48bc 6b1c 2b3f f608 5b3f
00000200: 9ba4 3b3e b2b6 29bf e04c d4bd 7684 50bf
00000210: 1ac1 b7bd dc42 0e3f 1a6b 0d3f 3f8e eabd
00000220: e048 d53c fe9c 023f 0686 7f3c 48a6 8f3e
00000230: acd6 dcbd 6436 09be 59da f4be 83ba 5cbf
00000240: 7751 04bf f067 3dbf 4a97 eebe 050a 753e
00000250: 2ef0 cdbe 6f3c 9ebe dfee ce3c aa5a 7ebe
00000260: daf7 e4be e83f 673f 49d9 e7be 9292 053f
00000270: 6075 0f3f e7a9 c4be 9fa9 aabe 72d5 653f
00000280: c895 c03d 1b66 6fbe 2fe9 9b3e 701c 383e
00000290: de20 da3e 10d2 8f3f f18d 4bbe 6792 91be
000002a0: 0e84 62bd 123d 92be 5483 2a3e e6c4 473f
000002b0: a738 c5be 1606 00bf 6dda 093f af25 efbd
000002c0: 8420 f4be 8074 b63e fe9e 503e 44a3 5ebf
000002d0: 6bb2 3abe 6404 ac3e ee42 a83d 3d5e abbe
000002e0: 31af 873e fe2d d8be b684 0e3e 806f c6be
000002f0: bfed de3d fdee b73e 0cb6 dfbc 8d91 883f
00000300: 1bf3 1f3f c2f7 003f a61c 373f 8c52 393f
00000310: 002c 803e 4a1d a9be 686b 9d3e 1989 c1be
00000320: 86ee b3be 10cf e0be 8304 2c3e ec17 123f
00000330: 9bb3 32be 6240 f73d bc40 08be e0bd 15bf
00000340: d9df 543e fc2a 38bf b10e 373f 380d 8a3d
00000350: deb7 51bf fbcc 9a3e 900d d93e 1838 533f
00000360: 3ff4 15bf 5854 42bf 1b4a 8d3e 26c8 473e
00000370: 8bd6 853e abeb 8f3f 342c a6be e1a0 d73e
00000380: 3ed3 65be 6941 9dbc 77e3 0bbf 0def 283f
00000390: f4cb db3e 2353 34bf 68a8 46bd c3bd 23bf
000003a0: 345b 933e 6a10 75be 5eaf 26bf faf0 c3be
000003b0: 7747 c33e 6e44 863e e7fb 62be 1e41 57be
000003c0: 8b7f a13e b704 3dbe f4dc 38be 1d42 bb3f
000003d0: 2ece 223e 8ebc 48be 1fe4 783d 453f 41bf
000003e0: 880f 9b3e 8803 97be a624 ec3e 096a 3cbf
000003f0: aef4 023f 262d 72bf e4ca 8a3e fa76 42bf

gnn_0.lin_edge.bias f4 [128]
-0.1320832 0.025889285 0.64350677 0.695102 -0.4552787 0.28299335 0.5863463 0.59245753
-0.17465037 0.58263755 -0.09345661 0.43822956 0.45324197 0.13054065 -0.39352292 0.24645686
-0.23257454 0.6983295 0.039222058 0.21298374 -0.53014404 0.08718851 -0.3100496 -0.6140382
-0.31452623 -0.087893374 -0.45498985 -0.117694445 0.6031421 -0.2976195 0.067627706 0.10374009
-0.12651081 -0.10168566 0.505761 0.10040697 0.29859805 0.5817107 0.34764665 -0.620778
-0.4465614 0.39709932 -0.34374654 0.3596725 0.23622008 -0.62627226 0.38965505 -0.60893625
0.6157487 0.5133082 -0.49462014 -0.14509709 0.05442142 0.13925685 -0.54967797 0.64436233
0.048675567 0.6632345 0.47549358 0.48501796 -0.18536873 0.22775452 0.007888119 0.118615106
-0.6776538 0.45922706 0.0049276464 0.54866004 -0.69471866 -0.62318754 -0.5311712 0.40058464
-0.58042324 -0.13323975 -0.32536098 0.10595552 0.03043095 -0.6995551 -0.54293245 -0.39904243
-0.65683866 0.23888052 0.32583454 -0.28771484 0.11800155 -0.2736884 0.46146426 0.23005715
0.68248576 0.5820314 0.08373313 0.03517301 0.31340382 0.5956264 -0.56806105 -0.09015451
-0.03144262 -0.67187107 -0.324924 0.4127605 -0.018184908 0.5404155 0.6095291 0.21097606
-0.7075483 -0.23931614 -0.62037086 0.112175 0.54989594 -0.76052725 -0.20773838 0.19498284
-0.08058604 -0.18785043 -0.52994865 0.5696277 -0.6020662 -0.3749973 -0.6062075 0.2531146
-0.76554805 0.5046663 -0.71844864 0.6255089 -0.43299308 -0.3451974 -0.3055637 0.6012093
00000000: d240 07be c415 d43c dcbc 243f 34f2 313f
00000010: 4a1a e9be 81e4 903e cb1a 163f 4cab 173f
00000020: 8cd7 32be bc27 153f 2e66 bfbd a05f e03e
00000030: 550f e83e 73ac 053e d67b c9be 305f 7c3e
00000040: 0528 6ebe b9c5 323f 4fa7 203d 6918 5a3e
00000050: 85b7 07bf e48f b23d d2be 9ebe 9c31 1dbf
00000060: 9509 a1be 7101 b4bd 6ef4 e8be c909 f1bd
00000070: 8567 1a3f 9561 98be 6580 8a3d af75 d43d
00000080: 0d8c 01be 9240 d0bd 8e79 013f 2ba2 cd3d
00000090: d8e1 983e feea 143f befe b13e 4feb 1ebf
000000a0: b2a3 e4be 9a50 cb3e 8cff afbe fe26 b83e
000000b0: ade3 713e 6153 20bf de80 c73e 3fe3 1bbf
000000c0: b5a1 1d3f 2b68 033f da3e fdbe 5594 14be
000000d0: ffe8 5e3d 5999 0e3e b2b7 0cbf eef4 243f
000000e0: 0860 473d bcc9 293f e573 f33e 4654 f83e
000000f0: 4dd1 3dbe 7b38 693e 2b3d 013c 7aec f23d
00000100: b87a 2dbf cf1f eb3e 1878 a13b fc74 0c3f
00000110: 15d9 31bf 3889 1fbf d6fa 07bf 6e19 cd3e
00000120: 9e96 14bf 0070 08be b795 a6be 35ff d83d
00000130: 544a f93c 0b16 33bf 9ffd 0abf 4a4f ccbe
00000140: 9426 28bf 189d 743e c9d3 a63e 5c4f 93be
00000150: ccaa f13d e320 8cbe 0b45 ec3e 1a94 6b3e
00000160: 63b7 2e3f 0300 153f 467c ab3d 9311 103d
00000170: 7776 a03e f97a 183f 736c 11bf eea2 b8bd
00000180: fac9 00bd beff 2bbf 705c a6be 5855 d33e
00000190: 84f8 94bc ac58 0a3f 190a 1c3f 1c0a 583e
000001a0: e321 35bf 4a0f 75be a0d0 1ebf 02bc e53d
000001b0: fbc5 0c3f eab1 42bf 5fb9 54be 95a9 473e
000001c0: 4b0a a5bd dd5b 40be b7aa 07bf 1fd3 113f
000001d0: 0321 1abf a5ff bfbe 6a30 1bbf 3d98 813e
000001e0: f5fa 43bf d031 013f 40ec 37bf 5a21 203f
000001f0: 45b1 ddbe b7bd b0be d872 9cbe dae8 193f
