models/particle_gnn_19.pth (torch, 820468 bytes, 38 tensors)

encoder.0.weight f4 [128, 9]
0	0x3e104422	0.1408849
1	0xbd932ed0	-0.07186663
2	0xbf336e5d	-0.70090276
3	0x3b5362fe	0.003225505
4	0xbc0c7e5b	-0.008575047
5	0x3c418b9c	0.011813071
6	0x3f145d64	0.57955
7	0x3e86c0dd	0.26319018
8	0x3e6587e1	0.22415115
9	0x3e80a011	0.2512212
10	0xbd503d75	-0.05083986
11	0xbf043b6b	-0.51653165
12	0xbe1c66af	-0.15273546
13	0xbe5d3157	-0.21600853
14	0x3e2952b9	0.16535462
15	0xbe84d134	-0.2594086
16	0xbe858c79	-0.26083735
17	0x3e5a9217	0.21344791
18	0xbe8dedfd	-0.27720633
19	0xbf09d06b	-0.53833646
20	0xbdafdc09	-0.0858689
21	0x3ba2fdad	0.004974088
22	0x3b5572a1	0.0032569545
23	0xbca1e302	-0.019761566
24	0xbdcdde3d	-0.10052154
25	0x3d980d48	0.07424408
26	0xbe5d9385	-0.21638305
27	0xbe75fc5e	-0.24022052
28	0x3e3cac7c	0.18425173
29	0xbeac8569	-0.33695534
30	0xba441c21	-0.0007480998
31	0x3b02fd3f	0.0019987372
32	0xbba57151	-0.0050489088
33	0x3dfe8494	0.12427631
34	0xbe480ca8	-0.19536078
35	0xbc8422b1	-0.016129823
36	0xbe9e438f	-0.30910918
37	0x3de5c674	0.112194926
38	0x3d3c099c	0.0459076
39	0x3882602b	6.216796e-05
40	0x386fd1f7	5.7177585e-05
41	0x3aab3d69	0.0013064566
42	0x3ebe80e0	0.372077
43	0xbe410757	-0.18850456
44	0x3c2cdb5f	0.010550349
45	0xbd8aad4e	-0.067713365
46	0xbdc30663	-0.095227025
47	0x3ed13c55	0.40866342
48	0x3d348053	0.044067692
49	0x3d4a43e1	0.04938114
50	0x3da38eab	0.07986196
51	0xbe259c42	-0.16172889
52	0xbee18e06	-0.44053668
53	0xbe85789b	-0.26068577
54	0x3ecfd1ed	0.40589848
55	0x3de9d180	0.11416912
56	0xbebbc769	-0.36675575
57	0xbd49468c	-0.049139544
58	0x3d1932b7	0.03740188
59	0x3e0d7b5d	0.1381659
60	0x3e8b2a79	0.27180842
61	0x3d4b659f	0.04965746
62	0xbdb95907	-0.09050184
63	0xbea6f803	-0.32611093
64	0x3ed49322	0.41518503
65	0xbdaf1f53	-0.085508965
66	0x3ccf7088	0.025322214
67	0x3dc1c156	0.09460704
68	0x3d69afeb	0.057052534
69	0xbeb144cd	-0.34622803
70	0xbe582488	-0.21107686
71	0x3cf44c14	0.029821433
72	0xbe939740	-0.28826332
73	0xbdd4951b	-0.10380002
74	0x3ef4a3dd	0.47781268
75	0x3d5e856f	0.05432647
76	0xbcd00705	-0.025393972
77	0xbd445736	-0.047934733
78	0x3e20ee69	0.15715946
79	0x3e315665	0.17318113
80	0x3e893646	0.2679922
81	0xbe6b304b	-0.22967641
82	0x3c899b41	0.016797664
83	0x3ec358b8	0.38153625
84	0xb9ea8400	-0.00044730306
85	0x39c95104	0.0003839807
86	0xbaf98a27	-0.0019038365
87	0x3e6184e5	0.22023351
88	0xbe9d905a	-0.30774194
89	0xbcf306db	-0.029666355
90	0x3e20a076	0.15686211
91	0x3f14978c	0.5804374
92	0x3f0b24e9	0.54353195
93	0xbd5ccfdd	-0.05390917
94	0xbe0a908d	-0.13531704
95	0xbe28c6ac	-0.16482037
96	0xbe8dedf6	-0.27720612
97	0x3e876fc9	0.26452473
98	0x3decf6ba	0.11570497
99	0xbe7842c8	-0.24244225
100	0x3e73af1d	0.23797269
101	0xbeef1fd2	-0.46703964
102	0x3be63ec2	0.0070265243
103	0x3d351de3	0.044217955
104	0xbd2b124c	-0.041765496
105	0x3e75a372	0.2398813
106	0xbdbb6245	-0.09149603
107	0x3d8c6f9e	0.06857227
108	0x3d93a520	0.072092295
109	0x3e5db90e	0.21652624
110	0x3ec382d4	0.3818575
111	0xbdb3b200	-0.08774185
112	0xbc7cd8af	-0.015432521
113	0x3d6ca0c3	0.0577705
114	0xbea0ebe6	-0.31429976
115	0xbdf2d85b	-0.11857673
116	0xbecbd02e	-0.39807266
117	0xbe09bf4e	-0.13451883
118	0xbef4111d	-0.47669306
119	0x3e5eb5ab	0.21748988
120	0xbd296781	-0.041358475
121	0xbce70349	-0.028199809
122	0xbbb80bf7	-0.0056166607
123	0x3f0b6018	0.544435
124	0x3e6ebd0f	0.23314308
125	0x3f09fdef	0.53903097
126	0x3e7da4ac	0.24769849
127	0xbc5de502	-0.013543369
128	0xbdc72358	-0.09723538
129	0xbc9978c6	-0.018734347
130	0x3c9a1a57	0.018811388
131	0x3b1c9b43	0.0023896254
132	0x3d179620	0.037008405
133	0xbebd4556	-0.36966962
134	0xbe7f9690	-0.24959779
135	0xbf090e8f	-0.5353784
136	0x3eefbc62	0.46823412
137	0xbe94a9f4	-0.29035914
138	0xbc538e66	-0.012912368
139	0x3b2219da	0.0024734647
140	0xbc6d08f3	-0.014467466
141	0x3e1fd08e	0.15606901
142	0xbe7ae2a0	-0.24500513
143	0xbdca0c31	-0.098656066
144	0xbdc2d791	-0.09513772
145	0x3e075ac7	0.13218223
146	0x3ef6e400	0.48220825
147	0xbb448fa3	-0.002999284
148	0xbae76ae9	-0.0017655763
149	0xbb01d219	-0.0019809066
150	0xbe422219	-0.1895832
151	0x3dd7c36e	0.10535322
152	0xbe02e77e	-0.1278362
153	0xbe424569	-0.1897179
154	0x3e255ce7	0.1614872
155	0xbf23e298	-0.6401763
156	0xbccc8ffd	-0.024971003
157	0x3da1a0b3	0.07891979
158	0xbd7cf790	-0.06175953
159	0xbe69163b	-0.22762387
160	0x3e61f94c	0.22067755
161	0x3d481966	0.048852347
162	0x3e69c1e0	0.22827864
163	0xbe533062	-0.20623925
164	0x3ee14c11	0.44003347
165	0xbc5a9e9c	-0.0133434795
166	0xbd3aa89d	-0.04557096
167	0x3d26a4fd	0.04068469
168	0x3dfedb3c	0.124441594
169	0x3c646970	0.013941154
170	0xbd9849b6	-0.07435934
171	0xbe34b772	-0.17648104
172	0xbeaa654d	-0.3328041
173	0xbed7984f	-0.4210839
174	0x3e293ab4	0.165263
175	0x3e109c80	0.141222
176	0xbda8be8a	-0.082394674
177	0xbe118e16	-0.14214358
178	0x3e3fada3	0.18718581
179	0x3e083e88	0.13305104
180	0x3f3022e0	0.68803215
181	0xbf17d971	-0.59316164
182	0x3eb8bda3	0.3608218
183	0x3c9e3c21	0.019315781
184	0xbbc6a7b4	-0.0060624722
185	0x3cbb93c0	0.022897601
186	0x3e12aa6a	0.1432282
187	0x3e91cae6	0.28475112
188	0x3e6c47a0	0.23074198
189	0xbe0324fa	-0.12807074
190	0x3e13fcbe	0.14451882
191	0x3d30bb7e	0.043147556
192	0x3d1e0259	0.038576458
193	0x3d7c0c31	0.061535064
194	0x3ccb6c8d	0.024832034
195	0xbe40d072	-0.18829516
196	0x3dacec35	0.084434904
197	0xbe672e72	-0.22576311
198	0x3e3e4123	0.18579535
199	0x3eb1e964	0.34748375
200	0x3ece4cb9	0.4029291
201	0xbe11d784	-0.14242369
202	0x3d675509	0.05647758
203	0xbad65d42	-0.0016354697
204	0xbde30e9b	-0.1108677
205	0x3e86af1a	0.26305467
206	0x3db606ae	0.08887993
207	0xbf1b97f8	-0.6077876
208	0xbe3aee49	-0.18254961
209	0x3e0f861a	0.14016
210	0x3b4854d6	0.0030568144
211	0xba1e8b31	-0.0006047963
212	0x3aa5e3fd	0.0012656447
213	0xbe99c07b	-0.30029663
214	0xbe118fa3	-0.1421495
215	0xbdeb6301	-0.11493493
216	0x3d729b78	0.059230298
217	0xbc25e1d1	-0.01012464
218	0xbeb2ccd3	-0.34921893
219	0x3b91448a	0.0044332193
220	0xbbf49bef	-0.007464878
221	0xbb8e03c6	-0.004333946
222	0xbe676225	-0.22596033
223	0xbed13a60	-0.4086485
224	0xbe9410ee	-0.28919166
225	0xbf05a6ea	-0.52207816
226	0xbef3f474	-0.4764744
227	0x3bdee03c	0.006801633
228	0xbd2461ea	-0.04013244
229	0x3dc14e53	0.09438767
230	0xbda3e292	-0.08002199
231	0x3eb3c914	0.35114348
232	0x3e94e826	0.29083365
233	0x3df77849	0.120834894
234	0x3ee3d6e4	0.44499886
235	0xbe2ef173	-0.17084293
236	0x3ea9cbe0	0.33163357
237	0xbc8cce41	-0.017188193
238	0x3d2988ae	0.041390114
239	0x3cbfd57f	0.023417233
240	0x3d594c1c	0.0530511
241	0x3df962fa	0.121770814
242	0x3f002cc8	0.5006833
243	0x3ef7ff1c	0.4843682
244	0x3e9e9be5	0.30978313
245	0xbe3ad541	-0.18245412
246	0x3d2ffed7	0.042967644
247	0x3d37b3c6	0.04484918
248	0xbd979015	-0.07400528
249	0xbe321f3b	-0.17394726
250	0x3db64f74	0.08901873
251	0x3b899925	0.0041991645
252	0x3e2ec306	0.17066583
253	0xbdc7866c	-0.09742436
254	0xbe9e4778	-0.309139
255	0xbd1e1376	-0.03859278

encoder.0.bias f4 [128]
0	0x3f2646e0	0.64951897
1	0xbe025de6	-0.12731132
2	0x3daa95c3	0.08329346
3	0xbe8dd812	-0.2770391
4	0x3e6b1f26	0.22961101
5	0xbdcc17ff	-0.099655144
6	0x3d22e548	0.03976944
7	0x3e3561be	0.17713067
8	0xbdd32efd	-0.10311697
9	0xbd002510	-0.031285346
10	0xbd9f6f8c	-0.07784948
11	0xbe9121f5	-0.2834622
12	0xbdf314e3	-0.11869218
13	0x3ea7f2cd	0.3280243
14	0xbe6ffc52	-0.23436096
15	0xbe6a1587	-0.22859775
16	0x3e20686c	0.15664834
17	0xbe2621e0	-0.1622386
18	0xbd92eddf	-0.071742766
19	0xbe9491e4	-0.29017556
20	0xbe007c08	-0.12547314
21	0xbe2814c3	-0.1641417
22	0x3dfa891d	0.122331835
23	0xbeabbb85	-0.33541504
24	0xbd0aab4c	-0.033854768
25	0x3ec4f67b	0.384693
26	0x3ede06e6	0.43364638
27	0x3e972d73	0.29526863
28	0xbe834d9b	-0.25645146
29	0xbdcc2c81	-0.09969426
30	0x3e998bc2	0.2998944
31	0xbe37b2bf	-0.1793928
32	0xbe4522dd	-0.1925158
33	0xbe880339	-0.2656496
34	0x3e4d72f6	0.20063385
35	0x3d9c6848	0.076370776
36	0x3ee333c6	0.44375437
37	0x3e5ba7b6	0.21450695
38	0xbe9cdb1e	-0.30635923
39	0x3d8c9ac0	0.06865454
40	0xbdf35a51	-0.11882461
41	0xbf0f2d8d	-0.5592888
42	0x3d67b2cb	0.056566995
43	0xbdd3256a	-0.103098705
44	0xbdb5769d	-0.08860514
45	0x3f26d756	0.65172327
46	0x3e06fb6b	0.13181846
47	0xbe6f7f75	-0.23388465
48	0x3c62dced	0.013846618
49	0x3f8b5e67	1.0888184
50	0x3e911027	0.28332636
51	0x3d53338a	0.051562823
52	0x3e438f2d	0.19097586
53	0xbcf016ad	-0.029307688
54	0xbe9225fa	-0.285446
55	0xbd1066b9	-0.035254214
56	0x3e04d0cd	0.12970276
57	0x3e0ceef1	0.13763024
58	0x3e135e7a	0.14391509
59	0x3edf3757	0.43596908
60	0x3e93bea0	0.28856373
61	0xbc62675f	-0.013818591
62	0xbcdb3a7e	-0.02676129
63	0xbe535214	-0.20636779
64	0xbd189b9c	-0.037257776
65	0xbe5d2ba5	-0.2159868
66	0xbd50b5ca	-0.050954618
67	0xbe9d4335	-0.30715337
68	0x3da0c230	0.07849538
69	0x3ec46785	0.3836023
70	0xbe87d0e7	-0.26526567
71	0x3d5fb99c	0.05462037
72	0xbe585669	-0.21126713
73	0xbe5a8eba	-0.21343508
74	0x3e91a635	0.28447118
75	0x3df14945	0.11781553
76	0x3bf87484	0.007582249
77	0xbef27c29	-0.47360352
78	0xbe5fb0e4	-0.21844822
79	0x3f740062	0.95313084
80	0x3dd19b37	0.10234683
81	0x3db878fe	0.090074524
82	0xbec20466	-0.3789398
83	0xbece7910	-0.40326738
84	0xbec05743	-0.37566575
85	0xbe2b8629	-0.16750397
86	0xbe313bab	-0.17307918
87	0x3eb52ad1	0.3538423
88	0x3e4070bc	0.18793005
89	0x3e7e23f7	0.24818407
90	0x3c0dc207	0.008652217
91	0x3c3ab76d	0.011396271
92	0x3f651025	0.8947776
93	0xbea4288a	-0.3206218
94	0x3d9f60d9	0.07782144
95	0x3f181e65	0.5942138
96	0xbe1d0f07	-0.15337764
97	0x3ea945dd	0.33061114
98	0xbe95ab95	-0.2923247
99	0xbed071b2	-0.40711743
100	0xbecba120	-0.39771366
101	0xbea771a1	-0.3270388
102	0x3e5ed0b8	0.21759307
103	0xbe049572	-0.12947634
104	0x3f485901	0.7826081
105	0x3dd2230b	0.1026059
106	0x3e81b21f	0.25331208
107	0x3e87f70a	0.26555663
108	0x3e8a37f2	0.26995808
109	0xbe4f27bc	-0.20230001
110	0xbea149cd	-0.31501618
111	0xbd974af8	-0.07387346
112	0xbeaf1bde	-0.34200948
113	0x3e954ad4	0.29158652
114	0x3edb7cdf	0.42868707
115	0xbea55ce5	-0.32297435
116	0x3d834454	0.06409517
117	0xbeabed4c	-0.3357948
118	0xbeb75e90	-0.35814333
119	0x3f314d07	0.6925816
120	0x3f0be96c	0.5465305
121	0x3ea05a98	0.31319118
122	0x3dc9bb94	0.09850231
123	0x3ce80923	0.02832467
124	0xbe186371	-0.14881684
125	0x3c865f38	0.016402826
126	0x3e5a9c52	0.21348694
127	0x3d45333b	0.04814456

encoder.2.weight f4 [128, 128]
0	0x3dbd8865	0.09254531
1	0x3cad895c	0.021183662
2	0xbd187887	-0.03722432
3	0x3dbca834	0.0921177
4	0xb8ba4b3b	-8.883184e-05
5	0x3d912803	0.0708771
6	0xbdbd029d	-0.09229014
7	0xbd29a3c4	-0.041415945
8	0xbd594224	-0.053041592
9	0x3d06e7c3	0.03293587
10	0xbc9fc8a5	-0.019504854
11	0xbbf91319	-0.0076011536
12	0x3d783888	0.060600787
13	0xbd0ca1dd	-0.034334052
14	0xbd8484c1	-0.06470633
15	0xbc797952	-0.015226679
16	0x3dca946f	0.09891593
17	0xbbab66d3	-0.0052307635
18	0x3be9db0f	0.0071367095
19	0x3ab7bafe	0.001401752
20	0xbd856576	-0.06513493
21	0x3e3441ac	0.17603177
22	0xbd0d78fd	-0.03453921
23	0x3e0fa89c	0.14029163
24	0xbeb857ea	-0.36004573
25	0xbd061e3c	-0.032743677
26	0x3b265b8d	0.0025384158
27	0xbc46cd7d	-0.012133953
28	0xbd4701a2	-0.04858554
29	0x3bed9710	0.007250674
30	0x3aeee1c1	0.0018225239
31	0xbc80ec0a	-0.015737552
32	0x3ce2fb57	0.027707739
33	0xbe335d68	-0.175161
34	0x3c6b3116	0.014354965
35	0x3c559c68	0.013037778
36	0xbb6f0b10	-0.00364751
37	0x3e024005	0.12719734
38	0xbcfa4bf3	-0.030553794
39	0xbd1247b9	-0.03571293
40	0x3e01b3cc	0.12666243
41	0x3d583897	0.052788343
42	0x3c62a3d5	0.013833006
43	0x3dab90c6	0.08377223
44	0xbe36b8c0	-0.17843914
45	0x3c4e7c93	0.012602943
46	0xbdc9f082	-0.09860326
47	0xbddc3a52	-0.10753311
48	0xbe19c9e3	-0.1501842
49	0xbcbbbb27	-0.02291639
50	0xbd7308d8	-0.059334606
51	0x3c7bacf7	0.015361062
52	0xbcd2c1a5	-0.025727103
53	0xbd3fb53d	-0.0468037
54	0x3d69a68a	0.05704359
55	0x3bc2a8ba	0.005940524
56	0x3d34b5da	0.04411874
57	0xbcca5540	-0.024698853
58	0xbb3c3540	-0.0028718263
59	0x3d3c6786	0.045997165
60	0xbc46d1b8	-0.012134962
61	0x3db9243e	0.09040116
62	0x3e593d92	0.21214893
63	0x3db40895	0.087906994
64	0xbd62a1ab	-0.05532996
65	0xbd3864ff	-0.045018192
66	0x3d2fdcf7	0.042935338
67	0x3e1d1317	0.15339313
68	0x3cbdf0d2	0.023186121
69	0xbd4e255a	-0.05032859
70	0x3d0abb8b	0.03387026
71	0x3ddfca50	0.1092726
72	0xbe3865e8	-0.18007624
73	0x3ca36046	0.019943368
74	0xbd82880f	-0.06373607
75	0xbd28a2a7	-0.041170742
76	0x3d9d3e8b	0.07677945
77	0x3de9833b	0.11401983
78	0xbe4e284a	-0.20132557
79	0x3b79b209	0.0038100502
80	0x3d633d98	0.055478662
81	0x3ba9e136	0.005184318
82	0xbe11abb9	-0.14225663
83	0xbcc3068e	-0.023806836
84	0x3d4a793c	0.049432024
85	0xbc4102b9	-0.011780434
86	0x3cb83b84	0.022489317
87	0xbd8d95f4	-0.06913367
88	0x3c841ac2	0.01612604
89	0xbc0f583a	-0.008749062
90	0x3e093a21	0.1340108
91	0xbcab6541	-0.020922305
92	0xbc00fa85	-0.0078722285
93	0x3d39eec1	0.04539371
94	0xbd0d9db8	-0.03457424
95	0xbd1027c2	-0.035194166
96	0xbd8930e8	-0.06698781
97	0x3e29bbff	0.16575621
98	0x3e8e1c68	0.27756047
99	0xbdbe0dcd	-0.09279976
100	0xbd2338f9	-0.039849255
101	0x3c095316	0.008381626
102	0x3d858ac6	0.065206096
103	0xbe54fd2a	-0.207997
104	0xbbac55fb	-0.005259273
105	0x3c86c387	0.016450657
106	0xbdabed57	-0.08394878
107	0x3d1687f6	0.036750756
108	0x3a872aa5	0.0010312392
109	0xbe8af267	-0.27138063
110	0xbc0ed578	-0.008717887
111	0x3e376085	0.17907913
112	0x3df823a9	0.12116177
113	0xbd706346	-0.058688425
114	0xbc06b1a1	-0.008221061
115	0x3d579f51	0.05264217
116	0x3cd5eedd	0.026114875
117	0x3c0a875e	0.008455126
118	0x3e2ec7df	0.17068432
119	0xbc2e076e	-0.010621889
120	0x3d71c2e0	0.059023738
121	0xbd94051d	-0.07227538
122	0x3cd9cc18	0.026586577
123	0x3d7d23c3	0.061801683
124	0x3c99af08	0.01876022
125	0xbc888faf	-0.016670076
126	0x3d8ae4f1	0.06781948
127	0x3c235133	0.00996809
128	0xbd23fb48	-0.040034562
129	0xbd5bb595	-0.053639967
130	0xbd8291cb	-0.06375464
131	0x3cf12d77	0.029440625
132	0x3d899cb2	0.067193404
133	0x3db484a3	0.08814361
134	0xbd7ff5b7	-0.06249019
135	0xbd1aa077	-0.037750687
136	0xbd83e6ec	-0.06440529
137	0xbd7d0562	-0.06177271
138	0x3d6ad283	0.057329666
139	0x3d882d23	0.06649234
140	0xbd305087	-0.043045547
141	0x3dad6782	0.08467008
142	0xbe1c4ce1	-0.15263702
143	0x3ce85610	0.02836135
144	0x3dc26ed9	0.09493799
145	0xbd71a8b5	-0.058998782
146	0xbc4bccff	-0.012439012
147	0x3b66c873	0.0035214692
148	0x3ceb5a89	0.028729694
149	0xbda042c8	-0.078252375
150	0x3cbc72b5	0.023003915
151	0xbe15c71c	-0.14626735
152	0xbdbddaae	-0.092702255
153	0xbcbbf7cc	-0.022945307
154	0x3d8559d0	0.06511271
155	0xbd72d9d3	-0.059289765
156	0xbdbe553c	-0.09293601
157	0xbcf4a2f0	-0.02986285
158	0xbd28d8d6	-0.041222416
159	0x3c6ec9f4	0.014574517
160	0x39d20936	0.00040061184
161	0xbf10e9c5	-0.56606704
162	0x3d8207c8	0.063491404
163	0x3d694564	0.05695094
164	0x3cba4397	0.022737307
165	0xbe1af52a	-0.15132585
166	0xbc5d2e43	-0.013499799
167	0x3d8e6385	0.069525756
168	0xbdaa765c	-0.083233565
169	0xbd014c72	-0.031567045
170	0x3c805129	0.0156637
171	0x3d8fd571	0.070231326
172	0xbe6c082c	-0.23049992
173	0xbd16feaa	-0.03686396
174	0xbdc59094	-0.09646717
175	0x3d78f3e7	0.06077948
176	0x3dbcc44f	0.092171304
177	0xbd648e30	-0.055799663
178	0xbc83362d	-0.016017044
179	0xbd86e0e4	-0.06585863
180	0xbb25b792	-0.0025286418
181	0x3d7ce38b	0.06174044
182	0xbbde508d	-0.0067845047
183	0x3cc88f39	0.024482356
184	0x3d50031e	0.050784223
185	0xbcc168bf	-0.023609517
186	0xbdf47442	-0.11936237
187	0x3c9361d6	0.017990988
188	0x3d03b51e	0.03215515
189	0x3c923a68	0.017850116
190	0xbe31e3d5	-0.17372067
191	0x3d434b38	0.047679156
192	0xbe2cecdb	-0.16887228
193	0xbd8a709f	-0.06759762
194	0xbd4027a4	-0.046912804
195	0xbea8f328	-0.32998013
196	0x3d9cea95	0.076619305
197	0x3d782552	0.060582466
198	0x3c868133	0.016419029
199	0xbe8d27c8	-0.27569413
200	0xbd6c3643	-0.057668936
201	0x3dd591d5	0.10428206
202	0x3d36d728	0.044638783
203	0x3c82ad68	0.015951827
204	0x3cf0bd7f	0.029387234
205	0xbe5996fc	-0.21249002
206	0x3bdbed42	0.006711633
207	0xbc3a87f0	-0.011384949
208	0x3c995edf	0.018721996
209	0x3da6976c	0.0813435
210	0xbcf68aa8	-0.030095413
211	0xbd030ea0	-0.03199637
212	0x3d9e9018	0.077423275
213	0x3c8954ab	0.016764006
214	0xbdab4dd8	-0.08364457
215	0xbb9c6f6e	-0.0047740256
216	0xba46828e	-0.0007572555
217	0xbce069a4	-0.027394123
218	0x3d1fba33	0.038995933
219	0xbdf84f16	-0.121244594
220	0x3d39e9e1	0.04538906
221	0xbd817f87	-0.06323152
222	0xbd58b024	-0.052902356
223	0x3c2fd77c	0.010732528
224	0xbd5f7102	-0.054551132
225	0x3d3a1a1a	0.04543505
226	0xbd8a0ee6	-0.06741123
227	0xbccbffeb	-0.024902305
228	0xbd2addac	-0.04171531
229	0xbdd23751	-0.10264457
230	0x3d484b89	0.04890016
231	0x3d8735e0	0.06602073
232	0xbe0f0ae5	-0.13969
233	0x3d4fdd32	0.050748058
234	0x3d3a180a	0.04543308
235	0xbc477d27	-0.012175835
236	0x3cc56d59	0.024099993
237	0x3db40d76	0.0879163
238	0xbd8d16bb	-0.06889101
239	0xbcc6d220	-0.024270117
240	0xbe58648f	-0.2113211
241	0x3db2341d	0.08701346
242	0xbc1d8dfa	-0.009616369
243	0xbe31f911	-0.17380168
244	0xbc9b9597	-0.018992228
245	0x3de811a9	0.113314934
246	0xbd4aeb9b	-0.049541097
247	0xbd468ec0	-0.04847598
248	0xbc2cb736	-0.010541728
249	0xbd162849	-0.036659513
250	0x3d872e9b	0.06600686
251	0xbddd85ef	-0.108165614
252	0xbd0f8c4c	-0.035045907
253	0xbd804559	-0.06263227
254	0x3e0db5d9	0.138389
255	0x3d994e79	0.074856706

encoder.2.bias f4 [128]
0	0x3d26242b	0.040561836
1	0xbacccfcb	-0.0015625892
2	0x3d37333e	0.044726603
3	0xbd25da6e	-0.040491514
4	0x3d22a6a7	0.039709713
5	0xbdb23a9d	-0.08702586
6	0x3cd1a81e	0.02559286
7	0xbd8a78c2	-0.06761314
8	0xbdb24ba6	-0.08705835
9	0x3d1cea70	0.038309515
10	0x3d5caee5	0.05387773
11	0x3c65e344	0.014031235
12	0xbe136bb8	-0.1439656
13	0x3d09155c	0.033467636
14	0x3e3e01ef	0.18555425
15	0xbd00e599	-0.03146896
16	0xbd7e9a1f	-0.0621587
17	0xbd934c30	-0.07192266
18	0x3c8d3403	0.017236715
19	0xbde3c2fd	-0.111211754
20	0xbd2f7f9a	-0.0428463
21	0xbd3d9fc9	-0.04629496
22	0xbde71450	-0.11283171
23	0xbdcc90d0	-0.09988558
24	0xbd868f2e	-0.06570278
25	0xbd9c0ab8	-0.07619232
26	0x3d80c9cf	0.06288492
27	0xbd9e6d11	-0.077356465
28	0xbb9cb5fe	-0.0047824373
29	0x3ddef3e2	0.10886361
30	0xbd96c7ad	-0.07362304
31	0xbe704f99	-0.23467864
32	0xbd904cfa	-0.07045932
33	0xbd4624e7	-0.048375037
34	0x3ca97352	0.020684872
35	0x3dc7cb21	0.09755541
36	0x3d0c4858	0.03424868
37	0xbcb60e38	-0.022223577
38	0x3db0f723	0.086408876
39	0x3d6f1894	0.05837305
40	0x3e293cdc	0.16527122
41	0xbe207f8a	-0.15673652
42	0xbcbfaab4	-0.023396827
43	0xbaa4eb36	-0.0012582305
44	0xbda9a282	-0.08282949
45	0x3d54c4ab	0.05194537
46	0xbc84fd08	-0.016233936
47	0x3e14db0d	0.14536686
48	0x3c240a6d	0.010012251
49	0x3db90d85	0.09035782
50	0xbdd4039d	-0.10352252
51	0xbcea06b7	-0.028567655
52	0x3d6f6a70	0.058451116
53	0x3df73bff	0.1207199
54	0xbdd311b3	-0.1030611
55	0x3d9eb020	0.07748437
56	0x3d415bb9	0.047206614
57	0xbc3ac964	-0.011400554
58	0xbdc7067d	-0.097180344
59	0xbba50b88	-0.005036775
60	0x3d75b000	0.0599823
61	0xbe013388	-0.12617314
62	0xbde4da59	-0.11174459
63	0x3d860657	0.06544178
64	0x3d9cd6f6	0.07658188
65	0x3d3dedfa	0.04636953
66	0x3dfae48d	0.12250624
67	0xbe0fa2b6	-0.14026913
68	0xbd5601a6	-0.052247666
69	0x3d115618	0.035482496
70	0xbcc4e324	-0.02403409
71	0x3d9675e7	0.07346707
72	0x3d65a1e4	0.056062594
73	0x3de919f0	0.113819
74	0x3dd171f2	0.102268115
75	0xbd205d8f	-0.039151724
76	0x3c2048e1	0.009783001
77	0xbe234aec	-0.15946549
78	0x3e069133	0.13141327
79	0x3df05e29	0.117367096
80	0xbdd42a49	-0.10359628
81	0xbdeb749f	-0.11496853
82	0x3d5aecee	0.05344861
83	0xbe0d7579	-0.13814344
84	0xbd96df23	-0.07366779
85	0x3d83a0e5	0.064271726
86	0x3d80f466	0.06296615
87	0xbdafabcf	-0.08577692
88	0x3cb138f6	0.021633606
89	0x3c985e21	0.018599572
90	0x3d776c5a	0.060406066
91	0x3dc9e4e0	0.098581076
92	0x3d3261ae	0.043550186
93	0xbcce7c03	-0.025205618
94	0x3e485d94	0.19566947
95	0xbd02da43	-0.03194643
96	0xbdd2f112	-0.10299887
97	0xbb80fc65	-0.003936338
98	0xbd6c0b76	-0.057628118
99	0x3d951bbe	0.07280682
100	0xbd132770	-0.035926282
101	0xbd07ea8e	-0.033182673
102	0x3c970aea	0.018437821
103	0x3d698c14	0.057018355
104	0x3ccff5d9	0.025385784
105	0xbc9c1492	-0.019052777
106	0xbbc643f9	-0.0060505834
107	0xbb42712f	-0.0029669513
108	0xbda0e391	-0.07855905
109	0x3c0e5392	0.008686917
110	0x3cec8ebf	0.02887666
111	0x3b766759	0.003759822
112	0x3dce3f8a	0.10070713
113	0x3dcee4ec	0.10102257
114	0xbce0be30	-0.027434438
115	0xbcaa3f21	-0.020782055
116	0xbd2811ad	-0.041032482
117	0x3c4c0e21	0.0124545405
118	0x3db2e514	0.087350994
119	0xbdcc9a6a	-0.0999039
120	0xbb639af1	-0.0034729803
121	0x3d77a858	0.06046328
122	0xbd8cdd57	-0.06878155
123	0xbc2931fc	-0.010326859
124	0xbc15d54a	-0.00914509
125	0x3dda7502	0.10666849
126	0x3d4b5fad	0.04965179
127	0x3d286488	0.0411115

gnn_0.lin_msg.weight f4 [128, 128]
0	0xbd93ed88	-0.0722304
1	0xbde03766	-0.109480664
2	0x3d0b0d6e	0.033948354
3	0xbdd91c5b	-0.106011115
4	0xbddad993	-0.1068603
5	0xbe2c0df1	-0.16802193
6	0x3d1ccae4	0.03827943
7	0x3b037f22	0.002006479
8	0xbcf90d99	-0.030401992
9	0x3b77b736	0.0037798411
10	0x3d5478f5	0.051873166
11	0x3b22a2a8	0.002481619
12	0x3e1524be	0.14564797
13	0xbd9b68e6	-0.07588367
14	0xbde76fbc	-0.113006085
15	0xbd607e62	-0.054808028
16	0xbd984518	-0.074350536
17	0x3d2a7f6e	0.041625433
18	0x3b648f9c	0.0034875637
19	0x3d030b9f	0.031993505
20	0xbae40a01	-0.0017398001
21	0x3d55911a	0.052140333
22	0xbccb50cd	-0.024818802
23	0xbdfaf275	-0.12253276
24	0x3d8cd162	0.06875874
25	0x3bc00b9b	0.0058607585
26	0xbd26d120	-0.04072678
27	0xbc63588c	-0.013876092
28	0x3d2329f0	0.039834917
29	0xbdb19025	-0.086700715
30	0xbe46dffa	-0.19421378
31	0x3d68df50	0.056853592
32	0xbb712a45	-0.0036798876
33	0xbd02bd5a	-0.03191886
34	0xbcab754b	-0.020929953
35	0xbdb877ef	-0.090072505
36	0x3d7054a6	0.058674477
37	0xbda92971	-0.082598574
38	0x3cde2085	0.027115116
39	0xbd6ad67e	-0.057333462
40	0xbd4c6761	-0.049903277
41	0x3d150d0b	0.036389392
42	0xbd9232e6	-0.07138614
43	0x3c3852cd	0.01125021
44	0x3b4da829	0.003138075
45	0x3cc42091	0.02394131
46	0x3d809fc6	0.06280474
47	0xbdb77c1e	-0.0895922
48	0xbdfd9737	-0.123823576
49	0x3e07c67d	0.13259311
50	0xbd541340	-0.05177617
51	0xbdbe0e2d	-0.092800476
52	0x3d1180f0	0.035523355
53	0xbcec1d5f	-0.028822599
54	0xbdcff078	-0.10153288
55	0x3d084c44	0.033275858
56	0xbd44e57c	-0.048070416
57	0xbd3305da	-0.043706752
58	0x3d261376	0.040545903
59	0x3dc8e8ca	0.09810026
60	0xbd6ccea4	-0.057814255
61	0x3d573f80	0.052550793
62	0xbdb78143	-0.089602016
63	0x3dbf0f80	0.09329128
64	0xbdb2b53d	-0.08725975
65	0xbb4afc67	-0.0030973197
66	0x3db3cc9e	0.08779262
67	0x3d2a44b6	0.041569434
68	0xbd6ce0d7	-0.05783161
69	0xbd190c4d	-0.037365247
70	0xbd965d3e	-0.07342003
71	0xbd70ff76	-0.058837377
72	0xbd27b408	-0.040943176
73	0xbd67d167	-0.056596186
74	0x3c3ead11	0.011637942
75	0xbd5cbcf9	-0.053891156
76	0xbe3d453e	-0.18483445
77	0xbdafbcbe	-0.085809216
78	0x3c0e3092	0.008678572
79	0x3d4059b7	0.04696056
80	0xbc27657a	-0.010217065
81	0x3dd22e9a	0.10262795
82	0xbdb2596d	-0.08708463
83	0x3bf305f2	0.00741648
84	0x3d7c39ae	0.061578445
85	0xbcd7ffdf	-0.026367126
86	0x3d04e8d2	0.032448597
87	0xbd9f6a3d	-0.07783935
88	0xbd42e1cb	-0.047578614
89	0x3d34b9bf	0.044122454
90	0x3c9dd6ac	0.019267403
91	0x3d851b11	0.06499303
92	0xbcf7aae5	-0.030232856
93	0xbd2f7808	-0.04283908
94	0xbd9f3d65	-0.07775382
95	0xbd22a50e	-0.03970819
96	0xbcd30a6c	-0.025761805
97	0x3daafa7b	0.083485566
98	0xbd69cb5f	-0.057078715
99	0x3da4cb7c	0.08046624
100	0x3d28fec2	0.04125858
101	0xbc51c2f7	-0.012802831
102	0x3ccb7d05	0.024839887
103	0x3d6c5d40	0.057706118
104	0xbc8ef039	-0.017448531
105	0xbdb178a5	-0.08665589
106	0x3d92a547	0.071604304
107	0x3cb5a0a8	0.022171333
108	0x3d910d4e	0.07082616
109	0xbd639e22	-0.05557073
110	0xbd3bd1ae	-0.045854263
111	0x3e12898d	0.14310284
112	0xbcaafcac	-0.020872436
113	0xbe148bd3	-0.14506464
114	0x3d2ee3c3	0.04269768
115	0x3d1c42ce	0.038149647
116	0x3dba6409	0.091011114
117	0x3d720bd7	0.059093323
118	0x3da3ccb4	0.079980284
119	0xbbe265ab	-0.0069090924
120	0x3cee8a17	0.02911858
121	0xbd2995f1	-0.04140276
122	0x3df56bae	0.11983429
123	0x3cb73c02	0.022367481
124	0x3d0e5b78	0.0347552
125	0xbd4c3ec6	-0.049864553
126	0xbd77fbe9	-0.060542975
127	0x3d8fa590	0.070140004
128	0x3d152947	0.03641632
129	0xbdab1c6b	-0.0835503
130	0x3c3ac089	0.011398443
131	0xbc529ab4	-0.012854267
132	0xbd870f31	-0.065946944
133	0xbaf71a41	-0.0018852429
134	0x3ddb3324	0.10703114
135	0x3ba9aa07	0.0051777395
136	0x3d543c10	0.051815093
137	0xbb6c62a8	-0.0036069546
138	0x3dafc0d4	0.08581701
139	0x3daa2561	0.08307911
140	0xbc9a8e88	-0.018866792
141	0xba95b24c	-0.0011420934
142	0xbcfab44a	-0.030603547
143	0xbcf4add2	-0.02986804
144	0xbd85ef52	-0.06539787
145	0xbd5c5e01	-0.053800587
146	0xbdef81f0	-0.116947055
147	0xbbd2db46	-0.006434831
148	0xbda480fd	-0.08032415
149	0x3d232532	0.039830394
150	0xbd61e518	-0.05515012
151	0xbd8b074f	-0.067885034
152	0x3d213b15	0.039362986
153	0x3d6d33de	0.057910793
154	0xbd15a348	-0.03653267
155	0xbde0b7c5	-0.10972551
156	0xbccbe80c	-0.024890922
157	0x3dd9d71c	0.10636732
158	0xbdcd9cc6	-0.10039668
159	0xbc1339a8	-0.008985914
160	0xbd49e636	-0.049291812
161	0xbd899070	-0.067170024
162	0xbda2513a	-0.07925649
163	0xbda543f1	-0.080695994
164	0xbd8ff68f	-0.07029449
165	0x3d715a76	0.05892416
166	0xbd4edb15	-0.0505019
167	0xbdd0a40b	-0.10187539
168	0x3d531413	0.051532816
169	0x3cbc3eaf	0.022979109
170	0x3d1e2cfc	0.03861712
171	0x3d48676a	0.04892675
172	0xbce52b45	-0.027974734
173	0xbc7790cb	-0.015110205
174	0xbd54b4e1	-0.051930312
175	0x3d5d3166	0.05400219
176	0xbe01f70b	-0.12691896
177	0x3d54cb11	0.05195147
178	0xbd0058a4	-0.031334534
179	0x3d76b31c	0.060229406
180	0xbb49d13d	-0.0030794882
181	0xbceed7a9	-0.02915557
182	0xbd015405	-0.031574268
183	0x3df06eae	0.117398605
184	0xbcb4e8f2	-0.022083733
185	0xbd3ddc97	-0.04635295
186	0xbca643ce	-0.020296004
187	0x3d57924c	0.052629754
188	0xbda190c8	-0.07888943
189	0xbd85f062	-0.0653999
190	0xbd1abf16	-0.03777989
191	0x3dd41ef9	0.1035747
192	0xbc32f58b	-0.0109228
193	0xbc8b22ee	-0.01698443
194	0xbdbffc5c	-0.093743056
195	0x3d531afa	0.0515394
196	0xb85a57b9	-5.205695e-05
197	0x3c56f8e6	0.013120865
198	0x3d339ef3	0.043852758
199	0xbddd1ad6	-0.10796134
200	0x3ccd5436	0.025064569
201	0xb9c5fdac	-0.00037763768
202	0x3d518764	0.05115451
203	0xbd2035e4	-0.039113894
204	0x3d4e7b6b	0.05041067
205	0xbd6ee30f	-0.05832201
206	0x3d69b6da	0.057059146
207	0x3c8d5de6	0.017256688
208	0xbd4a6321	-0.049410943
209	0xbbf54f12	-0.0074862326
210	0x3d108a3d	0.035288084
211	0x3d28296d	0.04105513
212	0x3d8ee9ed	0.069782116
213	0xbdc218ef	-0.09477412
214	0x3b691833	0.0035567402
215	0xbc208546	-0.0097974
216	0x3c34399d	0.011000064
217	0xbd2c5893	-0.04207666
218	0xbd2120e0	-0.039337993
219	0xbaf4bb68	-0.0018671574
220	0x3da940e0	0.08264327
221	0xbccaf146	-0.024773251
222	0xbb2abbd0	-0.0026051886
223	0x3c9445a0	0.018099606
224	0x3c2c3a9c	0.01051202
225	0xbca1e08e	-0.019760396
226	0xbd9b3b4e	-0.07579671
227	0x3d736135	0.059418876
228	0x3c7f03ff	0.015564918
229	0x3d44ed60	0.04807794
230	0xbda37ebb	-0.07983156
231	0x3d7bf335	0.061511237
232	0x3dca7188	0.098849356
233	0x3a57e4fb	0.000823572
234	0x3d7ae77c	0.061255917
235	0x3da085d3	0.07838025
236	0xbd305258	-0.04304728
237	0x3ddb203c	0.106995076
238	0xbd5387f4	-0.051643327
239	0xbdc2da45	-0.09514288
240	0x3dd7c0f0	0.10534847
241	0x3d26079f	0.04053461
242	0xbd1feb68	-0.03904286
243	0x3d907e83	0.0705538
244	0xbd2bb654	-0.04192193
245	0xbcc8fd3c	-0.024534814
246	0xbbfe1818	-0.007754337
247	0xbd982b70	-0.0743016
248	0xbced2e4a	-0.028952736
249	0x3cc6b8c6	0.024258029
250	0x3d23a43a	0.03995154
251	0xbd0d893a	-0.034554698
252	0x3d970cb9	0.073754735
253	0xbbca7bad	-0.006179294
254	0xbda8b235	-0.08237115
255	0x3d542e79	0.051802132

gnn_0.lin_msg.bias f4 [128]
0	0xbdc4ce93	-0.096097134
1	0xbafa5447	-0.0019098603
2	0xbd32b721	-0.043631677
3	0xb7ef2c7c	-2.8511735e-05
4	0xbdbc7a04	-0.0920296
5	0xbd9c8483	-0.07642462
6	0xbd8c7e7e	-0.06860064
7	0xbcdbabc8	-0.02681531
8	0x3c34fff1	0.011047349
9	0xbdb1808b	-0.08667096
10	0xbdba5b59	-0.090994544
11	0xbe2fa7ed	-0.17153902
12	0x3c439e0d	0.011939538
13	0x3da71485	0.08158211
14	0xbd139894	-0.03603418
15	0xbe68df80	-0.22741508
16	0xbd771bd4	-0.060329273
17	0x3d7af510	0.061268866
18	0xbc40f9b5	-0.011778285
19	0xbd9a1752	-0.07523979
20	0x3cc206ae	0.023684826
21	0xbcdabebc	-0.026702277
22	0xbdc481f6	-0.095951006
23	0xbda69ed3	-0.08135762
24	0xbdea2803	-0.11433413
25	0xbd75b4ee	-0.059987
26	0xbe14e64c	-0.14540976
27	0xbd8c2758	-0.06843442
28	0x3c92eb10	0.017934352
29	0xb772b231	-1.44658125e-05
30	0xbcdaabff	-0.026693342
31	0xbdf85850	-0.12126219
32	0xbd32b03a	-0.043625094
33	0xbe012605	-0.1261216
34	0xbc37d752	-0.01122077
35	0x3cf1aee5	0.029502342
36	0x3d8eef23	0.069792055
37	0xbe5ab4d6	-0.21358046
38	0x3dcf7920	0.10130525
39	0xbcb32499	-0.021868037
40	0xbd9b0c39	-0.07570691
41	0xbcdf5b87	-0.027265323
42	0x3bba79fd	0.0056908117
43	0xbdba7766	-0.09104805
44	0xbc297e2a	-0.010345021
45	0xbbd17a86	-0.0063927798
46	0xbe5865ed	-0.21132632
47	0xbd40a86c	-0.04703562
48	0xbdff9db6	-0.12481253
49	0x3d2866df	0.04111373
50	0xbdc3d702	-0.09562494
51	0xbdce7fd1	-0.10082973
52	0xbdaa80dd	-0.0832536
53	0x3d88247d	0.066475846
54	0xbcb0c855	-0.0215799
55	0xbd51ecec	-0.051251337
56	0xbe322c50	-0.17399716
57	0x3c9af8e0	0.018917501
58	0xbe15a1e7	-0.14612542
59	0xbd15fb19	-0.03661642
60	0xbd3a0e03	-0.04542352
61	0xbe05699e	-0.13028571
62	0xbdb88972	-0.090105906
63	0xbd8e1c67	-0.06939011
64	0xbd747a4c	-0.059686944
65	0xbd338e05	-0.043836612
66	0xbd3d5531	-0.046223823
67	0x3d0a0b91	0.033702437
68	0xbdca8675	-0.09888927
69	0x3d06116e	0.032731466
70	0xbdabf334	-0.08395997
71	0xbca2770d	-0.019832158
72	0xbd715b6d	-0.05892508
73	0xbddd5396	-0.108069584
74	0xbcbde1dc	-0.023178987
75	0xbd947e24	-0.07250622
76	0xbc762057	-0.015022359
77	0xbe13cacc	-0.1443283
78	0xbda94910	-0.08265889
79	0x3ad7a1ad	0.0016451381
80	0xbd8d5156	-0.06900279
81	0xbe1e4e22	-0.15459493
82	0xbd75b02a	-0.059982456
83	0xbe57d884	-0.21078688
84	0xbdce0a38	-0.10060543
85	0x3c68acb3	0.014201331
86	0xbdcd5265	-0.10025481
87	0x3d335f5b	0.04379211
88	0x3caeab37	0.021321876
89	0xbdbf028b	-0.09326657
90	0xbe185a92	-0.148783
91	0xbd2b38de	-0.04180228
92	0xbd146d55	-0.03623708
93	0xbd2d485e	-0.042305343
94	0xbdc90765	-0.098158635
95	0x3db2b459	0.08725805
96	0x3bc29b3d	0.005938916
97	0xbc081cda	-0.00830766
98	0xbe0243ec	-0.12721223
99	0x3d2014d1	0.039082352
100	0xbda1099c	-0.07863161
101	0x3cc1e2e3	0.023667758
102	0xbd8ce4f8	-0.0687961
103	0xbe24bf65	-0.16088636
104	0xbdab6f21	-0.083708055
105	0xbbed8c7f	-0.0072494145
106	0xbdabc431	-0.0838703
107	0x3bae2209	0.005314116
108	0xbe41e417	-0.18934666
109	0xbdf56504	-0.11982158
110	0xbac60117	-0.0015106526
111	0xbc684d8a	-0.014178643
112	0xbd065a79	-0.032801125
113	0x3c666de9	0.014064291
114	0xbe19583f	-0.1497507
115	0xbe399ec0	-0.18126965
116	0xbd8af092	-0.067841664
117	0xbce3cba0	-0.027807057
118	0xbdda7c5b	-0.1066825
119	0xbe4b2252	-0.19837311
120	0xbae04ad6	-0.0017112147
121	0xbcf64f2f	-0.030067055
122	0xbdc5f3f1	-0.09665669
123	0xbd42c18f	-0.047547873
124	0x3d0a28cb	0.03373031
125	0x3b013ab2	0.0019718823
126	0xbdc8e382	-0.09809019
127	0xbe71ac48	-0.23600876

gnn_0.lin_msg_i.weight f4 [128, 128]
0	0xbd3e6b00	-0.046488762
1	0xbddda720	-0.10822892
2	0x3b37af72	0.0028028158
3	0xbcd03ed1	-0.025420578
4	0x3c83180a	0.016002674
5	0x3c73ac88	0.014872678
6	0xbd5c034c	-0.05371408
7	0xbda0195c	-0.07817337
8	0xbd17b54a	-0.037038125
9	0xbc98b528	-0.01864107
10	0x3d36d15d	0.044633258
11	0x3d2a8f32	0.041640468
12	0xbba3f0d4	-0.005003074
13	0xbdafd14f	-0.08584844
14	0x3d1f4447	0.038883474
15	0x3c5c4330	0.013443753
16	0xbd259736	-0.04042741
17	0x3aaedf98	0.0013341783
18	0xbd967a65	-0.07347564
19	0x3b70f7d9	0.0036768822
20	0xbd6e3603	-0.05815698
21	0x3d26e08a	0.04074148
22	0x3d1d5822	0.038414128
23	0x3d13a784	0.036048427
24	0xbd832fb5	-0.06405584
25	0xbca1a5e7	-0.019732429
26	0xbb84412f	-0.004036091
27	0x3d448a19	0.047983263
28	0x3b99f5df	0.0046984996
29	0x3dc3f4e1	0.09568191
30	0xbd97e4d4	-0.074166924
31	0x3cf5a8fc	0.029987805
32	0xbc5e2656	-0.013558945
33	0x3accfe72	0.0015639795
34	0xbd9850c8	-0.07437283
35	0x3c4651f5	0.012104501
36	0xbd0ba584	-0.034093395
37	0x3c153983	0.00910795
38	0x3da40733	0.08009186
39	0xbd7c0806	-0.06153109
40	0x3ad7e884	0.0016472493
41	0xbe06c282	-0.13160136
42	0x3c592dc7	0.013255543
43	0x3c8de282	0.017319921
44	0xbcfc2fc3	-0.030784493
45	0x3cf5d769	0.030009942
46	0x3d0a98e6	0.03383722
47	0x3d193804	0.037406936
48	0xbd96fa07	-0.07371908
49	0xba88b53c	-0.0010429989
50	0x3ca55f81	0.020187141
51	0xbce810e4	-0.028328367
52	0xbba8ec35	-0.005155111
53	0x3caab2e3	0.020837253
54	0xbda7ccc1	-0.081933506
55	0x3dfb629c	0.122746676
56	0x3e1ece83	0.15508465
57	0xbd2e8e07	-0.042615917
58	0x3e35c296	0.1775001
59	0xbcc31c90	-0.02381733
60	0xbd8b8ffd	-0.06814573
61	0x3c2ff1cd	0.010738802
62	0xbd622d7a	-0.05521915
63	0x3d0601ac	0.03271644
64	0xbdc16806	-0.09443669
65	0xbd912278	-0.070866525
66	0xbd092094	-0.033478335
67	0x3c8c89c0	0.017155528
68	0xbe346c62	-0.1761947
69	0xbc00c4be	-0.007859407
70	0xbd98b3af	-0.07456147
71	0xbe14432a	-0.14478746
72	0xbdbfdc3c	-0.09368178
73	0x3df6552f	0.12027966
74	0x3c9a63c6	0.018846404
75	0xbdfda679	-0.12385268
76	0xbd351ea2	-0.044218667
77	0xbd096016	-0.0335389
78	0xbd305d73	-0.04305787
79	0xbdb74dce	-0.08950387
80	0x3d3d6f2c	0.0462486
81	0x3d082d09	0.033246074
82	0xbb9f0930	-0.00485339
83	0xbc6b3539	-0.014355951
84	0xbd0e79e5	-0.034784216
85	0x3ca5973e	0.02021372
86	0x3d29b2f3	0.041430425
87	0x3d7f4cf3	0.062329244
88	0xbc186df7	-0.009303561
89	0x3dbd60b2	0.09246959
90	0xbc680a60	-0.01416263
91	0x3dc61af8	0.09673113
92	0xbd062711	-0.0327521
93	0xbd987b09	-0.07445342
94	0x3ddf2f5b	0.10897704
95	0x3c53c10d	0.012924445
96	0xbd8b742c	-0.068092674
97	0xbc9072be	-0.017632838
98	0x3db58245	0.088627376
99	0xbcdb06df	-0.026736675
100	0x3de3aa17	0.111164264
101	0xbbd6df2d	-0.0065573663
102	0x3d680afe	0.056651108
103	0xbddb0006	-0.10693364
104	0x3e1ddf6b	0.15417258
105	0xbda342e9	-0.079717465
106	0x3d239609	0.039938007
107	0xbce5d162	-0.028053943
108	0x3e0e1433	0.13874893
109	0x3d51aee8	0.051192194
110	0xbd665989	-0.05623773
111	0xbca84a31	-0.02054319
112	0x3d6015b0	0.054708183
113	0xbdb4fed7	-0.08837669
114	0xbd00cc9a	-0.031445123
115	0x3dd15f61	0.1022327
116	0xbd9b50c2	-0.07583763
117	0x3da3985b	0.07988044
118	0x3db48baf	0.08815705
119	0xbc08594d	-0.008322072
120	0x3c03c397	0.008042238
121	0x3e0e9191	0.13922717
122	0x3d24d8dc	0.040245876
123	0x3c97653b	0.018480888
124	0xbcc981e1	-0.024598064
125	0x3d1325a5	0.035924572
126	0xbd2c6a73	-0.042093705
127	0xbd88c166	-0.06677513
128	0x3d6b1762	0.057395346
129	0xbd8d38f3	-0.06895628
130	0x3d6f8c43	0.058483373
131	0x3d909dd7	0.070613556
132	0x3d65297f	0.055947777
133	0x3b6216a3	0.0034498356
134	0x3d1a67a6	0.037696503
135	0xbb9a94e6	-0.004717457
136	0xbcda3da6	-0.026640724
137	0xbbffab98	-0.007802438
138	0x3b518b17	0.0031973773
139	0xbce7b6b1	-0.028285356
140	0x3dcab9fb	0.09898754
141	0x3bf2aa13	0.0074055283
142	0xbc1697bc	-0.00919145
143	0xbd5db7f4	-0.05413051
144	0xbcd82e8d	-0.026389385
145	0x3ce92753	0.028461134
146	0xbd4de8d4	-0.05027087
147	0xbca72ebc	-0.020408027
148	0xbdcc2c80	-0.09969425
149	0x3cb3f9f7	0.021969778
150	0xbc78b139	-0.015178972
151	0xbdd4ceee	-0.10391031
152	0x3dd53419	0.104103275
153	0x3d2d5bfe	0.04232406
154	0x3cf02175	0.029312829
155	0xbc53d5bf	-0.012929379
156	0xbc7869ef	-0.015161975
157	0x3a83ecb6	0.0010065052
158	0xbc8864cd	-0.016649628
159	0x3d10e846	0.035377763
160	0xbb8e35dc	-0.0043399166
161	0x3cfa3906	0.030544769
162	0xbd7171c8	-0.0589464
163	0xbc825840	-0.015911222
164	0xbd65b91b	-0.056084733
165	0xbc92b5da	-0.01790898
166	0xbd83c8b9	-0.06434769
167	0xbd67983c	-0.056541666
168	0xbd813b6c	-0.06310162
169	0xbd9f2c51	-0.077721246
170	0xbdc6f1a0	-0.09714055
171	0xbcc13da5	-0.023588965
172	0x3d34010b	0.043946307
173	0xbdae1766	-0.08500557
174	0x3b7e7522	0.003882714
175	0xbd9a8747	-0.07545333
176	0xbe02727b	-0.12738983
177	0x3c8d4d35	0.01724873
178	0xbc855472	-0.016275618
179	0xbc062e64	-0.008189771
180	0x3cfa770d	0.030574346
181	0x3d3f1776	0.046653233
182	0x3d957857	0.07298344
183	0x3c42bd98	0.011886023
184	0x3c9fac88	0.019491449
185	0x3d00cff5	0.031448323
186	0x3d2d4406	0.0423012
187	0xbd3ceacb	-0.046122354
188	0xbdb3cdaa	-0.08779462
189	0x3c464c30	0.012103125
190	0xbd36be5b	-0.04461513
191	0x3d4d8750	0.050177872
192	0x3dbb0cd4	0.09133306
193	0xbc611d12	-0.013739841
194	0x3d19bd7b	0.03753422
195	0xbd17a6c0	-0.03702426
196	0x3b2726d4	0.002550532
197	0xbde51730	-0.11186063
198	0xbc8a46ee	-0.016879525
199	0x3d371ad5	0.044703323
200	0xbda79c23	-0.081840776
201	0x3d82e35b	0.06391021
202	0xbcf333a2	-0.029687706
203	0x3d430dcd	0.047620583
204	0x3d58910e	0.05287271
205	0xbdb35081	-0.08755589
206	0x3c340c13	0.010989207
207	0x3d3d777e	0.046256535
208	0x3cb029d9	0.02150433
209	0x3bbbb28c	0.0057280716
210	0x3c8e7424	0.017389365
211	0x3c2a69e2	0.010401221
212	0x3d2b2f4f	0.041793164
213	0x3d09f2fb	0.03367899
214	0x3d40b91f	0.047051545
215	0x3d1e5e22	0.03866399
216	0x3d378ed2	0.04481394
217	0xbd4b1738	-0.04958269
218	0x3be9607a	0.0071220966
219	0x3d8a1270	0.06741798
220	0x3c1c6b9c	0.00954714
221	0xbcb95d1a	-0.022627402
222	0x3c84ed7e	0.016226526
223	0x3d27b709	0.04094604
224	0x3db3c40e	0.08777629
225	0xbda5d13c	-0.08096549
226	0xbd5b01c1	-0.05346847
227	0xbc2b4543	-0.010453525
228	0xbd2af530	-0.041737735
229	0x3d2a22ac	0.041536972
230	0xbc6c5538	-0.014424615
231	0x3c357187	0.01107443
232	0x3c8d172b	0.017222961
233	0x3ce4fedf	0.027953563
234	0x3d5e0b17	0.054209795
235	0xbb8ed24b	-0.004358565
236	0x3dca7080	0.09884739
237	0x3c0af02c	0.008480113
238	0xbc2739d1	-0.010206656
239	0xbd17db76	-0.03707453
240	0x3c86029d	0.016358668
241	0x3ba8de2c	0.005153438
242	0xbca08526	-0.01959474
243	0xbdd60cf2	-0.10451688
244	0x3cf5f722	0.030025069
245	0x3d12d23d	0.03584503
246	0xbd9c5bb7	-0.07634681
247	0x3d981825	0.0742648
248	0xbd9f7df3	-0.07787695
249	0xbd5ddda5	-0.054166455
250	0xbb70b4a7	-0.003672877
251	0x3dc5440e	0.09632121
252	0x3e112976	0.14175972
253	0xbdde84ea	-0.10865195
254	0x3d13c761	0.036078814
255	0x3d9acf5e	0.075590834

gnn_0.lin_msg_i.bias f4 [128]
0	0x3b57a237	0.0032903084
1	0xbdd36263	-0.103215
2	0xbda6e142	-0.08148433
3	0x3c2816b8	0.010259323
4	0xbc875a95	-0.016522685
5	0xbd8cd866	-0.06877212
6	0xbdc7b636	-0.09751551
7	0xbe0849f9	-0.13309468
8	0x3d8517ce	0.06498681
9	0x3d0e22c3	0.03470112
10	0xbcc8b539	-0.024500476
11	0xbe24895e	-0.16068026
12	0x3ba3db85	0.005000534
13	0x3d2acc7f	0.04169893
14	0xbd830e52	-0.06399216
15	0xbe30026e	-0.17188427
16	0xbdfb0aad	-0.122578956
17	0xbd772df9	-0.060346577
18	0xbd7bd609	-0.061483417
19	0xbe59f5ac	-0.21285123
20	0x3cc6698a	0.024220247
21	0x3d8352e4	0.064122945
22	0xbd2261b6	-0.039643966
23	0xbe05ffe9	-0.13085903
24	0xbd8b5877	-0.06803983
25	0xbd238cf3	-0.03992934
26	0xbdd55de2	-0.10418297
27	0xbc3fa392	-0.011696713
28	0xbb965ef5	-0.0045889565
29	0xbd40c107	-0.047059085
30	0xbc58a445	-0.013222759
31	0xbe44c4a3	-0.19215636
32	0xbe449bd1	-0.19200064
33	0xbe2552ff	-0.16144942
34	0xbdc52658	-0.09626454
35	0xbd328003	-0.043579113
36	0xbd380bad	-0.04493301
37	0xbe078ca3	-0.13237242
38	0xbd2bdad5	-0.04195674
39	0x3d034dbd	0.03205656
40	0x3cd894d8	0.026438162
41	0x3dd0b6ac	0.10191092
42	0xbb8148dc	-0.003945453
43	0xbe19f951	-0.15036513
44	0xbe29d07a	-0.16583434
45	0x3c72d978	0.014822356
46	0xbe5fa0f9	-0.2183875
47	0xbcdd32e5	-0.027001807
48	0xbd96fd2a	-0.07372506
49	0x3d86a126	0.065737054
50	0xbdc759b6	-0.09733908
51	0xbe134c9d	-0.14384694
52	0xbdd348ff	-0.10316657
53	0x3d23990a	0.03994087
54	0x3d90836e	0.07056318
55	0xbe04a776	-0.12954506
56	0xbdca0742	-0.098646656
57	0xbcbf4751	-0.023349436
58	0xbd9ddb09	-0.07707793
59	0xbd9ef5fb	-0.07761761
60	0x3dd71dcd	0.10503731
61	0xbe068e05	-0.13140114
62	0xbe175966	-0.14780197
63	0xbca4fc01	-0.020139696
64	0xbdb92c38	-0.09041637
65	0xbdd732a0	-0.10507703
66	0x3da0f19a	0.07858582
67	0x3da05039	0.07827801
68	0xbdffda5e	-0.12492822
69	0xbdd69356	-0.10477321
70	0xbd5c7fe3	-0.0538329
71	0xbd67d13f	-0.056596037
72	0x3cf06a68	0.029347613
73	0xbd5388aa	-0.051644005
74	0xbc969541	-0.018381717
75	0xbdabb599	-0.083842464
76	0xba6f67ee	-0.0009132613
77	0xbe1c57a9	-0.15267815
78	0xbe14631b	-0.1449093
79	0x3d5b7dc2	0.05358673
80	0xbd70fa6d	-0.058832575
81	0xbddd8f30	-0.108183265
82	0x3d3775b0	0.04478997
83	0xbe2423fd	-0.16029353
84	0xbd57a962	-0.05265177
85	0xbd64cc37	-0.055858817
86	0x3b04b57f	0.0020249782
87	0xbb326731	-0.0027222151
88	0x3cdc8fa5	0.026923964
89	0xbdd7923b	-0.10525938
90	0xbdc3742d	-0.09543643
91	0xbd1239cf	-0.03569966
92	0x3dd36d3e	0.10323571
93	0x3d4c207f	0.04983568
94	0xbe006013	-0.1253665
95	0x3b844488	0.00403649
96	0x3d8576d8	0.06516808
97	0xbd8f0699	-0.0698368
98	0xbe1f771c	-0.1557278
99	0x3c824b28	0.015904978
100	0x3c91e6ef	0.017810313
101	0xbd77bdd9	-0.060483787
102	0xbe2ffc32	-0.17186049
103	0xbdd10b94	-0.102072865
104	0x3c809575	0.015696267
105	0x3d679964	0.05654277
106	0x3cdf3302	0.027246002
107	0x3d523ea4	0.05132927
108	0xbd15abf0	-0.036540926
109	0xbc8e9e38	-0.017409429
110	0x3d201b98	0.039088815
111	0x3dbf5c2f	0.093437545
112	0xbda08c3e	-0.07839249
113	0xbcfba748	-0.030719414
114	0xbe1d229b	-0.15345232
115	0xbd4da900	-0.05021
116	0xbbb9f948	-0.0056754686
117	0x3cf24147	0.029572142
118	0xbb640daf	-0.0034798195
119	0xbe1aca08	-0.15116131
120	0xbe32156b	-0.17390983
121	0x3d171f38	0.036895007
122	0xbdcffaaf	-0.10155236
123	0x3d47cbd8	0.048778385
124	0xbcaebf3c	-0.021331422
125	0x3db5bc1d	0.088737704
126	0xbe0e2977	-0.13883005
127	0xbe2af387	-0.16694461

gnn_0.lin_edge.weight f4 [128, 2]
0	0x3e04fa60	0.12986135
1	0xbeffdf0e	-0.49974865
2	0xbde7f87d	-0.11326692
3	0xbf1b9c3d	-0.60785276
4	0xbf1af66a	-0.6053225
5	0x3fb1b3ce	1.3882997
6	0x3f040a85	0.5157855
7	0xbf1c19cb	-0.60976857
8	0x3e5e835c	0.21729797
9	0xbe771996	-0.24130854
10	0xbf08eeae	-0.53489196
11	0xbf09bcd5	-0.5380376
12	0x3e663aaf	0.22483324
13	0xbd9dd6d5	-0.077069916
14	0xbeb77708	-0.35833
15	0xbf6ff265	-0.9372924
16	0x3f136b2b	0.575854
17	0x3fa0a733	1.2551025
18	0xbf879999	-1.0593749
19	0x3f099c3b	0.53754014
20	0x3c20715c	0.009792652
21	0x3e4c1565	0.19930036
22	0xbe319b24	-0.17344338
23	0xbce8e624	-0.028430052
24	0xbdf9c202	-0.12195207
25	0x3f27e488	0.65583086
26	0xbe881e79	-0.2658575
27	0x3f2f7d11	0.6855021
28	0x3f01d425	0.5071433
29	0x3f239b6d	0.63909036
30	0xbf3e7224	-0.74392915
31	0xbe505e52	-0.2034848
32	0x3e269446	0.162675
33	0x3ef8fa9e	0.48628706
34	0x3f211d60	0.6293545
35	0xbf4ef099	-0.8083587
36	0x3e75d070	0.24005294
37	0x3f1209d7	0.57046264
38	0x3ed323a1	0.4123812
39	0x3e8cf2bf	0.2752895
40	0xbf1afbea	-0.6054064
41	0xbdb145d3	-0.08655896
42	0x3ecccd04	0.40000165
43	0x3f659a4f	0.8968858
44	0x3ea2df85	0.31811157
45	0xbf41ac4a	-0.7565352
46	0x3f1eb8f1	0.6200095
47	0x3ce5929c	0.02802401
48	0x3d8e8806	0.06959538
49	0xbe8523e8	-0.26003957
50	0xbedba215	-0.42897096
51	0x3fd42c80	1.657608
52	0x3eb0f94c	0.34565198
53	0xbdfcb8c4	-0.12339929
54	0xbec7c0d1	-0.39014295
55	0xbf3dc3cd	-0.74126893
56	0x3da82749	0.08210618
57	0xbf630f99	-0.88695675
58	0x3f0712ed	0.52763253
59	0x3f064c90	0.52460575
60	0x3e020b82	0.12699702
61	0xbf5663f4	-0.83746266
62	0x3d92c27c	0.07166001
63	0xbdde6458	-0.10858983
64	0x3f137d62	0.57613194
65	0xbf3e33eb	-0.7429797
66	0x3e5da74d	0.21645851
67	0x3ec55c52	0.38546997
68	0x3f243f5c	0.6415918
69	0x3f0eb435	0.55743724
70	0xbe9de8a9	-0.30841568
71	0x3f3080ef	0.6894674
72	0xbefe4e74	-0.4966923
73	0x3f6469b6	0.892238
74	0xbec615c5	-0.38688484
75	0xbf5cdcd7	-0.86274475
76	0x3e95ae62	0.29234606
77	0xbefa43eb	-0.48879942
78	0x3e839b49	0.2570441
79	0x3fc9a50e	1.5753496
80	0xbe434bb5	-0.19071849
81	0xbf4027c1	-0.7506066
82	0x3f1a3bb7	0.6024737
83	0xbf554762	-0.83312047
84	0xbe420b0f	-0.18949531
85	0x3fb3de3e	1.4052198
86	0xbd422fac	-0.047408745
87	0x3f019825	0.5062278
88	0xbe99e256	-0.30055493
89	0x3e8aba0a	0.27095062
90	0xbe95fac4	-0.2929288
91	0x3f8badc4	1.0912404
92	0x3eec0a24	0.46101487
93	0x3cb4a135	0.022049526
94	0xbe6cf7b2	-0.23141363
95	0x3f8470a1	1.0346872
96	0xbebdd8bc	-0.37079418
97	0xbf75e03e	-0.9604529
98	0x3effc0c1	0.49951747
99	0xbf3f3e04	-0.74704003
100	0x3e2c602b	0.1683356
101	0xbf2958ca	-0.66151106
102	0x3f0551d4	0.52077985
103	0xbf27a8b9	-0.65491825
104	0xbf1460b5	-0.57960063
105	0x3d7eb234	0.062181666
106	0x3da3c8af	0.07997262
107	0x3dbfecf8	0.0937137
108	0x3f1a50fb	0.60279816
109	0x3f4650ab	0.7746684
110	0x3ee5d38f	0.4488797
111	0x3ee8b2cf	0.4544892
112	0xbf26647a	-0.64997065
113	0xbf44dbbe	-0.768978
114	0xbf0f3f81	-0.55956274
115	0xbf8a8479	-1.0821677
116	0xbf0aecbb	-0.5426747
117	0xbe77b2b7	-0.24189268
118	0xbe9dde17	-0.30833504
119	0xbefda6a3	-0.49541196
120	0xbeafacaf	-0.34311435
121	0x3f7d62ff	0.9897918
122	0x3e85ab51	0.26107267
123	0xbf61a1f4	-0.88137746
124	0x3e241818	0.16024816
125	0xbd07b49e	-0.033131234
126	0x3f2907d8	0.66027594
127	0x3f7d2c39	0.98895603
128	0x3e23c473	0.15992908
129	0xbf306de8	-0.68917704
130	0xbd97ae4e	-0.07406293
131	0xbf877015	-1.058108
132	0xbd822f56	-0.06356685
133	0x3f3216a4	0.69565797
134	0x3f02fd00	0.511673
135	0xbe162e42	-0.14666083
136	0xb99f279b	-0.00030356352
137	0x3f21b5be	0.6316794
138	0xbd448a6e	-0.04798358
139	0x3eadc92e	0.3394255
140	0xbdff169d	-0.12455485
141	0xbe113d8f	-0.14183639
142	0xbf0e6fbb	-0.5563924
143	0xbf8c482d	-1.0959526
144	0xbf05216a	-0.5200411
145	0xbf3e37d9	-0.74303967
146	0xbef9fbb8	-0.4882486
147	0x3e9e5c8c	0.30929983
148	0xbecf8e30	-0.40538168
149	0xbe9fdc6b	-0.31222853
150	0x3a79cabe	0.0009528807
151	0xbe67b7a0	-0.22628641
152	0xbedf277e	-0.43584818
153	0x3f8cac92	1.0990164
154	0xbee77bff	-0.4521179
155	0x3f13334e	0.5750016
156	0x3f0c534b	0.54814595
157	0xbed56e63	-0.4168578
158	0xbe9fb231	-0.31190637
159	0x3f94e3ea	1.1632054
160	0x3d166cc8	0.036724836
161	0xbe86e9ed	-0.26350346
162	0x3e978a14	0.29597533
163	0x3e648794	0.22317344
164	0x3eca098c	0.3946041
165	0x3fb57cc9	1.4178706
166	0xbe0a20f0	-0.13489127
167	0xbe2d88af	-0.16946672
168	0xbe1b8df1	-0.15190865
169	0xbe886bc9	-0.26644734
170	0x3e595dd6	0.21227202
171	0x3f6f8c59	0.9357353
172	0xbec89951	-0.3917947
173	0xbf015446	-0.50519216
174	0x3f08b4ac	0.53400683
175	0xbe2b5f37	-0.1673554
176	0xbf0853cf	-0.5325288
177	0x3ed20f2e	0.41027206
178	0x3e087075	0.13324149
179	0xbf705a26	-0.93887556
180	0xbe584724	-0.21120888
181	0x3eb19e53	0.34691104
182	0x3d1a8c35	0.037731368
183	0xbec1b3c8	-0.37832475
184	0x3e939e5b	0.28831753
185	0xbf3da882	-0.7408525
186	0x3e24d67a	0.16097441
187	0xbf16a425	-0.58844215
188	0x3d8b705c	0.0680854
189	0x3ef5fb4c	0.48043287
190	0xbc688d87	-0.014193899
191	0x3faa6302	1.3311465
192	0x3f1f70a1	0.62281233
193	0x3f2db547	0.6785473
194	0x3f379278	0.7170787
195	0x3f51013b	0.816425
196	0x3e846046	0.258547
197	0xbeb988c3	-0.36237153
198	0x3e9a439a	0.301297
199	0xbf0052d4	-0.50126386
200	0xbeb6b970	-0.35688353
201	0xbee3535c	-0.44399536
202	0x3e062132	0.130986
203	0x3f45465a	0.7706047
204	0xbe62f5f7	-0.2216414
205	0x3dcb6354	0.09931055
206	0xbdf2d8f6	-0.11857788
207	0xbf1fac44	-0.6237223
208	0x3e519f61	0.20470954
209	0xbf38faf8	-0.7225795
210	0x3f309461	0.6897641
211	0xbe4cb987	-0.19992648
212	0xbf5549ef	-0.8331594
213	0x3ecb8ec0	0.39757347
214	0x3ee250e7	0.4420235
215	0x3f806c2e	1.0033014
216	0xbf19bd42	-0.6005441
217	0xbf4e7562	-0.8064786
218	0x3e7a6bae	0.24455139
219	0x3e2114dc	0.15730613
220	0x3e7eae89	0.24871267
221	0x3fb9a231	1.4502622
222	0xbe9d96ce	-0.30779117
223	0x3f07cd9d	0.53048116
224	0xbe876a6d	-0.26448384
225	0xbcd8421f	-0.026398716
226	0xbf0d23a0	-0.55132484
227	0x3f3aa4ef	0.7290792
228	0x3ed225b4	0.4104439
229	0xbf39bf8b	-0.72557896
230	0xbdc6ebb8	-0.097129285
231	0xbf2a03a7	-0.66411823
232	0x3e91badf	0.28462884
233	0xbe785113	-0.24249677
234	0xbf2d022f	-0.67581457
235	0xbecd1812	-0.40057427
236	0x3e91664b	0.28398356
237	0x3ec07a55	0.37593332
238	0xbe8ee725	-0.27910724
239	0xbe5d7ff2	-0.21630839
240	0x3e9b147a	0.3028906
241	0xbe47c5c0	-0.1950903
242	0xbe29475e	-0.1653113
243	0x3fe97622	1.8239176
244	0x3e22ce2e	0.15898964
245	0xbe48bc8e	-0.19603178
246	0x3d5fb248	0.05461338
247	0xbf76a3a2	-0.96343434
248	0x3e9b0f88	0.30285287
249	0xbe970388	-0.29494882
250	0x3edac845	0.4273092
251	0xbf6b0724	-0.9180777
252	0x3efd6ad6	0.49495572
253	0xbf76e183	-0.96437854
254	0x3e442bfc	0.19157404
255	0xbf4ec36c	-0.8076694
