models/particle_gnn_29.pth (torch, 820468 bytes, 38 tensors)

encoder.0.weight f4 [128, 9]
0.15184377 -0.066418365 -0.75970787 0.002548648 -0.003002245 0.0038544883 0.6135292 0.29715604
0.21689808 0.2563804 -0.06156553 -0.527117 -0.14078334 -0.20150064 0.15585177 -0.25173047
-0.25315925 0.21696407 -0.2852273 -0.58759654 -0.104829356 0.0026509373 -0.0009299012 -0.0077176658
-0.11511418 0.059651338 -0.20413077 -0.2138445 0.15994883 -0.37346554 -0.0018265345 0.0015264733
0.0003430189 0.13436763 -0.1852706 -0.018462291 -0.29527962 0.13272302 0.07386691 -7.793672e-05
0.00017066195 -0.0018134941 0.33582318 -0.22475313 -0.03520441 -0.07426734 -0.098859884 0.42793337
0.03585627 0.03899882 0.061054662 -0.17077546 -0.44958562 -0.26039478 0.41381893 0.11806499
-0.38395807 -0.046741836 0.03063551 0.120128885 0.26976123 0.04760837 -0.09348557 -0.3471439
0.42615598 -0.07804823 0.019670371 0.08622249 0.053829156 -0.35396883 -0.21881557 0.034842834
-0.30659842 -0.11555454 0.5109936 0.03537601 -0.01598516 -0.0302235 0.14398348 0.16000526
0.26330742 -0.14149198 0.039829694 0.43883136 0.0037701523 0.0034994301 -0.0015214322 0.20725106
-0.3207236 -0.011949975 0.16921353 0.5970532 0.55176735 -0.051662125 -0.12591182 -0.14988185
-0.27705833 0.2646726 0.106770016 -0.26458022 0.22602543 -0.51558506 0.0041450323 0.01829114
-0.01597653 0.24540243 -0.085973814 0.06772925 0.07318343 0.22110604 0.38860604 -0.075925924
-0.011025294 0.044159476 -0.32073003 -0.12500009 -0.3943018 -0.07428682 -0.45352617 0.20089085
-0.027501263 -0.02332791 -0.003980394 0.61709327 0.30581972 0.55159277 0.28897166 0.04111712
-0.102862254 -0.008285653 0.0014729402 -0.0061490135 0.038119882 -0.3685562 -0.1985227 -0.5651256
0.47609183 -0.29908088 -0.010637793 0.0051275967 -0.010839493 0.15428883 -0.24678323 -0.109202035
-0.059911862 0.060271375 0.4971669 0.002782982 -0.0026544817 -0.0027598871 -0.27845088 0.016486
-0.11105828 -0.19573875 0.17004229 -0.66049343 -0.020398062 0.06447691 -0.049158674 -0.23586711
0.21243416 0.036023036 0.24322662 -0.21077645 0.46852693 -0.0026749806 -0.022355683 0.021607738
0.12991624 0.019413363 -0.07842422 -0.17771363 -0.33690032 -0.42422888 0.14879324 0.12472865
-0.07147898 -0.15123628 0.17809306 0.12921621 0.7197281 -0.6103084 0.38955113 0.014844551
-0.004299858 0.016731843 0.147123 0.2886449 0.22840723 -0.140028 0.21113677 0.027972871
0.0026551753 0.012561589 -0.008622343 -0.18128201 0.09145033 -0.21279292 0.19359136 0.35402948
0.41690832 -0.11664685 0.049981307 -0.0004830033 -0.102979265 0.27093983 0.097823985 -0.6066058
-0.22211538 0.15960689 0.001573217 0.0023192836 0.0066421344 -0.35793522 -0.19978702 -0.095601626
0.012259335 0.008687582 -0.35023823 -0.0021683094 0.0027771776 0.0058559827 -0.23150204 -0.41418558
-0.22476873 -0.5412165 -0.49067396 0.023305947 -0.030658659 0.07805569 -0.06937415 0.35523126
0.2949219 0.123856224 0.481065 -0.15266162 0.35068148 -0.01017079 0.025009384 0.013394841
0.047619287 0.11634037 0.48134145 0.51035357 0.30899894 -0.19455163 0.03476557 0.037744373
-0.058955815 -0.17402926 0.08893637 0.0002839249 0.20028917 -0.120942935 -0.30028448 -0.009651186
00000000: ef7c 1b3e 5a06 88bd 377c 42bf 3807 273b
00000010: 50c1 44bb 959b 7c3b 4010 1d3f d624 983e
00000020: 881a 5e3e 4b44 833e 232c 7cbd 24f1 06bf
00000030: 8229 10be 2f56 4ebe 9b97 1f3e d1e2 80be
00000040: 179e 81be d42b 5e3e 5009 92be ba6c 16bf
00000050: c6b0 d6bd 59bb 2d3b 9dc4 73ba 79e4 fcbb
00000060: fcc0 ebbd f654 743d a807 51be 0dfa 5abe
00000070: a0c9 233e e036 bfbe 5468 efba f213 c83a
00000080: 38d7 b339 ab97 093e 93b7 3dbe 3b3e 97bc
00000090: e42e 97be 8be8 073e 8947 973d f571 a3b8
000000a0: b8f3 3239 c4b2 edba 04f1 ab3e af25 66be
000000b0: 8032 10bd 7a19 98bd 0d77 cabd 151a db3e
000000c0: 06de 123d 3abd 1f3d 7414 7a3d c3df 2ebe
000000d0: 1630 e6be 7752 85be 13e0 d33e 0fcc f13d
000000e0: 2796 c4be 5e74 3fbd 52f7 fa3c 2206 f63d
000000f0: 251e 8a3e ff00 433d 5d75 bfbd d8bc b1be
00000100: 1e31 da3e c0d7 9fbd c223 a13c 6b95 b03d
00000110: f67b 5c3d 673b b5be 3011 60be 5cb7 0e3d
00000120: 78fa 9cbe dca7 ecbd 7ad0 023f 6fe6 103d
00000130: 4ff3 82bc 4697 f7bc 6870 133e 6bd8 233e
00000140: 3bd0 863e 46e3 10be 7624 233d 81ae e03e
00000150: a914 773b b256 653b cb6a c7ba 9f39 543e
00000160: e235 a4be d4c9 43bc 5046 2d3e 7ad8 183f
00000170: a040 0d3f aa9b 53bd 07ef 00be a17a 19be
00000180: 97da 8dbe 2b83 873e 3daa da3d 0f77 87be
00000190: 3673 673e 62fd 03bf 0dd3 873b 4dd7 953c
000001a0: 36e1 82bc c64a 7b3e 0a13 b0bd a2b5 8a3d
000001b0: 32e1 953d 9f69 623e 5ff7 c63e 0d7f 9bbd
000001c0: 6fa3 34bc 91e0 343d ba36 a4be 0600 00be
000001d0: ede1 c9be b023 98bd 9534 e8be 55b6 4d3e
000001e0: 544a e1bc 2c1a bfbc f76d 82bb d3f9 1d3f
000001f0: 6794 9c3e 2f35 0d3f 18f4 933e 6d6a 283d
00000200: 72a9 d2bd 8cc0 07bc ac0f c13a aa7d c9bb
00000210: 9823 1c3d 66b3 bcbe 8949 4bbe 12ac 10bf
00000220: 4fc2 f33e 2121 99be 234a 2ebc 6605 a83b
00000230: 2198 31bc e4fd 1d3e beb4 7cbe 51a5 dfbd
00000240: 2466 75bd 1edf 763d a98c fe3e b162 363b
00000250: d0f6 2dbb 39df 34bb 1d91 8ebe a60d 873c
00000260: 8672 e3bd bd6f 48be 911f 2e3e 1916 29bf
00000270: d619 a7bc 780c 843d 9b5a 49bd 2687 71be
00000280: 5788 593e e48c 133d 6610 793e c8d5 57be
00000290: c3e2 ef3e ba4e 2fbb 4423 b7bc b602 b13c
000002a0: c308 053e c608 9f3c e19c a0bd 90fa 35be
000002b0: 337e acbe 8734 d9be 415d 183e bc71 ff3d
000002c0: 9263 92bd afdd 1abe 075e 363e 4151 043e
000002d0: 1a40 383f 2c3d 1cbf 3f73 c73e 8f36 733c
000002e0: d3e5 8cbb 3811 893c 69a7 163e 44c9 933e
000002f0: 96e3 693e 8063 0fbe 3d34 583e 5d27 e53c
00000300: 7302 2e3b 1fcf 4d3c ba44 0dbc fea1 39be
00000310: 504a bb3d 63e6 59be d03c 463e 5a43 b53e
00000320: 0275 d53e 8be4 eebd 33b9 4c3d 9b3b fdb9
00000330: cbe6 d2bd a0b8 8a3e f157 c83d 854a 1bbf
00000340: 3772 63be fd6f 233e 6734 ce3a 1fff 173b
00000350: 43a6 d93b 4943 b7be f894 4cbe c9ca c3bd
00000360: 61db 483c 5c56 0e3c 6d52 b3be 321a 0ebb
00000370: 4f01 363b 8be3 bf3b df0e 6dbe 2210 d4be
00000380: c629 66be 2a8d 0abf 9e39 fbbe 1dec be3c
00000390: de27 fbbc a9db 9f3d 0914 8ebd dfe0 b53e
000003a0: 0100 973e 55a8 fd3d 274e f63e 5453 1cbe
000003b0: 868c b33e 63a3 26bc 7be0 cc3c 0976 5b3c
000003c0: 710c 433d dc43 ee3d 6372 f63e 88a6 023f
000003d0: 1c35 9e3e 8b38 47be 5866 0e3d d899 1a3d
000003e0: a77b 71bd ba34 32be 4624 b63d c1db 9439
000003f0: 9b18 4d3e eeb0 f7bd e3be 99be 0220 1ebc

encoder.0.bias f4 [128]
0.6834972 -0.11963727 0.06870081 -0.26695046 0.19336094 -0.1087013 0.037720338 0.16939205
-0.11629366 -0.04426827 -0.07770276 -0.27793694 -0.12511532 0.40070075 -0.23325035 -0.23037782
0.06778147 -0.17048192 -0.06627129 -0.29926914 -0.12157805 -0.15712857 0.13021974 -0.39305365
-0.039393347 0.3887812 0.42821336 0.29518992 -0.2667925 -0.102159515 0.30364427 -0.18102358
-0.178326 -0.29244134 0.20422004 0.07966392 0.45067403 0.24251574 -0.29847723 0.068173595
-0.10740215 -0.5668671 0.056972448 -0.1096508 -0.11117997 0.7036844 0.13417082 -0.20777433
0.0038330336 1.0512289 0.27164364 0.047683667 0.19167902 -0.026492568 -0.29489508 -0.09143214
0.10750498 0.14423206 0.15570696 0.471106 0.3390542 -0.017747642 -0.07470873 -0.20636779
-0.05795017 -0.22321825 -0.0802109 -0.30926365 0.08954681 0.38646784 -0.2522023 0.08695706
-0.19098888 -0.21859892 0.2906237 0.14331622 0.0046891402 -0.4944046 -0.14641763 0.9198946
0.12750705 0.11088166 -0.3604379 -0.41094118 -0.3735991 -0.1850121 -0.17947486 0.37162867
0.18432926 0.25160983 0.085701205 -0.00013917711 0.93365633 -0.32292044 0.069514595 0.63960326
-0.1564144 0.36576742 -0.26988867 -0.4426937 -0.4384188 -0.33631548 0.21193835 -0.14024584
0.84403795 0.1026059 0.23921664 0.26363674 0.27229732 -0.22040829 -0.3309764 -0.074971065
-0.36483425 0.31319785 0.41313055 -0.3652249 0.064736664 -0.34912518 -0.39231822 0.7146694
0.5905614 0.32260525 0.104587 0.026730387 -0.14720753 0.0201837 0.22788058 0.05288905
00000000: acf9 2e3f 6304 f5bd 03b3 8c3d bbad 88be
00000010: 6900 463e ca9e debd a480 1a3d 1c75 2d3e
00000020: 5f2b eebd a552 35bd a022 9fbd c04d 8ebe
00000030: 3b1e 00be a628 cd3e 2ed9 6ebe 2ae8 6bbe
00000040: 03d1 8a3d d092 2ebe 3eb9 87bd ce39 99be
00000050: eafd f8bd 50e6 20be 5358 053e 543e c9be
00000060: eb5a 21bd 540e c73e c83e db3e 2223 973e
00000070: 0799 88be 0239 d1bd 4377 9b3e 3f5e 39be
00000080: 179b 36be dfba 95be 0f1f 513e d626 a33d
00000090: bfbe e63e 0c56 783e 02d2 98be 999e 8b3d
000000a0: a9f5 dbbd 341e 11bf f15b 693d 9990 e0bd
000000b0: 53b2 e3bd a924 343f 1364 093e cbc2 54be
000000c0: a233 7b3b ab8e 863f e014 8b3e f34f 433d
000000d0: 8147 443e f106 d9bc 7dfc 96be c640 bbbd
000000e0: 922b dc3d 92b1 133e a571 1f3e ce34 f13e
000000f0: 8398 ad3e 8163 91bc e400 99bd 1452 53be
00000100: 285d 6dbd 5393 64be 9d45 a4bd ce57 9ebe
00000110: 5164 b73d 1ddf c53e a920 81be 8b16 b23d
00000120: 9792 43be 65d8 5fbe a1cc 943e 7dc1 123e
00000130: 5ca7 993b 9a22 fdbe 81ee 15be 367e 6b3f
00000140: 3591 023e ec15 e33d 518b b8be e266 d2be
00000150: 6248 bfbe d073 3dbe 42c8 37be 1d46 be3e
00000160: cfc0 3c3e 01d3 803e 1d84 af3d 12f0 11b9
00000170: 1a04 6f3f d455 a5be ab5d 8e3d 0abd 233f
00000180: 192b 20be de45 bb3e d92e 8abe c0a8 e2be
00000190: 6e78 e0be 8b31 acbe 5e06 593e 9b9c 0fbe
000001a0: df12 583f 0b23 d23d 35f5 743e 65fb 863e
000001b0: 8e6a 8b3e b6b2 61be bd75 a9be 6e8a 99bd
000001c0: 8ecb babe 785b a03e d985 d33e c2fe babe
000001d0: a894 843d 89c0 b2be efdd c8be 93f4 363f
000001e0: 082f 173f 842c a53e b631 d63d aff9 da3c
000001f0: 92bd 16be 4958 a53c 8759 693e 30a2 583d

encoder.2.weight f4 [128, 128]
0.09500157 -0.019812116 -0.07677649 0.09940844 0.02052933 0.06457017 -0.07511098 -0.0038305018
-0.027222076 0.028653983 -0.026103491 -0.00088589103 0.044347502 -0.02787762 -0.05994062 0.007057084
0.06375365 -0.012837639 0.014611108 -0.0044244113 -0.06073244 0.186778 -0.04614965 0.15770535
-0.37705117 -0.026784964 0.011676529 -0.03138306 0.0018857582 0.016778307 -0.011521205 -0.021562211
0.040554192 -0.13906546 0.00043631063 0.007923467 -0.011762578 0.12720987 -0.05081128 -0.039693654
0.145506 -0.03687405 0.018539095 0.07035109 -0.15020572 0.007010206 -0.058323048 -0.086837955
-0.13776161 -0.006486734 -0.05571737 0.015116492 -0.02136229 -0.05882444 0.03875823 -0.008733969
0.0075407717 -0.03717474 0.0078113563 0.030801332 -0.010399836 0.07295706 0.18447642 0.087906994
-0.054803893 -0.0494409 -0.06865134 0.2546599 -0.0021490077 -0.052575957 0.059603594 0.053821523
-0.17261775 0.00489218 -0.063560404 -0.014728737 0.0055482127 -0.010395446 -0.19534396 0.013393488
0.03288129 0.017269732 -0.12455177 -0.04805576 0.075511225 -0.061758608 -0.008155764 -0.07425415
0.012725747 -0.008613545 0.061269697 -0.02230749 -0.0023721585 0.020678127 -0.051631585 -0.044765722
-0.041228116 0.17808494 0.28242534 -0.113550514 -0.03204433 -0.08439114 0.04084658 -0.28461152
-0.0033645297 0.016450657 -0.15105405 0.008131995 0.00022629178 -0.26175547 -0.121285304 0.21137658
0.12089178 -0.057353705 0.017473178 0.10952082 0.009950142 0.011276237 0.21081449 -0.012189913
0.061914522 -0.085838705 0.030680863 0.08430895 -0.0005846896 -0.041635208 0.067497045 0.012868338
-0.030175854 -0.07593011 -0.026226973 0.037173852 0.0853907 0.10419521 -0.059592575 -0.062758006
-0.08790642 -0.09618569 0.026230276 0.0591067 -0.07213849 0.07726347 -0.068898834 0.0738668
0.07720045 -0.063815266 -0.032128643 -0.011312828 0.035070557 -0.034951948 0.026624389 -0.13436079
-0.0025690722 -0.0063366643 0.039124716 -0.05445895 -0.056267306 -0.035349157 -0.038120553 0.016008487
-0.047711313 -0.5166591 0.053999465 0.04613819 0.02067951 -0.1743137 -0.0032983022 0.06194798
-0.08932898 0.0123810945 0.01076543 0.04598117 -0.15185669 -0.030576488 -0.11128155 0.05763623
0.16085576 -0.055793457 -0.016943669 -0.06498451 -0.006124472 0.07324726 -0.00741431 0.023261635
0.03945032 -0.013225095 -0.12342349 0.018065805 0.04308528 0.027008427 -0.19773744 0.047679156
-0.12746532 -0.06759762 0.017515924 -0.14722385 0.09546203 0.07744916 0.04148681 -0.1594673
-0.06717234 0.09934873 0.040974338 0.010002469 0.27438867 -0.24196294 -0.030757198 -0.006409007
0.0027406854 0.088036396 -0.037792105 -0.06218248 0.060155705 0.012296111 -0.11342172 0.0004108277
0.008455114 -0.010573598 -0.011822392 -0.105894774 0.04359929 -0.06321216 -0.045251768 0.013198402
-0.024974607 0.04036479 -0.07730422 0.05432929 -0.0997436 -0.10022595 0.0669441 0.033424538
-0.13404317 0.050748058 0.04924091 0.0057602148 0.026062617 0.24249789 -0.1315779 -0.041579876
-0.20464297 0.09937731 -0.008767514 -0.16030791 -0.0074649914 0.101882525 0.014940961 -0.052597832
0.010661717 -0.030290904 0.04980094 -0.053438433 -0.029335214 -0.073422514 0.16058494 0.05699006
00000000: 2f90 c23d 054d a2bc fe3c 9dbd a796 cb3d
00000010: 202d a83c 5e3d 843d c9d3 99bd 2809 7bbb
00000020: d500 dfbc c2bb ea3c fdd6 d5bc 243b 68ba
00000030: baa5 353d 9b5f e4bc 4c84 75bd 1c3f e73b
00000040: 4691 823d f654 52bc 6e63 6f3c a7fa 90bb
00000050: 94c2 78bd bb42 3f3e 6a07 3dbd 837d 213e
00000060: da0c c1be 246c dbbc ea4e 3f3c 868b 00bd
00000070: 8c2b f73a a972 893c 70c3 3cbc 3ca3 b0bc
00000080: 271c 263d 2d67 0ebe 9fc0 e439 6ed1 013c
00000090: d4b7 40bc 4e43 023e 7d1f 50bd d095 22bd
000000a0: 86ff 143e 3e09 17bd 4ddf 973c 3b14 903d
000000b0: 87cf 19be dfb5 e53b 26e4 6ebd 19d8 b1bd
000000c0: 6111 0dbe ab8e d4bb e637 64bd 2aab 773c
000000d0: f8ff aebc e5f1 70bd f3c0 1e3d ec18 0fbc
000000e0: 9418 f73b 8a44 18bd 68f6 ff3b 1353 fc3c
000000f0: 1364 2abc 836a 953d 63e7 3c3e 9508 b43d
00000100: 0c7a 60bd 8b82 4abd 1399 8cbd c862 823e
00000110: 5ed6 0cbb e359 57bd e622 743d f573 5c3d
00000120: b5c2 30be 954e a03b f52b 82bd cd50 71bc
00000130: c8cd b53b a951 2abc 3f08 48be 5c70 5b3c
00000140: 88ae 063d 4179 8d3c 0015 ffbd 1ed6 44bd
00000150: a1a5 9a3d 98f6 7cbd c19f 05bc 8f12 98bd
00000160: a77f 503c d41f 0dbc eff5 7a3d 33be b6bc
00000170: 3776 1bbb 2d65 a93c a47b 53bd 435c 37bd
00000180: d0de 28bd e65b 363e 0e9a 903e 2c8d e8bd
00000190: ea40 03bd 43d5 acbd be4e 273d 9ab8 91be
000001a0: 717f 5cbb 87c3 863c eaad 1abe 0f3c 053c
000001b0: bd48 6d39 d004 86be 6e64 f8bd 1a73 583e
000001c0: 1c96 f73d b8eb 6abd e923 8f3c 744c e03d
000001d0: ec05 233c f7bf 383c c1df 573e 33b8 47bc
000001e0: 159a 7d3d 34cc afbd 6f56 fb3c 2caa ac3d
000001f0: db45 19ba ae89 2abd e43b 8a3d b9d5 523c
00000200: 5a33 f7bc 3f81 9bbd f3d9 d6bc 9c43 183d
00000210: 52e1 ae3d 4c64 d53d 5817 74bd 4587 80bd
00000220: 4808 b4bd 01fd c4bd e0e0 d63c de19 723d
00000230: 58bd 93bd 4f3c 9e3d d51a 8dbd 7a47 973d
00000240: 451b 9e3d 94b1 82bd 5399 03bd 7159 39bc
00000250: 25a6 0f3d c629 0fbd 641b da3c e095 09be
00000260: e15d 28bb cba3 cfbb 3d41 203d 5910 5fbd
00000270: 8c78 66bd 47ca 10bd 4c24 1cbd 3b24 833c
00000280: f06c 43bd c543 04bf 8b2e 5d3d 66fb 3c3d
00000290: 1368 a93c 4a7f 32be 5428 58bb 2abd 7d3d
000002a0: 1df2 b6bd 13da 4a3c 7c61 303c c056 3c3d
000002b0: 5280 1bbe 8b7b fabc 95e7 e3bd f813 6c3d
000002c0: 5fb7 243e ae87 64bd 73cd 8abc 9916 85bd
000002d0: cbaf c8bb a902 963d bdf3 f2bb 2f8f be3c
000002e0: a996 213d 12ae 58bc 74c5 fcbd bdfe 933c
000002f0: 317a 303d c740 dd3c af7b 4abe 384b 433d
00000300: 4586 02be 9f70 8abd 8e7d 8f3c d9c1 16be
00000310: 9981 c33d aa9d 9e3d 13ee 293d 654b 23be
00000320: a791 89bd 5977 cb3d b5d4 273d 65e1 233c
00000330: ac7c 8c3e 22c5 77be 85f6 fbbc a602 d2bb
00000340: 129d 333b 6d4c b43d e5cb 1abd 0eb3 7ebd
00000350: d465 763d a175 493c a649 e8bd 5c64 d739
00000360: 5287 0a3c e23c 2dbc b5b2 41bc 5cdf d8bd
00000370: 2b95 323d 6075 81bd eb59 39bd 1c3e 583c
00000380: 8c97 ccbc 8d55 253d ad51 9ebd 6488 5e3d
00000390: 5f46 ccbd 4343 cdbd fd19 893d 2be8 083d
000003a0: 9d42 09be 32dd 4f3d d6b0 493d 2fc0 bc3b
000003b0: 4581 d53c 5e51 783e 5bbc 06be a94f 2abd
000003c0: ed8d 51be 5586 cb3d 9ea5 0fbc c227 24be
000003d0: e39c f4bb c9a7 d03d efca 743c d370 57bd
000003e0: 7bae 2e3c a124 f8bc 12fc 4b3d 42e2 5abd
000003f0: 6750 f0bc 8b5e 96bd 6170 243e 696e 693d

encoder.2.bias f4 [128]
0.05235113 0.009494506 0.05631166 -0.031537272 0.031050026 -0.07970366 0.027510079 -0.076573536
-0.09418157 0.05228307 0.066054665 0.02210106 -0.15241538 0.029891368 0.1817336 -0.035026975
-0.051728494 -0.07896909 0.0107560735 -0.121843375 -0.03731049 -0.03828846 -0.10915391 -0.10766319
-0.08140614 -0.065058514 0.09487972 -0.07663902 -0.02744938 0.10797571 -0.08152878 -0.23566398
-0.06306609 -0.055577617 0.010786098 0.08806072 0.044315327 -0.021051474 0.10286548 0.059546866
0.14370103 -0.15279682 -0.023744162 -0.015707908 -0.11154825 0.052990906 -0.012132338 0.16182083
0.010605794 0.08841096 -0.10769266 -0.036558107 0.06636016 0.10703985 -0.07873133 0.084033825
0.070273265 -0.019678855 -0.09169066 0.0108336825 0.057623256 -0.13098198 -0.1064553 0.065065674
0.07228034 0.049611203 0.1324573 -0.13914676 -0.05563904 0.025567874 -0.025939135 0.06500292
0.053987388 0.122266285 0.09192758 -0.05820681 0.009250655 -0.15956926 0.08607809 0.11176302
-0.071260996 -0.13643034 0.052750822 -0.1533977 -0.09201866 0.0648623 0.046877697 -0.06570453
0.01390779 -0.0036479519 0.0658937 0.09978075 0.04941594 -0.018641034 0.19491357 -0.009415037
-0.12460296 -0.02116849 -0.05751154 0.083940975 -0.047095485 -0.04260121 0.02865196 0.031164156
0.027733037 -0.033638198 -0.0054335743 -0.0021641005 -0.058992196 0.020506889 0.026512783 0.008812448
0.071230814 0.09805368 -0.018192457 -0.01076297 -0.036323782 0.024003528 0.09327214 -0.103481196
-0.008868256 0.06424077 -0.06665302 -0.009222086 -0.011061305 0.11769849 0.041881308 0.048306838
00000000: 236e 563d d88e 1b3c 0ea7 663d 3a2d 01bd
00000010: a05c fe3c ac3b a3bd d15c e13c 96d2 9cbd
00000020: 44e2 c0bd c626 563d ab47 873d 480d b53c
00000030: c712 1cbe bede f43c 5f18 3a3e 7278 0fbd
00000040: 42e1 53bd 8cba a1bd 3e3a 303c 0589 f9bd
00000050: e2d2 18bd 5cd4 1cbd 168c dfbd 857e dcbd
00000060: 43b8 a6bd 663d 85bd 4c50 c23d ebf4 9cbd
00000070: 86dd e0bc 5e22 dd3d 90f8 a6bd e651 71be
00000080: cb28 81bd 5ba5 63bd 2db8 303c 2e59 b43d
00000090: fd83 353d 2474 acbc 23ab d23d 6ae7 733d
000000a0: 5d26 133e c576 1cbe 1e83 c2bc dfad 80bc
000000b0: 6973 e4bd fe0c 593d b7c6 46bc 5cb4 253e
000000c0: edc3 2d3c ce10 b53d f88d dcbd f4bd 15bd
000000d0: d6e7 873d b537 db3d e43d a1bd ed19 ac3d
000000e0: 6eeb 8f3d 8d35 a1bc 50c8 bbbd c27f 313c
000000f0: 5d06 6c3d 2420 06be 3c05 dabd 2741 853d
00000100: b707 943d 1e35 4b3d e3a2 073e 7d7c 0ebe
00000110: c3e5 63bd b873 d13c 4f7e d4bc 4020 853d
00000120: e121 5d3d bf66 fa3d 8744 bc3d 446a 6ebd
00000130: 0f90 173c 2066 23be b649 b03d 03e4 e43d
00000140: 49f1 91bd 65b4 0bbe 3f11 583d 4914 1dbe
00000150: 4774 bcbd 87d6 843d d402 403d 1990 86bd
00000160: 80dd 633c 7a12 6fbb 47f3 863d da59 cc3d
00000170: 5e68 4a3d 15b5 98bc 6c97 473e 8741 1abc
00000180: d62f ffbd 8b69 adbc 3891 6bbd 3fe9 ab3d
00000190: 32e7 40bd 9b7e 2ebd 84b7 ea3c f94b ff3c
000001a0: 6530 e33c 35c8 09bd 200c b2bb 95d3 0dbb
000001b0: cda1 71bd 10fe a73c 5631 d93c 1662 103c
000001c0: 76e1 913d 5ed0 c83d 5908 95bc 2b57 30bc
000001d0: 3fc8 14bd 0ca3 c43c 7705 bf3d f3ed d3bd
000001e0: 294c 11bc aa90 833d 6181 88bd 3b18 17bc
000001f0: 7a3a 35bc e80b f13d bc8b 2b3d 64dd 453d

gnn_0.lin_msg.weight f4 [128, 128]
-0.08398858 -0.13542685 0.012573902 -0.104320526 -0.14817105 -0.21505445 0.0643422 0.025011122
-0.013978354 -0.015300404 0.06383283 -0.033969373 0.16629323 -0.07588202 -0.13107252 -0.03810952
-0.09416896 0.019062364 0.0029591387 0.038709473 -0.015249227 0.049050115 0.0069718915 -0.12872458
0.08195056 -0.004663967 -0.06286097 -0.057596758 0.068839006 -0.11663666 -0.15155748 0.07899112
-0.008942061 -0.0053687827 -0.048622135 -0.10653988 0.06405927 -0.085619695 0.008576834 -0.0496601
-0.04149293 0.026469477 -0.064125404 0.054295424 0.036947355 0.03685096 0.061221767 -0.16081205
-0.10491188 0.11087604 -0.06986286 -0.09648267 0.030005557 -0.10371574 -0.108914174 0.026354916
-0.054976065 -0.037439544 -0.005470719 0.1286176 -0.075361595 0.058385406 -0.10904235 0.14446644
-0.10187691 -0.04125347 0.09317452 0.049823392 -0.042176507 -0.07600656 -0.06104553 -0.04180693
-0.040061895 -0.1086134 0.015616367 -0.071205616 -0.17724065 -0.07351618 0.012936616 0.012158763
-0.04487135 0.116711915 -0.092573635 0.019985573 0.08636286 -0.06953174 0.019791393 -0.08481771
-0.05980994 0.041433986 -0.0038733021 0.030415706 -0.043145552 -0.028966576 -0.108678624 -0.0796343
-0.008566191 0.090403944 -0.080902025 0.0790327 0.032562975 -0.013957947 0.056151114 0.029429926
-0.00029000267 -0.13020304 0.047781788 0.03264543 0.1028626 -0.09017317 -0.050510604 0.14194624
-0.03665678 -0.18155922 0.077962846 0.028562654 0.13585052 0.03786108 0.08328904 -0.043265473
-0.059976943 -0.05810567 0.054925818 5.6441564e-05 0.041571613 -0.065064445 -0.10159028 0.06968149
0.010858108 -0.11443676 -0.0043090475 -0.010160839 -0.024300203 -0.019490903 0.065685794 0.04741223
0.06917003 -0.011442332 0.06231835 0.06442363 -0.032892358 -0.03194813 -0.036325987 0.0053716786
-0.080198176 -0.046811596 -0.15623192 -0.022443568 -0.05543489 0.039381757 -0.04310926 -0.050004277
0.035327602 0.055644114 -0.054177098 -0.07196568 -0.023221815 0.113755345 -0.09744936 0.0007601209
-0.07388159 -0.07150245 -0.09594078 -0.14144541 -0.09545105 0.097294785 -0.023925899 -0.100886755
0.05040143 0.020616803 0.026929913 0.060007755 -0.056471292 -0.02409024 -0.08213702 0.034207385
-0.13522962 0.01539365 -0.035690688 0.09393859 0.011660211 -0.03550621 -0.05828123 0.16301006
-0.007387009 -0.022231398 -0.048900127 0.049462758 -0.08543137 -0.10012739 -0.05361576 0.095214315
0.0024025794 -0.07443451 -0.10100449 0.048401147 -0.029718673 -0.004099013 0.026888665 -0.14759792
0.027145347 -0.03416868 0.067893386 -0.07595206 0.034020573 -0.088578515 0.056209628 -0.017339353
-0.052789703 -0.0073220544 0.014861199 0.045682177 0.06980618 -0.1371077 0.0019747845 -0.008874138
-0.015678171 -0.04538433 -0.022865666 -0.009811298 0.09503721 -0.0076095536 0.0051072906 0.021832904
0.010167708 -0.037222497 -0.06841455 0.08221365 0.031636044 0.051599078 -0.1024873 0.07183224
0.09633636 0.03785505 0.05043296 0.056949202 -0.032847486 0.1257324 -0.07405652 -0.11135488
0.13102797 -0.01712663 -0.017580248 0.05309832 -0.03346355 -0.088313535 -0.020872284 -0.051660098
0.0031960171 0.006900551 0.006090991 -0.045530193 0.032018747 -0.05715013 -0.084475264 0.03889331
00000000: 3402 acbd 56ad 0abe c402 4e3c 00a6 d5bd
00000010: 27ba 17be 3c37 5cbe d8c5 833d 20e4 cc3c
00000020: 7705 65bc 8cae 7abc c9ba 823d 7823 0bbd
00000030: c648 2a3e 0868 9bbd e037 06be ba18 1cbd
00000040: a8db c0bd ad28 9c3c 1cee 413b d38d 1e3d
00000050: e5d7 79bc c6e8 483d 7774 e43b 60d0 03be
00000060: b2d5 a73d 31d4 98bb 41bd 80bd 94ea 6bbd
00000070: 77fb 8c3d 34df eebd e231 1bbe 19c6 a13d
00000080: b981 12bc 9dec afbb 0128 47bd 9531 dabd
00000090: 8231 833d 6159 afbd d985 0c3c 6468 4bbd
000000a0: 7ef4 29bd 84d6 d83c 2e54 83bd e164 5e3d
000000b0: 1c56 173d 08f1 163d adc3 7a3d eaab 24be
000000c0: 0adc d6bd fa12 e33d 4214 8fbd b598 c5bd
000000d0: 37ce f53c eb68 d4bd 650e dfbd 44e6 d73c
000000e0: 952e 61bd 355a 19bd b843 b3bb 55b4 033e
000000f0: 2e57 9abd 8925 6f3d 9851 dfbd 03ef 133e
00000100: d7a4 d0bd 66f9 28bd 48d2 be3d 9d13 4c3d
00000110: 46c1 2cbd 54a9 9bbd e10a 7abd be3d 2bbd
00000120: f117 24bd b470 debd cadb 7f3c 40d4 91bd
00000130: 937e 35be a78f 96bd 1af4 533c 8c35 473c
00000140: 05cb 37bd a806 ef3d 3f97 bdbd c9b8 a33c
00000150: 03df b03d a866 8ebd 8f21 a23c e8b4 adbd
00000160: 45fb 74bd afb6 293d 3ad7 7dbb 5c2a f93c
00000170: 64b9 30bd 504b edbc e692 debd 4f17 a3bd
00000180: 3659 0cbc b425 b93d f6af a5bd e5db a13d
00000190: c160 053d dfaf 64bc b6fe 653d 0717 f13c
000001a0: 800b 98b9 f253 05be d6b6 433d 37b7 053d
000001b0: a0a9 d23d b6ac b8bd 35e4 4ebd 5b5a 113e
000001c0: 6b25 16bd a9ea 39be fcaa 9f3d 3afc e93c
000001d0: 661c 0b3e 3814 1b3d 7293 aa3d 2337 31bd
000001e0: 62aa 75bd 3600 6ebd e5f9 603d abbb 6c38
000001f0: ff46 2a3d 8240 85bd 910e d0bd 2bb5 8e3d
00000200: 35e6 313c d25d eabd e932 8dbb a679 26bc
00000210: 3811 c7bc 63ab 9fbc 4686 863d 5433 423d
00000220: 04a9 8d3d 9e78 3bbc 8741 7f3d 89f0 833d
00000230: 23ba 06bd 0bdc 02bd 8fca 14bd e804 b03b
00000240: f13e a4bd 84bd 3fbd 43fb 1fbe 93db b7bc
00000250: b20f 63bd c44e 213d 5693 30bd 49d1 4cbd
00000260: adb3 103d 15eb 633d cee8 5dbd be62 93bd
00000270: ad3b bebc 90f8 e83d 8893 c7bd da42 473a
00000280: 3b4f 97bd e06f 92bd 9a7c c4bd 11d7 10be
00000290: d77b c3bd 7d42 c73d 3f00 c4bc b79d cebd
000002a0: bb71 4e3d 92e4 a83c 1f9c dc3c b1ca 753d
000002b0: 714e 67bd e558 c5bc 7437 a8bd 0b1d 0c3d
000002c0: a279 0abe a635 7c3c 6630 12bd e062 c03d
000002d0: 780a 3f3c f66e 11bd 4db8 6ebd 1cec 263e
000002e0: b90e f2bb 9f1e b6bc 804b 48bd 7699 4a3d
000002f0: a4f6 aebd 970f cdbd 339c 5bbd b9ff c23d
00000300: 9874 1d3b 1f71 98bd 71db cebd 4840 463d
00000310: 9374 f3bc 0351 86bb 9e45 dc3c e923 17be
00000320: eb5f de3c 75f4 0bbd b00b 8b3d c18c 9bbd
00000330: 2859 0b3d a768 b5bd 113c 663d 420b 8ebc
00000340: 043a 58bd d8ed efbb 637c 733c 3c1d 3b3d
00000350: 8bf6 8e3d f665 0cbe 636b 013b d564 11bc
00000360: 826f 80bc ebe4 39bd c750 bbbc 91bf 20bc
00000370: dea2 c23d 9059 f9bb 0f5b a73b ebda b23c
00000380: 7596 263c 9e76 18bd ed1c 8cbd a15f a83d
00000390: cc94 013d 8e59 533d dde4 d1bd c81c 933d
000003a0: ff4b c53d e60d 1b3d cb92 4e3d 9143 693d
000003b0: 168b 06bd ffbf 003e f2aa 97bd 070e e4bd
000003c0: 322c 063e 254d 8cbc 7404 90bc a07d 593d
000003d0: 1311 09bd badd b4bd 5afc aabc 8a99 53bd
000003e0: 4574 513b 041e e23b f096 c73b de7d 3abd
000003f0: 1726 033d 4116 6abd 5e01 adbd 974e 1f3d

gnn_0.lin_msg.bias f4 [128]
-0.09718439 -0.02096878 -0.056817673 0.008360774 -0.0920296 -0.07642462 -0.09096039 -0.02681531
0.015353853 -0.0904449 -0.118801676 -0.22441435 0.0146393385 0.07633592 -0.05153279 -0.2600081
-0.06813985 0.061217785 -0.015577365 -0.08249404 0.0058154683 -0.035365112 -0.1213248 -0.08280631
-0.124601714 -0.05841817 -0.15326314 -0.07206607 0.028638637 -0.0409798 -0.026693342 -0.14284259
-0.046801623 -0.13433568 -0.007860295 0.03228498 0.07738272 -0.23460397 0.098105386 -0.02416547
-0.07867204 -0.024106652 0.007880623 -0.12022562 -0.03315509 -0.012392303 -0.20454994 -0.054650087
-0.1618304 0.0017668427 -0.09562494 -0.10400623 -0.08479184 0.07237426 -0.027002243 -0.05943783
-0.180013 0.011764877 -0.15823574 -0.03661642 -0.04459425 -0.13500875 -0.09468551 -0.07399485
-0.059686944 -0.044899464 -0.043163866 0.028667206 -0.10442235 0.028277399 -0.09183126 -0.012272208
-0.06210131 -0.123423375 -0.02780346 -0.07250622 -0.011227028 -0.14153136 -0.08265889 0.0029959718
-0.061959807 -0.17264871 -0.06582215 -0.2248508 -0.11968147 0.008406298 -0.09939482 0.042268757
0.020096518 -0.12723784 -0.18591556 -0.034882616 -0.036217667 -0.05311149 -0.10621308 0.08897547
0.009496513 -0.017387245 -0.133371 0.01008688 -0.08659115 0.00996819 -0.0687961 -0.18374506
-0.083708055 -0.02569522 -0.0871749 0.0017229697 -0.18747334 -0.11341712 -0.0044337 -0.009796786
-0.056356814 0.0037026566 -0.16042289 -0.18577316 -0.07101818 -0.034160037 -0.11884528 -0.23614734
-0.0017112147 -0.025575668 -0.09665669 -0.07143536 0.03219714 0.0012416469 -0.101266675 -0.24234441
00000000: 9c08 c7bd b8c6 abbc a6b9 68bd a1fb 083c
00000010: 047a bcbd 8384 9cbd 7149 babd c8ab dbbc
00000020: ba8e 7b3c 2d3b b9bd 4b4e f3bd e0cc 65be
00000030: d6d9 6f3c 0256 9c3d 0c14 53bd c81f 85be
00000040: e88c 8bbd 80bf 7a3d 3438 7fbc a3f2 a8bd
00000050: af8f be3b 02db 10bd 2379 f8bd 5b96 a9bd
00000060: 2f2f ffbd e447 6fbd 03f1 1cbe 6097 93bd
00000070: 939b ea3c 6fda 27bd ffab dabc 5445 12be
00000080: 0fb3 3fbd 4b8f 09be 77c8 00bc 413d 043d
00000090: d57a 9e3d 063c 70be 7aeb c83d aaf6 c5bc
000000a0: ce1e a1bd 507b c5bc bb1d 013c da38 f6bd
000000b0: a2cd 07bd 1609 4bbc 8a75 51be c5d8 5fbd
000000c0: deb6 25be 6795 e73a 02d7 c3bd 3801 d5bd
000000d0: 58a7 adbd f538 943d cf33 ddbc 1575 73bd
000000e0: 5455 38be 78c1 403c 8d08 22be 19fb 15bd
000000f0: 76a8 36bd bc3f 0abe 7aea c1bd 9d8a 97bd
00000100: 4c7a 74bd 80e8 37bd 98cc 30bd 7dd7 ea3c
00000110: 63db d5bd 01a6 e73c 0712 bcbd 5f11 49bc
00000120: f15d 7ebd 65c5 fcbd 15c4 e3bc 247e 94bd
00000130: 92f1 37bc 99ed 10be 1049 a9bd 1158 443b
00000140: 91c9 7dbd d3ca 30be c3cd 86bd 4a3f 66be
00000150: 8f1b f5bd 92ba 093c 838f cbbd 0122 2d3d
00000160: 74a1 a43c a34a 02be a660 3ebe 13e1 0ebd
00000170: fa58 14bd 6f8b 59bd 3e86 d9bd c538 b63d
00000180: 4397 1b3c b26f 8ebc 6892 08be 7143 253c
00000190: b356 b1bd 9f51 233c f8e4 8cbd aa27 3cbe
000001a0: 216f abbd c87e d2bc c188 b2bd 45d5 e13a
000001b0: 03f9 3fbe 3c47 e8bd 9248 91bb b382 20bc
000001c0: 67d6 66bd 45a8 723b e645 24be 523b 3ebe
000001d0: fb71 91bd 65eb 0bbd 2765 f3bd 9cd0 71be
000001e0: d64a e0ba 1084 d1bc f1f3 c5bd b44c 92bd
000001f0: 26e1 033d c2be a23a e764 cfbd 2229 78be

gnn_0.lin_msg_i.weight f4 [128, 128]
-0.031152524 -0.08474536 -0.01824039 -0.019195693 0.00497837 0.0055725523 -0.07625987 -0.06541004
-0.032933775 -4.981237e-06 0.037048187 0.023116887 -0.0144023 -0.06815108 0.03124142 0.01986991
-0.047210686 0.01565641 -0.07691495 0.023701476 -0.015912747 0.046432354 0.05968261 0.050233666
-0.10825717 -0.023243984 -0.009189583 0.010712135 0.029943135 0.09984622 -0.08442192 0.002807571
0.002694519 0.009725027 -0.07717213 -0.022589246 -0.026887145 0.019960158 0.09834429 -0.05415683
-0.000696251 -0.17184949 0.016907806 0.054652795 -0.05205788 0.03053545 0.049852587 0.05197938
-0.097423054 -0.02520621 -0.004780989 -0.049232308 -0.017978078 0.063515864 -0.08588647 0.14785491
0.1872051 -0.059055857 0.17210966 -0.030937461 -0.07495904 0.015005971 -0.04621328 0.028848715
-0.070688084 -0.06350277 -0.07204748 -0.002095811 -0.20204967 -0.04708749 -0.07304824 -0.12492653
-0.1069444 0.14421047 0.01803053 -0.12460398 -0.03796848 -0.015724203 -0.039561383 -0.092859305
0.04866198 0.0043316814 0.01131104 -0.058513906 -0.018529244 0.020001538 0.042170744 0.068422586
-0.00628898 0.10001646 -0.0037792667 0.117732 -0.022737168 -0.062678576 0.1266992 0.020226315
-0.06410429 -0.072324075 0.06647032 -0.04273513 0.09379951 -0.00055084185 0.08723723 -0.12800865
0.16682863 -0.08024361 0.0015758035 -0.041158605 0.14790788 0.06734917 -0.053786613 -0.01077294
0.047809683 -0.0798673 -0.04170453 0.105694614 -0.056681454 0.10079847 0.10581249 0.028222233
-0.011974342 0.14499599 0.013626057 0.0072560934 0.011390154 0.034361716 -0.07591335 -0.08093183
0.051387385 -0.108150095 0.044599935 0.07108012 0.07657405 0.007550694 0.01494179 0.011303692
-0.018124448 0.008913864 -0.011061697 -0.03469959 0.09152228 -0.016824141 -0.008497358 -0.059211604
-0.02742977 0.03713472 -0.072682224 -0.045713462 -0.10158582 0.01730708 -0.004808106 -0.08363367
0.096548274 0.036670648 0.020805344 0.011248476 -0.009274149 0.0113860145 -0.017676417 0.04181875
-0.028176107 0.025816206 -0.07596079 -0.04157406 -0.0710645 0.0038217495 -0.037529707 -0.045761865
-0.05874661 -0.086113654 -0.11127696 -0.009066173 0.028185457 -0.09705694 -0.02022423 -0.09008417
-0.1481733 0.0033361693 -0.014118199 -0.0061788713 0.030363016 0.028055303 0.0530927 0.06232105
0.033497725 0.06686788 0.0390354 -0.033934314 -0.10093143 -0.013301245 -0.040660277 0.03822967
0.09425982 -0.057575516 0.055553522 -0.03569826 -0.02385559 -0.13352045 -0.02480524 0.023698865
-0.08515014 0.054392163 0.0015424634 0.028347574 0.04521935 -0.09361242 0.016091572 0.050829966
0.012913405 -0.0006563469 0.006788712 0.011314878 0.048842628 0.013428668 0.07004091 0.034690302
0.018885657 -0.046698935 0.02058615 0.070427716 0.01936791 -0.004227835 0.02223725 0.038147926
0.08355753 -0.09665602 -0.05401432 -0.011710689 -0.040504407 0.04067411 -0.0065473057 0.016633252
0.016603637 0.043311995 0.03973802 -0.018410768 0.11163984 0.02543311 -0.028491084 -0.036657605
0.045749623 -0.050595127 -0.009415575 -0.1221585 0.062097482 0.0046352856 -0.07988469 0.088136606
-0.065392666 -0.064289354 -0.000328578 0.08632111 0.13136481 -0.1379522 0.050237823 0.06492654
00000000: 9433 ffbc fa8e adbd df6c 95bc 4940 9dbc
00000010: 9821 a33b f599 b63b 222e 9cbd b3f5 85bd
00000020: 91e5 06bd 8024 a7b6 d7bf 173d a05f bd3c
00000030: a0f7 6bbc cb92 8bbd 02ee ff3c 39c6 a23c
00000040: fe5f 41bd df41 803c 9685 9dbd 9929 c23c
00000050: 735b 82bc da2f 3e3d c175 743d d1c1 4d3d
00000060: efb5 ddbd 2b6a bebc e88f 16bc f381 2f3c
00000070: 4e4b f53c 2d7c cc3d 66e5 acbd 3aff 373b
00000080: 8796 303b b855 1f3c 6c0c 9ebd 150d b9bc
00000090: 6e42 dcbc 7c83 a33c bb68 c93d 8dd3 5dbd
000000a0: 9d84 36ba 50f9 2fbe 3d82 8a3c 9cdb 5f3d
000000b0: a53a 55bd 7b25 fa3c 3a32 4c3d 55e8 543d
000000c0: bd85 c7bd 417d cebc d8a9 9cbb d1a7 49bd
000000d0: c346 93bc 9b14 823d 3fe5 afbd 4767 173e
000000e0: b2b2 3f3e 8ee4 71bd 843d 303e 8f70 fdbc
000000f0: 2084 99bd 9bdb 753c 234a 3dbd 2454 ec3c
00000100: eac4 90bd be0d 82bd a18d 93bd e059 09bb
00000110: 1ce6 4ebe d0de 40bd 519a 95bd 7bd9 ffbd
00000120: aa05 dbbd e9ab 133e c3b4 933c 5f30 ffbd
00000130: d684 1bbd 0bd0 80bc 1e0b 22bd 052d bebd
00000140: c951 473d c7f0 8d3b f151 393c 47ac 6fbd
00000150: a4ca 97bc 44da a33c 3bbb 2c3d 2421 8c3d
00000160: ca13 cebb 6ed5 cc3d 93ad 77bb 7a1d f13d
00000170: 4c43 babc a05d 80bd 6fbd 013e a8b1 a53c
00000180: 1c49 83bd a51e 94bd 9721 883d 080b 2fbd
00000190: f519 c03d 5f66 10ba 6fa9 b23d b314 03be
000001a0: 20d5 2a3e c356 a4bd 318b ce3a ed95 28bd
000001b0: 2a75 173e 5dee 893d 5a4f 5cbd fc80 30bc
000001c0: 16d4 433d 7891 a3bd 5fd2 2abd 6b76 d83d
000001d0: d02a 68bd 6e6f ce3d 38b4 d83d 5032 e73c
000001e0: 0830 44bc d479 143e d33f 5f3c 86c4 ed3b
000001f0: c59d 3a3c dfbe 0c3d 7578 9bbd 96bf a5bd
00000200: 947b 523d cc7d ddbd 6cae 363d 7492 913d
00000210: dbd2 9c3d d06b f73b 69ce 743c 1f33 393c
00000220: b979 94bc 750b 123c 1f3c 35bc 2821 0ebd
00000230: 0870 bb3d c8d2 89bc 8138 0bbc de87 72bd
00000240: 66b4 e0bc 931a 183d 6bda 94bd 0a3e 3bbd
00000250: 3a0c d0bd 94c7 8d3c 518d 9dbb 2148 abbd
00000260: 1abb c53d f633 163d f86f aa3c 874b 383c
00000270: 9af2 17bc 688c 3a3c 22ce 90bc 234a 2b3d
00000280: 94d1 e6bc 827c d33c 5591 9bbd 9049 2abd
00000290: 448a 91bd 5176 7a3b c0b8 19bd cb70 3bbd
000002a0: 49a0 70bd 5b5c b0bd 2de5 e3bd 498a 14bc
000002b0: 30e5 e63c cac5 c6bd 49ad a5bc 0d7e b8bd
000002c0: beba 17be a2a3 5a3b 0550 67bc 2178 cabb
000002d0: dcbb f83c 3cd4 e53c bb77 593d 5b44 7f3d
000002e0: e934 093d 07f2 883d 95e3 1f3d b5fe 0abd
000002f0: 23b5 cebd 77ed 59bc 648b 26bd b796 1c3d
00000300: 4b0b c13d 4ed4 6bbd 178c 633d 5738 12bd
00000310: cc6c c3bc 96b9 08be 5c34 cbbc 1f24 c23c
00000320: 3263 aebd 51ca 5e3d 7c2c ca3a 2c39 e83c
00000330: ed37 393d deb7 bfbd 79d2 833c 1533 503d
00000340: bf92 533c b20e 2cba d873 de3b 0a62 393c
00000350: 350f 483d ea03 5c3c 9c71 8f3d 6b17 0e3d
00000360: 18b6 9a3c 6247 3fbd 49a4 a83c 683c 903d
00000370: 74a9 9e3c a789 8abb e52a b63c 0041 1c3d
00000380: 3620 ab3d 97f3 c5bd 1f3e 5dbd 31de 3fbc
00000390: f3e7 25bd e599 263d c88a d6bb 7542 883c
000003a0: 5a04 883c eb67 313d 56c4 223d 2ed2 96bc
000003b0: 6ea3 e43d 1959 d03c 2266 e9bc 4926 16bd
000003c0: f563 3b3d d63c 4fbd c943 1abc 3c2e fabd
000003d0: ee59 7e3d 98e3 973b 969a a3bd f780 b43d
000003e0: 97ec 85bd 23aa 83bd fe44 acb9 1fc9 b03d
000003f0: 7f84 063e 5743 0dbe 2dc6 4d3d 35f8 843d

gnn_0.lin_msg_i.bias f4 [128]
0.0022025146 -0.122274145 -0.09466913 0.018648662 -0.016522685 -0.06877212 -0.11987522 -0.13309468
0.06929273 0.030927578 -0.052306686 -0.21355559 0.007700489 0.036451392 -0.0794899 -0.2044789
-0.1303894 -0.060397614 -0.065283105 -0.22010665 0.0063508865 0.055460334 -0.06501722 -0.13230853
-0.0783082 -0.038360655 -0.11203644 -0.015328342 0.006115177 -0.088025175 -0.013222759 -0.2137369
-0.19517714 -0.16966327 -0.09290343 -0.040796656 -0.037342474 -0.15339608 -0.04515677 0.029759
0.023473024 0.10506977 -0.0017556163 -0.17954431 -0.18864475 0.008822729 -0.21161112 -0.034616213
-0.11074318 0.026389947 -0.09733908 -0.14702341 -0.10470481 0.045838334 0.06514005 -0.13773464
-0.10466263 -0.030502087 -0.08918966 -0.07761761 0.105866745 -0.13612418 -0.15238155 -0.024744328
-0.09041637 -0.106140465 0.081646465 0.07324276 -0.1304578 -0.10922648 -0.061704185 -0.04903606
0.02617137 -0.06699772 -0.023006199 -0.083842464 0.0028819824 -0.14988121 -0.1449093 0.054937605
-0.051789653 -0.12623781 0.03895071 -0.17435746 -0.07172806 -0.0616532 0.0028849542 -0.0042455257
0.02569861 -0.13923009 -0.13257113 -0.028779792 0.103254385 0.03902953 -0.13342115 0.005752585
0.06872697 -0.07891559 -0.16188657 -0.013090256 0.009850695 -0.07418312 -0.17186049 -0.12493158
0.015696267 0.038097166 0.02394134 0.047737617 -0.034667764 -0.011004939 0.03616588 0.09781907
-0.10194716 -0.041080862 -0.16412452 -0.0547149 -0.008851992 0.023219151 -0.015643036 -0.18893555
-0.17390983 0.04138652 -0.10155236 0.02489145 -0.02286464 0.08800771 -0.14200647 -0.17328025
00000000: 1058 103b de6a fabd e4e1 c1bd 14c5 983c
00000010: 955a 87bc 66d8 8cbd 2481 f5bd f949 08be
00000020: 59e9 8d3d d55b fd3c 893f 56bd 51ae 5abe
00000030: 6254 fc3b 0e4e 153d 9acb a2bd eb62 51be
00000040: cd84 05be 7d63 77bd 26b3 85bd a363 61be
00000050: 191b d03b 602a 633d c027 85bd e37b 07be
00000060: 0d60 a0bd 1020 1dbd 5c73 e5bd ba23 7bbc
00000070: d361 c83b 8b46 b4bd 45a4 58bc d9dd 5abe
00000080: 84dc 47be 35bc 2dbe 2744 bebd 651a 27bd
00000090: 6cf4 18bd dd13 1dbe 4ef6 38bd 25c9 f33c
000000a0: 804a c03c d22e d73d b51c e6ba 77da 37be
000000b0: 172c 41be 358d 103c 96b0 58be bbc9 0dbd
000000c0: 52cd e2bd bb2f d83c b659 c7bd 4e8d 16be
000000d0: 7a6f d6bd fac0 3b3d 2668 853d 4f0a 0dbe
000000e0: 5c59 d6bd 83df f9bc 12a9 b6bd fbf5 9ebd
000000f0: aad0 d83d 2364 0bbe e909 1cbe 9eb4 cabc
00000100: 382c b9bd 2c60 d9bd 4336 a73d 4d00 963d
00000110: bb96 05be 22b2 dfbd 87bd 7cbd 09da 48bd
00000120: 5765 d63c 1a36 89bd 7f77 bcbc 99b5 abbd
00000130: a4df 3c3b 767a 19be 1b63 14be 4106 613d
00000140: 6321 54bd 7c44 01be c88a 1f3d c38a 32be
00000150: 29e6 92bd 1188 7cbd 8011 3d3b 0d1e 8bbb
00000160: e485 d23c 5592 0ebe bac0 07be 99c3 ebbc
00000170: 0977 d33d 6edd 1f3d 8e9f 08be 2e80 bc3b
00000180: bac0 8c3d 7f9e a1bd 98c5 25be 8378 56bc
00000190: cf64 213c 52ed 97bd 32fc 2fbe 21dc ffbd
000001a0: 7595 803c c60b 1c3d a120 c43c 8588 433d
000001b0: c9ff 0dbd 0f4e 34bc ac22 143d 5d55 c83d
000001c0: acc9 d0bd 6844 28bd 4210 28be bb1c 60bd
000001d0: f207 11bc 1736 be3c d325 80bc 5278 41be
000001e0: 6b15 32be e984 293d affa cfbd 27e9 cb3c
000001f0: a04e bbbc 633d b43d 256a 11be 6170 31be

gnn_0.lin_edge.weight f4 [128, 2]
0.13093373 -0.47128785 -0.12786184 -0.63268787 -0.6062987 1.4281828 0.522579 -0.6250771
0.21729797 -0.24130854 -0.53489196 -0.5380376 0.20820336 -0.09379294 -0.35833 -0.9372924
0.5782319 1.3084381 -1.1677399 0.5568234 -0.054606013 0.17930245 -0.22657886 -0.07017638
-0.11527048 0.67305714 -0.24458183 0.6885041 0.5045769 0.64868975 -0.72925496 -0.24467617
0.15440303 0.47815806 0.6244043 -0.80329496 0.21804935 0.57586944 0.41250324 0.2612522
-0.63635564 -0.09902807 0.40128982 0.9366164 0.29519436 -0.7261381 0.6092769 0.050969258
0.09357488 -0.33061263 -0.43462658 1.7445005 0.3381638 -0.12911108 -0.393773 -0.74522305
0.08353213 -0.8896213 0.52279073 0.5212929 0.12699702 -0.83746266 0.032793198 -0.1291136
0.5729556 -0.74615586 0.1986388 0.39277068 0.6437848 0.52436703 -0.28153658 0.6819574
-0.48126948 0.92638904 -0.39524204 -0.8862452 0.29140037 -0.4472947 0.2446583 1.661273
-0.19333541 -0.7523485 0.6038457 -0.85738885 -0.18218753 1.4812019 -0.041584156 0.44854063
-0.38453823 0.24339516 -0.2962696 1.1234165 0.47158128 0.02198423 -0.23840868 1.0406672
-0.4195216 -1.0052679 0.46088558 -0.8033667 0.1683356 -0.66151106 0.5176035 -0.6580942
-0.5811386 0.060519896 0.08174783 0.0026799522 0.62020755 0.7680907 0.420925 0.4554723
-0.6555778 -0.77645296 -0.5664911 -1.0888236 -0.565852 -0.24827932 -0.30833504 -0.49541196
-0.33678228 0.9917718 0.25634986 -0.88550705 0.15567382 -0.037720725 0.65005386 1.0035704
0.15992908 -0.68917704 -0.06846402 -1.1215812 -0.04504788 0.7140956 0.52429277 -0.15455583
-0.020172155 0.64876586 -0.07845185 0.34099466 -0.1329435 -0.15131225 -0.5778565 -1.0268575
-0.5232166 -0.7462133 -0.51435846 0.30273047 -0.39868823 -0.28822857 0.0009528807 -0.22628641
-0.44210118 1.1378062 -0.4497651 0.5974521 0.54814595 -0.4168578 -0.30184397 1.2174853
0.042413466 -0.27108735 0.27410755 0.25213173 0.3829152 1.4869338 -0.15147941 -0.040193025
-0.17042424 -0.28566173 0.22695042 0.9309518 -0.39022878 -0.5089138 0.52664155 -0.2174944
-0.5420642 0.4175738 0.10242267 -1.0196217 -0.2676435 0.28747076 0.04918749 -0.3738541
0.29189605 -0.8336956 0.18582706 -0.6632007 0.042546127 0.49036318 -0.010800636 1.4125518
0.63053113 0.740028 0.72729045 0.7931651 0.25250006 -0.36855423 0.28757635 -0.5132697
-0.3643116 -0.45830372 0.12002869 0.8115531 -0.2216414 0.09931055 -0.13794504 -0.6300865
0.20470954 -0.7225795 0.653638 -0.24469519 -0.8030039 0.42358297 0.45081827 1.0347769
-0.5986083 -0.815792 0.27008638 0.15167032 0.24236175 1.5205681 -0.3079135 0.5626163
-0.29508606 -0.03281676 -0.5845317 0.68155617 0.40056223 -0.7352613 -0.1051933 -0.66431284
0.28145254 -0.2456731 -0.68216676 -0.40692648 0.26592952 0.39641345 -0.32899168 -0.24929325
0.3028906 -0.1950903 -0.1576643 1.9136956 0.15898964 -0.19603178 0.019693337 -0.9917602
0.30736303 -0.28566095 0.41197613 -0.9636194 0.49177942 -0.9675493 0.18525557 -0.8140132
00000000: 7e13 063e a44c f1be 37ee 02be d5f7 21bf
00000010: 6436 1bbf b2ce b63f bdc7 053f 0e05 20bf
00000020: 5c83 5e3e 9619 77be aeee 08bf d5bc 09bf
00000030: 4333 553e 8316 c0bd 0877 b7be 65f2 6fbf
00000040: 0107 143f e67a a73f 8078 95bf fa8b 0e3f
00000050: 8eaa 5fbd 109b 373e 4a04 68be a2b8 8fbd
00000060: ee12 ecbd 794d 2c3f a973 7abe ce41 303f
00000070: f42b 013f 8810 263f 74b0 3abf 648c 7abe
00000080: d41b 1e3e 22d1 f43e f6d8 1f3f bda4 4dbf
00000090: 5448 5f3e 2e6c 133f a033 d33e d9c2 853e
000000a0: 34e8 22bf 3bcf cabd dc75 cd3e 18c6 6f3f
000000b0: b723 973e 30e4 39bf 92f9 1b3f 24c5 503d
000000c0: 30a4 bf3d 0f46 a9be 6087 debe cb4b df3f
000000d0: ce23 ad3e b235 04be 9d9c c9be f0c6 3ebf
000000e0: e512 ab3d 39be 63bf 9dd5 053f 7473 053f
000000f0: 820b 023e f463 56bf 2952 063d 5b36 04be
00000100: 38ad 123f 1204 3fbf f867 4b3e 3d19 c93e
00000110: 15cf 243f eb3c 063f 9025 90be c394 2e3f
00000120: f468 f6be d527 6d3f 2a5d cabe f7e0 62bf
00000130: 6e32 953e d003 e5be b587 7a3e 98a4 d43f
00000140: b8f9 45be e999 40bf a295 1a3f d67d 5bbf
00000150: 5e8f 3abe 0698 bd3f 2654 2abd 1ea7 e53e
00000160: 32e2 c4be 953c 793e a6b0 97be 1dcc 8f3f
00000170: 1a73 f13e 4618 b43c 6821 74be 9534 853f
00000180: 89cb d6be 9eac 80bf 32f9 eb3e 71a9 4dbf
00000190: 2b60 2c3e ca58 29bf aa81 043f dd78 28bf
000001a0: 80c5 14bf b6e3 773d 686b a73d 23a2 2f3b
000001b0: ecc5 1e3f 98a1 443f 7b83 d73e aa33 e93e
000001c0: f2d3 27bf 9fc5 46bf 9005 11bf 925e 8bbf
000001d0: addb 10bf ef3c 7ebe 17de 9dbe a3a6 fdbe
000001e0: ba6e acbe c2e4 7d3f 4a40 833e 97b0 62bf
000001f0: f568 1f3e 0c81 1abd ee69 263f ff74 803f
00000200: 73c4 233e e86d 30bf dd36 8cbd f98f 8fbf
00000210: 2084 38bd f8ce 363f 0d38 063f e243 1ebe
00000220: 1340 a5bc 8515 263f 5dab a0bd da96 ae3e
00000230: 5722 08be 99f1 1abe 67ee 13bf 1170 83bf
00000240: 86f1 05bf d607 3fbf ffac 03bf 7dff 9a3e
00000250: dd20 ccbe b292 93be beca 793a a0b7 67be
00000260: 165b e2be a2a3 913f 9c47 e6be 9ff2 183f
00000270: 4b53 0c3f 636e d5be 4b8b 9abe 8fd6 9b3f
00000280: beb9 2d3d f6cb 8abe d357 8c3e 6917 813e
00000290: 760d c43e d953 be3f 6b1d 1bbe 71a1 24bd
000002a0: b183 2ebe 4142 92be b165 683e db52 6e3f
000002b0: 11cc c7be 2d48 02bf fbd1 063f dab6 5ebe
000002c0: b8c4 0abf 3ccc d53e fac2 d13d f782 82bf
000002d0: 9208 89be 5e2f 933e d278 493d ce69 bfbe
000002e0: 6673 953e 136d 55bf 7349 3e3e 85c7 29bf
000002f0: d944 2e3d e210 fb3e 27f5 30bc 7fce b43f
00000300: 7d6a 213f 7a72 3d3f b52f 3a3f de0c 4b3f
00000310: b047 813e 24b3 bcbe 353d 933e a565 03bf
00000320: 0d87 babe c9a6 eabe 9ad1 f53d f2c1 4f3f
00000330: f7f5 62be 5463 cb3d 7741 0dbe 594d 21bf
00000340: 619f 513e f8fa 38bf d254 273f 6091 7abe
00000350: aa91 4dbf dedf d83e a7d1 e63e 9273 843f
00000360: 653e 19bf bfd7 50bf c348 8a3e 774f 1b3e
00000370: ae2d 783e faa1 c23f d7a6 9dbe 9f07 103f
00000380: 8515 97be de6a 06bd dfa3 15bf 777a 2e3f
00000390: 7e16 cd3e 163a 3cbf 966f d7bd 6810 2abf
000003a0: 8c1a 903e bb91 7bbe 7ba2 2ebf ab58 d0be
000003b0: ea27 883e b4f6 ca3e 9971 a8be bb46 7fbe
000003c0: 7a14 9b3e c0c5 47be c072 21be faf3 f43f
000003d0: 2ece 223e 8ebc 48be ec53 a13c ffe3 7dbf
000003e0: b05e 9d3e 2742 92be 89ee d23e c3af 76bf
000003f0: 83ca fb3e 50b1 77bf a3b3 3d3e 2b63 50bf

gnn_0.lin_edge.bias f4 [128]
-0.18727924 -0.0019133929 0.6196143 0.73892456 -0.5038923 0.28107488 0.50200826 0.56525964
-0.18353806 0.58230597 -0.1589623 0.34696954 0.47054315 0.11353374 -0.45727158 0.19284949
-0.32391 0.70849997 -0.0043921988 0.1118032 -0.58995575 0.08928575 -0.34455797 -0.7314394
-0.3812933 -0.088461414 -0.49745512 -0.14083947 0.6412826 -0.39053863 0.035295572 -0.004184405
-0.16415253 -0.15799761 0.5026743 0.115190424 0.30931455 0.46249884 0.3496847 -0.63178575
-0.4748648 0.41627848 -0.3298287 0.25144163 0.16243215 -0.6537301 0.32692868 -0.635053
0.53823096 0.45863438 -0.49462014 -0.17389074 -0.0015594047 0.1343387 -0.55371517 0.5908685
0.021826318 0.59727365 0.42394277 0.4353731 -0.18994732 0.15783769 -0.05469055 0.114375055
-0.7012928 0.44482604 -0.0056690155 0.5540845 -0.73467785 -0.6518505 -0.5511308 0.3504
-0.5867728 -0.18792164 -0.33315837 0.079799704 0.033782203 -0.74180573 -0.5591687 -0.39776915
-0.7042218 0.16529495 0.30852807 -0.38960057 0.012145319 -0.28349367 0.45667592 0.24122547
0.70556325 0.4988976 -1.1933151e-05 -0.0067525967 0.32046032 0.5945837 -0.60583264 -0.08398855
-0.014929822 -0.6984856 -0.35017064 0.35162577 -0.031273343 0.52934545 0.5771586 0.13434054
-0.7107243 -0.27518058 -0.65497804 0.108830065 0.5353045 -0.7864329 -0.21624719 0.20602731
-0.118515536 -0.2168609 -0.55969286 0.49409387 -0.608419 -0.4001959 -0.66216105 0.16373779
-0.7760303 0.5058137 -0.71844864 0.58279604 -0.43452656 -0.33888903 -0.3256246 0.5308373
00000000: 21c6 3fbe d0ca faba 0b9f 1e3f 292a 3d3f
00000010: 16ff 00bf 0ce9 8f3e 9d83 003f dbb4 103f
00000020: 67f1 3bbe 0112 153f 03c7 22be fea5 b13e
00000030: 08eb f03e 6184 e83d 801f eabe 567a 453e
00000040: 88d7 a5be 4160 353f 6fec 8fbb 13f9 e43d
00000050: 5707 17bf 73db b63d e769 b0be 9d3f 3bbf
00000060: e038 c3be 422b b5bd 70b2 febe 3938 10be
00000070: 192b 243f aef4 c7be 1792 103d 551d 89bb
00000080: 9a17 28be 20ca 21be 43af 003f f5e8 eb3d
00000090: 7a5e 9e3e a6cc ec3e df09 b33e b6bc 21bf
000000a0: 7b21 f3be 7422 d53e 4fdf a8be f5bc 803e
000000b0: 9d54 263e db5a 27bf 3263 a73e d592 22bf
000000c0: 81c9 093f 20d2 ea3e da3e fdbe 6a10 32be
000000d0: f064 ccba 1690 093e 47c0 0dbf 2843 173f
000000e0: 1bcd b23c ede6 183f 070f d93e 39e9 de3e
000000f0: 8d81 42be 34a0 213e 3303 60bd 783d ea3d
00000100: ed87 33bf 3dc0 e33e 26c3 b9bb 7bd8 0d3f
00000110: d913 3cbf addf 26bf e816 0dbf a167 b33e
00000120: be36 16bf 886e 40be bc93 aabe 076e a33d
00000130: 355f 0a3d fbe6 3dbf ae25 0fbf 66a8 cbbe
00000140: e147 34bf 1443 293e 64f7 9d3e ba79 c7be
00000150: 29fd 463c 1526 91be 6dd1 e93e cf03 773e
00000160: cb9f 343f 826f ff3e 7e34 48b7 e344 ddbb
00000170: 6013 a43e a336 183f d917 1bbf 3002 acbd
00000180: 369c 74bc f4cf 32bf 9149 b3be 4b08 b43e
00000190: 7a18 00bd 2f83 073f aac0 133f 9190 093e
000001a0: 07f2 35bf 78e4 8cbe a4ac 27bf 4ce2 de3d
000001b0: b709 093f ab53 49bf e76f 5dbe d3f8 523e
000001c0: 46b8 f2bd c910 5ebe 0848 0fbf dff9 fc3e
000001d0: 59c1 1bbf 7ae6 ccbe 6383 29bf e1aa 273e
000001e0: eca9 46bf 027d 013f 40ec 37bf 1f32 153f
000001f0: 447a debe dd82 adbe 44b8 a6be f4e4 073f
