models/particle_gnn_1.pth (torch, 475642 bytes, 18 tensors)

encoder.0.weight f4 [128, 9]
0	0x3ce3a8b9	0.027790414
1	0xbe1c3d49	-0.15257753
2	0xbd81e4bf	-0.06342458
3	0xbe0df960	-0.1386466
4	0x3f17eb15	0.5934308
5	0x3c598a41	0.013277591
6	0xbe1d8f44	-0.15386683
7	0xbd568009	-0.052368198
8	0xbf957773	-1.1677078
9	0xbf1a9329	-0.603808
10	0x3eb25122	0.34827524
11	0xbed0ccf3	-0.40781364
12	0xbea6d633	-0.32585296
13	0x3cf7e19b	0.030258944
14	0x3e4b60e9	0.19861187
15	0xbdb59f99	-0.088683315
16	0xbd186dea	-0.037214197
17	0xbfa4942a	-1.2857716
18	0x3f67591c	0.90370345
19	0xbdd8e13d	-0.10589836
20	0x3f39fd31	0.72651964
21	0x3dff6112	0.124696866
22	0x3ca5d222	0.0202418
23	0xbe35f322	-0.17768529
24	0xbcecef85	-0.028922806
25	0xbe4cec93	-0.20012121
26	0xbfdfee54	-1.7494607
27	0x3ed5d570	0.41764402
28	0xbea90df8	-0.3301847
29	0x3ecf63e6	0.40505904
30	0x3e820da0	0.2540102
31	0x3d984576	0.074351236
32	0xbdbb47bd	-0.09144542
33	0xbee65698	-0.4498794
34	0xbed00cc1	-0.4063473
35	0xbf01afba	-0.5065876
36	0x3e802134	0.25025332
37	0x3f492e75	0.7858651
38	0x3e071171	0.13190247
39	0xbd3ca177	-0.046052422
40	0xbc8d6736	-0.017261129
41	0xbdcdc9af	-0.10048234
42	0xbcd81ad5	-0.026379982
43	0xbe23238a	-0.15931526
44	0xc02bc2ca	-2.683764
45	0x3f326cea	0.6969744
46	0xbf4278e0	-0.7596569
47	0x3c183646	0.009290284
48	0xbcba8b30	-0.022771448
49	0xbdf47af1	-0.11937512
50	0xbe8bad56	-0.27280682
51	0xbd25572d	-0.04036634
52	0xbe6586c9	-0.22414698
53	0xbf9acc2e	-1.2093561
54	0x3cb02b33	0.021504974
55	0x3c7ce370	0.015435085
56	0xbe8181ed	-0.25294438
57	0x3db30a52	0.08742203
58	0xbe91d763	-0.2848464
59	0x3f17c204	0.5928042
60	0xbe3a8c74	-0.18217641
61	0xbd815b2b	-0.06316217
62	0x3dd7f733	0.105451964
63	0xbede9c24	-0.434785
64	0xbf263105	-0.6491855
65	0xbe8c9e69	-0.27464607
66	0x3e5f4409	0.21803297
67	0xbefd91dd	-0.49525347
68	0xbe194097	-0.14966045
69	0xbf22300e	-0.63354576
70	0xbe49f211	-0.19721247
71	0x3fc6b43b	1.5523752
72	0x3dd18955	0.10231272
73	0x3d8b495b	0.06801101
74	0xbd76fe23	-0.060300957
75	0x3ee77025	0.45202747
76	0xbe40bf9c	-0.18823093
77	0xbd9b1d56	-0.07573955
78	0xbf267bb8	-0.6503253
79	0xbed35746	-0.41277522
80	0xbeb0db3b	-0.3454226
81	0x3e970c91	0.29501775
82	0x3e2164ce	0.1576111
83	0xb882aaf7	-6.230728e-05
84	0xbe09f54e	-0.13472483
85	0x3dba771d	0.0910475
86	0x3f04b7d2	0.5184299
87	0xbeb85398	-0.36001277
88	0xbf32a052	-0.6977588
89	0x3e230001	0.1591797
90	0x3ef2861f	0.4736795
91	0x3dd89fac	0.1057733
92	0xbef9c12e	-0.48780197
93	0xbdda6681	-0.10664082
94	0xbe9d2be3	-0.30697545
95	0xbeb791af	-0.35853335
96	0xbf0c4b17	-0.5480208
97	0xbf761410	-0.9612436
98	0xbf2a5f4a	-0.6655165
99	0x3cf97280	0.030450106
100	0x3e889b80	0.26681137
101	0xbd83d027	-0.06436186
102	0x3dab527a	0.083653405
103	0xbde566e7	-0.11201268
104	0xbca8c90b	-0.020603677
105	0xbee889d5	-0.45417657
106	0xbeadb3b1	-0.33926156
107	0xbf8f9e9f	-1.1220282
108	0xbe08621f	-0.1331868
109	0x3e1d02c5	0.15333088
110	0x3ed06dcc	0.40708768
111	0xbe13eb8c	-0.14445323
112	0xbe0d1e57	-0.13781105
113	0xbe69e8fa	-0.2284278
114	0xbec3c1ae	-0.38233703
115	0xbf35c5fb	-0.7100522
116	0x3f8f5c3d	1.1200024
117	0x3daf4651	0.08558334
118	0x3eb19271	0.34682038
119	0xbf2aee4b	-0.66769856
120	0xbe487c9e	-0.19578788
121	0x3cffa64f	0.031207232
122	0xbb41f8ff	-0.0029597876
123	0xbf3a999c	-0.7289064
124	0xbe909689	-0.2823985
125	0x3f75c285	0.9599994
126	0xbe933733	-0.2875305
127	0xbeb60d0b	-0.35556826
128	0xbf22d22a	-0.63601935
129	0x3d16a1c9	0.036775384
130	0x3ec49cce	0.38400882
131	0x3f03edeb	0.5153491
132	0xbed69b97	-0.4191558
133	0xbee0a024	-0.43872178
134	0x3f71cdf5	0.9445489
135	0xbe3fbf92	-0.18725422
136	0x3da8d95c	0.08244583
137	0xbe6e3dc1	-0.23265745
138	0x3f136d88	0.57589006
139	0x3ec76b69	0.38949135
140	0x3ee15f71	0.4401813
141	0xbef58120	-0.47950077
142	0xbeede695	-0.46464983
143	0x3eaf3da2	0.3422671
144	0x3f3b9db2	0.732875
145	0x3ecf41c2	0.40479857
146	0x3e433a77	0.19065271
147	0xbd49bf27	-0.049254563
148	0x3ea39e51	0.31956723
149	0x3de75159	0.11294813
150	0xbf16967d	-0.58823377
151	0xbf034f7d	-0.51293164
152	0xbf13ad09	-0.57685906
153	0xbdf827d7	-0.12116974
154	0x3f156194	0.5835202
155	0xbefc1769	-0.4923661
156	0x3d583de1	0.052793387
157	0xbf24d8ab	-0.6439311
158	0xbdf7f659	-0.12107534
159	0xbeefbcc8	-0.46823716
160	0xbdd5e8f1	-0.10444821
161	0x3fa3f23e	1.2808301
162	0x3e11ebda	0.14250126
163	0xbea87368	-0.32900548
164	0x3f33037c	0.6992719
165	0x3e33741a	0.17524758
166	0x3dee0a3f	0.11623048
167	0x3d659930	0.056054294
168	0xbf03266e	-0.51230514
169	0xbf0f7da8	-0.5605111
170	0x3fc7f021	1.5620157
171	0xbf21e7fa	-0.63244593
172	0x3f0d1524	0.55110383
173	0x3a7f142f	0.00097304856
174	0xbe953063	-0.2913848
175	0xbd79ab71	-0.060954515
176	0x3e3b9ff3	0.18322735
177	0xbf059b81	-0.52190405
178	0xbe71bd15	-0.23607285
179	0x3f30d25a	0.6907097
180	0xbe9513b5	-0.29116598
181	0xbf24333f	-0.64140695
182	0xbf00724f	-0.5017442
183	0xbdada94e	-0.08479558
184	0xbdd9e50c	-0.1063939
185	0xbe1e83c9	-0.1547996
186	0xbe6c8af3	-0.2309988
187	0xbe90e050	-0.28296137
188	0x3e1b408f	0.15161346
189	0x3e360667	0.1777588
190	0xbe7667a4	-0.24062973
191	0x3f30968a	0.68979704
192	0xbde9c1fc	-0.11413953
193	0x3f2494ff	0.6428985
194	0xbd10ab8e	-0.035319857
195	0xbede8081	-0.43457416
196	0xbec6282a	-0.38702518
197	0xbecc6f79	-0.39928797
198	0x3eaffbc6	0.34371775
199	0x3f193b60	0.59856224
200	0x3ec58ac7	0.3858244
201	0xbd91dce4	-0.0712221
202	0xbb968e0c	-0.00459457
203	0xbdc0568e	-0.09391509
204	0x3dc1190b	0.09428605
205	0xbeb207b4	-0.34771502
206	0xc006149d	-2.0950081
207	0x3d930f17	0.071806125
208	0x3f5b2699	0.8560577
209	0xbc692658	-0.014230333
210	0xbee9e03a	-0.45678884
211	0xbe0b99e1	-0.13632919
212	0x3d38fa97	0.045160856
213	0xbedf6f14	-0.43639433
214	0xbd9cb2c4	-0.07651284
215	0xbd59c58d	-0.053166915
216	0xbc533f16	-0.012893459
217	0xbf3f2500	-0.7466583
218	0x3ec315df	0.38102624
219	0x3e27079f	0.16311501
220	0xbe906b10	-0.28206682
221	0xbe0a298f	-0.13492416
222	0xbe8b40dc	-0.2719792
223	0xbf0a9b33	-0.54143065
224	0xbfbdd324	-1.483006
225	0x3e8a976f	0.2706866
226	0xbe23bf07	-0.1599084
227	0xbf0f4bdb	-0.5597512
228	0xbde5544e	-0.111977205
229	0xbdbb3215	-0.09140412
230	0x3e22b319	0.15888633
231	0xbdb21abb	-0.08696505
232	0xbdd76613	-0.10517516
233	0xbf79829b	-0.97464913
234	0xbe7ee3ae	-0.2489154
235	0xbe49cf57	-0.19708
236	0xbe8192e7	-0.2530739
237	0xbe91ad57	-0.2845256
238	0x3ea0896b	0.31354842
239	0xbdeef090	-0.116669774
240	0xbf17a8b3	-0.5924179
241	0xbf5ce963	-0.8629362
242	0x3dbe4638	0.09290737
243	0x3f137141	0.57594687
244	0xbe2acbbd	-0.16679282
245	0x3eabbc4e	0.33542103
246	0xbec6d94f	-0.38837668
247	0xbe8c9838	-0.27459884
248	0xbd724997	-0.059152212
249	0xbf137774	-0.57604146
250	0xbf310497	-0.6914763
251	0x3f954508	1.1661692
252	0x3f00178b	0.50035924
253	0xbf110fd1	-0.5666476
254	0x3eb6ce9d	0.35704508
255	0xbe966bb8	-0.29379058

encoder.0.bias f4 [128]
0	0xbdaca221	-0.08429361
1	0xbe82d926	-0.25556296
2	0x3e342d9f	0.17595528
3	0xbf1223ca	-0.5708586
4	0xbe5ebc62	-0.2175155
5	0xbea85510	-0.32877398
6	0xbe2c7d90	-0.16844773
7	0xbf1789e9	-0.5919481
8	0xbf1cff33	-0.61326903
9	0xbed90c1c	-0.4239205
10	0xbeec220f	-0.46119735
11	0xbe9d4224	-0.30714524
12	0xbeb919b7	-0.3615243
13	0xbe8aaaec	-0.27083528
14	0xbf1b339a	-0.6062561
15	0xbb0f9fae	-0.0021915245
16	0xbefcc887	-0.4937174
17	0xbf06e304	-0.5269015
18	0xbee55d40	-0.44797707
19	0xbf2d06e2	-0.6758863
20	0xbf1fd1d7	-0.62429565
21	0xbed65f14	-0.41869414
22	0xbe00712c	-0.12543172
23	0xbe6d4d30	-0.23173976
24	0xbe837698	-0.25676417
25	0xbd67391e	-0.056450956
26	0xbf506bc5	-0.81414443
27	0xbedef6a2	-0.4354754
28	0xbee865b2	-0.45390087
29	0xbe61bff1	-0.22045876
30	0xbf15e16e	-0.58547103
31	0xbe21def3	-0.15807705
32	0xbf26ceeb	-0.6515948
33	0x3e0d944a	0.13826099
34	0xbeb66fe2	-0.35632235
35	0xbf033f97	-0.51268905
36	0xbeea871d	-0.45806208
37	0xbf0876e6	-0.53306425
38	0xbea2e1e7	-0.31812975
39	0xbf06197b	-0.5238263
40	0xbdfd7544	-0.12375882
41	0xbeb456ce	-0.35222477
42	0xbf02f802	-0.5115968
43	0xbf1b4dd8	-0.60665655
44	0xbeb7331e	-0.35781187
45	0xbf1f785d	-0.62293035
46	0xbf492247	-0.7856793
47	0xbef2a15d	-0.47388735
48	0xbe87af29	-0.26500824
49	0xbd8c45c7	-0.068492465
50	0xbef63cd0	-0.4809327
51	0xbf13a069	-0.5766664
52	0xbee039c2	-0.43794066
53	0xbe584a66	-0.21122131
54	0x3c5112ee	0.012760861
55	0xbf0c6af6	-0.5485071
56	0xbf239cea	-0.63911307
57	0xbea16676	-0.31523484
58	0xbf04a1cf	-0.518094
59	0xbf004b60	-0.50115013
60	0xbe89d5cc	-0.26920927
61	0xbe182bf0	-0.14860511
62	0xbf05f944	-0.52333474
63	0xbf0f1cd8	-0.5590339
64	0xbe9934ea	-0.29923183
65	0xbec4fa30	-0.38472128
66	0xbec722dd	-0.38893786
67	0xbed3f0c6	-0.41394633
68	0xbeeff0cb	-0.46863398
69	0xbef6ed16	-0.48227757
70	0xbf312ca3	-0.69208735
71	0xbf4892e2	-0.78349125
72	0xbe07871f	-0.13235138
73	0xbec76933	-0.38947448
74	0xbea75312	-0.32680565
75	0xbef7fed2	-0.484366
76	0xbd091acd	-0.033472825
77	0xbe499468	-0.19685519
78	0x3e5bf6a5	0.21480806
79	0xbf38f630	-0.7225065
80	0xbefc8a61	-0.49324325
81	0xbf361797	-0.71129745
82	0x3e010117	0.12598072
83	0xbeef1142	-0.46692854
84	0xbf031b89	-0.5121389
85	0xbe41802d	-0.18896551
86	0xbed91b95	-0.42403856
87	0xbee973b8	-0.455961
88	0xbf4b1d4e	-0.7934159
89	0xbea76ab7	-0.32698604
90	0xbf0acc64	-0.54218125
91	0xbecf5356	-0.40493268
92	0xbe61dffe	-0.22058102
93	0xbefb68e5	-0.49103466
94	0xbeba2d8c	-0.36362875
95	0xbf159326	-0.58427656
96	0xbe867e12	-0.2626806
97	0xbee69ba2	-0.45040613
98	0xbf1c745f	-0.6111507
99	0xbef80a14	-0.4844519
100	0xbe43a42f	-0.191056
101	0xbf0dfb60	-0.5546169
102	0xbf034dfc	-0.5129087
103	0xbe9166a0	-0.2839861
104	0xbed2cfb5	-0.41174093
105	0xbe9e5123	-0.30921277
106	0xbe8f4a01	-0.27986148
107	0xbdc0be22	-0.09411265
108	0xbf11149c	-0.5667207
109	0xbf05a21a	-0.5220047
110	0xbe71374f	-0.23556255
111	0xbf1479be	-0.57998264
112	0xbee5b8df	-0.44867608
113	0xbe9d923c	-0.3077563
114	0xbefe82b5	-0.49709097
115	0xbec02d6f	-0.37534663
116	0xbedc3144	-0.43006337
117	0xbe5f756e	-0.2182214
118	0xbef23563	-0.47306356
119	0xbf09a1c5	-0.53762466
120	0xbe920fed	-0.28527775
121	0xbe8cb41d	-0.27481166
122	0xbf1c8a79	-0.6114879
123	0xbee106c8	-0.43950486
124	0xbe2c5713	-0.16830091
125	0xbe799e88	-0.24376881
126	0xbecd5e8d	-0.401112
127	0xbee825fa	-0.45341474

encoder.2.weight f4 [128, 128]
0	0xbc5e49c6	-0.013567394
1	0xbefda60f	-0.49540755
2	0x3e6a1d4a	0.22862735
3	0x3f13bc31	0.5770903
4	0x3d74b37d	0.059741486
5	0x3eaf43d3	0.34231433
6	0x3f3a39a7	0.7274422
7	0xbf3105d5	-0.69149524
8	0xbeddad93	-0.4329649
9	0x3f06407c	0.52442145
10	0x3df8536c	0.121252865
11	0xbe804e3e	-0.25059694
12	0xbee82bdc	-0.45345962
13	0x3e894247	0.26808378
14	0xbd6b2f94	-0.05741842
15	0xbd797b69	-0.06090871
16	0x3f2ee876	0.6832346
17	0x3edf5ddd	0.436263
18	0xc00043e5	-2.004144
19	0x3f4e3901	0.8055573
20	0xbb8de2fe	-0.004330038
21	0x3dc9d589	0.09855182
22	0xbe37a107	-0.17932521
23	0xbe74cb56	-0.23905692
24	0x3e0030d4	0.12518626
25	0xbd9c6886	-0.07637124
26	0xbe663759	-0.22482051
27	0x3e3c1f73	0.18371372
28	0x3ea48bee	0.32138008
29	0xbf1db695	-0.61606723
30	0xbeaefb5f	-0.34176156
31	0x3f0f444b	0.5596358
32	0xbe2470e6	-0.16058692
33	0x3e32771c	0.17428249
34	0xbdb75325	-0.089514054
35	0x3e222f31	0.15838315
36	0x3e4b65ec	0.19863099
37	0xbf2cb7a9	-0.67467743
38	0xbf90f525	-1.1324812
39	0xbf82a324	-1.0206037
40	0xbe7b5640	-0.2454462
41	0x3ca8db1f	0.020612298
42	0x3ec37eb2	0.38182598
43	0xbef17da9	-0.47166184
44	0xbe460046	-0.19336042
45	0x3f2cd741	0.6751595
46	0xbe0e7080	-0.13910103
47	0xbef5da1c	-0.48017967
48	0x3f52fc61	0.8241635
49	0x3ed3af2e	0.4134459
50	0x3eda7088	0.4266398
51	0x3e3c87c5	0.18411167
52	0x3d208ae2	0.03919495
53	0x3d846cb4	0.06466046
54	0xbe2b9ef9	-0.16759862
55	0x3eabef51	0.3358102
56	0x3f8b8bee	1.0902078
57	0x3baeb112	0.005331167
58	0x3e87ae43	0.2650014
59	0xbed522ef	-0.41628215
60	0x3f12ea87	0.5738911
61	0xbe1c06ab	-0.15236919
62	0xbf1618ca	-0.58631575
63	0xbed0d168	-0.40784764
64	0xbe800d6a	-0.25010234
65	0x3db0763c	0.086163014
66	0x3f131482	0.5745317
67	0x3eb2429d	0.34816447
68	0xbee5aa73	-0.44856605
69	0x3efe39b3	0.49653396
70	0x3fafef1a	1.3744843
71	0x3f13cfd8	0.5773902
72	0xbe28c608	-0.16481793
73	0xbe932aaf	-0.28743502
74	0xbedc1cf8	-0.4299085
75	0x3dc0142a	0.09378846
76	0x3eea3c94	0.45749342
77	0xbe88fb03	-0.26754007
78	0x3f3170c4	0.6931269
79	0xbf0aade5	-0.5417159
80	0x3dacfc39	0.08446545
81	0x3e8b67f5	0.2722775
82	0xbe8c80e7	-0.27442095
83	0x3f4be52c	0.79646564
84	0x3e55fd07	0.20897304
85	0x3e858ce6	0.2608406
86	0xbe9a2563	-0.3010665
87	0xbd31a2cb	-0.043368142
88	0x3f300bde	0.6876811
89	0xbe7406af	-0.23830675
90	0xbeaa34c9	-0.33243397
91	0xbf96d97a	-1.1785119
92	0x3e971784	0.29510128
93	0x3ef4321e	0.47694486
94	0x3eb59b99	0.35470274
95	0xbf161ad2	-0.58634675
96	0x3edbe6a5	0.42949405
97	0xbe0b2a12	-0.13590267
98	0x3ee6ad05	0.45053878
99	0xbee66f24	-0.4500667
100	0xbe069c4e	-0.13145563
101	0xbf2851c6	-0.65749776
102	0x3f03b44e	0.51447
103	0x3f014ed4	0.5051091
104	0xbebddb08	-0.3708117
105	0xbeba36fc	-0.36370075
106	0xbe5acc78	-0.21367061
107	0x3dc075eb	0.09397491
108	0xbec30d7c	-0.38096225
109	0xbf583253	-0.8445179
110	0x3db54b64	0.0885227
111	0x3e1784a4	0.14796692
112	0xbe0e828d	-0.13916989
113	0x3eb55803	0.3541871
114	0x3e442dd2	0.19158104
115	0x3eecf1cf	0.46278235
116	0x3f493121	0.7859059
117	0x3d692aa5	0.056925435
118	0xbed86949	-0.42267826
119	0x3f4f31d7	0.80935425
120	0xbd38af3d	-0.045088995
121	0xbdb932f3	-0.09042921
122	0x3e91f879	0.28509882
123	0x3e16efff	0.14739989
124	0xbc36762d	-0.011136574
125	0x3ea9904d	0.33117905
126	0x3eb30581	0.34965137
127	0xbdb75aa0	-0.08952832
128	0xbd5d42f8	-0.054018945
129	0x3eb2843c	0.34866512
130	0xbcefc023	-0.029266423
131	0x3f75047a	0.95709956
132	0x3eae6457	0.34060928
133	0xbdc7c4ed	-0.097543575
134	0xbe23c97a	-0.15994826
135	0x3e85a3a3	0.26101407
136	0xbe9e5097	-0.3092086
137	0x3dd98f2d	0.10623012
138	0xbece865f	-0.40336892
139	0x3e30ff3a	0.17284861
140	0xbecfd25f	-0.40590188
141	0xbe50618b	-0.2034971
142	0xbd836c6c	-0.06417164
143	0xbe058199	-0.13037719
144	0xbf32ca1a	-0.6983963
145	0xbeb3770c	-0.35051763
146	0xbf5f4343	-0.8721201
147	0xbf89b9fb	-1.0759882
148	0xbf0605a8	-0.5235238
149	0xbe90be53	-0.28270206
150	0x3f117117	0.56813186
151	0x3f0d9cad	0.55317193
152	0x3df3789a	0.11888237
153	0xbe8ddd83	-0.27708063
154	0xbe1ab183	-0.15106778
155	0xbe877c3b	-0.26461968
156	0xbe9168f4	-0.28400385
157	0x3f2f8dd9	0.6857582
158	0xbf08fe5d	-0.5351313
159	0x3ea8ecf8	0.32993293
160	0x3f985011	1.1899434
161	0xbe769beb	-0.24082915
162	0x3ec82e62	0.39097887
163	0xbe75974b	-0.23983495
164	0x3f846441	1.0343095
165	0x3ec7be52	0.3901239
166	0xbf22141f	-0.6331195
167	0xbf4061bd	-0.75149137
168	0xbd5e935f	-0.054339763
169	0x3e8820cb	0.2658752
170	0xbf41ec24	-0.75750947
171	0x3ec09b79	0.37618616
172	0xbde90434	-0.11377755
173	0x3e5f39d5	0.21799405
174	0x3f08a1fe	0.5337218
175	0xbdcffb0a	-0.10155304
176	0xbce052c9	-0.027383225
177	0x3ce282eb	0.027650317
178	0xbbd23467	-0.0064149383
179	0xbc4683a1	-0.012116344
180	0xbe56630b	-0.2093622
181	0x3f00ab32	0.50261223
182	0x3e20ff8d	0.15722485
183	0x3ede5ab2	0.4342857
184	0x3f23cb27	0.6398186
185	0x3d303789	0.043021712
186	0x3dad5ada	0.08464594
187	0x3e5477f3	0.20748882
188	0x3e2c57e4	0.16830403
189	0x3e7bad81	0.24577905
190	0x3efd4943	0.49469957
191	0xbd570b0b	-0.052500766
192	0xbe25704b	-0.16156118
193	0x3e6cd907	0.23129664
194	0x3f35e0be	0.71046054
195	0x3efe6253	0.4968439
196	0x3db300e6	0.08740406
197	0x3f602302	0.8755342
198	0x3edb2164	0.42798913
199	0x3f32d5cb	0.6985747
200	0xbda873c5	-0.08225206
201	0x3f058ab3	0.52164763
202	0x3f88c22c	1.0684257
203	0xbedd6a86	-0.43245333
204	0x3e245866	0.16049346
205	0x3ebc3f3d	0.36766997
206	0xbe358ee9	-0.17730297
207	0xbe246802	-0.16055301
208	0xbe9b3562	-0.30314165
209	0xbf493798	-0.78600454
210	0x3ee3cbee	0.44491524
211	0x3e83265d	0.25615206
212	0x3eaefb49	0.3417609
213	0xbcc0a140	-0.02351439
214	0xbe19ccc5	-0.1501952
215	0xbebfb6c6	-0.37444133
216	0xbf01ed06	-0.50752294
217	0xbf760afc	-0.9611051
218	0xbf03438a	-0.5127493
219	0x3d865560	0.06559253
220	0xbf236cb6	-0.63837755
221	0x3e94f3a9	0.29092148
222	0xbd2eb048	-0.042648584
223	0xbdc2f93b	-0.09520193
224	0x3ea18e63	0.31553945
225	0x3f43fff9	0.7656246
226	0x3f6b0ab7	0.91813225
227	0x3c03e42c	0.008050006
228	0x3e417cc2	0.18895248
229	0x3e9dd32e	0.3082518
230	0xbf672ac5	-0.90299636
231	0x3d522c19	0.051311586
232	0xbc93720e	-0.017998721
233	0xbe175431	-0.1477821
234	0xbe1d7703	-0.1537743
235	0xbe5a4281	-0.21314432
236	0xbdd7bbf9	-0.105339
237	0x3f676c3c	0.9039953
238	0xbf460235	-0.7734712
239	0x3d8a2764	0.067457944
240	0xbe8e00bc	-0.27734935
241	0xbf326475	-0.69684535
242	0xbe940c9d	-0.28915873
243	0xbee6b650	-0.45060968
244	0xbe93640b	-0.28787264
245	0x3f45600a	0.7709967
246	0x3e1cc4f9	0.15309514
247	0xbe601a60	-0.21885061
248	0x3e9f345f	0.31094643
249	0x3f74f43e	0.95685184
250	0x3e938dae	0.2881903
251	0x3e248525	0.16066416
252	0x3e062c0e	0.13102743
253	0xbc767cec	-0.015044432
254	0xbe38b0e2	-0.18036225
255	0x3d3d8ade	0.046275012

encoder.2.bias f4 [128]
0	0xbf17faf7	-0.59367317
1	0xbe411196	-0.18854365
2	0xbd1f40fd	-0.038880337
3	0x3d662ac1	0.056193117
4	0xbeb5ce3f	-0.35508916
5	0x3e8e40df	0.27783868
6	0xbdf9a4c8	-0.12189633
7	0x3d501b82	0.050807483
8	0x3f214857	0.63001007
9	0x3e4963b7	0.19666944
10	0xbed2c475	-0.4116551
11	0x3eccf3aa	0.4002965
12	0x3e1d5e27	0.15367948
13	0xbe3cf084	-0.18451124
14	0x3e4a8918	0.1977886
15	0x3d88ed14	0.06685844
16	0xbe8fdf05	-0.28099838
17	0x3ea865fc	0.32890308
18	0x3f0376e4	0.5135329
19	0x3dfe133d	0.12406013
20	0xbe098de6	-0.13433036
21	0xbded76aa	-0.11594899
22	0x3e95f15a	0.292857
23	0xbdee2313	-0.116277836
24	0xbcb143c8	-0.021638766
25	0x3df99b04	0.1218777
26	0x3ea6e1f6	0.3259427
27	0xbe18680a	-0.14883438
28	0xbe44a5e3	-0.19203906
29	0xbe444a68	-0.19169009
30	0x3d30f135	0.043198783
31	0xbe166189	-0.14685644
32	0xbed9ccea	-0.4253915
33	0xbdc5ed6e	-0.09664427
34	0xbe54bc70	-0.20775008
35	0xbd2e050c	-0.04248528
36	0xbd8cb77e	-0.06870936
37	0xbeb341b7	-0.35011074
38	0xbe89ab0e	-0.26888317
39	0xbe9628da	-0.29328042
40	0xbe8ae9ad	-0.27131405
41	0xbf079653	-0.5296375
42	0x3dd586d3	0.10426106
43	0x3eb9ba9a	0.36275178
44	0x3f6ce4af	0.92536443
45	0xbd8a1e1b	-0.067440234
46	0xbdc9d197	-0.09854429
47	0x3eba769d	0.3641862
48	0xbf38f752	-0.7225238
49	0x3ee97838	0.45599532
50	0xbe1623a6	-0.14662036
51	0xbd9428aa	-0.072343186
52	0xbecffc3a	-0.4062212
53	0x3b076f99	0.0020665883
54	0xbc97745c	-0.018488102
55	0xbeddf9fb	-0.43354782
56	0xbed02ae6	-0.4065773
57	0xbed2eeed	-0.4119791
58	0x3e56768b	0.20943658
59	0xbe5f0332	-0.21778563
60	0xbf1229a0	-0.57094765
61	0x3ed21820	0.4103403
62	0x3f037be9	0.51360947
63	0xbd837540	-0.06418848
64	0xbdf15f6c	-0.117857784
65	0x3e54607f	0.20739935
66	0xbdddf985	-0.10838608
67	0x3f15e3fd	0.5855101
68	0xbeaa9245	-0.3331472
69	0xbeaaf551	-0.33390287
70	0xbe2805e3	-0.16408496
71	0x3edb7bb2	0.4286781
72	0xbd3184e6	-0.043339632
73	0x3e9ed753	0.31023654
74	0xbdbb3319	-0.091406055
75	0x3e6ca34c	0.23109168
76	0xbc5ef725	-0.013608729
77	0x3eb6a8d1	0.35675672
78	0x3e8eb823	0.2787486
79	0xbe920d20	-0.2852564
80	0x3dff754a	0.12473543
81	0xbdf446ac	-0.11927542
82	0x3d647a3e	0.05578064
83	0xbebcc268	-0.3686707
84	0x3e132497	0.14369427
85	0xbe6e43ea	-0.23268095
86	0x3e691c13	0.22764616
87	0x3d0d9462	0.034565337
88	0xbf4c3ed5	-0.79783374
89	0x3e187e14	0.14891845
90	0x3e8fb4e5	0.280677
91	0xbe40e9db	-0.18839209
92	0xbef68a88	-0.48152566
93	0xbe6b2d13	-0.22966413
94	0x3d948d57	0.07253521
95	0x3dd2ab6b	0.10286602
96	0xbe055a56	-0.13022742
97	0x3e129dcf	0.14318012
98	0x3dcb5838	0.09928936
99	0xbd8b1999	-0.06791992
100	0xbe195db2	-0.14977148
101	0x3dff87ea	0.124770954
102	0xbecd7ccf	-0.40134284
103	0x3eba9ddb	0.3644856
104	0xbe1e587b	-0.1546344
105	0xbe02d019	-0.12774695
106	0xbdff21c4	-0.12457612
107	0xbe0108cc	-0.12601012
108	0xbd1ae153	-0.037812542
109	0xbd0d5c94	-0.034512118
110	0x3e0b2b6c	0.13590783
111	0xbd2987b6	-0.04138919
112	0xbda8ff09	-0.08251769
113	0x3badf1c2	0.005308361
114	0xbf067a76	-0.5253061
115	0xbdd97000	-0.106170654
116	0xbd986183	-0.07440474
117	0xbe368b11	-0.17826487
118	0xbdfc4eff	-0.12319755
119	0x3cfe7368	0.03106089
120	0x3e4c8b2d	0.19974966
121	0xbdf67d81	-0.12035657
122	0xbd101dc3	-0.035184633
123	0x3e37fb00	0.17966843
124	0x3eac6bec	0.33676088
125	0x3e30a0ac	0.17248791
126	0xbe2d776d	-0.16940089
127	0xbed9ea6d	-0.42561665

gnn_0.bias f4 [128]
0	0xbef07325	-0.46962848
1	0xbe8f0e44	-0.2794057
2	0xbe28bfb9	-0.16479386
3	0xbf124e7a	-0.57150996
4	0xbd9b668e	-0.0758792
5	0xbea09434	-0.3136307
6	0x3dbdac9a	0.09261437
7	0xbf3685d2	-0.71297944
8	0xbf8a05df	-1.0783042
9	0xbed4605d	-0.4147977
10	0xbf900364	-1.1251035
11	0xbf01ac69	-0.506537
12	0xbec1c79b	-0.378476
13	0xbf0fce31	-0.56174
14	0xbf582856	-0.8443655
15	0xbe048854	-0.1294263
16	0x3c26bae1	0.010176391
17	0xbf08b3d6	-0.5339941
18	0xbfe4da53	-1.7879127
19	0x3e274c97	0.1633781
20	0xbeac149e	-0.3360948
21	0xbf46700c	-0.7751472
22	0xbf351ae0	-0.70744133
23	0xbedad330	-0.42739248
24	0xbe95ce60	-0.29259014
25	0xbf0ed426	-0.5579246
26	0xbe64be0d	-0.22338124
27	0xbef94650	-0.48686457
28	0xbed55720	-0.41668034
29	0xbf4d512a	-0.8020197
30	0xbe1cd602	-0.15316013
31	0xbf0df876	-0.55457246
32	0xbf33f857	-0.7030081
33	0xbf1e3399	-0.6179748
34	0xbf269e08	-0.65084887
35	0xbe81b1ca	-0.25330955
36	0x3e9362de	0.28786367
37	0xbf9727a2	-1.180897
38	0xbdb6947e	-0.089150414
39	0xbf13e3e9	-0.5776964
40	0xbedbd018	-0.429322
41	0xbf6e77df	-0.9315166
42	0xbef562a7	-0.47926828
43	0x3e849a5f	0.25899026
44	0xbcf764ed	-0.030199492
45	0xbe3f5e60	-0.18688345
46	0xbf8bb015	-1.0913111
47	0xbf270eb2	-0.652568
48	0xbf51a95d	-0.8189905
49	0xbedb246e	-0.4280123
50	0xbed8edd3	-0.42368945
51	0xbda49535	-0.080362715
52	0xbf117c79	-0.56830555
53	0xbedc0cae	-0.42978424
54	0xbf6fe3c1	-0.937069
55	0xbeec18f9	-0.46112803
56	0xbed15bc9	-0.4089034
57	0xbe939ede	-0.28832144
58	0xbf8a3a7f	-1.0799102
59	0xbf84fa93	-1.0388969
60	0xbf1dce08	-0.61642504
61	0xbf39e980	-0.7262192
62	0xbeb94326	-0.36184043
63	0xbe3e5001	-0.18585207
64	0xbddf75f3	-0.10911169
65	0xbda0f14f	-0.07858526
66	0xbed2a731	-0.41143182
67	0xbeae647c	-0.34061038
68	0xbf63275e	-0.88731945
69	0xbf606ce0	-0.8766613
70	0xbe45906e	-0.19293377
71	0xbeda6ef7	-0.42662784
72	0xbee45b56	-0.44600934
73	0xbf809064	-1.0044065
74	0xbe20d43a	-0.15705958
75	0xbe826764	-0.25469506
76	0xbd853937	-0.065050535
77	0xbf05f541	-0.5232735
78	0xbf615785	-0.8802417
79	0x3dff1fbe	0.12457226
80	0xbf16c5c5	-0.5889552
81	0x3ea49e3a	0.32151967
82	0x3d5a5d59	0.05331168
83	0xbf235a47	-0.6380963
84	0xbe6294f2	-0.2212713
85	0xbd97d424	-0.074135095
86	0xbf5d8bc9	-0.8654142
87	0x3e239f04	0.15978628
88	0xbf2adedf	-0.66746324
89	0x3d47f55f	0.04881799
90	0xbf25b2dc	-0.6472604
91	0xbeb4f0ff	-0.35340115
92	0x3db804f4	0.0898532
93	0xbecbfe35	-0.39842382
94	0xbdadce64	-0.084866315
95	0xbf7964df	-0.9741954
96	0xbecfbec7	-0.4057524
97	0xbf0656e9	-0.52476364
98	0xbd023187	-0.031785514
99	0xbeedd590	-0.46451998
100	0xbf08a703	-0.5337984
101	0xbef10e61	-0.47081283
102	0x3d9fdba1	0.07805563
103	0xbf060f7b	-0.5236737
104	0xbf40d350	-0.7532244
105	0xbf125717	-0.5716414
106	0xbe346baf	-0.17619203
107	0xbf98c6a9	-1.1935626
108	0xbf01edd8	-0.50753546
109	0xbf1c7cb1	-0.61127764
110	0xbef6808e	-0.48144954
111	0x3d0202bd	0.031740893
112	0xbec8ae55	-0.39195505
113	0xbf5de80b	-0.86682194
114	0xbf767e1d	-0.96286184
115	0x3c7dafe5	0.015483831
116	0xbd7fa816	-0.06241616
117	0xbea5d5b1	-0.32389596
118	0xbe4340d1	-0.19067694
119	0xbefd14fc	-0.49430072
120	0xbeee961a	-0.46598893
121	0xbf4a5432	-0.7903472
122	0xbc4c027b	-0.012451763
123	0xbe9d345c	-0.3070401
124	0xbe6cc97e	-0.23123738
125	0xbf1df60f	-0.6170358
126	0xbf5efffd	-0.8710936
127	0xbf661444	-0.8987467

gnn_0.lin.weight f4 [128, 128]
0	0xbf03c433	-0.5147125
1	0xbd72f9cf	-0.059320267
2	0xbf732554	-0.94978833
3	0xbf06c3f2	-0.5264274
4	0x3f035f2b	0.5131709
5	0xbf185fce	-0.59521186
6	0x3e888eb3	0.2667137
7	0xbe3d2237	-0.18470083
8	0x3ddad16d	0.10684476
9	0x3dcfdbcd	0.101493455
10	0xbe5bc518	-0.21461904
11	0xbee040a7	-0.43799326
12	0x3e964da4	0.2935611
13	0x3d21d15b	0.039506298
14	0x3ca5e721	0.020251812
15	0xbf126635	-0.57187206
16	0x3eb57ab0	0.35445166
17	0x3d980d87	0.07424455
18	0x3d78bb6a	0.060725607
19	0x3f1195d4	0.56869245
20	0xbe670371	-0.22559907
21	0x3c8e7a72	0.01739237
22	0xbecea21d	-0.40358058
23	0xbbdf9365	-0.0068229907
24	0x3ed8d039	0.4234636
25	0xbdde4330	-0.10852659
26	0x3e70c26e	0.23511669
27	0xbed5db63	-0.4176894
28	0xbdf8ba86	-0.121449515
29	0x3eb10c89	0.34579876
30	0xbbb293f5	-0.0054497668
31	0x3d2c9e76	0.042143308
32	0x3df025a8	0.11725932
33	0x3cbbb0ed	0.022911513
34	0x3ea2c4ed	0.31790867
35	0x3ec2c977	0.3804433
36	0xbcda1639	-0.026621925
37	0x3de2bc04	0.110710174
38	0xbc9f5e99	-0.019454287
39	0x3e87a141	0.26490214
40	0x3ecabf6d	0.3959917
41	0xbdb3642f	-0.08759343
42	0x3d016c62	0.031597503
43	0x3daa6f8d	0.08322058
44	0xbe9fe593	-0.3122984
45	0x3d82f1b0	0.063937545
46	0xbe75e509	-0.24013151
47	0xbe2dd54d	-0.16975899
48	0x3cf6f8f5	0.030148009
49	0xbc80ff5e	-0.015746769
50	0x3f188a67	0.59586185
51	0x3cf4488f	0.029819755
52	0x3e9d7690	0.30754519
53	0x3e8ab5b2	0.27091748
54	0xba2b8821	-0.0006543417
55	0xbe0a3d31	-0.13499905
56	0xbd9b2708	-0.07575804
57	0x3e40c5f7	0.18825518
58	0xbe6a48ac	-0.22879285
59	0xbd71402d	-0.058899093
60	0x3efe617b	0.49683747
61	0x3f42651a	0.7593552
62	0xbd7db0fc	-0.061936364
63	0x3d5b6790	0.05356556
64	0x3e898dd5	0.26866022
65	0x3de29f8e	0.11065589
66	0xbc293fc5	-0.010330145
67	0x3e1119fe	0.14170071
68	0xbf1771b6	-0.59157884
69	0xbecc1968	-0.39863133
70	0x3d4997ea	0.049217142
71	0x3d23265c	0.039831504
72	0xbe9363e3	-0.28787145
73	0xbe038034	-0.12841874
74	0x3f605b4a	0.87639296
75	0xbd5dca37	-0.054147925
76	0xbb6ceb99	-0.003615117
77	0xbee25d11	-0.4421163
78	0x3efc1200	0.49232483
79	0xbd8d4d68	-0.0689953
80	0xbd7b55a1	-0.06136096
81	0x3f1206a4	0.5704138
82	0xbeebf2c6	-0.4608366
83	0xbf28eec5	-0.65989333
84	0x3d9cdf7c	0.07659814
85	0x3e85ee43	0.26158342
86	0xbe5bf67c	-0.21480745
87	0xbeac0e94	-0.33604872
88	0xbdd087f7	-0.10182183
89	0xbea74f04	-0.32677472
90	0xbe0ecc13	-0.13945036
91	0x3e57a73b	0.21059887
92	0xbf141bb4	-0.5785477
93	0x3f06b25e	0.52615917
94	0xbef0bfe9	-0.47021416
95	0x3f0e2442	0.55524075
96	0x3eb3b866	0.35101622
97	0x3ebf3073	0.3734165
98	0xbf071023	-0.52759
99	0xbd0f7fd4	-0.035034016
100	0x3f3fecdb	0.7497079
101	0xbd87492b	-0.066057526
102	0x3de80c1d	0.113304354
103	0x3e6a1e91	0.22863223
104	0x3ed86467	0.422641
105	0x3edd4cff	0.43222806
106	0xbed2c80b	-0.41168246
107	0x3d661d3d	0.056180228
108	0x3fa14d57	1.2601727
109	0x3e5c51cc	0.21515578
110	0xbe65d738	-0.2244538
111	0xbcba96d2	-0.022776995
112	0x3f5d6a0e	0.8648995
113	0xbede012b	-0.43360266
114	0x3f76aa52	0.9635364
115	0xbe6c384b	-0.23068349
116	0xbdcf4ace	-0.1012169
117	0xbd37ef03	-0.044905674
118	0x3dde1454	0.10843721
119	0x3e2e0114	0.16992599
120	0x3eb35cd4	0.3503176
121	0xbec468ba	-0.3836115
122	0x3d7506ac	0.059820816
123	0x3d393f1c	0.0452262
124	0xbd4d5a4b	-0.05013494
125	0x3d8216a4	0.063519746
126	0xbd46b65e	-0.048513763
127	0x3d180471	0.03711361
128	0xbda67c3b	-0.08129164
129	0xbc16c56d	-0.009202343
130	0xbb516e1b	-0.0031956497
131	0x3d211729	0.039328728
132	0x3e1d146c	0.15339822
133	0xbd9bfc4f	-0.076164834
134	0xbdd8920f	-0.105747335
135	0x3d26ea80	0.04075098
136	0xbd58a5e1	-0.05289257
137	0x3cd9b166	0.026573848
138	0xbdc39c32	-0.09551276
139	0xbe1aa866	-0.15103301
140	0xbcc69a00	-0.024243355
141	0x3d9dcebe	0.077054486
142	0xbb276d2e	-0.0025547254
143	0xbe3a0827	-0.18167172
144	0x3d30ac07	0.043132808
145	0x3dbe0f8b	0.09280308
146	0xbcde202a	-0.027114946
147	0x3be383d1	0.006943204
148	0xbddfeccb	-0.109338365
149	0xbc64365b	-0.013928975
150	0x3d173507	0.036915805
151	0xbd816ad4	-0.06319204
152	0xbd0c89e1	-0.03431118
153	0x3e1468cf	0.14493106
154	0xbbce703d	-0.006300001
155	0x3d8b1d36	0.06792681
156	0xbd9f3e25	-0.07775525
157	0xbdc9a540	-0.09845972
158	0x3e22b566	0.1588951
159	0xbe615bfc	-0.22007746
160	0x3af2f5e2	0.0018536414
161	0xbe0bb4db	-0.1364321
162	0x3dc211aa	0.094760254
163	0xbe4e8b25	-0.20170267
164	0xbcee5e2f	-0.029097645
165	0x3e1b3918	0.15158498
166	0x3daa8f3b	0.083281
167	0x3e395aeb	0.18101089
168	0xbdea5556	-0.11442058
169	0x3df7d6dc	0.12101528
170	0x3ddb5410	0.10709393
171	0x3e432aee	0.19059345
172	0x3d5f178d	0.05446582
173	0x3d3a16bc	0.045431837
174	0x3d9f71d9	0.077853866
175	0xbde07f31	-0.1096176
176	0x3e3cbda2	0.18431714
177	0xbe34cf50	-0.17657208
178	0x3d0e3f5a	0.034728386
179	0xbbdd004d	-0.0067444206
180	0xbdd7f251	-0.10544265
181	0x3dac67bc	0.08418223
182	0x3e2da065	0.16955717
183	0xbce2345e	-0.027612861
184	0xbcddd128	-0.027077273
185	0x3d5c8e2d	0.053846527
186	0xbc4b2c77	-0.012400738
187	0x3d9e81a8	0.07739574
188	0x3e5fef27	0.21868573
189	0xbd7b1c23	-0.06130613
190	0xbcc71615	-0.024302522
191	0x3e8b2cfd	0.2718276
192	0xbd1dd67e	-0.038534634
193	0x3dfde6b8	0.12397522
194	0x3b9fbf44	0.0048750956
195	0xbe3f3f50	-0.18676496
196	0xbdd35945	-0.10319761
197	0xbe670896	-0.22561869
198	0x3c4e9287	0.012608177
199	0x3d7a0c90	0.061047137
200	0x3cf637c8	0.030055895
201	0xbd2c514b	-0.042069715
202	0xbe0c7947	-0.13718139
203	0xbe2a3936	-0.16623387
204	0xbe168026	-0.14697322
205	0xbd307cf9	-0.043087933
206	0x3e26554b	0.16243474
207	0xbe0917aa	-0.13387933
208	0x3dc2ef52	0.09518303
209	0x3d6ca1d5	0.057771523
210	0x3c5f290b	0.013620625
211	0xbd863114	-0.0655233
212	0x3e5be7e0	0.21475172
213	0x3e10a5f4	0.14125806
214	0xbe4207be	-0.18948266
215	0xbd801c5b	-0.062554084
216	0xbe3024af	-0.17201494
217	0xbd59f93a	-0.053216197
218	0x3cf6347b	0.030054322
219	0x3e3e37e2	0.18576005
220	0xbd46d897	-0.0485464
221	0x3dc4f12c	0.096163124
222	0xbc367acc	-0.0111376755
223	0x3e77dd0e	0.2420542
224	0x3e407187	0.18793307
225	0xbc453956	-0.012037596
226	0x3e48d32e	0.19611809
227	0x3d978c9c	0.07399866
228	0xbc76599d	-0.015036014
229	0x3d2dda2b	0.04244439
230	0x3d6fdffa	0.05856321
231	0x3cb97e9a	0.022643376
232	0xbe54480b	-0.20730607
233	0xbd3092c0	-0.0431087
234	0xbd4ae299	-0.049532507
235	0xbd84e1d7	-0.06488388
236	0x3eab1d42	0.3342076
237	0xbe02cbb7	-0.12773024
238	0x3d8ee618	0.06977481
239	0xbd5bc511	-0.053654734
240	0x3b040546	0.0020144745
241	0x3ccb8c6b	0.02484723
242	0x3e33f483	0.17573743
243	0x3d7a3af1	0.061091367
244	0xbcf8d5c5	-0.03037537
245	0xbda1028d	-0.07861815
246	0x3de01727	0.10941916
247	0xbe17b711	-0.14815928
248	0xbd2214e7	-0.039570715
249	0x3e004caa	0.12529245
250	0x3c86410f	0.016388444
251	0x3d9c49da	0.076312736
252	0xbe59e052	-0.21276978
253	0xbdcc29e3	-0.09968927
254	0x3d32c754	0.043647125
255	0x3da3f3ef	0.08005511

gnn_1.bias f4 [128]
0	0x3ef0799f	0.4696779
1	0x3ee4ff43	0.44726
2	0xbf12478b	-0.57140416
3	0xbf048e06	-0.5177921
4	0xbe1034ea	-0.14082685
5	0xbedb73ce	-0.4286179
6	0x3ef0083e	0.46881288
7	0xbf67ea67	-0.90592045
8	0xbf1b4ef5	-0.60667354
9	0xbf3bf7e6	-0.7342514
10	0xbd3b7a1e	-0.045770757
11	0x3f021b28	0.5082269
12	0xbf06d10d	-0.52662736
13	0xbe4338b0	-0.19064593
14	0xbf519e77	-0.81882423
15	0x3f59c153	0.85060614
16	0xbed505d3	-0.41606006
17	0xbe868e84	-0.26280606
18	0x3e6875df	0.22701214
19	0x3f46df70	0.7768469
20	0xbf576ccd	-0.8415039
21	0x3dd6c341	0.104864605
22	0xbe1e3400	-0.15449524
23	0x3f57d73b	0.8431279
24	0x3f4ab80c	0.79187083
25	0xbe4f9ac2	-0.20273879
26	0xbe206daa	-0.15666834
27	0x3e25aedc	0.16179985
28	0xbe372e89	-0.17888846
29	0xbeaf5be3	-0.34249792
30	0xbea9d225	-0.3316814
31	0xbeed3c56	-0.46335095
32	0xbe10ea5b	-0.141519
33	0x3cefedac	0.029288135
34	0xbeb9a2a7	-0.36256906
35	0xbf0c683a	-0.5484654
36	0xbc324367	-0.010880328
37	0xbea631d1	-0.32459882
38	0x3ef859d0	0.48506021
39	0xbf099771	-0.53746706
40	0x3da1d41f	0.07901787
41	0xbe9cc5e7	-0.30619738
42	0xbeff79b0	-0.49897528
43	0x3cc88e3c	0.024481885
44	0xbf8800ee	-1.0625284
45	0x3ebfe2d6	0.3747775
46	0x3f228db8	0.63497496
47	0x3e01244b	0.12611501
48	0xbe405a56	-0.1878446
49	0x3cfe0a9e	0.031010922
50	0xbef52519	-0.47879866
51	0xba86ac23	-0.0010274689
52	0x3e137644	0.14400584
53	0x3ee9ba34	0.45649874
54	0xbf025ff2	-0.5092765
55	0x3dc8c6c7	0.09803539
56	0xbdf58acf	-0.11989366
57	0xbf4a7997	-0.7909178
58	0xbecb26b4	-0.39677966
59	0xbe118f35	-0.14214785
60	0xbe85dca6	-0.26144904
61	0x3e51064c	0.20412558
62	0xbf208c21	-0.6271382
63	0x3dd677cf	0.104720704
64	0xbf66a216	-0.90091074
65	0x3e41ce11	0.18926264
66	0xbf4f6107	-0.81007427
67	0xbf1b27a2	-0.6060735
68	0x3e99ff92	0.30077797
69	0x3d8bcebd	0.068265416
70	0x3f8b1be5	1.0867888
71	0xbf01660d	-0.5054634
72	0xbb2d016f	-0.002639856
73	0x3cbbd7b0	0.022929996
74	0x3f11d44a	0.5696455
75	0xbe222dc7	-0.15837775
76	0xbe9c39d1	-0.3051286
77	0xbf343d6d	-0.7040623
78	0xbe74de06	-0.2391282
79	0x3d8e6591	0.06952966
80	0xbe5d1e96	-0.21593699
81	0xbf143972	-0.57900155
82	0x3f6a9e8b	0.9164817
83	0xbe9cf566	-0.30655974
84	0xbf0ad080	-0.54224396
85	0xbe1406c2	-0.14455703
86	0x3f9895d6	1.1920726
87	0xbf2a223d	-0.66458493
88	0x3f18fbdd	0.5975931
89	0x3d425111	0.047440592
90	0xbeb92954	-0.36164343
91	0xbe685af8	-0.22690952
92	0x3f06ee3b	0.5270726
93	0x3eeb8b9c	0.4600495
94	0xbdf4d2fe	-0.11954306
95	0xbe2a1b9e	-0.16612098
96	0x3db4b9d3	0.08824506
97	0xbf529913	-0.8226482
98	0xbe82d357	-0.25551865
99	0x3ee58fe3	0.4483634
100	0xbf28ffe6	-0.6601547
101	0xbf100bde	-0.5626811
102	0xbe6300e1	-0.22168304
103	0xbe5e3443	-0.21699624
104	0xbf1c8d40	-0.6115303
105	0xbf524b0e	-0.82145774
106	0xbe14a9c1	-0.14517881
107	0xbf50ca1e	-0.81558406
108	0xbee17b0f	-0.440392
109	0xbe29eeb0	-0.16594958
110	0x3f43c133	0.76466674
111	0x3f26e4e0	0.65192986
112	0xbe5cd24e	-0.215646
113	0x3e9facab	0.31186423
114	0xbeea6773	-0.4578205
115	0xbe869518	-0.26285625
116	0x3e2ce747	0.168851
117	0xbe963a61	-0.29341415
118	0xbe871adc	-0.2638768
119	0xbf4b214c	-0.7934768
120	0x3ed215d8	0.4103229
121	0xbf1ac6b7	-0.60459465
122	0x3eba4a63	0.36384878
123	0xbe4f448e	-0.20240995
124	0xbe2f8877	-0.17141901
125	0xbd000625	-0.03125586
126	0xbf06bb35	-0.52629405
127	0x3ebf45a7	0.37357828

gnn_1.lin.weight f4 [128, 128]
0	0x3e313c51	0.17308165
1	0xbd83fd15	-0.06444756
2	0x3edb6976	0.42853898
3	0x3e1e3051	0.15448119
4	0xbeaaad70	-0.33335447
5	0xbf5f426c	-0.87210727
6	0x3c58e938	0.013239197
7	0x3db4c492	0.08826555
8	0xbf1d3e0c	-0.614228
9	0xbefc08c1	-0.4922543
10	0xbd7f5677	-0.06233832
11	0xbe2318ea	-0.15927473
12	0x3ea58b7a	0.32332975
13	0x3eaabd9f	0.33347794
14	0x3ea4056c	0.32035387
15	0xbdeb0dab	-0.11477216
16	0xbeac0d44	-0.3360387
17	0x3e0a1c52	0.13487366
18	0x3eb62049	0.35571507
19	0x3ec671b0	0.38758612
20	0xbad7df67	-0.0016469777
21	0x3e92f81f	0.28704926
22	0x3db6a63f	0.08918428
23	0xbd72d635	-0.059286315
24	0xbd7acf4f	-0.06123286
25	0x3eac1e98	0.3361709
26	0x3ea58fc1	0.32336238
27	0xbf396099	-0.7241302
28	0x3ed7cc7d	0.421482
29	0x3d7ba6bd	0.06143831
30	0xbeb40048	-0.35156465
31	0xbed5926b	-0.4171327
32	0xbe421e26	-0.18956813
33	0xbe9efa4d	-0.3105034
34	0xbc00146e	-0.007817371
35	0xbef8cd96	-0.4859435
36	0x3e9d8e5a	0.30772668
37	0xbcb023e4	-0.021501489
38	0xbe91a08d	-0.28442803
39	0x3d706172	0.05868668
40	0xbf337d7a	-0.7011334
41	0x3f1e63fc	0.61871314
42	0x3eca05bb	0.39457497
43	0x3e97cbf7	0.296478
44	0xbcc20fd0	-0.02368918
45	0xbe1b15c7	-0.15145026
46	0x3eabd42e	0.33560318
47	0x3e59845b	0.21241896
48	0xbe889369	-0.26674965
49	0x3e6df7aa	0.23239008
50	0x3e0be0a1	0.13659908
51	0xbeb5d27e	-0.35512155
52	0x3cac50b5	0.021034578
53	0xbf44c349	-0.7686048
54	0xbeed0578	-0.46293235
55	0xbc1fd8ff	-0.009756326
56	0x3e878bbc	0.26473796
57	0x3f1c399e	0.61025417
58	0xbeab21b4	-0.3342415
59	0xbd6a5b3a	-0.057215907
60	0xbea37908	-0.31928277
61	0x3da75be1	0.081718214
62	0x3e0a48c7	0.13504325
63	0x3eee32bd	0.46523085
64	0xbcaede6e	-0.021346297
65	0xbf03d7be	-0.5150107
66	0xbeb940d1	-0.36182263
67	0xbde2ef53	-0.11080804
68	0xbf12ced8	-0.5734687
69	0x3f4f93fd	0.8108519
70	0x3e491bc4	0.19639498
71	0x3efc8937	0.49323437
72	0x3d7d6e46	0.061872743
73	0x3ecb1a8d	0.39668694
74	0x3d5d7971	0.054070894
75	0x3d2dfcc2	0.042477377
76	0xbf30214c	-0.68800807
77	0x3ce57c20	0.028013289
78	0xbea4962e	-0.32145828
79	0x3e36ed62	0.17863992
80	0x3e483f10	0.19555306
81	0x3d1163a2	0.035495408
82	0xbe560eb5	-0.20904048
83	0xbf53be23	-0.82712
84	0x3e676b84	0.22599608
85	0xbf1e1403	-0.61749285
86	0x3ddc4724	0.107557565
87	0x3ddcc8f8	0.10780519
88	0xbeb077d5	-0.34466425
89	0xbdc9eb0f	-0.09859287
90	0xbf41d09d	-0.75708944
91	0xbe641a5f	-0.22275685
92	0xbd1951aa	-0.037431397
93	0x3e2f6972	0.17130068
94	0x3e504295	0.20337899
95	0x3e6448da	0.22293416
96	0xbe884030	-0.2661147
97	0xbe08b1f4	-0.13349134
98	0xbec53a05	-0.38520828
99	0x3ebc9f80	0.3684044
100	0x3f0c1348	0.5471692
101	0xbec53a08	-0.38520837
102	0x3e8a05bc	0.269575
103	0x3eba8b57	0.36434433
104	0x3e753601	0.23946382
105	0xbf69a42e	-0.91266143
106	0x3d38ca6f	0.04511493
107	0x3e4959ae	0.19663116
108	0xbebc5293	-0.3678175
109	0xbe40dfe4	-0.18835407
110	0x3e0d38e1	0.13791229
111	0xbe7c94a6	-0.2466608
112	0xbece0227	-0.40236017
113	0x3f37293f	0.7154731
114	0xbf147e4d	-0.5800522
115	0xbea55246	-0.32289332
116	0xbc9a68da	-0.018848825
117	0xbd16a3a9	-0.036777172
118	0xbd485ae5	-0.04891481
119	0xbeacedd1	-0.3377519
120	0xbf0a37fb	-0.5399167
121	0xbe3f1e36	-0.18663868
122	0x3f0df70f	0.55455106
123	0xbe1a4205	-0.15064247
124	0x3f35a78b	0.70958775
125	0xbc8e0d62	-0.017340366
126	0xbd5ee617	-0.05441865
127	0x3e8066b0	0.25078344
128	0xbeb71f11	-0.3576589
129	0xbd69c389	-0.057071242
130	0xbf126e18	-0.5719924
131	0x3e7b6560	0.2455039
132	0x3e26ac65	0.16276701
133	0xbf506357	-0.8140158
134	0xbf05ac2b	-0.5221583
135	0x3e0987a1	0.13430645
136	0xbf048018	-0.51757956
137	0xbf1eada7	-0.6198372
138	0xbe79cf30	-0.24395442
139	0x3db5dd00	0.08880043
140	0xbfa3360e	-1.2750871
141	0xbf65e3f3	-0.8980095
142	0x3f511df3	0.81686324
143	0xbef3e500	-0.4763565
144	0xbe576ec8	-0.21038353
145	0x3d85a8ad	0.06526313
146	0xbe5806be	-0.21096322
147	0xbefcc543	-0.4936925
148	0x3d4d9253	0.050188374
149	0x3e8be9da	0.27326852
150	0xbf565a91	-0.83731943
151	0x3df6fdf6	0.12060158
152	0x3d820074	0.06347743
153	0xbec7c763	-0.39019307
154	0x3f5b089c	0.8556001
155	0x3ede3178	0.43397117
156	0xbd57deb4	-0.05270262
157	0x3e27fc1f	0.1640477
158	0xbe8bf3a0	-0.2733431
159	0x3ddcbcc0	0.10778189
160	0xbee595f9	-0.44840983
161	0x3f2c1844	0.67224526
162	0x3f38c7c7	0.72179836
163	0x3e9ad404	0.3023988
164	0x3d16e31a	0.036837675
165	0xbf6cec2f	-0.9254789
166	0xbeeee97e	-0.46662515
167	0xbd983aa5	-0.074330606
168	0xbedf3f4e	-0.43602985
169	0x3ed9e3b2	0.4255653
170	0x3e2eb449	0.17060961
171	0xbe0f4a7a	-0.13993254
172	0xbe8f9083	-0.2803994
173	0xbcacf0af	-0.02111086
174	0xbff8c7c2	-1.9435961
175	0x3f376769	0.71642166
176	0xbf17cbf8	-0.59295607
177	0xbbd67e05	-0.0065457844
178	0xbf212244	-0.6294291
179	0xbe80b86b	-0.251407
180	0x3e41ab4c	0.18913001
181	0x3e22037c	0.15821642
182	0x3c9cd805	0.019145975
183	0x3dd52e69	0.10409243
184	0xbf6a56fc	-0.9153898
185	0x3f3c7c14	0.7362683
186	0xbf0f7a30	-0.5604582
187	0x3e5bf0c5	0.21478565
188	0xbce89a62	-0.028393928
189	0xbf023db5	-0.5087541
190	0xbf0234d7	-0.5086188
191	0xbd4ac2e1	-0.049502257
192	0xbdef4d5b	-0.11684676
193	0xbd9fa37a	-0.077948526
194	0xbe8b4d43	-0.27207384
195	0xbf7a3ad8	-0.9774604
196	0xbec816b7	-0.3907983
197	0xbf1cb1d2	-0.6120883
198	0x3b0b38e5	0.0021243629
199	0x3e9998a3	0.29999265
200	0x3e02a9bc	0.12760061
201	0xbdabb367	-0.08383828
202	0x3f1267b1	0.5718947
203	0xbf8f24ac	-1.1183066
204	0x3e3a0155	0.1816457
205	0x3e7e82f5	0.24854644
206	0xbe9837ba	-0.29730016
207	0x3e5c3f4b	0.2150852
208	0xbf91d872	-1.1394179
209	0xbe5e4e62	-0.21709588
210	0xbef0b22c	-0.47010934
211	0xbcfd8dfe	-0.030951496
212	0x3ea107fb	0.314514
213	0xbbaa6f7b	-0.005201278
214	0x3e6014c1	0.21882917
215	0x3e8dc423	0.27688703
216	0xbec6b246	-0.38807887
217	0xbd693da4	-0.05694355
218	0x3e51123a	0.20417109
219	0x3f081952	0.53163636
220	0x3ea1bf88	0.3159144
221	0xbd381b4f	-0.04494792
222	0xbe2f5535	-0.17122348
223	0xbfc6760e	-1.5504777
224	0x3c6771c0	0.014126241
225	0xbbf3a104	-0.007434966
226	0xbf5ca368	-0.8618684
227	0xbe806a95	-0.25081316
228	0x3f101180	0.562767
229	0xbed7ef46	-0.4217474
230	0x3d9d93c6	0.07694201
231	0x3ec16657	0.37773392
232	0xbf52097e	-0.82045734
233	0xbdfa4112	-0.122194424
234	0x3eab1003	0.33410653
235	0xbe2bef79	-0.1679057
236	0xbf4d423b	-0.80179185
237	0xbe9d3d7a	-0.30710965
238	0x3d9bf9fa	0.076160386
239	0x3e84bb60	0.25924206
240	0x3df5b79d	0.11997912
241	0xbf1e2540	-0.6177559
242	0xbf13196b	-0.5746066
243	0xbe3e3ac4	-0.18577105
244	0x3eede342	0.46462446
245	0xbed76d54	-0.42075598
246	0xbeaa0c9c	-0.33212745
247	0x3d2f2b41	0.04276586
248	0xbf254d71	-0.6457129
249	0x3cc07eb2	0.023497913
250	0x3da415c3	0.08011963
251	0x3eaf4957	0.3423564
252	0x3e557a1a	0.2084736
253	0xbeda8ce5	-0.4268562
254	0x3f65ca3b	0.89761704
255	0xbe5193f3	-0.20466594

gnn_2.bias f4 [128]
0	0xbf572e73	-0.8405525
1	0x3ce2cb7f	0.027684925
2	0xbe02cceb	-0.12773483
3	0x3e5cf1b5	0.21576579
4	0xbf2d1b7e	-0.67620075
5	0x3e358d2d	0.17729636
6	0xbf2b859d	-0.6700075
7	0x3d12ba1f	0.03582203
8	0x401d8c12	2.4616742
9	0xbf6f9c98	-0.9359832
10	0x3e5513a5	0.20808275
11	0x3f0da187	0.55324596
12	0xbe84ea75	-0.25960127
13	0xbe6e20f6	-0.23254761
14	0xbec6e849	-0.38849095
15	0xbfc40221	-1.531315
16	0xbf339c57	-0.7016043
17	0xbf339a9b	-0.70157784
18	0x3ea102bf	0.31447408
19	0xbed99bb2	-0.425016
20	0xbeafb947	-0.34321043
21	0x3e711a08	0.23545086
22	0xbfb7bc88	-1.435441
23	0xbe525e0c	-0.20543689
24	0xbeb54d92	-0.35410744
25	0xbe7f65cd	-0.24941178
26	0x3f1863a6	0.5952705
27	0xbde70675	-0.112805285
28	0xbecd2164	-0.40064538
29	0x3df1c9c4	0.11806062
30	0x3f5f10b0	0.8713484
31	0xbd9d4796	-0.076796696
32	0x3ed10d3f	0.40830418
33	0x3e54eb31	0.20792843
34	0xbe1a4858	-0.1506666
35	0x3edde890	0.43341494
36	0xbcbbd0d5	-0.022926727
37	0xbe858172	-0.2607532
38	0x3ebdd6a8	0.37077832
39	0x3f5892b8	0.84598875
40	0xbea0b20c	-0.3138584
41	0x3ed804e5	0.42191234
42	0x3d1e8f61	0.038710956
43	0xbf03b188	-0.51442766
44	0x3eee2091	0.4650922
45	0xbefca47b	-0.4934424
46	0x3c5207b0	0.012819216
47	0x3e5c94d0	0.21541142
48	0xbe4a1ce9	-0.19737591
49	0xbf0e0356	-0.5547384
50	0x3e3544fa	0.17702094
51	0xbd808870	-0.062760234
52	0xbe8143a7	-0.25246927
53	0x3dcb44f7	0.099252634
54	0xbe3b6364	-0.18299633
55	0x3dcd76f0	0.10032451
56	0xbe90c8dc	-0.28278244
57	0xbf3e3cf0	-0.74311733
58	0x3f7d6a54	0.9899037
59	0x3f0376db	0.51353234
60	0x3ea6c87f	0.3257484
61	0xbe19f884	-0.15036207
62	0xbf194273	-0.5986702
63	0xbfd16061	-1.6357538
64	0x3eab13b7	0.3341348
65	0x3dd118f1	0.10209835
66	0x3f1f3b2c	0.62199664
67	0x3de29e8d	0.110653974
68	0xbc89f842	-0.016842011
69	0xb8bf24c5	-9.1144386e-05
70	0xbec70714	-0.38872588
71	0xbf0f2ac5	-0.55924636
72	0x3f4df345	0.80449325
73	0x3df0b274	0.11752787
74	0xbdca832d	-0.09888301
75	0x3cabd058	0.02097337
76	0xbe8dfb82	-0.27730948
77	0x3e88d126	0.26722068
78	0x3df68c5c	0.1203849
79	0x3d53375f	0.051566478
80	0xbea85c6d	-0.32883015
81	0xbf0c2331	-0.547412
82	0x3e017649	0.12642778
83	0xbf3b8d37	-0.7326235
84	0xbed9e3de	-0.4255666
85	0x3f00a36a	0.5024935
86	0xbf1ea438	-0.6196933
87	0x3f5651d8	0.83718634
88	0x3e61777f	0.2201824
89	0xbee6ced9	-0.45079687
90	0x3e344123	0.17602973
91	0xbed225c8	-0.4104445
92	0xbf12755b	-0.5721032
93	0xbeeed08f	-0.46643493
94	0xbf01a491	-0.50641733
95	0xbde2c799	-0.110732265
96	0xbe85350c	-0.26017034
97	0x3ee8c16e	0.45460075
98	0x3d6229d0	0.055215657
99	0x3d70de71	0.058805887
100	0xbeeb294c	-0.45929945
101	0x3f88a55a	1.0675461
102	0xbde400ab	-0.1113294
103	0x3db39528	0.08768684
104	0xbd4f25f6	-0.05057331
105	0xbf928b1c	-1.1448703
106	0x3f294659	0.66122967
107	0x3d29925d	0.04139935
108	0xbf1b7f79	-0.6074138
109	0x3e52824f	0.20557521
110	0x3f2f6d58	0.6852622
111	0x3eafb472	0.34317356
112	0xbe98730a	-0.29775268
113	0x3ed7b9ca	0.42133933
114	0xbe96349c	-0.29337013
115	0xbba61291	-0.0050681313
116	0xbe8bfdd7	-0.27342102
117	0x3f3a3d44	0.72749734
118	0x3ee33376	0.443752
119	0xbe7c1ace	-0.246196
120	0xbe2ba948	-0.16763794
121	0x3dd272c3	0.10275795
122	0x3d07158a	0.032979526
123	0xbd892448	-0.06696373
124	0x3f000c4f	0.5001878
125	0xbe33f453	-0.17573671
126	0x3f40d8a9	0.753306
127	0x3f603680	0.8758316

gnn_2.lin.weight f4 [128, 128]
0	0xbeece9a8	-0.46272016
1	0xbf12c7e7	-0.57336277
2	0x3da19cca	0.07891233
3	0x3e9c07ef	0.30474803
4	0xbf30ed96	-0.6911253
5	0xbea06ebc	-0.31334484
6	0xbecb5a8f	-0.39717528
7	0xbecae77b	-0.3962973
8	0xbea0d4b9	-0.31412295
9	0xbddb7eb2	-0.107175246
10	0xbf9c1565	-1.2194029
11	0xbdf10f60	-0.11770511
12	0x3e9aee4b	0.30259928
13	0xbcdb77a0	-0.02679044
14	0x3db32855	0.08747927
15	0xbf067007	-0.5251469
16	0x3bff9d2b	0.0078007183
17	0xbe390eab	-0.18072002
18	0x3dce130f	0.10062229
19	0xbf3a5bc6	-0.72796285
20	0xbe488893	-0.19583349
21	0x3c896619	0.016772317
22	0x3e08d6c3	0.13363175
23	0xbeabec27	-0.33578607
24	0xbe5da741	-0.21645834
25	0xbe4ddddc	-0.20104164
26	0xbdc4e0cc	-0.09613189
27	0xbec71fcb	-0.38891444
28	0x3ed8bac6	0.42329997
29	0x3e91c109	0.28467587
30	0xbe3b86aa	-0.18313089
31	0xbdc4507a	-0.09585662
32	0x3d7cb019	0.061691377
33	0x3e8708ad	0.26373807
34	0x3e33ed89	0.17571081
35	0x3eaf417c	0.34229648
36	0xbdca2627	-0.09870558
37	0x3e452edc	0.19256157
38	0x3e2f3afd	0.17112346
39	0x3ee17226	0.440324
40	0xbd50ab76	-0.050944768
41	0xbd9497fc	-0.07255551
42	0x3ef01a4c	0.46895063
43	0x3ea0e2dc	0.3142308
44	0xbf847366	-1.0347717
45	0xbfa4549f	-1.2838324
46	0x3cb4cca0	0.022070229
47	0x3e34c775	0.17654212
48	0xbe6047ad	-0.21902342
49	0xbf0eb5f7	-0.55746406
50	0x3e680932	0.22659758
51	0xbed8ddec	-0.42356813
52	0xbd7c10fa	-0.061539628
53	0xbffd8be3	-1.9808315
54	0x3e379772	0.17928866
55	0x3f1d56f1	0.6146079
56	0x3ee0f42a	0.43936282
57	0x3e2ecfeb	0.17071502
58	0x3f411178	0.7541728
59	0xbec9b121	-0.3939295
60	0xbe6b094b	-0.22952764
61	0x3dcfb2e7	0.10141545
62	0x3dcec677	0.10096448
63	0xbfc1d563	-1.5143245
64	0x3c12e93b	0.008966739
65	0xbe839248	-0.2569754
66	0xbeaed6da	-0.34148294
67	0x3e310d77	0.17290293
68	0xbf726640	-0.9468727
69	0xbd59c0fa	-0.053162552
70	0xbd95411a	-0.07287808
71	0xbe0a5a7e	-0.13511083
72	0x3eccd431	0.4000564
73	0x3d5efb49	0.054438863
74	0x3e659991	0.22421862
75	0xbecf8d62	-0.40537554
76	0xbf1a4a3d	-0.6026953
77	0xbf659872	-0.8968574
78	0x3ee0b404	0.4388734
79	0x3e6dbd29	0.2321669
80	0xbe292395	-0.1651748
81	0xbe71f1b4	-0.23627359
82	0xbd09eea5	-0.033674855
83	0x3f40e15e	0.75343883
84	0xbf22f835	-0.63659984
85	0xbe31b49b	-0.17354052
86	0x3e10e4ff	0.14149855
87	0xbef9cc7a	-0.48788816
88	0xbf18706f	-0.5954656
89	0xbe9d6b79	-0.30746058
90	0x3ca7c0ea	0.02047773
91	0x3e28d561	0.16487648
92	0xbdd4bfb7	-0.10388129
93	0xbfa422c7	-1.2823113
94	0x3ce75ded	0.02824303
95	0x3ef3c400	0.47610474
96	0xbddbb992	-0.10728754
97	0xbe7e702d	-0.24847479
98	0xbf21105d	-0.62915593
99	0x3d277ac3	0.04088856
100	0xbe9a0842	-0.30084425
101	0x3e5b58ca	0.21420589
102	0xbe725eb1	-0.23668934
103	0xbd74e933	-0.05979271
104	0xbec703c2	-0.38870054
105	0xbd81f783	-0.06346037
106	0xbe0c1b26	-0.13682231
107	0xbeaed22a	-0.34144717
108	0xbc032f1c	-0.008006837
109	0xbf37488f	-0.7159509
110	0xbe113956	-0.14182028
111	0xbe699690	-0.22811341
112	0x3e81a9bc	0.2532481
113	0xbf13e751	-0.57774836
114	0x3e1e788b	0.15475671
115	0x3efdc6f6	0.49565858
116	0x3e1682a9	0.1469828
117	0x3f061e72	0.52390206
118	0xbd724b91	-0.059154097
119	0xbf1d573c	-0.61461234
120	0x3e5ce7d4	0.2157281
121	0xbddede7b	-0.108822785
122	0x3de14f5a	0.11001463
123	0xbdcc2d15	-0.09969536
124	0xbe2bff8e	-0.16796705
125	0xbc25df9b	-0.0101241125
126	0xbdacc4d6	-0.08435981
127	0xbebee9c3	-0.3728772
128	0xbf762bce	-0.9616059
129	0x3e50d67e	0.20394322
130	0x3dbf883b	0.09352156
131	0x3daee07a	0.08538909
132	0x3dc15dae	0.09441696
133	0xbebc7356	-0.36806744
134	0x3e33c605	0.17556007
135	0xbce262f3	-0.027635073
136	0x3ebe6836	0.37188882
137	0x3e6c9f25	0.23107584
138	0xbde79105	-0.11306957
139	0xbf823f26	-1.0175521
140	0x3e20878e	0.1567671
141	0xbdd4ab7e	-0.10384272
142	0x3da0f5ae	0.0785936
143	0xbeb0e77d	-0.34551612
144	0x3da781ad	0.081790306
145	0xbea549c9	-0.32282856
146	0xbc8e554c	-0.017374657
147	0x3f22125f	0.6330928
148	0xbf35a788	-0.7095876
149	0x3eea0365	0.45705715
150	0xbf0e5afe	-0.55607593
151	0xbe5e3a6c	-0.21701974
152	0x3e5c371d	0.21505399
153	0xbc33ca29	-0.010973492
154	0xbea87ae3	-0.32906255
155	0x3f409c17	0.75238174
156	0xbe8be858	-0.27325702
157	0xbe9a7c82	-0.30173117
158	0xbe13ba49	-0.14426531
159	0x3ebf2974	0.37336314
160	0xbdffc108	-0.1248799
161	0x3cb1869e	0.021670636
162	0x3e7cb15c	0.24677032
163	0x3ce45bec	0.027875863
164	0xbf02911e	-0.5100268
165	0xbe97facf	-0.2968354
166	0x3db5e24b	0.088810526
167	0xbdddc912	-0.10829367
168	0x3f07e849	0.53088814
169	0x3e59d598	0.21272886
170	0xbe7a5158	-0.24445093
171	0x3e041d56	0.12901816
172	0xbd9c62f8	-0.07636064
173	0xbea29afa	-0.31758863
174	0x3d87ad3f	0.06624841
175	0x3e1fd4bb	0.15608494
176	0x3e910c42	0.28329664
177	0x3e89175b	0.2677563
178	0x3e30f0f8	0.17279422
179	0xbea60b4e	-0.324305
180	0xbe3d818f	-0.18506454
181	0xbdf4ba3f	-0.11949586
182	0x3c8a2939	0.01686536
183	0xbebd4911	-0.36969808
184	0xbe87c2f5	-0.26515928
185	0xbea22a30	-0.31672812
186	0xbe4e021c	-0.20117992
187	0xbecd25b8	-0.4006784
188	0xbf0bd0bc	-0.5461538
189	0xbe9c2d81	-0.30503467
190	0xbd3c173d	-0.0459206
191	0xbea4f5d6	-0.32218808
192	0xbddb38da	-0.10704203
193	0x3f316c88	0.6930623
194	0xbf271a99	-0.6527496
195	0x3e39841b	0.181168
196	0xbf772d53	-0.96553534
197	0xbe2ed8b9	-0.1707486
198	0x3f0d57c6	0.55212057
199	0x3d18268c	0.037146136
200	0x3e517751	0.20455672
201	0xbe6d4b4c	-0.23173255
202	0x3c853101	0.016258718
203	0xbe02a8f5	-0.12759764
204	0xbd6b3182	-0.05742026
205	0xbe481c54	-0.19542056
206	0xbe359daa	-0.17735925
207	0x3f011e50	0.5043688
208	0xbdfbff47	-0.1230455
209	0x3e5ec23e	0.21753785
210	0xbe5ec085	-0.21753128
211	0x3f00734b	0.50175923
212	0x3e934d0b	0.28769717
213	0x3e5379ac	0.20651883
214	0xbf1d73ca	-0.61504805
215	0x3e9f9324	0.31166947
216	0xbece244b	-0.40262064
217	0x3ef31b96	0.47481984
218	0x3cd16bbf	0.025564073
219	0x3eaca924	0.33722794
220	0xbedb0957	-0.42780563
221	0xbf002510	-0.5005655
222	0xbdd97f1e	-0.10619949
223	0xbd902cdd	-0.07039807
224	0xbe7e5436	-0.24836811
225	0xbe94f987	-0.29096624
226	0x3deaac05	0.11458591
227	0xbdc486c9	-0.09596021
228	0x3ebb132c	0.36538064
229	0x3eb3c133	0.35108337
230	0xbd8c6f3d	-0.068571545
231	0xbf255813	-0.64587516
232	0xbd2f2eba	-0.04276917
233	0x3eddcac8	0.43318772
234	0xbcf996f7	-0.030467493
235	0xbf2bb8b8	-0.67078733
236	0xbf224e32	-0.63400567
237	0x3e9d1691	0.3068128
238	0x3e7e833b	0.24854748
239	0x3ec44b0a	0.383385
240	0xbdfa217c	-0.12213418
241	0x3ebdce96	0.37071675
242	0x3e6380a7	0.22217046
243	0x3f3139cb	0.6922881
244	0x3e0a6511	0.13515116
245	0xbec488ec	-0.38385713
246	0xbe870a0b	-0.2637485
247	0x3e07692b	0.13223712
248	0x3ed3aa09	0.41340664
249	0xbdf9f45b	-0.1220481
250	0xbd058581	-0.032598022
251	0xbe170387	-0.1474744
252	0xbe52f24e	-0.20600244
253	0xbd5ccd80	-0.053906918
254	0x3d06af4f	0.03288203
255	0xbe7331c5	-0.23749454
