models/particle_gnn_9.pth (torch, 820426 bytes, 38 tensors)

encoder.0.weight f4 [128, 9]
00000000: 9830 f83d fc8b 52bd 405d 20bf d9c2 2e3c
00000010: 05ec 71bc 7aea ae3c 5364 053f d09e 513e
00000020: 5017 573e 8c32 7b3e 2fac 52bd 543a 03bf
00000030: e15a 29be 5de9 6fbe 908d 373e e696 80be
00000040: 4d52 81be c45d 5b3e ab12 88be a603 f9be
00000050: 762c aebd 8823 243c d39a 75bb c53d 35bd
00000060: dad7 9bbd b413 ca3d 33c7 57be 1a19 11be
00000070: 142d 6e3e 721f a9be 8815 7f3b d7d2 713b
00000080: da49 89b8 553b a13d a0b0 76be c454 54bd
00000090: d208 a1be 91e4 0b3e 687e 913d 2cf7 62ba
000000a0: 8980 623b d199 b83a 0106 ad3e cafe 63be
000000b0: 6d0c 13ba 574d 8bbd 1dcd bfbd d5cb cd3e
000000c0: 618d 4b3d 44fa 583d 65c7 ad3d edfe 22be
000000d0: 3140 e0be a127 88be 6659 c73e 9e83 df3d
000000e0: c38b b5be b724 6dbd 764b 283d 5916 213e
000000f0: 626a 893e 4269 3d3d 248f c2bd fba0 9fbe
00000100: 2c8a cd3e 1704 9dbd ebf8 be3c 3416 cf3d
00000110: 1f83 843d e5a7 b0be ffea 56be 0d10 f73c
00000120: 2e1e 87be a2e4 edbd 9571 e13e d412 9c3d
00000130: e32b 21bd d7a4 9ebd 37f4 273e 1d5c 383e
00000140: a51d 8a3e ce91 48be 5850 6a3c e0b6 e23e
00000150: 4ba2 01ba 5dbb b83b 72d5 c2ba 4350 483e
00000160: d62a aabe 61dc 8bbd e5a5 193e 455f 123f
00000170: 8b63 083f 39d8 66bd 6476 15be ee4e 36be
00000180: 7cd8 8cbe 4985 883e 8397 f53d b2ac 6fbe
00000190: 2010 603e bcba dcbe 7468 6f3c d498 923d
000001a0: 3300 88bd 3dd5 753e 03fe babd b7c5 5f3d
000001b0: efb1 8d3d a510 6e3e 87bc ba3e 79af cabd
000001c0: bff4 c8bc fd0a 7a3d 2b5e a1be e9a2 f4bd
000001d0: 180d cbbe 5024 ddbd e518 b7be b87f 403e
000001e0: 08a8 63bd e7c5 12bd fca4 09bc 8a6f 103f
000001f0: 447c 813e f500 0c3f 4f3e 243e 9985 02bd
00000200: 1eb9 0fbe 0f4b 1e3d 559c f93c 0fe8 80bb
00000210: 2541 24bc 4759 d5be 3bed 83be 684d 04bf
00000220: 0010 e93e 12be 88be 334b 69bc 0ba0 e03a
00000230: 0286 9cbc 2333 213e 0f7f 79be a042 a9bd
00000240: e7b6 09bc 42bc 0e3e b960 f13e 9af8 ebb9
00000250: a33e b539 d3ce df3b 45fc 3abe c50e e63d
00000260: 975e 2ebe 6ea2 37be c0dc 233e 4522 1abf
00000270: 8c27 17bd db26 c13d 9b8a 95bd d4a4 75be
00000280: c76a 553e 00d6 2b3d d8e0 6e3e 2a9f 5bbe
00000290: 8354 d03e 32eb 37bc b808 93bd 7755 813d
000002a0: 562c 023e 9328 883c dbae a2bd 8c53 3bbe
000002b0: 1f4b a6be 4c95 d1be e526 383e 09b9 163e
000002c0: 1963 a8bd ad5a 19be 10e1 373e 704d 163e
000002d0: f45a 263f aece 10bf b764 ad3e 4c67 bf3c
000002e0: 6465 e5bb 03f8 f03c d760 133e d226 923e
000002f0: c134 793e 4fdd b0bd a50c d73d cbbf bb3b
00000300: 01cd 763d b4ba 873d 30ac 45bc c692 51be
00000310: 9c65 8b3d 263b 74be 7a7a 373e 0dae af3e
00000320: 3b3b c83e 4656 20be 728e 833d 2efb c0bb
00000330: c42c d6bd c5e6 893e bc65 bb3d 8874 1bbf
00000340: 64c5 0abe ac0d fc3d a8b6 6dba 3ef3 873b
00000350: bc69 023b 1a2a 7bbe f070 b2bd 980b 0bbe
00000360: e470 203e be02 02bd 334c b7be 7db4 a83b
00000370: eaaa aebc 5101 403c 8ada 39be bb76 babe
00000380: 76f6 98be 7785 fbbe 4423 eabe 2e81 5a3c
00000390: 9786 46bd 07aa dd3d 1cb8 bdbd 2ce3 b33e
000003a0: 4302 953e 3551 f13d 39d4 d13e bcff 21be
000003b0: d444 9b3e 2220 fabc 8bac 833d 4d96 fe3c
000003c0: 711d 463d 9ecb ef3d 7b40 023f bacb eb3e
000003d0: 1d19 973e 665e 2fbe 1574 4b3d ddfa 593d
000003e0: f188 b6bd f8b8 33be 4f1b b33d 548f b73b
000003f0: 2b9c 213e d11e d8bd 66dd 97be 97ba 48bd
0.121186435 -0.05140303 -0.6264229 0.0106665725 -0.014765744 0.021352042 0.5210621 0.20470738
0.21004987 0.24531001 -0.05143374 -0.51260877 -0.16538574 -0.23428865 0.17925096 -0.25115126
-0.25258103 0.21422487 -0.26576743 -0.48635596 -0.08504574 0.010018237 -0.0037476316 -0.04424836
-0.0760953 0.09867039 -0.21072082 -0.14169732 0.23259383 -0.33031803 0.0038922746 0.0036899352
-6.546425e-05 0.07872645 -0.24090815 -0.05183865 -0.31452042 0.1366141 0.07104188 -0.00086580473
0.0034561476 0.0014083927 0.33793643 -0.22265163 -0.00056094566 -0.06801861 -0.09365294 0.40194574
0.049695376 0.052973047 0.08485297 -0.15917559 -0.43798974 -0.26592734 0.38935393 0.10913776
-0.35458192 -0.057896342 0.04108759 0.15731181 0.26838976 0.04624296 -0.09499958 -0.31177506
0.4014448 -0.07666796 0.023312053 0.10111657 0.06470322 -0.34503093 -0.20988081 0.03015902
-0.26390213 -0.11615874 0.4403197 0.07620779 -0.039348494 -0.077462845 0.16401754 0.18003888
0.26975742 -0.1958687 0.014301382 0.44280148 -0.0004945143 0.00563757 -0.0014864637 0.19561867
-0.33235806 -0.06829143 0.1500469 0.5717662 0.5327689 -0.05635855 -0.14595944 -0.17803547
-0.27508914 0.26664189 0.11991789 -0.23405722 0.21881151 -0.43111217 0.014612306 0.07158056
-0.06640663 0.24007125 -0.0913048 0.054631915 0.06918704 0.23248537 0.3647196 -0.0989675
-0.024530767 0.061045635 -0.31517157 -0.11945135 -0.39658427 -0.10797942 -0.3576118 0.18798721
-0.05558017 -0.035833266 -0.008401152 0.56420195 0.2529012 0.5468896 0.16039394 -0.03186569
-0.1403546 0.0386458 0.030470053 -0.0039339135 -0.010025297 -0.41669676 -0.2576693 -0.5168061
0.4552002 -0.26707512 -0.01423912 0.001713754 -0.019106869 0.15742163 -0.24364875 -0.08264661
-0.008405424 0.13939002 0.47144106 -0.00045007915 0.00034569678 0.0068300753 -0.18260296 0.11233286
-0.1702827 -0.17933056 0.16002178 -0.6020854 -0.03690295 0.09431239 -0.073018275 -0.23988658
0.20841514 0.041952133 0.23327959 -0.21447435 0.40689477 -0.0112255085 -0.07179397 0.06315129
0.12712225 0.01662091 -0.07943507 -0.1829359 -0.32479188 -0.40934217 0.17983587 0.14719023
-0.082220264 -0.14975996 0.17956948 0.14677978 0.64982533 -0.5656537 0.33865902 0.023364685
-0.007000612 0.029415136 0.1439241 0.28545243 0.2433653 -0.08635961 0.10500459 0.0057296506
0.0602541 0.06627408 -0.0120649785 -0.20466146 0.0680649 -0.23850688 0.17917815 0.34312478
0.3910769 -0.1565791 0.06423654 -0.005889318 -0.10457757 0.26933876 0.09150264 -0.6072469
-0.13551861 0.12307295 -0.00090680504 0.00414887 0.0019899448 -0.24527779 -0.08712947 -0.13578641
0.15668064 -0.031740896 -0.35800323 0.005148469 -0.021321733 0.011719064 -0.18149772 -0.3641871
-0.29875535 -0.49125263 -0.4573003 0.013336463 -0.0484682 0.10823446 -0.09263632 0.35134256
0.29103288 0.11783067 0.40982226 -0.15820211 0.3032595 -0.0305329 0.06429394 0.031077528
0.04836792 0.11708759 0.5087964 0.4605387 0.29511347 -0.17125854 0.04967125 0.053217757
-0.08912838 -0.17551029 0.08745443 0.005601803 0.1578223 -0.10552753 -0.296611 -0.04900607

encoder.0.bias f4 [128]
00000000: d84d 173f fbd2 f3bd 269c dc3d 732a a5be
00000010: a127 483e c5df c6bd dce8 143d 479b 363e
00000020: c724 c5bd 78f7 64bd 9718 9bbd e408 91be
00000030: 86df f4bd 4e10 b23e fa12 90be f5b2 68be
00000040: 3a8e 273e 73b0 32be aa70 8dbd 3078 98be
00000050: f38a ffbd 17d7 38be 69b5 033e b78f 8fbe
00000060: 06c4 2d3c 8710 c53e 3da1 db3e 7a60 963e
00000070: 95f7 7abe 97bc bdbd 2891 973e c946 3bbe
00000080: 301f dfbd 3e5e 83be 3112 4f3e 9d13 953d
00000090: a86f dd3e c363 553e db98 97be d5f6 8a3d
000000a0: 03de eabd 6046 04bf 2617 793d 7a41 f7bd
000000b0: 6504 efbd 63e4 253f 32b9 e03d e1b5 5fbe
000000c0: 92a3 07ba 4dfa 793f 99c7 8e3e bb05 773d
000000d0: 4aff 3e3e 16ea 17bd 3acc 92be 197d 46bd
000000e0: b016 fb3d 4446 083e 4d4b 0e3e ba1b e03e
000000f0: c6af 8f3e ea46 80bc 71ec 08bc 1452 53be
00000100: a61a a23c 4148 58be 65ea 013c 8bb5 a6be
00000110: cdfd db3d ca7e c43e e118 85be 6fde 083e
00000120: e3ea 84be 129e 60be 4dec 793e 01bd e23d
00000130: 5338 5d3d 63dc eebe 161e 7fbe dd77 673f
00000140: 0b2a cd3d 2706 7e3d 15f5 9ebe b502 d0be
00000150: 32bf bfbe 4221 2dbe 567d 2bbe ef1d c23e
00000160: 863a 493e 9347 813e b40c 293d c737 753c
00000170: d9e4 5f3f 4149 a6be 6bde 913d 0e33 1c3f
00000180: 5be2 1abe 5661 b73e a5b7 7fbe f568 edbe
00000190: 52f0 e3be 2129 a0be 805c 683e 1073 d3bd
000001a0: 1cd1 3b3f 0b23 d23d dd59 7f3e 0ddd 853e
000001b0: 91ca 843e 1f6e 18be 7169 a3be a67a 9ebd
000001c0: 2cd1 a9be 1e8c 9c3e df7c cc3e afa6 afbe
000001d0: edfd 7a3d 7771 a6be bc47 b6be b288 2e3f
000001e0: 2282 083f 353a a13e eb32 d53d 46a4 fa3c
000001f0: dfa1 15be 35c4 f23c 313e 503e 4145 383d
0.59103155 -0.11905476 0.107719705 -0.3225895 0.19546367 -0.097106494 0.036354885 0.17832671
-0.09626155 -0.055900067 -0.075730495 -0.28327096 -0.11956696 0.34778064 -0.28139478 -0.22724517
0.16362849 -0.17450123 -0.069062546 -0.29779196 -0.12477674 -0.180508 0.12862171 -0.28039333
0.010605818 0.38489172 0.42896453 0.2937048 -0.24508508 -0.09264486 0.29602933 -0.18288721
-0.108946204 -0.2565784 0.20221783 0.072791316 0.4324925 0.20838837 -0.29608807 0.06785361
-0.114681266 -0.51669884 0.06081309 -0.120730355 -0.1167076 0.64801615 0.10972823 -0.21846725
-0.0005174215 0.97647554 0.27886656 0.0603082 0.18652073 -0.037088476 -0.28671438 -0.048459146
0.12260187 0.13308054 0.13895912 0.43771154 0.28063792 -0.015658814 -0.008357153 -0.20636779
0.019788098 -0.21121313 0.007929419 -0.3256038 0.10741768 0.38377982 -0.25995544 0.13366102
-0.25960454 -0.21935299 0.24406548 0.11071206 0.054008793 -0.46652517 -0.2491382 0.9041727
0.10017785 0.062017586 -0.31046358 -0.40627065 -0.37450558 -0.16907218 -0.1674703 0.37913463
0.19651231 0.2524992 0.04127188 0.014966912 0.8745857 -0.32477763 0.07122501 0.61015403
-0.1512541 0.3581645 -0.24972399 -0.46369138 -0.44519287 -0.3128138 0.22691536 -0.10324681
0.7336595 0.1026059 0.24936624 0.2614521 0.25935796 -0.14885758 -0.31916383 -0.07738237
-0.33167398 0.3057565 0.3993902 -0.34306857 0.06127732 -0.32508442 -0.35601604 0.6817733
0.53323567 0.3148972 0.104101025 0.03059591 -0.1461253 0.029634574 0.20336224 0.04498792

encoder.2.weight f4 [128, 128]
00000000: 696d cd3d 341b ec3c 9b02 aebd a916 c33d
00000010: 8f2a b83b 13de 123d b4e5 b8bd 91ff 84bd
00000020: eed7 a1bd 0607 473d d067 f1bc 6976 4d3c
00000030: 6e1e f1bc 05fe bdbc 095a 31be 89a7 a7bc
00000040: 7ea5 da3d 1f86 0c3d eb81 403c 2fb0 df3b
00000050: ab7f aabd fefc 363d 7cab 46bd a92e e13d
00000060: 4b7a e9be baf9 40bd fb2d 9e3b e662 c1bc
00000070: df23 0dbe 6c20 393b 3836 203a 7b8d f5bc
00000080: 3395 7f3c 1463 92be 2f76 9c3b 83d9 c1bb
00000090: d44f f13b 4b0a c63d b51d cfbc fef2 2bbd
000000a0: f6a0 273e 61d7 ef3a 89b4 353c 0302 7c3d
000000b0: 7a63 9cbe aef9 183a 36e2 cfbd 986d c7bd
000000c0: db56 07be 39c3 e7bb aa0a 8cbd 46c9 8d3c
000000d0: 0ede 29bd 0402 25bd 0a32 2d3d d512 0dba
000000e0: 88e9 3e3d 715a 9dbc 11d8 173c dfb0 383d
000000f0: e48e f5bc ec46 af3d ea02 153e 9508 b43d
00000100: cfcb 89bd ff64 38bd d1ef 1dbb 150a 5c3d
00000110: b9e4 933c 171b 81bd 0ac0 adbc c6a3 423d
00000120: f0d0 27be 2e2a 023c 6610 66bd d3b6 18bd
00000130: 4c65 913c 55a8 0f3e 3f3d 44be d75b a23c
00000140: a17d 473d 2d0e e53b 008d 08be e7ec f3bd
00000150: 7985 7f3d a7f8 18bc 0a54 543d d397 93bd
00000160: 6336 8b3c 0689 d03c 8d05 0f3e 5191 18bc
00000170: dccd 34bc 0b8e 26bc 390f aabc 62f2 24bd
00000180: 582c cbbd ea3b 1e3e ab71 813e 2e9f 5abe
00000190: 767b 06bd 2a13 c23c 658c 883d 820c 93be
000001a0: 6c06 83ba 87c3 863c 667b 06be 1dae 0a3d
000001b0: 5b21 a8bb a42b 91be 95de 1d3c 11d8 2e3e
000001c0: fee1 0f3e b060 67bd 19d7 4cbc f40a a43d
000001d0: ae52 b93c 7eba 223d 008b 2d3e 0090 fe3b
000001e0: 02a2 603d b79d 5fbd 872b 183d 162b 563d
000001f0: e739 783d 32ea 63bd 27da 8b3d 6404 8abc
00000200: fabe 0ebd d3f1 54bd 8196 81bd e882 653d
00000210: 2c05 643d 0cf9 8c3d 9855 87bd f389 24bd
00000220: 0938 4ebd ef82 a0bd 962b 963d 4583 c23d
00000230: 4f64 fcbb 238b bd3d 2249 7bbe 6349 893c
00000240: 0ee3 323d b346 6fbd 4d7b 33bc 6cb0 4b3c
00000250: 798b 903c 6895 1fbd 16ad a33c e73f b6bd
00000260: 1330 d6bc ffc4 b5bc 93fd 733d d49e 80bd
00000270: 475c 8cbd 6c89 3dbd 4419 2fbd ec26 2d3d
00000280: 0c0c 15bd 62d9 a7be b201 433d d1c7 8f3d
00000290: db33 2c3d d9be 24be 9b79 35bb 3d3f b03d
000002a0: 7525 7cbd b5f1 80bd 335d 003d dc1c b43c
000002b0: 95b2 2fbe d1be 12bd bb85 80bd 3a13 a13c
000002c0: 440f ab3d 6266 66bd 5918 fcbc 262c b1bd
000002d0: 4997 c0bc 1d19 1a3d cc39 013c fa63 583d
000002e0: 75bc 883d 27ed 09bd d192 00be bebc 603b
000002f0: b826 ba3c 764f d73c 35e1 bbbd 384b 433d
00000300: 8179 eebd f10a 8fbd e93e 8bbd 425a dfbc
00000310: 610c 653d 13a1 983d ebfb 3d3c 9fd5 52be
00000320: 766a 84bc 5ef6 083e 88b4 ac3d e68b 5d3c
00000330: 471f 01bd c9f6 f7bd 5d46 773d e21c 35bc
00000340: 2464 253c 2878 863d 4c2b 38be 869b 373c
00000350: 9ce7 cc3d 1def 723c 0441 1dbd ab29 04bc
00000360: 1357 0d3b 3787 d4bc a190 713c dcf2 a8bd
00000370: 183a 323d 03c8 58bd f466 66bd c06e 933c
00000380: 7870 41bd 219d 543d 1f17 2dbd f1a0 953c
00000390: b887 f9bd a1eb b3bd 4799 1b3d a8a4 133d
000003a0: 04bc 1cbe 32dd 4f3d 15ae 343d 5016 a0bc
000003b0: 32b2 803c 3ab0 df3c ce13 a2bd fded 80bd
000003c0: 02bd 06be e6e1 903d fe07 e9bb b5fb 9dbd
000003d0: 913b a83a 7b60 c53d 8633 0d3d d896 5abd
000003e0: ae0c 41bc 4cf9 10bd c86d 503d b7f0 fdbd
000003f0: 67a7 07bd cfc0 3bbd 6855 093e 2a8e 8c3d
0.10030634 0.028821565 -0.08496591 0.095258065 0.0056203078 0.035856318 -0.090281874 -0.06494058
-0.079025134 0.048590682 -0.029468447 0.012540438 -0.029433455 -0.023192415 -0.17319502 -0.02046563
0.106760964 0.034307595 0.011749725 0.0068264226 -0.08325132 0.044674866 -0.048503384 0.10995228
-0.45601115 -0.047113158 0.0048272586 -0.023606729 -0.13783215 0.0028248085 0.0006111595 -0.02997469
0.015599537 -0.28591216 0.004774831 -0.005915822 0.0073642526 0.09669932 -0.02528272 -0.041979782
0.16369995 0.0018298441 0.011090406 0.061525356 -0.30544645 0.0005835545 -0.10150568 -0.097377
-0.13216726 -0.007072833 -0.068379715 0.017307889 -0.041471533 -0.040285125 0.04228405 -0.00053815293
0.04660943 -0.019208165 0.009267823 0.045090552 -0.029975362 0.08558449 0.14551893 0.087906994
-0.067283265 -0.045018192 -0.002409924 0.053720552 0.0180534 -0.06303995 -0.021209735 0.047519468
-0.16388297 0.007944627 -0.056167983 -0.03728373 0.017748497 0.14029057 -0.19163989 0.019819183
0.048703793 0.0069902153 -0.13335037 -0.1191042 0.06238315 -0.009336627 0.05183796 -0.072066925
0.016993707 0.025455963 0.13966961 -0.00931199 -0.011035409 -0.010165702 -0.020759212 -0.040270217
-0.09920567 0.15452543 0.25282034 -0.21349785 -0.032832585 0.023690779 0.06667403 -0.2872048
-0.0009996421 0.016450657 -0.1313301 0.033857454 -0.0051309294 -0.28353608 0.009635587 0.1707461
0.14051053 -0.056488693 -0.012502455 0.08009902 0.022622433 0.039728634 0.16947556 0.007768631
0.054842003 -0.054593768 0.037150886 0.052287184 0.060602095 -0.055643268 0.06828719 -0.016847797
-0.0348501 -0.051988434 -0.063275345 0.056033045 0.055668995 0.068834394 -0.066081226 -0.04017062
-0.050346408 -0.078374736 0.07332532 0.09497694 -0.0077023874 0.09255054 -0.24539617 0.016758626
0.043673567 -0.058417033 -0.01095469 0.012432199 0.01764463 -0.038960844 0.019979995 -0.08898907
-0.02614597 -0.022188662 0.059568 -0.06280294 -0.06853538 -0.046273634 -0.042748705 0.042273447
-0.036388442 -0.32783037 0.04760904 0.07020534 0.04204164 -0.16088428 -0.002769089 0.08605812
-0.06155916 -0.06296102 0.03133888 0.021986417 -0.17157967 -0.035826508 -0.06275507 0.019662488
0.08352521 -0.056249984 -0.030773329 -0.08650999 -0.023509638 0.037621606 0.007887315 0.05282972
0.0667657 -0.03367343 -0.12556006 0.0034292187 0.02272354 0.026283007 -0.09173814 0.047679156
-0.11644269 -0.06984509 -0.067991085 -0.027264718 0.05592001 0.074525975 0.011595706 -0.20589302
-0.016164046 0.13375232 0.08432871 0.013522124 -0.03152397 -0.121076174 0.060369838 -0.0110542495
0.010094676 0.06565887 -0.17985266 0.011206513 0.100051135 0.014827517 -0.03839208 -0.008066575
0.0021566793 -0.025943382 0.014743955 -0.08249447 0.043512434 -0.05292512 -0.056250528 0.017997146
-0.0472264 0.051907662 -0.042258378 0.01826522 -0.121840894 -0.08785177 0.037987974 0.0360457
-0.15306097 0.050748058 0.04411133 -0.01954189 0.01570997 0.027305711 -0.07913934 -0.06295393
-0.13158038 0.07074337 -0.0071115484 -0.07714025 0.0012835135 0.09637543 0.034472965 -0.053366512
-0.011782808 -0.035393998 0.050885946 -0.12399428 -0.03311863 -0.045838173 0.13411486 0.06863053

encoder.2.bias f4 [128]
00000000: ad52 2f3d a2fe 52bc a526 2c3d 61e3 1bbd
00000010: 7b2f 323d 027b a3bd b593 9a3c b3ec a7bd
00000020: 2860 aabd f052 0b3d 52fc 583d 8e3b be3c
00000030: f09c 0cbe be64 c93c 5afa 3e3e 282d bebc
00000040: 1156 64bd c9fc 99bd 1895 c33c d255 d5bd
00000050: 9d8e 73bd 9b5e 7dbd 7cf5 dcbd 2a38 7ebd
00000060: c4d3 52bd a967 b6bd 1e7d 4b3d bbac 90bd
00000070: 0cbc a13b 440c c83d 3b21 a0bd 123d 5cbe
00000080: 2730 8fbd 9162 70bd aa3a c23c 6d44 ab3d
00000090: ccd2 f63c 028a 4abc fcad ae3d 9233 633d
000000a0: 30b1 1e3e d407 24be fde0 bbbc ba2b 41bc
000000b0: add6 a8bd 256a 6f3d fbef e4bb ea20 0c3e
000000c0: f14b 9f3c 6a6f a03d 97ef bbbd 1f20 2ebd
000000d0: 1e24 4d3d 4f3e f83d 2a2d cebd 678e 9c3d
000000e0: d1f5 f53c 1c26 6fb9 5f99 c4bd cf37 81bb
000000f0: 8687 543d dd0a f8bd 7c17 ffbd a97d 893d
00000100: bad4 8c3d be03 153d 5159 063e 1b38 00be
00000110: b024 5ebd 8ac6 ec3c b0de cebc 4def a03d
00000120: aa7f 5b3d 3c68 e43d 3d14 d23d 4562 30bd
00000130: daeb 2f3c 4f3d 25be 9555 053e 07d0 f33d
00000140: 2522 bcbd ce03 d5bd 35cd 583d 58e1 07be
00000150: a4f9 7bbd 3fa6 863d 7af3 773d 37ee adbd
00000160: ef03 2a3d 57f3 fc3b 20f9 4d3d 98eb d23d
00000170: 8f44 093d 37a1 c9bc 26f8 303e afb2 17bd
00000180: 5aa7 c6bd ea64 243c 1bd9 25bd 8745 9c3d
00000190: 4497 34bd 7738 45bd f0c2 de3c 080c 293d
000001a0: d722 0a3d c884 d0bc 2b31 8abc 3a98 40bb
000001b0: a123 bcbd eb53 bfbb e227 b73c c20f 0d3c
000001c0: 9ef7 4d3d e5de cd3d 3b1d 2cbc 7122 2bbc
000001d0: 10fc 24bd e7eb 303c 6ea8 b13d 97c1 cbbd
000001e0: 35c3 04bb 1a5a 803d bf20 9dbd 90ca ee3b
000001f0: 67a1 ad3b ccf9 e83d 94f1 613d 1f01 df3c
0.042803455 -0.012878092 0.04202904 -0.038058642 0.043502312 -0.07982446 0.01886926 -0.08199444
-0.083191216 0.034014642 0.052975006 0.023221757 -0.13731742 0.02458417 0.18650189 -0.023214892
-0.05574614 -0.07518918 0.023874804 -0.104167596 -0.05946218 -0.0618578 -0.1078901 -0.06206528
-0.051471487 -0.0890649 0.049679868 -0.07064196 0.004935747 0.097679645 -0.07818838 -0.21507671
-0.06991606 -0.05868775 0.023709614 0.083626606 0.030129813 -0.012362005 0.08529279 0.055469103
0.15497279 -0.16018611 -0.022934431 -0.01179021 -0.08244071 0.058450837 -0.0069866157 0.1368443
0.019445391 0.078337505 -0.091765575 -0.0425111 0.050083272 0.121212594 -0.10067208 0.076443486
0.030024441 -0.00022807013 -0.09599566 -0.0039434205 0.051887058 -0.12111447 -0.12455651 0.06713421
0.06876512 0.036380522 0.13120009 -0.12521403 -0.054234207 0.028903265 -0.02525267 0.07858143
0.053588547 0.11152694 0.102577664 -0.043062467 0.010737384 -0.16136669 0.13020928 0.119049124
-0.091862 -0.10401116 0.052930076 -0.13269556 -0.061517373 0.06574678 0.06053493 -0.084927015
0.041507658 0.007719438 0.050286412 0.10298842 0.03351265 -0.024613006 0.17282161 -0.03703564
-0.096998885 0.010033825 -0.04049025 0.07630449 -0.04408957 -0.048149552 0.027192563 0.04127124
0.033724632 -0.02545394 -0.016869148 -0.002938761 -0.09186483 -0.005838861 0.022357885 0.008609714
0.050284974 0.100522794 -0.010505016 -0.010445223 -0.040279448 0.010798431 0.086747035 -0.09949034
-0.0020257954 0.062671855 -0.076722614 0.007287331 0.0052987817 0.1137577 0.055162027 0.027222214

gnn_0.lin_msg.weight f4 [128, 128]
00000000: 88ed 93bd 6637 e0bd 6e0d 0b3d 5b1c d9bd
00000010: 93d9 dabd f10d 2cbe e4ca 1c3d 227f 033b
00000020: 990d f9bc 36b7 773b f578 543d a8a2 223b
00000030: be24 153e e668 9bbd bc6f e7bd 627e 60bd
00000040: 1845 98bd 6e7f 2a3d 9c8f 643b 9f0b 033d
00000050: 010a e4ba 1a91 553d cd50 cbbc 75f2 fabd
00000060: 62d1 8c3d 9b0b c03b 20d1 26bd 8c58 63bc
00000070: f029 233d 2590 b1bd fadf 46be 50df 683d
00000080: 452a 71bb 5abd 02bd 4b75 abbc ef77 b8bd
00000090: a654 703d 7129 a9bd 8520 de3c 7ed6 6abd
000000a0: 6167 4cbd 0b0d 153d e632 92bd cd52 383c
000000b0: 29a8 4d3b 9120 c43c c69f 803d 1e7c b7bd
000000c0: 3797 fdbd 7dc6 073e 4013 54bd 2d0e bebd
000000d0: f080 113d 5f1d ecbc 78f0 cfbd 444c 083d
000000e0: 7ce5 44bd da05 33bd 7613 263d cae8 c83d
000000f0: a4ce 6cbd 803f 573d 4381 b7bd 800f bf3d
00000100: 3db5 b2bd 67fc 4abb 9ecc b33d b644 2a3d
00000110: d7e0 6cbd 4d0c 19bd 3e5d 96bd 76ff 70bd
00000120: 08b4 27bd 67d1 67bd 11ad 3e3c f9bc 5cbd
00000130: 3e45 3dbe bebc afbd 9230 0e3c b759 403d
00000140: 7a65 27bc 9a2e d23d 6d59 b2bd f205 f33b
00000150: ae39 7c3d dfff d7bc d2e8 043d 3d6a 9fbd
00000160: cbe1 42bd bfb9 343d acd6 9d3c 111b 853d
00000170: e5aa f7bc 0878 2fbd 653d 9fbd 0ea5 22bd
00000180: 6c0a d3bc 7bfa aa3d 5fcb 69bd 7ccb a43d
00000190: c2fe 283d f7c2 51bc 057d cb3c 405d 6c3d
000001a0: 39f0 8ebc a578 b1bd 47a5 923d a8a0 b53c
000001b0: 4e0d 913d 229e 63bd aed1 3bbd 8d89 123e
000001c0: acfc aabc d38b 14be c3e3 2e3d ce42 1c3d
000001d0: 0964 ba3d d70b 723d b4cc a33d ab65 e2bb
000001e0: 178a ee3c f195 29bd ae6b f53d 023c b73c
000001f0: 785b 0e3d c63e 4cbd e9fb 77bd 90a5 8f3d
00000200: 1486 133d f0bf 9dbd eefd 553c 6d6c 2bbc
00000210: 1819 91bd 3a97 c13b 4d93 e13d 8614 cf3b
00000220: ca05 5d3d c329 b9bb 5c10 ae3d 6064 a63d
00000230: 730f a2bc 82b3 f2ba 7148 01bd 88e6 e9bc
00000240: 8e47 86bd d39b 5fbd 179c dbbd fecc 0dbc
00000250: a9a2 aebd 4979 273d 2256 67bd e5fc 86bd
00000260: 3ef4 263d 5b78 793d 9d79 15bd b5cf e1bd
00000270: 61b0 dabc 2fb9 d53d a9fe ccbd a53e 22bc
00000280: f3d1 41bd 7bd0 8ebd d659 a1bd e2d5 9abd
00000290: 2e9c 7ebd 6709 723d 8785 51bd a1de c2bd
000002a0: 4799 483d 70ad cc3c 1b55 233d 8322 3f3d
000002b0: 2f3b debc 2568 68bc 5773 53bd f22d 653d
000002c0: e588 ffbd abe7 733d fc7a 07bd 22ee 7b3d
000002d0: 3ccb 96bb ef50 01bd b5b3 eabc 815c eb3d
000002e0: 9b3d c1bc 9991 63bd 51a5 97bc 84ac 453d
000002f0: c7ab 99bd 0a8b 81bd 9284 20bd 236c d23d
00000300: e165 29bc 3ad3 85bc b146 cebd dffc 443d
00000310: 8a93 263b 1ebc 833c d8f8 313d 4956 dabd
00000320: 9365 bd3c 9646 deba 40ef 823d 9d55 0abd
00000330: db39 533d 0b7a 6fbd b0e4 5c3d e09c c73c
00000340: ea2f 43bd 8ddc dfbb 8d59 0f3d 7ccb 263d
00000350: 3712 933d d4ed c1bd c519 a63b 2b27 edbb
00000360: 217c 6e3c 4876 33bd b65c 1bbd 66d9 33bb
00000370: ad9c a83d d482 c4bc 926e 14bb f460 9d3c
00000380: 4e25 2d3c db4c 94bc cbcd 95bd 4a65 683d
00000390: 3482 5d3c 70ed 4c3d a727 a5bd 4577 7b3d
000003a0: 56a4 c83d 2a7a 443c 2ddc 723d 859a 9f3d
000003b0: 0072 3bbd afe3 db3d f5a0 42bd 28f3 bebd
000003c0: 3cdc d83d 9f1b 433d 05e9 1ebd 757b 8e3d
000003d0: 0721 2ebd e0eb a4bc 3c91 22bb 647b 9abd
000003e0: 9f7d 00bd 5fe0 0f3d 8dd0 1b3d 73f1 0ebd
000003f0: 1810 903d 69be 92bb 8a2d b1bd 42f9 483d
-0.0722304 -0.109480664 0.033948354 -0.106011115 -0.1068603 -0.16802193 0.03827943 0.002006479
-0.030401992 0.0037798411 0.051873166 0.002481619 0.14564797 -0.07588367 -0.113006085 -0.054808028
-0.074350536 0.041625433 0.0034875637 0.031993505 -0.0017398001 0.052140333 -0.024818802 -0.12253276
0.06875874 0.0058607585 -0.04072678 -0.013876092 0.039834917 -0.086700715 -0.19421378 0.056853592
-0.0036798876 -0.03191886 -0.020929953 -0.090072505 0.058674477 -0.082598574 0.027115116 -0.057333462
-0.049903277 0.036389392 -0.07138614 0.01125021 0.003138075 0.02394131 0.06280474 -0.0895922
-0.123823576 0.13259311 -0.05177617 -0.092800476 0.035523355 -0.028822599 -0.10153288 0.033275858
-0.048070416 -0.043706752 0.040545903 0.09810026 -0.057814255 0.052550793 -0.089602016 0.09329128
-0.08725975 -0.0030973197 0.08779262 0.041569434 -0.05783161 -0.037365247 -0.07342003 -0.058837377
-0.040943176 -0.056596186 0.011637942 -0.053891156 -0.18483445 -0.085809216 0.008678572 0.04696056
-0.010217065 0.10262795 -0.08708463 0.00741648 0.061578445 -0.026367126 0.032448597 -0.07783935
-0.047578614 0.044122454 0.019267403 0.06499303 -0.030232856 -0.04283908 -0.07775382 -0.03970819
-0.025761805 0.083485566 -0.057078715 0.08046624 0.04125858 -0.012802831 0.024839887 0.057706118
-0.017448531 -0.08665589 0.071604304 0.022171333 0.07082616 -0.05557073 -0.045854263 0.14310284
-0.020872436 -0.14506464 0.04269768 0.038149647 0.091011114 0.059093323 0.079980284 -0.0069090924
0.02911858 -0.04140276 0.11983429 0.022367481 0.0347552 -0.049864553 -0.060542975 0.070140004
0.03601654 -0.07702625 0.01306103 -0.010462862 -0.070848644 0.00590792 0.110144235 0.0063195853
0.0539606 -0.0056507303 0.08499214 0.08124614 -0.019782757 -0.0018516632 -0.031563226 -0.028552309
-0.06556617 -0.054591965 -0.10723131 -0.008654831 -0.08527119 0.04088715 -0.056478627 -0.065912046
0.04076027 0.060905796 -0.036492933 -0.11025945 -0.026695432 0.104357116 -0.1000951 -0.009902631
-0.047319364 -0.06973358 -0.07878463 -0.07560326 -0.062160663 0.059090998 -0.051152732 -0.09515119
0.0489743 0.024985045 0.039876085 0.046663772 -0.02712783 -0.014184986 -0.05162367 0.05595202
-0.124772824 0.059547108 -0.03307627 0.061506398 -0.004601864 -0.031571325 -0.028650144 0.11492253
-0.023588946 -0.055558775 -0.018511446 0.048260227 -0.07503467 -0.06325348 -0.03918893 0.10274532
-0.010339231 -0.016336072 -0.10072077 0.04809272 0.002541753 0.016080912 0.043450207 -0.10660989
0.023119723 -0.0016958292 0.063932896 -0.033773053 0.051568847 -0.058466 0.05392903 0.024366796
-0.047653116 -0.0068317116 0.03499751 0.0407214 0.071812086 -0.0946919 0.00506899 -0.007237335
0.014555962 -0.043813974 -0.037930213 -0.0027442812 0.082330085 -0.023988165 -0.0022648913 0.01921127
0.010567976 -0.018103054 -0.073146425 0.05673722 0.013519812 0.050031126 -0.08064204 0.06139304
0.097969696 0.011992017 0.059292007 0.07793144 -0.045763016 0.107367866 -0.04751678 -0.09323722
0.105888814 0.047633763 -0.038796443 0.06957141 -0.042511966 -0.020132005 -0.0024805805 -0.07543066
-0.0313698 0.035126086 0.038040686 -0.034898233 0.0703432 -0.004478265 -0.08651264 0.049065836

gnn_0.lin_msg.bias f4 [128]
00000000: 93ce c4bd 5bb5 a43a 094b 15bd 408a 6ebc
00000010: c184 9bbd 8384 9cbd c6d3 edbc 50a6 c1bc
00000020: ca65 713c a443 b5bd 2dbb 99bd 8c3e 30be
00000030: 38ce f73b 2521 ae3d e2f0 aebc f4bc 69be
00000040: 8ee6 aaba 4587 783d 085f 48ba 8d51 2fbd
00000050: 52d1 343d c3f6 12bd 8e54 c1bd 955e 2ebd
00000060: 72ea a2bd d1c7 81bd 2b7c 00be 80f2 71bd
00000070: d1c6 ed3b 42fc df3c 0501 5fbc 84d6 cabd
00000080: 3ab0 32bd dc80 ebbd 7a91 87bb b7b3 973c
00000090: adda 883d 0eab 40be 3de1 c63d 40b1 b9bc
000000a0: dbf7 85bd 5c05 e8bc d419 383b f3e9 77bd
000000b0: d0d7 103c d980 953b e881 3fbe a840 1ebd
000000c0: 260b c9bd f145 463d 02d7 c3bd fd34 bebd
000000d0: cc44 9fbd b40f 8e3d 03f4 a0bc 62ca ccbc
000000e0: 0c09 29be 5d26 673d 290c 0fbe 19fb 15bd
000000f0: ebb3 38bd 763e f9bd 2208 b2bd e62e 96bd
00000100: 30f8 57bd f362 24bd bdf6 40bd acfb dd3c
00000110: 9db8 b6bd d6c9 4b3d 78c4 a6bd d963 923c
00000120: 6d5b 71bd f332 cfbd 2de4 a3bc 7a40 93bd
00000130: a2bc b7bc de77 f8bd 397d 9ebd aa7c b23b
00000140: 5651 8dbd 2ea2 17be bb1d 73bd 2353 3abe
00000150: b0dc 3abd c50a 833c 6552 cdbd f5d0 323d
00000160: fcb5 463c 19cb 69bd 2d89 18be de38 2bbd
00000170: 6b6c 0fbd 0728 33bd bdcf a6bd 6e94 b43d
00000180: 38ea c63b 3a64 95bb 2bd8 f0bd 4c50 873d
00000190: 5837 a0bd a524 df3c fc68 86bd b86d 2dbe
000001a0: 216f abbd 0728 48bb c758 90bd 5c87 f43a
000001b0: 3058 3ebe 0465 f5bd a383 48bc 6b86 8abc
000001c0: ce30 e4bc 2ee0 733c c817 0bbe 3ead 10be
000001d0: 92f0 8abd f62f 81bc 1ce7 c4bd a1ce 39be
000001e0: d64a e0ba c335 d2bc f1f3 c5bd 69d6 34bd
000001f0: cb28 0a3d d7ec 68bb 82e3 c8bd 026c 6ebe
-0.096097134 0.0012566255 -0.036448512 -0.014559329 -0.0759368 -0.07642462 -0.029031646 -0.023638874
0.014733741 -0.08850792 -0.07506404 -0.1721136 0.007562425 0.085024156 -0.021355096 -0.22825986
-0.0013038681 0.060675878 -0.0007643555 -0.042802382 0.044144936 -0.03587986 -0.09439956 -0.04257067
-0.07954873 -0.0633694 -0.12547366 -0.059069157 0.007256367 0.027341966 -0.013611083 -0.09904197
-0.043625094 -0.11499187 -0.004137215 0.018518312 0.06682334 -0.18815252 0.097109295 -0.022667527
-0.06541415 -0.028322868 0.0028091567 -0.060525846 0.008840516 0.004562479 -0.18701899 -0.03863588
-0.098165795 0.048406545 -0.09562494 -0.092874505 -0.07776794 0.06936589 -0.019647604 -0.024998847
-0.16507357 0.05643307 -0.13969482 -0.03661642 -0.04509346 -0.121701166 -0.086929575 -0.07333164
-0.052726924 -0.040133428 -0.047110308 0.027097546 -0.08921931 0.049753033 -0.08142942 0.017869877
-0.05892508 -0.1011714 -0.020006264 -0.07190032 -0.022428814 -0.12132238 -0.07738728 0.00544699
-0.06900279 -0.1480796 -0.059354525 -0.18195777 -0.04562062 0.015996346 -0.10025481 0.04365631
0.012128349 -0.057078455 -0.14896078 -0.04180228 -0.035015505 -0.043739345 -0.08145092 0.08817373
0.0060704015 -0.004559067 -0.11759981 0.06607112 -0.07823056 0.027239153 -0.06562993 -0.16936386
-0.083708055 -0.0030541436 -0.07048183 0.0018656063 -0.18588328 -0.11982158 -0.012238416 -0.016909799
-0.027855303 0.014884992 -0.1358329 -0.14128587 -0.067841664 -0.01576994 -0.09614393 -0.18145229
-0.0017112147 -0.025660401 -0.09665669 -0.04414979 0.03373031 -0.0035541558 -0.09809019 -0.23283389

gnn_0.lin_msg_i.weight f4 [128, 128]
00000000: 006b 3ebd 20a7 ddbd 72af 373b d13e d0bc
00000010: 0a18 833c 88ac 733c 4c03 5cbd 5c19 a0bd
00000020: 4ab5 17bd 28b5 98bc 5dd1 363d 328f 2a3d
00000030: d4f0 a3bb 4fd1 afbd 4744 1f3d 3043 5c3c
00000040: 3697 25bd 98df ae3a 657a 96bd d9f7 703b
00000050: 0336 6ebd 8ae0 263d 2258 1d3d 84a7 133d
00000060: b52f 83bd e7a5 a1bc 2f41 84bb 198a 443d
00000070: dff5 993b e1f4 c33d d4e4 97bd fca8 f53c
00000080: 5626 5ebc 72fe cc3a c850 98bd f551 463c
00000090: 84a5 0bbd 8339 153c 3307 a43d 0608 7cbd
000000a0: 84e8 d73a 82c2 06be c72d 593c 82e2 8d3c
000000b0: c32f fcbc 69d7 f53c e698 0a3d 0438 193d
000000c0: 07fa 96bd 3cb5 88ba 815f a53c e410 e8bc
000000d0: 35ec a8bb e3b2 aa3c c1cc a7bd 9c62 fb3d
000000e0: 83ce 1e3e 078e 2ebd 96c2 353e 901c c3bc
000000f0: fd8f 8bbd cdf1 2f3c 7a2d 62bd ac01 063d
00000100: 0668 c1bd 7822 91bd 9420 09bd c089 8c3c
00000110: 626c 34be bec4 00bc afb3 98bd 2a43 14be
00000120: 3cdc bfbd 2f55 f63d c663 9a3c 79a6 fdbd
00000130: a21e 35bd 1660 09bd 735d 30bd ce4d b7bd
00000140: 2c6f 3d3d 092d 083d 3009 9fbb 3935 6bbc
00000150: e579 0ebd 3e97 a53c f3b2 293d f34c 7f3d
00000160: f76d 18bc b260 bd3d 600a 68bc f81a c63d
00000170: 1127 06bd 097b 98bd 5b2f df3d 0dc1 533c
00000180: 2c74 8bbd be72 90bc 4582 b53d df06 dbbc
00000190: 17aa e33d 2ddf d6bb fe0a 683d 0600 dbbd
000001a0: 6bdf 1d3e e942 a3bd 0996 233d 62d1 e5bc
000001b0: 3314 0e3e e8ae 513d 8959 66bd 314a a8bc
000001c0: b015 603d d7fe b4bd 9acc 00bd 615f d13d
000001d0: c250 9bbd 5b98 a33d af8b b43d 4d59 08bc
000001e0: 97c3 033c 9191 0e3e dcd8 243d 3b65 973c
000001f0: e181 c9bc a525 133d 736a 2cbd 66c1 88bd
00000200: e99e 623d d002 73bd e0e7 7c3d 3de8 933d
00000210: 8d92 803d 1f45 2b3c 48c4 333d 5be4 b43a
00000220: 93de d9bc daaa c5bb f32c 4ab9 5513 fdbc
00000230: 49ad cd3d a0d7 e83b f88c 46bc a354 56bd
00000240: 6f01 f1bc bf8d df3c c046 3dbd 4997 b7bc
00000250: 7a7b cdbd 1f36 d23c 087a 7fbc 3fb5 d9bd
00000260: 1e69 da3d 939a 2b3d 6eae e73c 5e17 b2bc
00000270: 1ac2 84bc ea59 8fba f563 6fbc ef37 163d
00000280: efab a0bb bc98 f73c a831 80bd b46d 74bc
00000290: fe57 7bbd 54c0 abbc 5a36 89bd a833 4cbd
000002a0: a854 84bd f724 99bd f120 c3bd d854 c7bc
000002b0: 4cff 3d3d 283a aabd 0f6a 2f3a b660 9dbd
000002c0: a370 ffbd 1295 bd3c 0750 91bc b8aa c9bb
000002d0: 382c fc3c ecdb 353d 79a8 a33d 1527 173c
000002e0: 9ee7 873c b728 d53c 37ef 203d 16f0 3ebd
000002f0: 1d02 afbd 983d 4c3c 5ff2 40bd fd16 563d
00000300: cc4a bb3d 86c2 6cbc 787e 003d de44 1fbd
00000310: c454 be3b 7d73 e0bd 5463 96bc 64a5 473d
00000320: 4aa0 b2bd 1649 7c3d 786d 05bd faa5 4c3d
00000330: 6274 653d be0f b1bd b10d 1d3c 2121 443d
00000340: 55c1 b33c 1547 ff3b 71f3 903c 1c09 013c
00000350: f5b1 393d 1d05 053d fc18 4d3d d61e 263d
00000360: 8e70 353d 07d2 55bd 15f9 b23b 2134 873d
00000370: 9890 0e3c d4d3 dfbc e9c4 6b3c f78f 1e3d
00000380: 2c5e b63d 3112 a0bd 0b70 59bd 89da 2cbc
00000390: 3014 3cbd a617 303d 609d 4abc 56c3 153c
000003a0: ecbe 7a3c 3758 dd3c 69c7 633d 7bb9 40bb
000003b0: e192 c73d 4e81 bf3b 834f d0bb e166 33bd
000003c0: cdcf 763c fa80 ea3b 6683 73bc 535a ddbd
000003d0: 6519 023d 1a0f 0d3d db7c a0bd c14c 943d
000003e0: 1d19 a2bd d46b 47bd 72e1 afbb 6ee2 c03d
000003f0: d929 113e 58ca d4bd f489 da3c 9ceb 9e3d
-0.046488762 -0.10822892 0.0028028158 -0.025420578 0.016002674 0.014872678 -0.05371408 -0.07817337
-0.037038125 -0.01864107 0.044633258 0.041640468 -0.005003074 -0.08584844 0.038883474 0.013443753
-0.04042741 0.0013341783 -0.07347564 0.0036768822 -0.05815698 0.04074148 0.038414128 0.036048427
-0.06405584 -0.019732429 -0.004036091 0.047983263 0.0046984996 0.09568191 -0.074166924 0.029987805
-0.013558945 0.0015639795 -0.07437283 0.012104501 -0.034093395 0.00910795 0.08009186 -0.06153109
0.0016472493 -0.13160136 0.013255543 0.017319921 -0.030784493 0.030009942 0.03383722 0.037406936
-0.07371908 -0.0010429989 0.020187141 -0.028328367 -0.005155111 0.020837253 -0.081933506 0.122746676
0.15508465 -0.042615917 0.1775001 -0.02381733 -0.06814573 0.010738802 -0.05521915 0.03271644
-0.09443669 -0.070866525 -0.033478335 0.017155528 -0.1761947 -0.007859407 -0.07456147 -0.14478746
-0.09368178 0.12027966 0.018846404 -0.12385268 -0.044218667 -0.0335389 -0.04305787 -0.08950387
0.0462486 0.033246074 -0.00485339 -0.014355951 -0.034784216 0.02021372 0.041430425 0.062329244
-0.009303561 0.09246959 -0.01416263 0.09673113 -0.0327521 -0.07445342 0.10897704 0.012924445
-0.068092674 -0.017632838 0.088627376 -0.026736675 0.111164264 -0.0065573663 0.056651108 -0.10693364
0.15417258 -0.079717465 0.039938007 -0.028053943 0.13874893 0.051192194 -0.05623773 -0.02054319
0.054708183 -0.08837669 -0.031445123 0.1022327 -0.07583763 0.07988044 0.08815705 -0.008322072
0.008042238 0.13922717 0.040245876 0.018480888 -0.024598064 0.035924572 -0.042093705 -0.06677513
0.05532733 -0.059328854 0.06174457 0.0722203 0.06277952 0.0104534915 0.04388836 0.0013800965
-0.02659539 -0.00603233 -0.00019280966 -0.030893007 0.10042817 0.0071057826 -0.0121185705 -0.05232681
-0.029419629 0.02728927 -0.04621005 -0.022411006 -0.10033317 0.025660573 -0.015593059 -0.10630273
0.10664581 0.04189546 0.028281417 -0.021739658 -0.016205836 -0.0010936831 -0.014611234 0.036674436
-0.0049033086 0.030224197 -0.06259471 -0.014918733 -0.061363213 -0.020965733 -0.0669982 -0.04985395
-0.064614594 -0.074777536 -0.095277674 -0.024332449 0.04638605 -0.08311874 0.0006691524 -0.07684462
-0.124726556 0.023142371 -0.017738355 -0.0061543845 0.030782804 0.044399187 0.07991118 0.0092256265
0.016589936 0.02602039 0.039290633 -0.046615683 -0.08545325 0.012465857 -0.047106143 0.052268017
0.09145126 -0.014450675 0.03137061 -0.038884036 0.0058084447 -0.10959528 -0.01835791 0.048741713
-0.08721979 0.061593138 -0.0325751 0.049962975 0.056019194 -0.08645581 0.009585784 0.047883157
0.021942774 0.007790456 0.017694207 0.007875707 0.04533573 0.03247558 0.050072655 0.04055675
0.044296794 -0.05220225 0.005461822 0.0660174 0.008701466 -0.027322687 0.014390209 0.038711514
0.089046806 -0.0781597 -0.053085368 -0.01055015 -0.04591769 0.042991303 -0.012366623 0.00914081
0.015304308 0.027019603 0.055610094 -0.002940743 0.09744812 0.0058442717 -0.006357135 -0.043799285
0.015064192 0.0071564885 -0.014862871 -0.108082436 0.0317625 0.03443823 -0.07836314 0.07241202
-0.07914946 -0.048686817 -0.0053674513 0.09418188 0.1417612 -0.103901565 0.02667711 0.07759783

gnn_0.lin_msg_i.bias f4 [128]
00000000: 37a2 573b 5ee6 ccbd 402b 98bd 86f6 8bbb
00000010: 1c71 e1b9 66d8 8cbd 3b5a 6dbd 5009 05be
00000020: c3a3 8c3d 1a9c 063d de69 0cbc fd1f 25be
00000030: ad69 233a 9ee5 383d 44fc 49bd e2df 30be
00000040: d627 82bd ec9b 79bd 99b9 4ebd 3fbe 38be
00000050: c602 373d a80e 613d f506 1cbd 4a90 bcbd
00000060: 7336 08bd ab66 31bd 0989 acbd 27c9 18bb
00000070: 5322 7abc ee68 a1bc 336b 13b9 fd03 2ebe
00000080: d19b 44be b4ed 19be baa4 b6bd e57d 5fbd
00000090: 0735 44bd 1605 dbbd 4e09 3dbd 9a07 003d
000000a0: 2973 163d 738c ce3d a6b5 dfbb 856f f5bd
000000b0: 662b 16be 862b d33c f4bc 46be 5262 98bc
000000c0: bfd5 40bd 2a90 953d b659 c7bd 4027 0bbe
000000d0: ee0c c8bd 3570 2f3d 2979 943d 7c8a d3bd
000000e0: abc0 b7bd 3119 683c 12b0 90bd fbf5 9ebd
000000f0: deca d73d 4787 fbbd c018 14be a545 c5bc
00000100: 26eb aabd 929d cfbd 3021 9f3d d0c9 923d
00000110: 7d0c ecbd 7ab8 b3bd 6322 52bd b5c7 9abc
00000120: 686a f03c 8147 37bd 242f 79bc ef77 aabd
00000130: fe4e 08bc f3c8 04be 26fd 0ebe 6f10 6b3d
00000140: 6dfa 70bd 1b36 d0bd 1f08 3a3d 9c9e 06be
00000150: 5ee2 183b 1b72 5dbd 7fb5 043b be3f 3bbb
00000160: cf3f 913c 2275 8dbd bad0 c3bd cf39 12bd
00000170: 74ee d53d d640 463d 5588 debd 1b47 a23b
00000180: 73bc 853d 7a59 87bd e39e 15be 49b0 2f3d
00000190: 0d30 953c f21c 69bd 2fbe 2cbe c068 e2bd
000001a0: 7595 803c 9cc8 783d 3170 263d 271f 443d
000001b0: 2d7c 07bd 389e 8ebc 4655 e83c 09c4 b93d
000001c0: 916b 96bd 4eef f4bc 24e2 0ebe dc7b 27bc
000001d0: 48f9 b9bb 1c6e 2a3d 884c e73b 5776 09be
000001e0: 6b15 32be 4d2c 293d affa cfbd feb6 553d
000001f0: 3cbf aebc a26b aa3d 7729 0ebe 41b3 27be
0.0032903084 -0.100048766 -0.07430124 -0.0042713312 -0.00042999617 -0.06877212 -0.05794738 -0.12991834
0.068671726 0.032863714 -0.008570163 -0.16125484 0.00062337035 0.045140855 -0.049312845 -0.17272905
-0.06355254 -0.060939714 -0.05046997 -0.18041323 0.04468038 0.054945618 -0.038092572 -0.092072085
-0.03325505 -0.043310802 -0.08424575 -0.0023313256 -0.015266973 -0.019703355 -0.00014058947 -0.16993709
-0.19200064 -0.15032083 -0.08918138 -0.05456342 -0.047902133 -0.106943294 -0.04615145 0.03125725
0.03673092 0.10085382 -0.006827074 -0.11984161 -0.14664993 0.02577759 -0.19408017 -0.01860157
-0.047078844 0.07302888 -0.09733908 -0.13589191 -0.09768091 0.04283162 0.07249672 -0.10329148
-0.089722954 0.014166162 -0.07064833 -0.07761761 0.10536741 -0.122816615 -0.14462566 -0.02408106
-0.08345632 -0.10137476 0.07770002 0.07167399 -0.115258195 -0.087754205 -0.051302325 -0.018894056
0.029347613 -0.044745926 -0.015208993 -0.08323657 -0.008319614 -0.12967281 -0.13963756 0.05738872
-0.058832575 -0.1016657 0.0454179 -0.13146442 0.0023328285 -0.054063898 0.0020249782 -0.002857193
0.017730622 -0.06907107 -0.09561296 -0.03569966 0.10445872 0.048401676 -0.10865847 0.004952324
0.065300845 -0.06608863 -0.14611392 0.042892728 0.018211389 -0.05691237 -0.16869424 -0.11055136
0.015696267 0.06073819 0.040634338 0.04788127 -0.033077408 -0.017409429 0.028360974 0.09070594
-0.073447354 -0.029899266 -0.13953453 -0.0102224015 -0.0056754686 0.041608915 0.007058684 -0.1342405
-0.17390983 0.041302014 -0.10155236 0.052176468 -0.021331422 0.083213106 -0.13883005 -0.16376974

gnn_0.lin_edge.weight f4 [128, 2]
00000000: 60fa 043e 0edf ffbe 9240 e4bd 63a2 18bf
00000010: d3a9 1abf ba82 aa3f a930 fe3e 468c 18bf
00000020: f4ec 753e aca2 65be aeee 08bf d5bc 09bf
00000030: 8ad4 7c3e acd0 e53c b6d6 b5be 4322 6fbf
00000040: 117a 133f 79ea 973f 7f6c 76bf d512 013f
00000050: c1c3 a1bb fe5a 603e 6c82 41be aa93 d0bb
00000060: 032f 0abe 26a9 1a3f aee1 8cbe 38f4 273f
00000070: 1b1e f43e cf45 203f 6fac 3fbf ef3d 8ebe
00000080: 728c 6c3e 18f7 0b3f 127a 253f 98c4 48bf
00000090: 1240 803e bc90 0c3f bba0 d73e 8a3f bc3e
000000a0: 95da 15bf af33 b5bd a869 c53e d573 593f
000000b0: a90e a43e 2c35 41bf 8f16 223f c0ad 913d
000000c0: 8d65 da3d 8fb0 7ebe 261c d9be 7630 c63f
000000d0: 29a9 bd3e 1840 21be 0ddf c2be 1e88 38bf
000000e0: 9fe7 9c3d bff6 5fbf fd89 0c3f 0dfb 073f
000000f0: 9a5e 0f3e 0402 4cbf 8038 983d 9d81 0bbe
00000100: 627d 133f eb33 3ebf 203a 813e 0970 b93e
00000110: 11d7 263f ce61 0d3f 4ff3 a7be 7a5a 2b3f
00000120: ba44 05bf ad72 573f 260b c0be e59a 5cbf
00000130: 3645 8c3e 569d ffbe a4f8 853e b4ba bb3f
00000140: 0ac6 38be ec7f 3dbf 3b90 193f 3725 4dbf
00000150: bb4b 48be 2058 a73f b33a 91bc 3dc4 033f
00000160: 94f1 8abe 5d2a 7e3e 8a35 8fbe b9af 853f
00000170: 5c27 e73e 0028 8c3d 799a 62be 625b 7e3f
00000180: 1dfb adbe 6ad1 76bf bf7f 073f a1dc 32bf
00000190: 2b60 2c3e ca58 29bf 995d 073f a79b 25bf
000001a0: 860e 13bf 8992 8a3d 98fc 853d 0d84 0f3e
000001b0: ab40 153f 35ac 413f 7193 f33e 318b e63e
000001c0: 550b 24bf 51d8 41bf c368 08bf 9fca 82bf
000001d0: 0a99 07bf ab25 73be 17de 9dbe a3a6 fdbe
000001e0: 6f82 b3be f884 793f 0722 8a3e 8b2f 5fbf
000001f0: ac58 273e 7d64 f5bc bbbf 2a3f 0e5b 733f
00000200: a7e4 2a3e 3086 2dbf dfa0 a8bd 15ae 77bf
00000210: ef61 9abd c710 273f 58be 063f 4b01 13be
00000220: a0bf e8ba 05f0 1b3f 6adb 41bd 39fa 913e
00000230: afde f6bd de5a 13be 5e4f f7be 9828 82bf
00000240: 6a21 05bf d937 3ebf 0c0a 05bf 24b7 933e
00000250: 2ef0 cdbe 6f3c 9ebe 854e cc3a 776b 67be
00000260: 0978 dcbe 2ee1 843f 7cf3 d5be 404a 153f
00000270: 22a4 0c3f 0d3c ccbe 9011 a5be 27b4 8b3f
00000280: c86c 163d ede9 86be c15c 933e abb7 5a3e
00000290: 0e96 ce3e f2ae aa3f 09d8 0abe 0d47 09be
000002a0: bee3 9cbd a4d7 86be 90a7 473e 4149 663f
000002b0: 5199 c8be 4654 01bf 0510 073f 9d28 05be
000002c0: b7a4 03bf bfd0 c63e 74ac 323e 6eae 78bf
000002d0: 242f 81be 8738 ad3e 358c 1a3d c8b3 c1be
000002e0: 1880 963e a5cb 25bf 98f9 1e3e ba70 09bf
000002f0: 328f 623d 96cd dc3e 467f b2bc 4911 9f3f
00000300: 1693 203f c725 1f3f fa97 363f 798f 503f
00000310: 47b7 763e 54fa adbe 8f1b a23e 5ffa cfbe
00000320: 774f b6be b7f9 e2be bafd 0d3e 553e 353f
00000330: 75c3 5fbe f6e1 d13d 02a8 14be 7e29 24bf
00000340: 619f 513e f8fa 38bf b2b7 2f3f 1c38 8abd
00000350: fe04 59bf 8a89 bb3e 35fb dd3e 0b5f 733f
00000360: 4eda 18bf df66 4cbf ae6b 7a3e dc14 213e
00000370: d432 753e 3641 ac3f 4f20 9fbe c4cb f83e
00000380: b61b 70be 38d1 9fbc 0667 0cbf 9215 3c3f
00000390: 3728 d93e 7ee3 35bf 8a5f 88bd 7ca5 1dbf
000003a0: dfba 913e 1351 78be 9bb5 28bf 974f c6be
000003b0: 7a84 993e 2db5 b43e 03f3 9fbe a40a 5dbe
000003c0: 7a14 9b3e c0c5 47be 3799 27be 2e83 dd3f
000003d0: 2ece 223e 8ebc 48be b6b4 4e3d 29dd 65bf
000003e0: 880f 9b3e 8803 97be d4bf e23e 576c 59bf
000003f0: d66a fd3e 83e1 76bf 436b 473e 51f3 4dbf
0.12986135 -0.49974865 -0.11145128 -0.5962278 -0.6041538 1.3321145 0.496465 -0.5958904
0.24016172 -0.22425336 -0.53489196 -0.5380376 0.24690452 0.028053604 -0.35515374 -0.93411654
0.57608134 1.186843 -0.962593 0.5041936 -0.0049366658 0.21909711 -0.18897408 -0.006365259
-0.13494496 0.6041435 -0.2751593 0.65607023 0.4767922 0.6260652 -0.7487249 -0.27781627
0.2310045 0.5467391 0.6463939 -0.7842498 0.25048882 0.5490835 0.42114815 0.36767226
-0.58536655 -0.088477485 0.38557172 0.8494237 0.32042435 -0.7547176 0.6331567 0.07113218
0.106639005 -0.2487204 -0.42404288 1.5483539 0.3704312 -0.15747106 -0.380608 -0.720827
0.07661366 -0.8748588 0.54898053 0.5311745 0.14000931 -0.79690576 0.074326515 -0.13623662
0.57613194 -0.7429797 0.25239658 0.3621829 0.65171915 0.55227363 -0.32802817 0.6693493
-0.52057993 0.84159356 -0.37508506 -0.8617385 0.27396554 -0.49924725 0.2616626 1.4666352
-0.18044296 -0.7402332 0.59985703 -0.8013491 -0.19560139 1.3073769 -0.017728185 0.5147131
-0.27137434 0.24820848 -0.27970535 1.0444251 0.45147216 0.06843567 -0.22129239 0.9935819
-0.33980647 -0.9641329 0.529293 -0.69867903 0.1683356 -0.66151106 0.52877194 -0.6469063
-0.57444036 0.067662306 0.06542319 0.14015217 0.583018 0.7565339 0.47573426 0.4502807
-0.6407979 -0.757207 -0.53284854 -1.0218085 -0.52967894 -0.23744838 -0.30833504 -0.49541196
-0.3506045 0.9746852 0.26979086 -0.8718192 0.1634242 -0.029955143 0.6669881 0.95060813
0.16688786 -0.6778288 -0.08233809 -0.96750003 -0.075382106 0.65259975 0.5263419 -0.14355962
-0.0017757304 0.60913116 -0.04732839 0.28511217 -0.12054192 -0.14390132 -0.4830274 -1.0168638
-0.5200411 -0.74303967 -0.51968455 0.28850663 -0.40222305 -0.30905482 0.0015587365 -0.22599588
-0.4306033 1.0381219 -0.41787326 0.5831642 0.54937947 -0.39889565 -0.32239962 1.0914353
0.036724836 -0.26350346 0.28781703 0.21359126 0.40348858 1.3334639 -0.13558973 -0.1340601
-0.07660626 -0.26336396 0.19497514 0.89955527 -0.3917947 -0.50519216 0.5275882 -0.13003774
-0.5142321 0.38831136 0.17448598 -0.9714116 -0.25231278 0.3383219 0.037731368 -0.37832475
0.29394603 -0.6476386 0.155249 -0.5368763 0.055312343 0.431256 -0.021789204 1.242715
0.62724435 0.6216702 0.7132565 0.8146892 0.24093352 -0.33980048 0.3166165 -0.40620705
-0.35607502 -0.44331142 0.1386632 0.70798236 -0.21851905 0.10248177 -0.14517215 -0.6412581
0.20470954 -0.7225795 0.6863967 -0.06748983 -0.8477324 0.3662837 0.43355718 0.950669
-0.59708107 -0.7984447 0.24455139 0.15730613 0.2394517 1.3457401 -0.31079337 0.4859296
-0.23448071 -0.019508943 -0.548447 0.73470414 0.42413494 -0.7105025 -0.06658848 -0.61580634
0.28462884 -0.24249677 -0.6590211 -0.38732597 0.29983884 0.35294476 -0.3124009 -0.2158609
0.3028906 -0.1950903 -0.1636704 1.7305658 0.15898964 -0.19603178 0.050465308 -0.8979059
0.30285287 -0.29494882 0.44286978 -0.8493094 0.49495572 -0.96437854 0.19474511 -0.80449396

gnn_0.lin_edge.bias f4 [128]
00000000: 90a8 3ebe 5565 a63c 31d5 233f 594b 373f
00000010: 0ac1 f9be 0ce9 8f3e ba5d 103f 0385 113f
00000020: 5994 3cbe 5391 153f 6efb ebbd 656d cc3e
00000030: d84b ed3e 544f fa3d 19ac dabe 5ffd 653e
00000040: 809f 83be d23d 353f 53bc 2a3c ab21 1b3e
00000050: 0338 0dbf 58cd b53d 12a1 a2be 73f2 30bf
00000060: 2628 acbe 5b4e bfbd 1a78 f0be 45e9 02be
00000070: 7fb1 1e3f 25fa a4be b627 463d c842 223d
00000080: e7d6 24be 9ffb 0dbe 98a3 013f 01b7 cf3d
00000090: 29f6 983e a04a 023f ba86 b23e e659 21bf
000000a0: cb57 ecbe 91f9 d23e 8f78 abbe b44d 9f3e
000000b0: 4e55 513e 4c04 23bf 815c b03e fc78 1ebf
000000c0: d815 1a3f cb59 013f da3e fdbe 5caa 26be
000000d0: b910 b33b a17b 063e d4dd 0bbf 4513 203f
000000e0: 1a98 163d 2956 243f b28c e23e 39e9 de3e
000000f0: ec04 43be b740 2f3e 833e 40bd 2f99 eb3d
00000100: d5bf 31bf 2b31 e63e 518b 1dbc 4271 0d3f
00000110: 372f 38bf 4261 21bf 446d 0abf 05d6 c23e
00000120: 9a66 15bf 28a5 29be b795 a6be b1ab a43d
00000130: d4fa b83c 17ba 38bf 47cc 0dbf 3a67 cabe
00000140: 5215 36bf b96b 423e be45 a13e 9183 b1be
00000150: 0a8d b03d 4643 8dbe ba60 e93e 3f70 783e
00000160: e794 323f 7bae 113f 3253 173d 8102 60bc
00000170: d0af a43e 0f9d 1a3f 9ac1 14bf 87a6 adbd
00000180: fc5e 96bc 0e87 2fbf 5636 abbe aeb1 d03e
00000190: 48b3 bbbc 7bef 0b3f 2690 143f 834a 183e
000001a0: 07f2 35bf d84c 81be 2f66 23bf 652c df3d
000001b0: b471 093f 47f7 4abf 7e6d 65be 78b0 4b3e
000001c0: 2b5a b8bd 7b9d 52be 96fc 08bf 68e0 093f
000001d0: 2ef1 1abf 2c7c c3be 1eb3 23bf dcac 5f3e
000001e0: eca9 46bf 6377 013f 40ec 37bf 2c2f 1c3f
000001f0: 45b1 ddbe 9cf7 afbe f117 a5be 2f54 0a3f
-0.18618989 0.02031199 0.6399718 0.71599346 -0.4878009 0.28107488 0.56393015 0.56843585
-0.18415965 0.5842487 -0.11522566 0.3992721 0.46346927 0.12222162 -0.42709425 0.22459935
-0.25707626 0.70797455 0.010420877 0.15149562 -0.5516359 0.08877057 -0.31763512 -0.6911995
-0.3362438 -0.09341117 -0.4696663 -0.12784298 0.6198959 -0.32222095 0.048377715 0.03961447
-0.16097604 -0.13865517 0.5064025 0.10142327 0.29875305 0.5089512 0.34868413 -0.630278
-0.4616073 0.4120603 -0.33490416 0.3111397 0.20442697 -0.6367843 0.34445575 -0.6190336
0.6018958 0.5052764 -0.49462014 -0.16275924 0.00546464 0.13133098 -0.5463536 0.625294
0.03676615 0.6419397 0.44247967 0.4353731 -0.19044846 0.1711453 -0.046934616 0.11503827
-0.6943334 0.44959387 -0.009615735 0.5525094 -0.71947044 -0.6303903 -0.54072976 0.3805391
-0.5835968 -0.16566908 -0.32536098 0.0804056 0.022580542 -0.7215895 -0.5538983 -0.3953188
-0.7112628 0.18986405 0.31498522 -0.3467069 0.08620651 -0.27590388 0.4558161 0.24261568
0.69758457 0.5690686 0.036944576 -0.013672472 0.32165384 0.603959 -0.5810791 -0.08479028
-0.018355839 -0.6856545 -0.33439893 0.4076056 -0.022912636 0.54662293 0.58032453 0.14872174
-0.7107243 -0.2525394 -0.63827795 0.108971395 0.5368912 -0.79283565 -0.22405049 0.19891536
-0.09001573 -0.20567887 -0.53510416 0.5385804 -0.6052426 -0.38180673 -0.63945186 0.21843284
-0.7760303 0.50572795 -0.71844864 0.6100948 -0.43299308 -0.34368598 -0.32244828 0.54034704
