models/particle_gnn_4.pth (torch, 475642 bytes, 18 tensors)

encoder.0.weight f4 [128, 9]
0	0xbe7bca45	-0.24588878
1	0xbe897671	-0.26848176
2	0xbe1e31d2	-0.15448692
3	0xbe1ad3f6	-0.15119919
4	0x3f3eb47c	0.7449415
5	0xbd8660a3	-0.06561401
6	0xbec2a2a5	-0.38014713
7	0xbe8eabdf	-0.27865502
8	0xbf64453c	-0.89168143
9	0xbf416812	-0.75549424
10	0x3d762e12	0.06010253
11	0xbef72c66	-0.4827606
12	0xbeed58f4	-0.46356928
13	0xbddbe3df	-0.10736822
14	0x3eac0a16	0.33601445
15	0xbe1aed4b	-0.15129583
16	0xbdcc72ad	-0.0998281
17	0xbfebb37d	-1.841415
18	0x3f791109	0.9729162
19	0x3e405a37	0.18784414
20	0x3f8e4eca	1.1117795
21	0xbd9175ce	-0.071025476
22	0x3c57f88f	0.01318182
23	0x3cae2c2f	0.021261303
24	0xbd4f8ba5	-0.050670285
25	0xbe6330fb	-0.22186653
26	0xc063285e	-3.5493388
27	0x3f65c6a3	0.8975622
28	0xbe352169	-0.17688526
29	0x3f91fef9	1.1405936
30	0x3cb60bb2	0.022222374
31	0x3d766116	0.060151182
32	0x3dd7d6f4	0.10539046
33	0xbf04444c	-0.5166671
34	0xbef23e32	-0.47313076
35	0xbf922d34	-1.1420045
36	0x3d9886cd	0.07447586
37	0x3f7869e4	0.97036576
38	0x3ed8d51e	0.42350096
39	0xbe28672a	-0.16445604
40	0x3ca88217	0.020569844
41	0xbdc20473	-0.09473505
42	0xbe0f694e	-0.14005014
43	0xbe8bc3f4	-0.27297938
44	0xc078b52d	-3.886058
45	0x3f04c9ec	0.5187061
46	0xbf9a86aa	-1.2072346
47	0x3e8b2eb9	0.27184084
48	0x3e1cc67c	0.15310091
49	0x3e257312	0.16157177
50	0xbe97838d	-0.29592553
51	0xbcd4aaaf	-0.025960295
52	0xbe56c55d	-0.20973726
53	0xc03d450b	-2.957339
54	0x3da050c7	0.07827907
55	0x3d7b47fa	0.06134794
56	0xbeb156e4	-0.34636605
57	0x3ec7555f	0.3893232
58	0xbe9acf04	-0.30236065
59	0x3f2d7fe3	0.67773265
60	0xbe756158	-0.23962915
61	0xbdf703f5	-0.120613016
62	0xbf352437	-0.70758384
63	0xbf1b1945	-0.60585433
64	0xbf247e4b	-0.6425521
65	0xbe7084df	-0.23488186
66	0xbd83649d	-0.06415675
67	0xbf2d8ae3	-0.6779005
68	0x3dce1464	0.10062483
69	0xbf434438	-0.7627597
70	0xbea723a8	-0.3264439
71	0x40025f60	2.0370712
72	0xbe94034f	-0.28908774
73	0x3f2a294f	0.6646928
74	0x3f21ca9d	0.6319979
75	0x3f2085a7	0.6270394
76	0xbea776de	-0.32707876
77	0xbe7798d8	-0.24179399
78	0xbf70645b	-0.9390313
79	0xbf339533	-0.70149535
80	0x3f02a6e0	0.5103588
81	0x3f101c2a	0.56292975
82	0x3f1254e8	0.57160807
83	0x3d5bbc2e	0.05364626
84	0xbe88482e	-0.2661757
85	0xbbb314b5	-0.005465115
86	0x3f4d6f44	0.802479
87	0xbf04c89c	-0.51868606
88	0xbf5b3f28	-0.85643244
89	0x3f3629f0	0.7115774
90	0x3f9f0402	1.2423098
91	0xbdb35a3d	-0.08757446
92	0x3e411b78	0.18858135
93	0xbc322cf3	-0.010874975
94	0x3e16dda9	0.14732994
95	0x3d7e8667	0.062139895
96	0xbf76e2b4	-0.9643967
97	0xbfb056cc	-1.3776488
98	0xbf5afc63	-0.8554136
99	0xbe8f55f3	-0.27995262
100	0x3f8cf813	1.1013206
101	0x3e74fbeb	0.23924224
102	0xbea434a4	-0.32071412
103	0x3e24af77	0.1608256
104	0x3d98d610	0.07462704
105	0xbf553dc1	-0.83297354
106	0xbf37d746	-0.71812856
107	0xbfcc8200	-1.5977173
108	0xbeb68cf6	-0.3565442
109	0xbdefd2d4	-0.11710134
110	0x3f29ff23	0.6640493
111	0xbf059a44	-0.52188516
112	0xbecd84e2	-0.40140444
113	0xbecdf2fe	-0.4022445
114	0xbf1ee71c	-0.62071395
115	0xbf72cc15	-0.94842654
116	0x3fce9187	1.6138161
117	0x3e829452	0.25503784
118	0x3d518e73	0.05116124
119	0xbf93190d	-1.149202
120	0x3ce9491c	0.028477244
121	0x3e34e23c	0.17664427
122	0xbe959e9a	-0.29222566
123	0xbf866885	-1.0500647
124	0xbf1a84a2	-0.6035863
125	0x3fa24dbf	1.2679976
126	0xbec8cc1a	-0.39218217
127	0xbea87ded	-0.32908574
128	0xbf747ad0	-0.95499897
129	0x3ed130bb	0.4085749
130	0x3f11a139	0.5688663
131	0x3f1fb168	0.62380075
132	0xbf2de98e	-0.679345
133	0xbf32ebea	-0.69891226
134	0x3f724b19	0.9464584
135	0xbe9ab640	-0.3021717
136	0x3e34d783	0.17660336
137	0xbcf67302	-0.030084137
138	0x3f4aa2a3	0.79154414
139	0x3ec70750	0.38872766
140	0x3e98b595	0.29826036
141	0xbefcce73	-0.49376258
142	0xbef532ee	-0.4789042
143	0xbfc795dd	-1.559261
144	0x3facc262	1.3496821
145	0x3e969161	0.2940779
146	0x3ed41cf9	0.41428354
147	0xbd072b59	-0.033000324
148	0x3d095a4f	0.03353339
149	0x3dcdfb97	0.100577526
150	0xbf3354d4	-0.7005131
151	0xbf200dfd	-0.62521344
152	0xbf9691a6	-1.1763198
153	0xbee3c974	-0.44489634
154	0x3f9022ed	1.1260659
155	0xbee6cc69	-0.45077828
156	0x3e0fc8ec	0.1404149
157	0xbf3fe83e	-0.7496375
158	0xbd9f92fe	-0.077917084
159	0xbf3cc255	-0.7373403
160	0xbebf4198	-0.37354732
161	0x3fc853af	1.5650538
162	0x3cb51b53	0.022107756
163	0xbeb0e09c	-0.34546363
164	0x3f66e247	0.9018902
165	0x3b7dea7a	0.0038744495
166	0x3adef757	0.0017010969
167	0x3de62674	0.11237803
168	0xbf3242c8	-0.6963315
169	0xbf3e99ef	-0.74453634
170	0x40040134	2.0625734
171	0xbf93511c	-1.1509128
172	0x3ece9b00	0.4035263
173	0x3ce9a77d	0.028522247
174	0xbe68d0b7	-0.22735868
175	0xbd56b787	-0.05242112
176	0x3e7c496d	0.24637385
177	0xbf3ada19	-0.7298904
178	0xbee35b27	-0.4440548
179	0x3fcb79b3	1.5896515
180	0xbed3869a	-0.4131363
181	0xbf8ef0dd	-1.1167256
182	0xbeb3c8f7	-0.35114262
183	0x3db9e122	0.09076144
184	0x3d608c6f	0.054821428
185	0x3ed884f6	0.4228894
186	0xbf2b4509	-0.66902214
187	0xbf3892be	-0.7209891
188	0x3f8cd7cf	1.100336
189	0xbd53c62d	-0.051702667
190	0xbef1c560	-0.47220898
191	0x3f7822df	0.9692821
192	0x3c90b07c	0.01766228
193	0x3f37f0d7	0.7185187
194	0xbed23985	-0.4105951
195	0xbf2cf3c7	-0.67559475
196	0xbf20c7d3	-0.6280491
197	0x3e877dfe	0.26463312
198	0xbd956630	-0.07294881
199	0x3f4840cf	0.7822389
200	0x3f1d7817	0.6151137
201	0xbe556283	-0.2083836
202	0xbe0bd66f	-0.13656019
203	0x3996dfb3	0.00028776898
204	0xbe73a0f5	-0.23791869
205	0xbf2e0f2f	-0.6799192
206	0xc0590f94	-3.3915758
207	0x3e25506d	0.16143961
208	0x3f7e4f46	0.9933971
209	0xbe2c49d1	-0.16825034
210	0xbf1d90d6	-0.6154913
211	0xbe0d2a06	-0.13785562
212	0xbcb42d51	-0.021994265
213	0xbf23a1a0	-0.63918495
214	0xbe8eff73	-0.27929267
215	0xbfbdb8e5	-1.482205
216	0xbf19c466	-0.60065305
217	0xbf4ff96a	-0.8123995
218	0x3ebe76ca	0.37200004
219	0x3d87d70a	0.06632812
220	0x3da2590c	0.079271406
221	0x3da4be63	0.08044126
222	0xbf6ba046	-0.9204143
223	0xbf984d6e	-1.189863
224	0xbfe69e6a	-1.8017094
225	0x3ea982a7	0.33107492
226	0xbe56c340	-0.2097292
227	0xbf4f3729	-0.8094354
228	0xbe140cd0	-0.14458013
229	0x3ca9873f	0.020694373
230	0xbe11dcd3	-0.14244394
231	0xbf377192	-0.7165767
232	0xbf3c1b7f	-0.73479456
233	0xbf96ad3d	-1.1771618
234	0xbf98690f	-1.1907061
235	0xbec87c57	-0.39157364
236	0xbee15b7e	-0.44015115
237	0xbe75598c	-0.2395994
238	0x3ebb9e8a	0.36644393
239	0x3da31c6b	0.07964405
240	0xbf5e477c	-0.86827826
241	0xbf91c4d1	-1.1388189
242	0xbeef7cf4	-0.4677502
243	0x3f2a61dc	0.6655557
244	0xbe6c786b	-0.23092811
245	0x3f4c3186	0.79763067
246	0xbd43469f	-0.04767477
247	0xbf44879f	-0.7676944
248	0x3d0f28bd	0.03495096
249	0xbf6ebcc8	-0.9325681
250	0xbf86251b	-1.0480074
251	0x3fae2076	1.3603656
252	0x3f126ad7	0.57194275
253	0xbef8c3e3	-0.4858695
254	0x3deec376	0.11658375
255	0xbe982922	-0.29718882

encoder.0.bias f4 [128]
0	0xbe9f03c5	-0.31057563
1	0xbea2e853	-0.31817874
2	0x3e1de950	0.15421033
3	0xbf233c76	-0.6376413
4	0xbea98fe7	-0.331176
5	0xbea0f443	-0.31436357
6	0xbe67520a	-0.22589889
7	0xbf389e0e	-0.7211617
8	0xbf66e7c6	-0.9019741
9	0xbf152404	-0.5825808
10	0xbf60a762	-0.87755406
11	0xbf2f9981	-0.68593603
12	0xbf199334	-0.5999024
13	0xbf178f04	-0.592026
14	0xbf5dced2	-0.8664371
15	0xbc86c0a5	-0.016449282
16	0xbf1b229d	-0.6059969
17	0xbf4bc6f7	-0.7960047
18	0xbf21ca88	-0.63199663
19	0xbf62457a	-0.8838726
20	0xbf87fa24	-1.0623212
21	0xbf28e2fe	-0.6597136
22	0xbeea4fc9	-0.45763996
23	0xbede7987	-0.43452093
24	0xbf67bb1f	-0.905199
25	0xbf2fa1ee	-0.6860646
26	0xbf8b85b3	-1.0900177
27	0xbf4abfb4	-0.79198766
28	0xbf0bf48b	-0.5467002
29	0xbeaf4d43	-0.34238634
30	0xbf2ffba9	-0.6874338
31	0xbdbb376a	-0.09141429
32	0xbf34926b	-0.70535916
33	0x3db79718	0.08964366
34	0xbf1de31a	-0.61674654
35	0xbf601149	-0.87526375
36	0xbf2d351e	-0.67659175
37	0xbf5cbecf	-0.8622865
38	0xbf1bd045	-0.6086467
39	0xbf57dedb	-0.84324425
40	0xbe5191ff	-0.2046585
41	0xbf5cd7a7	-0.8626656
42	0xbf2d6451	-0.67731196
43	0xbf5f5169	-0.872336
44	0xbf1e8b3a	-0.6193119
45	0xbf54f3b1	-0.83184344
46	0xbf9c1f90	-1.2197132
47	0xbf2a56e6	-0.66538846
48	0xbe53b648	-0.20675004
49	0xbead614c	-0.33863294
50	0xbf3efbb4	-0.7460282
51	0xbf6ef5e6	-0.9334396
52	0xbf173871	-0.590705
53	0xbea94a32	-0.3306442
54	0xbc9f0270	-0.019410342
55	0xbf6237d5	-0.8836644
56	0xbf3744fb	-0.7158963
57	0xbf488980	-0.7833481
58	0xbf79f763	-0.9764311
59	0xbf6cb4e2	-0.92463505
60	0xbed5e215	-0.4177405
61	0xbf30f388	-0.691216
62	0xbf6f5ffe	-0.9350585
63	0xbf6bdbdf	-0.9213237
64	0xbf1522e1	-0.58256346
65	0xbf4ba023	-0.79541224
66	0xbf342aae	-0.70377624
67	0xbf12730d	-0.57206804
68	0xbefffb90	-0.49996614
69	0xbf604542	-0.8760568
70	0xbf708f5c	-0.9396875
71	0xbf84aa99	-1.0364562
72	0xbf12feda	-0.5742012
73	0xbf3655ee	-0.7122487
74	0xbf3910e4	-0.722914
75	0xbf3fb8a4	-0.74891114
76	0xbe3b6a2c	-0.1830222
77	0xbef0c929	-0.47028473
78	0xbc9e51d6	-0.019326132
79	0xbf565750	-0.8372698
80	0xbf2159da	-0.6302773
81	0xbf47c7db	-0.7803933
82	0xbe48e72f	-0.1961944
83	0xbf2d0ff2	-0.67602456
84	0xbf54b435	-0.83087474
85	0xbed680a6	-0.41895026
86	0xbec08645	-0.3760244
87	0xbf284ba2	-0.65740407
88	0xbf921021	-1.1411172
89	0xbee07075	-0.43835798
90	0xbf601f5f	-0.8754787
91	0xbf25b589	-0.64730126
92	0xbe9a7747	-0.30169126
93	0xbf377591	-0.7166377
94	0xbec9b292	-0.3939405
95	0xbf660018	-0.89843893
96	0xbee41a23	-0.4455119
97	0xbf1b7c1e	-0.6073626
98	0xbf645b46	-0.8920177
99	0xbf37ab2d	-0.7174557
100	0xbe71638b	-0.23573129
101	0xbf482dbc	-0.78194785
102	0xbf21c5ed	-0.63192636
103	0xbee22229	-0.44166687
104	0xbf2bc10a	-0.6709143
105	0xbf1bc466	-0.60846555
106	0xbf2ba795	-0.67052585
107	0xbf1d0458	-0.61334753
108	0xbf42c12e	-0.7607602
109	0xbf4edca6	-0.8080543
110	0xbf01275b	-0.50450677
111	0xbf22467c	-0.633888
112	0xbf0c51ba	-0.54812205
113	0xbf0521c4	-0.5200465
114	0xbf87861a	-1.05878
115	0xbf0d1223	-0.551058
116	0xbf2d7663	-0.6775877
117	0xbea4eb8c	-0.32210958
118	0xbf200eaa	-0.62522376
119	0xbf47116f	-0.77760977
120	0xbedac2ff	-0.42726895
121	0xbefe2638	-0.49638534
122	0xbf427c3c	-0.75970817
123	0xbf12e805	-0.57385284
124	0xbe84ba7b	-0.25923523
125	0xbeb65b4e	-0.35616535
126	0xbf28ab0d	-0.65886
127	0xbf3cf750	-0.7381487

encoder.2.weight f4 [128, 128]
0	0xbef4bbed	-0.47799626
1	0xbe5d6482	-0.21620372
2	0x3eae3f42	0.34032637
3	0x3f7f7302	0.99784863
4	0xbb3c6958	-0.0028749313
5	0x3f1590e7	0.5842423
6	0x3f83ac79	1.028701
7	0xbf0a2a11	-0.5397044
8	0xbfaad4c2	-1.3346179
9	0x3f19d64f	0.60092634
10	0x3db6f1b5	0.08932821
11	0xbe245d2a	-0.16051164
12	0xbf51b7ec	-0.8192127
13	0x3e20ecf7	0.15715395
14	0xbf79e912	-0.9762126
15	0xbe05c3c6	-0.13062963
16	0x3f7dd6a8	0.99155664
17	0x3f29cfe8	0.66332865
18	0xc0347917	-2.8198907
19	0x3eeee6e5	0.46660534
20	0xbd32e47b	-0.043674927
21	0x3e7bdfe9	0.24597134
22	0xbe1b8dcb	-0.15190808
23	0xbf0e016a	-0.5547091
24	0xbec69b78	-0.38790488
25	0xbf23ff68	-0.64061594
26	0xbf08c2d2	-0.5342227
27	0x3f00b317	0.5027327
28	0x3f0c55f8	0.5481868
29	0xbf8a425a	-1.0801499
30	0xbf57ef91	-0.84349924
31	0x3f2ae321	0.6675282
32	0xbe593c0b	-0.21214311
33	0x3e8e3558	0.27775073
34	0xbded0fe3	-0.11575296
35	0x3e57e4bd	0.2108335
36	0xbe136923	-0.14395575
37	0xbef81290	-0.48451662
38	0xbfbd6b80	-1.4798431
39	0xbfac3b24	-1.3455548
40	0xbebd194b	-0.3693336
41	0xbe69b516	-0.22822985
42	0x3f939592	1.153002
43	0xbcfbf7f4	-0.030757882
44	0x3f0296e1	0.5101147
45	0x3ee31486	0.44351596
46	0xc00e5cb9	-2.2244093
47	0xbd973674	-0.07383433
48	0x3f8e3e81	1.1112825
49	0x3ea3c311	0.3198476
50	0x3de3b537	0.11118548
51	0xbd1689d2	-0.03675253
52	0x3ea71fc3	0.3264142
53	0x3dbef7a9	0.09324581
54	0xbdf924b5	-0.121652044
55	0x3f2cba9a	0.6747223
56	0x3fdd6c0c	1.7298598
57	0x3edd6489	0.43240765
58	0xbf08958b	-0.53353184
59	0xbf8b7e67	-1.089795
60	0x3e72e819	0.2372135
61	0xbf174994	-0.59096646
62	0xbfa8eb87	-1.3196877
63	0xbe5090e9	-0.20367779
64	0xbe0c345c	-0.13691849
65	0xbf4f2d46	-0.80928457
66	0x3e857667	0.26066896
67	0x3f55ace9	0.83466965
68	0xbf938638	-1.1525335
69	0xbec5401e	-0.3852548
70	0x3fdd6708	1.7297068
71	0x3ef7caf5	0.4839703
72	0x3e986917	0.29767677
73	0xbed54558	-0.41654468
74	0xbf2a4806	-0.6651615
75	0xbf0e5a6f	-0.5560674
76	0x3f5e8a38	0.86929655
77	0x3e5d78b5	0.21628077
78	0x3f0e4e60	0.5558834
79	0xbf5d0269	-0.863318
80	0xbedd6b7e	-0.43246073
81	0xbce717c2	-0.02820957
82	0x3e214598	0.15749204
83	0x3e078333	0.13233642
84	0xbcce6dd5	-0.025198856
85	0x3d42fc48	0.047603875
86	0xbee40d69	-0.4454148
87	0x3d8c82d3	0.0686089
88	0x3f302899	0.6881195
89	0xbe47a1fa	-0.19495383
90	0xbf3a7551	-0.7283526
91	0xbfd71f68	-1.680646
92	0x3df814ae	0.12113319
93	0x3e6409e1	0.22269394
94	0x3ed2661d	0.4109353
95	0x3ece5d0a	0.40305358
96	0x3eb4819e	0.3525514
97	0x3e79f9e5	0.24411733
98	0x3e8564b7	0.26053402
99	0xbf1da3db	-0.6157815
100	0xbef724e4	-0.48270333
101	0x3e175914	0.14780074
102	0x3f53bb46	0.8270763
103	0x3f9161a3	1.1357921
104	0xbee92d8d	-0.45542565
105	0xbf084602	-0.53231823
106	0xbed3d8fb	-0.4137648
107	0xbe9cba0c	-0.30610693
108	0xbfa327a6	-1.2746475
109	0xbf8e537c	-1.1119227
110	0x3f8568df	1.0422629
111	0x3cf2e82d	0.029651726
112	0xbf0f4872	-0.5596992
113	0xbd24fbf4	-0.040279344
114	0x3f92a1c0	1.1455612
115	0x3d938df0	0.07204807
116	0x3f9436dd	1.1579243
117	0x3e13aadc	0.14420646
118	0xbe91579c	-0.28387153
119	0x3f5b7b91	0.8573542
120	0x3ee9e3da	0.4568165
121	0xbed2004d	-0.41015854
122	0x3ee3b64a	0.44475013
123	0xbe6616e2	-0.22469667
124	0xbeb03dab	-0.3442205
125	0xbdcc162c	-0.099651664
126	0x3c83b32a	0.016076643
127	0xbeb8d129	-0.36097077
128	0xbcb3454b	-0.021883627
129	0x3ed35aa3	0.41280088
130	0x3e76a21f	0.24085282
131	0x3e907b35	0.28219
132	0x3f548803	0.8302004
133	0xbe5ead80	-0.21745872
134	0xbc9e3de3	-0.01931662
135	0x3f2e1477	0.67999977
136	0xbd016249	-0.031587873
137	0x3e7f378a	0.2492353
138	0xbf377416	-0.7166151
139	0x3f8613dd	1.0474812
140	0xbf1fbfcf	-0.6240205
141	0x3e9602da	0.2929905
142	0xbed06708	-0.40703607
143	0xbd3149ea	-0.04328338
144	0xbf969139	-1.1763068
145	0xbf2f50bc	-0.68482566
146	0xbf6510e0	-0.89478874
147	0xbf8f321b	-1.1187166
148	0xbfb53637	-1.415717
149	0xbf3eef73	-0.7458412
150	0x3f7d8e2d	0.9904507
151	0x3ea4adcc	0.32163846
152	0xbdd01f6b	-0.101622425
153	0xbe66cbbd	-0.22538657
154	0xbf613caf	-0.8798322
155	0xbf3215c3	-0.69564456
156	0xbf911c15	-1.1336695
157	0x3f94fc9b	1.1639589
158	0xbfa8cbba	-1.3187172
159	0x3ed08246	0.4072439
160	0x3fa1e351	1.2647496
161	0xbef00e0a	-0.4688571
162	0x3e75ef68	0.24017107
163	0xbf807934	-1.0036988
164	0x400b3f1a	2.1757264
165	0x3fbd64fc	1.4796443
166	0xbf4fbd12	-0.81147873
167	0xc020b849	-2.5112479
168	0x3d88b59b	0.066752635
169	0x3ed98c7c	0.42489994
170	0xbbfbceb1	-0.0076845516
171	0x3dccce35	0.10000268
172	0xbe44c775	-0.19216712
173	0x3ebed6c9	0.37273243
174	0x3f9a5d1d	1.2059666
175	0xbf89e2af	-1.0772303
176	0x3edebaa8	0.43501782
177	0xbe25e0d6	-0.1619905
178	0xbd5db5ad	-0.054128338
179	0x3eb21220	0.34779453
180	0xbf035a8d	-0.51310045
181	0x3ecc8250	0.3994317
182	0x3bfc9f37	0.0077094096
183	0x3fa20bed	1.265989
184	0xbf7b05b2	-0.98055565
185	0x3f084e62	0.532446
186	0xbeecc864	-0.46246636
187	0x3f527aab	0.82218426
188	0xbc8ab13e	-0.016930219
189	0x3f39dbfe	0.72601306
190	0x3f7792e3	0.96708506
191	0xbf3c74fa	-0.7361599
192	0x3e7664fc	0.2406196
193	0x3fb8e71c	1.4445529
194	0x3fb90377	1.4454182
195	0x3f08be07	0.5341496
196	0x3e86096c	0.26179063
197	0x3ece74e9	0.4032357
198	0x3f10c5fa	0.5655209
199	0x3f5609ee	0.836089
200	0xbf965c94	-1.1747003
201	0x3e2cd9b6	0.16879925
202	0x3ff4d15b	1.912639
203	0xbe83b10c	-0.25721014
204	0x3d18799d	0.037225354
205	0x3effc735	0.4995667
206	0xbe515948	-0.20444214
207	0x3fa56448	1.2921228
208	0xbec889ce	-0.39167637
209	0x3e1605ed	0.14650698
210	0x3eea29b0	0.4573493
211	0x3e4077af	0.18795656
212	0x3f7bbece	0.9833802
213	0xbd9bd0e0	-0.07608199
214	0xbf5d18a9	-0.86365753
215	0xbf0ac51e	-0.54207027
216	0xbf1ed5d6	-0.6204504
217	0xbfbd89ce	-1.480768
218	0xbec14a1a	-0.37751848
219	0xbe498f75	-0.19683631
220	0xbf346bef	-0.70477194
221	0x3ebb1f35	0.36547247
222	0xbe3b9872	-0.18319872
223	0x3f747456	0.95490015
224	0xbdf866bd	-0.12128971
225	0xbdb17d53	-0.08666482
226	0x40891523	4.28383
227	0xbf146f1b	-0.57982033
228	0x3f020cb9	0.50800663
229	0xbf25cd69	-0.64766556
230	0xbee7833e	-0.45217317
231	0xbdceb6b4	-0.100934416
232	0xbcd420a7	-0.025894476
233	0x3f25be0f	0.6474313
234	0x3efb4ff9	0.49084452
235	0x3d2fcbb1	0.042918865
236	0xbf2c8f6c	-0.67406344
237	0x3f885a5f	1.0652579
238	0xbfa82017	-1.3134793
239	0xbe8159e8	-0.25263906
240	0xbe68f7ae	-0.22750732
241	0xbf24c9f9	-0.64370686
242	0xbfa208d1	-1.265894
243	0xbf023840	-0.5086708
244	0x3f04d38f	0.5188531
245	0x3ec4e20b	0.38453707
246	0xbdcfc224	-0.10144451
247	0xbdb13021	-0.08651758
248	0xbe286d64	-0.16447979
249	0x3fc2dac7	1.5223016
250	0x3f0d7862	0.55261815
251	0x3f390285	0.7226947
252	0x3ea4981d	0.32147303
253	0x3f0443ae	0.5166577
254	0xbf338867	-0.7013001
255	0xbf24fb06	-0.6444553

encoder.2.bias f4 [128]
0	0xbf2d1d4c	-0.6762283
1	0xbe2c3875	-0.16818412
2	0xbda8e243	-0.08246281
3	0xbd9b18e6	-0.075731084
4	0xbe46005a	-0.19336072
5	0x3ed5c41d	0.41751185
6	0xbad9b12e	-0.001660859
7	0x3c05d610	0.008168712
8	0x3f22ddf4	0.63619924
9	0x3e5dee99	0.21673049
10	0xbef4513e	-0.47718233
11	0x3e868d5e	0.2627973
12	0x3e88cdf7	0.2671964
13	0xbe0936a6	-0.13399753
14	0x3e137108	0.14398587
15	0x3e4475cc	0.19185561
16	0xbe95f91a	-0.29291612
17	0x3eee0615	0.46489015
18	0x3f17a442	0.5923501
19	0x3f092cc2	0.5358392
20	0xbe2f1511	-0.1709788
21	0xbd40b45d	-0.047047008
22	0x3ef45b90	0.47726107
23	0xbd19ce30	-0.03755015
24	0xbdf84206	-0.12121968
25	0x3e03e747	0.12881194
26	0x3e0882b2	0.13331106
27	0xbe34c171	-0.17651917
28	0xbdcebb7f	-0.10094356
29	0xbe14fd09	-0.1454965
30	0x3cd933a4	0.026513882
31	0xbe8a99e4	-0.27070534
32	0xbed6cafb	-0.41951737
33	0xbe8f4921	-0.2798548
34	0xbe1b459d	-0.15163274
35	0xbda7fbe7	-0.082023434
36	0xbe2efea8	-0.17089331
37	0xbeaf1005	-0.3419191
38	0xbef853c9	-0.48501423
39	0xbe9b3f3b	-0.3032168
40	0xbe75df77	-0.24011026
41	0xbef4fbd6	-0.47848386
42	0x3e55b6ca	0.2087051
43	0x3ef857a2	0.4850436
44	0x3f9ace3a	1.2094185
45	0xbe427e6f	-0.18993543
46	0xbda1fea7	-0.07909899
47	0x3f0078e2	0.5018445
48	0xbf15d09b	-0.5852143
49	0x3ea8120b	0.32826266
50	0xbe70d6e9	-0.23519482
51	0xbd4b1b21	-0.04958642
52	0xbed5fcc7	-0.41794416
53	0xbdf9c1be	-0.121951565
54	0xbe06a356	-0.13148245
55	0xbeddca0f	-0.4331822
56	0xbe9e9220	-0.3097086
57	0xbe8883a0	-0.26662922
58	0x3ece93e3	0.40347204
59	0xbdf3fd1a	-0.1191351
60	0xbf27288b	-0.6529624
61	0x3ed66d92	0.4188047
62	0x3f1cabd8	0.6119971
63	0xbdc2e56a	-0.095164135
64	0xbd070763	-0.03296603
65	0x3ed1064e	0.40825123
66	0xbe8e611a	-0.27808458
67	0x3f1c6336	0.61088884
68	0xbed209c6	-0.41023082
69	0xbed9eaa4	-0.4256183
70	0xbe5857f9	-0.21127309
71	0x3f0b2cc2	0.5436517
72	0xbde56a86	-0.11201958
73	0x3e9b69d4	0.30354178
74	0xbdad1c9f	-0.08452725
75	0x3e020e44	0.12700754
76	0xbd7f23a2	-0.06228984
77	0x3e9d8ec8	0.30772996
78	0x3e9ed674	0.3102299
79	0xbf33f9a8	-0.7030282
80	0x3d711e87	0.058867004
81	0xbda20959	-0.07911939
82	0x3d4eeaae	0.050516777
83	0xbec6fb9b	-0.38863835
84	0x3e8cab1d	0.274743
85	0xbe66056e	-0.22463009
86	0x3ee16ed0	0.44029856
87	0x3c8ea816	0.017414134
88	0xbf562446	-0.836491
89	0x3c27eaf5	0.010248889
90	0x3ea8c688	0.32963967
91	0x3e0a6bf1	0.13517739
92	0xbee7adbe	-0.45249742
93	0xbe077457	-0.13227974
94	0x3dfbcb69	0.12294657
95	0xbc87a867	-0.016559793
96	0xbddfc8bb	-0.10926958
97	0x3e3dbe7f	0.185297
98	0x3dc16583	0.0944319
99	0x3de87c88	0.113518775
100	0xbe4e81c3	-0.20166688
101	0xbca7b5da	-0.020472456
102	0xbf352d1f	-0.70771974
103	0x3ed10058	0.40820575
104	0xbe176fbc	-0.14788717
105	0xbdb86929	-0.09004433
106	0x3d6b9b83	0.057521354
107	0xbe3b8904	-0.18313986
108	0x3e1c8956	0.15286765
109	0x3b61a74a	0.0034431987
110	0x3e9137ef	0.28362986
111	0xbdb1995a	-0.086718276
112	0xbd2a03ca	-0.04150752
113	0xbddb2918	-0.107011974
114	0xbf2ed3f5	-0.6829217
115	0xbd6d1a69	-0.057886515
116	0xbde522c4	-0.11188272
117	0xbb889ab0	-0.004168831
118	0x3e15205f	0.1456313
119	0x3bd743a6	0.0065693436
120	0x3e12c173	0.14331608
121	0xbd942a17	-0.072345905
122	0x3d9b233c	0.0757508
123	0x3e951a81	0.29121783
124	0x3e64593c	0.22299665
125	0x3ddd094d	0.107927896
126	0xbdffba11	-0.12486661
127	0xbe894536	-0.26810616

gnn_0.bias f4 [128]
0	0xbf276614	-0.65390134
1	0xbf082b08	-0.5319066
2	0xbf1f4b67	-0.6222443
3	0xbf8eeaff	-1.1165465
4	0xbcc3b921	-0.023891987
5	0xbf225ced	-0.63423043
6	0x3e8c6f02	0.27428442
7	0xbfc01b04	-1.5008245
8	0xbf938f19	-1.1528045
9	0xbf78aeab	-0.9714152
10	0xc007420b	-2.113406
11	0xbf4ea69b	-0.8072297
12	0xbfa9500c	-1.3227553
13	0xbf108b67	-0.5646271
14	0xbf60f3a4	-0.87871766
15	0xbea16d1a	-0.3152855
16	0xbe36e9b8	-0.17862594
17	0x3da6c2b0	0.081426024
18	0xc009d182	-2.1534123
19	0x3e80d264	0.25160515
20	0xbd81635c	-0.063177794
21	0xbfafe73f	-1.3742446
22	0xbfa3783a	-1.2771065
23	0xbe46b4df	-0.19404934
24	0xbeb28e89	-0.3487437
25	0xbf8a2e4a	-1.0795376
26	0xbef152be	-0.4713344
27	0xbf9c2adc	-1.220058
28	0xbe97818f	-0.29591033
29	0xbf9d5f35	-1.229468
30	0xbdd80d6c	-0.10549435
31	0xbf9258e6	-1.143338
32	0xbf144d8f	-0.57930845
33	0xbfb0e67d	-1.382034
34	0xbf963e4c	-1.1737761
35	0xbeb0aeeb	-0.34508452
36	0x3f3d60f3	0.7397606
37	0xbfe07a22	-1.7537272
38	0xbe34aa76	-0.1764315
39	0xbf9a373d	-1.2048107
40	0xbef624e7	-0.4807503
41	0xbfc1b0db	-1.5132097
42	0xbf7966cb	-0.97422475
43	0x3eb90955	0.36139932
44	0xbd9c762c	-0.07639727
45	0xbf67e2a8	-0.90580225
46	0xbf80a692	-1.0050833
47	0xbee62a28	-0.44954038
48	0xbf9d8f61	-1.2309381
49	0xbf469d91	-0.7758418
50	0xbf42e9d4	-0.76138043
51	0xbd364bd3	-0.044505905
52	0xbf0a3a8a	-0.53995574
53	0xbee54cac	-0.44785058
54	0xbfa91f54	-1.3212686
55	0xbf8f6665	-1.1203123
56	0xbe712cb9	-0.23552217
57	0x3ee2c73a	0.44292623
58	0xbfc86589	-1.5655986
59	0xbfdd8136	-1.7305057
60	0xbf99160b	-1.1959852
61	0xbfffec07	-1.9993905
62	0xbf0c8c81	-0.5490189
63	0xbf3c3385	-0.7351611
64	0x3dea30a8	0.11435062
65	0xbe5ef546	-0.21773252
66	0xbf0bacb6	-0.5456041
67	0xbf2161e1	-0.63039976
68	0xbf851e49	-1.0399867
69	0xbf276ed9	-0.65403515
70	0xbf3ba15b	-0.73293084
71	0xbe95aac1	-0.29231837
72	0xbf56d799	-0.83922726
73	0xc000b712	-2.0111737
74	0xbef658ed	-0.4811472
75	0x3d13c65b	0.03607784
76	0xbf45d3d5	-0.77276355
77	0xbf912f49	-1.1342555
78	0xbfd62627	-1.6730393
79	0x3e6325ff	0.22182463
80	0xbf152002	-0.58251965
81	0x3d9243d5	0.07141844
82	0xbeb10984	-0.34577572
83	0xbfbcf1cb	-1.4761289
84	0xbf0b81f5	-0.54495174
85	0xbe715c3c	-0.23570341
86	0xbf82fceb	-1.0233434
87	0x3ef06857	0.46954605
88	0xbf2ee800	-0.68322754
89	0xbcd5f053	-0.026115572
90	0xbf44070b	-0.76573247
91	0xbec24bc5	-0.37948433
92	0xbeb775f9	-0.35832193
93	0xbf3012d0	-0.68778706
94	0x3e0f8f76	0.1401957
95	0xbfe7fc21	-1.8123819
96	0xbf296d51	-0.6618243
97	0xbf1d7b94	-0.6151669
98	0x3da8ade5	0.08236293
99	0xbf2f858f	-0.6856317
100	0xbfa36b0c	-1.2767043
101	0xbf753648	-0.9578595
102	0xbf372bd1	-0.71551234
103	0xbf50a287	-0.81498
104	0xbf1eab36	-0.6198
105	0xbeb9cedd	-0.36290637
106	0xbe4dc1e8	-0.200935
107	0xbfeb55e7	-1.838559
108	0xbf687039	-0.9079624
109	0xbed0e60e	-0.40800518
110	0xbfa0bdbe	-1.2557905
111	0xbe560b43	-0.20902734
112	0xbf84815b	-1.0351976
113	0xbf4b4596	-0.79403055
114	0xbb9ba730	-0.004750155
115	0xbe91fa44	-0.2851125
116	0xbdd45f04	-0.10369685
117	0xbe36a656	-0.1783689
118	0xbf1f7fd9	-0.62304455
119	0xbf6c9762	-0.9241849
120	0xbf3fb2ed	-0.74882394
121	0xbf91127d	-1.1333767
122	0xbedb1446	-0.42788905
123	0xbefde151	-0.49585965
124	0xbf06406c	-0.5244205
125	0xbf95ad9a	-1.1693604
126	0xbfb19978	-1.387496
127	0xbfb30841	-1.3986894

gnn_0.lin.weight f4 [128, 128]
0	0xbef4d2ba	-0.47817022
1	0x3def5905	0.11686901
2	0xbfa48c81	-1.2855378
3	0xbf057a2e	-0.52139556
4	0x3f7d0cf1	0.9884787
5	0xbf826c64	-1.0189328
6	0x3da7535e	0.08170198
7	0x3efe3e9f	0.4965715
8	0xbf10c3cb	-0.56548756
9	0x3ea65df8	0.32493567
10	0xbe2fe773	-0.17178135
11	0xbf811db5	-1.0087191
12	0x3edf4d1c	0.43613517
13	0xbeba66cc	-0.36406553
14	0xbef5e36b	-0.4802507
15	0xbefc2f3b	-0.49254784
16	0x3f0fd69d	0.5618685
17	0xbea8da84	-0.32979214
18	0x3cc223f2	0.02369878
19	0x3f65d359	0.89775616
20	0xbe66ddfb	-0.22545616
21	0xbe6f3ba3	-0.23362593
22	0xbefacca7	-0.48984262
23	0xbf27736c	-0.65410495
24	0x3f0e1ae8	0.55509806
25	0xbef25100	-0.47327423
26	0x3ed96bdb	0.424651
27	0xbe04bd10	-0.12962747
28	0xbf2ee338	-0.6831546
29	0x3f4027cd	0.7506073
30	0xbd20bc4e	-0.03924208
31	0xbdb38475	-0.087654985
32	0x3f2903ff	0.6602172
33	0xbeaff8de	-0.34369558
34	0xbcef16db	-0.029185703
35	0x3e410b8b	0.1885206
36	0xbf4ac5b9	-0.7920795
37	0xbd894239	-0.06702084
38	0xbe8838a2	-0.26605707
39	0x3e4313b8	0.19050491
40	0x3f608929	0.8770929
41	0xbdb7be62	-0.089718595
42	0xbee26b7a	-0.44222623
43	0x3ed413e0	0.41421413
44	0xbe85d97e	-0.26142496
45	0xbf049975	-0.51796657
46	0x3e33c461	0.17555381
47	0xbe058679	-0.13039578
48	0x3ea3f089	0.3201945
49	0x3e973ae7	0.29537126
50	0x3fa027a2	1.2512095
51	0xbf746d89	-0.9547964
52	0x3e21d417	0.15803562
53	0x3f10d386	0.5657276
54	0xbe81bbdd	-0.2533864
55	0xbeef4550	-0.4673257
56	0xbd9ba3df	-0.07599615
57	0x3d49420b	0.04913525
58	0xbede82a0	-0.43459034
59	0x3e846748	0.25860047
60	0x3ee139b4	0.43989336
61	0x3f75a40e	0.9595345
62	0x3ce2f294	0.02770356
63	0xbe0e77a9	-0.13912834
64	0xbe279f2d	-0.16369314
65	0xbea1564d	-0.31511155
66	0x3ee0627e	0.43825144
67	0x3e1d7459	0.15376414
68	0xbf59918a	-0.849877
69	0xbd6ba5a6	-0.05753102
70	0xbe96ee7e	-0.2947883
71	0x3f0c82a3	0.54886836
72	0x3e1688f2	0.14700678
73	0xbead8fd7	-0.33898804
74	0x3f9cf308	1.2261667
75	0xbe8868b6	-0.26642388
76	0xbe2508bc	-0.16116613
77	0xbec346c8	-0.3813994
78	0x3ef9c2fa	0.48781568
79	0xbbd97ae6	-0.006636965
80	0xbf5d7d03	-0.8651888
81	0x3e23c17a	0.15991774
82	0xbf360d4c	-0.7111404
83	0xbeb9fb49	-0.36324528
84	0xbd7ee729	-0.06223217
85	0x3df249e4	0.118305
86	0x3d227951	0.039666478
87	0xbf0ecdaa	-0.5578257
88	0xbe530dc0	-0.20610714
89	0xbf5ab08e	-0.8542565
90	0x3e367c2b	0.17820804
91	0xbe01f550	-0.12691236
92	0x3d64cb33	0.05585785
93	0x3e1a315f	0.15057896
94	0x3e02f830	0.12789989
95	0x3f1e5b30	0.6185789
96	0x3ed58fd3	0.41711292
97	0xbe8eab9e	-0.2786531
98	0xbf685d55	-0.90767413
99	0x3e8a7d00	0.27048492
100	0xbdcfbe19	-0.1014368
101	0x3d814d64	0.06313589
102	0x3ee66fb6	0.45007104
103	0x3d9a61d5	0.07538191
104	0x3f9240d9	1.142604
105	0xbd3ad8c8	-0.045616895
106	0x3dd6a355	0.10480372
107	0x3e018d2e	0.12651512
108	0x3fd2d034	1.6469789
109	0x3eb0a613	0.34501705
110	0xbd668e07	-0.05628779
111	0xbee40477	-0.44534656
112	0x3fa09df3	1.2548202
113	0xbdb8ab61	-0.09017063
114	0x40111418	2.2668514
115	0xbf3f0aab	-0.74625653
116	0x3ea1d397	0.31606743
117	0x3ebcd8c0	0.36884117
118	0x3de3e321	0.11127306
119	0x3e4086c5	0.1880141
120	0x3f5875b3	0.84554595
121	0x3ec5dd3f	0.3864536
122	0xbe75bee1	-0.23998596
123	0xbed44d3e	-0.4146518
124	0xbe87bc8c	-0.26511037
125	0x3e84b2f0	0.25917768
126	0xbf24ab9c	-0.64324355
127	0x3f11b4fa	0.56916773
128	0xbf5a8fa3	-0.8537542
129	0x3f31615d	0.6928919
130	0x3e514d29	0.2043959
131	0xbf806ffe	-1.0034177
132	0xbdbc588d	-0.09196577
133	0xbea2b742	-0.3178044
134	0xbecb049e	-0.3965196
135	0xbf70df1b	-0.9409043
136	0x3e5a2653	0.21303682
137	0xbd1ad337	-0.037799086
138	0x3e764821	0.24050952
139	0x3e74e904	0.23917013
140	0xbe977017	-0.29577705
141	0x3e7511b3	0.23932533
142	0xbdb11f66	-0.08648567
143	0xbea971be	-0.3309459
144	0x3e03b048	0.12860215
145	0x3e9bcbf8	0.30429053
146	0xbf47235e	-0.7778834
147	0xbe91db67	-0.28487703
148	0x3edaca86	0.42732638
149	0x3ebd20fd	0.3693923
150	0xbe64a68f	-0.22329162
151	0x3aa80327	0.0012818322
152	0xbd854580	-0.06507397
153	0xbe0e01b2	-0.13867834
154	0xbee58450	-0.4482751
155	0x3e9d094b	0.30671152
156	0x3e5b2776	0.21401772
157	0xbf023afe	-0.50871265
158	0x3e58c19e	0.21167609
159	0x3eed7de7	0.46385118
160	0x3dda4b80	0.10658932
161	0x3e41338a	0.18867317
162	0x3f42ddce	0.761197
163	0xbf21e4ac	-0.6323955
164	0xbce6af4d	-0.028159762
165	0x3f0148c8	0.5050168
166	0x3f1ad5cd	0.60482484
167	0xbd8c9bc1	-0.06865645
168	0xbe06184f	-0.1309521
169	0x3dc74efe	0.097318634
170	0xbddc4a98	-0.10756415
171	0x3ebd4d73	0.36973152
172	0xbe1a6080	-0.15075874
173	0x3f1123c3	0.56695193
174	0x3eec2075	0.46118513
175	0xbe036701	-0.12832262
176	0x3eb2f58f	0.3495297
177	0xbf4a7c55	-0.79095966
178	0x3dffcf75	0.12490741
179	0xbeb769c6	-0.35822886
180	0xbd1fdb78	-0.03902766
181	0x3e4dc923	0.20096259
182	0x3ea38827	0.31939813
183	0xbd862375	-0.06549732
184	0x3f63c136	0.8896669
185	0xbe859897	-0.2609298
186	0x3e0d049d	0.13771291
187	0x3ea2761a	0.3173073
188	0x3ec2aab0	0.3802085
189	0xbf1b315f	-0.6062221
190	0x3d92b3a8	0.07163173
191	0x3ecf05f7	0.40434238
192	0x3dfa42ed	0.12219796
193	0x3efc0bee	0.49227852
194	0x3cce45ee	0.02517983
195	0xbf1ea74a	-0.6197401
196	0xbeb0b527	-0.34513208
197	0xbe837514	-0.2567526
198	0x3e336853	0.17520265
199	0x3ea888e0	0.32916927
200	0xbe87bc07	-0.2651064
201	0x3e86667d	0.26250067
202	0xbec73c47	-0.38913175
203	0xbf34fb8e	-0.7069634
204	0x3d421d44	0.04739119
205	0x3d9333a0	0.07187581
206	0x3e9dd6cf	0.30827948
207	0x3ed50c0c	0.41610754
208	0x3e0920ec	0.13391465
209	0xbdca80db	-0.098878585
210	0x3f337fe7	0.7011704
211	0xbf1e0d21	-0.61738783
212	0x3e35641b	0.17713968
213	0x3f327217	0.6970534
214	0xbeb77019	-0.3582771
215	0xbe981f56	-0.29711407
216	0xbe751a7b	-0.23935883
217	0xbb7cdd6b	-0.0038584124
218	0xbe5f2c6b	-0.21794288
219	0x3d58fbb9	0.052974436
220	0xbe67acf5	-0.22624572
221	0x3d211153	0.039323162
222	0xbe92d29d	-0.2867631
223	0x3e883457	0.26602432
224	0x3da54c4d	0.08071194
225	0x3d37b9c1	0.044854883
226	0x3f33dfa6	0.70263135
227	0xbe35474b	-0.17702977
228	0x3f781499	0.9690643
229	0xbf01b8a0	-0.5067234
230	0x3e0e39bb	0.1388921
231	0xbdd1fc74	-0.1025323
232	0x3eafb3b8	0.34316802
233	0xbe5fa6b5	-0.21840937
234	0xbe805c75	-0.2507054
235	0x3b9195c3	0.004442902
236	0x3f9d7253	1.2300514
237	0xbe1cfc9f	-0.15330742
238	0x3f0fc252	0.56155884
239	0x3f67c824	0.90539765
240	0xbead186c	-0.33807695
241	0x3dc47599	0.095927425
242	0x3e0d657c	0.13808244
243	0x3f3c5564	0.73567796
244	0xbe8e3d0c	-0.2778095
245	0xbd9b2a44	-0.07576421
246	0xbe5a6446	-0.21327314
247	0xbd9702d9	-0.0737359
248	0x3cb98e32	0.022650812
249	0xbe05586d	-0.13022013
250	0x3f4c9993	0.79921836
251	0xbe328c24	-0.17436272
252	0xbe111b1c	-0.14170498
253	0xbec32689	-0.38115337
254	0xbe929402	-0.28628546
255	0x3e21074c	0.1572544

gnn_1.bias f4 [128]
0	0x3fd1d3c6	1.6392753
1	0x3ecd75e4	0.40129006
2	0xbf9f472b	-1.2443594
3	0x3e90f37d	0.28310767
4	0xbe18e2e9	-0.1493031
5	0x3e827f3c	0.25487697
6	0x3f499cc3	0.78754824
7	0xbfb55451	-1.4166356
8	0xbf5a16b9	-0.8519092
9	0xbf481781	-0.78160864
10	0xbdf42804	-0.11921695
11	0x3e25fe73	0.16210346
12	0xbf3af364	-0.73027635
13	0xbe4338b0	-0.19064593
14	0xbf8b5953	-1.0886635
15	0x3f824561	1.0177423
16	0xbf2f443a	-0.6846348
17	0xba5bba3e	-0.0008381939
18	0x3f851d1e	1.0399511
19	0x3fc29ef5	1.520476
20	0xbf8065e5	-1.0031096
21	0x3c2e8dd4	0.010653932
22	0xbf41deb0	-0.7573042
23	0x3fc0738d	1.5035263
24	0x3f477329	0.77910095
25	0xbe9400ef	-0.28906962
26	0x3f422820	0.75842476
27	0x3f227f60	0.6347561
28	0x3eae007e	0.3398475
29	0xbebb4a59	-0.3658016
30	0xbf03ec2c	-0.51532245
31	0xbf860453	-1.047007
32	0xbec6cf42	-0.3883
33	0x3e4b22b7	0.19837461
34	0xbf4ac7e6	-0.7921127
35	0xbfbf37a3	-1.4938854
36	0xbf998fbc	-1.1996989
37	0xbd2bf5dd	-0.04198252
38	0x3f0ef17a	0.55837214
39	0xbd7066f5	-0.058691937
40	0x3e5850d4	0.21124583
41	0xbf82075a	-1.0158494
42	0xbf9ddc88	-1.2332926
43	0x3ed5157f	0.41617963
44	0xc005223c	-2.0802145
45	0x3ea8511d	0.32874385
46	0x3fcd6ed4	1.6049447
47	0x3f5d7259	0.86502606
48	0xbf32ba6f	-0.69815725
49	0x3eb98585	0.3623468
50	0xbfd0345e	-1.6265981
51	0x3ec87c2d	0.3915724
52	0xbe95a450	-0.29226923
53	0x4005b1f1	2.0889857
54	0xbf5b7787	-0.8572926
55	0x3ee774a9	0.45206192
56	0x3f597714	0.84947324
57	0xbfb05cc7	-1.3778313
58	0xbea17032	-0.3153091
59	0xbf06b83b	-0.52624863
60	0xbfa27882	-1.2693026
61	0x3eb132d2	0.34609085
62	0xbfc488b7	-1.5354222
63	0x3f4537cf	0.7703828
64	0xc025aeb0	-2.588787
65	0x3ed02b27	0.40657923
66	0xbf6a3ddb	-0.91500634
67	0xbeace1bb	-0.3376597
68	0x3de877f3	0.113510035
69	0x3f1a96c3	0.60386294
70	0x40524489	3.285433
71	0xbf1522f5	-0.58256465
72	0x3f0e5b6e	0.5560826
73	0x3fb95c69	1.4481326
74	0x3f910e72	1.1332533
75	0x3effc1a5	0.49952427
76	0xbe5d10c0	-0.21588421
77	0xbecf43c7	-0.40481398
78	0x3e90a8e6	0.2825386
79	0x3f287094	0.6579678
80	0xbf17ea17	-0.5934157
81	0xbe93aa92	-0.28841072
82	0x3fa68f2f	1.3012446
83	0xbe8bb70a	-0.27288085
84	0xbed228c3	-0.41046724
85	0xbf9a6d16	-1.206454
86	0x3fa375b8	1.27703
87	0xbf6d3a1a	-0.9266678
88	0x3eee71b8	0.46571136
89	0xbd2c7d11	-0.04211146
90	0xbec32d8c	-0.38120687
91	0xbfcaf13b	-1.5854868
92	0x3f87ee2c	1.0619559
93	0x3f5b0dc7	0.855679
94	0xbe3b110a	-0.18268219
95	0x3eff8fa2	0.4991427
96	0xbe1ecd92	-0.15508106
97	0xbfb10d81	-1.3832246
98	0x3f28d733	0.6595337
99	0x3eb3cb6b	0.35116133
100	0xbf0c845d	-0.5488947
101	0xbeb8d60e	-0.3610081
102	0x3e9733a2	0.2953158
103	0x3e5b6244	0.21424204
104	0xbfb26400	-1.3936768
105	0xbf8ccb81	-1.0999604
106	0xbf142906	-0.57875097
107	0xbf5c21da	-0.85989153
108	0xc00b7a25	-2.17933
109	0x3ddddab3	0.10832729
110	0x3f86ff68	1.0546694
111	0x3e6a1504	0.2285958
112	0xbe0a1a34	-0.13486558
113	0x3e690aa9	0.22757973
114	0xbeaca735	-0.3372132
115	0xbee67f0b	-0.450188
116	0x3e15411e	0.14575621
117	0xbdca6495	-0.09882466
118	0xbf065ea0	-0.52488136
119	0xbf94cec0	-1.1625595
120	0x3f94d3b1	1.1627103
121	0xbf51c066	-0.819342
122	0x3bc46f06	0.0059946803
123	0xbe87bc09	-0.26510647
124	0xbe457906	-0.19284448
125	0xbe296dd1	-0.16545798
126	0x3e822e48	0.25425935
127	0x3f0a482d	0.5401638

gnn_1.lin.weight f4 [128, 128]
0	0x3ed95ade	0.4245214
1	0xbeecb1fa	-0.46229535
2	0x3d42be8a	0.047544993
3	0x3f3b8012	0.73242295
4	0xbda1251c	-0.07868406
5	0xbf27ee4c	-0.6559799
6	0x3e579a44	0.21054941
7	0x3ecc0718	0.39849162
8	0xbf2bb09d	-0.67066365
9	0xbf842092	-1.032244
10	0xbe7979d7	-0.24362884
11	0xbd180c4b	-0.0371211
12	0x3f17e054	0.5932667
13	0x3f096593	0.53670615
14	0x3dec22c1	0.11530066
15	0xbeb08565	-0.34476772
16	0xbf0c2b1b	-0.54753274
17	0xbd90a8e3	-0.070634626
18	0x3d95ad71	0.07308472
19	0x3edb857d	0.4287528
20	0xbf398900	-0.7247467
21	0x3ecaff0c	0.3964771
22	0xbd134473	-0.03595395
23	0xbec56543	-0.3855382
24	0xbdd204f1	-0.10254849
25	0xbe8ec6f5	-0.27886167
26	0x3ec26c3a	0.37973195
27	0xbfa62b9b	-1.2982057
28	0x3f5705d2	0.83993256
29	0xbd830ef8	-0.063993394
30	0xbe64f9f8	-0.2236098
31	0x3f1e0143	0.61720675
32	0xbef65480	-0.48111343
33	0x3ef1daa8	0.47237134
34	0xbee21bff	-0.44161984
35	0xbf3bdf9e	-0.7338809
36	0x3df1da38	0.118092
37	0x3e20bd20	0.15697145
38	0xbf9702e4	-1.1797757
39	0x3e81781f	0.25286958
40	0xbf0b1162	-0.543234
41	0x3e8c4e63	0.27403554
42	0x3ebd7a83	0.37007532
43	0x3f05c531	0.52254015
44	0xbcf64c87	-0.030065788
45	0xbf654c92	-0.8956996
46	0x3f05f7ef	0.5233144
47	0x3ed8faa5	0.42378727
48	0xbec58fef	-0.38586375
49	0xbd8700f8	-0.06591982
50	0x3dce62df	0.10077452
51	0xbf16a69f	-0.58847994
52	0xbdd5476d	-0.10414014
53	0xbf899c48	-1.0750818
54	0xbf322a80	-0.695961
55	0x3fa35b2d	1.27622
56	0x3e89860e	0.26860088
57	0x3ece5bc3	0.40304384
58	0xbf3189bb	-0.69350785
59	0x3f1532a1	0.5828038
60	0x3daca11d	0.084291674
61	0x3e22a803	0.15884404
62	0xbdab8d9f	-0.083766215
63	0x3ed89bf8	0.42306495
64	0x3ea2178e	0.31658596
65	0xbe54177e	-0.20712087
66	0xbf81c52f	-1.0138301
67	0x3dbe20c4	0.09283593
68	0xbee74e50	-0.45176935
69	0x3f30f355	0.69121295
70	0x3ec059a5	0.37568393
71	0x3ec69ac2	0.38789946
72	0x3e14d2d2	0.14533547
73	0x3f3949e5	0.7237838
74	0xbdc532f9	-0.09628863
75	0xbf197b67	-0.5995392
76	0xbf231889	-0.6370931
77	0xbedb9ed9	-0.4289463
78	0xbefb7c4e	-0.49118274
79	0x3e3bcb39	0.18339242
80	0x3d043faa	0.032287277
81	0x3e3a2cf2	0.18181208
82	0xbf171dae	-0.5902966
83	0xbedec199	-0.43507078
84	0x3f09907b	0.53736085
85	0xbe6f18b2	-0.23349264
86	0x3d39f12e	0.045396022
87	0x3f06895c	0.52553344
88	0x3e9d8a13	0.30769405
89	0x3de3373c	0.110945195
90	0xbec4a3c7	-0.38406202
91	0x3f09f2b1	0.5388594
92	0xbb1415b5	-0.0022595946
93	0x3d4c1a8d	0.04983001
94	0xbe27f6ec	-0.16402787
95	0x3f05b15e	0.52223766
96	0xbeb3102f	-0.34973285
97	0x3fd66af3	1.6751388
98	0x3dd83932	0.10557784
99	0x3f7266a8	0.9468789
100	0x3ebf3a26	0.3734905
101	0xbe6a7397	-0.22895657
102	0x3f1eb1c2	0.61989987
103	0x3eb13155	0.3460795
104	0xbde62fa6	-0.11239557
105	0xbf25f8d0	-0.6483278
106	0xbf9e2238	-1.2354193
107	0x3cba851b	0.022768548
108	0xbf2c8ee3	-0.6740553
109	0xbef14924	-0.47126114
110	0x3f265a88	0.6498189
111	0x3f014c6f	0.50507253
112	0x3d325562	0.04353846
113	0x3f04784c	0.5174606
114	0xbf82d479	-1.0221092
115	0xbeded639	-0.43522814
116	0xbea03ff5	-0.31298795
117	0x3e15e878	0.14639461
118	0x3d65e9da	0.05613122
119	0xbe9ea985	-0.30988708
120	0xbf51f993	-0.82021445
121	0xbe07bbb5	-0.13255198
122	0x3f81b740	1.0134048
123	0xbdcc25a3	-0.09968116
124	0xbf57252a	-0.8404108
125	0xbd9d62eb	-0.07684883
126	0xbd63b908	-0.05559638
127	0x3e9532b9	0.2914026
128	0xbfa2782b	-1.2692922
129	0xbf1bc12e	-0.60841644
130	0xbfffd462	-1.9986689
131	0x3f1d333b	0.61406296
132	0xbe012c1c	-0.12614483
133	0x3cc7e115	0.02439932
134	0xbe9bb28a	-0.30409652
135	0xbea26157	-0.3171489
136	0x3dadd892	0.08488573
137	0xbf43a11a	-0.76417696
138	0xbf2bd2e0	-0.67118645
139	0xbca2f350	-0.019891411
140	0xc01c2425	-2.439706
141	0xbf11f85e	-0.57019603
142	0x3f938ba9	1.1526996
143	0xbefedc37	-0.49777386
144	0xbf0a209d	-0.53956014
145	0xbe15d359	-0.14631404
146	0xbf9eccc7	-1.2406243
147	0xbe34d6bc	-0.1766004
148	0x3e05da80	0.13071632
149	0x3dd2a6e5	0.10285739
150	0xbf73533f	-0.950489
151	0x3ca8be67	0.020598603
152	0x3d820074	0.06347743
153	0xbf9c1b63	-1.2195858
154	0x3fb0c933	1.3811401
155	0xbe4f5146	-0.20245847
156	0x3eb250c8	0.34827256
157	0xbf9793ec	-1.1842017
158	0x3d858b7f	0.065207474
159	0x3d16ac33	0.036785316
160	0xbf712ba3	-0.9420721
161	0x3d5a58c4	0.05330731
162	0x3ed9f1f2	0.42567402
163	0x3e928baa	0.2862218
164	0x3e312ba3	0.17301802
165	0xbffa9e38	-1.9579535
166	0xbf0b5ef2	-0.5444175
167	0xc001f0ea	-2.0303292
168	0x3cd3c447	0.025850428
169	0x3e373070	0.17889571
170	0xbf135e02	-0.5756532
171	0xbec19389	-0.37807873
172	0xbf4c5c02	-0.7982789
173	0xbefe733f	-0.496973
174	0xbf0bfc55	-0.54681903
175	0x3f848acb	1.0354856
176	0x3f02b16b	0.5105197
177	0xbfbcf9ba	-1.476371
178	0x3e23150b	0.15925996
179	0xbe0cef62	-0.13763192
180	0x3e1b9a76	0.15195641
181	0xbef70649	-0.48246983
182	0x3f77132c	0.9651363
183	0x3f564fa2	0.8371526
184	0xbc7e9ded	-0.015540582
185	0x3f711db7	0.94185966
186	0x3eade580	0.33964157
187	0xbfd503da	-1.66418
188	0xbf4772d8	-0.7790961
189	0xbee2d870	-0.44305754
190	0xbf38ec20	-0.722353
191	0xbf1cef46	-0.613026
192	0xbe1a80f1	-0.1508825
193	0x3f8438bc	1.0329814
194	0xbe0cb799	-0.13741912
195	0xbf7a1421	-0.97686964
196	0xbf0cd646	-0.55014455
197	0xbfc06a48	-1.5032434
198	0x3eee5dac	0.4655584
199	0x3e0a8893	0.13528661
200	0xbde884d4	-0.1135346
201	0x3f333c9c	0.7001436
202	0x3f438385	0.7637256
203	0xbffd69ec	-1.979795
204	0x3cffc5e6	0.031222295
205	0xbe4562c9	-0.19275965
206	0xbc592d69	-0.0132554555
207	0xbee2646f	-0.4421725
208	0xbfafc220	-1.3731117
209	0xbf1cf499	-0.61310726
210	0xbf389e15	-0.72116214
211	0x3ec3b5f5	0.3822476
212	0x3e8969ee	0.2683863
213	0xbeb39a84	-0.35078824
214	0xbf523c4a	-0.82123244
215	0x3e26e3d9	0.16297854
216	0x3d91ace3	0.07113054
217	0x3ed768aa	0.4207204
218	0xbefec078	-0.49756217
219	0x3f80492e	1.0022333
220	0xbc7b8145	-0.0153506445
221	0x3ead7972	0.33881718
222	0xbf2bfab2	-0.67179406
223	0xbfeec707	-1.8654488
224	0xbfc25a82	-1.5183871
225	0xbfc8e4c0	-1.5694809
226	0xbf80d511	-1.0065023
227	0x3dcd7ecc	0.1003395
228	0x3e65171e	0.223721
229	0x3ea6959b	0.32536015
230	0x3e8297fc	0.2550658
231	0xbe3b5940	-0.18295765
232	0xbf311c18	-0.6918349
233	0x3e88f956	0.26752728
234	0xbf152b5f	-0.58269304
235	0x3ef9824d	0.48732224
236	0xbff69814	-1.926516
237	0xbf3bc7f4	-0.7335198
238	0xbfcba1be	-1.5908735
239	0x3edd64b1	0.43240884
240	0xbe90159c	-0.28141487
241	0xbe0c0d68	-0.13676989
242	0xbe95a312	-0.29225975
243	0xbf2985b6	-0.6621965
244	0x3eadebcc	0.3396896
245	0xbeccaf88	-0.3997767
246	0x3ed9bd1e	0.42527097
247	0xbf3544b7	-0.70807976
248	0xbdbc5ff4	-0.09197989
249	0x3f3042ec	0.68852115
250	0xbedd4ec7	-0.43224165
251	0x3f824106	1.0176094
252	0x3f192307	0.5981907
253	0xbec05be1	-0.37570098
254	0x3eaa198a	0.3322261
255	0xbe869f1b	-0.26293263

gnn_2.bias f4 [128]
0	0xbfbb0a06	-1.4612434
1	0x3d728615	0.0592099
2	0xbdbe89c9	-0.09303624
3	0x3c7c6ca2	0.015406759
4	0xbe4762e0	-0.19471312
5	0xbd314e2a	-0.043287434
6	0xbf4b14f6	-0.7932886
7	0x3f17062a	0.5899378
8	0x40eae177	7.3400226
9	0xbfa256a6	-1.2682693
10	0x3f957ed3	1.1679329
11	0xbdd9d09b	-0.106354915
12	0xbec4bfb0	-0.38427496
13	0xbefaa9bf	-0.4895763
14	0xbec468d5	-0.3836123
15	0xc087fc50	-4.24955
16	0xbf752729	-0.9576288
17	0xbf2829a9	-0.6568857
18	0x3e0d15a5	0.13777788
19	0xbf39f0e8	-0.7263322
20	0x3c75373f	0.014966785
21	0x3eb4a9c0	0.3528576
22	0xbfb51d07	-1.4149483
23	0xbf2d6086	-0.6772541
24	0xbf1f4c98	-0.6222625
25	0xbe7f65cd	-0.24941178
26	0x3f01d421	0.5071431
27	0x3e88dfd3	0.26733264
28	0xbfa208fd	-1.2658993
29	0x3f1ddd42	0.6166574
30	0x3fa38d32	1.2777464
31	0xbe064828	-0.13113463
32	0x3eebae4c	0.46031415
33	0x3f22e751	0.6363421
34	0x3e8540d8	0.26026034
35	0x3ad84c2e	0.0016502196
36	0x3f728d6d	0.9474705
37	0xbf26c6df	-0.65147203
38	0x400d7675	2.210355
39	0x3f1ba454	0.6079762
40	0xbe06e4c9	-0.13173212
41	0x3f0f3c34	0.5595124
42	0x3fc645c5	1.5490042
43	0xbf0e469a	-0.5557648
44	0x3f86a4b0	1.0519009
45	0xbe8ad5ce	-0.27116245
46	0xbccfbea9	-0.025359469
47	0xbe12e0eb	-0.14343612
48	0x3f37c39a	0.7178284
49	0xbf42af5d	-0.76048833
50	0x3f63042e	0.8867825
51	0x3f15854f	0.5840654
52	0x3e6a5b87	0.22886477
53	0x3e4ad36b	0.19807212
54	0x3f5858e1	0.8451062
55	0x3e42fe13	0.19042234
56	0x3e2f1490	0.17097688
57	0xbf38b6d7	-0.7215399
58	0x3fbefd62	1.4921076
59	0x3e1af982	0.15134242
60	0x3e9409e1	0.28913787
61	0xbe43255b	-0.19057219
62	0xbfc26833	-1.5188049
63	0xc035f24c	-2.8429136
64	0x3f4f45db	0.80965966
65	0x3cde2c78	0.027120814
66	0x3f2699db	0.65078515
67	0xbe8426d1	-0.25810865
68	0x3f1cbf4b	0.6122939
69	0xbde69756	-0.11259334
70	0xbecfe654	-0.40605414
71	0xbf13b532	-0.5769836
72	0x3f0a03a7	0.53911823
73	0x3e2e4925	0.1702009
74	0x3ecb57f6	0.39715546
75	0xbe1af414	-0.15132171
76	0xbe807b3b	-0.25094017
77	0x3f47fddf	0.7812175
78	0x3eafd54c	0.3434242
79	0x3f1d3bcc	0.6141937
80	0xbc9f8f18	-0.019477412
81	0x3ed32597	0.41239616
82	0x3ef6dc57	0.4821498
83	0xbf745816	-0.9544691
84	0xbec43f20	-0.3832941
85	0x3fdcc113	1.7246422
86	0xc00498e8	-2.0718327
87	0x3f631e4e	0.88718116
88	0x3f741b35	0.95354015
89	0xbf5dd3f1	-0.8665152
90	0xbdc3f11e	-0.09567474
91	0x3efe4b01	0.49666598
92	0xbf860b49	-1.0472194
93	0xbd8458c7	-0.064622454
94	0x3c9db5dd	0.019251758
95	0x3ea1966f	0.31560084
96	0xbe88ba0f	-0.2670445
97	0x3f1c1b34	0.6097901
98	0xbefc30e8	-0.49256063
99	0x3f961537	1.1725224
100	0xbf2d5ff5	-0.67724544
101	0x4005516a	2.0830941
102	0x3f632bfd	0.88738996
103	0x3f48eb8b	0.7848441
104	0x3f3c950e	0.7366494
105	0xc00b4bbb	-2.1764972
106	0x3e8dcf64	0.2769729
107	0xbe99b49b	-0.30020604
108	0xbe980a3e	-0.29695314
109	0x3d916ab3	0.071004294
110	0x3fa7fa0b	1.3123182
111	0x3f1d4d8f	0.6144647
112	0xbfa7f44a	-1.3121426
113	0x3f928818	1.1447783
114	0xbf1d01a5	-0.61330634
115	0x3e5104df	0.20412014
116	0x3e01bf88	0.1267072
117	0x40623d4c	3.5349913
118	0x3ebb5583	0.36588678
119	0xbea3f907	-0.3202593
120	0xbeea544e	-0.45767444
121	0x3e6a7cb2	0.2289913
122	0x3ec31b91	0.3810697
123	0x3ef959bc	0.48701274
124	0x3f5b7083	0.85718554
125	0xbf5c865d	-0.8614252
126	0x400ea5bf	2.2288663
127	0x3f9eeb8a	1.2415631

gnn_2.lin.weight f4 [128, 128]
0	0xbdec4863	-0.11537244
1	0xbe0c0a36	-0.1367577
2	0x3c41ec4a	0.011836121
3	0xbdf9dd1b	-0.12200376
4	0xbe65fcda	-0.22459736
5	0xbf0c3671	-0.5477057
6	0xbfcce86b	-1.6008428
7	0xbeed924b	-0.46400675
8	0xbf4240d9	-0.758802
9	0x3eb908b7	0.3613946
10	0xbf32ce8d	-0.6984642
11	0x3e710c46	0.23539838
12	0x3e73359a	0.23750916
13	0xbcdb77a0	-0.02679044
14	0xbef1f54f	-0.47257468
15	0xbfac9553	-1.348307
16	0x3d4c4177	0.04986712
17	0xbf28998f	-0.6585931
18	0x3d427a54	0.047479942
19	0xbeba1428	-0.36343503
20	0xbf809af7	-1.0047292
21	0xbec2f3a3	-0.38076505
22	0xbe1c9ef4	-0.15295011
23	0xbe5b5cb2	-0.21422079
24	0xbe9c16b9	-0.30486086
25	0xbec5668e	-0.38554806
26	0xbef98ac8	-0.48738694
27	0xbe9a8841	-0.30182078
28	0x3e81c895	0.25348344
29	0xbe149c60	-0.14512777
30	0xbe9e7ee6	-0.3095619
31	0x3e8403d0	0.2578416
32	0xbe5e2508	-0.21693814
33	0x3e316634	0.17324144
34	0x3e395059	0.18097056
35	0x3f504368	0.81352854
36	0xbf7acb7a	-0.9796673
37	0xbe4159f1	-0.18881966
38	0xbf5a8cae	-0.8537091
39	0x3e80fb65	0.251918
40	0xbe1adcaf	-0.15123247
41	0xbee375d4	-0.44425833
42	0x3c351e63	0.011054608
43	0x3e1d7cab	0.15379588
44	0xbfcaccd0	-1.5843754
45	0xbfdd83f6	-1.7305896
46	0xbeb49eb3	-0.35277328
47	0xbf6b7098	-0.9196868
48	0xbd5f0710	-0.054450095
49	0xbe4b262b	-0.19838779
50	0x3de2fb8c	0.11083135
51	0xbe0e5951	-0.13901259
52	0xbf06fdc7	-0.52730983
53	0xc0561828	-3.3452244
54	0x3d1e321f	0.038622018
55	0xbf0559c7	-0.52090114
56	0x3e994b69	0.29940346
57	0xbf821174	-1.0161576
58	0x3f55b22c	0.83474994
59	0xbf0d0c12	-0.5509654
60	0x3f01a8b1	0.5064803
61	0xbda8dba3	-0.082450174
62	0x3da604b3	0.08106365
63	0xbfb03270	-1.3765392
64	0xbf01ea17	-0.5074782
65	0x3e974e01	0.295517
66	0xbf0e9f54	-0.55711865
67	0xbf1de188	-0.6167226
68	0xbffeca51	-1.9905492
69	0xbd76f930	-0.060296237
70	0xbf47c1d0	-0.7803011
71	0xbd913e2e	-0.07091938
72	0xbd97c44a	-0.07410486
73	0x3e81c027	0.25341913
74	0x3f20e3b0	0.62847424
75	0xbe77590d	-0.24155064
76	0xbf2cdcca	-0.675244
77	0xbfb572c0	-1.4175644
78	0x3f3c8602	0.7364198
79	0x3eb7a3fe	0.35867304
80	0xbee2edeb	-0.44322142
81	0xbf7c5088	-0.9856038
82	0x3e1821d9	0.14856662
83	0x3e90cb15	0.2827994
84	0xbeae14d7	-0.34000275
85	0xbf40c3e9	-0.75298935
86	0x3de3c062	0.111206785
87	0xbe453a29	-0.19260468
88	0xbeed5ea8	-0.4636128
89	0xbf60a4a8	-0.87751245
90	0x3ca7c0ea	0.02047773
91	0xbe5ac7e3	-0.21365313
92	0xbf8cce69	-1.1000491
93	0xbfdf00da	-1.7422135
94	0x3ce75ded	0.02824303
95	0x3ec145d1	0.37748578
96	0xbf851c42	-1.0399249
97	0x3f0f010f	0.5586099
98	0xbf27b7a3	-0.6551458
99	0x3e9fde2f	0.312242
100	0xbf358716	-0.7090925
101	0xbe1491a3	-0.14508681
102	0xbe290ca5	-0.1650873
103	0x3e80c454	0.25149786
104	0xbf8a7fe2	-1.0820277
105	0xbcd1bf79	-0.025603997
106	0xbea2b2f8	-0.31777167
107	0xbe9db4dd	-0.3080205
108	0x3e5aa36e	0.21351406
109	0xbea1c24f	-0.31593558
110	0xbe4872a1	-0.19574977
111	0xbef2167c	-0.4728278
112	0xbf044366	-0.5166534
113	0xbf21300a	-0.62963927
114	0x3df044f1	0.117318995
115	0x3ee23ecb	0.44188532
116	0x3e9e8cd7	0.30966827
117	0x3e905c5c	0.28195465
118	0x3d8ba15e	0.06817888
119	0xbf4f2b43	-0.8092539
120	0xbee462b8	-0.44606566
121	0xbf090d7e	-0.5353621
122	0xbe9f424a	-0.31105262
123	0xbdcc2d15	-0.09969536
124	0xbf27aa50	-0.6549425
125	0xbe7f9570	-0.2495935
126	0x3f9183ab	1.1368307
127	0xbdbc9197	-0.092074566
128	0xbf6a1f1a	-0.9145371
129	0xbf11a4ee	-0.5689229
130	0x3f0c87dc	0.54894805
131	0xbf6c3aae	-0.9227704
132	0x3ed96541	0.42460063
133	0xbe2509e9	-0.16117062
134	0x3f0a1858	0.53943396
135	0x3f47f256	0.7810415
136	0x3ef0c9fc	0.47029102
137	0x3f1b4503	0.6065218
138	0x3c8a310a	0.016869087
139	0xbf8e9317	-1.1138638
140	0xbcc0cace	-0.023534205
141	0xbdd4ab7e	-0.10384272
142	0xbe9c95c1	-0.30583003
143	0xbfae6488	-1.362443
144	0x3ec37dbd	0.38181868
145	0xbf3ddb71	-0.74162966
146	0xbf053a53	-0.5204212
147	0x3e1bcf84	0.1521588
148	0x3d8e6e5b	0.069546424
149	0x3e9b6aa5	0.303548
150	0xbf07f561	-0.53108793
151	0x3de09751	0.10966361
152	0xbe9bea8f	-0.30452392
153	0xbcb0ebb0	-0.02159676
154	0xbed48450	-0.41507196
155	0xbcf41ad5	-0.02979795
156	0x3f1405a1	0.5782109
157	0x3f05ca50	0.5226183
158	0xbe52e952	-0.20596817
159	0x3f21b7ef	0.63171285
160	0xbf08184c	-0.53162074
161	0x3efecd77	0.49766132
162	0x3e7b3c35	0.24534686
163	0x3e128a17	0.1431049
164	0xbe49eb01	-0.19718553
165	0x3def59b4	0.116870314
166	0x3edf9683	0.4366952
167	0x3f37b4c1	0.71760184
168	0x3f66a0b9	0.90088993
169	0xbdba5dc7	-0.09099918
170	0xbe9cd68d	-0.3063244
171	0xbef46cd3	-0.47739276
172	0xbf051c09	-0.51995903
173	0xbf24a7f3	-0.6431877
174	0x3f03c52b	0.5147273
175	0xbeb33c1f	-0.35006806
176	0xbf03f127	-0.51539844
177	0x3f65b718	0.89732504
178	0x3e37b57f	0.17940329
179	0xbedc5470	-0.4303317
180	0xbebbfd30	-0.36716604
181	0xbf00a9df	-0.502592
182	0xbe856256	-0.26051587
183	0xbd821517	-0.06351679
184	0xbe582dae	-0.21111175
185	0xbe45c5a2	-0.19313672
186	0xbfe659b8	-1.799613
187	0x3ea94276	0.33058518
188	0xbe78bbc3	-0.24290375
189	0x3cb5d7c8	0.02219762
190	0xbd16524c	-0.03669958
191	0xbe95a9cf	-0.29231116
192	0x3eec8052	0.4619165
193	0x3ea653ba	0.32485753
194	0x3e97cf4c	0.29650342
195	0xbdb0c3a2	-0.08631064
196	0xbf3e8339	-0.7441898
197	0x3e98fd8b	0.29880938
198	0x3f1398e1	0.5765515
199	0xbe88c4dd	-0.26712695
200	0xbef211da	-0.47279245
201	0xbf71d951	-0.94472224
202	0x3ed1644e	0.4089684
203	0xbecbdb17	-0.3981559
204	0xbe99c566	-0.30033416
205	0xbcebde17	-0.028792424
206	0x3e8ae29c	0.27126014
207	0xbdfe501a	-0.12417622
208	0xbf489ea6	-0.7836708
209	0x3e87de75	0.2653691
210	0xbda4d93d	-0.080492474
211	0x3f596d37	0.84932274
212	0xbcf3cded	-0.029761279
213	0x3e20b95a	0.15695706
214	0xbe9c5742	-0.30535322
215	0xbf4865f6	-0.7828058
216	0xbf4b0931	-0.793109
217	0xbf269af3	-0.65080184
218	0x3b868090	0.0041046813
219	0xbecdf882	-0.4022866
220	0xbe4740a4	-0.19458252
221	0xbf0de673	-0.5542976
222	0xbd9a85f4	-0.07545081
223	0x3e601c4e	0.21885797
224	0xbf35f02c	-0.710696
225	0x3efb7b5c	0.49117553
226	0xbf079e25	-0.52975684
227	0x3c735b26	0.014853274
228	0x3edf95a9	0.4366887
229	0x3e45d52b	0.19319598
230	0x3d8f1c62	0.069878355
231	0x3e1fb07a	0.15594664
232	0xbebad11d	-0.36487666
233	0xbe1c7933	-0.15280609
234	0x3dad3f50	0.084593415
235	0x3ea073b3	0.31338271
236	0xbf830cac	-1.0238242
237	0x3f5e2b00	0.8678436
238	0x3ef75390	0.4830594
239	0x3eaa630c	0.33278692
240	0xbd0d6f30	-0.034529865
241	0x3f2055aa	0.62630713
242	0xbed60078	-0.41797233
243	0x3f2edafb	0.6830289
244	0x3d28ef53	0.041243862
245	0xbf2de671	-0.6792975
246	0xbdc7e5de	-0.097606406
247	0x3efc5d41	0.49289897
248	0x3c3a5bbf	0.011374413
249	0xbf097109	-0.536881
250	0xbe8eb975	-0.27875867
251	0xbe1651a5	-0.14679582
252	0xbe869e93	-0.26292858
253	0xbd54532a	-0.051837124
254	0xbef092ee	-0.46987098
255	0x3e5a2af7	0.21305452
