tfg/models20250211112855/model_50.pt (torch, 569538 bytes, 12 tensors)

node_encoder.lins.0.weight f4 [128, 7]
000000 d6 52 89 be 21 d8 0a 3e 7e 20 35 be 7b 1f 2d c0
       -0.2682101 0.13559009 -0.17688176 -2.7050464
000010 b7 0f f9 bd c8 be e1 bd 09 63 bc 3d f2 f3 af 3c
       -0.121612005 -0.11022717 0.09198577 0.021478627
000020 d9 c8 93 3c 2c 71 0a 3d 15 52 bb bf 90 38 c3 3e
       0.018040108 0.033799335 -1.4634424 0.3812909
000030 22 2b 1e 3f 14 09 db 3d 66 60 ae 3e d1 4d 1b bd
       0.61784565 0.10695091 0.3405792 -0.03791601
000040 34 17 c0 be 63 60 23 c0 71 af 23 3e 1e bf 23 3f
       -0.37517703 -2.552758 0.15984894 0.63963497
000050 83 66 45 be 73 b0 c8 3c 50 fa 95 3e b6 d6 5a bd
       -0.19277386 0.0244982 0.29292536 -0.05342742
000060 ad cc 25 c0 50 89 d9 3e 8a 5a 4a bf bd 20 6d be
       -2.5906174 0.42487574 -0.790444 -0.2315702
000070 34 80 60 3d 54 6a 2b be 04 c8 c3 3d 76 e9 0b c0
       0.054809764 -0.1673978 0.09559634 -2.1861243
000080 aa fa 68 3e 79 9e c1 be a0 91 1c be 54 9e 17 bd
       0.22751871 -0.37816218 -0.15289927 -0.037016228
000090 4e 1f 1e 3d f0 5a f6 3c 2a 1b 8e 3f 6a c0 3a 3d
       0.038604073 0.03007266 1.110204 0.045593657
0000a0 6c cd a6 3e 28 76 62 be 28 47 52 be 38 42 49 3d
       0.325786 -0.22115386 -0.20534956 0.049135417
0000b0 01 f8 2f 3e 39 00 ea bf 22 90 63 3b 7b b5 c9 be
       0.1718445 -1.8281318 0.003472336 -0.3939627
0000c0 de d4 06 3e e8 91 73 3d 69 7f 8a ba c9 1d 8c bb
       0.1316714 0.05946532 -0.0010566536 -0.0042760116
0000d0 1e 63 a9 3f 09 ba 85 be 69 70 e6 be 99 30 0e bf
       1.3233373 -0.26118496 -0.45007637 -0.55542904
0000e0 17 c1 27 bd ec de 67 3c 10 7c ab bd 9f 2f 0e c0
       -0.04095563 0.01415227 -0.083732724 -2.2216566
0000f0 e4 54 19 be 34 ee da 3e 4d 0f 48 3e 6d 6d 04 be
       -0.1497379 0.4275986 0.19537087 -0.12932368
000100 11 6d 85 3e d7 98 48 3e d4 24 32 c0 d5 dd ec be
       0.26059774 0.19589554 -2.7834978 -0.46262994
000110 51 fe c4 3e 83 40 0e 3f 74 17 bc be 3a f0 b9 3c
       0.38475278 0.5556719 -0.36736643 0.022697557
000120 c7 c5 29 bc ce 75 1e 3d 85 08 0a be 29 07 f8 3e
       -0.010362095 0.038686566 -0.13479812 0.48442963
000130 7f b5 51 be 39 ec d6 3c 75 dc be be d7 f0 c2 3e
       -0.20479392 0.026235687 -0.3727757 0.3807437
000140 9c 93 17 3f e1 94 99 3e ff 9d 3e 3e 05 8f 14 3d
       0.5920961 0.29996398 0.18614958 0.036269207
000150 b7 c5 75 be f0 a8 12 bd cb d2 1d 3e 56 d3 b2 bf
       -0.24001203 -0.035805643 0.15412442 -1.3970745
000160 55 ab 69 3c 39 85 25 be dd b5 d3 3a dc f0 0f 3e
       0.01426204 -0.16164102 0.0016152222 0.14056724
000170 a8 21 94 bc 66 1f 31 3e 57 86 e3 be 2c f5 5a 3e
       -0.018082455 0.17297134 -0.4443843 0.21382588
000180 7a 89 12 bf c9 21 8f be 66 e9 11 3e be c4 a4 bd
       -0.5724102 -0.27955464 0.1424919 -0.08045338
000190 8e 5e 6e 3e 20 35 e5 3e 09 ee f0 3d 93 8c c1 be
       0.23278257 0.44767094 0.117641516 -0.37802562
0001a0 98 a3 25 3f 46 d4 ff 3d 5c 5a 85 3c c1 6d a3 be
       0.6470275 0.1249166 0.016278438 -0.31919673
0001b0 3e ec 13 c0 1b 1d 8d 3e ef 54 2c be 39 88 5c bd
       -2.311294 0.27561268 -0.16829275 -0.05384085
0001c0 d3 8a 37 3d d9 72 25 3b 5b 76 9d 3c bc 31 2b 40
       0.044810127 0.0025245456 0.019221475 2.6749105
0001d0 54 64 98 bc f5 f3 f8 bd 25 ea e8 3e 35 41 1b be
       -0.018602528 -0.12155906 0.45491138 -0.15161593
0001e0 92 3c 26 bd b5 ed a2 3d 9a 92 e6 bf c8 0a 93 bd
       -0.040585108 0.07955495 -1.8013489 -0.07179791
0001f0 12 12 89 be 55 59 07 3e 0e dc 0e be d4 db 7d bd
       -0.267716 0.13217671 -0.13951132 -0.061977223
000200 f1 12 5e 3e 39 a8 2c c0 e1 df 1b 3f 11 3c 03 3f
       0.21686913 -2.6977675 0.6088849 0.5126353
000210 76 b7 0a 3f 1e 1b 2d 3e 79 ff fc 3d 60 bd 36 bd
       0.5418619 0.16904876 0.12353415 -0.044614196
000220 09 aa 18 c0 de 58 e9 3d b6 3c 86 bc 15 55 03 3f
       -2.3853781 0.11393903 -0.016386371 0.513017
000230 4f a4 4e be 0c ba ab 3d 70 e9 32 be 69 f9 2c c0
       -0.20179866 0.08385095 -0.17471862 -2.7027228
000240 8e 3b 2f 3e 89 3f 89 3c f2 f4 c1 bc 3c a6 71 3c
       0.17112562 0.016753929 -0.02367637 0.014749106
000250 3f fc 3a bd 10 5e 0b 3c 29 2f dc bf fc e1 2c be
       -0.045650717 0.008506313 -1.7201892 -0.16883081
000260 f0 46 f8 3e 30 ce 89 bd 60 a3 a1 be 7e 49 25 bc
       0.4849162 -0.0672878 -0.31569958 -0.010088323
000270 0b 13 4a bd d7 7c 0f c0 38 a7 16 be 00 ed 22 bd
       -0.049334567 -2.2419946 -0.14712226 -0.039776802
000280 5e 3c a1 bd 8b 96 5e 3d 30 bc 66 bd 1f 7a 0b bb
       -0.07872842 0.054342788 -0.056331813 -0.0021282507
000290 b2 5c 3f 40 f9 c9 1f bd 78 5f e8 be 7d b5 9a be
       2.9900327 -0.039010976 -0.45385337 -0.3021659
0002a0 fa 73 13 3e 13 8a 35 bd be 22 81 be e8 07 83 bf
       0.1439971 -0.04432113 -0.2522182 -1.0236788
0002b0 9d 58 15 be b6 45 0a bc f0 bd 8f bd 81 4f 78 3e
       -0.14584585 -0.008439472 -0.070186496 0.24249078
0002c0 c2 16 33 bd 45 d0 de bd 0a 38 ff bf 05 30 8c be
       -0.043722875 -0.10879568 -1.9938977 -0.27380386
0002d0 1d 6c b9 be 10 47 cd be a4 83 39 bc 06 e1 04 bd
       -0.36215296 -0.4009328 -0.0113228895 -0.03244116
0002e0 64 42 04 3c 72 18 f0 3f f1 88 8d be 65 65 0c 3e
       0.008072469 1.875746 -0.2764354 0.13710554
0002f0 0b 27 5a be 3c f4 94 3e 4b f4 8f bc 30 dc 96 3e
       -0.21303956 0.29092586 -0.017572543 0.29464865
000300 c5 7f 8f be 70 d1 23 3e e0 b7 a2 bd 57 29 ac 3d
       -0.28027168 0.15997863 -0.079452276 0.084063224
000310 be 56 99 bd 09 e6 3f bd 67 29 3d bd e6 fb 13 3f
       -0.07487248 -0.046850238 -0.046182062 0.5780624
000320 59 ea b9 3e f5 32 17 bf 37 84 9a be c5 68 31 be
       0.36311606 -0.5906213 -0.30178997 -0.17325123
000330 f9 55 df bd 78 b9 87 3e bf 67 2f bf f0 e4 0d bf
       -0.1090507 0.2650869 -0.6851768 -0.55427456
000340 3e af ee 3c e6 3a e4 3d 76 ed 07 be ff 89 f3 3d
       0.029136296 0.111440465 -0.13274178 0.11891555
000350 c9 f3 76 3e 86 00 8d be ee 32 95 3d a9 5d 0e 3d
       0.24116434 -0.27539462 0.07285105 0.03475729
000360 ca 0e cb bc 7f b0 48 be e1 7f 05 3e 00 bb 80 bd
       -0.024787325 -0.19598578 0.13037063 -0.062856674
000370 57 16 49 3f 04 a4 ec bc e3 12 7f 3d 1b dd 60 3e
       0.7854971 -0.028886802 0.06227387 0.21959345
000380 dc 85 80 bc 93 95 c3 bd e3 34 80 bc 4a 0c d1 bf
       -0.01568883 -0.095500134 -0.015650218 -1.6331875
000390 63 a4 02 3f 4f cf 29 be af 62 e0 be 48 3a 8a 3d
       0.51032084 -0.16582988 -0.4382529 0.067493975
0003a0 bd 73 93 3d 36 a0 45 3e 44 55 f0 3f d3 23 86 bd
       0.0719981 0.19299397 1.8776021 -0.06549802
0003b0 b2 f6 50 bd c3 d0 0e 3e a8 fc 6d bd 85 27 47 bc
       -0.051016517 0.13946824 -0.05810228 -0.012155418
0003c0 a0 6d 0d 3c cc 97 cf 3f cd 7d 0d 3f fc 73 2e bf
       0.008632094 1.62182 0.5527008 -0.6814573
0003d0 da 84 99 3d 3f 33 96 be 0b 30 73 3e 6b 8d 6f 3e
       0.074960425 -0.29335973 0.23748796 0.2339379
0003e0 9d 4b 47 3f 3b 51 c5 be 11 ee e3 3e a1 27 9d bd
       0.7784975 -0.38538536 0.44517568 -0.07673574
0003f0 5a 94 90 3e 38 dd 18 3d 36 a3 8c bc 34 5e 18 c0
       0.28238183 0.037320346 -0.017167669 -2.3807497

node_encoder.lins.0.bias f4 [128]
000000 90 33 d0 3a 8e c7 0e 3e ec 98 15 3d fe 73 22 be
       0.0015884507 0.13943312 0.03652279 -0.1586456
000010 38 1d 79 3e b3 6c b6 be d5 ab ea 3d f7 79 ae 3d
       0.24327552 -0.35629806 0.114585556 0.08519357
000020 3f fe 2b 3e c8 13 44 3c 75 fe a4 bd 37 2c ee 3c
       0.16796206 0.011967607 -0.08056346 0.029073818
000030 d6 f7 bc 3d aa 76 5a bd 88 cf cb be 12 51 cf 3d
       0.092269585 -0.053335823 -0.3980677 0.10122885
000040 5d 5c 03 be a4 56 c0 bc d7 ef 49 be ca d4 f6 3d
       -0.12828203 -0.023478813 -0.19720398 0.12052305
000050 fb c2 af 3d 2c 07 29 bd 95 33 41 3e 28 ea 5f be
       0.085821114 -0.041266605 0.18867333 -0.21866667
000060 df f4 fd 3d 74 ba 77 3d d4 0b 34 3d c0 04 3f bc
       0.12400221 0.06048055 0.043956593 -0.011658847
000070 9a 2d 7e be 94 6b 91 3d 16 df 66 3e e5 81 2e be
       -0.24822083 0.07100597 0.22546038 -0.17041738
000080 69 d5 cf be 64 25 61 bb f1 2e b2 bc 73 46 fa bd
       -0.40592507 -0.0034354562 -0.021750899 -0.12220468
000090 4a b9 af 3d 73 33 84 3e 04 69 3f be 0d c1 15 3d
       0.08580263 0.25820503 -0.18692404 0.03656106
0000a0 a7 6e 87 be 00 bd 64 be 61 eb a8 bd ee 7e db 3b
       -0.2645161 -0.22337723 -0.0824802 0.006698481
0000b0 ab 3c 4f be e9 87 a9 bd 05 18 0e 3e 5a 22 94 bd
       -0.20237987 -0.08277876 0.1387635 -0.072331145
0000c0 af 69 51 3e b0 34 bb 3c 7f 69 6d 3e 6b 73 17 be
       0.20450471 0.022852272 0.23184775 -0.14790122
0000d0 36 9a d0 be ae 22 e4 bd 9d 04 14 be f9 6d 56 bd
       -0.40742654 -0.11139427 -0.14454885 -0.05235097
0000e0 00 24 9f 3e 89 68 89 3e 5b 8a ab 3d 42 3c 2f bd
       0.31082153 0.26837566 0.083759986 -0.042782076
0000f0 c8 e0 03 3d 9b 3c c5 3e 9a f9 1d be 26 88 05 3e
       0.03219679 0.385228 -0.15427247 0.13040218
000100 79 b5 81 3e da 72 40 be d7 f8 79 3e 06 4d bf bb
       0.25333765 -0.18793812 0.24411331 -0.0058380393
000110 33 fd 0b 3e 95 b8 30 bd 12 bc bf 3d 1d b5 a7 3d
       0.13670807 -0.04314478 0.093620434 0.081888415
000120 43 5b ef 3d 5c dd bf 3d af 17 34 3d 3b 73 76 be
       0.11687329 0.09368393 0.0439679 -0.24067394
000130 05 c6 a9 bd 3f f7 b0 bc 18 79 1c 3e 47 1b 60 3e
       -0.08289722 -0.021602271 0.15280569 0.21885405
000140 45 95 d8 3d bb df 9f 3d 51 f6 6d be 96 fb c9 3e
       0.10575346 0.07806345 -0.23238494 0.39449757
000150 ce 2c 38 be 94 b7 49 bc 5e d1 84 3e af 68 e8 3d
       -0.17985842 -0.012311835 0.25940984 0.11348092
000160 1c 40 df bd b1 ed f4 bd 6c f0 79 bc 60 34 56 3d
       -0.109009 -0.119593985 -0.015255075 0.052296042
000170 df 35 24 be ee 7a 26 3e 0d 25 40 3e 3c 14 fc bd
       -0.16036175 0.16257831 0.18764134 -0.12308547
000180 92 70 2c be e2 3e 34 3e 41 08 c4 3d 40 25 eb 3d
       -0.16839817 0.17602113 0.09571887 0.11481714
000190 6d ac 67 be cd a6 95 be 47 44 86 be 8e 25 ca 3d
       -0.22624369 -0.2922882 -0.26223966 0.09870444
0001a0 1b 14 30 be c8 f8 22 3e 40 c2 64 3e 90 50 49 be
       -0.1719517 0.15915215 0.22339725 -0.19659638
0001b0 b3 db 4e be f1 92 ac be 96 09 01 3d ef 67 a4 be
       -0.20200996 -0.33705857 0.031503282 -0.32110545
0001c0 d0 47 36 3c 99 1b d0 3d 72 d7 dd 3c 17 d1 97 be
       0.01112552 0.10161514 0.027080271 -0.2965171
0001d0 11 b4 32 bd 8b 7c b5 be 01 78 80 3e b1 9d 0c 3e
       -0.043628756 -0.3544658 0.25091556 0.1373203
0001e0 36 e9 a4 bd a8 56 50 3e 4d 7a 02 3e 2a 6e 19 3d
       -0.08052294 0.20345557 0.12741967 0.037458576
0001f0 bc 35 9b 3d dc 34 2d bc 96 29 e4 3d d9 ec 24 bc
       0.075786084 -0.010571685 0.111407444 -0.0100662345

node_encoder.lins.1.weight f4 [256, 128]
000000 3a 1c cf bd 64 a5 aa 3d 46 61 78 3d 47 dd 91 be
       -0.10112806 0.08332327 0.060639642 -0.28489134
000010 51 58 71 be 2a 11 89 bd d8 6e 26 be 7b ac 9d be
       -0.23568846 -0.06692727 -0.16253221 -0.30795655
000020 0f 42 02 3e 05 88 9f bd cc 73 1c 3e d1 2e 6a bd
       0.12720512 -0.077896155 0.15278548 -0.057173554
000030 e2 21 13 bd 71 15 43 be e4 35 0f be 8b 09 79 bc
       -0.035920985 -0.19051148 -0.13985401 -0.015200029
000040 ac 56 73 be 47 01 a8 bb d1 64 80 be 18 71 66 bd
       -0.23763531 -0.0051271054 -0.25076917 -0.0562602
000050 ec 96 e1 bc 7f b3 51 3e 07 99 36 bd f5 c6 c3 be
       -0.027537785 0.20478629 -0.044579532 -0.3823773
000060 23 2c 91 bc 6e 11 25 be 9f c2 cc 3d ea 75 0d 3c
       -0.017721241 -0.1611993 0.099980585 0.00863407
000070 d6 75 fe bd c5 0d bf 3d 54 c9 1e be db cd b2 bd
       -0.12424819 0.09328798 -0.15506488 -0.0873067
000080 a3 cb b2 be 93 08 1a b9 37 bc 64 be f2 bc 95 3d
       -0.34920987 -0.00014689779 -0.22337423 0.07311429
000090 34 18 d6 3b e2 38 c4 3c bb 4a 97 3d a1 58 6c 3c
       0.006533647 0.023952905 0.073873006 0.014425428
0000a0 83 af 09 3a 3f 1e 2a 3e 22 cf a2 bd 99 db ad bc
       0.00052522885 0.166131 -0.07949664 -0.021222876
0000b0 78 12 53 bc b3 26 96 3c ed 47 47 3d 6d a6 f3 bb
       -0.012882821 0.018329 0.04865258 -0.007435611
0000c0 97 9d 05 be 54 16 4d 3c e6 cb 57 bd ac 0a 60 3e
       -0.13048397 0.0125175305 -0.052684687 0.21879071
0000d0 c2 d7 86 bd 1a 68 18 3c 96 44 11 be 90 11 3c be
       -0.06584121 0.0093021635 -0.1418632 -0.18366075
0000e0 8e 73 12 be 8a 9e 37 be e3 70 89 bd e4 6f da 3d
       -0.14301893 -0.17931572 -0.067109846 0.10665873
0000f0 5c ed 03 be ab 0a 1e be f1 c7 b5 bc eb f0 74 bd
       -0.12883514 -0.15433757 -0.022190066 -0.05980007
000100 d2 85 11 bb 80 36 00 be fe bc 5f be 8a 4b 43 bd
       -0.0022205007 -0.1252079 -0.21849439 -0.04767946
000110 a6 59 88 bc 31 43 07 3c 40 1d a1 3d 39 58 a7 bd
       -0.01664431 0.008255766 0.07866907 -0.08171124
000120 90 da eb bd 53 86 a5 3b 30 47 02 be 1f a2 1a 3e
       -0.11516297 0.005051413 -0.12722468 0.15100907
000130 01 b6 30 be 78 c6 28 be 0d 49 be be df 68 05 3d
       -0.17256929 -0.1648196 -0.37165108 0.032570716
000140 b7 57 5e 3d dd 26 4b be 91 64 15 3e a3 a1 22 be
       0.05428287 -0.19839044 0.14589144 -0.15881972
000150 f0 31 8d be 15 ee d4 bd 43 92 ae bd d4 35 77 3d
       -0.27577162 -0.10396973 -0.08523991 0.06035407
000160 a8 d5 1d bd 5b c2 73 bd b1 c5 9a bd a6 3d af bc
       -0.038533837 -0.059511524 -0.07557238 -0.021391701
000170 e6 af 05 3d 6f 74 83 be 5e 1b 0f be df 56 8f 3c
       0.032638453 -0.2567477 -0.13975284 0.017497478
000180 98 e9 ac 3d 6b da e1 bc e1 3a ae 3c a3 ce 21 bc
       0.08442992 -0.02756997 0.02126831 -0.009875926
000190 d4 fc 91 be 3d 1d 89 3c 03 a4 13 be 9b 5e 19 be
       -0.28513205 0.016737575 -0.14418034 -0.14977495
0001a0 71 e5 c2 be d2 7a 92 3d a3 8e bb bc 2d 62 8f bc
       -0.38065675 0.07152332 -0.022895163 -0.017502869
0001b0 c5 4d 53 be 26 b8 21 be da ce 6c 3d bd cc 49 be
       -0.20635135 -0.15792903 0.057814457 -0.19707008
0001c0 53 86 f4 bc f2 a3 c7 bd 86 ee c2 bd 3c a3 f4 3c
       -0.029849207 -0.09748067 -0.09518151 0.029862992
0001d0 9b b1 2f bd 4d 1c e3 3d a4 a0 dd 3d b5 60 3a be
       -0.042893987 0.11089382 0.108216554 -0.18200953
0001e0 73 41 2d 3b 9e 86 e3 3d eb ee 71 3c 1f 73 82 bd
       0.0026436716 0.111096606 0.014766435 -0.06369614
0001f0 6a b9 64 be 9e ce 29 3d a7 6f 50 be 82 d9 b8 bd
       -0.22336355 0.04145681 -0.20355092 -0.09025861
000200 e3 62 16 bb 16 4d 96 bd cc 73 24 be 2e f8 47 be
       -0.0022947125 -0.07338922 -0.16059798 -0.19528267
000210 37 b0 44 3d 88 7a ce bc 4e e5 bf 3c 89 56 18 bd
       0.048019614 -0.025204912 0.02342477 -0.0371919
000220 df 33 06 be 3c 38 ea 3d 93 1b 3f be 1c 19 1d be
       -0.13105725 0.11436507 -0.18662862 -0.1534161
000230 d2 38 93 bd c1 5a 48 3d fa 01 8f 3d 38 81 03 be
       -0.07188572 0.048914675 0.06982799 -0.12842262
000240 6c 97 c8 3d 43 62 44 3d a3 aa 56 3d c7 b9 b1 bd
       0.097945064 0.047945272 0.052408826 -0.08678012
000250 6a d0 2d bd e8 70 15 bc 37 92 d6 bd c3 d3 12 be
       -0.042435087 -0.009121157 -0.10477107 -0.14338593
000260 d1 be 3a be 12 23 72 be ea 8a c6 bd 67 9f da 3b
       -0.18236853 -0.23646191 -0.096944645 0.0066718343
000270 07 93 9d 3b 4f ce b1 3b 12 9a d5 bc e4 45 33 3d
       0.004808787 0.005426205 -0.026074443 0.043767825
000280 8a 5c 4f be 74 4d cd bc 90 e8 d4 3d ed d4 87 bd
       -0.20250145 -0.025061347 0.1039592 -0.06632409
000290 9a fd 76 bc 83 91 15 bd b3 b5 56 be ae cc ca bd
       -0.015075112 -0.036515724 -0.2096775 -0.09902321
0002a0 82 c0 30 be 6f 4d 62 bd c3 5c d0 bd 25 41 ab bb
       -0.17260936 -0.055249628 -0.10173943 -0.0052262717
0002b0 fd 2f 2a bd 39 af f6 bb 10 2d 84 bd fc fe 2a bd
       -0.04154967 -0.0075282124 -0.064539075 -0.04174708
0002c0 b4 f8 2b bd 52 d9 f5 bd 89 c7 bf bc fd 6d 1c be
       -0.04198523 -0.12004341 -0.023410575 -0.15276332
0002d0 df 49 2c 3e 2a 6c 96 bd 0a d0 96 bc cd f2 24 be
       0.16825055 -0.073448494 -0.018409748 -0.16108246
0002e0 d1 57 d6 3d 52 d2 7f bd f0 e6 9c bc 95 66 e3 3c
       0.104659684 -0.062456436 -0.019153088 0.027758876
0002f0 b0 9c f5 bd f0 d2 1a 3d 76 62 25 be 8e 1b 41 3d
       -0.119927764 0.037798822 -0.16150841 0.04714542
000300 87 88 89 bc 08 d6 66 bd 64 65 bd bc b3 7b b5 3d
       -0.016788734 -0.05635646 -0.023119636 0.088614844
000310 85 1d a4 bd 31 a1 12 be 41 35 c9 3c ef 14 22 be
       -0.08013443 -0.14319302 0.024561526 -0.15828298
000320 9a 39 c3 bc c1 09 df bd 98 74 0c be dc 95 10 bd
       -0.023831178 -0.10890532 -0.13716352 -0.035299167
000330 3a 31 5b bd d3 90 63 3d 59 0e 71 3c 4f 51 bb bb
       -0.053513743 0.055558037 0.014712893 -0.00571648
000340 b4 ee f8 bd 55 5b 1a bc 92 86 be bd 54 45 0c be
       -0.12154904 -0.009421189 -0.09303011 -0.13698322
000350 7d 94 ab bd 40 fe 84 3d c3 29 a5 bd 65 c6 03 3e
       -0.08377931 0.06493807 -0.08064606 0.1286865
000360 5b f7 86 bd a8 b8 15 3d 25 5b b1 3d 20 45 7c bd
       -0.06590148 0.036553055 0.086599626 -0.06158936
000370 6c 93 bc bd 1f 2e 5e bd 8a 3c 3e bc 5c 8d bb bd
       -0.09207806 -0.054243203 -0.011611113 -0.091578215
000380 ef 8f 0e be 47 f3 29 3d c5 8f 95 3d 0f 5b e5 bd
       -0.13922094 0.041491773 0.073028125 -0.11199009
000390 26 f1 d8 3d 01 55 c4 3d 1d b7 bf 3c ec fd 30 bd
       0.105928704 0.09586526 0.023402745 -0.04321091
0003a0 ae 8d be 3d 87 93 fb 3c 0c 39 97 bd 2d a0 91 bc
       0.09304367 0.030709995 -0.07383928 -0.017776573
0003b0 63 17 d3 3b f9 c9 00 be 81 42 39 bd d8 6c 72 3d
       0.006441997 -0.12577046 -0.04522944 0.059185833
0003c0 6b 5c c7 3c 87 00 a6 bd dd 04 45 3d 98 f2 f1 bb
       0.02433606 -0.08105569 0.04810034 -0.0073836558
0003d0 9f 0a 85 3d 85 47 e4 3c d0 20 0a be 16 65 fa bd
       0.064961664 0.027866134 -0.1348908 -0.12226312
0003e0 26 d2 4f be b2 50 fa 3b 62 f4 d8 bc 53 08 5a be
       -0.20295009 0.007639014 -0.026483718 -0.21292238
0003f0 b4 a4 38 bc d5 d9 61 bd fc 1b b5 bc 9f c5 54 bd
       -0.011269737 -0.05513938 -0.02210807 -0.05194628

node_encoder.lins.1.bias f4 [256]
000000 69 9f d8 bc 34 e3 b6 bd cf d8 23 bd 99 69 80 bc
       -0.0264432 -0.08930054 -0.040001687 -0.015675353
000010 fc e4 38 bd 5f bd ac 3c 17 aa 0d bd 57 cc ac bd
       -0.04514025 0.021086393 -0.03458604 -0.08437412
000020 94 f2 07 3c 48 35 1c 3e 33 d4 94 3d 43 d6 00 be
       0.008297581 0.152547 0.07267036 -0.12581734
000030 49 7b 7d 3d b8 ed f6 bb 51 e3 ea bd 04 9d dc 3d
       0.061885152 -0.0075356625 -0.114691384 0.10772136
000040 5a 3e 62 be 75 78 26 3e 67 8f 40 3d 62 d6 c8 bd
       -0.22094098 0.16256888 0.04701176 -0.09806515
000050 1e 4b aa bc f0 4b 97 bd ad 8e e1 bc 37 ec 75 3d
       -0.020787772 -0.07387531 -0.027533853 0.060039725
000060 e0 0f a3 3d 98 ea 54 3d 94 da 47 3d a3 29 78 3d
       0.07962012 0.05198154 0.048792437 0.060586583
000070 09 3e 9b 3d 70 94 cb bc a5 c3 04 be 5e eb 8b 3c
       0.07580192 -0.024851054 -0.12965257 0.017080005
000080 f3 5c 01 bd dd 46 ed 3c 06 bd 99 3b 45 a2 a7 bd
       -0.031582784 0.028964454 0.004691723 -0.08185247
000090 0d 38 84 bd 47 07 c1 bd 05 f5 00 be f1 d6 9c 3d
       -0.06456003 -0.09425216 -0.12593468 0.07658184
0000a0 33 a9 65 bc c3 4c 10 bd 70 15 7b 3d f2 91 4b bc
       -0.014017391 -0.035229456 0.06129974 -0.012424933
0000b0 bf d7 ca 3d 99 7d cd 3c 26 41 9e bd 14 77 09 bd
       0.099044316 0.025084304 -0.0772727 -0.033560827
0000c0 e9 bf 8c bc be 18 e7 3d 9b f2 9e bd f4 1e e2 3d
       -0.017181354 0.11284016 -0.07761117 0.1104106
0000d0 de 73 ac bd 08 a3 3d be 31 da a1 3d ac 8f 20 3e
       -0.084205374 -0.18519223 0.07902945 0.15679806
0000e0 89 c9 4e bd 70 2a e6 bd 6e 20 e2 3d 86 fa d2 bb
       -0.050485168 -0.11238563 0.11041342 -0.006438556
0000f0 a2 2d 16 be b7 e3 96 bb fd 61 93 3c 57 aa 88 3d
       -0.14665845 -0.0046047824 0.01799106 0.06673115
000100 0f f1 b9 bd 35 51 04 bd 5d be 5b bd 38 7b 71 bc
       -0.090791814 -0.032304008 -0.05364834 -0.01473885
000110 8a 5e 3b 3c ac be cb 3d 24 38 bd bd 5a fe af 3d
       0.011436114 0.09948477 -0.092392236 0.085934356
000120 7a 47 61 bc 4f 5b 68 3d 06 99 54 bd e5 63 9c bd
       -0.0137499515 0.056727704 -0.051903747 -0.07636241
000130 28 43 9f bd 18 56 ce bd 70 57 7f bc 69 69 b6 3d
       -0.07776481 -0.10075015 -0.015584812 0.08906824
000140 7f d7 41 bd fb 39 4e bd e4 89 7f 3d c9 12 87 bd
       -0.047324654 -0.050348263 0.062387362 -0.0659538
000150 23 2f 1e 3d f7 c8 08 be 7d 43 2f bd 8d 3b b2 bd
       0.03861917 -0.13357912 -0.04278897 -0.08702765
000160 59 d1 cb 3d 1b 18 65 3d d3 72 b8 bd 8a aa 9a bd
       0.09952039 0.055931192 -0.09006276 -0.07552059
000170 69 38 79 bc c8 dd 86 bd be ab a5 bc f8 a1 99 bc
       -0.015211203 -0.0658527 -0.020223495 -0.01875399
000180 56 7d a2 bd 86 e6 f1 bd 38 27 0b bd 8a 72 3b 3c
       -0.07934062 -0.11811547 -0.03397295 0.011440882
000190 9c 85 c8 bc eb 1c 4b bc 5f 93 59 3c 3f 97 05 3e
       -0.024477772 -0.012397031 0.013279765 0.13045977
0001a0 73 fe 1a bd a7 0f fa 3c d0 8a d7 3d 02 47 81 3c
       -0.037840318 0.030525042 0.10524523 0.01578093
0001b0 bf ce 73 3d d7 eb 9a bd 21 f8 a5 bd 9f 60 0d 3d
       0.05952334 -0.07564514 -0.081039675 0.034515973
0001c0 59 a5 26 bd 69 56 35 bd ea c8 81 3d 2d 6d 0c bd
       -0.04068503 -0.04427186 0.063371494 -0.034283806
0001d0 1a ee 43 bc 26 6a 5c bd 96 fe d1 bb c2 41 56 3c
       -0.011958623 -0.05381217 -0.006408523 0.013077201
0001e0 6b 2a 9c 3a 86 89 6b 3d 24 39 ea bc ae bd 47 bd
       0.0011914497 0.0575042 -0.0285917 -0.048764877
0001f0 c4 47 e9 3d 33 cb 77 bd 7d e1 b7 3c 6e 1a 9e bd
       0.11390641 -0.06049652 0.022446388 -0.07719885
000200 06 75 d2 bd 09 e9 a5 3d 56 94 08 be fb d6 3e bb
       -0.10276227 0.081010886 -0.13337836 -0.0029119838
000210 a5 f1 81 bd 87 fe 1d bd 92 53 85 bd 9c 39 10 3d
       -0.06344918 -0.038572814 -0.065100804 0.03521119
000220 71 55 f8 3d 39 57 6e 3d 21 96 55 bd c1 a3 0b 3e
       0.12125672 0.05818865 -0.052145127 0.13636686
000230 3d b3 45 bd 3a 2d 81 3d 47 73 19 3e 4f 65 71 bc
       -0.048266638 0.063074544 0.14985381 -0.0147336265
000240 6c 7f 83 bd 7a 03 d4 bb 58 87 bc bd c4 a4 00 3c
       -0.06420788 -0.006470141 -0.09205502 0.007851783
000250 7d 0f 0e 3d b8 26 0e 3d ab bf 3c bd 4c 89 79 bd
       0.03468274 0.034704894 -0.046081226 -0.060921952
000260 be 66 a7 bd 4b 3c 5e bd 9f 8c 9d bc 80 90 b0 bb
       -0.081738934 -0.05425672 -0.019232092 -0.0053883195
000270 43 3b da bd d6 16 41 be 4a 85 38 bc 5d 2e 48 bc
       -0.106558345 -0.18856367 -0.011262247 -0.012218085
000280 d0 4e 76 3d 9c b3 d7 3c 10 cc ec bd 2c ad 5b bc
       0.060133755 0.026330762 -0.11562359 -0.013407987
000290 d6 f9 6d bd 36 28 99 bd b1 51 14 3d 7d 2b 23 bc
       -0.05809959 -0.07478373 0.03621072 -0.009959099
0002a0 d5 5f 27 3d b9 c4 f8 3b d1 45 7f 3d 4e 0f 7d bc
       0.040862877 0.0075918105 0.06232244 -0.015445543
0002b0 c2 68 34 3d 10 09 72 3d 8f c5 a3 bd c1 ad 3a bd
       0.044045217 0.059090674 -0.07996666 -0.04557586
0002c0 64 90 b6 3b 4a e6 53 3d 9a 32 f5 bd 40 55 b8 3c
       0.005571412 0.051733293 -0.11972542 0.022501588
0002d0 ba db 46 3b bd 10 bd bd a3 ab 0a be c6 1a 55 3d
       0.003034337 -0.09231708 -0.13542037 0.052027486
0002e0 e5 e0 dd 3d 32 95 cb bc 1d 30 6c bd 70 bf 0a 3b
       0.10833911 -0.024851415 -0.057663072 0.0021171235
0002f0 a3 56 2b be 02 25 0a bd 4e 99 83 bd eb 2c 17 bc
       -0.16732268 -0.0337267 -0.06425725 -0.009227018
000300 51 72 eb bd 90 53 2e 3d e9 0d ae bc 24 80 4e bd
       -0.114964135 0.04256016 -0.021246867 -0.050415173
000310 71 73 63 3d 4b 72 50 3d 43 6b 9b bd 6c 3b 17 bc
       0.055530015 0.05089025 -0.07588818 -0.009230476
000320 b3 85 d0 bd 17 f6 be bd 4f c7 94 3c 69 03 fe bd
       -0.10181751 -0.09324282 0.018161444 -0.12402994
000330 35 46 1e 3d f6 1c 80 bd 4c 9f 91 bd b6 ce 53 bb
       0.038641173 -0.06255524 -0.071104616 -0.0032319254
000340 6a 2e 09 be b9 ef dc 3c 4c 93 89 3d ed 94 2b bc
       -0.13396612 0.026969777 0.06717548 -0.010472518
000350 48 12 62 bd 6f c6 c5 ba 3f 99 a8 3c fb 29 08 3d
       -0.055193216 -0.0015089045 0.020580886 0.03324316
000360 7a 6b ab bd 42 ef 10 bd 87 ee ad 3d 09 4e c5 3d
       -0.08370109 -0.035384424 0.08492761 0.09634025
000370 71 51 87 bd fe 16 bd bc 25 af 51 bd 5a 9d 9e 3c
       -0.066073306 -0.023082253 -0.05119242 0.01936214
000380 68 a5 cf 3d 12 b1 16 be d5 01 c8 bd 29 b9 4b be
       0.101389706 -0.14715984 -0.097659744 -0.19894852
000390 ec d8 9e 3d d8 f0 b3 3d d2 bd d9 3d 38 cd 85 3d
       0.07756218 0.08786172 0.106319085 0.06533283
0003a0 a4 34 ac bd de 77 ba bd 61 85 15 3e 1b a5 d1 bd
       -0.08408478 -0.09104894 0.14601661 -0.102365695
0003b0 4e 96 53 3d 10 0e 1b bd a0 08 d6 bd 15 7e b2 3d
       0.051657014 -0.037855208 -0.10450864 0.087154545
0003c0 60 77 eb bc eb 00 ba bd f6 a2 75 bd d1 e7 dc bd
       -0.028743446 -0.09082206 -0.059969865 -0.10786403
0003d0 91 e2 f1 3c fa 92 00 bd 16 a0 4a 3c 20 94 38 bd
       0.02952698 -0.031390168 0.012367269 -0.045063138
0003e0 47 f9 7b 3d 5e 81 b2 bd 5e 87 06 bd 99 1d 07 bc
       0.061517026 -0.08716081 -0.03284394 -0.008246803
0003f0 fd e0 bb bd 12 a4 9f 3d e7 ab 35 3e 25 19 06 be
       -0.091737725 0.07794966 0.17741357 -0.1309553

node_encoder.lins.2.weight f4 [256, 256]
000000 aa 34 2f 3e 30 ab d0 bd d4 72 0c 3d 14 5c ae bd
       0.17109933 -0.101889014 0.034289196 -0.08513656
000010 76 79 ec bc 27 41 7f bb 2f 6d 8c 3d 8a 4e 59 bd
       -0.02886651 -0.0038948746 0.068567626 -0.053053416
000020 12 dd fa bc 7f 30 8e bd 96 68 34 be b9 4d 09 bd
       -0.030622993 -0.06942844 -0.17618021 -0.033521388
000030 cf 53 1b be 1c 42 34 ba 63 30 a1 3d b1 42 03 3e
       -0.15168689 -0.0006876306 0.07870557 0.1281841
000040 75 18 81 be be 04 aa bd b0 59 8f bb 9d 6a 62 be
       -0.25213972 -0.08301686 -0.0043747053 -0.22110982
000050 b9 53 e2 b9 77 5b 44 be 95 20 1c bd a4 36 82 bd
       -0.00043168457 -0.19175516 -0.03811701 -0.06358078
000060 45 77 f4 bd b3 29 41 bd e6 a4 4a be 50 33 00 be
       -0.11936811 -0.047158908 -0.19789466 -0.12519574
000070 87 f3 0a 3d 26 7d 62 3d af b8 52 bd 37 b5 af bd
       0.033923652 0.055295132 -0.05144566 -0.08579486
000080 21 8d cd bb 88 ab 6f 3b 97 1e b4 bd 2a be 86 bc
       -0.0062729274 0.0036570746 -0.08794897 -0.0164481
000090 2c d4 3d 3d ce 5c 69 3d a1 8f 9c bd 5a 18 bb 3c
       0.04634492 0.05697327 -0.076445825 0.02283876
0000a0 0f b2 4b 3d 25 53 2c 3c dd 04 da bd 42 7b 45 be
       0.049730357 0.01051787 -0.10645459 -0.192853
0000b0 77 1a 0d be 02 b3 16 3d e7 5c 37 be 92 fa 0a be
       -0.13779627 0.03679181 -0.17906533 -0.13572147
0000c0 09 28 55 3d be b2 0b be 93 ef 17 be 1f 75 53 bd
       0.052040134 -0.13642403 -0.14837484 -0.051625367
0000d0 67 24 9a bd 51 cb 08 3e cb 15 96 bd 10 30 8d bd
       -0.075264744 0.13358809 -0.073283754 -0.06893933
0000e0 77 73 a6 bc eb 0d 52 ba ca 5b 22 bc 50 1e ce bd
       -0.02031873 -0.0008012938 -0.0099095795 -0.100643754
0000f0 4f 55 d7 3b 9b 89 07 be 8b d5 a6 bc 2a 4f 75 3d
       0.006571449 -0.13236086 -0.020365497 0.05988995
000100 0b 67 dc bc 28 29 5b bd d2 17 8a bc 27 1f 13 be
       -0.026904603 -0.053506047 -0.016857062 -0.14367352
000110 5d f6 3b bc f7 fd 00 be d0 4f 02 3e 0e b2 75 be
       -0.011472312 -0.1259688 0.12725759 -0.23993704
000120 f1 ad a0 be 9b 88 b1 bd 96 66 45 3d 80 7c 16 be
       -0.31382707 -0.086686336 0.048193537 -0.1469593
000130 29 1a 8c bd bb 62 88 3c e5 b2 82 3d c8 c0 f6 bc
       -0.06840927 0.01664864 0.06381778 -0.030121222
000140 c6 18 25 be 16 93 22 bd 55 19 b3 bd c4 98 38 bd
       -0.16122732 -0.039691053 -0.08745066 -0.045067564
000150 34 d0 38 bd df 3f b0 3d de 5d 86 bd d9 25 5c be
       -0.045120433 0.086059324 -0.065608725 -0.21498813
000160 04 d4 75 bd d6 60 2e be cd de 35 be ee 87 57 be
       -0.060016647 -0.17029127 -0.17760773 -0.21047947
000170 7a f8 26 bd f9 34 a7 3b b2 30 71 3d 8a fa 0b 3e
       -0.04076431 0.0051027504 0.05888433 0.13669792
000180 e5 a2 9f bd ba a0 95 bd fb 65 05 be 2c 79 f8 bd
       -0.077947415 -0.07306047 -0.13027184 -0.12132487
000190 c7 28 89 be 16 28 6c be d9 21 83 bd e4 1f 4c be
       -0.26788923 -0.23062167 -0.0640294 -0.1993404
0001a0 2d 33 21 bd 79 89 44 3d 6d 17 b1 bd 8c 37 47 3b
       -0.039355446 0.047982667 -0.08647046 0.0030398099
0001b0 79 fe 7e bc 69 27 48 3d 62 83 20 3e fa 77 5c 3a
       -0.015563601 0.04886571 0.15675119 0.0008410212
0001c0 c8 33 35 bd 37 db 44 bc 07 d1 e8 3d 9a 11 0f bd
       -0.044238836 -0.0120151555 0.11367994 -0.034928896
0001d0 8e 85 58 bc cd 56 18 bd 53 4c 25 bd 2a 61 2e bd
       -0.013215436 -0.037192155 -0.04035599 -0.04257313
0001e0 67 8a a8 3d f5 a0 77 bd db 96 1a 3c ee 86 f7 3b
       0.08229523 -0.060456235 0.009435381 0.0075539267
0001f0 ff 8d 39 be 3c c6 df bd e1 5e 00 3c 94 cc 8d bd
       -0.18120573 -0.10926482 0.007835121 -0.06923786
000200 e0 e7 aa 3d 39 c6 91 be d7 94 10 be 07 94 90 3c
       0.08345008 -0.28471544 -0.14119278 0.01764871
000210 21 20 fd bc 71 3a 2f be 20 2d 21 bc 43 32 0d 3c
       -0.03089911 -0.17112137 -0.009837419 0.00861794
000220 ab c9 d4 bb 9a b0 ca 3a c4 e8 c2 3d 4a b3 ca bd
       -0.0064937673 0.0015464008 0.09517053 -0.09897478
000230 65 28 1f be 61 a4 11 bd 79 be 56 be 11 fc 56 bd
       -0.15542753 -0.035557155 -0.20971097 -0.052486483
000240 25 e6 de bc e2 9c 69 bd 8d f9 64 3d 44 c0 0b bd
       -0.02720935 -0.05703438 0.055902053 -0.034118906
000250 2f 40 d9 3c b5 64 80 bd 3a fb 11 3d 1f 87 4c 3d
       0.026519863 -0.06269208 0.03563998 0.04993355
000260 3d 4d 03 3e da 5d e3 bd 27 33 2a be fd ad 90 bd
       0.12822433 -0.11101885 -0.16621076 -0.07064436
000270 d1 90 8e 3c 62 15 10 be d1 d6 bd ba 6d 4f b6 bc
       0.017403038 -0.14070657 -0.0014483576 -0.02225467
000280 eb 7f 65 3c 54 b0 1d bd 94 cd 28 3d 8f 4a 64 3d
       0.014007549 -0.038498238 0.04121168 0.055735167
000290 b6 81 5f be b3 9c e3 bc 3b 11 0d be d0 ed ac 3c
       -0.21826825 -0.027784681 -0.13776104 0.021109492
0002a0 ce 06 bd bc e3 a5 7e bd 4e 95 1a be 5c a3 26 3d
       -0.023074534 -0.06216992 -0.15096018 0.040683135
0002b0 aa 54 68 be bf c0 58 3e 57 ae bd 3c f4 f6 e6 bb
       -0.22688547 0.21167277 0.02315442 -0.007048482
0002c0 4d 92 a5 bc a8 41 8a bd d3 c0 3f ba 91 59 0c 3c
       -0.020211363 -0.06750804 -0.0007314805 0.008566276
0002d0 28 98 10 be 73 c8 1b bd 93 1b c0 bd d4 5a 9a b9
       -0.14120543 -0.03803296 -0.09380259 -0.0002944084
0002e0 d5 8e 5a be 70 92 ab bd 00 37 2f be cb 3f f1 3c
       -0.21343549 -0.0837754 -0.17110825 0.029449364
0002f0 18 d1 6c bd fe c0 4e bd e8 99 66 be 4d c3 0f 3e
       -0.057816595 -0.05047702 -0.22519648 0.14039345
000300 15 5a c1 bc 93 05 23 3e 39 0b 19 be 3e 4a 38 3c
       -0.023602525 0.15920095 -0.14945687 0.0112481695
000310 98 68 36 be fe fc 16 be c7 4c d7 bc fb 6c 2b 3d
       -0.17813337 -0.14744946 -0.026281727 0.04185198
000320 14 4d db bd 2c aa ff 3b 80 8d 3a bd b4 f7 ec bc
       -0.10708061 0.0078022685 -0.0455451 -0.028926708
000330 32 8e 63 3d dd 46 a5 bc 4c f4 54 3c 5a 0a 8d 3c
       0.05555553 -0.020175392 0.012997698 0.01721685
000340 dd f0 0d 3e 93 ed 37 3d fa 27 d5 3b 3f 34 16 3d
       0.13861413 0.044904303 0.0065050097 0.03667092
000350 04 cb e5 bc df 0a 9d bd c9 b2 de bc 36 ca 74 be
       -0.028050907 -0.07668089 -0.02718486 -0.23905262
000360 f1 94 02 3d 26 81 81 bd 48 0a 56 bd bf 56 18 bc
       0.031880323 -0.06323461 -0.0522559 -0.009298026
000370 c2 6e 0b 3d a0 66 91 bd a5 44 7e bc 28 00 84 bc
       0.034041174 -0.07099652 -0.015519296 -0.016113356
000380 25 2e 18 bd 3e eb ea bd 8a 86 05 3d 4a aa 4a bd
       -0.03715338 -0.1147065 0.03259901 -0.049478807
000390 a8 4c 92 bd b3 8e 7f be 1a c7 83 bc a3 56 14 be
       -0.07143527 -0.24956779 -0.01608615 -0.14486174
0003a0 2c 69 15 be cb c7 00 3d c6 2c ba bd af 14 fa bc
       -0.14590901 0.031440537 -0.09090571 -0.03052744
0003b0 7e f5 c2 3c 64 d8 9d 3d 14 b7 b5 bc 9f de 10 be
       0.0237987 0.07707289 -0.022182025 -0.14147423
0003c0 b6 1c 0f 3e 07 4a be bc 51 c1 03 be 61 16 8e bc
       0.13975796 -0.023228658 -0.12866713 -0.017344655
0003d0 0d 2f da bd e4 ae c6 bd ab 96 59 3d 3f b4 4f bc
       -0.106535055 -0.097013265 0.053122204 -0.012677251
0003e0 cb 07 f2 3c 44 ce a7 3c ef f8 25 bd 5b 90 fd bb
       0.029544732 0.020484097 -0.040520605 -0.007738156
0003f0 bd 31 1d bd e1 1a ea 3c f3 fc 8b bd b0 be 1c 3e
       -0.038377512 0.02857727 -0.068353556 0.15307117

node_encoder.lins.2.bias f4 [256]
000000 2d f9 87 be 2e f1 21 3d 76 e7 bc bd 98 8d cc bd
       -0.26557294 0.039536647 -0.09223835 -0.09987944
000010 29 05 5a be 91 66 18 be 18 b5 91 3c f8 a9 76 bd
       -0.21291031 -0.14882876 0.017786548 -0.06022069
000020 34 f5 3e 3d 0c c3 14 be 0e 2f c1 bd a8 96 f1 bc
       0.046620563 -0.1452753 -0.09432803 -0.029490784
000030 de b4 9d bd bf c8 cd bc 1c f2 93 bc e6 75 a0 3b
       -0.07700513 -0.025120137 -0.018059783 0.004896867
000040 f6 9d 73 3d ee c1 34 3d f0 93 c6 3c 0f ea b5 bd
       0.059476815 0.04413026 0.024240464 -0.08882534
000050 4f db dd bd dc 9b 1a be eb e4 c3 3d 0e 6e af bd
       -0.108328454 -0.15098518 0.09565147 -0.08565913
000060 12 31 52 3d 5f 6a 9e bd 66 94 30 3c 29 95 b9 bd
       0.05131633 -0.077351324 0.010777568 -0.09061653
000070 fb b9 bd 3b c9 38 f3 bd b0 35 10 bd 02 3a 39 be
       0.005789993 -0.11876065 -0.03520745 -0.18088534
000080 a1 1d b5 bd 51 e4 52 be 3b 2d b6 bd 2c d5 45 bd
       -0.08843542 -0.20594908 -0.08895346 -0.048299
000090 dc f4 01 be 8f 48 a7 3c 35 4e ee 3d 68 2c 97 bd
       -0.12691063 0.02042034 0.116360106 -0.07381517
0000a0 26 0e 1d be 5a 26 db bd c7 c0 d4 bd 55 cd 4c 3d
       -0.15337428 -0.10700674 -0.10388332 0.050000507
0000b0 04 81 81 be 6b 77 b0 bd 7a 4a 5b be 23 70 44 be
       -0.25293744 -0.08616527 -0.2141513 -0.19183402
0000c0 c1 a5 22 3e c9 57 e0 bd 49 df 8c bd 06 29 b7 bd
       0.15883543 -0.10954244 -0.06878526 -0.089433715
0000d0 e1 39 a3 bd 0d 3d 60 be e2 c2 2c be cf 15 fc bd
       -0.07970024 -0.21898289 -0.16871217 -0.12308847
0000e0 45 73 35 be c4 fa dc bc ee 4d 1b be 4d ec 9e 3c
       -0.17719753 -0.026975043 -0.15166447 0.019399786
0000f0 bc 2b b1 be 5a 36 be bc 83 c8 e1 bd 04 f8 3d be
       -0.3460368 -0.023219276 -0.11024573 -0.18551642
000100 5b 11 7b 3d 1c 4e 58 3d 5b 0e 12 be 62 14 aa 3d
       0.06129585 0.052808866 -0.14263289 0.08304669
000110 85 5f 5a bd e0 71 d2 bd 0d 48 87 be 24 68 6f bc
       -0.05331375 -0.10275626 -0.26422158 -0.014612231
000120 d7 64 c9 bc d0 f9 28 be 9b 5a 78 3d f9 46 e5 3a
       -0.024584217 -0.16501546 0.060633283 0.0017492465
000130 0a 09 2b bd b0 af 2c bc 11 04 63 bd 9a 80 ee 3c
       -0.041756667 -0.010539934 -0.0554238 0.029114056
000140 91 b0 6a bc 1f e7 8b bd fa 6c 87 be 8d 78 25 3d
       -0.014324323 -0.06831192 -0.2645033 0.04039817
000150 1a fe 60 3d eb b8 87 bd d5 ac ac 3d 64 54 a9 3d
       0.05492983 -0.06627067 0.084314026 0.08268049
000160 71 22 22 be 43 0c a1 bb 34 0a 22 bd d7 54 b1 3d
       -0.15833451 -0.004914792 -0.03956051 0.0865876
000170 b3 66 fe bd 22 b3 88 be b2 94 08 bd 39 c3 8d bd
       -0.12421932 -0.26699167 -0.033344932 -0.069220014
000180 83 30 95 be e2 40 d4 3d 14 ec 82 be 63 9e 29 be
       -0.29138574 0.10363938 -0.25570738 -0.16564326
000190 b8 21 b2 3c fa b5 56 3d 23 e2 1d bd a2 b9 cc 3c
       0.021744594 0.05241964 -0.03854574 0.02499086
0001a0 6a 46 c5 3b 7b 8a b6 be 1b 86 d0 bd 35 f3 c4 3d
       0.006020357 -0.35652527 -0.101818286 0.096167006
0001b0 6f 05 13 3d ed 95 8c bc 43 3a 28 be 07 5e 9d bd
       0.035893854 -0.017161334 -0.16428475 -0.0768395
0001c0 05 66 91 be 90 a8 45 bd a4 06 73 3c b6 64 7f 3d
       -0.28398147 -0.048256457 0.014833126 0.062351905
0001d0 c5 0c 08 be 1b 47 11 bd 15 25 ec bc b4 b9 70 bd
       -0.13286121 -0.035468202 -0.028826276 -0.05877085
0001e0 8a af f7 3c 24 e4 02 bd a5 ea 81 bd 15 00 d7 be
       0.03023507 -0.031955853 -0.06343583 -0.4199225
0001f0 3e 19 65 be 54 0f 2e be 63 fb 4d 3d 6e 67 66 3d
       -0.2237291 -0.16998035 0.05028857 0.056250982
000200 67 04 19 be e4 17 22 be 02 57 15 be f1 d3 47 3c
       -0.14943086 -0.15829426 -0.14583972 0.012196527
000210 39 21 8d bd 96 a0 94 bc 7e 93 6e 3c 5b 51 e3 bd
       -0.06891102 -0.01814298 0.014561532 -0.11099502
000220 b7 92 a2 bd 35 4d 1a 3c 3d 18 8a bd 9d e0 9f 3d
       -0.0793814 0.009417822 -0.06742904 0.078065135
000230 1d a8 c3 bd 59 32 1e be 6c f7 40 bd 5f e8 5e be
       -0.095535494 -0.15448894 -0.04711096 -0.2176833
000240 1d 18 80 bd 88 a1 4d be a1 8d 3c bc 6c 4a 23 3d
       -0.06254599 -0.2008115 -0.011508376 0.039865896
000250 1f 3a da 3d 66 48 0d 3e 5b cc 04 3d d7 cc a7 3d
       0.10655617 0.13797149 0.03242145 0.08193367
000260 97 b2 e9 bd 77 42 62 be 08 02 b9 3d ce f6 70 3d
       -0.114110164 -0.22095667 0.090335906 0.05882912
000270 db 9f 89 3d 6b d5 84 3c 1a a0 61 bd 82 50 d9 bd
       0.06719943 0.016215047 -0.055084325 -0.10611059
000280 90 96 59 bd b6 1f d4 bc be ed b6 3d c7 83 94 bd
       -0.053122103 -0.025894027 0.089320645 -0.07251697
000290 0f 45 2d 3d 3f 1f 4f 3d b5 2e b3 3b d9 95 e9 3c
       0.042302188 0.050566908 0.0054682144 0.028513836
0002a0 dd 1d 81 bd 99 96 6c 3d 74 d1 23 3c 0a 8e 3e bd
       -0.06304524 0.05776081 0.009998668 -0.046522178
0002b0 14 80 0e bd 22 01 fe 3c c0 6d ba bc 58 79 15 be
       -0.034790114 0.0310064 -0.022757411 -0.1459707
0002c0 6e d5 b1 bb b3 f0 69 bd 2e 81 49 be a3 1e b2 bd
       -0.005427054 -0.057114314 -0.19678184 -0.0869725
0002d0 71 f5 da 3c 9d 17 84 bd e3 4e 46 be 4e a6 3a be
       0.026728364 -0.064498164 -0.1936603 -0.18227503
0002e0 5d b1 82 3a 8e 0f b6 bc ac e0 22 be f8 66 18 be
       0.0009971071 -0.022224214 -0.15906018 -0.1488303
0002f0 c9 fe fd 3d a1 f1 59 ba b8 b0 5e bd e9 78 25 3d
       0.12402112 -0.00083138986 -0.05436775 0.040398512
000300 6c 8b c8 bc 1c 48 30 be 0d 2a ce bd 26 8f 67 3d
       -0.024480544 -0.17215008 -0.10066614 0.056533
000310 84 0a aa bd 6a 38 c4 bc f1 07 cd bd 84 2c 2b bc
       -0.08302787 -0.023952682 -0.1001128 -0.010447625
000320 e4 07 72 bd b0 4e 1c 3e a8 e2 8a be e1 41 ab bd
       -0.059089556 0.15264392 -0.2712605 -0.08362175
000330 80 7d 34 bd 33 4c 0f be b0 ff d4 bd 9d 1c 27 bc
       -0.044065 -0.13993911 -0.10400331 -0.010199693
000340 4a 24 b8 bc 77 85 05 be d3 15 0c be 4e dd d0 bd
       -0.022478241 -0.13039194 -0.136802 -0.101984605
000350 2c 18 c2 bc c0 89 e9 bc 5b aa 9e 3d a5 2e 75 3d
       -0.023693167 -0.028508067 0.077473365 0.059858937
000360 6e 36 34 3a 12 b4 2e be b5 43 59 bd 3a 29 55 be
       0.0006874566 -0.17060879 -0.053043086 -0.20816508
000370 cb c8 38 3d b5 b2 8f bc 6b 67 77 bd 7f 0b 41 3d
       0.045113366 -0.017541269 -0.06040136 0.047130104
000380 e2 e6 20 be f8 70 2b 3e d0 93 2e be f0 89 1a be
       -0.15713075 0.16742313 -0.17048573 -0.15091681
000390 43 da a4 bc d3 c9 c7 3d 43 7f ff 3a 6c b5 5e 3d
       -0.020123607 0.09755292 0.0019492883 0.054372236
0003a0 8f 9f 21 bd e4 3f ad bd 1f a8 0b bd 0f cd 77 bd
       -0.039458808 -0.08459452 -0.03409588 -0.060498293
0003b0 d9 6d 76 3d da c2 8a be 71 a5 9a be ad cd 11 be
       0.060163353 -0.27101785 -0.30204347 -0.14238615
0003c0 74 22 99 3d e6 88 52 be 9b 64 43 3d 16 6b 71 3d
       0.074772745 -0.20560035 0.047703367 0.058940016
0003d0 2b 9c 4c bd 90 95 12 be ab d6 47 bb 02 86 bf ba
       -0.04995362 -0.14314866 -0.0030492942 -0.0014612081
0003e0 5c ca 85 be f1 a2 a5 bc 25 d2 fc bd 4b c6 12 bd
       -0.2613095 -0.020219298 -0.123447694 -0.03583364
0003f0 ef 64 a6 bd 07 06 11 3c b3 fa c8 3d 53 78 3d 3d
       -0.0812472 0.008851535 0.09813442 0.04625733

output.0.weight f4 [128, 256]
000000 74 8b 80 3d 6c 4b 9a bb 6c cf 96 3d 11 e6 29 bd
       0.062765986 -0.004708698 0.07363781 -0.041479174
000010 02 4a 86 3d 16 e2 8b bd db d7 90 3d e0 b7 a3 bc
       0.065570846 -0.06830232 0.07072421 -0.01998514
000020 89 4b 2b 3d 3e 9b b4 3c 60 b4 ba 3d 6c 49 62 3d
       0.041820083 0.022046681 0.09116435 0.0552458
000030 7c 6c ad 3c 29 19 05 3c 8e 33 75 bd ae c4 4b bd
       0.021169893 0.008123674 -0.05986362 -0.049748115
000040 90 da 72 bc 05 58 7a 3d 87 32 08 3d d1 70 33 bd
       -0.014822617 0.0611191 0.03325131 -0.043808762
000050 87 2c 1d 3d 2a fd 5e bd bb 55 e9 3b e4 03 4b 3c
       0.038372543 -0.054440655 0.0071208156 0.012391064
000060 a3 25 1d bd 88 9c 37 3d fc a9 57 3c 98 84 53 bb
       -0.03836597 0.044827014 0.013163086 -0.0032275077
000070 bb 12 23 bd 86 f5 a8 bc bf b3 c4 3c 05 43 8e 3d
       -0.039812785 -0.020624887 0.02401149 0.06946377
000080 1f 2d ca 3d 34 f4 c6 3d 73 d9 fd bc 36 87 15 bd
       0.098718874 0.09714547 -0.030987477 -0.0365059
000090 33 3f bd bc a1 a5 67 3c 0b a2 90 bd 8d 6d 9c 3d
       -0.023101425 0.01413861 -0.07062157 0.07638083
0000a0 96 18 05 3d 35 67 af 3d 57 97 ba bc 42 71 33 bc
       0.03249415 0.08564607 -0.022777243 -0.010952296
0000b0 56 c5 8a bd f8 56 07 3d 59 26 88 3d fd be 06 bc
       -0.0677592 0.033041924 0.06647939 -0.008224246
0000c0 7a c3 3f bc 66 58 0c bc 86 4c 67 bd b9 80 c2 3d
       -0.01170432 -0.008565998 -0.056469463 0.09497208
0000d0 91 76 4d 3d d9 97 e0 bc 6c 8d 3d bc 90 50 5f 3d
       0.0501619 -0.027416157 -0.011569362 0.05452019
0000e0 39 cb 5b bd eb c2 53 3d cc 7d e0 3d 7c d3 ad bd
       -0.053660605 0.05169956 0.10961494 -0.08487603
0000f0 12 25 03 3c c2 51 38 bd 53 4a f1 3b dc 98 4b 3d
       0.008004444 -0.044999845 0.0073635965 0.049706325
000100 8f f4 1a 3d 3a 54 12 3d 85 1d 6a bd ac fc 6b 38
       0.037830885 0.035724856 -0.05715706 5.6263685e-05
000110 65 e5 b9 bd f7 09 43 bd 12 06 8f 3c 16 d9 92 bd
       -0.09076957 -0.047616925 0.01745895 -0.07170312
000120 01 06 d3 3b 79 b2 8a 3d b9 d5 92 3d 61 98 8f bd
       0.0064399247 0.06772322 0.071696706 -0.07011486
000130 34 55 c6 3d b8 40 61 3a 2f 9c 87 3d bf 82 f3 3c
       0.0968422 0.00085927127 0.066215865 0.02972543
000140 a2 3d 67 3b b9 3c 46 3d 31 51 d1 bd 26 39 44 bc
       0.0035284539 0.048397753 -0.10220564 -0.011976516
000150 02 fc a4 bd af db 0e 3e 48 18 ea bb f0 a6 b9 bc
       -0.08055879 0.1395099 -0.007144008 -0.02266261
000160 6a 66 87 3d e3 1a 8f 3c 96 dd 4a bc 80 93 98 3b
       0.06611331 0.017468875 -0.012381932 0.0046562552
000170 45 44 76 3d 93 c4 6a 3d 49 a1 b6 3d 5f 75 c1 3c
       0.0601237 0.057316374 0.089174815 0.023615537
000180 4e 96 5f 3d b4 bd 4a 3d 5d 85 56 bb 60 bb 33 bd
       0.0545867 0.04949732 -0.00327333 -0.043879867
000190 c3 d5 15 bd ad b5 11 bd d1 7c b6 3c ef 89 25 3d
       -0.036580812 -0.03557365 0.022276314 0.040414747
0001a0 52 69 30 3d d7 37 b6 3d 33 11 fd bc 72 ae 1f 3d
       0.04306919 0.08897369 -0.03089199 0.038984723
0001b0 79 ab 35 3d 1f 72 61 3d 44 25 76 bd b5 cb 17 3d
       0.044352982 0.055040475 -0.060094133 0.037059505
0001c0 da 40 97 bd f2 60 5c bd 87 77 07 3b db ae 2c 3d
       -0.07385416 -0.05380339 0.002067061 0.042158943
0001d0 10 b1 b6 3d b6 82 21 3d b0 42 93 3d 7c 9d 9e 3c
       0.08920491 0.039431296 0.07190454 0.019362204
0001e0 17 16 99 3b d8 40 a5 bc a8 43 e2 bc 4e 71 d1 3c
       0.004671823 -0.020172521 -0.027620152 0.025566723
0001f0 fd ba 95 3a 72 09 68 bd b3 58 ba 3c 5c 65 3a bd
       0.0011423525 -0.056649633 0.022747373 -0.04550682
000200 c1 bb 12 bd f0 c8 24 3d bd ea 02 3d 78 c0 2a bd
       -0.035823587 0.04023069 0.031962145 -0.04168746
000210 ad 7a bd 3c 18 22 38 3c 71 77 8f bc 69 a6 af bc
       0.023129785 0.011238597 -0.017513009 -0.021441655
000220 0d a3 59 bb 24 13 ac bc 80 90 d5 bc c3 18 b1 bd
       -0.0033208758 -0.02100522 -0.02606988 -0.08647301
000230 01 03 65 3d 30 b2 e4 bd 49 b8 cb bd af 83 98 3c
       0.055911068 -0.11166799 -0.09947259 0.01861748
000240 c1 52 33 3c 2e a5 79 bc 00 c8 55 3c 1f 9f ef bc
       0.010945023 -0.015237136 0.013048172 -0.02925068
000250 cc 31 83 3d 01 36 84 3b 72 89 a1 bd 84 99 1c bd
       0.064059824 0.004034758 -0.07887544 -0.03823234
000260 25 32 96 3d 12 5f d2 3d 5f 0e 9d bd c3 a0 fe 3c
       0.07333783 0.102720395 -0.07668757 0.031082517
000270 c3 3c e7 3c c2 dd 07 bd b2 e4 d2 bb 0c d9 41 3c
       0.028227216 -0.03317047 -0.006435954 0.011831533
000280 43 ab 16 bc f5 1c b2 bc 9d 46 6a 3c cf ff 4b 3d
       -0.009196105 -0.021742323 0.014299062 0.049804505
000290 8c 0e 87 3d f1 60 46 3d 5f 0e 05 3c 1e 3b 75 bd
       0.065945715 0.048432294 0.008121102 -0.05987083
0002a0 48 31 8d bc 5f e6 00 3b 82 be e4 3d 31 14 63 bd
       -0.017235413 0.0019668562 0.11169149 -0.055439178
0002b0 8a 67 8f bc 86 b6 3b 3c ed 6c 53 3d 03 ed 09 bd
       -0.017505426 0.011457091 0.05161755 -0.033673298
0002c0 2f b8 9d 3c 79 0a d0 3d 55 5b 4d bd 57 68 2b bd
       0.019252865 0.101582475 -0.05013593 -0.041847553
0002d0 27 d6 18 3d b9 97 e1 bc 32 4e e6 3b 48 a7 09 bd
       0.037313607 -0.027538167 0.0070283646 -0.033606797
0002e0 dd ef 43 3c 1e 64 93 3c 2a 86 d0 bb f6 99 24 3d
       0.011959043 0.017992076 -0.00636365 0.04018589
0002f0 22 31 42 bc 8b bb d8 3d 71 6d 94 3d 0a 03 44 bd
       -0.0118525345 0.10582646 0.07247437 -0.04785446
000300 de c9 a1 3c b1 53 f4 bc 15 6c 7b bd 0f ef 5d 3c
       0.019749578 -0.029825063 -0.061382372 0.013545766
000310 8a 1e 47 3d e3 b1 77 3d 4c a3 09 3d f0 8b 30 bd
       0.04861311 0.06047238 0.033602998 -0.043102205
000320 2d ef 58 3d c1 e6 aa 3d 29 c9 8c 3b 57 c3 95 bc
       0.05296247 0.08344794 0.004296441 -0.018281622
000330 4a d3 1a 3c 62 0f dc bc 77 79 98 3d 5f 7a 20 3c
       0.009449789 -0.026862804 0.074450426 0.009794801
000340 04 78 3f ba 2b de b7 3c 73 69 33 3d 24 9f 7a bc
       -0.00073039555 0.022444805 0.043801736 -0.015296731
000350 41 2e 05 bd 57 38 61 3d 12 05 c7 3c c0 18 63 3d
       -0.032514814 0.05498537 0.02429441 0.055443525
000360 b4 b5 80 3d ac 0c 13 3c 83 45 34 bc 39 e4 8d 3b
       0.06284657 0.008975189 -0.011002901 0.004330185
000370 19 72 e9 3c 76 37 b8 3a 10 7a 2e 3d 1d 84 e3 3c
       0.028496789 0.0014054615 0.042596877 0.027772957
000380 ec b4 87 bd 1f 19 39 3d 7c 0f 09 bc 13 ea 20 bc
       -0.06626305 0.045189973 -0.008365508 -0.009821433
000390 82 d1 e1 3c 21 49 bd bc 3f ff 7e bd c9 ed 0e 3d
       0.027565721 -0.02310616 -0.06225514 0.03489474
0003a0 a9 bd f1 bc 2d be 9a bc 58 52 40 bd 74 48 ba bc
       -0.029509382 -0.018889511 -0.04695353 -0.022739626
0003b0 c5 6e 3a bd 30 8e fa bc 31 8f 5b bc 28 4f a1 bb
       -0.045515794 -0.030585378 -0.013400839 -0.0049227662
0003c0 c0 7c b7 3d 59 76 b4 3d 65 e5 62 3b 2a 1c f4 3c
       0.08959341 0.088116355 0.0034621593 0.029798586
0003d0 fb db 4e bd 39 61 80 3c 10 6f 49 bc a5 0c 3f 3d
       -0.05050276 0.01567136 -0.012294546 0.04664292
0003e0 20 13 96 bd 1e 12 22 bd 91 49 eb 3c 4e 71 e3 3c
       -0.073278666 -0.03956806 0.028721603 0.027763989
0003f0 02 77 60 3d 5e a4 97 bd ca e1 9b bc 20 06 25 3d
       0.054800995 -0.074043974 -0.019028563 0.040289044

output.0.bias f4 [128]
000000 ca 51 50 3f 5b 02 0e 3e 30 cd 08 3e 0c fd 1d bd
       0.813748 0.13868086 0.13359523 -0.038571402
000010 cb 79 74 3e 68 eb 6d 3d c3 d0 df 3e 23 b6 44 3e
       0.23874585 0.05808583 0.4371396 0.19210105
000020 fd 86 3d 3e 44 da 41 be f7 d7 f2 3e 49 8f d7 3d
       0.18508525 -0.18930918 0.47430393 0.10525376
000030 a0 1f 95 3e ab aa cb 3d 8b 80 cc 3f 61 4d 40 3d
       0.2912569 0.09944662 1.5976728 0.046948794
000040 de 5b ee 3e fe 6e 87 3c cf da 61 3e 94 46 2e bc
       0.46554464 0.016532417 0.22056125 -0.010636944
000050 00 91 4f 3e 3c df 0f 3e 48 48 53 3d dc f7 cc 3d
       0.20270157 0.14050001 0.051582605 0.10008213
000060 33 ff e9 3d f3 8b 83 3d a9 cd 64 be ec 6d 9e bf
       0.114256285 0.064231776 -0.22344078 -1.2377295
000070 7a d4 51 3e dc 48 81 be 93 71 4b 3f 97 a2 01 3f
       0.2049121 -0.252509 0.79470176 0.5063872
000080 5e 23 b4 3e 40 e9 de 3c 8e 1b a5 bd 4d b6 35 bc
       0.35183233 0.027210832 -0.08061896 -0.011090827
000090 ab 84 a4 bb a1 4d c3 be 2c a4 ab 3e 21 3c 1d bd
       -0.005020698 -0.38145164 0.3352369 -0.03838742
0000a0 89 49 c3 3d 05 67 16 3e be d3 39 3e a9 6a d8 be
       0.0953551 0.14687736 0.1814718 -0.42268875
0000b0 a4 99 68 3e 9f f2 ed 3e e2 69 ef bd 1f 11 e1 3e
       0.22714859 0.46474168 -0.116901174 0.43958375
0000c0 c4 f9 df 3e 1a 27 0f 3d 98 b3 36 3d ed 0d c3 3e
       0.43745244 0.0349494 0.044604868 0.38096562
0000d0 1e e6 39 3f 9e 1e 3d 3d 16 d3 01 3f 45 ab 8f be
       0.72616756 0.046171777 0.50712717 -0.28060356
0000e0 5a 49 7b be 94 30 7f bc 80 a6 cc 3e a4 7f c5 bb
       -0.245397 -0.015575547 0.3997078 -0.006027179
0000f0 bd c4 b2 be 88 0a 53 be fe 85 a2 be 1b 7f aa 3f
       -0.34915724 -0.20609486 -0.31742853 1.332004
000100 76 43 00 40 3d 3c b1 be 64 35 da bb 5b d9 1f 3f
       2.0041175 -0.3461627 -0.0066591967 0.62441033
000110 29 a0 95 3c 71 b0 9d bd dc a9 03 be 84 e0 7b 3d
       0.018264847 -0.07699669 -0.12857765 0.06149341
000120 18 1d f0 bf 96 d6 3b be 93 fc b2 3f 0f 44 ae 3e
       -1.8758879 -0.18343577 1.398333 0.340363
000130 82 6c cb 3d 9d 22 98 bd b8 cf 11 3f 82 60 56 be
       0.099328056 -0.07428477 0.5695758 -0.20935252
000140 4b 02 4c 3e ac 72 98 bc e1 b5 38 bd 3e fe 05 3f
       0.1992275 -0.018609367 -0.04509533 0.5234107
000150 24 53 45 3e 37 ce ff 3d 8a d4 97 3e 11 89 48 be
       0.19269997 0.12490504 0.29654342 -0.19583537
000160 c3 19 66 3d cb 5d 01 3e d3 7e 6b 3f a0 f6 76 bd
       0.056176912 0.12633435 0.91990393 -0.060293794
000170 8d d2 29 c0 48 5d b4 bc 90 e7 df 3d d0 6d 28 bc
       -2.653476 -0.022017136 0.10932839 -0.010280088
000180 84 cc f9 3e 95 80 08 3e 30 c7 4d 3e cf e0 29 3d
       0.48788846 0.133303 0.20095515 0.04147416
000190 03 0a 15 3f 04 ba ce bb 4e 88 b0 3e 37 eb 16 be
       0.582184 -0.006308796 0.34478992 -0.14738165
0001a0 be 9b 8b 3c 48 ce 2d bf 10 17 1e 3c fb 43 02 3c
       0.017042037 -0.67892885 0.009649053 0.007950778
0001b0 3c 14 c5 3f ff e9 6f 3f 86 ff ba 3c a3 82 bb 3d
       1.53968 0.93716425 0.022826921 0.09155776
0001c0 a5 d9 97 3e 32 2f 0a bd d5 a1 bf be 4c f2 27 bf
       0.29658237 -0.033736415 -0.37428156 -0.6560409
0001d0 d1 f8 51 3e 9d 83 d9 3d 1e 68 67 3b 3d 22 01 bf
       0.20505072 0.10620806 0.0035309861 -0.5044287
0001e0 8e 81 b4 3e eb ad 9f 3d 92 a9 ab 3e db ce 38 bf
       0.35255092 0.07796844 0.3352781 -0.72190636
0001f0 73 b3 7a 3e 93 18 cc be f8 2a da 3c 08 e9 03 3d
       0.24482517 -0.398625 0.026631817 0.032204658
