tfg/models20250211112855/model_0.pt (torch, 569010 bytes, 12 tensors)

node_encoder.lins.0.weight f4 [128, 7]
0	0xbe89dfbe	-0.26928514
1	0x3dde8d3e	0.108667836
2	0xbe27dd86	-0.16393098
3	0xc0304554	-2.7542315
4	0xbdcd5f94	-0.10027996
5	0xbd6cb1fa	-0.05778692
6	0x3dd6978e	0.104781255
7	0x3cddc82b	0.027072987
8	0x3d474e81	0.04865885
9	0x3cf4673d	0.029834384
10	0xbfbb2f80	-1.4623871
11	0x3ec262b2	0.37965924
12	0x3f1bccf9	0.6085964
13	0x3db82597	0.08991545
14	0x3eb2cf3f	0.3492374
15	0xbb5c7a4d	-0.0033642233
16	0xbebb7a78	-0.36616874
17	0xc0244586	-2.5667434
18	0x3df6adf5	0.120448984
19	0x3f1ef248	0.6208844
20	0xbe451dd3	-0.19249658
21	0x3ce1ef27	0.027579857
22	0x3e9b4105	0.30323043
23	0xbd466cd4	-0.04844363
24	0xc025a858	-2.5884
25	0x3ee190b4	0.44055712
26	0xbf46a287	-0.7759175
27	0xbe63e086	-0.22253618
28	0x3d7f86e4	0.0623845
29	0xbe37061b	-0.17873423
30	0x3daf8ccb	0.08571776
31	0xc00aecbb	-2.170699
32	0x3e75809a	0.23974839
33	0xbec74f01	-0.38927463
34	0xbe0cada6	-0.13738117
35	0xbd639b26	-0.055567883
36	0x3d491dfa	0.049100854
37	0x3c81ea69	0.015858846
38	0x3f91cf4b	1.1391386
39	0x3d30fe72	0.043211408
40	0x3e929c07	0.28634664
41	0xbe6f55ab	-0.23372523
42	0xbe3c6c66	-0.18400726
43	0x3d35c851	0.04438049
44	0x3e16cdb7	0.14726911
45	0xbfe92e5f	-1.8217276
46	0x3d5a1700	0.05324459
47	0xbec3e73b	-0.38262352
48	0x3e0a0970	0.13480163
49	0x3d08db68	0.033412367
50	0x3c0c4562	0.008561464
51	0xbc537b7e	-0.012907861
52	0x3fad00d8	1.3515882
53	0xbe80b127	-0.25135157
54	0xbee7a5b0	-0.45243597
55	0xbf0946c2	-0.5362359
56	0xbd12810c	-0.0357676
57	0x3c1641bb	0.009170945
58	0xbdb5a8e9	-0.08870108
59	0xc00e4533	-2.2229736
60	0xbe153a4d	-0.14573021
61	0x3ed42194	0.41431868
62	0x3e53ccb6	0.2068356
63	0xbe029e81	-0.12755777
64	0x3e88abe9	0.26693657
65	0x3e4e94a3	0.20173888
66	0xc0345d0d	-2.8181794
67	0xbeeb2adc	-0.45931137
68	0x3ebcfc41	0.36911204
69	0x3f116d5b	0.5680749
70	0xbec26466	-0.37967223
71	0x3c883c38	0.016630277
72	0x3b8b62a9	0.0042537046
73	0x3d58a1c7	0.052888658
74	0xbdbd3e46	-0.09240393
75	0x3eefc6d6	0.46831387
76	0xbe67f568	-0.22652209
77	0x3cf7859c	0.030215077
78	0xbebc4cd0	-0.36777353
79	0x3ee05bcd	0.43820038
80	0x3f1d750d	0.6150673
81	0x3e9c510d	0.30530587
82	0x3e2586b3	0.16164665
83	0x3c9c9e3c	0.01911842
84	0xbe646d13	-0.22307234
85	0xbd31fc3b	-0.043453436
86	0x3e122993	0.14273672
87	0xbfb10896	-1.3830745
88	0x3d561dea	0.052274622
89	0xbe1ae17b	-0.15125076
90	0x3d7ab576	0.06120821
91	0x3e11084e	0.14163324
92	0xbc8e0a74	-0.017338969
93	0x3e32c1e9	0.17456783
94	0xbeda6eb8	-0.42662597
95	0x3e748d84	0.23882109
96	0xbf13c01f	-0.5771503
97	0xbe960326	-0.29299277
98	0x3e0ca815	0.13735993
99	0xbda3b5db	-0.079936706
100	0x3e6c0976	0.23050484
101	0x3eec028f	0.46095702
102	0x3dc522b7	0.09625762
103	0xbeb7b5b1	-0.35880807
104	0x3f228b69	0.63493973
105	0x3e09e450	0.13466
106	0x3c08ece0	0.008357257
107	0xbe9824a2	-0.2971545
108	0xc013eb3b	-2.3112323
109	0x3e8e766c	0.27824724
110	0xbe2ea6d0	-0.17055821
111	0xbd4a001e	-0.049316518
112	0x3d198ed7	0.03748974
113	0xbbbafce1	-0.005706415
114	0x3c474f44	0.0121648945
115	0x402ca217	2.6973932
116	0xbca2c1f6	-0.019867878
117	0xbddbb438	-0.107277334
118	0x3ee52563	0.44755086
119	0xbe0f47c7	-0.13992225
120	0xbd1a93b2	-0.03773851
121	0x3dc72a7f	0.09724902
122	0xbfe6c2e8	-1.8028231
123	0xbda362a5	-0.07977799
124	0xbe84a50e	-0.25907177
125	0x3e2cd340	0.1687746
126	0xbe16b384	-0.14716917
127	0xbd3dcb72	-0.0463366
128	0x3e36ce64	0.1785217
129	0xc02c8fa9	-2.6962683
130	0x3f21b63f	0.6316871
131	0x3f06ffb4	0.5273392
132	0x3f0cd58e	0.5501336
133	0x3e2ac933	0.16678314
134	0x3dcbd4a0	0.099526644
135	0xbd35c9a3	-0.04438175
136	0xc018e6d9	-2.3890898
137	0x3dbe7719	0.0930006
138	0xbc4eb56b	-0.012616496
139	0x3f018075	0.50586635
140	0xbe4f1705	-0.20223625
141	0x3dcb7240	0.09933901
142	0xbe18d78e	-0.14925978
143	0xc02cdeb8	-2.7010937
144	0x3e687ba3	0.22703414
145	0x3d099881	0.033592705
146	0xbcb40fe2	-0.02198023
147	0x3d0e892e	0.034798793
148	0xbd8e8b17	-0.06960123
149	0x3c63028c	0.013855588
150	0xbfdbd32b	-1.7173818
151	0xbe3da417	-0.18519627
152	0x3ee3c059	0.44482687
153	0xbdb6036d	-0.08887372
154	0xbe9d328b	-0.30702624
155	0xbc53e9b4	-0.012934137
156	0xbd0f6748	-0.035010606
157	0xc0135e30	-2.3026237
158	0xbde65051	-0.11245788
159	0xbd5897a3	-0.052878987
160	0xbda82290	-0.08209717
161	0x3d2901bf	0.04126143
162	0xbd950d64	-0.07277945
163	0xbc12bfa4	-0.0089568235
164	0x4040affd	3.0107415
165	0xbcfcc6e0	-0.03085655
166	0xbee19189	-0.44056347
167	0xbe8d9f20	-0.27660465
168	0x3e0eaff2	0.13934305
169	0xbd2523ba	-0.040317275
170	0xbe7caca0	-0.24675226
171	0xbf8539bc	-1.0408244
172	0xbe0d86e2	-0.13820985
173	0xbb3d6329	-0.0028898215
174	0xbd6fd000	-0.058547974
175	0x3e7eb67d	0.24874301
176	0xbd1b87ad	-0.037971187
177	0xbdc6b718	-0.09702891
178	0xbffe52fe	-1.9869077
179	0xbe8a2851	-0.26983884
180	0xbeb59f71	-0.35473207
181	0xbec22c2c	-0.37924325
182	0xbcef50f2	-0.029213402
183	0xbd4762dc	-0.048678264
184	0xbb7facb5	-0.0039012854
185	0x3ff4e7f9	1.9133292
186	0xbe803846	-0.25042933
187	0x3e2e85ae	0.17043182
188	0xbe4fe6cc	-0.20302886
189	0x3e8f4e16	0.27989262
190	0x3bdf0f1f	0.0068072225
191	0x3e983b82	0.297329
192	0xbe675b99	-0.22593535
193	0x3e1bb0b3	0.15204124
194	0xbd936d84	-0.07198623
195	0x3d5b268e	0.053503565
196	0xbd859708	-0.065229475
197	0xbd8878f9	-0.06663699
198	0xbd3ff5a7	-0.04686513
199	0x3f1972e6	0.59940946
200	0x3ebbb19e	0.3665895
201	0xbf1655ad	-0.5872448
202	0xbe9faf09	-0.3118823
203	0xbe2c0c14	-0.16801482
204	0xbdd51aba	-0.10405488
205	0x3e8bb678	0.2728765
206	0xbf380b60	-0.71892357
207	0xbf18cdae	-0.5968884
208	0x3d84be3f	0.06481599
209	0x3e1002b3	0.1406353
210	0xbdfdb1bf	-0.12387418
211	0x3df3817b	0.11889931
212	0x3e79b271	0.24384476
213	0xbe8784c1	-0.2646847
214	0x3daaebd6	0.083457634
215	0x3bf7b75c	0.0075597
216	0xbd5c0e5c	-0.05372463
217	0xbe615c69	-0.22007908
218	0x3de43905	0.11143688
219	0xbd1dd529	-0.038533363
220	0x3f48871a	0.7833115
221	0x3d2355d9	0.039876793
222	0x3d5df7b8	0.05419132
223	0x3e5320d2	0.20617989
224	0xbd0a392d	-0.033745933
225	0xbde62bf3	-0.112388514
226	0xbcef5ce6	-0.029219102
227	0xbfd08b1f	-1.6292456
228	0x3f029aec	0.5101764
229	0xbe31a57a	-0.1734828
230	0xbee720d6	-0.4514224
231	0x3d881baa	0.066459015
232	0x3d8b6232	0.06805839
233	0x3e4ff2b4	0.20307428
234	0x3ff1f709	1.8903514
235	0xbdad02b0	-0.08447778
236	0xbd4ca9b3	-0.049966525
237	0x3ddcf1d1	0.1078831
238	0xbd083be2	-0.033260234
239	0xbd337e5e	-0.043821685
240	0x3bbe6f99	0.0058116433
241	0x3fd1802d	1.6367241
242	0x3f0b5f5b	0.54442376
243	0xbf2da3f9	-0.6782833
244	0x3dba441b	0.09095021
245	0xbea6a999	-0.32551268
246	0x3e75c3d3	0.24000482
247	0x3e80d875	0.25165144
248	0x3f496561	0.78670317
249	0xbedcc419	-0.4311836
250	0x3ec3108c	0.38098562
251	0xbde60e1b	-0.11233159
252	0x3e8f44e9	0.27982262
253	0x3cf3ec85	0.029775867
254	0xbc8b116a	-0.016976077
255	0xc0188ca7	-2.3835847

node_encoder.lins.0.bias f4 [128]
0	0x3bc95c63	0.0061450466
1	0x3e05679e	0.13027808
2	0x3d3b5a3f	0.045740362
3	0xbe1ca582	-0.15297511
4	0x3e8d6551	0.2761636
5	0xbeb85628	-0.36003232
6	0x3db1ab32	0.08675231
7	0x3d72041e	0.059085958
8	0x3e1909ac	0.14945096
9	0x3c233033	0.009960222
10	0xbd655529	-0.05598942
11	0x3d412b7f	0.04716062
12	0x3db92ebb	0.09042116
13	0xbd2a3891	-0.041557852
14	0xbed1ff55	-0.41015115
15	0x3dcd80c6	0.10034327
16	0xbe0a9c20	-0.1353612
17	0xbcd33119	-0.025780248
18	0xbe428a8c	-0.18998164
19	0x3dd4e5a7	0.10395365
20	0x3db269df	0.087115996
21	0xbce6145f	-0.028085886
22	0x3e55b4a9	0.20869698
23	0xbe693b32	-0.22776487
24	0x3df26604	0.11835864
25	0x3d0b2a91	0.03397614
26	0x3d16def2	0.03683371
27	0xbca1a858	-0.019733593
28	0xbe772ae7	-0.2413746
29	0x3d36e2f3	0.04465003
30	0x3e744d10	0.23857522
31	0xbe201f8c	-0.15637034
32	0xbec7a420	-0.38992405
33	0xbc92fe97	-0.017943664
34	0xbce2d376	-0.027688723
35	0xbdb564e2	-0.088571325
36	0x3d7e937b	0.062152367
37	0x3e81bfb0	0.25341558
38	0xbe794005	-0.24340828
39	0x3c8b4f4e	0.017005589
40	0xbe852698	-0.26006007
41	0xbe63d501	-0.22249223
42	0xbd8122ca	-0.063054636
43	0x3c890720	0.01672703
44	0xbe5ba5e1	-0.21449997
45	0xbd633072	-0.055466123
46	0x3e1fa5f2	0.15590647
47	0xbd7b9956	-0.06142553
48	0x3e55469a	0.20827714
49	0x3d200cce	0.03907471
50	0x3e7529cb	0.23941724
51	0xbe0b03ba	-0.1357564
52	0xbed29852	-0.41131836
53	0xbe04f5bf	-0.1298437
54	0xbe412a00	-0.18863678
55	0xbdb0d09b	-0.08633538
56	0x3ea130d3	0.31482562
57	0x3e8b39a4	0.27192414
58	0x3dbccfd5	0.09219328
59	0xbd5f774d	-0.054557133
60	0x3c650409	0.013978013
61	0x3ec0bb60	0.37642956
62	0xbe1e423d	-0.15454955
63	0x3e118a75	0.14212973
64	0x3e811702	0.25212866
65	0xbe41505a	-0.18878308
66	0x3e808731	0.25103143
67	0xbb679cc1	-0.0035341235
68	0x3e14ed86	0.14543733
69	0xbd8d9744	-0.06913617
70	0x3dc841f8	0.097782075
71	0x3db683ad	0.08911834
72	0x3df16a7e	0.1178789
73	0x3dc35c9e	0.0953915
74	0x3cdc8f99	0.026923941
75	0xbe5f9589	-0.21834387
76	0xbdd5445f	-0.104134314
77	0xbc9f7c65	-0.019468496
78	0x3e25337b	0.1613292
79	0x3e597ced	0.21239062
80	0x3df1dd89	0.118098326
81	0x3d7a0c20	0.06104672
82	0xbe660bd7	-0.22465454
83	0x3ecabb5d	0.39596072
84	0xbe396ef8	-0.18108737
85	0xbc0124f2	-0.007882344
86	0x3e8412fd	0.25795737
87	0x3dee282f	0.11628758
88	0xbdf2c2b6	-0.118535444
89	0xbdfa400f	-0.122192495
90	0xbca6316e	-0.020287242
91	0x3d3a304e	0.045456223
92	0xbe2a1703	-0.16610341
93	0x3e2753e8	0.16340601
94	0x3e5505db	0.20803015
95	0xbe07061e	-0.13185927
96	0xbe0efe1d	-0.13964124
97	0x3e125439	0.14289941
98	0x3de4a5fb	0.11164471
99	0x3dbdeaf0	0.092733264
100	0xbe6652eb	-0.22492568
101	0xbe7f97f8	-0.24960315
102	0xbe8f6362	-0.2800551
103	0x3db90a14	0.090351254
104	0xbe3d984c	-0.18515128
105	0x3e18a13a	0.14905253
106	0x3e56304f	0.20916866
107	0xbe312cd3	-0.17302255
108	0xbe5d97c1	-0.21639921
109	0xbea0bb00	-0.3139267
110	0x3d30c151	0.04315311
111	0xbea7a209	-0.3274081
112	0x3c81fd3e	0.015867826
113	0x3db4f9e4	0.08836725
114	0x3c53fc12	0.012938516
115	0xbe90ae0b	-0.28257784
116	0xbd493730	-0.049124897
117	0xbebe4bf0	-0.3716731
118	0x3e887414	0.2665106
119	0x3dfd4f9f	0.12368702
120	0xbd479492	-0.048725672
121	0x3e2e04ff	0.16994093
122	0x3df63ef1	0.12023724
123	0x3d3e855a	0.046513893
124	0x3d95ae1a	0.07308598
125	0xba5f1eeb	-0.0008511382
126	0x3dc2a79d	0.09504626
127	0xbcd31afc	-0.025769703

node_encoder.lins.1.weight f4 [256, 128]
0	0xbe035a8b	-0.12827508
1	0x3dd1e2e3	0.10248353
2	0x3dbe115b	0.09280654
3	0xbe91f6af	-0.28508517
4	0xbe683557	-0.22676598
5	0xbd3aeb47	-0.045634534
6	0xbe4567d6	-0.19277892
7	0xbe8717d7	-0.26385376
8	0x3e034b63	0.12821727
9	0xbd82b492	-0.06382097
10	0x3e1b443e	0.15162751
11	0xbd7b4295	-0.061342794
12	0xbd5d3ca3	-0.054012906
13	0xbdf8de82	-0.12151815
14	0xbe0871ef	-0.13324712
15	0x3d054441	0.032535795
16	0xbe858007	-0.2607424
17	0xbd875648	-0.06608254
18	0xbe85dc73	-0.26144752
19	0xbcf653d1	-0.030069264
20	0xbd3b086b	-0.045662325
21	0x3e648584	0.22316557
22	0xbd647159	-0.05577216
23	0xbeb63b15	-0.3559195
24	0xbd13c459	-0.036075924
25	0xbe0632ef	-0.13105367
26	0x3de4f598	0.11179656
27	0x3d8711c0	0.065951824
28	0xbe227f9e	-0.15868995
29	0x3dd1507a	0.10220428
30	0xbe0a8bf2	-0.13529947
31	0xbe043fc9	-0.12914957
32	0xbebf5f96	-0.37377614
33	0x3d70859d	0.058721174
34	0xbe64bc37	-0.22337423
35	0x3da87faa	0.08227475
36	0xbd02492e	-0.03180807
37	0x3d13bb5b	0.036067348
38	0x3de0f801	0.10984803
39	0xbcb9f08c	-0.02269771
40	0x3d6202e5	0.05517854
41	0x3e2fb24d	0.1715786
42	0xbdc226e2	-0.094800726
43	0xbccd503f	-0.025062678
44	0xbb2d5e70	-0.0026453994
45	0xbaea9cb3	-0.0017899483
46	0x3d88071c	0.06641981
47	0xbd788474	-0.060673192
48	0xbde6a7b2	-0.11262454
49	0x3d405290	0.046953738
50	0xbd2ab601	-0.04167748
51	0x3e8027e9	0.2503045
52	0xbd86d7c2	-0.06584121
53	0x3c35e413	0.01110174
54	0xbe0b092c	-0.13577718
55	0xbe0a6a4a	-0.13517109
56	0xbe26b8e7	-0.16281472
57	0xbe2acf73	-0.16680698
58	0xbdad0a5a	-0.0844924
59	0x3ddd0877	0.1079263
60	0xbde14d5b	-0.110010825
61	0xbe59c168	-0.21265185
62	0x3d4c8689	0.04993299
63	0xbda2db0a	-0.07951935
64	0xbbe8be47	-0.007102761
65	0xbe27794b	-0.16354863
66	0xbe6eb36b	-0.2331063
67	0xbdc45d0a	-0.09588058
68	0xbc173060	-0.009227842
69	0x3d923c64	0.07140425
70	0x3db17b14	0.086660534
71	0x3ce92fa2	0.028465096
72	0xbdbe6c3e	-0.09297989
73	0x3cf124ff	0.029436586
74	0xbe0dd645	-0.13851269
75	0x3e1c9ad1	0.15293433
76	0xbe29ecb1	-0.16594197
77	0xbe44eb81	-0.19230463
78	0xbebd6760	-0.3699293
79	0x3d210ac7	0.03931692
80	0x3d7ceb14	0.061747625
81	0xbe0fc440	-0.14039707
82	0x3e30274c	0.1720249
83	0xbdf4236f	-0.11920821
84	0xbe479634	-0.19490892
85	0xbe188566	-0.14894637
86	0xbd9cea9a	-0.07661934
87	0x3d898b5c	0.06716034
88	0xbc96c88f	-0.01840618
89	0xbd66ea3e	-0.056375735
90	0xbd8813fa	-0.06644435
91	0xbcbe8199	-0.023255156
92	0x3cc08a02	0.023503307
93	0xbe8e4eea	-0.27794582
94	0xbe2bbfd2	-0.16772392
95	0x3d337ef7	0.043822255
96	0x3e020333	0.12696533
97	0xbc6beb01	-0.014399291
98	0x3d0a656b	0.033788126
99	0xbd604955	-0.054757435
100	0xbe904745	-0.28179374
101	0xbd80f4b4	-0.062966734
102	0xbe0f52b5	-0.13996394
103	0xbdbcf5fd	-0.09226606
104	0xbeb63e7c	-0.35594547
105	0x3db32b8c	0.0874854
106	0xbcb4dc9e	-0.022077855
107	0xbd492184	-0.04910423
108	0xbe4bcf0b	-0.199032
109	0xbe36ab52	-0.17838791
110	0x3d3a8e86	0.045546077
111	0xbe317792	-0.17330769
112	0xbd3727df	-0.04471576
113	0xbd618216	-0.0550557
114	0xbe3bb35e	-0.18330142
115	0x3cb83b71	0.022489281
116	0xbd4a3c25	-0.049373765
117	0x3d8f8978	0.07008642
118	0x3dec29c1	0.115314014
119	0xbe42120f	-0.18952201
120	0x3ccf73c5	0.025323758
121	0x3e08016b	0.13281791
122	0xbd5d1b0d	-0.053980876
123	0xbd57a14f	-0.05264407
124	0xbe4217c4	-0.18954378
125	0x3d2feb1b	0.042948823
126	0xbe9509fd	-0.29109183
127	0xbdcde765	-0.10053901
128	0xbc3565dd	-0.011071649
129	0xbd9f8874	-0.07789698
130	0xbe2473cc	-0.16059798
131	0xbe51fe15	-0.20507081
132	0x3d189c3d	0.037258375
133	0xbcce7a88	-0.025204912
134	0x3b93ab4a	0.004506503
135	0xbd2e8d71	-0.042615358
136	0xbe0aac2b	-0.1354224
137	0x3dd16635	0.102245726
138	0xbe3b49f3	-0.18289928
139	0xbe29dbdb	-0.16587774
140	0xbdbb3914	-0.09141746
141	0x3d20bec6	0.039244436
142	0x3d634ce2	0.055493243
143	0xbe0a3768	-0.13497698
144	0x3dab49fd	0.083637215
145	0x3cfaebf1	0.030630084
146	0x3d1b560c	0.037923858
147	0xbdc9c20a	-0.09851463
148	0xbd606aab	-0.054789227
149	0xbc231880	-0.009954572
150	0xbe006987	-0.12540255
151	0xbe181c25	-0.14854486
152	0xbe401438	-0.18757713
153	0xbe76b705	-0.24093254
154	0xbdc68113	-0.09692588
155	0xbc35a7ff	-0.011087417
156	0xbb4a3940	-0.0030856878
157	0xbbfd5b51	-0.007731833
158	0xbd2151a3	-0.039384495
159	0x3d19c7a2	0.0375439
160	0xbe4adbcb	-0.19810407
161	0xbd34d84c	-0.04415159
162	0x3dbdb0e3	0.09262254
163	0xbd9955c7	-0.07487064
164	0xbc837f4c	-0.01605191
165	0xbd43ac9e	-0.047772042
166	0xbe56b5b3	-0.2096775
167	0xbddac421	-0.1068194
168	0xbe30c082	-0.17260936
169	0xbd84490b	-0.06459244
170	0xbde4ab38	-0.1116547
171	0xbbd21512	-0.006411203
172	0xbcbaf50a	-0.022821922
173	0xbcb39e02	-0.02192593
174	0xbd7ae2e1	-0.061251525
175	0xbd508db8	-0.050916404
176	0xbd5c62f0	-0.05380529
177	0xbdf5d952	-0.12004341
178	0xbd1da3ed	-0.03848641
179	0xbe1c6dfd	-0.15276332
180	0x3e239c24	0.15977532
181	0xbdbe73d4	-0.09299436
182	0xbd13b853	-0.036064457
183	0xbe38456f	-0.17995237
184	0x3dc7f32d	0.09763179
185	0xbd93f996	-0.07225339
186	0xbc35e2f9	-0.011101478
187	0x3cfced25	0.030874798
188	0xbdf59cb0	-0.119927764
189	0x3cbb5b1a	0.022870589
190	0xbe21cea5	-0.15801485
191	0x3d10baca	0.035334386
192	0xbcd08f7d	-0.025459046
193	0xbd8285b4	-0.06373158
194	0xbd0cc7f0	-0.034370363
195	0x3d9cbc2f	0.07653081
196	0xbdbfdac4	-0.09367898
197	0xbe24a43e	-0.16078278
198	0x3c94f749	0.018184321
199	0xbe288f7c	-0.16460985
200	0xbd1cd96c	-0.038293287
201	0xbdd7b12c	-0.1053184
202	0xbe0b5f50	-0.13610578
203	0xbd33bf72	-0.04388375
204	0xbd94bbba	-0.072623685
205	0x3d3030fb	0.04301546
206	0x3c2497d9	0.010045969
207	0xbcc9482d	-0.024570549
208	0xbe04e8fb	-0.129795
209	0xbce33592	-0.027735505
210	0xbdbe8692	-0.09303011
211	0xbe0c4554	-0.13698322
212	0xbdab947d	-0.08377931
213	0x3d6d5b47	0.057948377
214	0xbdb4e5a3	-0.08832862
215	0x3e04f009	0.12982191
216	0xbda1d694	-0.07902256
217	0x3cb72aad	0.022359217
218	0x3da5c935	0.08095018
219	0xbda052bc	-0.0782828
220	0xbde8bfdc	-0.11364719
221	0xbd773e3d	-0.06036209
222	0xbcbaa1a0	-0.022782147
223	0xbdbe293b	-0.09285208
224	0xbe165b4b	-0.14683263
225	0x3d2a0631	0.04150981
226	0x3d627382	0.055285938
227	0xbdf0261f	-0.11726021
228	0x3dbfa2a6	0.093571946
229	0x3da85dbf	0.08221006
230	0x3c80e7dd	0.015735561
231	0xbd6a623c	-0.05722259
232	0x3da32c6f	0.079674594
233	0x3cfb9387	0.030709995
234	0xbdac0ba3	-0.08400657
235	0xbd03c394	-0.03216894
236	0xbb74734e	-0.0037300172
237	0xbe0b3827	-0.13595639
238	0xbd7758a1	-0.060387257
239	0x3d599407	0.053119686
240	0x3c191944	0.009344403
241	0xbdb31e73	-0.08746042
242	0x3cdbc0fe	0.026825424
243	0xbbf1f298	-0.0073836558
244	0x3d5ad17c	0.053422436
245	0x3caf025d	0.021363432
246	0xbe0f141c	-0.13972515
247	0xbe044e42	-0.12920478
248	0xbe4c45d3	-0.19948511
249	0xbbee998f	-0.007281489
250	0xbd08573a	-0.03328631
251	0xbe64ebed	-0.22355624
252	0xbcf50b36	-0.029912572
253	0xbd47a27a	-0.048738934
254	0xbd2e130d	-0.042498637
255	0xbd93bab9	-0.07213349

node_encoder.lins.1.bias f4 [256]
0	0xbca44469	-0.020052152
1	0xbdd0c086	-0.10192971
2	0xbccc6988	-0.024952665
3	0xbc806999	-0.015675353
4	0xbd46cc66	-0.048534773
5	0x3cacbd5f	0.021086393
6	0xbd2d1e27	-0.042265084
7	0xbda853f0	-0.08219135
8	0x3c07f294	0.008297581
9	0x3e09f09c	0.13470691
10	0x3d56776c	0.052359983
11	0xbe0722ca	-0.13196865
12	0x3d565012	0.052322455
13	0xbbf6edb8	-0.0075356625
14	0xbdfe5cba	-0.1242003
15	0x3de2ccbd	0.11074207
16	0xbe4b573c	-0.19857496
17	0x3e1f1ce4	0.15538365
18	0x3d99e903	0.075151466
19	0xbdc8d662	-0.09806515
20	0xbbd1a126	-0.006397384
21	0xbd92004e	-0.07128964
22	0x39b0b7ec	0.00033706368
23	0x3d8ae7fb	0.06782528
24	0x3da30fe0	0.07962012
25	0x3d54ea98	0.05198154
26	0x3d390b2f	0.04517668
27	0x3da378ce	0.07982026
28	0x3dac1408	0.08402258
29	0xbcf75498	-0.030191705
30	0xbe04c3a5	-0.12965257
31	0x3d84ded0	0.064878106
32	0xbd081cfa	-0.03323076
33	0x3ca2ff97	0.019897265
34	0x3c5eafee	0.01359175
35	0xbda7a245	-0.08185247
36	0xbd84380d	-0.06456003
37	0xbdd017f0	-0.10160816
38	0xbdd7cc98	-0.1053707
39	0x3d9cd6f1	0.07658184
40	0xbc65a933	-0.014017391
41	0xbd104cc3	-0.035229456
42	0x3da9e9f1	0.08296574
43	0xbcb1885e	-0.02167147
44	0x3dfcd302	0.12344934
45	0xb9c56867	-0.00037652554
46	0xbd7c3e51	-0.061582867
47	0xbd2ccc15	-0.042186815
48	0xbca0329c	-0.019555382
49	0x3de3d6e0	0.111249685
50	0xbd9df06e	-0.07711874
51	0x3de1d1ea	0.11026366
52	0xbdb8bf26	-0.09020834
53	0xbe3535b8	-0.17696273
54	0x3d894ba4	0.067038804
55	0x3e14d255	0.1453336
56	0xbd4ec989	-0.050485168
57	0xbdfac3c1	-0.12244368
58	0x3e26c91a	0.16287652
59	0xbc3d6efd	-0.011562106
60	0xbe162da2	-0.14665845
61	0xbb96e3b7	-0.0046047824
62	0x3c9361fd	0.01799106
63	0x3d897f2b	0.067137085
64	0xbdb9f10f	-0.090791814
65	0xbd045135	-0.032304008
66	0xbd859024	-0.06521633
67	0xbcadd005	-0.021217356
68	0x3c3b5e8a	0.011436114
69	0x3dcd6a1c	0.100300044
70	0xbdbc5690	-0.09196198
71	0x3dd1f61b	0.10252019
72	0x3c882469	0.016618924
73	0x3d54ee7d	0.051985253
74	0xbd549906	-0.051903747
75	0xbd9ee340	-0.07758188
76	0xbd9f4328	-0.07776481
77	0xbdce5618	-0.10075015
78	0xbca51caf	-0.020155279
79	0x3db66969	0.08906824
80	0xbd51363c	-0.051077113
81	0xbd4e39fb	-0.050348263
82	0x3d4ed5ba	0.050496794
83	0xbd8712c9	-0.0659538
84	0x3d1e2f23	0.03861917
85	0xbe144d9f	-0.14482735
86	0xbcc36cfa	-0.023855675
87	0xbcba67c6	-0.022754561
88	0x3db09738	0.08622593
89	0x3d39ffe2	0.045410044
90	0xbd7b7382	-0.061389454
91	0xbd3cbb54	-0.046077088
92	0xbc793869	-0.015211203
93	0xbd86ddc8	-0.0658527
94	0xbcd1febd	-0.025634164
95	0x39c342fb	0.00037243203
96	0xbda4c87e	-0.08046053
97	0xbdf4458b	-0.11927327
98	0x3c126f2e	0.00893764
99	0x3c4b3891	0.012403623
100	0x3b37a846	0.0028023883
101	0xbc1c6f6c	-0.009548049
102	0x3c59935f	0.013279765
103	0x3df9f53e	0.12204979
104	0xbd1afe73	-0.037840318
105	0x3d86dc38	0.06584972
106	0x3dfa16b8	0.122113645
107	0x3d129027	0.035782006
108	0x3d8a6b3e	0.06758736
109	0xbd9aebd7	-0.07564514
110	0xbd859130	-0.06521833
111	0x3d0d609f	0.034515973
112	0xbd61f6d5	-0.055167038
113	0xbd5d3ea4	-0.054014817
114	0x3d54237e	0.05179166
115	0xbd0c6d2d	-0.034283806
116	0xbc43ee1a	-0.011958623
117	0xbd5c6a26	-0.05381217
118	0xbbd1fe96	-0.006408523
119	0x3c5641c2	0.013077201
120	0x3c22a079	0.009925955
121	0x3d6b8986	0.0575042
122	0xbd70372b	-0.058646362
123	0xbd6232a0	-0.05522406
124	0x3df14790	0.117812276
125	0xbd77cb33	-0.06049652
126	0x3cb7e17d	0.022446388
127	0xbda2c5ed	-0.079479076
128	0xbda89783	-0.082320236
129	0x3dd41ba1	0.10356832
130	0xbe089456	-0.13337836
131	0xbb3ed6fb	-0.0029119838
132	0xbd81f1a5	-0.06344918
133	0xbd37d850	-0.044884026
134	0xbd783599	-0.06059799
135	0x3d10399c	0.03521119
136	0x3dee5f81	0.1163931
137	0x3da90c6f	0.08254325
138	0xbd6ea6c8	-0.058264524
139	0x3e18bc3c	0.14915556
140	0xbd2b5b85	-0.041835327
141	0x3d812d3a	0.063074544
142	0x3e026d38	0.12736976
143	0x3c3175ff	0.010831355
144	0xbd931967	-0.071825795
145	0xbbd4037a	-0.006470141
146	0xbdbc8758	-0.09205502
147	0x3c85fbc2	0.016355399
148	0x3d0e0f7d	0.03468274
149	0x3d38ef04	0.045149818
150	0xbd3cbfab	-0.046081226
151	0xbd79894c	-0.060921952
152	0xbda766be	-0.081738934
153	0xbbedfc1a	-0.007262719
154	0x3c601197	0.013676069
155	0xbc4bcfd9	-0.012439691
156	0xbde98493	-0.1140224
157	0xbe2f0560	-0.17091894
158	0xbc38854a	-0.011262247
159	0xbd106a65	-0.035257716
160	0x3d588f01	0.052870754
161	0x3c8abaf5	0.016934851
162	0xbdeccc10	-0.11562359
163	0xbcc14e3a	-0.023596872
164	0xbd0b651b	-0.03403197
165	0xbd992836	-0.07478373
166	0x3d7e655a	0.062108375
167	0x3d0a51d6	0.03376945
168	0x3d275fd5	0.040862877
169	0x3bf8c4b9	0.0075918105
170	0x3d85cc98	0.06533164
171	0xbc7d0f4e	-0.015445543
172	0x3d3468c2	0.044045217
173	0x3d45ccd9	0.04829106
174	0xbda3c58f	-0.07996666
175	0xbcb50755	-0.022098223
176	0x3d24228d	0.040072013
177	0x3d53e64a	0.051733293
178	0xbdfc921b	-0.12332555
179	0x3d1559e9	0.036462698
180	0x3cf9a67d	0.030474896
181	0xbdbd10bd	-0.09231708
182	0xbdbac6e3	-0.09119966
183	0x3d551ac6	0.052027486
184	0x3dc99e2f	0.09844624
185	0xbb9f51e5	-0.0048620575
186	0xbd6c301d	-0.057663072
187	0x3b0abf70	0.0021171235
188	0xbe30309c	-0.17206043
189	0xbd0a2502	-0.0337267
190	0xbda22016	-0.07916276
191	0x3c00dc73	0.007865059
192	0xbdfbdbb2	-0.12297763
193	0x3d98a029	0.07452423
194	0xbcfb2fba	-0.030662406
195	0xbd4e8024	-0.050415173
196	0x3d253f1e	0.040343396
197	0x3d37dccf	0.044888314
198	0xbd9b6b43	-0.07588818
199	0xbc173b6c	-0.009230476
200	0xbde30f96	-0.11086957
201	0xbdd23369	-0.10263712
202	0x3ca3d9fc	0.020001404
203	0xbdb16028	-0.086609185
204	0x3d1e4635	0.038641173
205	0xbd801cf6	-0.06255524
206	0xbdb4d448	-0.08829552
207	0xbbb1d830	-0.005427383
208	0xbe12a1c7	-0.14319526
209	0x3cdcefb9	0.026969777
210	0x3d791321	0.06080926
211	0xbd463fb3	-0.048400592
212	0xbd621248	-0.055193216
213	0x3d87b03a	0.066254094
214	0x3ca8993f	0.020580886
215	0x3d294a95	0.041330893
216	0xbdb74a35	-0.08949701
217	0xbd424e25	-0.047437806
218	0x3de5bf4d	0.11218128
219	0x3db93228	0.0904277
220	0xbd875171	-0.066073306
221	0xbcbd16fe	-0.023082253
222	0xbd51af25	-0.05119242
223	0x3c9e9d5a	0.01936214
224	0x3dee2b41	0.11629344
225	0xbe173fa4	-0.1477037
226	0xbdc801d5	-0.097659744
227	0xbe44e38f	-0.19227432
228	0x3d8c78cf	0.0685898
229	0x3dc2fa65	0.09520415
230	0x3dbe051b	0.092783175
231	0x3d697d54	0.057004288
232	0xbdb26e04	-0.0871239
233	0xbdba77de	-0.09104894
234	0x3e059d01	0.13048173
235	0xbdc606eb	-0.09669288
236	0x3d53964e	0.051657014
237	0xbd1b0e10	-0.037855208
238	0xbdd608a0	-0.10450864
239	0x3d66c7e8	0.05634299
240	0xbd40dc84	-0.0470853
241	0xbd8c2952	-0.06843819
242	0xbd75a2f6	-0.059969865
243	0xbddce7d1	-0.10786403
244	0x3d22c124	0.039734975
245	0xbd086ab8	-0.0333049
246	0x3c4aa016	0.012367269
247	0xbd389420	-0.045063138
248	0x3d7bf947	0.061517026
249	0xbd6e8a44	-0.05823733
250	0x3beeb693	0.007284948
251	0xbc071d99	-0.008246803
252	0xbdbbe0fd	-0.091737725
253	0x3db50694	0.08839145
254	0x3e3b713b	0.18304913
255	0xbe0f1c7f	-0.13975714

node_encoder.lins.2.weight f4 [256, 256]
0	0x3e3136d7	0.17306076
1	0xbdd432b3	-0.103612326
2	0x3cc1914e	0.023628857
3	0xbdae5c14	-0.08513656
4	0xbd31610c	-0.04330544
5	0xbb7f4127	-0.0038948746
6	0x3db3486f	0.0875405
7	0xbe067169	-0.131292
8	0xbcfadd12	-0.030622993
9	0xbd9dc5bf	-0.07703733
10	0xbe3787cd	-0.17922898
11	0xbcf11288	-0.029427782
12	0xbe254be7	-0.16142236
13	0xba34421c	-0.0006876306
14	0x3d90ddfa	0.07073589
15	0x3dec32f4	0.11533156
16	0xbec0d009	-0.37658718
17	0xbdb0807a	-0.08618255
18	0x3b5d675f	0.0033783538
19	0xbe626a9d	-0.22110982
20	0x3c3c460c	0.01149131
21	0xbe9739e3	-0.29536352
22	0xbd5b18ac	-0.053490326
23	0xbdd748ae	-0.105119094
24	0xbdf47745	-0.11936811
25	0xbd4129b3	-0.047158908
26	0xbe54c682	-0.2077885
27	0xbde9dc63	-0.114189886
28	0x3ca178a6	0.01971085
29	0x3d2cb630	0.042165935
30	0xbd52b8af	-0.05144566
31	0xbdacda0c	-0.08440027
32	0xbc90e8ae	-0.017689075
33	0x3abbf9d4	0.0014341422
34	0xbdd0da68	-0.10197908
35	0xbc86be2a	-0.0164481
36	0x3d3dd42c	0.04634492
37	0x3d7df0a6	0.06199708
38	0xbe068b2e	-0.1313903
39	0x3cbb185a	0.02283876
40	0x3d4bb20f	0.049730357
41	0x3c2c5325	0.01051787
42	0xbe558b88	-0.20854008
43	0xbe444a79	-0.19169034
44	0xbe2f8f73	-0.17144565
45	0x3cbc587a	0.022991408
46	0xbe4317c3	-0.19052033
47	0xbe0f548b	-0.13997094
48	0x3c0cb325	0.008587633
49	0xbe18ce7a	-0.14922515
50	0xbe63a3a8	-0.22230399
51	0xbd4103f9	-0.04712293
52	0xbda5b976	-0.080920145
53	0x3d04ee74	0.03245397
54	0xbdce8437	-0.10083812
55	0xbda39e80	-0.07989216
56	0xbca67377	-0.02031873
57	0xbca98d35	-0.020697216
58	0xbddd6c08	-0.10811621
59	0xbdd1de39	-0.10247464
60	0x3bd7554f	0.006571449
61	0xbe07899b	-0.13236086
62	0xbca6d58b	-0.020365497
63	0x3d0e5c7a	0.03475616
64	0xbcdc670b	-0.026904603
65	0xbd5b2928	-0.053506047
66	0xbc971006	-0.018440258
67	0xbe157eef	-0.14599203
68	0xbc3bf65d	-0.011472312
69	0xbe0e140a	-0.13874832
70	0x3e2a5ac5	0.16636188
71	0xbe75df4f	-0.24010967
72	0xbeca86c5	-0.39555946
73	0xbdbee0bb	-0.09320208
74	0x3d456696	0.048193537
75	0xbe1df2ef	-0.15424703
76	0xbd8c1a29	-0.06840927
77	0x3c8862bb	0.01664864
78	0x3d82b2e5	0.06381778
79	0xbcf6c0c8	-0.030121222
80	0xbe2c054a	-0.16798893
81	0xbd229316	-0.039691053
82	0xbdb980a7	-0.090577416
83	0xbd3898c4	-0.045067564
84	0xbd38d034	-0.045120433
85	0x3dc50cd2	0.09621586
86	0xbd54ceaa	-0.051954903
87	0xbea750e3	-0.326789
88	0xbd95d4eb	-0.073160015
89	0xbe45d17c	-0.19318193
90	0xbe482091	-0.19543673
91	0xbe4c323d	-0.1994104
92	0xbd26f87a	-0.04076431
93	0x3ba734f9	0.0051027504
94	0x3d7130b2	0.05888433
95	0x3e309f0b	0.1724817
96	0xbd9f6715	-0.07783333
97	0xbd931cb2	-0.071832076
98	0xbe19f248	-0.15033829
99	0xbde06d3b	-0.10958334
100	0xbe990c79	-0.29892328
101	0xbe7396d1	-0.23788
102	0xbd8321d9	-0.0640294
103	0xbe559880	-0.20858955
104	0xbd21332d	-0.039355446
105	0x3d89a7c6	0.06721453
106	0xbdcd4935	-0.10023729
107	0xbd1f6cf3	-0.03892226
108	0xbdea228a	-0.11432369
109	0x3d482769	0.04886571
110	0x3e39c56c	0.18141717
111	0x3a5c77fa	0.0008410212
112	0xbd347262	-0.044054396
113	0xbd8cfdd6	-0.06884353
114	0x3db13d4c	0.086542696
115	0xbd0f119a	-0.034928896
116	0xbc58858e	-0.013215436
117	0xbd1856cd	-0.037192155
118	0xbd254c53	-0.04035599
119	0xbd2e612a	-0.04257313
120	0x3cfe840b	0.031068822
121	0xbd77a0f5	-0.060456235
122	0x3a276587	0.0006385673
123	0xbc7d4963	-0.015459391
124	0xbe3ee7c8	-0.18643105
125	0xbddfc63c	-0.10926482
126	0x3c005ee1	0.007835121
127	0xbd91784b	-0.07103022
128	0x3e131450	0.14363217
129	0xbe867e4c	-0.26268232
130	0xbe1094d7	-0.14119278
131	0x3c909407	0.01764871
132	0xbcfd2021	-0.03089911
133	0xbe3ef11a	-0.1864666
134	0xbcbe6ca4	-0.023245163
135	0x3c0d3243	0.00861794
136	0xbca2cf99	-0.01987438
137	0xbc5b4f4e	-0.013385607
138	0x3db9ff63	0.09081914
139	0xbddd3a07	-0.108020835
140	0xbe15fbdd	-0.1464686
141	0xbd11a461	-0.035557155
142	0xbe8c9f24	-0.27465165
143	0xbe261012	-0.16217068
144	0xbc97c56f	-0.01852676
145	0xbd699ce2	-0.05703438
146	0x3d64f98d	0.055902053
147	0xbd3c1254	-0.045915917
148	0x3cd9402f	0.026519863
149	0xbd839101	-0.06424142
150	0x3d11fb3a	0.03563998
151	0x3d4c871f	0.04993355
152	0x3e034d3d	0.12822433
153	0xbe0b85b4	-0.13625222
154	0xbdd3b832	-0.10337867
155	0xbdd85c84	-0.10564521
156	0x3bac967f	0.005266964
157	0xbe7ab903	-0.24484639
158	0xbabdd6d1	-0.0014483576
159	0xbcefb232	-0.029259775
160	0xbcbe6032	-0.023239229
161	0xbdc4bb89	-0.09606082
162	0x3d28cd94	0.04121168
163	0x3d5fe2f2	0.05465979
164	0xbea75399	-0.32680967
165	0xbce39cb3	-0.027784681
166	0xbe250b6e	-0.16117641
167	0x3d8d0d53	0.06887307
168	0xbcbd06ce	-0.023074534
169	0xbd7ea5e3	-0.06216992
170	0xbe12abaa	-0.14323297
171	0x3d26a35c	0.040683135
172	0xbe6854aa	-0.22688547
173	0x3e5b0382	0.21388057
174	0x3cbdae57	0.02315442
175	0xbcecb243	-0.028893596
176	0xbd2bf2df	-0.041979667
177	0xbd8a41a8	-0.06750804
178	0x3b88f727	0.0041798535
179	0xbd19ef0f	-0.0375815
180	0xbe0592de	-0.13044307
181	0xbd1bc873	-0.03803296
182	0xbe75c4c0	-0.24000835
183	0xb99a5ad4	-0.0002944084
184	0xbe699a6f	-0.22812818
185	0xbdcfb07a	-0.10141082
186	0xbe2f3700	-0.17110825
187	0x3cf13fcb	0.029449364
188	0xbdaf5a8d	-0.08562193
189	0xbd4ec0fe	-0.05047702
190	0xbe71efc0	-0.23626614
191	0x3e02846e	0.1274583
192	0xbcf8d4c8	-0.0303749
193	0x3e380715	0.17971452
194	0xbe47eae4	-0.19523197
195	0x3c384a3e	0.0112481695
196	0xbe3d30fd	-0.18475719
197	0xbe1b7541	-0.15181448
198	0xbcd74cc7	-0.026281727
199	0x3d2b6cfb	0.04185198
200	0xbddd0f4f	-0.107939355
201	0x3b8a1475	0.0042138644
202	0xbd8cf5b8	-0.06882805
203	0xbe1f6bb6	-0.15568432
204	0x3d638e32	0.05555553
205	0xbca546dd	-0.020175392
206	0x3bfbb2e2	0.0076812366
207	0x3c8b279e	0.016986664
208	0x3e0ea937	0.13931738
209	0x3d37ed93	0.044904303
210	0xbb6c501c	-0.003605849
211	0x3c8d79a4	0.017269917
212	0xbce5cb04	-0.028050907
213	0xbdd4d0fb	-0.10391422
214	0xbcdeb2c9	-0.02718486
215	0xbe7fa540	-0.24965382
216	0x3d0294f1	0.031880323
217	0xbd598f28	-0.05311504
218	0xbe1acf9c	-0.15118259
219	0xbc8a12ab	-0.016854605
220	0x3d0b6ec2	0.034041174
221	0xbd9166a0	-0.07099652
222	0xbc7e44a5	-0.015519296
223	0xbc840028	-0.016113356
224	0xbd05de07	-0.032682445
225	0xbddbbf93	-0.10729899
226	0x3d05868a	0.03259901
227	0xbe1cceaf	-0.15313219
228	0xbdbaed1c	-0.09127256
229	0xbe683f07	-0.22680293
230	0xbdece4c7	-0.11567073
231	0xbe1a5c41	-0.15074255
232	0xbe2428eb	-0.16031234
233	0x3d00c7cb	0.031440537
234	0xbdccbf21	-0.099973924
235	0xbe05c1c9	-0.13062204
236	0x3cc2f57e	0.0237987
237	0x3d9dd864	0.07707289
238	0xbcb5b714	-0.022182025
239	0xbe27d945	-0.16391475
240	0x3e26eeed	0.1630208
241	0xbced4e05	-0.028967867
242	0xbe03c151	-0.12866713
243	0xbc8e1661	-0.017344655
244	0xbe6c40fa	-0.23071662
245	0xbdcfc266	-0.101445004
246	0x3d5996ab	0.053122204
247	0xbc4fb43f	-0.012677251
248	0x3cf207cb	0.029544732
249	0x3c8c78fe	0.017147537
250	0xbc8e64e3	-0.01738209
251	0xbbfd905b	-0.007738156
252	0xbd1d31bd	-0.038377512
253	0xbbd3f3a6	-0.006468254
254	0xbd9edbb0	-0.07756746
255	0x3d5bb245	0.053636808

node_encoder.lins.2.bias f4 [256]
0	0xbe8cd6c0	-0.2750759
1	0x3d458941	0.0482266
2	0xbdafbe13	-0.08581176
3	0xbdba0a00	-0.090839386
4	0xbe6524fc	-0.2237739
5	0xbe182e2d	-0.14861365
6	0x3a97d64a	0.0011584249
7	0xbcbb1994	-0.022839345
8	0x3d12afc6	0.035812162
9	0xbe109cf7	-0.14122377
10	0xbdc8c145	-0.09802488
11	0xbd22aaa2	-0.03971351
12	0xbdb05577	-0.08610051
13	0xbc0a86c9	-0.008454987
14	0xbc2e5656	-0.010640701
15	0xbb0af690	-0.0021204092
16	0x3d894f7e	0.06704615
17	0x3d2d3999	0.042291258
18	0x3cd12549	0.025530474
19	0xbd9bc54d	-0.076059915
20	0xbdb21102	-0.0869465
21	0xbe12a3e2	-0.14320329
22	0x3dea1fe7	0.11431866
23	0xbdb69326	-0.08914785
24	0x3d41615d	0.047211993
25	0xbda4bf83	-0.080443405
26	0x3c7e0572	0.015504228
27	0xbddf29f2	-0.10896672
28	0x3c7d54c8	0.015462108
29	0xbdf08c48	-0.117455065
30	0xbd1fa93d	-0.038979758
31	0xbe303dc4	-0.17211062
32	0xbd9dd03d	-0.07705734
33	0xbe569825	-0.20956476
34	0xbda90c5b	-0.0825431
35	0xbd239581	-0.0399375
36	0xbe07113b	-0.13190167
37	0x3c07069f	0.008241325
38	0x3de69f2b	0.11260828
39	0xbd91a8c2	-0.07112266
40	0xbe1911fb	-0.14948265
41	0xbdd6f882	-0.10496618
42	0xbdd602cc	-0.10449752
43	0x3ce9bda7	0.028532816
44	0xbe72558b	-0.23665445
45	0xbda36123	-0.07977512
46	0xbe528a92	-0.20560673
47	0xbe41a955	-0.18912251
48	0x3e239327	0.15974103
49	0xbdd78d7e	-0.10525034
50	0xbd6a46ba	-0.057196356
51	0xbdb5fd76	-0.088862345
52	0xbdafedd5	-0.08590285
53	0xbe61a11d	-0.22034116
54	0xbe2eecc7	-0.17082511
55	0xbdf1b670	-0.11802375
56	0xbe351adb	-0.17686026
57	0xbcee2a28	-0.029072836
58	0xbe2109e1	-0.15726425
59	0x3c9ad11a	0.018898536
60	0xbeae77da	-0.34075814
61	0xbd49e2b7	-0.049288478
62	0xbddab979	-0.10679907
63	0xbe3b852b	-0.18312518
64	0x3d6c364b	0.057668965
65	0x3d46c93f	0.048531767
66	0xbdfde409	-0.1239701
67	0x3dad1f05	0.08453182
68	0xbd3f4112	-0.046692915
69	0xbdd43721	-0.103620775
70	0xbe85026b	-0.25978407
71	0xbca89f85	-0.020583877
72	0xbcf912df	-0.030404506
73	0xbe265a17	-0.16245304
74	0x3d6680da	0.056275226
75	0xbbb234a4	-0.005438404
76	0xbcf2462b	-0.029574474
77	0xbc103740	-0.008802235
78	0xbd6082e0	-0.054812312
79	0x3d275c5c	0.040859565
80	0x3b94a844	0.0045366604
81	0xbd5e2b57	-0.05424055
82	0xbe8d6052	-0.2761255
83	0x3d5f8719	0.0545722
84	0x3d681280	0.056658268
85	0xbd91ab55	-0.07112757
86	0x3dc3226a	0.09528048
87	0x3dbb7733	0.09153595
88	0xbe262be3	-0.16227679
89	0xbbdf6456	-0.006817381
90	0xbd15035b	-0.036380153
91	0x3d9ef1fc	0.077609986
92	0xbdf7ddab	-0.12102827
93	0xbe88ecef	-0.26743266
94	0xbce4a866	-0.02791233
95	0xbdac69ba	-0.08418603
96	0xbe9535e8	-0.2914269
97	0x3de625ae	0.112376556
98	0xbe85ec43	-0.26156816
99	0xbe179f23	-0.148068
100	0x3ccc41e1	0.024933757
101	0x3d4d2dda	0.050092556
102	0xbd2c1829	-0.04201523
103	0x3ce82e71	0.028342457
104	0xbbc8b719	-0.0061253426
105	0xbeb35132	-0.35022885
106	0xbdcfdf41	-0.10150004
107	0x3dbb9b95	0.09160534
108	0x3d0c27cb	0.034217637
109	0xbce2373c	-0.027614228
110	0xbe2990a3	-0.16559081
111	0xbd9c04c6	-0.07618098
112	0xbe8ee913	-0.27912197
113	0xbd48ea0c	-0.04905133
114	0x3cbdc8a9	0.023166971
115	0x3d8f9ef8	0.07012743
116	0xbe1046ab	-0.14089458
117	0xbcd0ee8d	-0.025504375
118	0xbd0ff2e2	-0.03514374
119	0xbd8a7440	-0.06760454
120	0x3cc82aaf	0.024434416
121	0xbd19c88f	-0.037544783
122	0xbdae5cc8	-0.0851379
123	0xbed3b20b	-0.41346774
124	0xbe61df9c	-0.22057956
125	0xbe243308	-0.16035092
126	0x3d6d11b5	0.057878215
127	0x3d502b02	0.050822265
128	0xbe1e72f1	-0.15473534
129	0xbe27d379	-0.16389264
130	0xbe118cb1	-0.14213826
131	0x3caaedf7	0.020865424
132	0xbd96c694	-0.073620945
133	0xbc3572df	-0.011074751
134	0x3d01dbfa	0.031703927
135	0xbde1e66f	-0.1103028
136	0xbd9e751a	-0.07737179
137	0xb89c5134	-7.453785e-05
138	0xbd7c6164	-0.061616316
139	0x3d9f946e	0.077919826
140	0xbdd411f8	-0.1035499
141	0xbe1c7046	-0.15277204
142	0xbcfa5568	-0.030558303
143	0xbe57d4a0	-0.21077204
144	0xbd8135df	-0.06309103
145	0xbe5f49c3	-0.21805482
146	0xbc535f6e	-0.01290117
147	0x3959721c	0.00020737242
148	0x3dd8794a	0.10570009
149	0x3e0b3883	0.13595776
150	0x3cd125ba	0.025530685
151	0x3db466a2	0.08808638
152	0xbdf05bea	-0.11736281
153	0xbe685248	-0.22687638
154	0x3dbd561b	0.09244939
155	0x3cdd9533	0.027048683
156	0x3d27087f	0.040779587
157	0x3ca65327	0.020303322
158	0xbd66bed3	-0.056334328
159	0xbdeb715a	-0.114962295
160	0xbd05d925	-0.03267779
161	0xbcee530f	-0.02909234
162	0x3daf5637	0.08561366
163	0xbda742f9	-0.08167071
164	0x3d28df7c	0.041228756
165	0x3d4e7955	0.05040868
166	0xbbcfe935	-0.006344939
167	0x3ca0cfd8	0.019630358
168	0xbd75759e	-0.05992662
169	0x3d73b099	0.05949459
170	0x3c725fea	0.0147933755
171	0xbd266be3	-0.040630233
172	0xbcfa1892	-0.030529294
173	0x3d16ef09	0.036849055
174	0xbb8a499c	-0.0042202007
175	0xbe138ae7	-0.14408456
176	0xbbf8c897	-0.0075922715
177	0xbd8bf411	-0.06833661
178	0xbe536f7f	-0.20648001
179	0xbdb81c38	-0.08989757
180	0x3c8c202f	0.01710519
181	0xbd8ebf72	-0.06970109
182	0xbe4a2c15	-0.19743378
183	0xbe2f1bcd	-0.17100449
184	0x3b90c56c	0.004418066
185	0xbcaa9cdb	-0.020826748
186	0xbe2ad5b1	-0.1668308
187	0xbe109851	-0.14120604
188	0x3e1738da	0.14767781
189	0xbc48a9c1	-0.012247504
190	0xbd1dd9b2	-0.03853769
191	0x3d896cbc	0.067101926
192	0xbc032b8a	-0.008005986
193	0xbe292e1f	-0.165215
194	0xbdb81fc8	-0.08990437
195	0x3d1e57b6	0.038657866
196	0xbdc48810	-0.09596264
197	0xbcb9594a	-0.022625584
198	0xbdd151ab	-0.10220655
199	0xbb5574b5	-0.0032570784
200	0xbd97ca94	-0.074116856
201	0x3e1a2280	0.15052223
202	0xbe8a8063	-0.27051076
203	0xbdac5d53	-0.08416238
204	0xbcd9a7d3	-0.026569283
205	0xbe14c4dc	-0.14528221
206	0xbdd6cbac	-0.10488066
207	0xbc16b3a9	-0.009198108
208	0xbca2b1e0	-0.019860208
209	0xbe04c687	-0.12966357
210	0xbe0ea65a	-0.13930646
211	0xbdd80bc8	-0.10549122
212	0xbc981aa7	-0.018567396
213	0xbcdd55b5	-0.027018407
214	0x3dadee4b	0.084927164
215	0x3d605d18	0.05477628
216	0x3b509210	0.0031825341
217	0xbe399443	-0.18122964
218	0xbd9fdd6f	-0.07805907
219	0xbe4bb326	-0.19892558
220	0x3d15370e	0.036429457
221	0xbca6d264	-0.020363994
222	0xbd86f867	-0.06590348
223	0x3d0c6bf2	0.034282632
224	0xbe2a0b94	-0.16605979
225	0x3e25875c	0.16164917
226	0xbe3ec2cd	-0.18628998
227	0xbe1b3ca0	-0.15159845
228	0xbcad25d7	-0.021136208
229	0x3dc3d37c	0.09561822
230	0x3b8f963d	0.0043819235
231	0x3d358907	0.044320133
232	0xbc90b2aa	-0.017663319
233	0xbdb3d188	-0.08780199
234	0xbc28ad7c	-0.010295268
235	0xbd8c3d12	-0.06847586
236	0x3d6c59e8	0.05770293
237	0xbe8b587a	-0.2721594
238	0xbea3e0c1	-0.3200741
239	0xbdfa0d3e	-0.12209557
240	0x3db9de20	0.0907557
241	0xbe566eec	-0.20940751
242	0x3d4f2131	0.050568763
243	0x3d5c45dc	0.05377756
244	0xbc6357a5	-0.013875877
245	0xbe0eeef0	-0.13958335
246	0xba52fc7a	-0.0008048486
247	0x3cd0c8f2	0.025486443
248	0xbe86f519	-0.2635887
249	0xbcc172e3	-0.023614353
250	0xbde15795	-0.11003033
251	0xbd286a3b	-0.041116934
252	0xbdbb9b36	-0.091604635
253	0x3c9ce4ea	0.019152123
254	0x3dc0fc2c	0.09423098
255	0x3d0c6429	0.034275208

output.0.weight f4 [128, 256]
0	0x3d4250ee	0.04744046
1	0xbc51f579	-0.012814873
2	0x3d9f9eb5	0.07793943
3	0xbcfecbb2	-0.031102989
4	0x3d5eea88	0.054422885
5	0xbd89b407	-0.067237906
6	0x3d9d0271	0.07666481
7	0xbd09640f	-0.03354269
8	0x3d210fd4	0.039321736
9	0xbb52b3e3	-0.0032150678
10	0x3daf1fd3	0.08550992
11	0x3d422d17	0.047406282
12	0x3d43ebee	0.047832422
13	0xb9bc31bb	-0.00035895206
14	0xbd62f493	-0.055409025
15	0xbd12b5ea	-0.035818018
16	0xbcb115d5	-0.021616856
17	0x3d4dbf3b	0.0502312
18	0x3ce199ca	0.027539153
19	0xbd69e173	-0.05709977
20	0x3d0a3e55	0.03375085
21	0xbd47b66e	-0.048757963
22	0x3c0bdecd	0.008537007
23	0x3ca52e8f	0.020163802
24	0xbd7238f8	-0.05913636
25	0x3d09cdc4	0.0336435
26	0x3c01cdaa	0.007922569
27	0x3a6d669e	0.00090561237
28	0xbd4296d6	-0.04750713
29	0xbc605b40	-0.013693631
30	0x3d114de3	0.03547467
31	0x3d924e97	0.07143896
32	0x3dd4cd5a	0.1039073
33	0x3d7a7ccb	0.061154168
34	0xbc8acf4c	-0.01694455
35	0xbd3543e7	-0.04425421
36	0xbc78904e	-0.015171124
37	0x3c53a51b	0.012917782
38	0xbdae9399	-0.08524246
39	0x3dc0e04a	0.0941778
40	0x3d028257	0.031862583
41	0x3da00ca4	0.07814911
42	0xbd06cb7a	-0.032908894
43	0xbc6add99	-0.01433506
44	0xbd964c06	-0.07338719
45	0x3cdf2d62	0.02724332
46	0x3d8723f8	0.06598657
47	0x3b75fd7f	0.0037535129
48	0x3b41ee39	0.0029591455
49	0xbbe0686f	-0.006848387
50	0xbd7c41ad	-0.06158607
51	0x3dc42190	0.09576714
52	0x3cb841ab	0.02249225
53	0xbcec03ea	-0.02881046
54	0xbcb17977	-0.021664364
55	0x3d12d5a2	0.035848267
56	0xbd6647cf	-0.056220826
57	0x3d7990e9	0.060929213
58	0x3de0efe7	0.10983258
59	0xbda4287d	-0.08015535
60	0x3ccbb3a5	0.024865935
61	0xbd5b3c19	-0.05352411
62	0x3c7ae0ef	0.015312417
63	0x3d3a3af3	0.045466375
64	0x3cec7f36	0.028869253
65	0x3d13d31e	0.03609001
66	0xbd7ebf37	-0.062194075
67	0xbc8379fb	-0.016049376
68	0xbdd40a9a	-0.103535846
69	0xbd6b71f5	-0.057481725
70	0x3afdc9ee	0.0019362548
71	0xbd6ba818	-0.057533354
72	0xbb6c6b2c	-0.0036074622
73	0x3d6d2ca6	0.05790391
74	0x3d820243	0.06348088
75	0xbd52c5ca	-0.051458158
76	0x3db6cb3e	0.08925484
77	0xbb355d27	-0.0027673931
78	0x3d6cc119	0.05780134
79	0x3d281165	0.041032214
80	0xbb25a4a2	-0.002527513
81	0x3d85c52f	0.065317504
82	0xbde1a76c	-0.11018261
83	0xbb1f6e91	-0.0024327377
84	0xbdc3e80d	-0.095657445
85	0x3e068ab0	0.13138843
86	0xbba69bd8	-0.005084496
87	0xbcbec563	-0.02328748
88	0x3d992a27	0.07478743
89	0x3ca827be	0.020526763
90	0xbcad48e5	-0.021152923
91	0xbbf2da29	-0.0074112606
92	0x3d876499	0.06610984
93	0x3d9b9b9c	0.075980395
94	0x3d6c316f	0.05766433
95	0x3cea79db	0.028622558
96	0x3d83d694	0.06437412
97	0x3d3e652a	0.046483196
98	0xbc890a2b	-0.016728481
99	0xbceae5c0	-0.028674006
100	0xbcd3987d	-0.025829548
101	0xbd1da65e	-0.03848874
102	0x3bc44787	0.005989972
103	0x3d4d2cee	0.050091676
104	0x3d2fea81	0.04294825
105	0x3db4dc95	0.08831135
106	0xbb8f9da8	-0.0043828078
107	0x3cc699c9	0.024243252
108	0x3d849893	0.06474414
109	0x3d7c3e1e	0.061582677
110	0xbd8c60f8	-0.06854433
111	0x3d27a295	0.040926535
112	0xbd56d044	-0.05244471
113	0xbd455356	-0.04817518
114	0x3b419667	0.002953911
115	0x3d2cf24c	0.04222326
116	0x3da70a0c	0.08156213
117	0x3b9ed032	0.004846596
118	0x3da5ce6a	0.08096011
119	0x3c7b0350	0.015320614
120	0x3c26dbc8	0.010184236
121	0xbca284d5	-0.01983873
122	0xbcf88530	-0.030336946
123	0x3d2947cc	0.041328236
124	0xbc6ecaa5	-0.014574681
125	0xbd287ddd	-0.041135658
126	0x3d0769de	0.033059947
127	0xbcb288e1	-0.021793785
128	0xbd0dceea	-0.034621157
129	0x3d16e88f	0.03684288
130	0x3cec4fb1	0.028846594
131	0xbcfba286	-0.030717146
132	0x3cc32285	0.023820171
133	0xbb77eadc	-0.0037829196
134	0xbcdad849	-0.02671446
135	0xbcffc830	-0.031223387
136	0x3bb6f835	0.005583788
137	0xbceaab1c	-0.028646044
138	0xbcb17816	-0.021663707
139	0xbd9e18c6	-0.07719569
140	0x3d565b00	0.052332878
141	0xbe03c454	-0.12867862
142	0xbdb3779f	-0.0876305
143	0x3c50e057	0.012748799
144	0x3cc04e4b	0.023474833
145	0xb9931870	-0.00028056232
146	0x3b6bc923	0.003597804
147	0xbd166c5c	-0.036724433
148	0x3d943ad6	0.072377846
149	0x3c4365f2	0.011926161
150	0xbdb917a1	-0.0903771
151	0xbcd78786	-0.02630974
152	0x3da11105	0.07864574
153	0x3dd2f6f1	0.103010066
154	0xbdadd401	-0.08487702
155	0x3d19ee8e	0.03758102
156	0x3cace503	0.021105295
157	0xbc488c0c	-0.012240421
158	0xbc8104e7	-0.015749408
159	0x3c44f0c4	0.012020294
160	0xbc9b3fed	-0.01895138
161	0xbc019c8d	-0.00791086
162	0x3d0ac720	0.033881307
163	0x3d423a35	0.04741879
164	0x3d8a76d3	0.06760945
165	0x3d3d1ea5	0.046171803
166	0x3c6a19cc	0.014288377
167	0xbd87a34a	-0.06622942
168	0x3c076fbf	0.008266388
169	0x3c2e20dd	0.010627952
170	0x3dcb7d98	0.099360645
171	0xbd81e5e9	-0.0634268
172	0xbc8c1383	-0.017099148
173	0x3c9be6d1	0.01903096
174	0x3d31e876	0.043434583
175	0xbcfe6050	-0.031051785
176	0x3cce55f8	0.025187477
177	0x3ded8632	0.11597861
178	0xbd6297ca	-0.05532054
179	0xbd0cea74	-0.03440328
180	0x3d0a27b7	0.03372928
181	0xbcca57d3	-0.024700081
182	0xb9c1c2b7	-0.00036956902
183	0xbd373313	-0.044726443
184	0x3b730e7b	0.0037087488
185	0x3d03b4a5	0.032154698
186	0x3bab282b	0.0052232943
187	0x3cfff9c4	0.031247027
188	0xbc94b0d3	-0.018150723
189	0x3df9b0df	0.121919386
190	0x3da4a849	0.0803991
191	0xbd6ac76e	-0.057319097
192	0x3c1c14fe	0.009526489
193	0xbd020b4d	-0.03174906
194	0xbd984a0e	-0.07436
195	0xbc5d3273	-0.013500798
196	0x3d18b9ec	0.037286684
197	0x3d2788df	0.040902015
198	0x3ce1bd8a	0.0275562
199	0xbd1a07f4	-0.03760524
200	0x3d8bd55a	0.06827803
201	0x3db704ef	0.08936488
202	0x3c3f2a61	0.011667819
203	0xbc12b278	-0.008953683
204	0x3d1f6ccc	0.038922116
205	0xbcffb567	-0.031214429
206	0x3da2119b	0.07913514
207	0x3ba1b99a	0.0049354555
208	0x3b6de787	0.003630133
209	0x3c874dc3	0.016516572
210	0x3d0b0551	0.033940617
211	0xbcd8b7b0	-0.026454777
212	0xbcee1bd3	-0.029066002
213	0x3d7cc494	0.06171091
214	0x3cbf2d40	0.023337007
215	0x3d8a9164	0.06766012
216	0x3d8c303d	0.06845138
217	0x3bf68ed0	0.007524349
218	0xbc5e2e3c	-0.013560828
219	0x3c54b982	0.012983682
220	0x3d0cc4b4	0.03436728
221	0x3a5ef2e6	0.00085048226
222	0x3d4517fd	0.04811858
223	0x3d180017	0.03710946
224	0xbd9373f3	-0.0719985
225	0x3d6ae387	0.057345893
226	0x3bd58cb6	0.006517018
227	0xbc5a2094	-0.013313431
228	0x3d02d3d1	0.031940285
229	0xbd235f08	-0.03988555
230	0xbd8f05dc	-0.069835395
231	0x3cd99f3a	0.026565183
232	0xbd13953a	-0.036030985
233	0xbcb4192d	-0.021984661
234	0xbd0d90b3	-0.034561824
235	0xbd00f9f6	-0.03148838
236	0xbcfebc7a	-0.031095732
237	0xbc86ab47	-0.016439093
238	0xbca1a1fc	-0.01973056
239	0x3bba7f1e	0.005691423
240	0x3dba7ec6	0.09106211
241	0x3d8a5431	0.067543395
242	0xbc30e759	-0.010797345
243	0x3d41653e	0.047215693
244	0xbd5a4aad	-0.053293873
245	0x3c1946ac	0.009355228
246	0xbb384cd4	-0.0028121965
247	0x3d4e5ed9	0.050383423
248	0xbd8570ca	-0.065156534
249	0xbd15410c	-0.036438987
250	0x3cf2876f	0.029605595
251	0x3d359635	0.0443327
252	0x3d310706	0.04321959
253	0xbd98f64c	-0.074688524
254	0xbd0fa146	-0.03506591
255	0x3ce2a39a	0.027665902

output.0.bias f4 [128]
0	0x3f535abc	0.82560325
1	0x3e1d339b	0.15351717
2	0x3df65081	0.12027074
3	0xbd3803a3	-0.044925343
4	0x3e8f22df	0.27956292
5	0x3d832673	0.06403818
6	0x3edc1bd8	0.42989993
7	0x3e495678	0.19661891
8	0x3e378445	0.1792155
9	0xbe4f56e3	-0.20247988
10	0x3ef3c1df	0.4760885
11	0x3dbc7dff	0.09203719
12	0x3e92011f	0.2851648
13	0x3e0a8f51	0.13531233
14	0x3fd06003	1.62793
15	0xbc0554ec	-0.008137923
16	0x3eece98e	0.46271938
17	0x3d072f59	0.03300414
18	0x3e564fa3	0.20928816
19	0xbce88a2f	-0.028386204
20	0x3e372a4d	0.1788723
21	0x3de92836	0.11384623
22	0x3cd0fc04	0.025510795
23	0x3dbf802c	0.09350619
24	0x3dde061c	0.10841009
25	0x3d86e3b2	0.06586398
26	0xbe5d28aa	-0.21597543
27	0xbfa0f5a2	-1.2574961
28	0x3e643062	0.22284082
29	0xbe850563	-0.25980672
30	0x3f47c625	0.7803672
31	0x3f00c742	0.50304043
32	0x3eb237f8	0.34808326
33	0x3d377376	0.044787847
34	0xbd827e61	-0.06371761
35	0x3bd6db13	0.0065568774
36	0x3c5c0e8c	0.013431203
37	0xbec80939	-0.39069536
38	0x3eb23ea2	0.3481341
39	0xbd135196	-0.03596648
40	0x3db90346	0.090338275
41	0x3e30a602	0.17250827
42	0x3e24bb4f	0.16087078
43	0xbecce9e5	-0.40022197
44	0x3e76d64a	0.24105182
45	0x3ef9f788	0.48821664
46	0xbe0150c5	-0.12628467
47	0x3edc1455	0.42984262
48	0x3ee184c2	0.440466
49	0x3cf5b8f8	0.029995427
50	0x3c4580ef	0.012054666
51	0x3ebfd47a	0.37466794
52	0x3f39fd3d	0.72652036
53	0x3d1fb19a	0.038987733
54	0x3f035205	0.51297027
55	0xbe9745a2	-0.29545313
56	0xbe8439e0	-0.25825405
57	0xbc7ed23e	-0.015553055
58	0x3ebbf54c	0.36710584
59	0xbc36e3fe	-0.011162756
60	0xbea7519c	-0.3267945
61	0xbe628ca1	-0.22123958
62	0xbea422ef	-0.32057902
63	0x3fab961f	1.3405188
64	0x400099ff	2.0093992
65	0xbeb1d316	-0.34731358
66	0xbc646d4c	-0.013942074
67	0x3f1d8607	0.61532634
68	0x3c49dca0	0.0123206675
69	0xbdaa3a68	-0.08311921
70	0xbdf29407	-0.1184464
71	0x3d694f72	0.05696053
72	0xbff268a9	-1.893819
73	0xbe4c6bfa	-0.19963065
74	0x3fb35b94	1.4012322
75	0x3eb3ee7c	0.35142887
76	0x3dee56de	0.11637662
77	0xbda06cdf	-0.078332655
78	0x3f1096ea	0.56480277
79	0xbe610c15	-0.21977265
80	0x3e435a1a	0.1907734
81	0xbcbc8807	-0.023014082
82	0xbd488769	-0.048957262
83	0x3f0560da	0.5210091
84	0x3e400160	0.18750525
85	0x3ddcdb5f	0.10784029
86	0x3ea28094	0.31738722
87	0xbe44d402	-0.192215
88	0x3d4b7e7e	0.04968118
89	0x3dd688e9	0.10475332
90	0x3f676a84	0.90396905
91	0xbd082bb5	-0.033244807
92	0xc02afdd6	-2.671743
93	0xbcb13ddf	-0.021635948
94	0x3dfe4a83	0.12416556
95	0xbc9a9fae	-0.01887497
96	0x3ef6936f	0.48159358
97	0x3dfe7812	0.12425245
98	0x3e78c39b	0.24293368
99	0x3d013e24	0.031553403
100	0x3f130708	0.57432604
101	0xbbfa4ce0	-0.0076385587
102	0x3ec088b5	0.376043
103	0xbe1c5a48	-0.15268815
104	0x3c30efe5	0.010799383
105	0xbf317632	-0.69320977
106	0x3b991cb9	0.0046726135
107	0x3cb7029c	0.022340111
108	0x3fc42b21	1.5325662
109	0x3f7b8574	0.9825051
110	0x3cd6d08f	0.026222495
111	0x3d92e766	0.07173042
112	0x3e94b268	0.29042363
113	0xbd047088	-0.03233388
114	0xbebebd4b	-0.37253794
115	0xbf25c6e0	-0.64756584
116	0x3e4a9208	0.19782269
117	0x3daff5c0	0.08591795
118	0xbb13f46b	-0.0022576104
119	0xbf069af2	-0.5258018
120	0x3eb4ed42	0.35337263
121	0x3d80102f	0.06253087
122	0x3edb81ab	0.42872366
123	0xbf3abf00	-0.7294769
124	0x3e6e24af	0.23256181
125	0xbed7ec76	-0.42172593
126	0x3cb2bcfd	0.021818632
127	0x3d16b4fd	0.036793698
