tfg/models20250211112855/model_0.pt (torch, 569010 bytes, 12 tensors)

node_encoder.lins.0.weight f4 [128, 7]
0	0xbe41c38d	-0.18922253
1	0x3e87d1b2	0.26527172
2	0xbea23161	-0.31678298
3	0xbe1704a4	-0.14747864
4	0x3d814a1e	0.06312965
5	0xbdbb91cf	-0.0915867
6	0x3e9b445e	0.30325598
7	0xbdc58d53	-0.09646096
8	0x3e04bf7d	0.12963672
9	0xbca8f010	-0.020622283
10	0xbdb9220d	-0.09039698
11	0x3eaeff46	0.34179133
12	0x3eaf5009	0.3424075
13	0xbe8e5332	-0.27797848
14	0x3eb2be5e	0.34910864
15	0x3d5a24ea	0.05325786
16	0xbebfd313	-0.37465724
17	0xbd8933ff	-0.066993706
18	0x3e89bed1	0.26903394
19	0x3e950db4	0.29112017
20	0x3de1a8b7	0.11018508
21	0x3deb6bff	0.11495208
22	0x3ebda719	0.37041548
23	0xbd3c4c89	-0.045971427
24	0xbeb33f24	-0.3500911
25	0x3d3425f8	0.043981522
26	0xbec46cd4	-0.3836428
27	0xbe39c31a	-0.18140832
28	0x3e8872fb	0.26650223
29	0xbe6e31c2	-0.23261169
30	0xbd808a23	-0.062763475
31	0xbe15ac7c	-0.14616579
32	0x3e0cddc2	0.13756469
33	0xbea1132a	-0.31459934
34	0x3d996cfd	0.07491491
35	0x3e06233c	0.13099378
36	0xbd4cb96c	-0.04998152
37	0x3c8f164d	0.017466689
38	0xbeba8580	-0.36429977
39	0xbd5e9548	-0.054341584
40	0x3c4ce505	0.012505774
41	0xbe9f802f	-0.31152484
42	0xbebaa427	-0.36453363
43	0x3bcc2c6c	0.0062308814
44	0x3e9857a4	0.29754364
45	0x3d004b5a	0.03132186
46	0x3df62139	0.120180555
47	0xbde7f626	-0.11326246
48	0x3eaa4f1d	0.33263484
49	0xbe9205dd	-0.28520098
50	0x3cfc10aa	0.030769665
51	0xbd962566	-0.07331352
52	0x3e65fc3e	0.22459504
53	0xbe501b34	-0.20322877
54	0xbeacb91e	-0.33734983
55	0xbe96fe05	-0.29490677
56	0x3e9e80a0	0.30957508
57	0x3e0e1a0b	0.13877122
58	0xbdb01a65	-0.08598784
59	0xbd972177	-0.0737943
60	0x3dd92bb1	0.106040366
61	0x3dce3c0c	0.10070047
62	0x3ce00284	0.02734495
63	0xbdf7b551	-0.1209513
64	0x3ebe7faa	0.37206775
65	0x3e3b5bae	0.18296692
66	0xbe130457	-0.14357124
67	0xbe474d35	-0.19463046
68	0x3eb8bb36	0.3608033
69	0x3ea1fdb6	0.3163888
70	0xbeab19e8	-0.33418202
71	0x3da6738f	0.0812751
72	0xbdad8780	-0.0847311
73	0x3ec3d4ef	0.38248393
74	0xbd88185d	-0.06645272
75	0x3e9ef30e	0.3104481
76	0xbe063dda	-0.13109532
77	0xbe2a8223	-0.16651206
78	0xbec0440e	-0.37551922
79	0x3e88c240	0.267107
80	0x3eb6c972	0.35700566
81	0x3e627e54	0.22118503
82	0x3ddb6a14	0.10713592
83	0xbe490b9d	-0.19633336
84	0xbea6a84d	-0.32550278
85	0xbe646873	-0.22305469
86	0x3e8ae120	0.27124882
87	0xbeb1b052	-0.34704834
88	0xbdb5d8fc	-0.08879277
89	0xbeb0549a	-0.34439546
90	0x3e3a3005	0.1818238
91	0x3e8eace0	0.27866268
92	0x3d2e6f60	0.042586684
93	0x3ead0a36	0.33796853
94	0xbe9dbd36	-0.3080842
95	0x3d81aa0f	0.06331264
96	0xbe2195ed	-0.15779848
97	0xbe148367	-0.14503251
98	0x3d01e2ec	0.03171055
99	0xbd0bb7f2	-0.03411097
100	0x3ebc2b1e	0.36751646
101	0x3e8f3dce	0.2797684
102	0xbe888b11	-0.266686
103	0xbe9cdc54	-0.30636847
104	0x3e8d4e82	0.2759896
105	0x3e6d51cf	0.23175739
106	0x3bdbed4b	0.006711637
107	0xbe9d9882	-0.30780417
108	0x3ddf381d	0.10899375
109	0x3e84123e	0.25795168
110	0xbca313bf	-0.019906877
111	0x3d516ab0	0.051127136
112	0xbce755bc	-0.028239124
113	0x3da89122	0.08230807
114	0xbce50407	-0.027956022
115	0xbddd042b	-0.107918106
116	0xbe59ebd0	-0.21281362
117	0xbdf0e9cd	-0.11763344
118	0x3ea03859	0.3129299
119	0xbe86f049	-0.26355198
120	0xbe34616c	-0.17615288
121	0x3d3935ce	0.045217328
122	0xbe63bea2	-0.2224069
123	0xbe2e1757	-0.17001091
124	0xbe2cd5ee	-0.16878483
125	0x3e94d224	0.29066575
126	0xbe290e31	-0.1650932
127	0xbe16a51f	-0.14711426
128	0x3e73fd6c	0.23827142
129	0xbd308151	-0.043092076
130	0x3e91e7f4	0.2849728
131	0x3e90315b	0.28162655
132	0x3e5d98f6	0.21640381
133	0x3ea63a72	0.32466465
134	0x3e33a728	0.17544234
135	0xbda0a2f9	-0.078435846
136	0xbea0fd0c	-0.3144306
137	0x3e363469	0.1779343
138	0xbd91d71e	-0.071211085
139	0x3ead8f1a	0.3389824
140	0xbeaccde1	-0.33750823
141	0x3d469c1a	0.048488714
142	0xbdddc2c2	-0.10828163
143	0x3df368a7	0.11885195
144	0x3d9a29d8	0.07527512
145	0xbcf51796	-0.029918473
146	0x3d843288	0.064549506
147	0xbd11d1e9	-0.035600577
148	0x3da4f21d	0.08053992
149	0x3d9ca4ef	0.07648646
150	0x3e6cbfb6	0.23120007
151	0xbd801592	-0.06254114
152	0x3e72a758	0.23696649
153	0xbe39c25a	-0.18140545
154	0xbe9d1029	-0.30676392
155	0xbd3d16f9	-0.046164487
156	0xbb493fd9	-0.0030708222
157	0xbe84946f	-0.25894496
158	0xbb7e6f2f	-0.0038823595
159	0xbe652e71	-0.22380997
160	0x3da9342f	0.08261906
161	0xbdc7fd5f	-0.097651236
162	0xbd826d9d	-0.06368563
163	0xbc1fc7c0	-0.009752214
164	0x3e7037e5	0.23458822
165	0xbe885d22	-0.26633555
166	0xbe88b0c4	-0.2669736
167	0xbdf40c20	-0.11916375
168	0x3e94ab67	0.2903702
169	0x3e143fd2	0.1447747
170	0xbd371701	-0.044699673
171	0xbe49cd48	-0.19707215
172	0xbe00be5a	-0.12572613
173	0xbd10ee22	-0.03538335
174	0xbdfc4fe3	-0.12319925
175	0x3e97e048	0.296633
176	0xbd3149d2	-0.04328329
177	0xbe54fbe2	-0.2079921
178	0xbeb61788	-0.35564828
179	0xbd69c3a6	-0.05707135
180	0xbebf21ca	-0.37330467
181	0x3d3481bb	0.044069033
182	0x3da801be	0.08203457
183	0xbde2f13a	-0.110811666
184	0x3d3aae1d	0.045576204
185	0x3e77d0a2	0.24200681
186	0xbe93597d	-0.28779212
187	0xbdf552a7	-0.11978655
188	0xbe204c2e	-0.1565406
189	0x3ebc09c0	0.3672619
190	0xbe0e38f4	-0.13888913
191	0x3eb28af9	0.34871653
192	0x3dfa9ee2	0.12237336
193	0x3dc0a6cb	0.09406813
194	0xbe5683b9	-0.20948686
195	0xbe0fe561	-0.14052345
196	0x3e215242	0.15754035
197	0xbe02b213	-0.12763242
198	0x3cb1a838	0.021686658
199	0x3e731eea	0.23742262
200	0xbd95edaf	-0.07320725
201	0xbe87f8ca	-0.26556998
202	0xbe161df1	-0.14659859
203	0xbeb9c596	-0.3628356
204	0xbdd4b577	-0.10386174
205	0x3e89b87b	0.2689856
206	0xbc1e1f44	-0.009651009
207	0xbe9b8f97	-0.30382988
208	0xbd7ace0b	-0.061231654
209	0x3d5b2707	0.053504016
210	0xbe3f1842	-0.18661597
211	0x3e5d5310	0.21613717
212	0x3eafa015	0.3430182
213	0xbd615300	-0.055010796
214	0x3d285a2b	0.041101616
215	0xbe733e65	-0.2375427
216	0xbbad9a59	-0.0052979407
217	0xbeac72c9	-0.33681324
218	0x3e96dfcc	0.29467618
219	0xbb3c9db1	-0.0028780515
220	0xbc25acb0	-0.010111973
221	0xbe7d298e	-0.24722883
222	0x3e944884	0.28961575
223	0x3e4ae59f	0.19814156
224	0xbe4640e9	-0.19360699
225	0xbd26c67d	-0.040716637
226	0x3be0ed75	0.0068642446
227	0xbe7a7885	-0.24460037
228	0x3eb81d6f	0.35959956
229	0xbdcb3313	-0.09921851
230	0xbeb04276	-0.34425706
231	0x3e2c267b	0.16811554
232	0x3ce0cb21	0.02744061
233	0x3e98a736	0.29815072
234	0x3dc142a9	0.094365425
235	0xbea9c300	-0.33156586
236	0xbe8d0b8a	-0.27547866
237	0xbdced750	-0.10099661
238	0x3d5ac756	0.053412758
239	0xbd81c22c	-0.063358635
240	0xbe81fe24	-0.25389206
241	0x3ea119d2	0.31465012
242	0x3e887e31	0.26658776
243	0xbe89eac3	-0.2693692
244	0xbc85875b	-0.016299894
245	0xbebed9d6	-0.3727557
246	0x3e9b0d12	0.3028341
247	0x3e64bfb7	0.22338758
248	0xbd7e7d04	-0.062130943
249	0xbe7191fc	-0.23590845
250	0x3e46c9ec	0.19412965
251	0x3e442f5e	0.19158694
252	0x3e8b77be	0.27239794
253	0x3dc15524	0.094400674
254	0x3e3ee04b	0.18640248
255	0xbea0e2ed	-0.3142313

node_encoder.lins.0.bias f4 [128]
0	0xbe793356	-0.2433599
1	0x3eb2f40e	0.34951824
2	0xbe131815	-0.14364655
3	0xbe703e34	-0.23461229
4	0x3e724e79	0.23662747
5	0xbe733efd	-0.23754497
6	0x3e6142ac	0.2199809
7	0x3e8b73be	0.27236742
8	0x3e8982d8	0.26857638
9	0xbe934b22	-0.2876826
10	0xbe6e95ed	-0.2329938
11	0xbe7892a2	-0.24274686
12	0xbe110721	-0.14162876
13	0x3ced9d25	0.029005596
14	0xbe9a65dc	-0.30155838
15	0x3ea5e237	0.3239915
16	0xbcfedc42	-0.031110886
17	0x3e193186	0.14960298
18	0xbe882651	-0.26591733
19	0x3eaf8ca2	0.34286982
20	0x3cbfd1db	0.023415497
21	0x3d96d991	0.07365716
22	0xbdbaa182	-0.091128364
23	0xbdeb7d36	-0.114984915
24	0x3dda73c0	0.10666609
25	0xbbb00fff	-0.0053730006
26	0x3e77725c	0.24164718
27	0xbe14e472	-0.1454027
28	0xbe026005	-0.12731941
29	0x3ddc972f	0.107710235
30	0x3eb64343	0.35598192
31	0x3d828498	0.063729465
32	0xbe6852a0	-0.22687769
33	0x3dab175c	0.08354065
34	0x3d82c232	0.06384696
35	0xbea4ec94	-0.32211745
36	0x3e3258d1	0.17416693
37	0x3e1addae	0.15123627
38	0xbe57bcf8	-0.2106818
39	0x3db61f27	0.088926606
40	0xbe04c3cc	-0.12965316
41	0xbd8d723b	-0.06906553
42	0x3e11f2b7	0.14252745
43	0xbe7c00d0	-0.24609685
44	0xbe8211a6	-0.2540409
45	0x3d7f816a	0.06237928
46	0x3e4edf3a	0.20202342
47	0xbc9629ba	-0.018330444
48	0x3e7f1aa3	0.24912505
49	0xbd159315	-0.03651722
50	0x3ebfcc0c	0.37460363
51	0x3da0b9bb	0.07847925
52	0xbeabf00d	-0.33581582
53	0xbea9dceb	-0.3317636
54	0x3cc1c238	0.023652181
55	0xbe1fcd82	-0.15605739
56	0x3ebcd3b7	0.36880276
57	0xbddfe886	-0.10933022
58	0xbcacee36	-0.021109682
59	0x3e160b06	0.14652643
60	0x3e2d1a18	0.16904485
61	0x3ea62dd1	0.3245683
62	0xbe0c156b	-0.13680045
63	0x3ea747ff	0.32672116
64	0x3e746a70	0.23868728
65	0xbe70f743	-0.23531823
66	0x3e5bb225	0.21454675
67	0x3e7cc5dd	0.24684854
68	0x3e4ef73c	0.202115
69	0xbe351bfc	-0.17686456
70	0x3e332859	0.1749586
71	0x3df1a81a	0.11799641
72	0xbe479175	-0.19489081
73	0x3e63ddf0	0.22252631
74	0xbe5da8ae	-0.21646377
75	0xbe16a52a	-0.14711443
76	0xbe2b3a10	-0.16721368
77	0x3eadab30	0.33919668
78	0x3e4ece0b	0.20195787
79	0x3ebd9e5f	0.3703489
80	0x3ae770ff	0.0017657577
81	0x3e9339d1	0.28755048
82	0xbd9f9dbb	-0.077937566
83	0x3e7c2bfc	0.24626154
84	0xbe00ed6c	-0.1259057
85	0xbe39a417	-0.18129002
86	0x3e9cf628	0.30656552
87	0xbdf8383e	-0.12120102
88	0x3dfc2ca9	0.12313206
89	0x3d9d7110	0.076875806
90	0xbdbef176	-0.09323399
91	0xbe8b5bac	-0.27218378
92	0xbeade830	-0.33966208
93	0xbdfcaf84	-0.123381644
94	0x3e10afb5	0.14129527
95	0xbe36a6d6	-0.1783708
96	0xbe9c8788	-0.30572152
97	0x3e5af0bf	0.213809
98	0x3e43f7e9	0.19137539
99	0x3e4940fa	0.19653693
100	0x3e1b26bc	0.15151495
101	0xbe90a5da	-0.28251535
102	0x3c516d99	0.012782478
103	0x3e247392	0.16059712
104	0xbe96a416	-0.29422063
105	0x3e85ed90	0.26157808
106	0xbc86612b	-0.016403755
107	0xbeb2e6f5	-0.3494183
108	0x3d45a300	0.048251152
109	0xbe8009f9	-0.2500761
110	0xbe961450	-0.29312372
111	0xbeb85a52	-0.3600641
112	0xbe2c441a	-0.16822854
113	0x3d3d6bfc	0.04624556
114	0x3e440e4a	0.19146076
115	0xbe9a3f4b	-0.30126414
116	0xbe1ff103	-0.15619282
117	0xbe4eea22	-0.20206502
118	0x3e412781	0.18862726
119	0x3e2bdb1e	0.16782805
120	0x3d8731fc	0.06601331
121	0x3ea2660b	0.31718478
122	0x3e8e49ae	0.27790588
123	0xbd9c9328	-0.07645255
124	0xbd9ae864	-0.07563856
125	0xbe1ba245	-0.1519862
126	0x3e685d79	0.22691907
127	0x3e80d702	0.25164038

node_encoder.lins.1.weight f4 [256, 128]
0	0x3c49cb24	0.012316499
1	0x3d4104b7	0.047123637
2	0x3d0aa8fd	0.033852566
3	0xbd1f6b4c	-0.038920686
4	0xbd54c349	-0.05194405
5	0xbb59ae1d	-0.0033215352
6	0x3d25d82d	0.040489364
7	0x3bc87870	0.006117873
8	0x3d47b70b	0.048758548
9	0x3d9bdde9	0.076106854
10	0xbca0ed06	-0.019644272
11	0xbc08cb06	-0.008349186
12	0x3d83890e	0.064226255
13	0xbd9aedb7	-0.07564872
14	0xbc9dbc38	-0.019254789
15	0x3c0a9ea2	0.008460673
16	0xbc075072	-0.008258926
17	0x3d97f42d	0.0741962
18	0xbdb072f8	-0.086156785
19	0x3c501f8e	0.012702836
20	0x3d182198	0.037141412
21	0x3d152bc3	0.036418688
22	0x3d4bc456	0.049747787
23	0xbd2cc2a4	-0.04217781
24	0x3bbbab15	0.0057271817
25	0xbd4e8394	-0.05041845
26	0xbc42725e	-0.011868088
27	0x3d3f2a84	0.046671405
28	0x3d82b0c0	0.06381369
29	0x3d8e8f0a	0.06960876
30	0x3b865c78	0.0041003786
31	0xbd2b722d	-0.041856933
32	0xbd957a6b	-0.0729874
33	0x3da907af	0.08253419
34	0xbcdcbd2d	-0.026945675
35	0x3c6a11eb	0.014286499
36	0xbd2148f4	-0.039376214
37	0x3c99f89d	0.018795306
38	0xbdb7da5a	-0.08977194
39	0x3d925621	0.07145334
40	0x3cde1170	0.027107924
41	0x3d71f940	0.059075594
42	0x3d23b44a	0.03996686
43	0x3d02aea7	0.031904843
44	0xbd9c1e52	-0.07622971
45	0x3be22f83	0.0069026365
46	0x3d871d05	0.06597332
47	0x3d983e40	0.07433748
48	0xbd093ccd	-0.03350525
49	0xbbe86a1f	-0.0070927287
50	0x3c005d93	0.00783481
51	0x3a87898e	0.0010340677
52	0x3d82ef47	0.06393295
53	0x3d9c6f2d	0.076383926
54	0x3d41aff5	0.047286946
55	0x3c367baf	0.011137887
56	0xbda92ebb	-0.08260866
57	0xbdb09033	-0.08621254
58	0xbd0c99d5	-0.034326393
59	0x3d95579e	0.07292102
60	0x3d61a616	0.055090033
61	0xbcd3457a	-0.025789965
62	0x3b2f9cb2	0.0026796279
63	0xbbc5683b	-0.006024388
64	0x3c98a3c8	0.018632784
65	0xbd83dea5	-0.064389504
66	0xbd720896	-0.05909022
67	0x3cca99ab	0.024731478
68	0xbdab024f	-0.0835005
69	0xbc9ce0b2	-0.019150112
70	0x3cc5c1cf	0.024140267
71	0x3cd9ecda	0.026602197
72	0x3d61c75d	0.05512177
73	0x3d3d8a02	0.046274193
74	0x3cd0b317	0.025476022
75	0x3c2c46b7	0.010514907
76	0x3bef4003	0.007301332
77	0xbbe71e81	-0.007053197
78	0xbd9ab3aa	-0.075537995
79	0x3d98c03f	0.07458543
80	0x3cafea8f	0.021474151
81	0xbdbc7417	-0.0920183
82	0x3cdcd522	0.026957098
83	0xbdb93e12	-0.09045042
84	0xbd9962b1	-0.07489527
85	0xbd9de220	-0.077091455
86	0xbb9598b1	-0.0045653214
87	0x3d97b796	0.07408063
88	0x3d5c95ee	0.05385392
89	0xbdba4ef7	-0.090970926
90	0xbd6b7d0f	-0.057492312
91	0xbd278fc7	-0.0409086
92	0x3cd3824d	0.025818968
93	0xbd92ad60	-0.07161975
94	0xbd256019	-0.04037485
95	0xbd881b2a	-0.06645806
96	0x3d488989	0.04895929
97	0xbd24df44	-0.040251985
98	0x3d8cf1d4	0.068820626
99	0x3cc231a5	0.023705313
100	0xbd9358f9	-0.071947046
101	0x3dac3c02	0.08409883
102	0x3d777117	0.060410585
103	0xbd8c2482	-0.06842901
104	0x3d99c2a8	0.07507831
105	0x3d546e26	0.05186286
106	0x3d2afa37	0.04174253
107	0x3ce647cc	0.028110407
108	0xbda6048e	-0.081063375
109	0xbdb2e043	-0.08734181
110	0x3d8d0ab1	0.06886805
111	0x3c29cd5b	0.010363902
112	0xbcc4cbeb	-0.024023017
113	0xbcc9c9e7	-0.024632407
114	0x3c8215c0	0.015879512
115	0xbd85aaee	-0.06526743
116	0x3d539852	0.051658936
117	0x3d7cdf73	0.061736535
118	0x3d47fef8	0.04882714
119	0xbd61a4a2	-0.055088647
120	0x3d1bb08f	0.038010176
121	0x3d9326b1	0.07185114
122	0x3d111a17	0.03542527
123	0xbd3468fd	-0.044045437
124	0x3c8c37ec	0.01711651
125	0x3d5f68e5	0.054543395
126	0xbd09e67b	-0.03366707
127	0xbcb9a545	-0.022661814
128	0x3d039159	0.032121036
129	0x3c83bc19	0.016080903
130	0xbd029bff	-0.03188705
131	0xbd4994ba	-0.049214102
132	0xbb2993d3	-0.0025875464
133	0x3cc59f2e	0.024123754
134	0x3d047b8b	0.032344382
135	0x3da21d8b	0.07915791
136	0xbd6e4190	-0.058167994
137	0x3da218a5	0.07914857
138	0xbd8a97a4	-0.067672044
139	0xbd9d49ab	-0.07680067
140	0xbd046536	-0.032323085
141	0x3da23ce0	0.07921767
142	0x3d2b968a	0.041891612
143	0xbcb0dbc2	-0.021589164
144	0xbd863dd4	-0.065547615
145	0x3d7f1ad8	0.06228146
146	0x3d028f8a	0.03187517
147	0xbdb8da59	-0.090260215
148	0x3c6023e6	0.013680434
149	0x3d9da3da	0.07697268
150	0xbd132612	-0.03592498
151	0xbc0b5c0c	-0.008505832
152	0x3d984a15	0.07436005
153	0xbdba7dd3	-0.0910603
154	0x3cf99b1b	0.030469468
155	0x3b725180	0.0036974847
156	0x3ccd7109	0.025078313
157	0x3d7eef4d	0.062239934
158	0x3acbe0f7	0.0015554716
159	0x3da338dd	0.0796983
160	0xbd0d00ce	-0.034424596
161	0xbc792316	-0.015206119
162	0x3d2fe5c2	0.042943723
163	0xbd8bb072	-0.06820764
164	0x3ae9562a	0.0017802168
165	0x3b82f342	0.0039962837
166	0xbd65b1f3	-0.05607791
167	0xbd93aacc	-0.07210311
168	0xbd03834d	-0.03210764
169	0xbd8f7ade	-0.07005857
170	0xbd559372	-0.052142568
171	0x3cf38d33	0.029730415
172	0x3c4fd391	0.012684719
173	0x3d411f62	0.04714907
174	0x3d63d742	0.055625208
175	0xbd2d3ba2	-0.0422932
176	0x3c3903a0	0.011292368
177	0xbd104912	-0.035225935
178	0x3ba0d497	0.004908155
179	0xbd71dc8e	-0.059048228
180	0x3d7b0e5c	0.06129299
181	0x3cd30e82	0.025763754
182	0x3c9f98e1	0.019482078
183	0xbd72e655	-0.059301693
184	0x3d591f64	0.053008452
185	0xbda63bfa	-0.08116908
186	0x3ce2e6a6	0.027697872
187	0x3d027873	0.03185315
188	0xbdab517d	-0.08365152
189	0x3ca099ab	0.019604525
190	0xbda8e999	-0.0824768
191	0x3d61259b	0.054967504
192	0x3d832bd9	0.06404848
193	0xbd613838	-0.054985255
194	0xbd80da00	-0.0629158
195	0x3d2b472d	0.041815925
196	0x3c6d6aea	0.014490822
197	0x3caf0148	0.021362916
198	0x3d80dff8	0.06292719
199	0xbdb6ab6d	-0.089194156
200	0x3cd4b51f	0.025965272
201	0xbd7518a9	-0.05983797
202	0xbdba0800	-0.09083557
203	0x3c490cce	0.012271119
204	0xbd8265e4	-0.0636709
205	0xbc11c7ed	-0.008897764
206	0x3da6a8a9	0.08137638
207	0x38a39b27	7.801345e-05
208	0xbd90894a	-0.07057436
209	0xbd3280b5	-0.043579776
210	0xbdb0c7f0	-0.08631885
211	0x3c77751e	0.0151036065
212	0x3d87a8b9	0.06623978
213	0x3ce3c102	0.027801994
214	0xbcd58b82	-0.0260675
215	0x3d929bd7	0.0715863
216	0xbd90d61d	-0.07072089
217	0x3d0b92eb	0.03407566
218	0xbc711745	-0.014715021
219	0x3cc25184	0.02372051
220	0xbdb25f1e	-0.087095484
221	0xbd3d3728	-0.04619518
222	0xbd6ad6da	-0.057333805
223	0x3bb283af	0.005447827
224	0xbc662028	-0.014045753
225	0xbc1bb5a8	-0.009503759
226	0x3d91bf08	0.071165144
227	0xbca20bf5	-0.019781092
228	0x3d055f0c	0.032561347
229	0x3d937d86	0.07201676
230	0x3bedb54b	0.007254278
231	0xbc3ec73b	-0.01164418
232	0xbd3fcbb4	-0.046825126
233	0x3d6af5ec	0.057363436
234	0xbcc85747	-0.02445568
235	0xbd18312d	-0.037156273
236	0xbcfa1949	-0.030529635
237	0x3c8f69dc	0.017506532
238	0xbcc4ca8a	-0.02402236
239	0xbce6dd82	-0.028181795
240	0x3d2dc416	0.04242333
241	0x38b30218	8.535775e-05
242	0xbce0f385	-0.02745987
243	0xbce218f0	-0.027599782
244	0x3d93605d	0.07196114
245	0x3b5ad8af	0.0033393314
246	0xbdb37dd5	-0.08764235
247	0xbdbd05ab	-0.09229597
248	0xbd1c9222	-0.0382253
249	0x3dab636a	0.08368571
250	0x3d205b1e	0.039149396
251	0xbd837665	-0.06419066
252	0xbd4f1286	-0.050554775
253	0xbc7428a8	-0.014902271
254	0xbd8812cf	-0.066442125
255	0xbd7ddead	-0.06197994

node_encoder.lins.1.bias f4 [256]
0	0x3c417413	0.011807459
1	0xbd8aeb14	-0.06783119
2	0xbcec3415	-0.028833428
3	0x3ca26cf1	0.019827338
4	0xbcab953a	-0.02094518
5	0x3c0769e9	0.008264997
6	0x3d936590	0.07197106
7	0x3ce0be33	0.027434444
8	0x3ca88819	0.020572709
9	0x3da5d718	0.080976665
10	0xbc45afba	-0.012065822
11	0xbcf64f1f	-0.030067025
12	0xbb879577	-0.0041376906
13	0x3be0ffab	0.0068664155
14	0xbd4b83d5	-0.04968627
15	0x3cf92adc	0.030415945
16	0xbdaaa3d9	-0.08332033
17	0x3d60f00b	0.054916423
18	0x3d00a65d	0.031408656
19	0xbd9db99a	-0.07701416
20	0xbd1d7062	-0.038437255
21	0x3cdf76ca	0.027278323
22	0xbc91ddc0	-0.017805934
23	0x3db25609	0.08707816
24	0x3d80c69a	0.0628788
25	0x3d176377	0.03696009
26	0xbd650307	-0.05591109
27	0xbc7ae7e4	-0.015314076
28	0x3d81fc1f	0.063469164
29	0x3cb6a8a8	0.022297218
30	0xbd986894	-0.07441822
31	0xbbceb8c4	-0.006308647
32	0xbcdfef65	-0.027335832
33	0xbd7aeef0	-0.061263025
34	0xbae532ff	-0.0017486511
35	0xbd86d535	-0.06583635
36	0xbd2ce654	-0.042211846
37	0xbda76532	-0.08173598
38	0xbd80a025	-0.06280545
39	0x3d993235	0.07480279
40	0x3c53764d	0.012906623
41	0xbc3489de	-0.011019198
42	0x3d3a8ab2	0.045542426
43	0xbd8975e4	-0.06711939
44	0x3d1348a7	0.03595796
45	0x3d8947e7	0.067031674
46	0xbd94b4b9	-0.072610326
47	0xbcc5b721	-0.024135174
48	0x3ca5cc36	0.020238977
49	0x3d69bcaf	0.05706471
50	0xbd82e7c4	-0.06391862
51	0x3c855f3a	0.01628076
52	0xbdac28ee	-0.08406244
53	0xbb88e458	-0.0041776113
54	0x3d2c84d5	0.042118866
55	0x3d9b2248	0.07574898
56	0xbd71f9bf	-0.059076067
57	0xbd57a025	-0.05264296
58	0x3dc3eed3	0.095670365
59	0x3d6ab41d	0.057300676
60	0xbdba7d56	-0.09105937
61	0x3cd0eb23	0.025502747
62	0x3d1e5701	0.038657192
63	0xbcb1218e	-0.021622445
64	0xbd8f907f	-0.07009982
65	0xbd084532	-0.033269115
66	0xbd9043bd	-0.0704417
67	0x3d03a17f	0.032136437
68	0xbbed51eb	-0.0072424314
69	0xbd81849d	-0.06324122
70	0xbd839d34	-0.064264685
71	0x3d5e0754	0.054206207
72	0x3cc2b7a6	0.023769211
73	0x3de21414	0.11038986
74	0xbd03e8b8	-0.03220436
75	0xbda07ec3	-0.07836678
76	0xbd7621a9	-0.060090695
77	0xbdb56266	-0.08856659
78	0xbca2ffc8	-0.019897357
79	0x3db7a0a8	0.089661896
80	0xbd47b5a2	-0.048757203
81	0xbd336f50	-0.043807328
82	0x3d01ed52	0.031720467
83	0xbd35270d	-0.044226695
84	0x3d5a5284	0.05330135
85	0xbd8e20d4	-0.06939855
86	0xbd63c35b	-0.055606227
87	0xbd527278	-0.051378697
88	0x3dc34661	0.09534908
89	0x3d9855e5	0.07438258
90	0xbc98c078	-0.018646464
91	0xbd97ddbf	-0.074153416
92	0x3d392243	0.04519869
93	0x3c4e5f53	0.012595969
94	0xbcb6d61a	-0.022318888
95	0xbd57cd18	-0.052685827
96	0xbcbd1054	-0.023079075
97	0xbc032c3f	-0.008006155
98	0xbd9a94db	-0.07547923
99	0x3d8234b6	0.0635771
100	0x3da60501	0.08106423
101	0x3d39468e	0.0452333
102	0x3cf51699	0.029918002
103	0x3d92ef46	0.07174544
104	0x3b8c015e	0.004272624
105	0x3d323631	0.043508712
106	0xbd58f3f8	-0.05296704
107	0x3d5ed79b	0.054404836
108	0x3d530acd	0.051523972
109	0xbd99159d	-0.074748255
110	0xbcaf8b3a	-0.021428693
111	0x3d3ace18	0.045606703
112	0xbd7aaad8	-0.061198086
113	0xbd829d4c	-0.06377658
114	0x3d821358	0.06351346
115	0xbcd9de26	-0.026595186
116	0xbb164065	-0.0022926566
117	0xbd4438f4	-0.047905877
118	0xbaa7f311	-0.0012813528
119	0x3d7d3d31	0.061825935
120	0x3d8e23df	0.069404356
121	0x3dbe9dc5	0.09307436
122	0xbda9f1a7	-0.08298045
123	0xbda0474f	-0.07826101
124	0x3dbe5f19	0.09295482
125	0xbd34acbf	-0.044110056
126	0x3c24cef2	0.010059105
127	0xbd865b48	-0.06560379
128	0xbd4a80e2	-0.04943932
129	0x3cda2bc4	0.026632197
130	0xbd185c1a	-0.03719721
131	0x3c352b4f	0.011057689
132	0x3cfa41e2	0.030548993
133	0xbd9d1f59	-0.07671995
134	0xbdcdac1d	-0.10042594
135	0x3da70d82	0.08156873
136	0x3cdf5b97	0.027265353
137	0x3d8bf7a3	0.06834342
138	0x3a72c4b2	0.0009260877
139	0x3ce5e7b4	0.028064586
140	0xbd5e4344	-0.05426337
141	0x3da80e76	0.08205883
142	0x3dadc66e	0.08485113
143	0x3d99bb87	0.07506471
144	0xbd74bd39	-0.05975077
145	0x3c7b177d	0.015325424
146	0xbd9c7b3e	-0.07640694
147	0x3c82d2a5	0.015969584
148	0x3d5434c5	0.051808137
149	0x3d45a868	0.048256308
150	0xbd24ea99	-0.040262792
151	0xbd8ed35c	-0.06973907
152	0x3b28f75f	0.002578221
153	0x3d8f6ac1	0.070027836
154	0xbb86a257	-0.004108708
155	0xbd2d3cfd	-0.04229449
156	0xbd972b31	-0.07381285
157	0xbd59f6c3	-0.053213846
158	0xbc265773	-0.010152685
159	0xbcc4c9b2	-0.024021957
160	0xbcd6e210	-0.026230842
161	0x3da07eeb	0.07836708
162	0xbda5874b	-0.08082446
163	0x3c3df49c	0.011593964
164	0xbd328604	-0.04358484
165	0xbd0cabdc	-0.034343585
166	0x3d31b1e5	0.043382544
167	0x3c5909ea	0.013246993
168	0x3d78f538	0.060780734
169	0x3d63febc	0.055662856
170	0x3d29ff8d	0.041503478
171	0x3d588ee1	0.052870635
172	0x3d3b8c11	0.045787875
173	0x3bd1c1dc	0.0064012837
174	0xbd925650	-0.07145369
175	0xbbfa3c1b	-0.0076365597
176	0x3c65d97e	0.014028905
177	0x3cf78bf4	0.030218102
178	0xbda84b16	-0.082174465
179	0x3d6a8f9e	0.05726587
180	0xbd6c79bd	-0.057733286
181	0xbdbd177f	-0.09232997
182	0xbd673e9b	-0.05645619
183	0x3d8b1765	0.067915715
184	0x3d7dda1c	0.061975583
185	0xbcde2504	-0.02711726
186	0xbc6f6c61	-0.014613242
187	0x3d5fa5f9	0.054601643
188	0xbd4574e1	-0.048207168
189	0xbb5ab490	-0.0033371784
190	0xbd2eeddb	-0.042707305
191	0x3d428e58	0.04749903
192	0xbd154535	-0.036442954
193	0x3d05f212	0.03270156
194	0xbd24f9d0	-0.040277302
195	0xbd0415d2	-0.032247372
196	0xbd0ec33a	-0.03485415
197	0x3d840a58	0.064472854
198	0xbcbb3f21	-0.02285725
199	0x3c8d222f	0.017228214
200	0xbd92c62d	-0.07166705
201	0xbd805e58	-0.06267995
202	0xbd221215	-0.039568026
203	0xbd2be94b	-0.041970532
204	0x3d54b796	0.051932894
205	0xbd6f6ac6	-0.058451436
206	0xbd6849d0	-0.056711018
207	0xbca0c71d	-0.019626195
208	0xbd411879	-0.04714248
209	0x3d1de65f	0.038549777
210	0x3d6b2683	0.057409775
211	0xbc9a4d62	-0.018835727
212	0xbd1356bf	-0.0359714
213	0x3c853ded	0.01626488
214	0x3d04f933	0.032464217
215	0xbcff639f	-0.031175433
216	0xbdbc7043	-0.092011
217	0x3b8b88a2	0.0042582313
218	0x3d5cd987	0.053918388
219	0xbd76ffda	-0.060302593
220	0xbd875171	-0.066073306
221	0x3c130e89	0.008975633
222	0xbdad8420	-0.084724665
223	0x3cd196f5	0.025584677
224	0x3d9e0f2a	0.07717736
225	0xbd3bf64c	-0.045889184
226	0xbda988b4	-0.08278027
227	0xbda5b356	-0.08090846
228	0x3df48975	0.1194028
229	0x3d834566	0.06409721
230	0x3beebb01	0.007285476
231	0x3d0094ad	0.03139179
232	0xbd88b55a	-0.06675215
233	0xbd9bea2c	-0.07613024
234	0xbd200ce7	-0.039074805
235	0x3d373896	0.0447317
236	0x3d7df773	0.062003564
237	0x3dac726b	0.08420261
238	0xbda676f5	-0.08128158
239	0x3d583fd7	0.052795257
240	0x3dc1d42e	0.09464298
241	0xbcee8cff	-0.029119967
242	0x3c801a3d	0.015637511
243	0xbd5d5879	-0.054039452
244	0xbc9006a9	-0.0175813
245	0xbd8b6f78	-0.0680837
246	0x3d20ea84	0.03928615
247	0xbcfd3c63	-0.030912584
248	0x3cb21611	0.021739038
249	0xbd81041b	-0.06299611
250	0xbd2a6fac	-0.041610405
251	0x3ab2bfe7	0.0013637514
252	0xbd415b91	-0.047206465
253	0x3d2dfaaf	0.0424754
254	0xbd9d73cf	-0.07688104
255	0xbcd65674	-0.026164271

node_encoder.lins.2.weight f4 [256, 256]
0	0x3d633261	0.055467967
1	0xbd76d90c	-0.060265586
2	0x3c7cb520	0.015424043
3	0xbd4f8ab9	-0.050669406
4	0x3d4c0280	0.04980707
5	0x3c6806ab	0.014161746
6	0x3dcaa5af	0.09894883
7	0xbcb35c9b	-0.021894744
8	0xbc88bd82	-0.016691927
9	0xbd236b81	-0.039897446
10	0xbcd8b73f	-0.026454566
11	0x3cefe7be	0.029285308
12	0x3c78996f	0.0151733
13	0x3c17872c	0.009248536
14	0x3c0da1a9	0.0086445
15	0x3dbcf18b	0.09225758
16	0xbd1c50e3	-0.038163077
17	0xbcdace0d	-0.02670958
18	0x3d348854	0.044075325
19	0xbd00de9b	-0.031462293
20	0x3cbd9349	0.02314152
21	0xbd09260f	-0.03348356
22	0x3cd58b92	0.026067529
23	0xbd52e0a9	-0.051483784
24	0x3ccac5e4	0.024752565
25	0xbd94da56	-0.07268207
26	0x3bf10064	0.007354783
27	0x3c80fb24	0.015744753
28	0xbc095f4a	-0.008384535
29	0xbd3d2765	-0.046180148
30	0xbcef6b62	-0.029226009
31	0x3d4a74a7	0.049427655
32	0xbd10c813	-0.035347056
33	0x3c802b78	0.015645728
34	0x3d584511	0.05280024
35	0xbbcf10ee	-0.006319157
36	0x3d729251	0.05922157
37	0x3c95eed9	0.018302368
38	0x3d0d6b87	0.034526374
39	0x3d0a8ab0	0.03382367
40	0x3cfd2d0d	0.030905271
41	0x3cb8b374	0.022546507
42	0x3be85f0e	0.0070914095
43	0x3c23a83c	0.009988841
44	0xbd80f423	-0.062965654
45	0x3d0c95cc	0.034322545
46	0xbd2ff5b4	-0.04295893
47	0xbd77a64e	-0.060461335
48	0xbc1fa332	-0.009743499
49	0xbbcd07e6	-0.006257045
50	0x3cfb8f20	0.030707896
51	0xbbf27335	-0.0073989877
52	0xbd2b1bbb	-0.041774493
53	0xbb384b85	-0.0028121185
54	0xbc93e0dd	-0.01805156
55	0xbd1ff6a5	-0.039053578
56	0x3d09cacc	0.033640668
57	0xbc5e5277	-0.013569466
58	0x398ae877	0.0002649461
59	0xbda3a419	-0.079902835
60	0x3c759120	0.014988214
61	0xbd57526c	-0.052568838
62	0xbd63c6ad	-0.055609394
63	0xbbc673d5	-0.0060562887
64	0xbc019a34	-0.0079103
65	0xbcb7ea75	-0.022450665
66	0xba30fca8	-0.0006751516
67	0xbd4153a0	-0.04719889
68	0xbc1274e7	-0.0089390045
69	0xbd132f30	-0.035933673
70	0x3c9773e8	0.018487886
71	0xbc83bfb6	-0.016082626
72	0xbd6d21d7	-0.0578936
73	0x3d2a4865	0.041572947
74	0x3d8515c6	0.064982936
75	0x3b8a75c8	0.0042254664
76	0xbd697e1e	-0.05700504
77	0x3cb82944	0.022480614
78	0x3d6cd007	0.057815578
79	0x3cee626b	0.029099664
80	0x3d7b7078	0.061386555
81	0xbcf228c0	-0.029560447
82	0x3d35ca91	0.044382636
83	0xbca5f481	-0.02025819
84	0x3d315a28	0.04329887
85	0xbce1123d	-0.027474517
86	0xb958a5d5	-0.00020661142
87	0x3c8c53a8	0.017129734
88	0xbd044770	-0.03229469
89	0xbcf64cf8	-0.030065998
90	0xbd37504e	-0.04475432
91	0x3d406a10	0.04697615
92	0xbd1d3ca8	-0.038387924
93	0x3d0bb140	0.034104586
94	0x3d458ad9	0.04822812
95	0xbd7c3a6d	-0.061579157
96	0xbd5e5608	-0.054281265
97	0xbd5e6e48	-0.05430439
98	0x3d6ae40b	0.057346385
99	0xbc8bdae2	-0.017072145
100	0xbd20bc63	-0.03924216
101	0xbd382151	-0.044953648
102	0xbd400815	-0.046882708
103	0x3ccbb190	0.024864942
104	0xbc4ea0d5	-0.0126115875
105	0x3d5b9440	0.05360818
106	0xbd7b0092	-0.06127984
107	0x3a81bf17	0.0009898868
108	0x3c74fbb0	0.014952585
109	0x3d48650e	0.0489245
110	0x3d5607c7	0.05225351
111	0xbac92c71	-0.0015348328
112	0x3d297569	0.041371737
113	0x3cc9801e	0.024597224
114	0xbc2ace7c	-0.010425206
115	0xbce5a384	-0.028032072
116	0xbc054090	-0.008133069
117	0xbd1a81c3	-0.037721407
118	0xbd253263	-0.040331256
119	0xbc168216	-0.009186288
120	0x3dcfd035	0.10147134
121	0xbd6308d1	-0.05542833
122	0x3d24c0d6	0.040222965
123	0xbd154863	-0.036445986
124	0xbc1a5e67	-0.009421921
125	0xbd38742a	-0.045032658
126	0x3cb7d59a	0.02244072
127	0xbd5c68cf	-0.05381089
128	0x3d3a2424	0.045444623
129	0x3d133b95	0.035945494
130	0xbd2a366d	-0.04155581
131	0x3c6da3e6	0.014504408
132	0x3cb6fa81	0.022336246
133	0x3c94ff23	0.018188065
134	0x3d62e304	0.05539228
135	0x3cba9d84	0.022780187
136	0x3c06e9d2	0.008234458
137	0x3c01891c	0.007906225
138	0x3d92763c	0.07151458
139	0xbd396773	-0.045264672
140	0x3d08ac89	0.033367667
141	0xba2ef8f4	-0.000667467
142	0xbb948e9f	-0.0045336033
143	0xbc22bbc4	-0.009932462
144	0x3871c0cb	5.763843e-05
145	0xbd3d6373	-0.04623742
146	0x3d5e9425	0.0543405
147	0x3c1f9cc0	0.009741962
148	0x3cee2c5c	0.029073887
149	0xbc4c2e88	-0.012462266
150	0x3d2fbe69	0.0429062
151	0x3c84df7d	0.016219849
152	0x3cba2b65	0.02272577
153	0xbd693e13	-0.056943964
154	0xbcce7321	-0.025201382
155	0xbd66439f	-0.056216832
156	0x3cda2b2e	0.026631918
157	0xbd134275	-0.03595205
158	0xbac0ea47	-0.0014718258
159	0x3c995868	0.018718913
160	0x3cc5abc1	0.02412975
161	0x3d053b0f	0.032527026
162	0x3d65ed7e	0.056134693
163	0x3d6bbaf6	0.057551347
164	0xbd427aaa	-0.047480263
165	0xbbc95ee0	-0.006145343
166	0xbd49504f	-0.049148854
167	0x3d5d6693	0.0540529
168	0xbd72b9f1	-0.05925936
169	0xbbd8fde3	-0.0066220625
170	0xbd2136d9	-0.039358947
171	0x3c29522a	0.010334531
172	0xbd638f74	-0.05555673
173	0x3bff53e0	0.007791981
174	0x3cc9e2c0	0.024644256
175	0x3aff7195	0.0019488806
176	0xbc8df868	-0.017330363
177	0xbca31c66	-0.019911002
178	0x3ccb315a	0.024803806
179	0x3d2c234f	0.04202586
180	0xbc7b9c3b	-0.015357072
181	0xbd1bc873	-0.03803296
182	0x3d5442d4	0.051821545
183	0x3ceaedab	0.028677782
184	0xbd4d5a87	-0.05013516
185	0xbc9d2c3d	-0.019186134
186	0xbd426d2e	-0.047467403
187	0x3d1463d4	0.036228016
188	0x3d2bd703	0.041953098
189	0xbd4fd2f6	-0.050738297
190	0xbd47d22d	-0.048784424
191	0xbc869a07	-0.016430868
192	0xbbdce9a8	-0.006741721
193	0x3cd17e2b	0.025572857
194	0x3db43e2c	0.08800921
195	0x3d60753d	0.054799307
196	0xbc6a884a	-0.01431472
197	0x3cbb24d4	0.02284471
198	0x3d25f4b0	0.040516555
199	0x3d6edda9	0.05831686
200	0x3b7b5d55	0.003835519
201	0x3c9058a1	0.017620387
202	0xbc5c04cd	-0.013428879
203	0x3d480939	0.04883692
204	0x3d6aa471	0.05728573
205	0x3d24064c	0.040045068
206	0xbc7174b2	-0.014737295
207	0xb9c11a1c	-0.00036831282
208	0x3d3baa3d	0.04581665
209	0x3d25c97d	0.040475357
210	0x3c25e952	0.010126429
211	0x3d0e4744	0.034735933
212	0xbcb231e5	-0.021752307
213	0x3c8bf22b	0.017083248
214	0xbcda6321	-0.026658596
215	0xbd7994f3	-0.060933065
216	0xbc30fbea	-0.0108022485
217	0x3cffa9fe	0.031208988
218	0xbd8af0d9	-0.06784219
219	0x3c0f525e	0.008747665
220	0x3d0b6ec2	0.034041174
221	0xbd5eca0a	-0.0543919
222	0xbd4e7766	-0.050406836
223	0x3c346793	0.011011022
224	0x3ccfc46f	0.025362222
225	0xbd689ecc	-0.056792066
226	0x3d09ecd3	0.03367312
227	0x3c390837	0.0112934625
228	0xbde97237	-0.11398738
229	0xbb91acb4	-0.0044456366
230	0xbd3c0bab	-0.045909565
231	0xbd34bbc5	-0.044124383
232	0xbcdde314	-0.027085818
233	0x3d486aa2	0.048929818
234	0x3c1b093d	0.009462652
235	0x3d398e3c	0.04530166
236	0x3d2932a9	0.04130808
237	0x3d2f408c	0.042786166
238	0xbc3b1599	-0.0114187235
239	0x3cfe43d2	0.031038199
240	0x3dbab979	0.09117407
241	0x3d4a3f85	0.049376983
242	0xbd148d5e	-0.03626763
243	0xbcaaaf04	-0.020835407
244	0xbccc993c	-0.024975412
245	0x3cf61a56	0.030041855
246	0x3d7bf941	0.061517004
247	0x3cbc791c	0.023006968
248	0x3d3d82f2	0.046267457
249	0x3cc13956	0.02358691
250	0xbd52daa5	-0.051478047
251	0x3c0f4d60	0.008746475
252	0xbca981e9	-0.020691829
253	0x3c5b3596	0.013379475
254	0x3d44a46e	0.048008375
255	0xbd4255a0	-0.04744494

node_encoder.lins.2.bias f4 [256]
0	0xbb5c5a40	-0.003362313
1	0x3d556eb8	0.052107543
2	0xbd2e9845	-0.042625684
3	0x3c477ed6	0.012176236
4	0x3cb558a9	0.022137003
5	0xbcb0f254	-0.021599926
6	0x3ca731b5	0.020409444
7	0xbd49ccbd	-0.04926752
8	0x3d0ebaef	0.034846243
9	0x3c27a81b	0.010232951
10	0x3d41ac62	0.047283538
11	0xbbec3ca9	-0.0072093797
12	0x3d6844cd	0.05670624
13	0xbaa577f9	-0.0012624256
14	0xbcbba119	-0.022903966
15	0x3d16a812	0.036781378
16	0x3d5aa0bf	0.053375956
17	0xbd057426	-0.03258147
18	0xbc30f067	-0.010799504
19	0x3cad0757	0.021121664
20	0xbd2e59e8	-0.04256621
21	0x3d445065	0.047928233
22	0x3b6bbe8e	0.0035971734
23	0xbc2bee36	-0.010493806
24	0x3d179f1e	0.03701698
25	0x3d5cf460	0.05394399
26	0xbd8254c1	-0.06363822
27	0x3cec40bd	0.028839463
28	0x3d19e439	0.037571166
29	0x3d276c24	0.040874615
30	0xbd60bf34	-0.054869846
31	0xbcac9ec9	-0.021071808
32	0xbd5c4658	-0.053778023
33	0xbcabe66c	-0.020983897
34	0x3ce192d6	0.027535837
35	0x3c541b1f	0.012945919
36	0x3c5db299	0.0135313505
37	0xbc09c0d2	-0.008407788
38	0xbd498f0e	-0.049208693
39	0x3ba34047	0.0049820277
40	0x3cd79592	0.026316438
41	0xbcc59076	-0.024116736
42	0xbd1b24c0	-0.037876844
43	0xbce103a4	-0.027467556
44	0x3d321033	0.04347248
45	0xbd733508	-0.059376746
46	0xbd6f3573	-0.058400583
47	0xbcaa74d3	-0.02080766
48	0x3c14ccc1	0.00908202
49	0x3bc071a4	0.005872922
50	0xbd5ea493	-0.05435617
51	0x3d581401	0.052753452
52	0xbd24a502	-0.040196426
53	0xbbc54bbc	-0.006020991
54	0xbcccaaef	-0.024983851
55	0xbd6ba2a6	-0.05752816
56	0xbd6ccfec	-0.057815477
57	0x3ccc4f63	0.024940198
58	0xbd512f73	-0.05107064
59	0x3d2e1db9	0.042508814
60	0xbce0302d	-0.027366722
61	0xbd8b783e	-0.06810044
62	0xbd44daf8	-0.048060387
63	0x3ca111b0	0.019661754
64	0x3d0d37ae	0.03447693
65	0x3cb63473	0.022241807
66	0x3ad4a2ce	0.0016222836
67	0x3bbeea56	0.005826275
68	0xbd394e00	-0.045240402
69	0xbd0401f6	-0.032228433
70	0xbd005be2	-0.031337626
71	0x3d743bb7	0.05962726
72	0x3d393924	0.04522051
73	0xbcd1b832	-0.025600526
74	0x3d46c865	0.048530955
75	0xbbd45148	-0.006479416
76	0xbd1d18a5	-0.03835358
77	0xbd3253a0	-0.043536782
78	0xbd1b92fb	-0.03798197
79	0xbd019865	-0.031639475
80	0xbcb4df27	-0.022079064
81	0x3d7ff2d9	0.062487457
82	0xbd27ddae	-0.040982895
83	0xbd1e5e17	-0.03866395
84	0xbd436607	-0.047704723
85	0x3c79a64d	0.015237403
86	0xbc7ea53e	-0.0155423265
87	0x3ae16611	0.0017196556
88	0xbcdd0d46	-0.026983868
89	0x3d02ed9d	0.031964887
90	0xb9e6c085	-0.00044012457
91	0x3d0a3133	0.033738326
92	0x3ca0056d	0.019533837
93	0xbd8195d2	-0.06327404
94	0x3ce37a06	0.027768146
95	0xbc52a790	-0.012857333
96	0xbd176686	-0.03696301
97	0x3d1302fd	0.03589152
98	0xbd7042f7	-0.058657613
99	0xbd3cd360	-0.04610002
100	0xbd6e8806	-0.05823519
101	0xbc13188a	-0.008978019
102	0x3d26a911	0.040688578
103	0x3d170198	0.036866754
104	0xbd6cffa1	-0.057860974
105	0x3cde69e8	0.02715011
106	0x3d28dc6f	0.041225847
107	0xbb3aed4d	-0.002852279
108	0x3cddff48	0.027099267
109	0xbc16b7f2	-0.009199129
110	0xbcbe3d66	-0.023222636
111	0x3c569108	0.013096102
112	0xbcadf51d	-0.021235043
113	0x3d7ef7c0	0.06224799
114	0x3d44d118	0.04805097
115	0x3d325540	0.043538332
116	0x3b84dd69	0.0040547145
117	0x3ba406d6	0.0050056977
118	0xbb94c0f7	-0.0045396048
119	0x3d272610	0.040807784
120	0xbd7b517a	-0.061357
121	0xbc01b102	-0.007915737
122	0x3cb05c59	0.02152841
123	0xbcc354ac	-0.023844086
124	0x3ca99fec	0.02070614
125	0xbd47c515	-0.048771936
126	0x3d05852a	0.0325977
127	0x3d3beac8	0.0458782
128	0xbd4b7a14	-0.04967697
129	0xbc1eed39	-0.009700113
130	0x3cff04d8	0.03113024
131	0x3d3f5963	0.046716105
132	0x3cadc374	0.021211363
133	0xbc832aa1	-0.016011538
134	0x3c9f72bc	0.01946389
135	0x3d62f3f1	0.055408422
136	0x3cfbdb93	0.03074435
137	0x3d798d44	0.060925737
138	0xbc5f2e1f	-0.013621836
139	0x3d81d214	0.06338897
140	0x3c6116b3	0.013738322
141	0xbc83c145	-0.016083369
142	0x3d352c5e	0.044231765
143	0xbc873b1b	-0.016507676
144	0x3c25480b	0.010087977
145	0xbc061560	-0.008183807
146	0xbb87c3d7	-0.004143219
147	0xbc15db1e	-0.00914648
148	0x3d63ab77	0.055583443
149	0x3c01d7f1	0.00792502
150	0xbcec1401	-0.028818132
151	0xbcc67e1b	-0.024230054
152	0xbcff896f	-0.031193463
153	0x3b2877e7	0.0025706233
154	0x3c973971	0.018460007
155	0x3d52352a	0.051320232
156	0x3d492845	0.04911067
157	0xbcb1032e	-0.021607962
158	0x3d13d358	0.036090225
159	0x3be82bba	0.0070852907
160	0x3bb59e6d	0.0055425675
161	0xbbdedb2f	-0.006801031
162	0xbd32395e	-0.04351174
163	0xbc2329c2	-0.009958686
164	0xbc098469	-0.008393385
165	0x3d72d6be	0.059286825
166	0x3d044b35	0.032298286
167	0x3d6f5497	0.05843028
168	0xbc128734	-0.008943368
169	0xbd787cb1	-0.06066579
170	0x3ce91672	0.028453086
171	0x3d09cd80	0.033643246
172	0xbc7d06f4	-0.015443552
173	0x3d4da98f	0.05021053
174	0x3bbebe24	0.0058210064
175	0xbd5664e9	-0.05234233
176	0x3c6a42e2	0.014298173
177	0xbbc19c75	-0.0059085437
178	0xbd285759	-0.041098926
179	0x3d8e8662	0.06959225
180	0x3c9d219e	0.019181069
181	0xbc6507d8	-0.013978921
182	0xbd54e4fa	-0.05197618
183	0xbc9999ef	-0.01875016
184	0x3c31fbea	0.010863284
185	0x3c0f5109	0.008747348
186	0xbc98b38b	-0.0186403
187	0x3cb8bc11	0.022550615
188	0x3d151f6d	0.036406923
189	0x3c110cbd	0.008853135
190	0x3d2cef1d	0.042220224
191	0x3cdbd4df	0.026834903
192	0xbd67dd47	-0.05660751
193	0xbb8c0937	-0.0042735594
194	0x3c1286ce	0.008943273
195	0x3c77c77d	0.015123245
196	0x3cd13a66	0.025540542
197	0xbd3c02f0	-0.04590124
198	0x3d18e99a	0.037332155
199	0x3cf410ae	0.02979311
200	0x3d29d7e3	0.04146565
201	0x3c9c2d5e	0.019064602
202	0xbd83e43a	-0.06440015
203	0x3d356955	0.044289906
204	0xbd25e116	-0.04049786
205	0x3bb79583	0.00560254
206	0xbcc703f1	-0.024293872
207	0x3ce22fb2	0.027610634
208	0x3d3c5317	0.04597768
209	0xbd2b9893	-0.041893553
210	0xbc37355d	-0.011182156
211	0x3d22e7c3	0.039771806
212	0x3d514609	0.05109218
213	0xbd3a9e50	-0.045561135
214	0xbc963dab	-0.018339952
215	0x3d67268d	0.05643325
216	0xbbee506d	-0.007272771
217	0x3b9704eb	0.0046087406
218	0xbc9caff1	-0.019126864
219	0xbcea79fd	-0.028622622
220	0x3c08e5db	0.008355583
221	0xbd5c07b2	-0.053718276
222	0x3c2073aa	0.009793201
223	0xbb1c6e76	-0.002386955
224	0x3c898c73	0.016790604
225	0x3d500ef3	0.050795507
226	0xbd0826d8	-0.03324017
227	0xbd43592d	-0.047692467
228	0xbd21f79c	-0.03954278
229	0x3d399e05	0.045316715
230	0xbd49b69c	-0.049246415
231	0x3c3407c0	0.010988176
232	0xbd0c6d0d	-0.034283686
233	0xbd474aeb	-0.04865543
234	0xbd1f6e8e	-0.038923793
235	0x3d10a9aa	0.035318054
236	0x3d3c3f80	0.045958996
237	0xbd2b7f2b	-0.041869324
238	0x3d6ecf09	0.058302913
239	0x3b991de1	0.0046727513
240	0xbd62baa6	-0.055353783
241	0xbd61eec8	-0.05515936
242	0x3d1ee1ae	0.038789444
243	0xbd249e3e	-0.040189974
244	0xbd559539	-0.052144263
245	0xbcb8371b	-0.022487214
246	0xbc8c7d86	-0.017149698
247	0xbd3ce8a3	-0.046120297
248	0x3ba5f426	0.005064505
249	0xbd015820	-0.031578183
250	0xbcb371e6	-0.021904897
251	0xbd64158b	-0.055684607
252	0x3cbb528f	0.022866515
253	0x3d37a2e6	0.044833086
254	0xbd22e144	-0.03976561
255	0xbb549bde	-0.0032441537

output.0.weight f4 [128, 256]
0	0x3cf69527	0.030100418
1	0xbcb2722a	-0.021782953
2	0x3d60aeb2	0.054854102
3	0xbd5d5152	-0.05403263
4	0x3cc07071	0.023491116
5	0xbd07f5a5	-0.03319325
6	0x3d6bcb06	0.057566665
7	0x3c2c58e2	0.010519238
8	0x3d68c298	0.056826204
9	0xbbf963a4	-0.007610755
10	0x3d2cba6e	0.04216998
11	0x3d58a5ca	0.052892484
12	0x3cdbe4d8	0.02684252
13	0xbd16c773	-0.036811303
14	0xbd3501bb	-0.044191103
15	0xbd1197dc	-0.035545215
16	0xbd22b101	-0.039719585
17	0x3d34481b	0.044014078
18	0x3d4bf355	0.049792606
19	0xbd21b62e	-0.03948038
20	0x3cde0904	0.027103908
21	0xbd5f3e90	-0.054503024
22	0x3d1e2ce7	0.03861704
23	0x3cab1d56	0.020888012
24	0xbd1d8cf6	-0.03846451
25	0xbbdb08c2	-0.0066843936
26	0xbb78b23f	-0.003794804
27	0x3c8deda7	0.017325236
28	0xbd0bf7bc	-0.034171805
29	0xbbbb9ce8	-0.005725492
30	0xba934fb2	-0.0011238961
31	0x3c3e4cbf	0.011614977
32	0x3d57456e	0.052556448
33	0x3cda296e	0.026631083
34	0xbd53cf65	-0.05171146
35	0xbc1819cd	-0.009283495
36	0x3d1355fd	0.035970677
37	0x3d12ee72	0.03587193
38	0xbd5d4f6f	-0.054030832
39	0x3d7f8a62	0.06238783
40	0x3c87acf6	0.016561966
41	0x3d49a5d9	0.04923043
42	0x3ba32365	0.0049785846
43	0xbce015f1	-0.027354212
44	0xbd5548b6	-0.052071296
45	0x3d6ba52c	0.057530567
46	0x3d729825	0.059227128
47	0x3c965d59	0.018355059
48	0xba1029da	-0.00054994004
49	0xbcb24fa9	-0.0217665
50	0xbd25f339	-0.04051516
51	0x3cfdf09e	0.030998524
52	0x3d5f288f	0.05448204
53	0xbc1be1ff	-0.009514331
54	0xbcb40737	-0.021976097
55	0x3d00ba85	0.03142788
56	0xbd7871a6	-0.06065526
57	0x3d1fb9db	0.038995605
58	0x3d13fe46	0.036131166
59	0xbd198c5a	-0.037487365
60	0x3ca15ec9	0.019698517
61	0xbd2be32a	-0.041964687
62	0x3d1dde72	0.03854222
63	0xbccf1af0	-0.0252814
64	0x3d48bf2b	0.049010437
65	0xbc30cfe5	-0.010791753
66	0xbd7ab16f	-0.06120437
67	0xbc27eaf3	-0.010248887
68	0xbd2f486a	-0.04279367
69	0xbd3afeae	-0.045653038
70	0xbcc3f6ff	-0.023921488
71	0xbc9c486e	-0.019077506
72	0xbca63bdf	-0.02029222
73	0x3d4ac5b4	0.04950495
74	0x3d452fed	0.04814141
75	0xbcaec06a	-0.021331985
76	0x3d6fd04e	0.058548264
77	0xbc2cd1b7	-0.010548047
78	0x3d5616b4	0.052267745
79	0xbc84afd0	-0.016197115
80	0x3d1712d0	0.036883175
81	0x3d17d826	0.03707137
82	0xbd48642f	-0.048923668
83	0xbd131a55	-0.035913784
84	0xbd5a612f	-0.053315338
85	0x3d5c4340	0.053775072
86	0xbc851cde	-0.016249117
87	0xbd285010	-0.04109198
88	0x3d421ef4	0.0473928
89	0x3c7067b3	0.014673161
90	0x3c2ad1e2	0.0104260165
91	0x3c84e76d	0.016223634
92	0x3d3e70e2	0.046494372
93	0x3d821281	0.063511856
94	0x3d292a00	0.04129982
95	0x3cce29bc	0.025166385
96	0x3ccae4dd	0.024767334
97	0x3cbb8b0b	0.02289345
98	0xbd44a101	-0.048005108
99	0x3c0355a3	0.008016023
100	0x3cb52e55	0.02211682
101	0xbd01c5b5	-0.03168269
102	0x3cc1cba5	0.023656676
103	0x3cf162c6	0.029466044
104	0x3d0e51ba	0.03474591
105	0x3d791ec1	0.060820345
106	0xbd5d382a	-0.05400864
107	0xbc0a7195	-0.008449932
108	0x3d0eed47	0.034894254
109	0x3d1cd44f	0.03828841
110	0xbd717adf	-0.05895507
111	0x3d67472a	0.05646435
112	0xbd683beb	-0.056697767
113	0xbd528589	-0.05139688
114	0x3d070c7a	0.032970883
115	0x3cd91a6d	0.026501859
116	0x3d445420	0.04793179
117	0x3c93a5ca	0.01802339
118	0x3d7fbb85	0.062434692
119	0x3bd27566	0.0064226864
120	0x3bd3ee3c	0.0064676087
121	0x3d8792ba	0.06619783
122	0xbc9277d5	-0.017879406
123	0xbd48de8b	-0.04904036
124	0xbd0a414c	-0.03375368
125	0xbca9f7e3	-0.020748084
126	0x3c6a78e1	0.014311046
127	0xbcf6c2ff	-0.030122278
128	0xbd5d5af2	-0.05404181
129	0x3d66c5dc	0.056341037
130	0x3c154930	0.009111688
131	0xbd4d8b1a	-0.050181486
132	0xbd14f6b3	-0.036368083
133	0x3d63777a	0.055533864
134	0xbd04152d	-0.032246757
135	0xbc32ff4a	-0.0109251235
136	0x3ce5985f	0.028026758
137	0x3cd09acc	0.025464438
138	0xbc84a80e	-0.016193416
139	0xbd819201	-0.06326676
140	0x3c8da91d	0.017292554
141	0xbd3d07e9	-0.04615012
142	0xbd71aa94	-0.059000567
143	0x3c1d2050	0.009590223
144	0xbc945fb5	-0.018112043
145	0x3d2137d8	0.039359897
146	0x3c933e4a	0.017974038
147	0xbc80616e	-0.015671458
148	0x3d100478	0.03516051
149	0x3ccc4c72	0.024938796
150	0xbd47f157	-0.048814144
151	0x3ca38815	0.01996235
152	0xbc9ce260	-0.019150913
153	0x3d85a1b5	0.06524984
154	0xbd31c098	-0.043396562
155	0x3d26ecec	0.04075329
156	0x3d22d5b8	0.0397546
157	0xbcdefd48	-0.027220383
158	0xbc247c9a	-0.010039473
159	0x3d2a6bb0	0.041606605
160	0xbc7603b1	-0.015015529
161	0x3ccb07bb	0.02478396
162	0x3ba781bc	0.005111901
163	0x3d0d5843	0.034508
164	0x3d67c35c	0.056582794
165	0x3d3f5f4c	0.04672174
166	0xbc367c8a	-0.011138091
167	0xbbadf81a	-0.005309117
168	0xbce255ba	-0.027628768
169	0xbcbe6609	-0.023242014
170	0x3d85440d	0.0650712
171	0xbc33b85c	-0.010969248
172	0xbaae18bf	-0.0013282521
173	0x3c4c99b8	0.012487821
174	0xbc2c72a4	-0.010525379
175	0xbac3abfc	-0.0014928575
176	0xba9edbbe	-0.0012119932
177	0x3d560bb0	0.05225724
178	0xbd80c58f	-0.06287681
179	0xbd6d8bf7	-0.05799481
180	0x3d156aae	0.03647869
181	0x3bd80422	0.0065922895
182	0x3cacf42e	0.021112528
183	0xbd519f46	-0.051177286
184	0x3c17d378	0.009266727
185	0xbc0ec9fd	-0.00871515
186	0xbb5c72bc	-0.0033637723
187	0x3d29ad11	0.041424815
188	0xbb0d74ac	-0.0021584434
189	0x3d6b9900	0.05751896
190	0x3d12e987	0.03586724
191	0xbd265263	-0.040605914
192	0x3d6e6a25	0.058206696
193	0xbd474ee3	-0.048659217
194	0xbd0d8590	-0.034551203
195	0x3d3c32f3	0.045947026
196	0x3cf1a327	0.029496742
197	0x3d7a087d	0.06104325
198	0x3c85d606	0.016337406
199	0xbd56aa2c	-0.052408382
200	0x3bbcab38	0.0057577156
201	0x3d354e93	0.044264387
202	0x3d674e2d	0.05647104
203	0xbaae162f	-0.0013281758
204	0x3d3aacf3	0.045575093
205	0xbc875f15	-0.01652483
206	0x3cf1826a	0.029481132
207	0xbd2a82f9	-0.04162881
208	0x3cafe015	0.021469155
209	0xbc05bcfb	-0.008162732
210	0x3d65ea07	0.05613139
211	0xbd4c5215	-0.049882967
212	0xbd22f3a8	-0.03978315
213	0x3d134b37	0.035960402
214	0x3cdbe8d7	0.026844425
215	0x3c1b6b5a	0.009486044
216	0x3cff0f2e	0.031135168
217	0x3d050e1d	0.032484163
218	0x3ce879cc	0.02837839
219	0x3c97459b	0.018465808
220	0x3cb8083b	0.022464862
221	0xbd59786f	-0.05309337
222	0x3cce1c89	0.025160091
223	0x3d4fceac	0.050734207
224	0xbc8aa1f4	-0.016922928
225	0x3a64ebc2	0.00087326404
226	0x3c267c68	0.010161497
227	0xbbbcc6fa	-0.0057610245
228	0x3abd7760	0.0014455132
229	0xbd36eed8	-0.044661373
230	0xbcf8aab6	-0.030354839
231	0x3bd9d59a	0.0066477777
232	0x3a5bc17c	0.00083830184
233	0xbd3aae9b	-0.045576673
234	0xbd3a7f2e	-0.045531444
235	0xbd180cfa	-0.03712175
236	0xbb4102eb	-0.0029451202
237	0xbd7b97ba	-0.061423995
238	0x3cd6bbc5	0.026212582
239	0x3c2cf07a	0.010555381
240	0x3d7e1c3a	0.062038638
241	0xbcfb44d6	-0.030672472
242	0xb9bc6014	-0.00035929738
243	0x3d62ac69	0.055340204
244	0xbd060354	-0.032718018
245	0x3c7f467b	0.015580769
246	0xbc46b6ef	-0.012128576
247	0x3ce17ee5	0.027526328
248	0xbd084b0f	-0.033274706
249	0xbceaba33	-0.02865324
250	0x3bf3ae5f	0.007436558
251	0x3d145813	0.036216807
252	0xbc5fdfd7	-0.013664207
253	0xbd8acdc0	-0.06777525
254	0x3c8e057e	0.017336603
255	0x3d7b35b1	0.0613305

output.0.bias f4 [128]
0	0x3ce8cf29	0.028419094
1	0xbd71e679	-0.059057686
2	0x3aa5f5f4	0.0012661801
3	0xbd1c0675	-0.038092095
4	0xbd62a30f	-0.055331286
5	0xba16475c	-0.0005732679
6	0x3dee6cea	0.116418675
7	0xbd79e014	-0.061004713
8	0xbd1a4aa8	-0.037668854
9	0xbd3d19cf	-0.04616719
10	0xbe37158a	-0.1787931
11	0xbd4636ae	-0.04839199
12	0xbe882aef	-0.26595256
13	0x3d25034c	0.040286347
14	0x3e4da55d	0.20082612
15	0x3d44c881	0.048042778
16	0x3d7214ec	0.059101984
17	0x3c6cd2ee	0.014454586
18	0xbcff15c6	-0.031138312
19	0xbd64b98a	-0.055841006
20	0xbcfd4555	-0.03091685
21	0x3b3ad58c	0.0028508632
22	0x3d56704b	0.052353185
23	0x3c7f4779	0.015581005
24	0xbcdbbca2	-0.026823346
25	0x3cf680ad	0.030090654
26	0xbca9c35f	-0.020723043
27	0x3d329c5c	0.043606147
28	0x3ba56c50	0.0050483122
29	0xbd80ccec	-0.06289086
30	0x3b3d3cda	0.0028875382
31	0x3bbd28ae	0.0057726717
32	0x3944d9a0	0.00018773088
33	0xbbe814ca	-0.0070825564
34	0x3cb05ca4	0.02152855
35	0xbd28b77c	-0.04119061
36	0x3c246648	0.010034151
37	0xbd0ba171	-0.03408951
38	0x39583c0f	0.00020621739
39	0x3c2915d1	0.010320143
40	0x3cd15477	0.025552971
41	0xbd28ac3d	-0.041179884
42	0xbd7ade89	-0.061247382
43	0x3cfce93f	0.03087294
44	0xbc0bd903	-0.008535626
45	0xbd1136ed	-0.035452772
46	0x3cb192a6	0.021676373
47	0x3c894444	0.016756184
48	0xbd0d3847	-0.0344775
49	0x3cce5c9b	0.025190642
50	0x3cf8d9a4	0.030377217
51	0x3b637bfb	0.003471135
52	0x3c5b76e7	0.013395048
53	0x3d6acc6f	0.05732387
54	0xbc0efa9c	-0.008726742
55	0x3cbf7576	0.02337144
56	0xbd737fe9	-0.059448157
57	0x3d0d4aeb	0.034495275
58	0x3d09e242	0.033663042
59	0xbc87c839	-0.016574966
60	0x3c285229	0.010273495
61	0x3b63289a	0.0034661652
62	0xbb1d998d	-0.0024047822
63	0x3dca07fa	0.09864803
64	0x3dc1aae4	0.09456423
65	0xbd736411	-0.059421603
66	0xbd0c12e5	-0.034197707
67	0xbcca28f9	-0.02467774
68	0xbd635b7c	-0.05550717
69	0xbd8a3827	-0.067489915
70	0x3ccbfad5	0.02489988
71	0xbbd3011c	-0.006439341
72	0x3cdf8754	0.02728621
73	0xbd3d0f56	-0.046157204
74	0xbb841907	-0.004031304
75	0x3d7109a8	0.0588471
76	0x3ced63d3	0.028978264
77	0xbd34fe5f	-0.0441879
78	0x3ce6e666	0.028186034
79	0x3c002e98	0.007823609
80	0xbc2ed92e	-0.010671897
81	0x3d00e6e9	0.031470213
82	0x3d4e66af	0.050390895
83	0xbcd03c62	-0.025419418
84	0x3e01f246	0.12690076
85	0xbcdf5560	-0.02726239
86	0x3ca343ee	0.019929852
87	0x3bc48840	0.0059976876
88	0x3d3422eb	0.043978613
89	0xbd8911ab	-0.06692823
90	0x3becdc02	0.0072283754
91	0x3d30a695	0.043127615
92	0xbd97693f	-0.07393121
93	0xbcc19436	-0.023630243
94	0xbd69a12d	-0.057038475
95	0xbcddeb2e	-0.027089681
96	0x3cda1987	0.0266235
97	0x3b9ef664	0.0048511494
98	0x3d186d51	0.037213627
99	0xbcb5c3f4	-0.022188164
100	0xbd19b077	-0.037521806
101	0xbc9e6b75	-0.019338349
102	0x3c8164c9	0.015795128
103	0x3b9f2b6a	0.0048574703
104	0xbd784fff	-0.060623165
105	0x3b9b1e9f	0.004733875
106	0xbc147a5d	-0.009062377
107	0xbd4d5699	-0.050131414
108	0x3e7915d1	0.24324729
109	0x3eb75473	0.35806617
110	0xbc3d644b	-0.011559556
111	0x3d2e81fa	0.042604424
112	0x3d142aac	0.036173508
113	0xbd256142	-0.040375955
114	0xbdafd980	-0.08586407
115	0x3bc61398	0.006044816
116	0x3d4bc784	0.04975082
117	0xbcc856d3	-0.024455464
118	0xbb05b161	-0.0020399916
119	0xbd0f4bd9	-0.034984443
120	0xbcee5045	-0.02909101
121	0x3d5d3054	0.054001167
122	0x3bf247f2	0.0073938305
123	0xbc347b9e	-0.011015801
124	0x3d43b4d6	0.04777988
125	0x3bbe9fe0	0.0058173984
126	0xbd478f2b	-0.04872052
127	0xbcd20aaa	-0.02563985
